output/FF-L-MoME/ts_encoder_epoch6.pt (torch, 433260 bytes, 34 tensors)

proj.weight f4 [32, 8]
0	0x3bb0c5eb	0.0053946874
1	0xbe82ab58	-0.2552135
2	0xbe6fd6f0	-0.23421836
3	0xbe6c4ff8	-0.2307738
4	0x3e30c708	0.17263424
5	0xbe8502dc	-0.25978744
6	0xbce314f9	-0.027719961
7	0x3e8e0fed	0.27746525
8	0xbeb0a302	-0.34499365
9	0x3e73f56a	0.23824087
10	0x3ea20e0d	0.31651345
11	0x3e1aa5eb	0.15102355
12	0x3d50cd3b	0.050976973
13	0x3eadf90a	0.33979064
14	0x3e8c91f4	0.27455103
15	0x3e97e7fb	0.29669175
16	0xbdee0506	-0.11622052
17	0x3e0b6630	0.136132
18	0x3d73dd35	0.05953713
19	0xbe9e0eae	-0.30870575
20	0xbe938a95	-0.28816667
21	0xbea15562	-0.31510454
22	0xbd911b06	-0.070852324
23	0x3c477126	0.012172973
24	0x3e1cb62b	0.15303867
25	0xbe71c987	-0.23612033
26	0x3b8ff996	0.0043937666
27	0x3e568fbb	0.20953266
28	0xbe953066	-0.29138488
29	0x3e9b03dc	0.30276382
30	0xbd9da2fa	-0.07697101
31	0xbe822c18	-0.25424266
32	0xbd0c965a	-0.034323074
33	0xbd236ab9	-0.0398967
34	0x3ea00039	0.3125017
35	0x3e1433a0	0.14472818
36	0x3e5f6dae	0.21819183
37	0x3e86bcb6	0.2631585
38	0xbe654f27	-0.22393475
39	0xbe2abc7f	-0.16673468
40	0xbe7b268f	-0.24526428
41	0xbe2fc7e6	-0.17166099
42	0xbe7452b7	-0.23859678
43	0x3d6d510f	0.05793863
44	0xbeb68c31	-0.35653833
45	0x3e8dcea5	0.2769672
46	0xbeafc14a	-0.34327155
47	0x3e50a8ed	0.2037694
48	0xbeaf2553	-0.34208164
49	0x3e399ba5	0.1812578
50	0xbe38589f	-0.18002556
51	0x3d97db00	0.07414818
52	0x3ea2986a	0.31756908
53	0xbe036405	-0.12831123
54	0xbc04dc87	-0.008109218
55	0xbd6dd585	-0.058064956
56	0xbeb1883a	-0.34674245
57	0x3e8e6205	0.27809158
58	0xbda0e7b3	-0.07856693
59	0xbdb35a17	-0.08757418
60	0xbe19e682	-0.15029338
61	0x3e22ee51	0.15911223
62	0xbe44b0ca	-0.19208065
63	0xbe418a33	-0.18900375
64	0x3e921bc6	0.28536814
65	0xbe8c3353	-0.27382907
66	0xbeaf294e	-0.342112
67	0x3db9c6c8	0.09071118
68	0xbe091b21	-0.13389255
69	0xbe31b625	-0.17354639
70	0xbd7bd405	-0.061481494
71	0x3e9d82f7	0.3076398
72	0x3dc45f78	0.09588522
73	0xbea35af3	-0.31905326
74	0x3e115765	0.14193495
75	0xbeb10d4e	-0.34580463
76	0x3dd9d026	0.10635404
77	0x3d29831a	0.041384794
78	0xbe96f0f5	-0.2948071
79	0x3e33b5bc	0.17549795
80	0x3d9eb972	0.07750215
81	0x3ea4beaa	0.32176715
82	0xbde235e7	-0.11045437
83	0x3e696b96	0.22794947
84	0x3d5f77a4	0.054557458
85	0x3eb9337f	0.361721
86	0xbe9ace50	-0.3023553
87	0x3e73ab69	0.23795857
88	0xbe1d04b6	-0.15333828
89	0xbe7e8292	-0.24854496
90	0xbe84b9b4	-0.2592293
91	0x3deccb6c	0.11562237
92	0x3e08472b	0.13308398
93	0x3c0c6417	0.008568785
94	0xbb6b28cc	-0.003588247
95	0xbe0b5eee	-0.13610432
96	0x3ea18f47	0.31554624
97	0x3d4a6a06	0.049417518
98	0x3e19f96a	0.1503655
99	0xbe283429	-0.16426148
100	0xbe9e6b5e	-0.3094129
101	0xbe8ed488	-0.27896523
102	0x3e935a16	0.28779668
103	0xbdd3630d	-0.10321627
104	0x3c590af5	0.013247241
105	0xbeb54bb4	-0.3540932
106	0x3d8a7b5a	0.06761809
107	0xbdb6d6fa	-0.08927722
108	0xbd25cf51	-0.040480915
109	0x3c1586d8	0.009126388
110	0x3e848b6a	0.25887614
111	0xbd93b504	-0.0721226
112	0xbe5e63b5	-0.21717723
113	0x3ea188d8	0.31549716
114	0x3eb5906c	0.35461748
115	0x3eaf9923	0.34296522
116	0xbe98dc36	-0.29855508
117	0xbd238b25	-0.03992762
118	0xbe45d86e	-0.19320843
119	0x3e4e8b13	0.2017024
120	0xbb919ca1	-0.0044437204
121	0x3e04a8ef	0.12955068
122	0x3ea955e6	0.33073348
123	0x3e8955bd	0.26823226
124	0xbd95a87e	-0.07307528
125	0x3e83c966	0.25739592
126	0x3e8eacc6	0.2786619
127	0xbe2df545	-0.16988094
128	0x3c5d6c70	0.013514623
129	0xbe869adf	-0.26290032
130	0xbe10f348	-0.14155304
131	0x3e0f92b8	0.14020813
132	0x3b7391af	0.0037165692
133	0x3ea10766	0.31450957
134	0x3eaa5cc8	0.3327391
135	0xbdd6e7ee	-0.10493456
136	0xbdea5bf0	-0.11443317
137	0xbe80a547	-0.25126097
138	0xbbd70d79	-0.0065628854
139	0x3d612b1a	0.054972745
140	0x3e0787ec	0.13235444
141	0x3e0d0d74	0.13774663
142	0x3dd45a3d	0.10368774
143	0xbd98232b	-0.07428583
144	0xbdbe9b2c	-0.093069404
145	0xbe57a30d	-0.21058293
146	0xbe5e8480	-0.21730232
147	0xbea4c7d9	-0.32183722
148	0xbe8b8b09	-0.27254513
149	0xbe500bd6	-0.20317015
150	0x3e376a3e	0.17911622
151	0xbd06f655	-0.032949764
152	0xbe493d08	-0.19652188
153	0xbe45e0f1	-0.1932409
154	0x3ea440d2	0.32080704
155	0xbd91649d	-0.070992686
156	0xbd611e29	-0.054960404
157	0xbeb79771	-0.35857728
158	0xbe98c705	-0.2983934
159	0xbe7d2415	-0.24720795
160	0xbdb7b5ab	-0.08970197
161	0x3d265117	0.040604677
162	0x3eb21ba6	0.3478672
163	0xbe2ae5a5	-0.16689165
164	0xbcc77afc	-0.024350636
165	0xbdd52802	-0.104080215
166	0xbea1dbf3	-0.3161312
167	0x3e13838e	0.14405653
168	0x3e91b3f4	0.28457606
169	0x3bb6e289	0.0055812043
170	0x3cb87f0e	0.022521522
171	0xbe8c7811	-0.27435353
172	0x3e4267d9	0.18984927
173	0xbe042cfe	-0.12907788
174	0xbe08af3f	-0.13348101
175	0xbe8b6e1b	-0.2723244
176	0x3e665f0a	0.22497192
177	0xbe790737	-0.24319158
178	0xbcd46259	-0.025925802
179	0xbeb05f50	-0.34447718
180	0xbe25c5fb	-0.16188805
181	0xbe06e652	-0.13173798
182	0xbe8e9fa8	-0.27856183
183	0x3e6c29ca	0.23062816
184	0x3e909072	0.28235203
185	0x3d86fe1b	0.065914355
186	0xbe9b13d8	-0.30288577
187	0xbe206e08	-0.15666974
188	0x3e1f2953	0.15543108
189	0xbe179edf	-0.14806698
190	0x3dee5cd2	0.11638798
191	0xbe1b31bb	-0.1515569
192	0xbdb352b2	-0.08756007
193	0x3d96ffcd	0.07373009
194	0xbdfbbddb	-0.122920714
195	0xbb0d26b0	-0.0021537952
196	0xbe1ed32f	-0.15510248
197	0xbe973d83	-0.29539117
198	0x3ea7e0be	0.32788652
199	0x3ea32e87	0.31871435
200	0xbe298ce2	-0.16557649
201	0x3e7104c6	0.23536977
202	0x3e12158d	0.14266033
203	0x3e0e911a	0.1392254
204	0x3eb21782	0.3478356
205	0xbd13a105	-0.036042232
206	0xbd58a86c	-0.052894995
207	0xbe97cb45	-0.2964727
208	0xbdadd546	-0.08487944
209	0x3eb5ecb4	0.35532153
210	0x3e9f2525	0.31083027
211	0xbc458292	-0.012055056
212	0xbe77b010	-0.24188256
213	0xbe4665e9	-0.19374813
214	0xbe230966	-0.15921554
215	0x3e95a1f6	0.2922513
216	0x3cc1e5b9	0.02366911
217	0xbea26fc8	-0.31725907
218	0xbe9cbf73	-0.30614814
219	0xbda8e221	-0.08246256
220	0x3cc27a78	0.023740038
221	0xbe870c30	-0.26376486
222	0xbe92faf7	-0.28707096
223	0x3e86cd27	0.26328394
224	0x3eace3b5	0.33767477
225	0x3d2d28bc	0.042275175
226	0x3ce5dae5	0.028058479
227	0x3ea2eb71	0.31820253
228	0xbdcb08b4	-0.09913769
229	0xbe991644	-0.298998
230	0xbe6a9c71	-0.2291124
231	0x3e920ef4	0.28527033
232	0xbe46d526	-0.19417247
233	0x3e918350	0.28420496
234	0x3ea09336	0.31362313
235	0x3e005a04	0.12534338
236	0x3e2fbc8c	0.17161769
237	0xbd8a4a9f	-0.06752514
238	0xbe83245a	-0.25613672
239	0xbe3bc15e	-0.18335482
240	0xbe2c39f2	-0.1681898
241	0xbe539210	-0.20661187
242	0xbe9db7b6	-0.30804223
243	0xbe7c3061	-0.2462783
244	0xbe31c523	-0.17360358
245	0x3d9fbcf2	0.0779971
246	0x3e2ae1e8	0.16687739
247	0xbe32c335	-0.17457278
248	0xbd064ae9	-0.032786284
249	0x3b973205	0.004614117
250	0xbe3c4591	-0.18385912
251	0xbec04be5	-0.37557903
252	0xbe31606e	-0.17321941
253	0xbe862239	-0.26197985
254	0x3d2b44f7	0.041813817
255	0xbea08cf2	-0.31357533

proj.bias f4 [32]
0	0x3e2730ca	0.16327205
1	0xbe04d69b	-0.1297249
2	0x3e9df05c	0.30847442
3	0x3e1da910	0.15396523
4	0xbeade832	-0.33966213
5	0xbea811e6	-0.32826155
6	0xbe9db55f	-0.30802438
7	0xbe3e005a	-0.18554822
8	0xbe4fdf52	-0.20300034
9	0x3dc4e7d2	0.09614529
10	0xbe9fb166	-0.31190032
11	0xbea73327	-0.32656214
12	0xbd39692d	-0.04526632
13	0x3e994380	0.2993431
14	0x3df95eeb	0.12176307
15	0x3bcacd63	0.006189035
16	0xbda873f3	-0.082252406
17	0xbe98a4c7	-0.29813215
18	0x3e92cce3	0.2867194
19	0x3e3bfa3e	0.18357179
20	0x3eb3d94c	0.35126722
21	0xbd7f0b08	-0.06226638
22	0xbe1aae60	-0.15105581
23	0xbe381c42	-0.1797953
24	0xbe4ca077	-0.19983087
25	0xbddb3365	-0.10703162
26	0xbe907415	-0.28213564
27	0x3d255532	0.04036445
28	0xbdf0952f	-0.117472045
29	0x3e837489	0.25674847
30	0x3cb18547	0.021669997
31	0x3e90bd43	0.28269395

EiLM.0.gamma_generator.weight f4 [1, 32]
0	0xbd8a47d6	-0.06751983
1	0xbdf68a92	-0.12038149
2	0xbdf3c298	-0.1190235
3	0x3c61c02d	0.013778728
4	0x3e371094	0.17877418
5	0xbdaef4c1	-0.08542777
6	0x3da9ed61	0.082972296
7	0xbc9ac75f	-0.018893896
8	0xbe3aeba4	-0.18253952
9	0x3d0fd6a0	0.03511679
10	0xbd161e42	-0.03664995
11	0x3d348173	0.044068765
12	0xbe491168	-0.19635546
13	0xbe1fd990	-0.15610337
14	0x3b1eb1fb	0.0024214971
15	0xbc917292	-0.017754827
16	0x3da4b2a3	0.08041885
17	0x3e452118	0.19250906
18	0xbd53fcd5	-0.05175479
19	0x3e060781	0.130888
20	0xbdb2d15e	-0.0873134
21	0xbc90c9ca	-0.017674346
22	0xbe234b0b	-0.15946595
23	0x3e191f88	0.14953434
24	0xbe143bda	-0.14475957
25	0xbd9560da	-0.072938636
26	0x3e14ec57	0.14543281
27	0xbd75d4db	-0.060017448
28	0xbe0c71bb	-0.1371526
29	0xbde9bbb0	-0.11412752
30	0x3de9f9fc	0.11424634
31	0x3d3a74cb	0.04552154

EiLM.0.beta_generator.weight f4 [32, 32]
0	0xbd652d84	-0.05595161
1	0x3d8a11e1	0.067416914
2	0xbe20ef4a	-0.15716282
3	0xbdea5018	-0.11441058
4	0x3d12bfc3	0.03582741
5	0x3bc98236	0.0061495556
6	0x3cc6ef76	0.024284106
7	0x3d3b3c61	0.04571188
8	0x3d06a2eb	0.032870214
9	0x3c949f5d	0.018142397
10	0xbe18505f	-0.14874409
11	0x3dfb0f63	0.12258794
12	0x3dc90fc9	0.09817464
13	0xbda666ed	-0.081251
14	0xbe28a64a	-0.16469684
15	0xbe119334	-0.1421631
16	0x3dd7ce7e	0.10537432
17	0x3d08a70d	0.033362437
18	0xbe0ffd35	-0.14061435
19	0xbe1de529	-0.15419449
20	0xbd995d6d	-0.07488523
21	0xbd627ee6	-0.0552968
22	0x3dfb20b9	0.12262101
23	0xbb4de517	-0.0031417066
24	0xbe2138bb	-0.15744297
25	0x3cef80f9	0.029236304
26	0x3e31bc8e	0.17357084
27	0x3ca5ce23	0.020239895
28	0xbde221c9	-0.110416
29	0xbe04d29a	-0.12970963
30	0x3de0d06b	0.109772526
31	0xbe21ab4a	-0.15787998
32	0x3b8b22ba	0.004246083
33	0xbe37c66c	-0.17946786
34	0x3e20a1a8	0.15686667
35	0xbdfe8b94	-0.12428966
36	0x3dc9048f	0.098153226
37	0xbd0bafd5	-0.034103233
38	0xbdeef0be	-0.11667012
39	0x3d56ac1f	0.05241024
40	0x3d45fc75	0.048336465
41	0xbd84eb89	-0.06490237
42	0xbe173589	-0.14766516
43	0x3bd2e759	0.00643627
44	0xbd56a1a5	-0.05240025
45	0xbdef64bf	-0.11689138
46	0x3e041484	0.12898451
47	0xbdb14a35	-0.08656732
48	0xbe1806a7	-0.14846288
49	0x3e2a9908	0.1665994
50	0x3dc0641e	0.09394096
51	0xbe07d37e	-0.13264272
52	0xbe38cdbc	-0.18047231
53	0x3d874a7a	0.06606002
54	0x3e0993c7	0.13435279
55	0x3bbb657e	0.005718886
56	0xbca24627	-0.019808842
57	0x3d8b5b88	0.068045676
58	0x3dbd34d1	0.092385896
59	0x3de69442	0.11258747
60	0xbdb989c7	-0.09059482
61	0xbe084999	-0.13309325
62	0x3e087772	0.13326815
63	0xbd19b9a5	-0.03753056
64	0xbd23fc81	-0.04003573
65	0xbd8859f6	-0.06657784
66	0x3dfc951d	0.123331286
67	0x3dadab08	0.08479887
68	0x3d8e86f0	0.06959331
69	0xbd4a73de	-0.049426906
70	0xbdd35c48	-0.103203356
71	0xbe21099e	-0.15726325
72	0x3d158685	0.03650524
73	0x3dcc493d	0.099749066
74	0x3d3cd458	0.046100944
75	0x3c71886e	0.014742
76	0x3d863eb3	0.06554928
77	0xbde1bdbb	-0.11022516
78	0x3d9e380a	0.07725532
79	0x3d36442a	0.0444986
80	0xbdaff0c2	-0.08590843
81	0x3d9809e1	0.07423759
82	0x3dab4d3d	0.083643414
83	0xbe0d7730	-0.13814998
84	0x3cb07b3d	0.02154314
85	0x3c385eb3	0.011253047
86	0x3ca7d1af	0.020485727
87	0xb9c0b5e5	-0.00036756616
88	0xbdcabcfe	-0.09899329
89	0x3da27ee2	0.07934357
90	0x3dd6a955	0.10481516
91	0xbda69df6	-0.081355974
92	0xbc4e0be6	-0.012576079
93	0xbe066aa8	-0.13126624
94	0xbb22ba5f	-0.0024830324
95	0xbe11d507	-0.1424142
96	0x3d97c45f	0.07410502
97	0xbe1c3b5b	-0.15257017
98	0x3df636e9	0.12022192
99	0xbd8dffb5	-0.06933538
100	0xbdbc72ad	-0.0920156
101	0xbe15a193	-0.14612417
102	0x3d907413	0.070533894
103	0xbd948703	-0.07252314
104	0xbd32f9b0	-0.04369515
105	0x3d48f672	0.049063154
106	0xbe2a5589	-0.16634192
107	0x3c727d92	0.014800446
108	0xbd4982ec	-0.049197122
109	0xbd99ea77	-0.07515424
110	0x3de7ab33	0.113119505
111	0x3e15fbe0	0.14646864
112	0xbda92b7e	-0.082602486
113	0xbdcfe74a	-0.10151537
114	0xbdf5df67	-0.12005501
115	0xbe0cf7a9	-0.1376635
116	0xbc1a07bd	-0.009401259
117	0x3d761c6c	0.0600857
118	0x3bb70002	0.0055847177
119	0xbdf465a9	-0.11933453
120	0xbc770793	-0.015077489
121	0xbe1a46e0	-0.15066099
122	0x3dde43cb	0.10852774
123	0x3d598635	0.053106505
124	0x3e295585	0.1653653
125	0xbc04f99e	-0.008116154
126	0x3d5a3a23	0.0532781
127	0xbe199260	-0.14997244
128	0x3da07420	0.07834649
129	0x3e21894a	0.15775028
130	0x3d68ad46	0.05680587
131	0xbd49e117	-0.049286928
132	0x3d77f708	0.06053832
133	0xbe1c5972	-0.15268496
134	0x3d8ca5c3	0.06867554
135	0xbd406bf0	-0.046977937
136	0x3dacef2c	0.08444056
137	0xbdfe09ff	-0.1240425
138	0x3dcefcad	0.10106788
139	0x3d56ec8c	0.052471682
140	0xbe1bd110	-0.1521647
141	0xbd950adf	-0.07277464
142	0x3d35bc0d	0.044368792
143	0x3a5dcadd	0.000846071
144	0x3e1461e9	0.14490475
145	0x3e14b8ff	0.14523695
146	0x3c127691	0.008939401
147	0x3dc3c649	0.09559304
148	0x3caef014	0.021354713
149	0x3df3c452	0.119026795
150	0xbbc792f8	-0.006090518
151	0xbe1aa96d	-0.15103693
152	0xbc67e909	-0.014154681
153	0x3ce9f9ac	0.028561436
154	0x3cd63e2f	0.026152698
155	0x3e0578a7	0.13034306
156	0x3c1c7df9	0.009551519
157	0x3e22d2be	0.15900704
158	0x3c48d927	0.012258804
159	0xbd96d125	-0.0736411
160	0xbd56d5e0	-0.05245006
161	0x3dc1f34f	0.094702356
162	0xbe22c483	-0.15895276
163	0xbe17d18d	-0.14826031
164	0xbd680aa3	-0.05665077
165	0x3e16346d	0.14668436
166	0xbe2666dc	-0.16250175
167	0xbcddcd4f	-0.027075438
168	0x3dc6909f	0.09695553
169	0xbd95f397	-0.07321852
170	0x3d2ffec0	0.042967558
171	0x3e349abb	0.1763715
172	0xbde43a6b	-0.11143955
173	0x3cd57e41	0.02606118
174	0x3cada915	0.021198789
175	0x3e43651b	0.19081537
176	0xbe05bbe0	-0.1305995
177	0x3e274848	0.16336167
178	0x3d1eee84	0.038801685
179	0xbd3a4f68	-0.045485884
180	0xbd0a44dd	-0.03375708
181	0x3df3d29e	0.119054064
182	0x3d670f91	0.05641133
183	0x3e35b7b0	0.17745852
184	0x3e1511bf	0.14557551
185	0xbd31607b	-0.0433049
186	0x3bdcf0ca	0.0067425715
187	0x3d78f716	0.060782515
188	0xbd8dedf1	-0.06930149
189	0x3e05fb63	0.13084178
190	0xbe0c6751	-0.13711287
191	0x3e076d4f	0.13225292
192	0x3d2f3aa8	0.04278055
193	0xbdbf9bae	-0.093558654
194	0x3d91728b	0.071019255
195	0xbd2e403b	-0.042541724
196	0x3c5b1abe	0.013373075
197	0x3d28a764	0.04117526
198	0x3ded2232	0.11578788
199	0x3de099e9	0.10966856
200	0xbe1bb112	-0.15204266
201	0x3e2528c4	0.16128832
202	0xbd063d57	-0.032773342
203	0xbd340450	-0.043949425
204	0x3d865108	0.06558424
205	0x3e23c8c2	0.15994552
206	0x3d2d2f91	0.04228169
207	0xbe02090a	-0.1269876
208	0xbe12df9d	-0.14343114
209	0x3da0058a	0.078135565
210	0xbcd43f09	-0.025908964
211	0xbe277b65	-0.16355665
212	0xbc9aa819	-0.018878983
213	0x3cb096e3	0.021556323
214	0xbd192637	-0.03738996
215	0xbe2a43e4	-0.1662746
216	0xbe0b1fde	-0.13586375
217	0x3df92f1c	0.121671885
218	0xbd92f2ee	-0.071752414
219	0x3e24d472	0.16096666
220	0x3e239131	0.15973355
221	0xbc61e23f	-0.013786851
222	0x3c9adcbd	0.018904084
223	0xbe1883ce	-0.1489403
224	0x3cebb766	0.028773975
225	0xbcb83a63	-0.022488778
226	0xbc1c70a5	-0.009548341
227	0x3d93e838	0.072220266
228	0x3d128191	0.035768095
229	0xbd6a0fe6	-0.05714407
230	0xbdfdbe57	-0.1238982
231	0xbda836d5	-0.082135834
232	0x3d4719bf	0.048608538
233	0xbbe74444	-0.0070576984
234	0x3c97ca83	0.018529182
235	0x3ce037dd	0.027370388
236	0xbe1a3ecd	-0.15063019
237	0xbe10bf15	-0.14135392
238	0xbe0eec59	-0.13957347
239	0xbe213f1c	-0.1574673
240	0x3d46b49c	0.048512086
241	0xbe0120b1	-0.12610127
242	0x3e1beefe	0.15227887
243	0x3dfdf61c	0.12400457
244	0x3c57be41	0.013167919
245	0xbd28bf1c	-0.04119788
246	0x3c4d4a3e	0.012529908
247	0xbe130cba	-0.14360324
248	0xbd8a5800	-0.06755066
249	0xbe032157	-0.12805687
250	0xbdf23b1a	-0.11827679
251	0xbd9e1842	-0.077194706
252	0x3dcd55ed	0.10026155
253	0x3e06a497	0.13148724
254	0xbd96722f	-0.073459975
255	0x3de29ea9	0.11065418

EiLM.1.gamma_generator.weight f4 [1, 32]
0	0xbe0db05e	-0.1383681
1	0x3dcb6200	0.099308014
2	0x3e04ce52	0.1296933
3	0xbc8d4a5d	-0.017247373
4	0x3d48aeb1	0.048994724
5	0xbe31edbc	-0.17375845
6	0x3d9cd8d8	0.07658547
7	0x3d9ba7b0	0.07600343
8	0x3dd2e842	0.10298206
9	0x3d662b3e	0.056193583
10	0xbd5826f6	-0.05277153
11	0xbc937951	-0.018002184
12	0x3e1fa35b	0.15589659
13	0x3e273ae1	0.16331054
14	0xbd145a0a	-0.03621868
15	0xbe2143f1	-0.15748574
16	0x3caf81a2	0.021424118
17	0xbd90b3cc	-0.070655435
18	0xbd7e3795	-0.062064726
19	0xbe1dd4db	-0.15413229
20	0xbbefa90a	-0.007313852
21	0xbe07d31c	-0.13264126
22	0x3c80413e	0.01565611
23	0x3aa4615e	0.0012541225
24	0xbdbac9ba	-0.091205075
25	0xbd8605f3	-0.065441035
26	0x3cd74e8b	0.02628257
27	0x3de414b7	0.111367635
28	0x3de71b73	0.112845324
29	0x3e2d8719	0.16946067
30	0x3d23f4ee	0.040028505
31	0x3db4af39	0.088224836

EiLM.1.beta_generator.weight f4 [32, 32]
0	0x3d208764	0.03919162
1	0xbe0ce5ce	-0.13759539
2	0x3e119664	0.14217526
3	0xbca05af9	-0.01957463
4	0xbdea023b	-0.11426207
5	0xbc92e711	-0.017932447
6	0x3bcbca87	0.0062192115
7	0xbd605a0e	-0.054773383
8	0xbdb08fdc	-0.08621189
9	0xbd8ca474	-0.068673044
10	0x3db90bae	0.09035431
11	0xbe28307d	-0.16424747
12	0x3dae3a3d	0.08507202
13	0xbe0763ea	-0.13221708
14	0xbd089655	-0.033346493
15	0x3cc8f9e7	0.024533225
16	0xbe06fb22	-0.13181737
17	0xbe1a8961	-0.15091468
18	0xbe0917dd	-0.1338801
19	0x3e0fb18b	0.14032571
20	0x3d96a294	0.07355228
21	0xbdf0c188	-0.11755663
22	0x3e1e972f	0.1548736
23	0xbccbbf6e	-0.024871554
24	0x3e347d34	0.17625886
25	0xbe01136c	-0.12605065
26	0xbe1913eb	-0.14949004
27	0xbddd7bd4	-0.10814634
28	0x3e0ea460	0.13929892
29	0xbdb2ee1a	-0.087368205
30	0x3e186cf0	0.14885306
31	0x3db610dc	0.088899344
32	0x3ca03deb	0.019560775
33	0xbe1898bd	-0.14902015
34	0xbde263de	-0.110542044
35	0x3c4d4573	0.012528765
36	0xbe210b97	-0.15727077
37	0x3d2b38a7	0.041802075
38	0x3d05b104	0.03263952
39	0x3d742097	0.059601393
40	0xbdb8abb8	-0.09017128
41	0x3e22711e	0.15863463
42	0xbdbe691d	-0.092973925
43	0xbc7de9b7	-0.0154976165
44	0xbd5e0760	-0.054206252
45	0xbd633f75	-0.05548044
46	0xbdb33c1a	-0.08751698
47	0xbe251cc4	-0.16124254
48	0x3e26e879	0.16299619
49	0xbdb8693d	-0.090044476
50	0xbd9a81a5	-0.07544259
51	0xbd7a458d	-0.061101485
52	0xbd1f53b1	-0.038898174
53	0xbdb163b9	-0.08661599
54	0x3dec13df	0.115272276
55	0x3d5acd18	0.05341825
56	0x3d873486	0.06601815
57	0x3ddedd2a	0.108820274
58	0x3dd1f2f8	0.10251421
59	0x3d29d9eb	0.04146759
60	0xbd9d7c4c	-0.07689723
61	0x3d5c0344	0.05371405
62	0xbd324091	-0.043518607
63	0xbdc3898a	-0.09547718
64	0xbd84d372	-0.064856425
65	0x3d47ee8b	0.048811477
66	0x3ba8efdf	0.005155548
67	0x3e190a83	0.14945416
68	0xbe4a6518	-0.19765127
69	0x3da50c37	0.080589704
70	0xbdb213bd	-0.08695171
71	0xbd457325	-0.048205514
72	0xbbdc10de	-0.006715878
73	0x3d9957c0	0.0748744
74	0xbd8ea69f	-0.06965374
75	0x3d96ed19	0.073694415
76	0x3cb13b2b	0.021634659
77	0xbdf83ec9	-0.1212135
78	0x3e09b475	0.13447745
79	0x3e190042	0.14941505
80	0x3cb6d29f	0.022317229
81	0xbd1ad903	-0.037804615
82	0x3dfcf40e	0.12351237
83	0xbdba43a9	-0.090949364
84	0x3d2a5913	0.041588854
85	0xbdaeb12f	-0.08529889
86	0x3e178f4a	0.14800754
87	0xbdead3b5	-0.11466161
88	0x3e404acc	0.18778533
89	0xbddf98d4	-0.109178215
90	0x3da8af40	0.08236551
91	0xbde4afe7	-0.11166363
92	0xbe0fce56	-0.14043555
93	0xbd186c68	-0.03721276
94	0x3da65086	0.081208274
95	0x3c3ecb6c	0.011645179
96	0x3d5809c0	0.052743673
97	0x3ddfb76e	0.10923658
98	0xbd224f88	-0.03962663
99	0xbc05b375	-0.008160462
100	0xbe16b44a	-0.14717212
101	0x3dcb8290	0.09937012
102	0x3d8d2ae2	0.06892945
103	0xbd92c949	-0.07167298
104	0x3cabc027	0.020965649
105	0xbcdc81c0	-0.026917338
106	0xbe0b6ded	-0.13616152
107	0xbdd82267	-0.10553437
108	0xbe07537f	-0.13215445
109	0xbd9fa2ea	-0.07794745
110	0x3dca5057	0.09878605
111	0xbddf60ca	-0.10907133
112	0xbdfc079c	-0.12306139
113	0xbd02bd7c	-0.031918988
114	0xbdab13ca	-0.08353384
115	0xbdf150e8	-0.1178301
116	0xbd6881d8	-0.056764454
117	0x3df419a3	0.11918952
118	0xbe1659d3	-0.14682703
119	0x3d2e9300	0.04262066
120	0xbb106b1d	-0.00220365
121	0xbc9765a6	-0.018481087
122	0x3d8280df	0.063722365
123	0x3dcbf465	0.09958724
124	0x3df33f42	0.118773
125	0xbdb07d22	-0.08617617
126	0xbb16a96e	-0.0022989172
127	0xbe244207	-0.16040812
128	0x3d765b13	0.06014545
129	0xbe116eeb	-0.14202468
130	0xbcc04d93	-0.02347449
131	0xbd7a4241	-0.06109834
132	0x3e308a3f	0.17240237
133	0xbb773dd3	-0.003772606
134	0x3da1de7f	0.07903766
135	0xbe113eb0	-0.1418407
136	0xbe2d5382	-0.16926387
137	0x3cb4cc36	0.022070032
138	0xbd4535a4	-0.04814686
139	0x3db8d72c	0.09025416
140	0x3d0dde16	0.034635626
141	0x3d3d3d4c	0.046201035
142	0xbdee4b6d	-0.1163548
143	0xbd6b5d61	-0.0574621
144	0xbd962704	-0.073316604
145	0x3e1b4f18	0.1516689
146	0xbc5280d4	-0.012848098
147	0xbda1ea59	-0.079060264
148	0x3d0228fb	0.031777363
149	0xbd5cb9cd	-0.05388813
150	0xbe232bbc	-0.15934652
151	0x3bdb4192	0.006691166
152	0x3db8a273	0.0901536
153	0x3e113cce	0.14183351
154	0x3e2fb0bc	0.17157263
155	0xbd81f47d	-0.063454606
156	0xbe22c25e	-0.15894458
157	0xbd17366e	-0.036917143
158	0xbdedbf33	-0.11608734
159	0x3e19ab65	0.15006788
160	0xbd4e62f3	-0.050387334
161	0x3db57695	0.08860508
162	0x3dea4cf4	0.11440459
163	0x3dd139ba	0.102160886
164	0xbe282cc5	-0.16423328
165	0x3e1fc236	0.1560143
166	0xbbecb587	-0.007223788
167	0x3e2e7d65	0.17040022
168	0x3d88e002	0.06683351
169	0x3a64b1de	0.0008724014
170	0xbe11f516	-0.14253649
171	0x3b8ad579	0.0042368737
172	0x3e19ee80	0.15032387
173	0x3c5e3e41	0.013564647
174	0xbe160b65	-0.14652784
175	0xbca17715	-0.019710103
176	0x3dbe7d19	0.09301204
177	0xbe0d9691	-0.13826968
178	0x3c546d91	0.012965576
179	0x3cbf578e	0.023357179
180	0xbcb2977b	-0.021800747
181	0x3d420852	0.047371216
182	0xbe0473ef	-0.1293485
183	0x3cc809ce	0.024418738
184	0x3d81692e	0.063188896
185	0xbe0efbc7	-0.13963233
186	0xbe41ea8a	-0.18937126
187	0xbe1d901a	-0.15387002
188	0xbc43897a	-0.011934632
189	0xbe03d6e7	-0.12874947
190	0xbb5dca88	-0.0033842642
191	0x3d15c1ca	0.036561765
192	0xbd69b024	-0.057052746
193	0x3df73068	0.1206978
194	0x3dd3a31e	0.103338465
195	0x3e00904a	0.12555042
196	0x3c4020aa	0.011726538
197	0x3ceadbb4	0.028669216
198	0xbd371fd0	-0.044708073
199	0xbdf8b39e	-0.12143634
200	0x3d188a94	0.037241533
201	0xbd2e126f	-0.04249805
202	0x3cfbdaef	0.030744044
203	0xbc6e7b1e	-0.014555721
204	0xbe2b6b67	-0.1674019
205	0x3c809d8b	0.015700122
206	0xbca61697	-0.020274444
207	0x3e21b781	0.15792657
208	0x3e34d1d7	0.17658173
209	0x3e12fa07	0.1435319
210	0x3d9d3e42	0.0767789
211	0xbe0429f2	-0.12906626
212	0x3d99317c	0.074801415
213	0xbcc3458e	-0.023836877
214	0xbdb91c4a	-0.09038599
215	0x3e094efd	0.13409038
216	0xbe2bd28b	-0.16779535
217	0x3d21183d	0.039329756
218	0x3ca4248a	0.020036954
219	0xbc841bf2	-0.016126607
220	0xbc747b55	-0.014921983
221	0x3d575601	0.052572254
222	0x3ca69997	0.02033691
223	0x3e067b89	0.13133062
224	0xbceda4e8	-0.029009297
225	0xbdfe8ee7	-0.124296
226	0xbdf4c500	-0.11951637
227	0x3d09598a	0.033532657
228	0xbe2c8864	-0.16848904
229	0x3c7664e8	0.015038706
230	0x3c5c2e71	0.013438807
231	0xbdc5a49a	-0.09650536
232	0x3cb38a26	0.02191646
233	0x3d19b359	0.037524555
234	0xbdbe9687	-0.093060546
235	0xbdd1e674	-0.102490336
236	0x3e107802	0.1410828
237	0xbb9bffdd	-0.004760726
238	0xbe28b5cc	-0.164756
239	0x3e27cf8a	0.16387764
240	0xbd81efe5	-0.063445844
241	0xbe249388	-0.16071904
242	0xbda35a8e	-0.07976256
243	0x3d8d3adc	0.06895992
244	0xbd903ec8	-0.070432246
245	0x3e05872b	0.13039844
246	0x3d827d86	0.06371598
247	0xbe15d710	-0.14632821
248	0x3ca1ce2c	0.01975163
249	0xbe23a09c	-0.15979236
250	0x3dc157c1	0.09440566
251	0xbe1898c7	-0.1490203
252	0xbe1bf6a8	-0.1523081
253	0xbe1e1d95	-0.15440972
254	0x3e12b5b8	0.14327133
255	0xbe0b2f00	-0.13592148

EiLM.2.gamma_generator.weight f4 [1, 32]
0	0xbbf3aa77	-0.0074360925
1	0xbd5b76e8	-0.053580195
2	0x3e128c30	0.1431129
3	0xbd732431	-0.059360687
4	0x3ccdbe20	0.025115073
5	0x3cfa9415	0.03058819
6	0xbe0b64a8	-0.13612616
7	0x3db4edd7	0.08834427
8	0x3d72fb0e	0.059321456
9	0xbd4c59d0	-0.04989034
10	0x3d62b392	0.055347033
11	0xbe1e8342	-0.15479758
12	0x3e34c4a1	0.17653133
13	0x3e468bd1	0.19389273
14	0xbe1e3bd9	-0.15452518
15	0xbe269d9a	-0.16271058
16	0x3df9086b	0.12159809
17	0x3bfc4e6d	0.007699779
18	0xbb9ba098	-0.004749369
19	0x3dcfa55f	0.10138964
20	0x3d8f427a	0.06995101
21	0xbda7c28f	-0.08191406
22	0x3e3911e0	0.18073225
23	0xbccd293a	-0.025044072
24	0xbdf7afe4	-0.12094095
25	0xbd87de76	-0.06634228
26	0xbdfde6a1	-0.123975046
27	0xbd2f7478	-0.042835683
28	0x3d5a276e	0.05326026
29	0xbc53efa0	-0.012935549
30	0xbdfde86d	-0.12397847
31	0xbe0f3f25	-0.13988931

EiLM.2.beta_generator.weight f4 [32, 32]
0	0x3da8addd	0.08236287
1	0x3c717c10	0.014739051
2	0x3e257b5c	0.16160339
3	0xbe1b6e27	-0.15178739
4	0xbe19c2ae	-0.1501567
5	0xbd2949b1	-0.041330043
6	0x3de23468	0.11045152
7	0xbdddfec5	-0.10839609
8	0xbe228e81	-0.15874673
9	0x3dcab98b	0.09898671
10	0xbe04a66f	-0.12954114
11	0x3e321ea6	0.17394504
12	0xbdd21acd	-0.10259018
13	0xbdfc8de4	-0.12331751
14	0xbd078723	-0.03308786
15	0x3cc8ffab	0.024535974
16	0x3e280927	0.16409741
17	0x3b9d3039	0.0047970084
18	0xbe26c9d1	-0.16287924
19	0xbe439852	-0.19101074
20	0xbdf82bd8	-0.121177375
21	0xbd037686	-0.032095455
22	0x3dace38d	0.08441839
23	0xbdb34b7f	-0.08754634
24	0xbcb3cfe9	-0.021949725
25	0x3de5a6d1	0.11213458
26	0x3a62d790	0.0008653337
27	0xbde7c63b	-0.11317106
28	0xbdd4da54	-0.10393205
29	0xbd772894	-0.060341433
30	0x3dbd3abd	0.09239719
31	0xbde2c9ba	-0.110736325
32	0x3d81d837	0.06340068
33	0x3e11acb4	0.14226037
34	0xbd2edea8	-0.04269281
35	0xbc43dd97	-0.011954687
36	0xbdb2e4ce	-0.08735047
37	0xbd71d5a1	-0.059041623
38	0x3dbfb4f2	0.093606845
39	0x3cdb8479	0.026796566
40	0x3e134f4d	0.1438572
41	0xbd0b6f09	-0.03404144
42	0x3e08a51e	0.13344237
43	0xbc2694dc	-0.010167327
44	0x3e351272	0.17682818
45	0xbddfec45	-0.10933737
46	0x3e372eaf	0.17888902
47	0xbd95b132	-0.07309188
48	0xbdcccd21	-0.10000063
49	0x3d1ba29b	0.03799687
50	0xbd99e8e0	-0.075151205
51	0x3e231854	0.15927249
52	0xbe115516	-0.14192614
53	0x3e268ee9	0.16265453
54	0x3e2b341e	0.167191
55	0xbc1d8d1b	-0.009616162
56	0x3d92c959	0.0716731
57	0x3c832893	0.016010558
58	0xbe06c242	-0.13160041
59	0xbd8a4d2e	-0.06753002
60	0x3d29992b	0.041405838
61	0xbe211e96	-0.15734324
62	0x3d7f6a4a	0.062357225
63	0xbd47f2fb	-0.04881571
64	0x3d210010	0.0393067
65	0x3d0a8653	0.033819508
66	0x3c433998	0.011915587
67	0xbcae00e8	-0.021240667
68	0x3d0c5d47	0.034268644
69	0x3ded571c	0.115888804
70	0xbd25db53	-0.040492367
71	0x3d48f56b	0.049062174
72	0x3e060d43	0.13090996
73	0xbd4407d3	-0.047859024
74	0xbdbbe75c	-0.09174988
75	0x3e31e825	0.17373712
76	0xbd0370b1	-0.032089893
77	0x3dede81d	0.11616538
78	0x3dcabaf6	0.09898941
79	0x3df8414f	0.121218316
80	0xbda5ee55	-0.08102099
81	0xbdf6b68a	-0.12046535
82	0xbd37b7ce	-0.044853024
83	0x3d83cabd	0.06435154
84	0x3e1886af	0.14895128
85	0x3cc6c85b	0.024265459
86	0x3e12ecca	0.1434814
87	0xbdacb9dd	-0.08433888
88	0xbe2c0e74	-0.16802388
89	0x3e14a7e1	0.14517166
90	0xbdd9898c	-0.10621938
91	0xbc70400c	-0.014663707
92	0xbe276ae5	-0.16349371
93	0xbe42d7da	-0.19027653
94	0x3d179d83	0.03701545
95	0xbe31a7d8	-0.17349184
96	0x3d5b0584	0.053472057
97	0x3c25a9ae	0.010111256
98	0x3daa864f	0.083263986
99	0x3ddcc44e	0.1077963
100	0x3dd6611e	0.104677424
101	0xbc0450ca	-0.008075902
102	0x3dd586eb	0.10426124
103	0xbe321c92	-0.17393711
104	0x3d2ae6a6	0.04172387
105	0x3d9db1ca	0.07699926
106	0xbbfc7bcb	-0.007705187
107	0x3df70b71	0.12062729
108	0x3e09f94b	0.13474004
109	0x3e19ae5c	0.15007919
110	0x3df3ca01	0.119037636
111	0x3c9228c3	0.017841702
112	0xba0cb52b	-0.00053675723
113	0xbdb1eec9	-0.08688123
114	0x3d87c763	0.06629827
115	0x3d5fd212	0.054643698
116	0xbdba7d3a	-0.09105916
117	0x3e1089f4	0.14115125
118	0x3d2d6c4d	0.04233961
119	0xbd3f7b8e	-0.04674869
120	0xbd33a253	-0.043855976
121	0x3cf328bf	0.029682515
122	0xbd762f79	-0.060103867
123	0x3d5eb226	0.054369114
124	0x3cb3bc3f	0.021940349
125	0x3a2809e5	0.0006410166
126	0x3de0e663	0.10981443
127	0xbd9b51aa	-0.075839356
128	0xbe218d83	-0.15776639
129	0xbcde2acb	-0.027120015
130	0xbe3271fd	-0.17426296
131	0x3d0a1986	0.033715747
132	0x3e276149	0.16345705
133	0xbdc7c06a	-0.09753497
134	0xbcb417ed	-0.021984065
135	0x3e0f034d	0.13966103
136	0xbdc773a0	-0.097388506
137	0x3d3e3d48	0.04644516
138	0x3c8b2e73	0.016989922
139	0xbdc7136a	-0.097205
140	0x3e191847	0.14950667
141	0x3e1f5364	0.15559155
142	0x3da92f59	0.08260984
143	0xbe2203f9	-0.15821828
144	0xbe31e6f0	-0.17373252
145	0x38d2cc66	0.000100516525
146	0xbd36aa01	-0.044595722
147	0x3d309590	0.043111384
148	0xbde63149	-0.11239869
149	0xbe213c20	-0.15745592
150	0xbdeaf74d	-0.1147295
151	0xbcd2fca9	-0.025755243
152	0xbc680666	-0.014161682
153	0x3dafb3af	0.08579194
154	0x3d4a7749	0.049430165
155	0xbd5a3396	-0.053271852
156	0xbdb9e36e	-0.09076582
157	0x3dcd066f	0.10010993
158	0xbdd86b1b	-0.10567304
159	0x3d377e84	0.04479839
160	0xbe302301	-0.17200853
161	0x3c260757	0.010133586
162	0xbe14974b	-0.14510839
163	0xbe0931ad	-0.13397856
164	0xbd50d194	-0.05098112
165	0xbdf0f06a	-0.11764605
166	0x3d3b5518	0.04573545
167	0x3c8f02de	0.017457422
168	0x3d80678d	0.06269751
169	0x3ac0cfe0	0.0014710389
170	0x3e32475a	0.17410031
171	0x3d38d4a8	0.04512468
172	0x3d3b6d97	0.04575881
173	0x3e306775	0.17226966
174	0xbe09b98f	-0.13449691
175	0xbd48e3f2	-0.04904551
176	0xbdcb44ce	-0.09925233
177	0xbd751091	-0.059830252
178	0x3db1e7b9	0.08686776
179	0xbe3fd96b	-0.18735282
180	0xbd156446	-0.03647258
181	0xbe304e3d	-0.17217346
182	0xbd33b4dd	-0.043873657
183	0xbe1e513a	-0.15460673
184	0xbd2e36a3	-0.042532574
185	0xbd944f3e	-0.07241677
186	0x3e280768	0.16409075
187	0xbcbd74a3	-0.023126906
188	0xbdaf74f2	-0.085672274
189	0xbdcfde66	-0.10149841
190	0x3de57dce	0.11205636
191	0xbe2ac6d6	-0.16677412
192	0x3e0a9a8c	0.13535517
193	0xbe252cda	-0.16130391
194	0x3d7d3b26	0.061823986
195	0xbca97ed1	-0.020690354
196	0x3dbf5549	0.09342439
197	0xbdc81e06	-0.097713515
198	0xbdc5e163	-0.0966213
199	0xbdf59b09	-0.11992461
200	0xbad1acf0	-0.0015996974
201	0xbe1cec73	-0.15324573
202	0xbd6287c8	-0.055305272
203	0xbce235af	-0.027613489
204	0x3e2b467d	0.16726108
205	0xbdf06559	-0.117380805
206	0xbdd1ea5e	-0.1024978
207	0xbdc40fcd	-0.09573326
208	0x3cd55a72	0.026044104
209	0x3d65d885	0.056114692
210	0x3bd79fe3	0.0065803393
211	0x3cdb9ef5	0.026809195
212	0x3dbe0581	0.092783935
213	0x3d58a9c2	0.05289627
214	0xbd2ef93e	-0.042718165
215	0xbd03253b	-0.032017928
216	0xbcd2d397	-0.02573566
217	0xbd52e911	-0.0514918
218	0xbd9e32cc	-0.077245325
219	0xbdba671a	-0.09101696
220	0x3df6ab39	0.12044377
221	0x3e0e67f1	0.13906838
222	0xbd71a501	-0.05899525
223	0xbd94dc88	-0.072686255
224	0xbcb199ed	-0.021679843
225	0xbe31ba15	-0.17356141
226	0xbd40d206	-0.047075294
227	0x3df43127	0.119234376
228	0x3da5f186	0.081027076
229	0xbd71249f	-0.058872815
230	0x3e307a33	0.17234115
231	0xbdf1b032	-0.11801185
232	0x3e0681b4	0.13135415
233	0x3e0d65f3	0.13808422
234	0xbe13e7f8	-0.14443958
235	0x3d32882d	0.0435869
236	0x3cef4bc5	0.029210934
237	0x3e2f0265	0.17090757
238	0x3e233990	0.15939927
239	0xbde3e2c0	-0.111272335
240	0xbe191bf4	-0.1495207
241	0x3d18af46	0.03727653
242	0x3e2683fc	0.16261286
243	0x3e13c9fb	0.14432518
244	0x3e36481c	0.17800945
245	0xbd8fa4c2	-0.07013847
246	0x3d97f247	0.074192576
247	0x3d45cd00	0.048291206
248	0xba17c486	-0.0005789477
249	0xbcf24d6e	-0.029577937
250	0xbe27256e	-0.16322872
251	0xbc4e30ba	-0.0125848595
252	0x3e1e8cc2	0.15483382
253	0x3a93d456	0.0011278491
254	0x3e040f6f	0.12896512
255	0xbe295456	-0.16536078

EiLM.3.gamma_generator.weight f4 [1, 32]
0	0x3d06c6fa	0.032904603
1	0xbd509bf9	-0.050929997
2	0x3e1bf891	0.1523154
3	0x3d4409f7	0.047861066
4	0xbe04a104	-0.12952048
5	0xbd384d18	-0.044995397
6	0xbe0d8197	-0.13818966
7	0x3ca85f07	0.020553125
8	0xbd401c0b	-0.046901744
9	0xbe1a94b9	-0.15095796
10	0xbdabbb43	-0.08385327
11	0x3d0fb5dc	0.035085544
12	0x3e1b76c1	0.1518202
13	0x3e172d2d	0.14763327
14	0xbe321bb0	-0.17393374
15	0xbdaddbcd	-0.08489189
16	0xbde8f27f	-0.113743775
17	0xbc3d0ed9	-0.0115391845
18	0x3df5d50f	0.12003528
19	0x3dcd0569	0.100107975
20	0x3d7b425e	0.06134259
21	0xbdc53ac6	-0.09630351
22	0xbdd74858	-0.10511845
23	0x3c1a9122	0.009434016
24	0x3dccd399	0.100012966
25	0x3e1cbcb9	0.15306367
26	0xbe0aebfb	-0.13566582
27	0x3e19f835	0.1503609
28	0x3df8a291	0.12140382
29	0xbd3c7ac5	-0.04601552
30	0xbdcd7ae7	-0.100332074
31	0x3d763483	0.060108673

EiLM.3.beta_generator.weight f4 [32, 32]
0	0xbe3ae4d8	-0.1825136
1	0x3e2de8b7	0.16983305
2	0x3d8b15a8	0.0679124
3	0x3c8201c0	0.015869975
4	0x3e23601b	0.1595463
5	0xbe24be45	-0.16088207
6	0xbdfc372d	-0.123152114
7	0xbceedfd3	-0.029159462
8	0x3e308f49	0.17242159
9	0x3d319017	0.043350305
10	0xbe2feba8	-0.1717974
11	0xbd69430b	-0.056948703
12	0x3e082219	0.13294257
13	0x3d8b992a	0.06816323
14	0x3b667d2d	0.0035169825
15	0xbe099753	-0.13436632
16	0xbbebd36c	-0.0071968343
17	0xbcb337d0	-0.0218772
18	0xbe25ef8e	-0.16204664
19	0x3c7ee5d2	0.015557723
20	0x3e0106be	0.12600228
21	0xbdfcf658	-0.12351674
22	0xbdda7c1c	-0.10668203
23	0xbd27098b	-0.040780585
24	0xbd254b91	-0.04035527
25	0xbe11b3cc	-0.14228743
26	0xbe093e09	-0.13402571
27	0xbd8fe86b	-0.07026752
28	0xbe16b8e0	-0.14718962
29	0xbdaa0b0c	-0.08302888
30	0xbc03f7f8	-0.008054726
31	0x3e0dfda8	0.13866293
32	0x3e03b069	0.12860264
33	0xbd325b04	-0.04354383
34	0xbdf8d957	-0.12150829
35	0x3c0378da	0.008024419
36	0xbe183bcf	-0.14866565
37	0x3e1f3c9e	0.15550467
38	0xbdc54795	-0.09632794
39	0x3d5dbd06	0.054135345
40	0xbe237d5c	-0.1596579
41	0x3df7eff1	0.12106312
42	0x3d2ec73a	0.042670466
43	0x3e1c6b08	0.15275204
44	0xbdec1384	-0.1152716
45	0xbdc9c7e6	-0.09852581
46	0x3e26fcb9	0.16307344
47	0x3d1e4c39	0.03864691
48	0xbdbf9257	-0.09354084
49	0x3dc19a20	0.09453225
50	0x3d7b0bfb	0.061290722
51	0xbdd5ab2b	-0.10433038
52	0xbe0d9c94	-0.13829261
53	0x3d8deb90	0.069296956
54	0xbcda00a7	-0.02661164
55	0x3dd40e55	0.10354296
56	0xbdac0f8c	-0.08401403
57	0x3d936ce2	0.07198502
58	0xbd5c4238	-0.05377409
59	0xbdb924ff	-0.090402596
60	0xbe0780fc	-0.13232797
61	0x3ded874a	0.1159807
62	0x3e20acd5	0.1569093
63	0x3d243495	0.04008921
64	0x3deb0443	0.11475422
65	0x3db1c499	0.08680076
66	0x3e3cabeb	0.18424957
67	0x3d8dc3ff	0.06922149
68	0xbe482cb4	-0.19548303
69	0xbe27ab5b	-0.1637396
70	0x3daf389d	0.0855572
71	0xbcb10e83	-0.021613365
72	0x3d9816f2	0.074262515
73	0xbe154e2c	-0.14580601
74	0xbde11b81	-0.10991574
75	0xbe32cc1d	-0.17460676
76	0xbde561fe	-0.11200331
77	0xba50dd2b	-0.0007967527
78	0x3da7dd7f	0.08196544
79	0x3d440390	0.04785496
80	0xbdc4a817	-0.09602373
81	0xbe2b28e1	-0.16714813
82	0xbddfa694	-0.10920444
83	0xbdd069d6	-0.101764366
84	0xbd9b6c1b	-0.07588979
85	0xbe1f49b0	-0.15555453
86	0x3dfa1520	0.122110605
87	0xbd8e69a3	-0.06953742
88	0x3d9f457c	0.07776925
89	0x3c42f9c9	0.011900374
90	0x3e05aed1	0.13054968
91	0xbe1a819b	-0.15088503
92	0xbbfdd109	-0.007745866
93	0x3d987fe0	0.07446265
94	0xbda3b3a0	-0.07993245
95	0xbe163d71	-0.14671876
96	0x3d3bcb97	0.045848455
97	0x3d98c01d	0.07458518
98	0x3e2c8a30	0.1684959
99	0x3b8d4e6a	0.004312326
100	0x3e228a10	0.15872979
101	0x3e323163	0.17401652
102	0xbdc75bba	-0.09734292
103	0xbe2763f6	-0.16346726
104	0x3df1a54a	0.117991045
105	0x3ceb3c40	0.028715253
106	0xbe1bc75f	-0.15212773
107	0x3e3b7cdd	0.1830935
108	0x3d607f80	0.054809093
109	0x3d511c65	0.05105247
110	0xbdeb22db	-0.114812575
111	0x3e288a7b	0.16459076
112	0xbe1857a3	-0.14877181
113	0xbe06b583	-0.13155179
114	0xbe1a874f	-0.15090679
115	0xbdb7b9aa	-0.089709595
116	0xbd227081	-0.039658073
117	0xbe22baf0	-0.15891623
118	0x3e0d7992	0.13815907
119	0x3df7d236	0.121006414
120	0x3e2bcb18	0.16776693
121	0xbccba0a3	-0.024856871
122	0xbd30d4bb	-0.043171626
123	0xbe10ead9	-0.14152087
124	0xbda2a233	-0.07941093
125	0xbe3fec77	-0.18742548
126	0xbdca72c9	-0.09885175
127	0xbdadba58	-0.08482808
128	0x3e00643a	0.12538233
129	0x3e01d59a	0.12679139
130	0xbe2b6746	-0.16738614
131	0x3cd61fdc	0.026138239
132	0x3e007f07	0.12548457
133	0x3aa5fc2e	0.0012663656
134	0xbe3dd860	-0.18539572
135	0xbdb73b7c	-0.089468926
136	0x3cc96505	0.024584303
137	0xbe24a1c5	-0.16077335
138	0xbe0de6c9	-0.13857569
139	0xbe009fdb	-0.1256098
140	0xbe30f68a	-0.17281547
141	0xbe02771e	-0.12740752
142	0x3de27b52	0.11058678
143	0x3c000181	0.007812859
144	0xbc866cf2	-0.016409371
145	0x3e145a79	0.14487638
146	0xbd2bb59f	-0.041921254
147	0xbde7e4f3	-0.113229655
148	0xbc91f37b	-0.017816296
149	0xbc82e497	-0.01597814
150	0x3db5abb1	0.08870638
151	0x3dbabfd6	0.09118621
152	0xbe1b29e3	-0.15152697
153	0x3c524848	0.012834616
154	0x3e1d0960	0.15335608
155	0xbd0a815f	-0.033814784
156	0xbc2e6739	-0.010644727
157	0x3d3ad330	0.04561156
158	0x3d0505d2	0.032476254
159	0xbde404ab	-0.11133703
160	0xbb955104	-0.004556777
161	0xbe19f557	-0.15034996
162	0x3e4bfa81	0.19919778
163	0xbdea02f0	-0.114263415
164	0x3cd1722a	0.025567133
165	0xbe2f68e5	-0.17129858
166	0x3e32a98f	0.17447494
167	0xbcbe9f7c	-0.023269407
168	0x3e307c8d	0.17235012
169	0xbdca0bef	-0.098655574
170	0xbe3f594a	-0.18686405
171	0xbe029b8c	-0.12754649
172	0x3e213856	0.15744147
173	0x3e48691f	0.1957135
174	0xbd0e7fff	-0.034790035
175	0x3d5a121f	0.053239938
176	0x3e161e4e	0.14659998
177	0x3d8dadd4	0.06917921
178	0xbe2e714f	-0.17035411
179	0xbde1bb80	-0.11022091
180	0x3ceb6199	0.028733062
181	0x3dffa8f9	0.12483401
182	0xbe1c2ad0	-0.15250707
183	0x3d8b2061	0.06793285
184	0x3e4085ef	0.18801092
185	0xbcf3515b	-0.02970188
186	0x3cc4cebc	0.02402436
187	0x3dc488f3	0.095964335
188	0x3d3bbab4	0.04583235
189	0x3db457d1	0.08805812
190	0x3d2ee7a3	0.042701375
191	0x3c5881e8	0.013214566
192	0xbdb41c5f	-0.08794474
193	0x3c936816	0.017993968
194	0xbdf593ef	-0.11991107
195	0x3e15dfe1	0.14636184
196	0x3e3d5172	0.184881
197	0x3dfdaf91	0.12387002
198	0xbe48a9a3	-0.19595961
199	0xbd696cfe	-0.05698871
200	0xbe27fec0	-0.16405773
201	0xbe135b60	-0.14390326
202	0xbb651c47	-0.0034959482
203	0xbd7c3b30	-0.061579883
204	0xbd324956	-0.04352697
205	0xbddaf0b9	-0.106904455
206	0xbe0fc71b	-0.14040796
207	0xbdf0fcc4	-0.11766961
208	0x3e443c6e	0.19163677
209	0x3dd20c37	0.10256236
210	0xbdd3acdc	-0.10335705
211	0x3e0a9a24	0.13535362
212	0xbe38dd33	-0.18053131
213	0x3d14edc2	0.036359556
214	0xbd4666bf	-0.04843783
215	0x3d0f2826	0.034950398
216	0x3dffda9b	0.124928676
217	0xbdb9212d	-0.09039531
218	0xbc804d05	-0.015661726
219	0xbe08f630	-0.13375163
220	0x3ddc26bc	0.107495755
221	0x3dc064ee	0.09394251
222	0xbd27d8eb	-0.040978353
223	0x3e0945eb	0.13405578
224	0x3df9d19a	0.121981815
225	0x3e396a82	0.18107036
226	0xbd4603ad	-0.04834335
227	0xbda97cbe	-0.08275746
228	0x3d2f6905	0.042824764
229	0xbdf88ec9	-0.12136609
230	0x3ce1e0a7	0.027572943
231	0xbd9f784a	-0.07786615
232	0x3bf7b2d3	0.0075591593
233	0xbcf2122f	-0.029549686
234	0xbe056837	-0.13028036
235	0x3e1bebca	0.15226665
236	0xbe1fd590	-0.15608811
237	0x3e12acc4	0.14323717
238	0xbd16d44e	-0.036823563
239	0x3e1be414	0.15223724
240	0x3daf0784	0.08546355
241	0x3e2b8697	0.1675056
242	0x3db3f8ab	0.08787664
243	0xbd4b4730	-0.049628437
244	0xbd866cd3	-0.06563725
245	0x3e367396	0.1781753
246	0x3e1aec44	0.1512919
247	0x39011a2f	0.00012312153
248	0xbe1fe3cf	-0.15614246
249	0x3cea0bac	0.028570019
250	0xbe137636	-0.14400563
251	0xbcab6c7f	-0.020925758
252	0x3d204874	0.039131597
253	0x3df43e5b	0.11925956
254	0x3dc61508	0.0967198
255	0x3e133b9b	0.14378206

Gate.weight f4 [4, 32]
0	0xbddd7ecc	-0.108152
1	0x3de15870	0.11003196
2	0x3db9ed6a	0.09078486
3	0x3d2c2d2e	0.042035274
4	0xbdf0bd48	-0.117548525
5	0x3bd6a69d	0.0065506236
6	0x3d6c2c75	0.057659585
7	0xbe1ea116	-0.15491137
8	0x3e38dbf9	0.18052663
9	0xbb6fd16f	-0.0036593338
10	0xbdedc7f0	-0.11610401
11	0x3ccd4632	0.025057886
12	0x3b835eee	0.0040091192
13	0xbda5974a	-0.08085497
14	0xbe1983bd	-0.1499166
15	0xbd913eb0	-0.07092035
16	0xbe20b68a	-0.15694633
17	0xbd33c0b5	-0.04388495
18	0x3de6a4c9	0.11261899
19	0x3da5aadb	0.08089229
20	0xbe141c06	-0.14463815
21	0x3d14f994	0.03637083
22	0xbd5eb6e3	-0.054373633
23	0xbd10881c	-0.035286054
24	0x3e1f6512	0.15565899
25	0xbd763368	-0.06010762
26	0x3e26b2e5	0.1627918
27	0x3d284bb0	0.041087806
28	0x3e235e24	0.1595388
29	0xbca2064d	-0.019778395
30	0x3dcae217	0.099064045
31	0x3cc72814	0.024311103
32	0xbdae0221	-0.084965
33	0x3e2ee96c	0.17081231
34	0x3d93c4a7	0.07215243
35	0xbd7a021f	-0.06103718
36	0x3e2582ab	0.16163127
37	0x3c7d75d3	0.015469986
38	0x3e0d95ed	0.13826723
39	0xbe3279ad	-0.17429228
40	0x3db0377d	0.086043335
41	0xbe4858e6	-0.19565162
42	0xbe09233f	-0.13392352
43	0x3e157bc6	0.14597997
44	0x3dac4f0b	0.08413514
45	0x3db5fb77	0.08885854
46	0x3dcaf0ea	0.09909232
47	0x3c212fa2	0.009838017
48	0x3e25a909	0.16177763
49	0x3d48e5fa	0.049047448
50	0xbd789f0b	-0.06069855
51	0xbddc267b	-0.10749527
52	0xbe03d88d	-0.12875576
53	0xbdb777c1	-0.08958388
54	0xbcbab4f5	-0.022791365
55	0xbd6efeb7	-0.058348384
56	0xbe0bb610	-0.1364367
57	0x3d5d82bd	0.05407976
58	0x3e20f124	0.15716988
59	0xbb373d99	-0.00279603
60	0x3d06e965	0.032937426
61	0xbdb0fb17	-0.086416416
62	0xbe35ec87	-0.1776601
63	0xbdafc72d	-0.08582912
64	0xbe065d53	-0.13121538
65	0xbc94ac23	-0.018148487
66	0x3e1b0642	0.15139106
67	0xbdb655e9	-0.08903105
68	0x3e1b31ee	0.15155765
69	0x3d9985ff	0.07496261
70	0xbdaf0208	-0.08545309
71	0x3e05c2a1	0.13062526
72	0x3d1b572e	0.037924938
73	0x3e1709af	0.14749788
74	0xbe39cc63	-0.18144374
75	0x3c6079d5	0.013700922
76	0xbc694e5d	-0.014239875
77	0x3dc4d441	0.09610797
78	0xbd51ef62	-0.051253684
79	0xbdc4b458	-0.0960471
80	0x3da30be2	0.07961251
81	0xbda1a649	-0.078930445
82	0x3dd8bac5	0.105824985
83	0xbe116750	-0.14199567
84	0xbe00c1b8	-0.12573898
85	0x3e25655c	0.16151947
86	0xbe1996e0	-0.1499896
87	0xbd917a2b	-0.0710338
88	0x3d7d51bb	0.061845522
89	0x3d6a5758	0.057212204
90	0xbce38b4e	-0.027776387
91	0xbd5d3605	-0.054006595
92	0xbe33bfc1	-0.17553617
93	0xbd52319b	-0.05131684
94	0x3b5ca643	0.0033668436
95	0x3c832d17	0.016012711
96	0xbe00e933	-0.12588958
97	0xbd507460	-0.050892234
98	0xbd7509d9	-0.059823845
99	0xbdaa2364	-0.083075315
100	0xbdd276ca	-0.102765635
101	0xbe125ee9	-0.14294018
102	0xbbc9b080	-0.0061550736
103	0xbe15969f	-0.14608239
104	0xbe2dc1e9	-0.16968502
105	0xbdb76adc	-0.08955929
106	0x3d220304	0.039553657
107	0xbe18030c	-0.14844912
108	0xbddd1f03	-0.10796931
109	0x3d6f7991	0.058465544
110	0x3e1fdb7c	0.1561107
111	0x3e2cc6ee	0.1687276
112	0x3e4cfbc0	0.2001791
113	0x3c33328f	0.010937347
114	0xbe136cf4	-0.14397031
115	0xbcf2be7d	-0.029631848
116	0x3dca43c4	0.098762065
117	0x3ce85dbf	0.028365014
118	0xbca03312	-0.019555602
119	0xbb815aff	-0.003947615
120	0xbe581cfd	-0.21104808
121	0xbd3d64f9	-0.046238873
122	0xbdd17cf6	-0.102289125
123	0xbdd090f1	-0.101838954
124	0xbe0da993	-0.13834219
125	0x3d917ebe	0.07104252
126	0xbe3eff36	-0.18652043
127	0xba405977	-0.000733755

experts.0.gate_proj.weight f4 [32, 32]
0	0xbdff8414	-0.12476364
1	0x3bbfdf65	0.005855488
2	0x3c831009	0.015998857
3	0xbda9aea7	-0.082852654
4	0xbe006fbc	-0.12542623
5	0x3d90a020	0.070617914
6	0xbe325c28	-0.17417967
7	0x3e0e92cf	0.1392319
8	0x3e48b1ba	0.19599047
9	0xbdf4b785	-0.11949066
10	0xbdafafec	-0.08578476
11	0xbe330795	-0.17483361
12	0xbbaeb2e7	-0.0053313854
13	0xbd75bd7d	-0.059995163
14	0x3d58959d	0.052877057
15	0xbd144284	-0.036196247
16	0x3ce7ed9a	0.02831154
17	0xbe253459	-0.1613325
18	0xbc23997f	-0.009985327
19	0xbdcf039a	-0.10108109
20	0x3e2672ca	0.16254726
21	0xbd868841	-0.06568957
22	0xbd990ffb	-0.07473751
23	0x3c1756bd	0.009236989
24	0xbaf50cff	-0.001869589
25	0xbe464be6	-0.1936489
26	0xbdb5fd6a	-0.088862255
27	0xbd49dfc4	-0.049285665
28	0xbcfb21e0	-0.030655801
29	0xbdc0f2a4	-0.0942128
30	0x3db0e005	0.08636478
31	0xbceea893	-0.029133117
32	0x3d885528	0.06656867
33	0x3d84efa1	0.06491018
34	0xbdecf6d9	-0.1157052
35	0x3e3c4b9a	0.18388215
36	0x3df815fd	0.12113569
37	0xbd23474e	-0.039862923
38	0x3dc24cee	0.094873294
39	0xbde51a5b	-0.111866675
40	0xbc117803	-0.008878711
41	0x3e0938ca	0.1340057
42	0x3c433204	0.01191378
43	0xbd98c068	-0.074585736
44	0x3e0f8565	0.1401573
45	0xbc6cca7b	-0.014452572
46	0x3e2624aa	0.16224924
47	0xbd9355fa	-0.07194133
48	0x3de4c1c6	0.11169772
49	0xbd0538b2	-0.032524772
50	0xbe51f787	-0.2050458
51	0xbd8d95b5	-0.0691332
52	0xbe2d45db	-0.16921179
53	0x3e056473	0.130266
54	0xbe0a6ad1	-0.1351731
55	0xbde159c1	-0.11003447
56	0xbddce3e1	-0.10785652
57	0x3e2f0a30	0.1709373
58	0x3da29ecc	0.07940444
59	0x3d007e98	0.03137073
60	0x3da052a6	0.07828264
61	0x3d14515e	0.03621041
62	0xbdaddfa4	-0.08489922
63	0x3e073f99	0.13207854
64	0xbe05a034	-0.13049394
65	0xbdea286b	-0.1143349
66	0xbd7964df	-0.060887214
67	0x3e2d536c	0.16926354
68	0xbd9a4ce4	-0.07534197
69	0xbe0d4bb7	-0.13798414
70	0xbe36cbb8	-0.1785115
71	0xbd948141	-0.07251216
72	0xbd9ea05e	-0.07745431
73	0x3d00fb9d	0.031489957
74	0x3e37fe53	0.1796811
75	0xbc0823c2	-0.008309307
76	0x3d3c613f	0.04599118
77	0x3e1743c9	0.14771952
78	0xbe13a12a	-0.14416948
79	0xbd124baf	-0.03571671
80	0xbd4ca368	-0.049960524
81	0xbe14dd2b	-0.14537494
82	0xbdfd13cd	-0.12357292
83	0xbcb540ab	-0.022125563
84	0x3c9c252a	0.01906069
85	0xbd89628d	-0.0670825
86	0x3d395bdd	0.045253623
87	0xbd66a576	-0.05631014
88	0xbe22eb3d	-0.15910049
89	0xbd8f65f8	-0.07001871
90	0x3d5bf3d6	0.053699337
91	0x3ca2ad79	0.019858109
92	0xbd56e2e6	-0.05246248
93	0x3c558627	0.013032473
94	0x3dd7a028	0.10528594
95	0x3dfdcb08	0.12392241
96	0xbcd70519	-0.026247548
97	0x3d38281c	0.044960126
98	0xbc99cb2c	-0.018773638
99	0xbe1aee1e	-0.15129897
100	0x3e364dd6	0.1780313
101	0xbb60a606	-0.0034278645
102	0x3ceb47b0	0.028720707
103	0x3e007ebc	0.12548345
104	0x3d653a8a	0.05596403
105	0x3da719d2	0.08159222
106	0xbce11460	-0.027475536
107	0x3dde6362	0.108587995
108	0xbe1cd01e	-0.15313765
109	0x3dc01cf9	0.09380526
110	0x3e1dde04	0.15416723
111	0xbe2099e7	-0.15683709
112	0xbe01cbb1	-0.12675358
113	0x3ddf3adb	0.10899898
114	0xbdebff91	-0.11523355
115	0xbdc6143e	-0.0967183
116	0x3b44eb86	0.003004761
117	0xbcbbd5a8	-0.022929028
118	0x3d96ec0a	0.0736924
119	0xbcc7b459	-0.024377989
120	0xbdd9b729	-0.10630638
121	0xbd7843b9	-0.06061146
122	0x3e2ae03d	0.16687103
123	0xbd69de4a	-0.057096757
124	0xbca9a85e	-0.020710167
125	0xbdd92202	-0.106021896
126	0xbd91a279	-0.07111067
127	0xbdfaeb60	-0.122519255
128	0xbe2beda8	-0.16789877
129	0x3b83eb4e	0.0040258532
130	0x3c6744fe	0.01411557
131	0x3d6f76a2	0.058462746
132	0x3dc32bd8	0.09529847
133	0xbcf8d6a9	-0.030375795
134	0x3e1b0b9e	0.1514115
135	0x3e298f3f	0.1655855
136	0x3e220797	0.15823208
137	0x3d86321b	0.065525256
138	0xbe22d261	-0.15900566
139	0xbe03f233	-0.1288536
140	0xbe04af1a	-0.12957421
141	0x3c0606a9	0.008180299
142	0x3dce5c29	0.10076172
143	0xbc136751	-0.0089968005
144	0x3e282b1c	0.16422695
145	0x3d90665e	0.07050775
146	0x3e25c9b8	0.16190231
147	0xbd9e95e0	-0.0774343
148	0x3d21c309	0.03949264
149	0x3d8dd2ff	0.0692501
150	0x3e0dab42	0.13834861
151	0xbd282cb5	-0.04105826
152	0xbe124c53	-0.14286928
153	0x3cf0dfd2	0.0294036
154	0x3d4725c5	0.048620004
155	0xbe105719	-0.14095725
156	0x3e3011b5	0.17194255
157	0x3db8e219	0.090275
158	0xbdfd6caa	-0.12374242
159	0x3c7e0155	0.015503247
160	0xbdb9e3a6	-0.090766236
161	0xbd83cfce	-0.0643612
162	0x3db075ad	0.08616195
163	0xbc15d479	-0.009144896
164	0x3db0fdf5	0.086421885
165	0xbe2438ab	-0.16037242
166	0xbe04c0a2	-0.12964109
167	0x3d5e2a01	0.054239277
168	0xbd966631	-0.0734371
169	0xbb45348a	-0.003009113
170	0xbba09373	-0.00490039
171	0xbd6c1f5c	-0.057647094
172	0x3e106a19	0.14102973
173	0xbe4048a7	-0.18777715
174	0x3d0d0bf5	0.03443523
175	0x3dd0f976	0.10203831
176	0x3cd3235a	0.025773693
177	0xbd6c9741	-0.057761434
178	0xbca4040d	-0.020021463
179	0xbc537745	-0.012906854
180	0xbe1b9cdc	-0.15196556
181	0xbe022fed	-0.12713595
182	0x3cb01c78	0.02149795
183	0xbd87c8e7	-0.06630116
184	0xbdff05b3	-0.12452259
185	0x3df86cbb	0.12130114
186	0x3c3f3c5d	0.011672107
187	0xbe444281	-0.19165994
188	0xbe11fd9d	-0.14256902
189	0xba351d1b	-0.0006908939
190	0x3dd5fe46	0.104488894
191	0xbdc54f0d	-0.09634218
192	0x3e0e70c8	0.1391021
193	0x3d0fd702	0.035117157
194	0xbc8bc542	-0.017061833
195	0xbd9abc14	-0.07555404
196	0xbe4e3316	-0.20136675
197	0xbde332a0	-0.1109364
198	0xbd4fee3a	-0.0507643
199	0x3c96bdf5	0.018401125
200	0x3d575f1a	0.05258093
201	0x3c8484f1	0.016176673
202	0x3dd1ae3f	0.10238313
203	0xbdab4583	-0.08362868
204	0xbd063366	-0.03276386
205	0x3d0ad1c7	0.033891466
206	0xbd3a3ee7	-0.045470145
207	0xbdfaccab	-0.122460686
208	0x3c61d89d	0.013784555
209	0x3db85815	0.09001175
210	0x3dd57d67	0.10424309
211	0x3d1e7cc8	0.03869322
212	0x3d0c87e3	0.03430928
213	0x3e1db2e2	0.1540027
214	0x3e08d589	0.13362707
215	0x3d3d5eda	0.046233036
216	0x3c6d4a0f	0.014482989
217	0xbdb7eb15	-0.08980385
218	0x3cb1f305	0.021722326
219	0x3e01edaa	0.12688318
220	0x3dc37ecb	0.09545668
221	0xbe0379ed	-0.1283948
222	0x3e34d1c4	0.17658144
223	0xbc061e96	-0.008186003
224	0x3d9d6f43	0.07687237
225	0x3d9a1dd6	0.07525222
226	0x3dd6a86b	0.10481342
227	0x3d276cfb	0.040875416
228	0x3e198273	0.14991169
229	0x3b379cb4	0.0028016986
230	0x3dcaea5e	0.09907983
231	0xbda944cb	-0.08265074
232	0x3d17346f	0.03691524
233	0xbe2476b8	-0.16060913
234	0x3e116827	0.14199887
235	0x3e1f67e1	0.1556697
236	0xbdcdfbb6	-0.10057776
237	0xbdf8ef08	-0.121549666
238	0xbc95dfb4	-0.018295147
239	0x3d95e849	0.073196955
240	0xbd363583	-0.044484627
241	0x3e0282df	0.12745236
242	0xbe23be89	-0.15990652
243	0x3e24562b	0.16048495
244	0xbdb5a11d	-0.088686205
245	0x3e172196	0.14758906
246	0xbdc75dfc	-0.09734723
247	0xbdaa6f8e	-0.083220586
248	0xbe347c29	-0.17625488
249	0x3c79955c	0.015233364
250	0xbd786e1f	-0.060651895
251	0x3db340a2	0.08752562
252	0xbdb1072a	-0.086439446
253	0x3e0d440c	0.13795489
254	0xbddf03f2	-0.108894244
255	0xbda17a06	-0.07884602
