output/FF-L-MoME/ts_encoder_epoch2.pt (torch, 433260 bytes, 34 tensors)

proj.weight f4 [32, 8]
000000 1f 2c c7 3a bf 36 83 be d4 34 71 be b5 27 6b be
       0.0015195644 -0.25627705 -0.23555309 -0.22964366
000010 21 50 34 3e 8f fc 81 be 1c 19 12 bd 51 8d 89 3e
       0.17608692 -0.25388 -0.035668477 0.26865628
000020 14 d9 ae be 8a 18 75 3e 11 20 a3 3e 7f 74 1a 3e
       -0.34149992 0.23935142 0.31860402 0.15083502
000030 99 ce 46 3d a4 cd ab 3e 32 53 90 3e fa 64 9b 3e
       0.04853687 0.3355533 0.28188473 0.30350477
000040 50 ce f6 bd 56 d5 09 3e cf d1 6f 3d a5 fd 9c be
       -0.1205107 0.13460287 0.0585497 -0.30662265
000050 9b 49 90 be f3 14 9c be 32 c8 9d bd ca 49 d6 3b
       -0.28181157 -0.30484733 -0.077042 0.006539558
000060 52 d2 20 3e 9f fa 6f be 37 d3 e4 3b 2c 9c 56 3e
       0.15705231 -0.23435448 0.0069831866 0.20958012
000070 a3 80 96 be 48 8a 98 3e d6 80 93 bd 80 6a 80 be
       -0.29395017 0.29793 -0.07202308 -0.25081253
000080 e4 2e f0 bc 64 f7 18 bd f6 99 a1 3e 3a f7 13 3e
       -0.029319234 -0.037345305 0.31562775 0.14449778
000090 f2 fa 5c 3e d2 7b 84 3e 45 73 5d be 2a 17 21 be
       0.21580103 0.25875717 -0.21626003 -0.15731493
0000a0 9f 8e 7d be 52 a8 2f be ba 38 74 be c4 52 77 3d
       -0.24761437 -0.17154053 -0.23849764 0.060381666
0000b0 00 5b b3 be 36 bf 92 3e ce 0b b1 be f8 6f 4f 3e
       -0.35030365 0.28661507 -0.3457932 0.20257556
0000c0 07 b3 b0 be 38 ad 35 3e a8 b4 3c be ec 03 90 3d
       -0.34511587 0.17741859 -0.1842829 0.07031998
0000d0 21 a4 a0 3e f5 3e 08 be 8c fe fd b9 de f9 51 bd
       0.3137522 -0.13305266 -0.00048445573 -0.051263683
0000e0 c6 96 b0 be 67 80 8f 3e b3 9a 9c bd 91 01 af bd
       -0.3449003 0.2802765 -0.07646694 -0.08545221
0000f0 53 9b 15 be d4 44 28 3e 48 fb 42 be e4 d9 3b be
       -0.14610033 0.16432506 -0.19041169 -0.18344837
000100 5a 56 90 3e f4 8f 8c be 95 52 af be 33 9b be 3d
       0.2819088 -0.27453578 -0.34242693 0.09306946
000110 6c 87 02 be 67 76 27 be 92 ae 86 bd b9 77 9b 3e
       -0.12746972 -0.1635376 -0.065762654 0.3036478
000120 4c f9 c0 3d 8f e4 a2 be 06 1e 12 3e 59 d2 af be
       0.094225496 -0.31815 0.14269266 -0.3434017
000130 13 c6 e5 3d 48 2b 4e 3d 20 3e 99 be f2 ae 30 3e
       0.1121942 0.050334245 -0.2993021 0.17254236
000140 43 00 a4 3d f0 b5 a4 3e b1 0a e2 bd 8e fa 66 3e
       0.080078624 0.32170057 -0.110371955 0.22556517
000150 bb 0a 46 3d d1 37 b4 3e 6b 87 99 be f9 dc 74 3e
       0.048350077 0.35198835 -0.29986128 0.2391242
000160 6f ae 1f be ac 61 7f be 6a 84 84 be 16 33 f2 3d
       -0.15593885 -0.24939603 -0.25882274 0.1182615
000170 c2 6d 0e 3e 6f d4 95 3c de 74 d9 bb c2 75 0f be
       0.13909057 0.018289773 -0.006636246 -0.14009765
000180 17 4e a0 3e 37 71 4c 3d cf 8e 1a 3e 21 a1 24 be
       0.31309578 0.049912658 0.1509354 -0.16077091
000190 61 7a 9a be d6 d4 88 be be 2e 94 3e 74 40 cd bd
       -0.30171493 -0.2672488 0.2894191 -0.10022059
0001a0 04 bf 19 3c c3 f4 b5 be 4f 96 86 3d c4 6e b4 bd
       0.009383921 -0.355383 0.06571638 -0.08810189
0001b0 9d c0 19 bd 6a ee 6a 3c c5 4f 80 3e fe 2d a4 bd
       -0.037537206 0.014339069 0.2506086 -0.08016585
0001c0 cb 35 60 be 6f c6 9f 3e 01 01 b3 3e 7c d7 ab 3e
       -0.2189552 0.3120608 0.34961703 0.3356284
0001d0 44 1a 9f be 60 3d 69 bd 30 38 47 be a4 09 4b 3e
       -0.31074727 -0.056943297 -0.19455028 0.19827896
0001e0 c5 b2 19 bb 4d 67 04 3e e8 33 a9 3e f2 b2 87 3e
       -0.0023452502 0.12930031 0.33047414 0.26503712
0001f0 af 32 a4 bd 3a d2 7c 3e 1f 37 8f 3e 6e 74 2e be
       -0.0801748 0.2468957 0.27971742 -0.17036602
000200 b1 84 85 3c 2b 6c 86 be 36 59 11 be e9 78 0b 3e
       0.016298624 -0.262544 -0.14194188 0.13620342
000210 b3 11 8a bb 8c ee 9a 3e 7a c2 ab 3e 20 a8 d0 bd
       -0.0042135357 0.30260122 0.3354681 -0.10188317
000220 b1 45 e6 bd a5 bd 80 be 59 43 e2 bb 60 7e 55 3d
       -0.11243761 -0.25144687 -0.006905001 0.052122474
000230 13 ba 02 3e d6 c4 05 3e d8 cb e1 3d 45 13 89 bd
       0.12766294 0.13063368 0.11025208 -0.066931285
000240 5e 5b c6 bd 3d 20 58 be f1 5a 5e be 03 1c a3 be
       -0.09685396 -0.21106048 -0.21714379 -0.3185731
000250 fd ba 87 be 28 21 44 be 26 60 32 3e 72 19 1a bd
       -0.26509848 -0.19153273 0.1741949 -0.037621923
000260 7f b7 4d be a4 57 47 be 2e 35 a3 3e 80 5d 90 bd
       -0.2008953 -0.19467026 0.3187651 -0.07049084
000270 38 63 53 bd 5b 83 b4 be 8e 6a 9b be af 77 81 be
       -0.051608294 -0.35256466 -0.30354732 -0.25286624
000280 e9 ab b6 bd 63 76 21 3d c5 1f b1 3e 66 50 2e be
       -0.08919508 0.039419543 0.3459455 -0.17022857
000290 c0 a8 00 bd 17 60 ea bd 52 d9 a2 be ae e0 0f 3e
       -0.031410933 -0.11444109 -0.31806427 0.14050552
0002a0 d3 29 97 3e a3 c9 69 3c d1 a9 00 3d 36 4b 89 be
       0.29524097 0.014269265 0.03141195 -0.26815194
0002b0 19 9c 47 3e 32 c7 00 be 20 dd 05 be 29 71 88 be
       0.1949314 -0.12575987 -0.13072634 -0.26648834
0002c0 b3 6c 61 3e 9a 66 7b be 4e 14 ee bc 0e 9e b0 be
       0.22014122 -0.24550858 -0.029062416 -0.34495586
0002d0 f3 df 23 be 45 43 02 be b9 50 92 be ad 48 62 3e
       -0.16003399 -0.12720974 -0.28577211 0.22098036
0002e0 73 18 8d 3e a8 96 80 3d ed 67 9d be 8b ba 22 be
       0.27557716 0.062787354 -0.30743352 -0.15891473
0002f0 f7 b0 1f 3e ae 7e 15 be 8a 0d ea 3d e8 d9 1e be
       0.1559485 -0.14599106 0.114283636 -0.15512812
000300 f4 bd b8 bd 83 aa 97 3d 6f 89 fa bd e6 38 c8 3a
       -0.09020606 0.074055694 -0.12233245 0.0015275746
000310 80 f9 16 be 94 42 91 be ea 69 a5 3e d3 0b a1 3e
       -0.14743614 -0.28371108 0.3230737 0.31454334
000320 8d ac 25 be 3e 29 72 3e c8 d3 13 3e bd f6 0c 3e
       -0.16179104 0.23648545 0.14436257 0.13765998
000330 f9 0a b0 3e 0e 6a 2f bd 61 76 3f bd 25 7b 94 be
       0.3438337 -0.04282575 -0.046743754 -0.29000202
000340 7d 16 bb bd 6c 02 b4 3e 16 3a 9e 3e cd 43 20 bc
       -0.09135149 0.35158098 0.3090369 -0.00978179
000350 0d c1 6e be 06 46 37 be 41 37 1f be 2f 54 98 3e
       -0.2331583 -0.17897806 -0.15548421 0.29751727
000360 e9 db 9e 3c 3f 27 a3 be 9e 36 9d be 6f a3 a4 bd
       0.01939197 -0.3186588 -0.30705732 -0.08038985
000370 2e 15 f4 3c 9e 07 82 be ef 10 95 be 83 32 84 3e
       0.029795256 -0.25396436 -0.29114482 0.25819787
000380 6d bd a9 3e e8 33 21 3d 4e 9f cf 3c 2c 7c a2 3e
       0.33152333 0.039356142 0.025344517 0.3173536
000390 cc 5e c4 bd e1 b5 95 be 20 ed 6c be fb 03 90 3e
       -0.095883936 -0.29240325 -0.23137331 0.28128037
0003a0 53 ef 43 be c9 bd 91 3e 5d cf a0 3e ae 68 fb 3d
       -0.19134264 0.28465107 0.31408206 0.122758254
0003b0 27 8c 29 3e dd 00 9d bd a7 49 81 be d6 2f 39 be
       0.1655737 -0.0766618 -0.25251505 -0.18084654
0003c0 34 2b 2f be 01 ca 53 be 27 a7 9d be 6e 5e 79 be
       -0.17106324 -0.20682527 -0.3079159 -0.24352428
0003d0 a4 43 2b be 56 35 b4 3d e7 fb 24 3e 89 52 38 be
       -0.16725022 0.087992355 0.16111718 -0.18000235
0003e0 10 ec 13 bd c5 99 82 3b d5 65 3d be c0 62 bf be
       -0.0361138 0.003985616 -0.18495877 -0.37380028
0003f0 61 45 2c be ed 0f 82 be 57 0c 16 3d 9e ff a2 be
       -0.16823341 -0.25402775 0.036632862 -0.31835645

proj.bias f4 [32]
000000 d6 db 27 3e 75 a1 05 be 34 92 9e 3e d6 1c 1a 3e
       0.16392455 -0.13049872 0.3097092 0.15050063
000010 7b 05 aa be e7 a4 a4 be 5e dc 9b be 3e 95 38 be
       -0.33207306 -0.3215706 -0.30441564 -0.18025681
000020 e6 8e 4c be fd 3e d0 3d 3a dc a1 be a3 dc a4 be
       -0.19976386 0.10168264 -0.31613332 -0.32199582
000030 e9 0c 2b bd fe 35 9c 3e 99 24 f7 3d 4e dd 20 3b
       -0.04176036 0.30509943 0.12067527 0.002454597
000040 90 b4 9a bd 84 79 95 be 3c 62 92 3e 30 d8 38 3e
       -0.07553971 -0.29194272 0.28590572 0.18051219
000050 0f 93 b1 3e 2f f2 6d bd 94 e1 1c be 90 08 3a be
       0.3468251 -0.058092292 -0.15320426 -0.18167329
000060 fe 54 4d be 03 07 d5 bd 57 7b 8f be 83 84 1d 3d
       -0.20051953 -0.10401728 -0.28023788 0.03845645
000070 1f 6e f1 bd 44 73 81 3e e8 4e a5 3c 48 fe 90 3e
       -0.11788582 0.25283253 0.020179227 0.28319

EiLM.0.gamma_generator.weight f4 [1, 32]
000000 4e 6a 84 bd 41 08 f9 bd 38 0f f1 bd 19 f3 57 3c
       -0.064655885 -0.121597774 -0.11770481 0.013180518
000010 6e 44 38 3e e4 8a af bd dc 96 a5 3d 91 c8 a3 bc
       0.17994854 -0.08571413 0.08085415 -0.019993098
000020 bc e2 39 be f7 9d 19 3d 4c d9 16 bd f1 40 27 3d
       -0.18152899 0.037504163 -0.036828324 0.040833417
000030 be 62 46 be aa 46 1e be 5e fc 29 3a 33 4c b2 bc
       -0.19373605 -0.15456644 0.0006484444 -0.02176485
000040 e1 5f 9f 3d 42 1c 40 3e cb c5 54 bd c3 4b 03 3e
       0.07781959 0.1876078 -0.051946443 0.1282187
000050 0b df b5 bd 49 4a 87 bc fe 5a 1f be b6 89 13 3e
       -0.08880433 -0.016514914 -0.15562055 0.14408001
000060 20 19 10 be 00 87 96 bd 2f f9 12 3e 37 87 6c bd
       -0.14072084 -0.07349968 0.14352868 -0.05774614
000070 85 61 0a be c7 0e e5 bd ba 2e fa 3d d5 42 22 3d
       -0.13513763 -0.11184459 0.12215944 0.039614517

EiLM.0.beta_generator.weight f4 [32, 32]
000000 05 4c 28 bd 8f 33 83 3d b2 fa 20 be 80 cc fc bd
       -0.041088123 0.064063184 -0.15720633 -0.12343693
000010 cc 9e 18 3d c3 a5 bd 3b 84 c7 33 3c 8e 89 67 3d
       0.037260816 0.0057875826 0.010972861 0.056527667
000020 b5 68 fd 3c a4 e7 aa 3c 5d 00 1a be 4c 02 e3 3d
       0.030933717 0.020862408 -0.15039201 0.110844225
000030 d0 1e d3 3d 17 b7 a3 bd ac ff 1d be d2 bc 1a be
       0.103086114 -0.07993906 -0.15429562 -0.15111092
000040 bb 49 d0 3d 69 75 e5 3c 21 6b 18 be c5 99 10 be
       0.10170313 0.028010087 -0.14884616 -0.14121158
000050 4b ba a9 bd e6 8e 60 bd 82 67 01 3e c5 26 e2 bb
       -0.08287486 -0.05482378 0.12637141 -0.0069015943
000060 5c 85 1d be 6c 30 14 3d 25 5b 2e 3e 6e ad c6 3c
       -0.15382904 0.03617899 0.17026956 0.02425262
000070 cf e2 dd bd 3f a9 f1 bd a9 be de 3d ef 65 27 be
       -0.10834276 -0.11799859 0.10876209 -0.16347478
000080 4a a8 fe bb 34 5d 34 be f9 fe 1f 3e c0 21 ef bd
       -0.0077715265 -0.17613679 0.15624608 -0.11676359
000090 53 78 c8 3d e0 31 08 bd cf 30 d4 bd 93 1c 30 3d
       0.09788575 -0.03325069 -0.10360872 0.042996
0000a0 4a 97 4c 3d 37 84 8b bd ac ae 14 be cd e2 98 3c
       0.049948968 -0.06812327 -0.14519757 0.018662835
0000b0 73 aa 6a bd 28 28 f2 bd c2 c0 f7 3d a5 3c a0 bd
       -0.05729146 -0.118240654 0.120973125 -0.07824067
0000c0 f2 f8 12 be 06 07 2f 3e 4b 4c cf 3d c0 7d 15 be
       -0.14352778 0.17092523 0.101219736 -0.14598751
0000d0 fc 90 31 be 0f 05 8a 3d 3a 78 06 3e ae 10 04 3c
       -0.17340463 0.06739246 0.131318 0.008060617
0000e0 de 70 bf bc 40 13 72 3d 05 87 c5 3d ed 64 dc 3d
       -0.023369249 0.05910039 0.096448936 0.107614376
0000f0 6a e3 be bd a4 2f 15 be ce 8a 0b 3e f1 f3 10 bd
       -0.093207195 -0.14568955 0.13627169 -0.03538889
000100 83 41 ea bc 74 4b 98 bd 39 41 fd 3d d8 46 a0 3d
       -0.028595692 -0.074362665 0.12365956 0.078260124
000110 83 27 93 3d 28 d2 49 bd 7c 44 f3 bd 69 1a 18 be
       0.07185271 -0.049272686 -0.11878297 -0.14853825
000120 4c bc 12 3d ee bc d5 3d a5 90 35 3d 9d 93 71 3b
       0.035824105 0.10436426 0.044327397 0.0036861666
000130 cb 72 90 3d 87 88 de bd d8 90 aa 3d d4 8d 0d 3d
       0.07053145 -0.10865884 0.08328408 0.034559086
000140 da ce b5 bd 45 35 89 3d 56 67 9d 3d ae 6f 02 be
       -0.088773444 0.066996135 0.076857254 -0.12737915
000150 19 be 80 3c 98 76 42 3c f7 b5 c7 3c 29 50 af bb
       0.015715646 0.011869095 0.02437876 -0.005350132
000160 c0 b7 c5 bd df 5e af 3d f0 32 cf 3d 7b b4 9c bd
       -0.09654188 0.08563017 0.101171374 -0.076516114
000170 7e e3 1a bc 99 f8 f4 bd 7b 5a 4a bb 75 60 17 be
       -0.009453652 -0.11961479 -0.0030876684 -0.14782889
000180 be 14 b5 3d 64 40 1f be ee 90 eb 3d 1c 42 a6 bd
       0.08841847 -0.15551907 0.115022525 -0.08118078
000190 d6 4e b0 bd 6a 1d 11 be c8 82 4d 3d 3f da 8c bd
       -0.08608787 -0.14171377 0.05017355 -0.06877565
0001a0 98 30 52 bd 42 78 73 3d 89 66 28 be eb 3f ff 3b
       -0.051315874 0.05944086 -0.16445364 0.007789602
0001b0 30 50 46 bd 26 9c a0 bd b8 02 fa 3d f9 86 12 3e
       -0.048416317 -0.07842283 0.1220755 0.143093
0001c0 11 ec a6 bd 52 eb cf bd 76 b4 ff bd 8b fb fd bd
       -0.08150495 -0.10152306 -0.12485592 -0.12401494
0001d0 64 d2 9f bc 7e 2f 83 3d 72 34 cf 3b f7 be fc bd
       -0.019509502 0.06405543 0.0063233906 -0.12341111
0001e0 a4 21 9f bc 8e e4 14 be a7 ae e0 3d 51 2f 5f 3d
       -0.01942522 -0.14540312 0.10970812 0.054488484
0001f0 87 3d 27 3e 28 82 c9 3a 2b 42 43 3d ea a1 15 be
       0.16332065 0.0015373873 0.047670525 -0.14612547
000200 08 75 89 3d 43 fe 22 3e 6b fd 62 3d 88 ad 2d bd
       0.06711775 0.15917306 0.05541746 -0.04240182
000210 36 f3 7b 3d 5b 92 1a be 57 d9 a0 3d 4e f8 5c bd
       0.06151124 -0.15094893 0.07853954 -0.05394774
000220 23 01 af 3d 53 2c 01 be 43 a1 d5 3d 42 2d 82 3d
       0.08545139 -0.12614565 0.10431149 0.063562885
000230 30 38 21 be df ac 99 bd 17 de 1a 3d a0 ba 05 3c
       -0.1574409 -0.07503676 0.037809458 0.008162171
000240 10 e3 19 3e 06 ff 18 3e 37 36 87 3c 58 fb ac 3d
       0.15028024 0.14941034 0.016505344 0.084463775
000250 88 31 de 3c eb 08 f8 3d 1e 01 20 bc ed 78 19 be
       0.027123228 0.12111076 -0.009765891 -0.14987536
000260 21 e6 99 bc 64 a4 a6 3c 5d e1 fa 3c 49 ad 00 3e
       -0.018786492 0.02034206 0.03062504 0.12566103
000270 80 82 d8 3b 16 1a 18 3e be 15 57 3c 7e 3d 91 bd
       0.0066073537 0.14853701 0.013127742 -0.07091807
000280 cd 69 48 bd e4 3f bb 3d ac f2 1e be 56 87 1f be
       -0.048929024 0.091430455 -0.1552226 -0.1557897
000290 27 26 72 bd 73 7d 11 3e 8a 51 31 be f7 a5 a0 bc
       -0.059118416 0.14208011 -0.17316261 -0.019610388
0002a0 28 aa cb 3d 8c 76 90 bd 1f f5 21 3d 9f f4 28 3e
       0.09944564 -0.07053861 0.039540406 0.16499566
0002b0 0e 00 d5 bd c6 49 00 3d d3 6b df 3c 6e f1 3a 3e
       -0.10400401 0.031320356 0.027273094 0.1825616
0002c0 a3 fd 0b be ff c9 1e 3e 1b 09 fc 3c 17 eb 13 bd
       -0.13670973 0.15506743 0.03076606 -0.03611287
0002d0 41 66 1b bd d7 8f ed 3d 76 70 81 3d 6d e8 31 3e
       -0.037939314 0.11599701 0.06320278 0.1737382
0002e0 23 20 19 3e 90 33 0d bd 9a 86 29 3a b9 c9 8b 3d
       0.14953665 -0.034473002 0.00064668956 0.06825585
0002f0 10 23 83 bd ac 3a 13 3e 6c ba 0e be 9d 11 fe 3d
       -0.06403172 0.1437785 -0.13938302 0.12405703
000300 b7 f9 1f 3d 8f 1e ae bd 29 54 86 3d 51 89 24 bd
       0.039056506 -0.08501922 0.06559021 -0.040170018
000310 ee c1 8e 3c fd 00 41 3d 40 5a ff 3d ad c0 d4 3d
       0.017426457 0.047120083 0.12468386 0.103883125
000320 0b 27 21 be 3c 0f 21 3e 59 8e e0 bc c5 ef 03 bd
       -0.1573755 0.15728468 -0.027411627 -0.032211084
000330 dc f6 6b 3d 29 82 1d 3e b9 ab 24 3d 33 6b f3 bd
       0.05760847 0.15381683 0.04020283 -0.11885681
000340 b1 20 0b be b1 01 b3 3d af 4b 87 bc db 82 2f be
       -0.1358669 0.08740557 -0.016515581 -0.17139761
000350 bd 29 a0 bc 01 d5 d2 3c 12 df 38 bd 3a a1 2b be
       -0.019551152 0.025736334 -0.04513461 -0.16760722
000360 8a d1 11 be 22 f4 ec 3d f5 8f 83 bd ac 14 1d 3e
       -0.14240089 0.11570002 -0.06423942 0.15339917
000370 35 fa 1c 3e 1d 28 cb bc 43 14 8c 3c dc d9 0f be
       0.15329821 -0.024799401 0.017099505 -0.1404795
000380 d6 1d 1f 3d 8f 22 b2 bc b8 6d 58 bc c0 b6 88 3d
       0.038846813 -0.021744994 -0.013209753 0.06675482
000390 06 e3 1e 3d 17 e3 5c bd 65 f4 06 be 7d ea a0 bd
       0.038790725 -0.053927507 -0.13179167 -0.07857225
0003a0 1c 95 2e 3d 4d b5 45 bb 28 2f 99 3c 34 4a ce 3c
       0.04262267 -0.0030167878 0.018699244 0.025181867
0003b0 e0 92 1b be f5 4a 14 be 6d 98 08 be 5e 7a 21 be
       -0.15192747 -0.14481719 -0.13339396 -0.15769336
0003c0 1e a2 47 3d a0 91 fc bd 64 bc 19 3e a4 0f 09 3e
       0.04873859 -0.12332463 0.15013272 0.13384873
0003d0 3c e5 00 3c 90 e2 1f bd 6f fe 2c 3c fb 93 10 be
       0.007867154 -0.039034426 0.010558709 -0.1411895
0003e0 0b 19 8e bd 05 1f 00 be 39 c3 ee bd 40 57 a0 bd
       -0.0693837 -0.12511833 -0.116583295 -0.078291416
0003f0 eb 14 c8 3d 69 ec 08 3e c0 c9 9f bd cb 00 ef 3d
       0.09769615 0.13371433 -0.07802153 0.11670073

EiLM.1.gamma_generator.weight f4 [1, 32]
000000 40 4b 0c be e9 59 ce 3d 42 d1 00 3e ab 2c 89 bc
       -0.1370058 0.10075743 0.12579826 -0.016744932
000010 0c 1b 5a 3d 21 07 2e be 46 f0 a6 3d a3 f5 91 3d
       0.05324845 -0.16994907 0.08151297 0.071269296
000020 c7 c9 ca 3d 83 d3 6c 3d 88 4e 4a bd c0 2a 33 bc
       0.09901767 0.0578189 -0.0493913 -0.010935485
000030 a9 25 1b 3e 6f b9 23 3e c4 e9 1b bd 35 a0 1b be
       0.15151085 0.15988706 -0.038064733 -0.15197833
000040 6e 8f d5 3c f5 87 86 bd 4c a7 76 bd 81 03 23 be
       0.02606937 -0.065689005 -0.06021814 -0.15919305
000050 66 77 0d bc a2 36 04 be 9c a4 5d 3c a9 ec 33 3b
       -0.008634424 -0.12911466 0.013528015 0.0027454293
000060 56 52 c3 bd 69 11 92 bd f9 13 fb 3c 15 64 d7 3d
       -0.09537189 -0.07132227 0.030649172 0.10517136
000070 92 5b df 3d 55 d0 25 3e 6f 04 39 3d ca 2c be 3d
       0.109061375 0.16192754 0.045170244 0.092858866

EiLM.1.beta_generator.weight f4 [32, 32]
000000 4d 48 3f 3d 33 8f 0f be 51 00 0f 3e 00 42 d8 bc
       0.04669981 -0.1401947 0.13964964 -0.026398659
000010 7d 87 e3 bd 7a 62 80 bc a1 5e 11 bc f1 9b 6b bd
       -0.11109827 -0.015671957 -0.008872659 -0.057521764
000020 e7 f6 b8 bd c6 11 6e bd 4a 2c b9 3d 30 cf 2b be
       -0.09031468 -0.05812242 0.090416506 -0.16778255
000030 d2 c4 b1 3d b8 fd 08 be f4 5e fe bc 9b 9a bb 3c
       0.086801186 -0.13378036 -0.031051137 0.02290087
000040 78 cc 07 be 59 9d 19 be 2b 02 0d be f7 5c 17 3e
       -0.13261592 -0.1500143 -0.13770358 0.14781557
000050 65 95 8a 3d 0e 81 ed bd c4 b8 20 3e e0 20 d9 bc
       0.06766776 -0.11596881 0.15695482 -0.026504934
000060 8f ff 2f 3e 6d 94 f7 bd 0e f1 18 be c4 80 d8 bd
       0.17187332 -0.12088857 -0.14935705 -0.10571435
000070 83 6d 0e 3e 50 8b a4 bd 3b 07 13 3e ff 19 bc 3d
       0.13908963 -0.08034384 0.14358227 0.09184646
000080 d6 01 f1 3b ba 78 19 be 26 d5 dd bd 94 2c bd 3c
       0.007354955 -0.1498746 -0.108316705 0.023092546
000090 24 79 22 be 88 03 28 3d b4 60 3d 3d 2c 87 55 3d
       -0.15866524 0.041018993 0.0462348 0.052130863
0000a0 d8 f1 ac bd d7 20 1c 3e 5c ec bb bd 05 c0 e6 bb
       -0.084445655 0.15246902 -0.09175941 -0.0070419335
0000b0 fa 50 68 bd c8 6d 60 bd cf 1f c8 bd 0e 08 21 be
       -0.05671785 -0.054792196 -0.09771692 -0.15725729
0000c0 bf 78 29 3e 2e 9c b7 bd da 91 8a bd 0d 17 9c bd
       0.16549967 -0.08965336 -0.067661 -0.07621584
0000d0 cc 9a fb bc 9a f5 b1 bd 30 ba e8 3d be ee 58 3d
       -0.030713461 -0.08689423 0.113636374 0.052962057
0000e0 a5 fd 89 3d 34 e1 cd 3d 77 73 d4 3d c2 5b 1e 3d
       0.06737832 0.1005272 0.10373586 0.038661726
0000f0 ca 01 9d bd 98 04 30 3d 3c fe 14 bd 17 51 c7 bd
       -0.07666357 0.04297313 -0.03637527 -0.097322635
000100 ca 54 53 bd 4a e2 48 3d 46 5e 15 bb e5 50 0c 3e
       -0.051594533 0.04904393 -0.0022791787 0.13702734
000110 86 08 41 be 75 71 b5 3d 21 6d d9 bd 3a 96 2e bd
       -0.18850908 0.08859531 -0.10616518 -0.042623736
000120 95 75 73 bc 3f 43 a0 3d 52 41 84 bd 92 2e 8d 3d
       -0.014859577 0.07825326 -0.06457771 0.06893648
000130 0c d3 a2 3c 9c 00 03 be b8 ba 14 3e 5b fe 14 3e
       0.019876026 -0.12793201 0.14524353 0.14550154
000140 5b 56 d9 3c 4c 15 0d bd db 31 fd 3d 37 f6 9d bd
       0.026530435 -0.03444414 0.12363025 -0.077129774
000150 c9 26 e9 3c 76 5c a0 bd 4d fa 13 3e 89 e7 fd bd
       0.028460877 -0.078301355 0.14450951 -0.123976775
000160 7b 6f 38 3e c9 a4 d7 bd f9 60 b2 3d 5e 39 e7 bd
       0.18011276 -0.10529477 0.08709902 -0.11290239
000170 67 97 14 be 43 53 f1 bc e1 e8 96 3d 48 9f 81 3c
       -0.1451088 -0.029458648 0.07368637 0.015823022
000180 6c 72 8d 3d 4d 41 d8 3d cd dc 22 bd 14 12 97 bc
       0.0690659 0.1055933 -0.039761353 -0.018441238
000190 8e 38 15 be 4b 98 cc 3d 9e 82 48 3d 4b d5 82 bd
       -0.14572355 0.09989985 0.04895269 -0.06388339
0001a0 70 3c 93 3c ae f8 aa bc 0c 8e 0e be d5 ca f3 bd
       0.017973155 -0.020870533 -0.13921374 -0.119039215
0001b0 d6 8f 01 be b3 20 9e bd 79 4e dc 3d 02 ef f2 bd
       -0.12652525 -0.07721081 0.10757155 -0.11861993
0001c0 d2 0a 03 be 86 06 14 bd 75 e8 bb bd 52 78 cf bd
       -0.12797096 -0.036139034 -0.09175197 -0.10130371
0001d0 eb 82 86 bd b4 fc f1 3d 98 37 13 be 56 e3 22 3d
       -0.06567939 0.118157774 -0.14376676 0.039767586
0001e0 3c f6 01 3a b3 16 04 bc 09 48 74 3d ba df d7 3d
       0.0004957651 -0.008062053 0.05963901 0.10540719
0001f0 ba a2 f8 3d 7f d0 93 bd 39 bc f5 bb cf 21 25 be
       0.12140413 -0.07217502 -0.0074992445 -0.16126178
000200 a3 a8 2a 3d 4c 9d 10 be f9 10 9d bc a5 96 5a bd
       0.04166473 -0.14122504 -0.019173132 -0.053366322
000210 90 e0 2c 3e 86 6f 08 bc 8e 41 c5 3d 84 72 15 be
       0.16882539 -0.0083273705 0.09631644 -0.14594465
000220 8e 06 26 be 5e 65 60 3c 76 15 49 bd 48 bc c9 3d
       -0.16213438 0.013696043 -0.049092732 0.09850365
000230 a5 34 0c 3d eb ad 4b 3d 2a bb fd bd 92 c7 58 bd
       0.034229893 0.049726408 -0.12389214 -0.0529247
000240 70 fa 95 bd 2f 7a 18 3e 81 f2 fc bb 78 8f bd bd
       -0.07323158 0.1489036 -0.0077193384 -0.0925588
000250 42 16 27 3d 42 54 68 bd da f4 21 be f2 c5 10 3c
       0.04079271 -0.05672098 -0.1581606 0.008836256
000260 a6 ea bc 3d 25 19 0c 3e fe 9c 2e 3e 32 e0 83 bd
       0.09224443 0.13681467 0.17052075 -0.06439246
000270 36 a1 20 be d6 6d 3a bd 0e f0 e3 bd a1 4d 15 3e
       -0.15686497 -0.045514904 -0.11129771 0.14580394
000280 de a2 21 bd a4 a3 b2 3d 2b 1e e0 3d 8d fd cd 3d
       -0.039461963 0.08722618 0.10943254 0.100581266
000290 bc 21 22 be 8a 13 26 3e 36 96 5f bc ae 4a 2b 3e
       -0.15833181 0.16218391 -0.013646653 0.16727707
0002a0 e5 f6 79 3d c2 35 ec 3b ef 4a 0f be 46 d5 dc 3b
       0.061026473 0.007208557 -0.13993429 0.0067392914
0002b0 a1 97 16 3e 18 e1 0e 3c 06 0a 16 be f4 75 9d bc
       0.1470628 0.008720659 -0.14652261 -0.019221283
0002c0 4b e1 c6 3d 42 2e 09 be 41 e6 68 3c fd 92 c5 3c
       0.0971094 -0.13396552 0.014215053 0.024117941
0002d0 c0 69 d7 bc ca 36 56 3d 89 0a 07 be 2c 35 bb 3c
       -0.026295543 0.052298345 -0.13187613 0.022852503
0002e0 5d 83 73 3d 1f 7f 12 be b7 dd 3d be 91 f2 21 be
       0.05945145 -0.14306305 -0.18541609 -0.15815188
0002f0 06 03 7d bc 07 20 07 be 46 a3 b3 b9 71 ce 29 3d
       -0.015442615 -0.13195811 -0.0003426319 0.041456643
000300 2b f2 88 bd d2 94 ee 3d 57 73 e8 3d 7b c7 08 3e
       -0.06686815 0.11649479 0.11350124 0.13357346
000310 51 df fe 3a 57 03 9c 3c 2e 1a 09 bd 16 c6 f3 bd
       0.0019445216 0.019044561 -0.033472233 -0.11903016
000320 4e e6 44 3d 7c 2f 4d bd 06 35 c3 3c 1f 79 ad bc
       0.0480712 -0.050094113 0.023828994 -0.02117592
000330 4c 6a 24 be 54 75 c8 3c 95 46 d4 bc 79 e2 1a 3e
       -0.16056174 0.024470009 -0.025912562 0.15125455
000340 8c c2 2c 3e 04 54 0b 3e c4 77 94 3d e2 e9 08 be
       0.16871089 0.13606268 0.07249406 -0.13370469
000350 71 8d ab 3d 9f 5f 05 bd 09 3f ad bd c8 fe 0d 3e
       0.08376587 -0.032561895 -0.084592886 0.13866723
000360 e6 a3 21 be 3b db 30 3d ab da 42 3c 12 8e 29 bc
       -0.15785179 0.043177824 0.011892955 -0.010348814
000370 dd 69 dd bb 69 89 69 3d 25 93 cf 3c 17 81 f7 3d
       -0.0067570047 0.05701581 0.025338719 0.12085169
000380 49 0e 83 bc 89 39 03 be 99 91 f6 bd f1 33 c4 3c
       -0.015998023 -0.12814917 -0.12039489 0.023950549
000390 29 00 2c be a0 f7 5a 3c 6b 75 11 3a 15 b8 b1 bd
       -0.16796936 0.013364702 0.00055488077 -0.08677689
0003a0 2f 28 90 3c a0 0b 35 3d cd 98 c4 bd 88 6e e8 bd
       0.017597286 0.04420054 -0.09599457 -0.11349207
0003b0 23 d5 14 3e bf 93 86 bb 7c 0e 1f be 74 8a 23 3e
       0.1453443 -0.004106968 -0.15532869 0.15970784
0003c0 63 9b 8d bd 13 a5 27 be b7 fd b8 bd fa 0a ad 3d
       -0.06914403 -0.16371565 -0.09032767 0.08449359
0003d0 a5 0b 9f bd 4a 71 04 3e b7 af 8b 3d b6 43 12 be
       -0.07765893 0.12933841 0.06820624 -0.14283642
0003e0 28 0e ad 3c 19 ea 1a be 5d 41 b9 3d d5 fb 13 be
       0.021124914 -0.15128364 0.0904567 -0.14451535
0003f0 41 6b 1a be b5 43 11 be 18 1d 0e 3e 85 53 0a be
       -0.15079977 -0.14185984 0.13878286 -0.13508423

EiLM.2.gamma_generator.weight f4 [1, 32]
000000 ee 8e 30 bc 3b e9 50 bd df 62 11 3e fa b1 68 bd
       -0.010776265 -0.051003676 0.14197873 -0.056810357
000010 3c 68 c3 3c a3 e9 ff 3c f4 c9 06 be d4 76 b3 3d
       0.023853414 0.031239336 -0.13162977 0.08762899
000020 c6 b4 70 3d a8 e5 5d bd 62 9b 63 3d de 00 1a be
       0.05876615 -0.054174095 0.055568106 -0.15039393
000030 b9 c7 31 3e e7 dc 44 3e 78 c8 1e be a8 b6 22 be
       0.17361344 0.19224893 -0.1550616 -0.1588999
000040 5d 63 fe 3d 02 04 52 3c a5 a6 0d bb d2 ad ce 3d
       0.12421296 0.012818338 -0.002161422 0.10091747
000050 a0 ca 93 3d 50 b8 a9 bd 74 e1 34 3e 2a d9 ae bc
       0.07216382 -0.08287108 0.17664129 -0.021343786
000060 f0 b5 fd bd 94 8a 88 bd 58 36 f9 bd 74 9d 3a bd
       -0.123882174 -0.06667057 -0.121685684 -0.045560315
000070 cf 43 52 3d e7 12 8e bc 99 88 04 be b0 7c 09 be
       0.0513342 -0.017342998 -0.12942733 -0.13426471

EiLM.2.beta_generator.weight f4 [32, 32]
000000 6a 76 cc 3d 1b 50 4f 3c 59 2f 22 3e 6f 54 26 be
       0.09983523 0.012653376 0.15838374 -0.16243146
000010 31 81 15 be 6a 53 1d bd cb fd c1 3d ab f0 c8 bd
       -0.14600064 -0.038409628 0.09472235 -0.09811529
000020 10 1b 28 be da cd d2 3d c9 ff 03 be 10 c8 27 3e
       -0.16416574 0.10293169 -0.12890543 0.16384912
000030 45 c3 cd bd 6e 69 00 be 69 48 ab bc db ec 93 3c
       -0.1004701 -0.12540218 -0.020908551 0.018057277
000040 fe e9 26 3e 81 aa 3c 3b bf 56 2d be fd 86 34 be
       0.16300198 0.0028788152 -0.16927622 -0.17629619
000050 da 64 06 be 84 23 ee bc 51 6e ae 3d 44 6d ba bd
       -0.1312441 -0.02906967 0.08517135 -0.09102872
000060 47 d0 b1 bc f5 09 f0 3d b7 59 ce 39 f5 61 e4 bd
       -0.02170576 0.11720649 0.00039358225 -0.11151496
000070 a4 02 d7 bd a9 95 4d bd 91 c3 b7 3d bc 14 e5 bd
       -0.104985505 -0.050191555 0.08972848 -0.111855954
000080 9d 2f 47 3d f2 a2 13 3e de 86 24 bd 5b f2 5b bb
       0.048629392 0.14417627 -0.040167682 -0.0033561203
000090 4c 8f ba bd 39 04 7e bd bd 0b de 3d ac 50 82 3c
       -0.09109363 -0.062015746 0.10842083 0.015907608
0000a0 7d e2 17 3e a5 f7 13 bd ee 51 08 3e 65 e7 dc 39
       0.14832492 -0.036124844 0.13312504 0.00042134072
0000b0 1f 12 33 3e aa 71 db bd b0 39 2d 3e 9d 2a 86 bd
       0.17487381 -0.10715039 0.16916537 -0.065510966
0000c0 ae 80 c9 bd f3 9e 21 3d c2 02 91 bd 6d 1a 14 3e
       -0.09838997 0.039458226 -0.07080604 0.14463206
0000d0 a7 9f 07 be d8 99 24 3e 0a b0 2b 3e ad 7c a7 bb
       -0.13244496 0.16074312 0.16766372 -0.005111298
0000e0 27 af 91 3d ea 75 16 3c 90 da 05 be de 90 8e bd
       0.07113486 0.009183386 -0.13071656 -0.06961225
0000f0 22 50 2b 3d 0f 93 2c be 12 31 87 3d ca cc 49 bd
       0.041824467 -0.16852973 0.06601156 -0.049267568
000100 24 5b 4c 3d bb 0f d4 3c 73 53 31 3c 8e f7 e2 bc
       0.049891606 0.025886407 0.0108231185 -0.027705934
000110 5d 58 19 3d 40 16 f0 3d b2 cd 69 bd 05 e2 64 3d
       0.037437785 0.11722994 -0.057080932 0.05587961
000120 fe 18 04 3e d2 77 2a bd c9 8f bd bd 6f b4 28 3e
       0.12900159 -0.041618176 -0.092559405 0.1647508
000130 66 c5 ea bc 3b c2 ed 3d 2a fd d4 3d b5 1d e9 3d
       -0.02865858 0.11609312 0.1039985 0.11382619
000140 d6 aa a8 bd ea 46 00 be b2 f2 4f bd 1b fb 99 3d
       -0.08235709 -0.12527052 -0.05076856 0.07518598
000150 63 9c 12 3e 09 17 d3 3c 3b c2 15 3e 8d 4b b3 bd
       0.1431747 0.02576782 0.14624874 -0.087546445
000160 30 ef 2c be 73 0f 1a 3e a1 b7 dd bd f0 d4 37 bc
       -0.16888118 0.15044956 -0.1082604 -0.011220202
000170 42 b1 25 be e7 3f 38 be f1 5e 11 3d 53 11 34 be
       -0.161809 -0.17993127 0.035490934 -0.17584734
000180 ec 41 87 3d d0 b1 ba 3b c7 02 a6 3d cf f1 c8 3d
       0.066043705 0.0056974664 0.081059985 0.09811746
000190 5e c3 dc 3d 35 7b cf bb 55 f3 ad 3d 71 e6 2e be
       0.10779451 -0.006331826 0.084936775 -0.17080094
0001a0 89 f5 1a 3d 30 fd af 3d 5f ca fc bb e0 d9 e3 3d
       0.037831817 0.085932136 -0.007714554 0.11125541
0001b0 22 9b 0d 3e e2 51 19 3e 2a 02 01 3e 82 f1 43 3c
       0.1382871 0.14972642 0.12598482 0.011959435
0001c0 9c e6 e1 ba 04 79 b7 bd 32 a1 75 3d 27 ce 87 3d
       -0.0017234865 -0.08958629 0.05996818 0.06631117
0001d0 ef b3 ca bd ac 0c 12 3e b3 86 39 3d 22 af 52 bd
       -0.09897601 0.14262646 0.045294475 -0.05143655
0001e0 17 cd 39 bd ce 66 14 3d 99 fe 7b bd ad 54 6e 3d
       -0.045361605 0.036230855 -0.0615221 0.058186222
0001f0 91 54 b9 3c 7e ed 44 3c cd 4f d8 3d ed 56 9c bd
       0.022623332 0.012019513 0.10562096 -0.07633767
000200 f5 72 30 be b6 12 ea bc f9 6c 2f be 09 76 2d 3d
       -0.17231353 -0.028573375 -0.17131414 0.042348895
000210 92 40 24 3e 29 fb cd bd a1 e6 37 bc 76 57 07 3e
       0.16040257 -0.100576706 -0.01122442 0.13216957
000220 45 97 bc bd fa 00 38 3d 22 38 87 3c b0 54 b6 bd
       -0.0920854 0.044922806 0.016506258 -0.089028716
000230 86 fd 17 3e a1 ea 21 3e 95 9d 95 3d fe 26 1d be
       0.14842805 0.1581216 0.07305447 -0.15346906
000240 e9 73 30 be 47 ac 09 b9 5f e9 26 bd 35 49 fc 3c
       -0.17231716 -0.00013129516 -0.040749904 0.030796627
000250 01 ea d3 bd 9c 52 23 be 50 de e8 bd 74 cb bd bc
       -0.10347367 -0.15949482 -0.11370528 -0.023168303
000260 5e 6a 7b bc 2d 3c a5 3d 63 11 4b 3d ad c4 5d bd
       -0.015345184 0.08068118 0.04957713 -0.054142643
000270 8e cd b6 bd 78 be bd 3d df b9 d4 bd 40 87 2f 3d
       -0.08925925 0.09264845 -0.103870146 0.042853594
000280 10 a2 28 be 06 f3 3f 3c f8 b6 16 be f5 08 14 be
       -0.16468072 0.011715656 -0.14718235 -0.14456542
000290 59 d4 43 bd c6 04 ed bd d4 af 0a 3d 87 40 dc 3c
       -0.047809932 -0.11573176 0.03385909 0.026886238
0002a0 1e c9 71 3d 81 d0 17 3b 51 b5 33 3e b9 80 18 3d
       0.05902969 0.002316505 0.17549635 0.037232134
0002b0 46 0e 43 3d 4f 2c 2f 3e ec dc fd bd f7 3b 5e bd
       0.047621034 0.17106746 -0.12395653 -0.054256406
0002c0 85 40 cd bd b7 8d 7f bd 31 b1 ac 3d 6a 8b 33 be
       -0.10022072 -0.06239101 0.08432234 -0.17533651
0002d0 9c 58 3b bd 36 e6 2d be 28 47 32 bd f3 70 24 be
       -0.0457388 -0.1698235 -0.04352489 -0.16058712
0002e0 d2 46 33 bd 17 bd 88 bd 9e b1 27 3e 87 f3 a9 bc
       -0.04376871 -0.06676691 0.1637635 -0.020746006
0002f0 2c d0 b0 bd 92 49 bc bd 08 3d dc 3d 79 c7 2c be
       -0.08633456 -0.0919372 0.10753828 -0.16872968
000300 ba f8 02 3e f5 59 1e be 6c 8e 7d 3d 41 21 81 bc
       0.12790194 -0.15464003 0.061903402 -0.015762927
000310 e2 03 bc 3d 47 d1 c7 bd 78 ba af bd a7 08 01 be
       0.09180428 -0.09756713 -0.08580488 -0.12600957
000320 c8 47 fc b9 20 68 22 be d0 2f 5c bd 6f 3d a6 bc
       -0.00048118667 -0.15860033 -0.053756535 -0.020292966
000330 ce 9e 28 3e ff 92 f0 bd 74 ef da bd 86 e5 bc bd
       0.16466829 -0.11746787 -0.10690203 -0.092234656
000340 69 38 ec 3c 3b 84 75 3d a9 19 40 3c c9 f4 8a 3c
       0.028835492 0.059940558 0.011724868 0.016962426
000350 c4 55 c4 3d 63 5d 55 3d fa 56 3a bd 56 32 0c bd
       0.09586671 0.052091014 -0.045493104 -0.03422769
000360 85 c8 d7 bc 68 14 5c bd 86 44 99 bd 3c b0 bf bd
       -0.026340732 -0.0537304 -0.07483773 -0.09359786
000370 ab 58 f4 3d 01 49 07 3e c4 c7 72 bd d3 e3 92 bd
       0.119309746 0.13211443 -0.059272543 -0.0717236
000380 41 14 5f bc bc ae 33 be 22 70 3f bd 4f de ec 3d
       -0.013615669 -0.17547125 -0.046737798 0.115658395
000390 62 fd a3 3d ae d7 74 bd fc e0 27 3e 58 53 ed bd
       0.08007313 -0.059776 0.16394418 -0.11588162
0003a0 a2 0d 05 3e ec 35 12 3e 98 09 17 be 04 76 19 3d
       0.12993482 0.14278382 -0.14749753 0.037466064
0003b0 b5 66 04 3d 93 e5 2f 3e 8f 25 27 3e 76 0b eb bd
       0.03232451 0.1717742 0.16322921 -0.114767954
0003c0 e5 48 1c be c0 62 14 3d e6 1f 20 3e 28 7d 1c 3e
       -0.15262182 0.036226988 0.15637168 0.15282118
0003d0 6c e1 33 3e 53 bb 92 bd 88 3e 9c 3d 4d 41 51 3d
       0.1756646 -0.071646355 0.076291144 0.051087666
0003e0 9d 65 ae 3a 1b f8 c5 bc d9 45 29 be 83 18 22 bc
       0.001330543 -0.024166157 -0.16530551 -0.009893539
0003f0 d0 e6 1f 3e 45 da d5 3b a9 25 01 3e 34 d7 28 be
       0.15615392 0.006526264 0.12612022 -0.16488343

EiLM.3.gamma_generator.weight f4 [1, 32]
000000 62 c4 18 3d e4 3b 58 bd 82 2d 1a 3e 51 86 43 3d
       0.03729666 -0.05279149 0.15056422 0.047735516
000010 70 51 02 be 0c 23 31 bd 3b 69 0d be a8 91 88 3c
       -0.12726378 -0.043246314 -0.13809673 0.016671017
000020 30 f8 46 bd 8d 36 19 be 8e e5 a9 bd c6 07 18 3d
       -0.048576534 -0.14962216 -0.08295737 0.03711679
000030 a3 66 1a 3e e0 da 15 3e 85 9a 32 be 4d 9f aa bd
       0.15078215 0.14634275 -0.17441757 -0.083311655
000040 c5 b9 e4 bd 08 f2 16 bc ea d9 f2 3d 0a ee ca 3d
       -0.11168245 -0.009212978 0.1185797 0.099086836
000050 bd a4 79 3d dd 6e c2 bd 23 28 d7 bd 4e 1b 2e 3c
       0.060948122 -0.09493802 -0.10505702 0.010626627
000060 15 ff ca 3d 3f 3c 19 3e 1a 28 09 be 09 ed 16 3e
       0.09911934 0.14964388 -0.13394204 0.14738859
000070 74 8e f5 3d f3 5a 4a bd 10 2c c6 bd b3 e6 7c 3d
       0.119900614 -0.049403142 -0.09676373 0.06174345

EiLM.3.beta_generator.weight f4 [32, 32]
000000 d9 e5 30 be 14 a8 2c 3e ec 05 85 3d 65 dd f5 3b
       -0.1727518 0.16860992 0.0649527 0.007503199
000010 f2 d9 26 3e fb e0 21 be 4e 07 0f be d2 47 f9 bc
       0.16294077 -0.1580848 -0.1396763 -0.030429754
000020 63 25 2b 3e b9 46 5b 3d 8d 91 2f be 24 fa 7d bd
       0.1671348 0.053534243 -0.17145367 -0.06200613
000030 39 ce 09 3e f5 b7 87 3d 52 2c fd 3b 9f ca 0b be
       0.13457574 0.06626884 0.0077262307 -0.13651513
000040 9f d7 01 bc 97 a4 a8 bc b1 43 2a be 8f 3d cd 3c
       -0.007924943 -0.020586295 -0.16627385 0.025053767
000050 9d c9 f2 3d 0c e6 f9 bd e4 8c d7 bd 1d a1 30 bd
       0.11854861 -0.12202081 -0.1052492 -0.0431224
000060 4a 0d 37 bd 6c 02 0b be db ff 08 be fd 14 8b bd
       -0.044690408 -0.13575143 -0.13378851 -0.067911126
000070 22 4a 17 be 72 73 98 bd 2c 47 69 bc 1d eb 11 3e
       -0.14774373 -0.074438944 -0.01423816 0.14249845
000080 5b 3e ea 3d f8 3e 3c bd f6 5a f0 bd 66 b5 9e 3c
       0.114376746 -0.04595849 -0.117360994 0.019373607
000090 35 05 1c be fc b1 1b 3e af 8a a6 bd c3 92 3e 3d
       -0.15236361 0.15204614 -0.081319205 0.04652668
0000a0 7e 0a 1c be 3c 15 ee 3d 6d ce 2a 3d 55 79 24 3e
       -0.15238377 0.11625144 0.04170077 0.1606191
0000b0 f9 f6 ed bd f6 da c3 bd 95 c2 1b 3e 26 a6 2f 3d
       -0.11619372 -0.09563248 0.15210946 0.04288306
0000c0 a6 b9 be bd 75 a1 be 3d 91 40 88 3d f8 c3 f4 bd
       -0.093127534 0.09308139 0.0665294 -0.119514406
0000d0 6d 2b 03 be 28 fe 88 3d d1 6c d5 bc 6e 02 da 3d
       -0.12809534 0.066891015 -0.026052864 0.10644995
0000e0 ab fa a5 bd 86 de 84 3d 24 9e 5f bd 25 b8 bb bd
       -0.08104452 0.064877555 -0.054594174 -0.09165982
0000f0 9d 71 05 be 1f b4 d8 3d c8 1d 28 3e 2f a3 18 3d
       -0.13031621 0.1058123 0.1641761 0.037265
000100 dc 15 02 3e 38 ee b0 3d 39 99 36 3e b5 6a 6b 3d
       0.12703651 0.086391866 0.17831887 0.05747481
000110 76 aa 40 be 40 51 21 be 86 9b 89 3d 8c b5 8c bc
       -0.18815026 -0.1575365 0.06719117 -0.017176412
000120 6f 3b 89 3d 7f 68 0f be 11 5d da bd f5 e5 37 be
       0.06700789 -0.14004706 -0.10662282 -0.17958815
000130 64 64 e6 bd 08 38 be bb ce 52 bb 3d 22 db 34 3d
       -0.11249617 -0.0058050193 0.09146653 0.044154294
000140 db 22 bf bd 16 d5 28 be df b1 e2 bd cc 5c b5 bd
       -0.0933282 -0.16487536 -0.110690825 -0.0885559
000150 12 76 b2 bd 0d ed 19 be ba 7d f6 3d 90 4f 9c bd
       -0.087139264 -0.15031834 0.12035699 -0.07632363
000160 09 ab 91 3d be f2 85 3c 34 0a 09 3e c7 b4 1a be
       0.071127005 0.0163511 0.13382798 -0.15108024
000170 85 95 35 bc 07 4f a9 3d 1d 3d b2 bd a8 1c 13 be
       -0.0110830115 0.082670264 -0.08703063 -0.143664
000180 a5 5d 81 3d 4b 4a 95 3d 17 82 2a 3e 96 08 c6 bb
       0.063166894 0.07289561 0.16651188 -0.006043504
000190 d8 ef 25 3e 99 17 35 3e f9 ff ef bd 85 a1 1e be
       0.16204774 0.17684783 -0.11718745 -0.15491302
0001a0 4f 00 e9 3d 41 f1 08 3d 05 8e 1c be be 8c 2f 3e
       0.11377012 0.033433203 -0.15288551 0.17143533
0001b0 ec 3e 6f 3d 82 ed 4b 3d 09 39 d7 bd 5a a9 1f 3e
       0.058409616 0.049787052 -0.105089255 0.15591946
0001c0 ab d5 1a be 09 52 09 be 92 68 20 be 0f c0 97 bd
       -0.1512057 -0.134102 -0.1566489 -0.07409679
0001d0 7b 0d 4c bd 69 63 21 be 57 52 0e 3e 02 b5 ec 3d
       -0.049817543 -0.15760578 0.13898598 0.11557962
0001e0 09 dd 2c 3e ef 78 88 bc b3 31 38 bd 49 ef 0c be
       0.16881193 -0.016659228 -0.044969272 -0.13763155
0001f0 5f 62 a1 bd 34 6b 33 be 83 55 d5 bd d9 fb ae bd
       -0.07880091 -0.17521363 -0.10416701 -0.0854413
000200 b3 d4 de 3d ce 7b 02 3e 28 fe 27 be 50 ab 0d 3d
       0.10880413 0.1274254 -0.16405547 0.034587204
000210 fd 2a fb 3d fd 37 08 bb 03 02 2d be 4b 8b be bd
       0.12264059 -0.0020785325 -0.16895299 -0.09303912
000220 a4 5d fd 3c 0d 2c 2e be eb f4 0d be 7b ac f0 bd
       0.03092844 -0.17008992 -0.1386296 -0.11751648
000230 d3 60 32 be c4 b0 ff bd 13 2b d2 3d d1 d3 4d 3c
       -0.17419748 -0.12484887 0.10262122 0.012562708
000240 01 20 76 bc 8b b8 12 3e c9 c4 13 bd af d3 01 be
       -0.015022279 0.1432821 -0.03607634 -0.12678407
000250 ca d1 19 bc 70 35 92 bc 61 df b5 3d 0f 3a bd 3d
       -0.0093883965 -0.017847747 0.08880497 0.092395894
000260 95 19 1a be cf fb e8 3b 46 f5 1c 3e b5 16 12 bd
       -0.15048821 0.007110096 0.1532794 -0.035666186
000270 64 18 19 bc b5 57 15 3d 0f 91 18 3d 8e a1 ea bd
       -0.009344194 0.036460597 0.037247714 -0.11456595
000280 d3 72 19 3c fe 41 1a be aa 64 46 3e 7f 80 f3 bd
       0.009365755 -0.15064237 0.19374338 -0.11889743
000290 05 47 01 3d 9e eb 28 be 51 e6 27 3e 86 f7 c7 bc
       0.03156187 -0.16496131 0.16396452 -0.02441002
0002a0 8f 36 29 3e 28 53 bc bd 99 cc 3c be 5c 14 03 be
       0.16524719 -0.09195548 -0.18437423 -0.12800735
0002b0 3f d1 1e 3e 99 29 43 3e 6d 26 02 bd d9 64 55 3d
       0.15509509 0.19058837 -0.031774927 0.05209813
0002c0 6b 46 19 3e 21 49 97 3d 30 c2 2e be 02 43 d6 bd
       0.14968269 0.07386995 -0.17066264 -0.104619995
0002d0 b0 e4 b1 3c 09 a1 04 3e 2f a5 1e be 0f 79 86 3d
       0.021715492 0.12952055 -0.154927 0.06566059
0002e0 29 27 3c 3e cb 53 f3 bc c1 8a e3 3c e8 0f be 3d
       0.18374313 -0.029703042 0.027776124 0.092803776
0002f0 40 3e 2d 3d 84 03 b6 3d 95 d2 2e 3d 80 bc 97 3c
       0.042295694 0.08887389 0.042681295 0.018522501
000300 88 43 c9 bd ed f0 84 3c 1e 99 e5 bd d3 50 1e 3e
       -0.09827334 0.016228164 -0.112108454 0.1546052
000310 54 86 35 3e 82 95 ef 3d 89 6a 3c be 11 3e 60 bd
       0.17727023 0.11698438 -0.18400015 -0.05474669
000320 7b 9f 1e be c8 be 1b be f5 f2 f6 bb cd db 84 bd
       -0.15490524 -0.15209496 -0.007536287 -0.06487236
000330 f5 ec 21 bd 8f 9f cd bd aa 43 15 be ac 4b fa bd
       -0.03953262 -0.10040199 -0.14576593 -0.122214645
000340 6b 6c 3f 3e 8d 38 c6 3d 00 0f d6 bd bd 62 03 3e
       0.18693702 0.09678755 -0.1045208 0.12830634
000350 6b c5 30 be d1 ab fa 3c e8 3d 3a bd 8c 6f 19 3d
       -0.17262809 0.030599507 -0.045469195 0.037459895
000360 4c db 07 3e ac 63 b8 bd 1a eb ac bc 10 89 05 be
       0.13267249 -0.09003386 -0.021108199 -0.13040566
000370 b7 c0 e7 3d 7d 08 c2 3d 75 dc 0f bd 3e dd ff 3d
       0.11316054 0.09474275 -0.035122354 0.124933705
000380 98 b9 09 3e 6e a2 36 3e 88 ba 4c bd 6b 6f bb bd
       0.13449705 0.178354 -0.049982578 -0.09152111
000390 96 de 33 3d 51 aa f9 bd a4 54 7d 3c 5f ed 8c bd
       0.043913446 -0.121906884 0.015462074 -0.068812124
0003a0 fd 4d 6a 3b 73 8d c7 bc 62 cb 06 be b3 e7 11 3e
       0.003575205 -0.02435944 -0.13163522 0.14248542
0003b0 ae aa 1c be a0 82 12 3e e2 0b e2 bc 91 34 18 3e
       -0.15299484 0.14307642 -0.027593557 0.14863802
0003c0 24 93 a7 3d 51 c1 29 3e 5c 41 a1 3d 82 62 11 bd
       0.08182362 0.1657765 0.078737944 -0.035494335
0003d0 00 db 94 bd e5 8f 36 3e 86 ff 1d 3e 93 63 db 3a
       -0.072683334 0.17828329 0.15429506 0.001673805
0003e0 35 7d 1f be 1d 27 0f 3d da f8 15 be 21 3b 91 bc
       -0.15575106 0.03494941 -0.1464571 -0.01772839
0003f0 0d 9d 21 3d 64 55 05 3e e9 2f be 3d 04 7e 13 3e
       0.039456416 0.13020855 0.09286482 0.1440354

Gate.weight f4 [4, 32]
000000 ef 40 e3 bd eb 72 e9 3d 15 b6 ae 3d 45 65 5a 3d
       -0.110963695 0.11398872 0.08530823 0.053319234
000010 e7 1c e5 bd a2 af 36 3c bf 64 99 3d 51 72 16 be
       -0.11187153 0.011150273 0.07489919 -0.14692046
000020 24 8d 32 3e e4 c2 4c bb 55 86 e5 bd b2 f1 09 3d
       0.17436653 -0.0031244094 -0.112072624 0.033677764
000030 19 b3 8a bc f9 7b a9 bd 24 6c 1d be 50 c1 8c bd
       -0.016931104 -0.08275599 -0.15373284 -0.06872809
000040 65 1d 11 be cc f1 bd bc 1a 8b e0 3d 56 30 9f 3d
       -0.1417137 -0.023186587 0.109640315 0.07772891
000050 a8 28 1d be 3e 39 fb 3c 07 32 70 bd ab 49 38 bd
       -0.1534754 0.030666944 -0.05864146 -0.04499213
000060 9b 7c 15 3e 1c 83 63 bd fc 91 1d 3e 33 26 1f 3d
       0.14598314 -0.055544958 0.1538772 0.03885479
000070 62 ae 19 3e 1b 0d 92 bc ba 81 cb 3d 1e d9 ab 3c
       0.15007928 -0.017828515 0.09936853 0.020977553
000080 76 d5 a0 bd cf 19 2b 3e c9 aa 9e 3d 99 87 74 bd
       -0.078532144 0.16709064 0.077474184 -0.05969963
000090 74 6e 1d 3e 81 de 84 3c 2f 1e 09 3e 74 83 34 be
       0.15374166 0.01621938 0.1339042 -0.1762827
0000a0 22 6b b5 3d 9a 35 43 be 04 f1 0f be f1 81 15 3e
       0.088583246 -0.19063416 -0.14056784 0.1460035
0000b0 43 17 b1 3d 20 89 cb 3d 33 de c2 3d cb 7b ca 3b
       0.08647015 0.09938264 0.095150374 0.006179308
0000c0 26 de 26 3e 92 2d 3b 3d 83 6f 60 bd 8a 05 d6 bd
       0.1629568 0.045697756 -0.054793846 -0.10450275
0000d0 f4 94 00 be 21 76 c3 bd 58 29 a9 bc 55 4d 71 bd
       -0.12556821 -0.09544016 -0.020649597 -0.05891164
0000e0 77 02 09 be 50 74 42 3d 2d dc 18 3e c3 be be 3a
       -0.13379847 0.047474205 0.1492774 0.0014552701
0000f0 da 7e da 3c 90 21 b7 bd ca 4a 31 be 43 5d a5 bd
       0.026671816 -0.089419484 -0.17313686 -0.08074429
000100 31 3c 0b be 66 8c 46 bc 2c 1a 16 3e 08 50 a5 bd
       -0.1359718 -0.0121184345 0.14658421 -0.080719054
000110 67 e7 1f 3e 9a ca 89 3d c2 6f bf bd d0 03 fc 3d
       0.15615617 0.06728096 -0.09347488 0.12305415
000120 cb 8b ea 3c 60 f0 15 3e 94 8f 34 be 2d 2d 6e 3b
       0.028631112 0.14642477 -0.17632896 0.0036342845
000130 3b 0f c6 bc 4e 4b c1 3d 0c a2 34 bd 0a db b7 bd
       -0.024177184 0.09438191 -0.044099852 -0.08977325
000140 d8 50 ab 3d 22 c4 a9 bd 10 f8 cd 3d 09 b7 16 be
       0.08365029 -0.082893625 0.1005708 -0.1471826
000150 1e be f7 bd 87 71 23 3e e6 fb 20 be 03 23 ab bd
       -0.12096809 0.15961276 -0.15721092 -0.08356287
000160 6e 3f 54 3d 33 c9 7d 3d 97 c4 f2 bc 75 87 75 bd
       0.051818304 0.061959457 -0.029634757 -0.059943635
000170 7b db 31 be 48 59 2e bd cf e4 31 bb df d3 2e 3c
       -0.17368881 -0.042565614 -0.0027144437 0.010670631
000180 30 03 f7 bd 8e c4 6e bd c6 c2 4b bd 7a 6a cc bd
       -0.12061155 -0.058292918 -0.049746297 -0.09981246
000190 fe 1c e8 bd 74 62 12 be 17 8d 10 bc a8 28 17 be
       -0.11333655 -0.1429537 -0.008822701 -0.14761603
0001a0 48 7b 24 be 7a 75 bb bd 0e ca 01 3d 8a 14 19 be
       -0.16062653 -0.09153266 0.031686835 -0.14949241
0001b0 55 b6 a6 bd 3f 20 70 3d ab bd 20 3e f9 7c 27 3e
       -0.08140246 0.058624502 0.15697353 0.16356267
0001c0 1a 6c 36 3e 6d b4 0d 39 7a 45 0d be d4 cf bb bc
       0.17814675 0.00013514022 -0.13796034 -0.022926249
0001d0 40 78 d1 3d 66 17 21 3d 5d 52 4a bc 07 57 e0 3b
       0.10228014 0.039328955 -0.0123487385 0.006846312
0001e0 bb d8 49 be 4f 21 5c bd 74 8b a2 bd 09 31 c6 bd
       -0.19711582 -0.053742703 -0.07936755 -0.096773215
0001f0 84 15 fe bd 86 00 87 3d 48 d1 3c be f8 4f c4 3b
       -0.124064475 0.06591897 -0.1843921 0.0059909783

experts.0.gate_proj.weight f4 [32, 32]
000000 d2 78 02 be 03 41 24 3c b2 e3 13 3c ab ce 96 bd
       -0.12741402 0.010025266 0.009026455 -0.073636375
000010 8e 5b f4 bd 54 fe a2 3d 1a 41 22 be c7 02 1d 3e
       -0.11931525 0.079586655 -0.15845147 0.1533309
000020 e3 f3 44 3e 6a a5 f6 bd 76 49 a4 bd a0 7d 23 be
       0.1923366 -0.12043269 -0.08021824 -0.15965891
000030 d3 65 a3 bc 81 f6 81 bd da 9b 3a 3d ad e0 0c bd
       -0.019946015 -0.06345845 0.045558788 -0.034393955
000040 c3 b0 29 3d 1a 42 16 be f8 2f 62 bc e8 d7 d9 bd
       0.04142834 -0.14673653 -0.013805382 -0.10636884
000050 ca 36 1a 3e 5a 45 95 bd ea 6f a3 bd 32 fe a3 3b
       0.15059963 -0.072886184 -0.0798033 0.0050046677
000060 d1 4e 27 bc de 0c 41 be 72 1c cb bd 7b 6a 50 bd
       -0.010211662 -0.18852565 -0.09917535 -0.050882798
000070 b4 f8 26 bd db eb c0 bd de 36 b2 3d 66 6e 09 bd
       -0.040764526 -0.09419986 0.08701871 -0.03355255
000080 da 31 ad 3d 4c f5 45 3d 09 b8 ca bd 44 82 31 3e
       0.08456774 0.048329636 -0.09898383 0.17334849
000090 c5 e7 d2 3d 17 63 11 bd 9f 2f b1 3d 65 80 ed bd
       0.10298113 -0.03549489 0.08651661 -0.11596755
0000a0 cc 4b 11 3c a9 1e 18 3e af 9b b4 bb 4a fd 98 bd
       0.008868169 0.14855446 -0.005511723 -0.07470186
0000b0 53 35 1c 3e 3f 51 0a 3b 4c b7 1b 3e 67 a1 b7 bd
       0.15254717 0.0021105555 0.15206641 -0.08966332
0000c0 98 0e d0 3d 0c aa 34 bd 40 f0 3f be 17 dd 5f bd
       0.101590335 -0.04410748 -0.18743992 -0.054654207
0000d0 c6 5a 21 be d3 a2 04 3e a6 4d f2 bd f0 61 c8 bd
       -0.15757284 0.12952738 -0.118312165 -0.09784305
0000e0 77 73 b8 bd 93 a0 1d 3e 74 37 9b 3d d2 4f 47 3d
       -0.09006398 0.15393285 0.07578936 0.048660107
0000f0 f8 35 99 3d 16 b3 b5 3c 85 b9 8e bd ea d6 18 3e
       0.07480997 0.022180121 -0.06968979 0.14925733
000100 d6 07 05 be 5d 77 ea bd f0 e8 83 bd f0 48 32 3e
       -0.1299127 -0.11448548 -0.06440914 0.17410636
000110 e1 f5 92 bd 44 09 05 be f4 4e 2c be 7c 69 88 bd
       -0.07175804 -0.12991816 -0.16826993 -0.066607445
000120 e7 9d 9e bd 7e a2 03 3d a8 a4 39 3e b6 3b 8a 3b
       -0.07744961 0.032137387 0.18129218 0.004218544
000130 33 0b 14 3d 8a a2 16 3e fb 29 1a be 90 d2 16 bd
       0.036143493 0.14710441 -0.15055077 -0.0368219
000140 1c 2a 36 bd 79 aa 0c be ec e3 ff bd 37 96 b4 bc
       -0.044473752 -0.13736905 -0.124946445 -0.022044284
000150 96 3e 6c 3c d2 00 8e bd 49 9d 2e 3d ce c0 6c bd
       0.0144192185 -0.0693375 0.042630468 -0.05780106
000160 ab 42 2a be c0 ab 86 bd c4 62 3d 3d 76 35 b3 3c
       -0.16626994 -0.065757275 0.04623677 0.021876078
000170 15 58 6c bd 53 9f 6a 3c 13 66 db 3d 7a e8 fa 3d
       -0.05770119 0.014320212 0.107128285 0.12251373
000180 04 1c a9 bc f8 56 2c 3d 64 7f 79 bc d3 3c 21 be
       -0.020643242 0.042075127 -0.015228126 -0.15745859
000190 8d 2f 30 3e c4 64 e6 ba 9d a2 af 3c 6f 97 f4 3d
       0.17205639 -0.0017577638 0.021439845 0.11942946
0001a0 a0 af 8d 3d b5 36 ac 3d 4f 59 00 bd 63 53 df 3d
       0.069182634 0.08408872 -0.03133517 0.10904577
0001b0 b7 cc 11 be c8 b6 c7 3d 33 fd 19 3e 8e e9 24 be
       -0.14238249 0.0975166 0.15037994 -0.16104719
0001c0 88 f8 03 be 8f 9b d6 3d 38 d0 e3 bd d3 4b c4 bd
       -0.12887776 0.10478889 -0.11123699 -0.09584775
0001d0 26 70 51 3b 13 d3 d4 bc 5c af a3 3d c2 b4 8a bc
       0.0031957715 -0.025979554 0.079924315 -0.016931895
0001e0 63 a9 c4 bd f3 d6 8a bd 89 85 2b 3e aa 3f 56 bd
       -0.096026205 -0.067792796 0.16750158 -0.05230681
0001f0 f1 44 94 bc 51 7e ed bd c5 47 8c bd 76 8f f5 bd
       -0.01809928 -0.115963586 -0.068496265 -0.119902536
000200 ef 1e 29 be b6 83 15 3b 26 e5 8d 3c 8f 40 67 3d
       -0.16515706 0.0022814102 0.01732118 0.056458052
000210 b1 db ba 3d 31 40 05 bd 99 12 14 3e 0e 0d 25 3e
       0.09123934 -0.03253192 0.1446022 0.16118261
000220 fe e0 25 3e 1b 61 86 3d 33 67 26 be 91 bd 08 be
       0.16199109 0.0656149 -0.16250305 -0.13353564
000230 06 f4 f4 bd 78 60 3f 3c 60 9d d3 3d 21 18 2c bc
       -0.11960606 0.011680715 0.10332751 -0.0105038
000240 f9 1a 24 3e 63 c2 83 3d 61 7c 28 3e a2 b2 99 bd
       0.16025914 0.06433561 0.16453697 -0.07504775
000250 aa 62 30 3d 9e 7b 86 3d 0c 49 0f 3e cd bd 37 bd
       0.043062843 0.06566547 0.13992709 -0.044858743
000260 b1 4b 08 be 22 5c d5 3c 98 b6 4a 3d cf 45 0e be
       -0.13310124 0.026044909 0.04949054 -0.13893817
000270 47 5f 32 3e 19 2a b6 3d 93 5c fb bd bc c7 90 3c
       0.17419158 0.08894748 -0.122735165 0.017673366
000280 40 c4 a4 bd 7f f2 97 bd ae 7b c8 3d 7e 21 b7 bc
       -0.08045244 -0.07419299 0.09789215 -0.022354838
000290 99 ab 95 3d 0b 1c 27 be 41 8b 10 be 91 fc 43 3d
       0.0730812 -0.16319291 -0.14115621 0.047848288
0002a0 d5 2a 6e bd 61 3e 8f 3b 65 3c 83 bc 83 6b 87 bd
       -0.058146317 0.00437145 -0.01602001 -0.06612303
0002b0 ee b6 1d 3e ef 4f 37 be e6 ad 0b 3d 2a 4e bd 3d
       0.15401813 -0.17901586 0.03410139 0.09243424
0002c0 a9 8c 75 3c 3a e8 8e bd 8a 00 15 bc 3d c0 a2 bb
       0.014987149 -0.069778875 -0.009094367 -0.0049667642
0002d0 d5 dd 11 be f1 b3 fa bd c5 cb 09 3d 9f c7 5d bd
       -0.14244778 -0.12241352 0.033641595 -0.05414545
0002e0 ef d8 d8 bd 97 93 dc 3d 6a 81 91 3c 05 b3 3b be
       -0.10588252 0.10770338 0.017761905 -0.1833001
0002f0 80 9d 0e be 81 b1 70 bc c3 46 e4 3d 96 c4 af bd
       -0.13927269 -0.014690758 0.11146309 -0.08582418
000300 d4 6b fb 3d c4 d7 56 3d 38 8d 17 bd 1c 4c 87 bd
       0.12276426 0.052451864 -0.03699991 -0.066063136
000310 4d e1 38 be fe 6a d6 bd 0b 70 0c bd 5c bd c6 3c
       -0.18054695 -0.10469626 -0.03428654 0.024260215
000320 da d9 1d 3d 78 31 df 3b 2a f7 f9 3d fe 62 8f bd
       0.038537838 0.006811317 0.12205346 -0.07001303
000330 a1 76 4e bd df 1c 87 3c 64 66 5e bd d1 ce d9 bd
       -0.050406102 0.016493259 -0.054296866 -0.1063515
000340 49 37 ff 3c e4 f4 de 3d f9 57 ae 3d 7c 9e ad 3c
       0.031154292 0.10886553 0.08512873 0.021193735
000350 85 25 72 3c 3b 71 16 3e 41 c1 ed 3d 15 57 1c 3d
       0.014779453 0.14691631 0.11609126 0.038168985
000360 89 be 58 bb 2b f7 90 bd 70 5c 2d 3c 55 64 e6 3d
       -0.0033072552 -0.070783935 0.010581121 0.112496056
000370 f5 31 b2 3d 4c 5d fb bd 10 1c 2a 3e 76 d2 dd bc
       0.08700935 -0.12273654 0.16612267 -0.027077895
000380 bd 15 af 3d 9e 51 93 3d 7c 65 da 3d 9f c2 23 3d
       0.08549068 0.071933016 0.10663888 0.039980527
000390 8e 79 14 3e 05 be 27 3b d1 7b d1 3d 72 6f b7 bd
       0.14499494 0.0025595438 0.10228694 -0.089568034
0003a0 5d e0 29 3d 78 02 23 be a6 92 0b 3e 37 62 23 3e
       0.041473735 -0.1591891 0.1363016 0.15955435
0003b0 eb 65 d5 bd 11 07 e4 bd 53 16 af bc d0 86 8b 3d
       -0.1041983 -0.1113416 -0.02137295 0.06812823
0003c0 e3 f2 2f bd 51 8d 02 3e f4 0c 1f be 65 74 28 3e
       -0.042956244 0.1274922 -0.15532285 0.16450651
0003d0 1a 46 b2 bd 78 45 0e 3e db 89 cb bd 1f 46 b6 bd
       -0.08704777 0.13893688 -0.09938403 -0.08900093
0003e0 84 53 32 be 57 87 5b 3c b8 42 8d bd fd 80 c2 3d
       -0.17414671 0.013398967 -0.06897491 0.09497259
0003f0 9e c5 b6 bd a7 ca 0d 3e d5 f9 d5 bd 8a 6b 9b bd
       -0.08924411 0.13846837 -0.10448042 -0.07588871
