output/FF-L-MoME/ts_encoder_epoch5.pt (torch, 433260 bytes, 34 tensors)

proj.weight f4 [32, 8]
000000 12 74 99 3b b0 a8 82 be 83 f7 6f be b0 c3 6b be
       0.004683026 -0.25519323 -0.23434262 -0.23023868
000010 f0 cb 31 3e 26 3e 84 be 48 cb e9 bc 47 8c 8d 3e
       0.17362952 -0.25828665 -0.028539315 0.27646086
000020 99 29 b0 be af 40 74 3e 59 61 a2 3e ee 89 1a 3e
       -0.34406736 0.238528 0.31714895 0.15091679
000030 3a 1f 4e 3d 19 72 ad 3e 14 c8 8c 3e 92 f7 97 3e
       0.05032275 0.33876112 0.27496397 0.2968107
000040 48 26 f0 bd 2e 0f 0b 3e 78 9b 72 3d 16 c8 9d be
       -0.117260516 0.1358001 0.059230298 -0.30816716
000050 44 c6 92 be 52 2b a0 be d3 29 92 bd d5 28 3e 3c
       -0.2866689 -0.3128305 -0.071368836 0.011606415
000060 70 ae 1d 3e 58 78 71 be 7b 01 a1 3b 21 37 56 3e
       0.15398574 -0.23581064 0.0049135066 0.20919468
000070 c8 a6 95 be a9 4c 9a 3e ef ad 9b bd a9 ea 81 be
       -0.29228806 0.30136612 -0.076015346 -0.25374344
000080 9e 37 06 bd 67 9f 1f bd b5 95 a0 3e 71 66 14 3e
       -0.032767884 -0.038970377 0.31364217 0.14492203
000090 7e 36 5f 3e cc 67 86 3e fd f9 64 be 25 02 2a be
       0.21798131 0.26251066 -0.22360988 -0.1660238
0000a0 1f 5c 7b be a7 64 2f be 83 f6 73 be a9 33 71 3d
       -0.2454686 -0.1712824 -0.23824506 0.058887158
0000b0 80 9a b5 be 37 1e 8f 3e cc 7b af be 1a 7d 51 3e
       -0.35469437 0.2795274 -0.34274137 0.20457879
0000c0 55 fe ae be 0b 58 39 3e 72 3f 38 be 26 58 97 3d
       -0.34178415 0.18099992 -0.17992952 0.0738986
0000d0 1a 5a a2 3e 70 34 04 be af c7 c9 bb 15 1b 66 bd
       0.31709367 -0.12910628 -0.0061578373 -0.05617817
0000e0 5a e1 b0 be cc 00 8f 3e b5 51 9e bd df b9 b0 bd
       -0.3454693 0.27930295 -0.07730428 -0.08629202
0000f0 7a 1c 18 be e2 d4 24 3e 75 57 44 be ac 46 40 be
       -0.14854613 0.16096833 -0.19173987 -0.18776959
000100 2f cf 91 3e 22 28 8c be de 14 af be fa 8c bb 3d
       0.2847838 -0.2737437 -0.34195608 0.091577485
000110 0e 43 07 be 83 19 2f be 66 cd 7b bd fb 77 9d 3e
       -0.13209173 -0.17099576 -0.06147518 0.307556
000120 fd 78 c3 3d 74 42 a3 be 6f 77 11 3e 0e bf b0 be
       0.09544561 -0.31886637 0.14205717 -0.34520763
000130 c7 cf dc 3d e4 0e 32 3d 37 13 97 be 27 cb 33 3e
       0.10781818 0.043471232 -0.29506847 0.17557965
000140 7e 56 9f 3d 65 92 a4 3e 32 c2 e2 bd 31 70 68 3e
       0.07780169 0.3214294 -0.11072196 0.22699048
000150 c0 d4 57 3d f4 dc b7 3e c1 ec 9a be cf 26 73 3e
       0.05269313 0.3591076 -0.30258754 0.23745273
000160 22 68 1d be 23 80 7e be 9f 8f 84 be f7 46 ee 3d
       -0.15371755 -0.24853568 -0.25890824 0.11634629
000170 d9 c0 09 3e 98 00 30 3c e8 b4 6b bb c6 d0 0b be
       0.13452472 0.010742329 -0.0035965983 -0.1365386
000180 43 55 a1 3e d8 a9 4b 3d 6e 45 1a 3e 38 fa 26 be
       0.31510362 0.049722522 0.15065548 -0.16306388
000190 5c 55 9d be 69 4d 8d be 6e bf 93 3e 02 3e d1 bd
       -0.30729187 -0.27598122 0.28856987 -0.10216905
0001a0 8c fc 47 3c 82 6d b5 be 66 34 89 3d dd 34 b6 bd
       0.012206208 -0.3543511 0.06699447 -0.088968016
0001b0 de 71 23 bd 5d e0 25 3c a7 e5 83 3e 36 03 96 bd
       -0.039903514 0.010124293 0.25761148 -0.07324831
0001c0 1b 39 5f be eb ee a0 3e 71 ae b4 3e f3 6f ae 3e
       -0.21799128 0.3143228 0.35289338 0.34069785
0001d0 25 a3 9a be d2 09 36 bd a7 ea 46 be 0e 07 4d 3e
       -0.30202594 -0.04444296 -0.1942545 0.20022222
0001e0 e4 6d 8d bb c5 3a 04 3e 41 21 a9 3e 34 ae 88 3e
       -0.0043160785 0.12913044 0.33033183 0.26695406
0001f0 92 12 9a bd 44 54 82 3e 1f 4d 8e 3e 24 0a 2f be
       -0.07523073 0.25454915 0.27793214 -0.17093712
000200 71 d1 6c 3c fb 73 86 be bc c2 10 be 0f d2 0e 3e
       0.014454232 -0.2626036 -0.14136785 0.13947318
000210 ec 57 07 3b 7c c2 9f 3e 50 04 aa 3e 4d d3 d7 bd
       0.002065177 0.31203067 0.33206415 -0.10538349
000220 1a 2e e7 bd 92 31 80 be da b1 b7 bb 68 63 62 3d
       -0.1128809 -0.2503782 -0.0056059184 0.055270582
000230 06 4a 07 3e 56 46 0c 3e b1 72 d6 3d e1 7d 95 bd
       0.13211831 0.13698706 0.104710944 -0.072994
000240 1a 34 c0 bd 9d 9e 57 be a3 6f 5e be c5 51 a4 be
       -0.093849376 -0.210566 -0.21722274 -0.32093635
000250 fc 98 8a be 3a 46 4d be e0 6e 37 3e dc 86 07 bd
       -0.27069843 -0.2004632 0.17913389 -0.033087596
000260 05 75 4a be ec 55 46 be 98 e9 a3 3e 06 42 91 bd
       -0.19771202 -0.19368714 0.32014155 -0.07092671
000270 16 50 5e bd f5 f2 b6 be ad a5 98 be c5 01 7d be
       -0.054275595 -0.35732237 -0.298139 -0.24707706
000280 bc d5 b8 bd 3c 0a 23 3d ec 92 b1 3e af 4e 2c be
       -0.090251416 0.039804682 0.34682405 -0.1682689
000290 da 70 d9 bc a3 ec da bd c6 23 a2 be 98 dc 12 3e
       -0.02654307 -0.10689666 -0.31667918 0.14341962
0002a0 1f fb 92 3e fe 2d fd 3b 2a 6a cb 3c 4b 85 8b be
       0.28707215 0.00772643 0.024830896 -0.27250132
0002b0 63 5f 44 3e cd 82 02 be 06 4c 08 be b0 d5 8a be
       0.19177012 -0.12745209 -0.1331025 -0.27116156
0002c0 47 22 65 3e 01 90 79 be 44 25 db bc 03 67 b0 be
       0.22376357 -0.2437134 -0.026751168 -0.34453592
0002d0 98 63 25 be 82 e7 05 be 89 b2 8e be 17 78 6b 3e
       -0.16151273 -0.13076594 -0.27870587 0.2299503
0002e0 8e be 8f 3e 15 73 85 3d b0 a8 9b be fc dd 20 be
       0.2807507 0.06516091 -0.30402136 -0.1570968
0002f0 cf 3b 1f 3e 66 18 17 be 60 b9 ef 3d cd bf 1a be
       0.15550159 -0.14755401 0.11705279 -0.15112229
000300 52 69 b4 bd 10 68 97 3d 75 57 fb bd e6 d2 92 ba
       -0.08809151 0.07392895 -0.122725405 -0.0011201769
000310 bb dc 1c be 7b d9 95 be 51 fb a7 3e 99 4a a3 3e
       -0.15318577 -0.29267487 0.32808927 0.3189285
000320 df 19 28 be 8d bf 71 3e 87 01 13 3e 97 80 0e 3e
       -0.16416119 0.23608227 0.14356051 0.1391624
000330 80 ce b1 3e 46 47 18 bd 78 6a 55 bd c0 59 97 be
       0.3472786 -0.037177347 -0.05210349 -0.2956066
000340 1e 47 b0 bd ec 9d b5 3e 48 1a 9f 3e 38 a8 36 bc
       -0.086073145 0.35472047 0.31074739 -0.011148505
000350 1b 77 75 be bf f4 42 be 79 4a 22 be 96 f6 95 3e
       -0.23971216 -0.19038676 -0.15848722 0.29289693
000360 03 f0 ba 3c 8b 81 a2 be 95 d1 9c be 7f a6 a7 bd
       0.022819525 -0.31739458 -0.30628648 -0.081860535
000370 fe b7 ce 3c 7d dd 85 be f9 b0 92 be cc e0 86 3e
       0.025234219 -0.26145545 -0.28650644 0.2634338
000380 b7 5b ac 3e 01 eb 2b 3d 52 cc e3 3c 03 0e a3 3e
       0.33663723 0.041972164 0.027807388 0.31846628
000390 83 ae c8 bd 0e 1d 98 be db f2 69 be fa 22 92 3e
       -0.097989105 -0.29709667 -0.22846548 0.2854231
0003a0 22 51 46 be 00 76 91 3e 36 8a a0 3e 34 c4 fe 3d
       -0.19366887 0.2841034 0.31355447 0.124397665
0003b0 bc f9 2d 3e bf 27 8f bd eb 0e 83 be 0e d4 3b be
       0.16989797 -0.06990003 -0.2559732 -0.18342611
0003c0 86 13 2d be 37 b8 53 be 6b c7 9d be 45 9b 7b be
       -0.16901979 -0.20675741 -0.30816206 -0.2457095
0003d0 e1 57 30 be b0 16 a4 3d 3c a2 2a 3e f6 18 33 be
       -0.17221023 0.0801214 0.1666345 -0.1748999
0003e0 dc f1 09 bd c3 5c 91 3b 59 9d 3c be e8 08 c0 be
       -0.03367792 0.004436107 -0.18419398 -0.37506795
0003f0 23 18 30 be 9f 2c 85 be 27 1a 2b 3d 12 7b a0 be
       -0.17196707 -0.26010606 0.041772988 -0.31343895

proj.bias f4 [32]
000000 50 fe 27 3e ce c6 05 be 3f 4a 9e 3e f9 25 1c 3e
       0.16405606 -0.13064119 0.3091602 0.1524886
000010 5a 1a ad be fe e9 a6 be ba 4a 9d be a5 71 3c be
       -0.33809167 -0.32600397 -0.30721074 -0.18402727
000020 db e9 4e be c7 4e c8 3d 79 72 a0 be 7f 8f a6 be
       -0.20206396 0.097806506 -0.31337336 -0.32531354
000030 a8 9d 34 bd 68 61 9a 3e 96 60 f9 3d 78 24 a0 3b
       -0.044095665 0.3015244 0.121766254 0.00488716
000040 b3 47 a5 bd e0 ed 97 be d9 da 92 3e c0 a1 3b 3e
       -0.08070316 -0.29673672 0.28682593 0.18323421
000050 59 62 b3 3e c1 5d 7a bd e7 c5 1a be 66 ba 37 be
       0.3503597 -0.061124567 -0.15114556 -0.17942199
000060 2e 70 4c be 22 78 da bd ce 49 90 be a0 a1 23 3d
       -0.19964668 -0.10667445 -0.28181309 0.03994906
000070 8a 3b f1 bd e7 b4 82 3e 9c 94 af 3c 4e 0c 91 3e
       -0.11778934 0.25528643 0.021433167 0.283297

EiLM.0.gamma_generator.weight f4 [1, 32]
000000 91 00 8a bd 41 da f6 bd 8b 0b f4 bd 5a e3 64 3c
       -0.06738389 -0.120533474 -0.11916264 0.01397022
000010 1e 13 38 3e 80 04 ae bd 99 54 aa 3d 8f 50 a1 bc
       0.17976043 -0.08496952 0.08316917 -0.019691734
000020 1b d7 3a be 2f a2 12 3d e5 a2 13 bd 8d 95 35 3d
       -0.18246119 0.0357992 -0.03604402 0.044332076
000030 e1 04 49 be 8e f1 1f be 2d 01 ae 3a d6 3e 95 bc
       -0.19630767 -0.1561949 0.0013275497 -0.01821844
000040 0a ac a4 3d b3 60 44 3e 9d 7d 51 bd c7 79 04 3e
       0.08040626 0.19177513 -0.051145185 0.1293708
000050 a2 ae b3 bd 11 1c 8a bc 7d d7 22 be 9f 87 17 3e
       -0.08773543 -0.016859086 -0.15902515 0.14797829
000060 25 cf 13 be 8f 93 97 bd 8d fb 14 3e 15 60 76 bd
       -0.14434488 -0.074011914 0.14549084 -0.060150225
000070 92 60 0c be 71 3b ea bd 76 41 ee 3d 0c c1 35 3d
       -0.13708714 -0.11437119 0.116335794 0.044373557

EiLM.0.beta_generator.weight f4 [32, 32]
000000 5b ac 59 bd ad 70 87 3d cc bf 20 be d7 78 ef bd
       -0.053142887 0.06613288 -0.15698165 -0.1169297
000010 b4 fe 11 3d 17 37 b4 3b 04 5b ac 3c 66 62 3e 3d
       0.035643294 0.0054997313 0.021039493 0.04648056
000020 9d bf 04 3d bd 5f a4 3c 0c f5 18 be d0 42 f6 3d
       0.0324093 0.020065183 -0.14937228 0.12024462
000030 70 43 cc 3d 5a de a4 bd eb 7d 26 be c5 43 13 be
       0.099738 -0.08050223 -0.16258971 -0.14381321
000040 4e 70 d5 3d 7b ba 03 3d c5 36 12 be 1f ab 1b be
       0.10421811 0.032160264 -0.14278705 -0.15201996
000050 6d e3 9c bd c6 7b 62 bd 05 4d fe 3d 42 4b 4b bb
       -0.076605655 -0.05529382 0.12417034 -0.00310202
000060 2c 9c 20 be 46 92 fc 3c 51 c2 30 3e 02 99 b0 3c
       -0.15684575 0.030831467 0.17261626 0.021557335
000070 3d 9b e0 bd 34 76 02 be 04 e9 df 3d 89 05 23 be
       -0.10967109 -0.12740403 0.10933116 -0.1592008
000080 65 a7 01 3b 06 33 36 be 09 79 20 3e 61 aa fa bd
       0.0019783613 -0.17792901 0.15671171 -0.122395284
000090 02 ac c9 3d 9c 8f 08 bd 92 e1 e8 bd b8 46 53 3d
       0.09847261 -0.03334008 -0.11371149 0.051581115
0000a0 71 f9 46 3d 66 81 88 bd 20 6e 16 be 8c c6 12 3c
       0.04857773 -0.06665306 -0.14690447 0.00895847
0000b0 45 a8 5c bd 31 aa f0 bd 28 84 02 3e 42 e1 ae bd
       -0.05387141 -0.117512114 0.12745726 -0.08539058
0000c0 15 99 16 be 7d 71 2b 3e 6f b3 c4 3d 5f 39 0a be
       -0.14706834 0.16742511 0.09604537 -0.13498448
0000d0 46 62 37 be ea 2c 88 3d 39 2a 08 3e 6b 15 ad 3b
       -0.17908582 0.06649192 0.13297357 0.0052820942
0000e0 c4 3a a7 bc c9 67 87 3d 30 6e bf 3d 5b d8 e3 3d
       -0.020413764 0.06611592 0.093471885 0.11125251
0000f0 46 0d bb bd 9e d9 0a be 8c 1b 09 3e 3a ef 17 bd
       -0.09133391 -0.13559577 0.13389415 -0.03709338
000100 26 0c 1b bd 41 4a 8d bd 83 39 fc 3d ee 27 a9 3d
       -0.037853383 -0.068989284 0.12315657 0.08259569
000110 41 ba 8f 3d 61 03 4b bd f9 e7 da bd fe 2d 21 be
       0.07017947 -0.04956377 -0.106887765 -0.15740201
000120 56 eb 13 3d 68 d2 d1 3d 7f 66 3b 3d ec 04 54 3c
       0.036113106 0.1024521 0.045752045 0.012940627
000130 54 fd 88 3d 74 e7 e0 bd 0a 82 a0 3d 8f 43 30 3d
       0.066889435 -0.10981646 0.07837303 0.04303318
000140 8d 37 b1 bd 32 12 95 3d f5 27 a8 3d 55 b8 0b be
       -0.086531736 0.07278861 0.08210746 -0.13644536
000150 f9 bd a5 3c 9b af 3f 3c 2b a9 b3 3c cf 1f 5c ba
       0.020232188 0.011699582 0.021931252 -0.0008397074
000160 23 d6 ca bd f8 5c a4 3d 19 32 d5 3d b6 f5 a3 bd
       -0.099041246 0.08025545 0.10409946 -0.0800585
000170 24 56 43 bc 60 66 04 be a3 b4 37 bb 0d dd 12 be
       -0.011922393 -0.12929678 -0.0028031252 -0.14342137
000180 21 bb 9d 3d b7 33 1e be fe 85 f3 3d 52 b5 95 bd
       0.07701708 -0.15449415 0.11890791 -0.07309975
000190 16 4e ba bd 67 7a 15 be 4f 3c 86 3d 82 f6 94 bd
       -0.09096925 -0.14597474 0.06554472 -0.0727358
0001a0 44 2a 3a bd 3f a0 59 3d 16 12 2a be c8 3e 51 3c
       -0.045450464 0.05313134 -0.16608462 0.012771316
0001b0 e5 ae 45 bd dc 59 9a bd 25 17 ec 3d c8 bb 15 3e
       -0.048262496 -0.075366706 0.11527852 0.14622414
0001c0 2d 87 a9 bd 09 a3 d0 bd 1b 5b fa bd 53 c2 09 be
       -0.08277736 -0.101873465 -0.12224408 -0.13453035
0001d0 db 66 3f bc 7d b3 79 3d 28 f6 e7 3b 4c 3a f4 bd
       -0.0116822375 0.06096219 0.0070789047 -0.11925182
0001e0 95 2f 87 bc 88 dc 18 be 86 f6 dd 3d 5a ab 5d 3d
       -0.016502181 -0.14927876 0.10838036 0.05411849
0001f0 9b 18 29 3e 61 44 ad bb ff 93 54 3d 01 ec 18 be
       0.16513292 -0.0052876924 0.051898953 -0.14933778
000200 18 23 9c 3d 95 8d 22 3e e1 10 67 3d 5d 7c 42 bd
       0.07623881 0.15874322 0.05641258 -0.047481883
000210 83 5f 7a 3d 12 6f 1b be 6f d4 91 3d cc 07 3e bd
       0.061126243 -0.15179089 0.071205966 -0.046394154
000220 71 4e ad 3d ba 0a 01 be ff cb d0 3d 2b 09 5f 3d
       0.08462227 -0.12601748 0.10195159 0.054452103
000230 6e 5e 1d be 10 c1 96 bd 60 82 32 3d 61 e9 dd 3a
       -0.15368053 -0.073610425 0.043581367 0.0016930514
000240 4c e0 15 3e 45 4d 15 3e fb a6 33 3c 36 89 c0 3d
       0.14636344 0.14580257 0.010965104 0.09401171
000250 35 29 b8 3c 8e 22 f5 3d 11 b8 fa bb f4 36 1b be
       0.022480587 0.119694814 -0.007651337 -0.15157682
000260 6c 6c 73 bc e6 f3 db 3c 3c 03 e0 3c 65 21 04 3e
       -0.014857393 0.026849698 0.027345292 0.12903364
000270 01 4d 0e 3c 55 be 20 3e c9 cd 49 3c 18 0a 96 bd
       0.008685351 0.15697606 0.012317129 -0.07326144
000280 28 29 54 bd 2e 50 bf 3d 21 fa 21 be 0c d8 1a be
       -0.051797062 0.09341465 -0.15818073 -0.15121478
000290 f6 a4 6a bd aa bd 14 3e 34 a0 29 be 56 b5 db bc
       -0.057286225 0.14525476 -0.16565019 -0.026819866
0002a0 28 c0 c6 3d 64 60 91 bd e2 78 2c 3d 9d 58 32 3e
       0.0970462 -0.07098463 0.04210747 0.17416616
0002b0 a9 1e e0 bd 70 2b e1 3c 0b 43 bb 3c 11 35 42 3e
       -0.10943348 0.027486533 0.022859117 0.18965556
0002c0 12 6c 07 be ae 71 25 3e 76 95 15 3d 69 2f 32 bd
       -0.1322482 0.16156647 0.03651949 -0.043502245
0002d0 10 22 10 bd 20 80 f2 3d c3 35 70 3d 78 b9 35 3e
       -0.035188735 0.11840844 0.05864502 0.17746532
0002e0 d7 32 15 3e 8b 20 28 bd 14 a5 ac 3b 36 ce 80 3d
       0.14570175 -0.04104666 0.0052687023 0.062893316
0002f0 fc 2f 8b bd a1 e1 08 3e fb c3 0d be 0a db 05 3e
       -0.06796262 0.1336732 -0.13844292 0.13071838
000300 6b 02 2f 3d 6f 34 bb bd ff 83 8f 3d 39 9c 28 bd
       0.042726915 -0.0914086 0.07007598 -0.04116461
000310 cf 40 65 3c b7 ea 2d 3d 5a 54 f1 3d 13 09 e1 3d
       0.013992502 0.04246017 0.11783667 0.10988059
000320 37 79 1c be 36 b5 22 3e 3f 4e 02 bd 2a 8f 2d bd
       -0.15280615 0.15889439 -0.031812903 -0.04237286
000330 a6 03 83 3d f3 7b 22 3e 6c 89 2b 3d ab 55 01 be
       0.0639718 0.15867595 0.041879103 -0.12630336
000340 5f 6a 11 be 13 7b a3 3d 8c ea c4 bc 83 b5 28 be
       -0.14200734 0.07982459 -0.024037622 -0.16475491
000350 b3 6a 9a bc df 76 b5 3c b7 15 21 bd fb 43 2b be
       -0.018849706 0.022151409 -0.03932735 -0.16725151
000360 b1 7c 0b be f7 97 f7 3d 28 25 90 bd 95 48 23 3e
       -0.13621785 0.12089532 -0.07038337 0.15945657
000370 69 4b 22 3e be 4c 7e bc bd b5 9a 3c 9b 0e 17 be
       0.15849079 -0.015521226 0.018885488 -0.14751665
000380 0c 27 00 3d 5a a0 bb bc b9 5c 2f bc 96 b8 90 3d
       0.031287238 -0.02290361 -0.010703259 0.07066457
000390 ed 0e 15 3d 0e d0 67 bd 74 02 01 be 43 65 a6 bd
       0.036391187 -0.0565949 -0.12598592 -0.08124783
0003a0 62 ae 40 3d 98 e4 bb bb d8 57 98 3c c4 0d d9 3c
       0.047041304 -0.0057340376 0.018596575 0.026495822
0003b0 6d 7b 1a be 54 8a 11 be 5c 3a 0d be c4 04 21 be
       -0.15086146 -0.14212924 -0.13791794 -0.15724474
0003c0 f1 1e 47 3d 82 84 00 be 47 01 1b 3e 20 74 01 3e
       0.048613492 -0.12550548 0.15137206 0.12641954
0003d0 75 f7 41 3c 45 d3 25 bd ff a9 4a 3c c9 da 11 be
       0.0118387835 -0.040484685 0.012369632 -0.14243616
0003e0 73 5a 8b bd 96 81 02 be 0b 65 f1 bd 83 ab 9e bd
       -0.06804361 -0.12744746 -0.117868505 -0.07747557
0003f0 02 d4 cb 3d 0d 2f 07 3e 8b 9c 97 bd 3b 23 e6 3d
       0.09952547 0.13201542 -0.07402905 0.112371884

EiLM.1.gamma_generator.weight f4 [1, 32]
000000 9d 30 0e be 0f 65 cd 3d a7 ae 03 3e a4 55 82 bc
       -0.13885732 0.10029041 0.12859593 -0.015909977
000010 d0 4a 4e 3d 73 69 30 be 2c 56 a2 3d c0 dd 9a 3d
       0.050364316 -0.17227726 0.07926592 0.07561827
000020 85 80 d1 3d f3 52 60 3d a6 94 52 bd c5 3d 7e bc
       0.10229591 0.054766607 -0.051411293 -0.015517657
000030 fc c7 1d 3e f2 ed 25 3e 7b 69 18 bd 4c 04 20 be
       0.15408319 0.1620405 -0.03720997 -0.15626639
000040 50 1b bf 3c d3 1a 8e bd 37 83 76 bd 3e 18 20 be
       0.023328453 -0.0693871 -0.06018373 -0.15634248
000050 bf c6 ea bb a2 74 06 be 10 70 69 3c 9c b8 7b 3a
       -0.0071648057 -0.1313043 0.014247909 0.0009602399
000060 1c a8 bc bd 76 83 8b bd 09 cd e4 3c 0a 0a df 3d
       -0.09211752 -0.068121836 0.0279298 0.10890587
000070 3a 5d e4 3d cf 6f 2a 3e 63 12 2f 3d 32 b5 b6 3d
       0.11150594 0.16644214 0.042742144 0.08921279

EiLM.1.beta_generator.weight f4 [32, 32]
000000 48 c4 25 3d 39 0f 0d be f1 5c 10 3e 34 30 b0 bc
       0.04047039 -0.13775338 0.14097954 -0.02150736
000010 f2 ec e7 bd 5c 0d 8c bc a2 2c 56 3b 0a c1 66 bd
       -0.113244906 -0.017096214 0.0032680412 -0.05633644
000020 c3 a6 b3 bd 44 91 86 bd 6e 65 ba 3d 94 ee 27 be
       -0.08772042 -0.06570676 0.091013774 -0.16399604
000030 06 ee ad 3d e4 24 08 be cb 2a 07 bd b4 9c cf 3c
       0.08492665 -0.13295323 -0.032999795 0.025343277
000040 a7 73 06 be d3 5f 19 be df 55 09 be a8 a4 10 3e
       -0.13130055 -0.1497796 -0.13411663 0.14125311
000050 28 6d 93 3d 3e c8 ee bd 33 db 1e 3e 32 e6 ce bc
       0.07198554 -0.11659287 0.15513305 -0.02525625
000060 16 4f 32 3e 8a b2 00 be df 55 18 be 64 5d dd bd
       0.17412981 -0.12568107 -0.14876507 -0.108088285
000070 89 f3 0d 3e dc 89 b1 bd 32 5b 17 3e 92 bf b8 3d
       0.13862433 -0.08668873 0.14780882 0.09020914
000080 9b df 93 3c 8f 03 18 be 75 57 e2 bd 75 68 6e 3c
       0.01805096 -0.14845107 -0.11051837 0.014551272
000090 76 4d 20 be d1 f3 2e 3d ec 20 10 3d d8 08 75 3d
       -0.15654549 0.04271299 0.035187647 0.059822887
0000a0 c7 fd b6 bd 95 0c 20 3e fa dd bc bd e0 72 65 bc
       -0.08935123 0.156298 -0.09222026 -0.014004439
0000b0 27 9e 62 bd 75 36 66 bd e7 e4 b5 bd 4f 20 25 be
       -0.055326607 -0.056204278 -0.0888155 -0.16125606
0000c0 af ca 27 3e 06 73 b8 bd 9d f9 95 bd 9c f2 80 bd
       0.16385911 -0.09006314 -0.073230006 -0.06296274
0000d0 65 20 1b bd 81 46 b0 bd 76 21 e9 3d 00 ee 55 3d
       -0.03787269 -0.086071976 0.11383335 0.052228928
0000e0 11 42 88 3d d0 d9 da 3d 1f 47 d3 3d 97 a1 25 3d
       0.06653226 0.10686076 0.103163 0.040437307
0000f0 71 66 9e bd 2b c1 54 3d f4 fd 2c bd fd 10 c4 bd
       -0.07734383 0.05194203 -0.042234376 -0.09573553
000100 87 1f 80 bd 44 1b 4a 3d c0 f3 55 3b 6d a1 15 3e
       -0.06256013 0.04934241 0.0032646507 0.1461236
000110 52 d2 48 be 1e 19 a8 3d 76 99 ba bd 64 f9 45 bd
       -0.19611481 0.08207916 -0.091113016 -0.04833354
000120 83 ce 10 bc c5 94 9c 3d e6 0f 8c bd 10 84 95 3d
       -0.008838299 0.07645563 -0.0683897 0.073005795
000130 34 38 af 3c d2 3a fb bd 9e 16 0c 3e f5 c5 18 3e
       0.021389104 -0.122670785 0.13680503 0.14919265
000140 1d 7b be 3c 0e ae 13 bd 91 c3 fc 3d 57 cb b4 bd
       0.023252064 -0.036054663 0.12341989 -0.088278465
000150 28 22 1e 3d 0b 67 ab bd d5 f5 16 3e 53 87 ed bd
       0.038606793 -0.08369263 0.14742215 -0.11598077
000160 28 60 3d 3e 0f 72 dd bd 66 54 ab 3d f0 be e4 bd
       0.18493712 -0.108127706 0.08365707 -0.11169231
000170 b0 21 11 be 10 18 12 bd 6e 1d a1 3d e3 b2 55 3c
       -0.14173007 -0.03566748 0.078669414 0.013043138
000180 32 8f 63 3d 0b 74 dc 3d d0 bb 21 bd 7c a4 2b bc
       0.055556484 0.10764321 -0.039485753 -0.010476228
000190 de b5 16 be 8c 23 cb 3d e7 d9 84 3d 76 96 92 bd
       -0.14717814 0.099188894 0.06486874 -0.071576044
0001a0 56 6b a9 3c 5c 0e cb bc aa 34 0c be fa 65 dd bd
       0.020681065 -0.02478712 -0.13691965 -0.10810466
0001b0 da b4 05 be f1 b9 9e bd 8a 67 cd 3d eb 6c e3 bd
       -0.1305727 -0.07750309 0.10029514 -0.11104759
0001c0 79 6b fe bd 95 cb 06 bd 8b 59 ae bd 06 08 ec bd
       -0.124228425 -0.032908995 -0.08513173 -0.11524968
0001d0 9d c8 6e bd 6a c2 f3 3d 05 48 15 be 4d de 2c 3d
       -0.05829679 0.11902316 -0.14578255 0.04220419
0001e0 c1 1b d3 ba 34 1a 89 bc f2 81 80 3d 7e 4b cf 3d
       -0.0016106294 -0.016736127 0.06274785 0.10121821
0001f0 2d d0 f4 3d 20 46 ab bd 14 f9 52 bb 2f 03 25 be
       0.11953769 -0.08362985 -0.003219192 -0.16114496
000200 e8 bf 6b 3d 60 f0 10 be 29 d4 bb bc 76 4f 73 bd
       0.057556063 -0.14154196 -0.022928314 -0.05940195
000210 14 93 30 3e 6d 4e 80 bb 45 bd a8 3d be b5 10 be
       0.17243606 -0.003915599 0.08239225 -0.14131829
000220 3d 2b 2c be d1 a3 a0 3c a7 df 44 bd 42 27 bc 3d
       -0.16813369 0.019609364 -0.048064854 0.09187175
000230 9e 36 0b 3d 9a 8d 3d 3d e5 a9 f0 bd 06 35 69 bd
       0.033987634 0.04627762 -0.11751155 -0.056935333
000240 7a 91 95 bd ce a8 1a 3e 20 88 3c bc 2f ab a5 bd
       -0.07303138 0.15103456 -0.011507064 -0.08089291
000250 76 3f 08 3d 4c c5 5d bd ad d5 23 be 06 54 e2 3b
       0.033263646 -0.054143235 -0.1599948 0.006906989
000260 f3 d6 b9 3d 82 e8 0f 3e 88 ab 2f 3e 3c 8f 83 bd
       0.090742014 0.14053538 0.17155278 -0.06423804
000270 37 a9 22 be 02 f5 1d bd 95 34 eb bd 19 35 19 3e
       -0.15884863 -0.038563736 -0.114846386 0.14961661
000280 6d 7d 47 bd f7 ef b3 3d c2 ae e8 3d 8d e3 d0 3d
       -0.0487036 0.08786004 0.113614574 0.10199652
000290 eb 6b 27 be 58 88 20 3e 1e e2 09 bc 93 b8 2c 3e
       -0.16349761 0.15677011 -0.008415727 0.16867284
0002a0 fa 0a 87 3d d7 2f 2e 3b cb b6 11 be 46 20 98 3b
       0.065938905 0.0026578808 -0.14229886 0.004642519
0002b0 b7 b6 19 3e 0b b0 56 3c 7a d2 16 be 7f c2 9f bc
       0.15011106 0.013103495 -0.14728728 -0.019501923
0002c0 6c fa bf 3d 3c e7 0c be 93 39 54 3c 9f 83 bc 3c
       0.09373936 -0.13760084 0.01295318 0.02301198
0002d0 c5 1f b7 bc c2 c3 44 3d d9 3f 04 be 1a b9 c6 3c
       -0.022354016 0.04803825 -0.12914981 0.024258185
0002e0 48 74 7f 3d 6c 95 0f be 61 62 41 be 8b 24 1e be
       0.062366754 -0.14021844 -0.18885185 -0.15443628
0002f0 44 00 49 bc b1 7e 04 be 3f 08 17 bb fd 77 19 3d
       -0.01226813 -0.12938954 -0.0023045687 0.037467945
000300 37 86 73 bd 55 31 f7 3d 0f e8 d8 3d 8c 2c 02 3e
       -0.05945417 0.12069956 0.10591137 0.12712306
000310 3a f8 1e 3c 0c 07 db 3c 6b 16 2b bd c8 48 f7 bd
       0.0097027365 0.026736759 -0.041769426 -0.12074429
000320 b8 eb 21 3d 58 d5 36 bd fc 4e ef 3c 19 e3 7c bc
       0.03953144 -0.044637054 0.029212467 -0.015435004
000330 70 19 2a be db 20 90 3c 13 0c ac bc ec 10 20 3e
       -0.16611266 0.017593792 -0.021001851 0.15631455
000340 18 10 33 3e e5 2e 11 3e 2b df 9b 3d 80 8f 05 be
       0.17486608 0.14178045 0.07610925 -0.13043022
000350 07 aa 9c 3d 64 8a d2 bc d7 e8 b6 bd e2 fa 09 3e
       0.07649618 -0.025700755 -0.089311294 0.1347461
000360 69 35 29 be b1 6b 24 3d f2 e3 96 3c 1d 3f 78 bc
       -0.1652428 0.040141765 0.01841924 -0.015151766
000370 22 55 56 bc 35 a5 58 3d 05 3a ad 3c 93 c2 03 3e
       -0.013081821 0.05289193 0.02114583 0.12867193
000380 c4 88 db bc ab 98 00 be 9c f8 f4 bd 54 c2 fa 3c
       -0.026798613 -0.12558238 -0.11961481 0.030610241
000390 c5 f1 2c be 3b a5 63 3c 4c de 2b 3c dc d6 c3 bd
       -0.16889103 0.0138943745 0.010490011 -0.095624655
0003a0 47 b2 ab 3c a2 57 23 3d da 83 c0 bd 6d 93 d6 bd
       0.020959033 0.039878495 -0.09400149 -0.10477338
0003b0 15 ef 11 3e 0e 38 87 bb 39 42 26 be 94 81 27 3e
       0.14251359 -0.0041265553 -0.162362 0.16358024
0003c0 1d 36 85 bd 61 0a 25 be 1c f0 a8 bd 78 6e 93 3d
       -0.06504462 -0.1611724 -0.08248922 0.071988046
0003d0 1c 8c 93 bd 34 f8 04 3e fa 26 86 3d 2c 4e 14 be
       -0.07204458 0.12985307 0.06550403 -0.14482945
0003e0 08 5e a2 3c bd 53 21 be 46 22 bf 3d e0 1d 17 be
       0.019820228 -0.157546 0.09332709 -0.1475749
0003f0 69 71 1b be 80 4a 1b be ca fc 10 3e 49 0d 0b be
       -0.15179981 -0.15165138 0.14158931 -0.13579287

EiLM.2.gamma_generator.weight f4 [1, 32]
000000 03 b0 f0 bb 8c 3c 59 bd ee 9d 12 3e 02 32 71 bd
       -0.007345201 -0.053036258 0.14318058 -0.05888558
000010 97 60 c6 3c 83 56 f9 3c a8 08 0b be 14 7d b6 3d
       0.02421598 0.03043676 -0.13577521 0.089105755
000020 4a fe 72 3d e7 b6 51 bd 7f b9 60 3d 7b 98 1e be
       0.05932454 -0.05119982 0.054864403 -0.15487854
000030 d9 78 34 3e 64 70 46 3e eb 9b 1d be 3c 3e 26 be
       0.17624225 0.19378811 -0.15391509 -0.16234678
000040 4d 42 f9 3d 9c 2c 0c 3c b3 3f 9b bb 7f aa d1 3d
       0.12170849 0.008555558 -0.004737818 0.10237598
000050 f4 58 90 3d 03 50 a9 bd fd 35 38 3e bf 10 c5 bc
       0.070482165 -0.08267214 0.17989345 -0.024055837
000060 07 b3 f7 bd 85 30 86 bd ab bc fd bd bc c0 2f bd
       -0.12094694 -0.06552223 -0.12389501 -0.042908415
000070 68 7e 59 3d b9 d2 56 bc d9 98 00 be da f0 0d be
       0.053099066 -0.013111764 -0.12558307 -0.13861409

EiLM.2.beta_generator.weight f4 [32, 32]
000000 26 b1 af 3d 84 70 5f 3c 2d af 24 3e 87 7b 1e be
       0.0857871 0.013637666 0.1608245 -0.1547681
000010 14 3f 19 be 60 d4 28 bd 35 9c da 3d 93 3b dc bd
       -0.14965469 -0.04121816 0.106743254 -0.107535504
000020 78 e8 23 be d5 3c cf 3d b1 98 04 be 36 12 30 3e
       -0.16006649 0.10119025 -0.12948872 0.17194447
000030 08 5e d0 bd 4a ea fc bd a3 ca f8 bc 06 f9 c0 3c
       -0.10174185 -0.123493746 -0.030370062 0.023556244
000040 7d 8a 27 3e e4 51 91 3b 25 9a 28 be 92 cb 40 be
       0.16361423 0.004434811 -0.16465051 -0.18827656
000050 db 96 fc bd 5f 5a 00 bd 1a a8 ae 3d 76 c6 b2 bd
       -0.12333461 -0.031336185 0.085281566 -0.0872926
000060 80 ab b6 bc dd ae e7 3d e4 83 26 3a e2 47 e6 bd
       -0.022298574 0.113126494 0.00063520507 -0.11244179
000070 11 37 d5 bd f0 b4 6e bd 40 90 bb 3d 9c 4c e3 bd
       -0.10410894 -0.058278024 0.09158373 -0.110985965
000080 82 66 78 3d a5 1b 13 3e 0f d9 2c bd b6 c7 28 bc
       0.060644634 0.14366014 -0.04219919 -0.010301521
000090 63 c1 b3 bd 14 21 72 bd 7b ec c5 3d c1 c7 d3 3c
       -0.0877712 -0.059113577 0.09664246 0.025852086
0000a0 33 e5 13 3e 9a bc 10 bd 9d bc 08 3e d1 ea 03 bc
       0.14442901 -0.035336114 0.133532 -0.00805159
0000b0 c6 3c 34 3e d7 9e df bd 20 c2 35 3e bf 82 93 bd
       0.17601308 -0.10918968 0.17749834 -0.07202672
0000c0 18 a3 cb bd 6a cd 1c 3d 1c 47 97 bd 07 d2 20 3e
       -0.09943217 0.038281836 -0.0738661 0.15705119
0000d0 12 b6 0f be 28 45 26 3e bb 8d 2a 3e f2 5d 1a bc
       -0.14034298 0.16237319 0.16655628 -0.009421812
0000e0 58 c7 92 3d 17 8c 72 3c e1 57 06 be 81 a0 8b bd
       0.07166928 0.014803908 -0.1311946 -0.06817723
0000f0 1f 2e 29 3d 5a 4d 23 be fa 82 80 3d 00 e3 47 bd
       0.04130375 -0.15947476 0.06274982 -0.04880047
000100 1a a2 2a 3d 09 1d 01 3d 1a b5 36 3c e9 db c2 bc
       0.0416585 0.03152183 0.011151576 -0.023786502
000110 62 79 10 3d 8f f0 ed 3d fe 3d 37 bd de 0e 48 3d
       0.03527201 0.116181485 -0.044736855 0.048842303
000120 e2 14 05 3e ab 83 37 bd 7c b7 bb bd 32 6a 30 3e
       0.12996247 -0.044803303 -0.09165856 0.1722801
000130 31 a3 ff bc c3 a4 ed 3d ca 1d cd 3d 97 6c f6 3d
       -0.031205745 0.116036914 0.100154474 0.120324306
000140 c1 07 a6 bd 3c 71 f8 bd 81 e2 3c bd e0 db 87 3d
       -0.08106948 -0.12130973 -0.04611445 0.06633735
000150 1c e5 16 3e f5 c0 cd 3c 78 19 14 3e 30 66 ad bd
       0.14735836 0.025116423 0.1446284 -0.08466756
000160 18 47 2d be e9 6d 15 3e e4 fe d9 bd f1 35 61 bc
       -0.16921651 0.14592709 -0.1064432 -0.013745771
000170 ca 43 27 be 03 d1 40 be 30 7e 14 3d fa e2 31 be
       -0.16334453 -0.18829732 0.036253154 -0.17371741
000180 b7 86 63 3d 8e 38 04 3c 24 21 a9 3d 23 45 d6 3d
       0.055548396 0.008070124 0.08258274 0.104624055
000190 14 4e d7 3d 0c a4 0a bc cb a3 cc 3d 55 05 33 be
       0.10512939 -0.008461963 0.099921785 -0.17482503
0001a0 89 9b 26 3d 1d b8 a5 3d d8 47 fe bb d1 4d f3 3d
       0.040675674 0.080917574 -0.0077600293 0.11880077
0001b0 a7 4f 0b 3e 25 11 1a 3e 58 b9 f6 3d 3b 19 91 3c
       0.13604604 0.15045603 0.1204707 0.017712226
0001c0 60 2d 88 ba ff 49 b3 bd 1f 3f 83 3d e8 e5 68 3d
       -0.0010389499 -0.08754348 0.06408524 0.05685988
0001d0 3a f4 bd bd 8c de 10 3e 85 4a 35 3d 4e 66 3f bd
       -0.09275098 0.14147395 0.04426052 -0.046728425
0001e0 00 75 38 bd e5 65 fe 3c 76 68 78 bd 2b 23 64 3d
       -0.045033455 0.031054446 -0.060646497 0.0556976
0001f0 f0 03 b6 3c fa 8f 54 3b d9 8c de 3d b3 5e 9b bd
       0.022218674 0.003243445 0.10866708 -0.07586422
000200 be 0d 25 be 77 3a d9 bc 1d a0 31 be bd f4 12 3d
       -0.16118523 -0.026517136 -0.17346235 0.035877932
000210 55 db 26 3e b0 4a c8 bd 4a 97 9b bc cc 8e 0e 3e
       0.16294606 -0.097798705 -0.018993039 0.1392166
000220 00 0a c5 bd f5 5d 38 3d cf bb 8a 3c 49 49 c3 bd
       -0.09621048 0.04501148 0.016935257 -0.095354624
000230 9c 74 18 3e 2b b1 1f 3e f0 99 a5 3d cb 1c 21 be
       0.14888233 0.15594928 0.08086002 -0.1573364
000240 5f 68 31 be c0 78 48 38 9a 21 31 bd f2 45 27 3d
       -0.1732497 4.7796173e-05 -0.043244936 0.04083819
000250 12 3d e2 bd 44 c8 21 be 3c 09 ec bd d3 b8 d2 bc
       -0.110468045 -0.15799052 -0.11525199 -0.025722897
000260 39 d4 69 bc c3 74 ad 3d 97 6f 4b 3d 58 18 5c bd
       -0.014271789 0.08469536 0.049666967 -0.053734154
000270 30 79 b9 bd 21 43 c9 3d bc 00 d8 bd 3c eb 35 3d
       -0.09056318 0.09827257 -0.10547015 0.04441379
000280 de 17 2e be 7b f0 24 3c 06 8b 15 be 7b fb 0c be
       -0.17001292 0.010067101 -0.14603814 -0.13767807
000290 9b 74 4d bd 71 64 f0 bd 54 c5 2c 3d 5a eb 95 3c
       -0.05016003 -0.11737908 0.042180374 0.018300701
0002a0 c1 4b 7a 3d e1 f2 4e 3b 99 c2 32 3e 90 59 32 3d
       0.0611074 0.0031577873 0.17457046 0.043542445
0002b0 a6 ee 3d 3d 60 07 30 3e de d7 06 be 30 27 4b bd
       0.04637017 0.17190313 -0.13168284 -0.04959792
0002c0 96 eb cb bd 6f 13 76 bd 59 b9 af 3d 42 20 3d be
       -0.09957044 -0.060077127 0.08580274 -0.18469337
0002d0 53 86 20 bd e8 64 2f be 02 09 31 bd e4 eb 1e be
       -0.0391906 -0.17128336 -0.04322148 -0.15519673
0002e0 94 1e 33 bd bf 52 91 bd a5 11 28 3e b3 5b b6 bc
       -0.043730333 -0.07095861 0.16412981 -0.022260522
0002f0 69 30 b0 bd cb 3d cb bd 51 a6 e1 3d 5c ac 2a be
       -0.086029835 -0.099238954 0.110180505 -0.16667312
000300 75 7b 09 3e 9b 31 23 be da be 7d 3d 85 7c 95 bc
       0.13426001 -0.15936892 0.06194959 -0.018247852
000310 28 14 be 3d 0a a9 c7 bd f8 36 c0 bd 68 bf f4 bd
       0.09281188 -0.097490385 -0.093854845 -0.1195057
000320 f7 8d 84 ba 9e d6 1f be da 4b 61 bd b9 83 d8 bc
       -0.001011311 -0.15609214 -0.05500398 -0.026429998
000330 b5 51 2a 3e d5 df f0 bd 4f af d3 bd 52 9b c3 bd
       0.16632731 -0.117614426 -0.10336172 -0.095511094
000340 51 ad da 3c 44 2a 6a 3d f9 49 00 3c 3d e3 ce 3c
       0.026693972 0.057169214 0.007830136 0.02525484
000350 8d 1c c0 3d 0c f7 56 3d a5 ff 34 bd 51 68 06 bd
       0.09380446 0.052481696 -0.044189114 -0.032814328
000360 ec f9 cb bc ad 8c 54 bd 6c fc 9c bd 76 40 bc bd
       -0.024899445 -0.05189197 -0.07665333 -0.091919824
000370 9e df f5 3d 9f c4 0c 3e 9f 82 70 bd 34 45 94 bd
       0.12005542 0.1374688 -0.05871832 -0.07239762
000380 ce 65 a8 bc 32 ff 32 be d4 41 40 bd 7c 7b f3 3d
       -0.020556357 -0.17480162 -0.04693778 0.11888787
000390 09 b1 a4 3d d4 b1 73 bd c8 0c 2f 3e 12 90 f2 bd
       0.08041579 -0.059495762 0.1709472 -0.118438855
0003a0 b7 61 06 3e 11 1f 0f 3e 04 cc 14 be 81 4c 2f 3d
       0.13123213 0.13976695 -0.14530951 0.04279757
0003b0 1a 0d f5 3c fe 78 2f 3e 0d 69 23 3e ba 74 e3 bd
       0.029913474 0.17135999 0.15958042 -0.11106248
0003c0 ff bd 19 be 70 f6 17 3d 85 06 25 3e 7f d3 14 3e
       -0.15013884 0.037100255 0.16115768 0.14533804
0003d0 ba 5a 36 3e fe 89 90 bd 0e b9 99 3d 94 af 4c 3d
       0.17808047 -0.0705757 0.075059995 0.04997213
0003e0 28 db be b9 07 d7 ec bc 57 a3 27 be d0 3f 47 bc
       -0.00036402908 -0.028911127 -0.16370903 -0.01216121
0003f0 12 ee 1e 3e c0 ec ad 3a a2 54 04 3e 67 e8 28 be
       0.15520504 0.001326941 0.1292291 -0.16494904

EiLM.3.gamma_generator.weight f4 [1, 32]
000000 bb 9d 04 3d 7f 94 4f bd 1c 6c 1b 3e ff bb 47 3d
       0.032376986 -0.050678726 0.15177959 0.04876327
000010 a5 b3 03 be d7 d8 34 bd 79 b8 0b be 55 4f a0 3c
       -0.12861498 -0.044152107 -0.1364459 0.019569078
000020 7b 43 40 bd ea a1 1b be 66 06 aa bd 15 68 17 3d
       -0.046939354 -0.15198484 -0.08302002 0.036964495
000030 33 87 1a 3e 5e 87 16 3e ff f2 32 be 22 8c ac bd
       0.15090637 0.14700076 -0.17475508 -0.08425166
000040 1a 14 e6 bd 4d 18 31 bc c6 99 f8 3d 0a 4e c9 3d
       -0.11234303 -0.010809016 0.12138705 0.09829338
000050 20 f1 7c 3d 40 96 c3 bd d0 90 d8 bd 2a 2e 0f 3c
       0.061753392 -0.09550142 -0.10574496 0.008739034
000060 ac d6 cb 3d 6f 53 1a 3e 17 d0 09 be 80 5a 18 3e
       0.09953055 0.1507089 -0.13458286 0.14878273
000070 43 1b f7 3d cf 39 46 bd 20 5d c9 bd 54 4c 76 3d
       0.12065747 -0.048394974 -0.09832215 0.060131386

EiLM.3.beta_generator.weight f4 [32, 32]
000000 13 6f 39 be 24 f4 2d 3e 81 7e 88 3d 41 41 60 3c
       -0.18108778 0.16987664 0.06664754 0.013687433
000010 3b 4d 24 3e d3 fd 23 be ce 36 01 be 53 67 f9 bc
       0.16045086 -0.16014795 -0.12618563 -0.030444777
000020 ba ee 2e 3e 32 7f 3d 3d 01 2e 2f be 57 95 69 bd
       0.17083254 0.04626388 -0.17107393 -0.057027187
000030 03 0c 08 3e 2b 24 8a 3d 2f 9d 89 3b 4b a4 08 be
       0.13285832 0.0674518 0.004199646 -0.13343923
000040 7f f4 dc bb b1 ee a8 bc 96 6a 26 be f8 19 8a 3c
       -0.0067430134 -0.02062163 -0.16251597 0.016858086
000050 d9 6e fe 3d 3e 37 fb bd 51 e2 d9 bd b8 45 28 bd
       0.12423486 -0.12266396 -0.106388696 -0.041082114
000060 1a 3c 2e bd 67 00 11 be ca 88 08 be a8 c2 8f bd
       -0.042537786 -0.1416031 -0.13333431 -0.070195496
000070 c1 78 17 be 72 c7 a7 bd ee da 16 bc 24 65 0f 3e
       -0.14792158 -0.08192338 -0.00920747 0.14003426
000080 30 8f 01 3e f3 ed 31 bd bb 7a f7 bd ff a6 23 3c
       0.12652278 -0.043439817 -0.12083956 0.009988545
000090 cf 44 18 be b6 3e 1f 3e d4 9b bf bd 18 e9 5e 3d
       -0.14869998 0.15551266 -0.09355894 0.054421514
0000a0 5d 55 22 be 61 1d f4 3d 92 84 2e 3d 23 b0 1d 3e
       -0.15852876 0.11919666 0.042606898 0.15399222
0000b0 a0 48 ed bd 3c b3 c9 bd cc b3 25 3e a2 05 1f 3d
       -0.11586118 -0.09848639 0.16181868 0.03882373
0000c0 7c 43 bf bd 76 49 c0 3d 8e 65 80 3d d1 1e d9 bd
       -0.093390435 0.093890116 0.0626937 -0.10601581
0000d0 9c 09 0c be 0e 6e 8d 3d 86 bf df bc 20 eb d3 3d
       -0.1367554 0.06905757 -0.027313005 0.10347581
0000e0 0c 02 aa bd 36 9a 90 3d 30 7b 5c bd c0 16 ba bd
       -0.08301172 0.070606634 -0.05382842 -0.090863705
0000f0 d9 55 07 be 3b 57 ea 3d b9 b2 21 3e bc 64 22 3d
       -0.13216342 0.11442419 0.15790834 0.03964685
000100 0e 7f ef 3d 68 e4 b1 3d 52 f8 3a 3e 0d 51 87 3d
       0.11694156 0.08686143 0.18258789 0.06607256
000110 c5 c7 46 be 9b 7c 26 be 6a e5 a6 3d 35 ee b1 bc
       -0.19412144 -0.1625847 0.08149226 -0.021720031
000120 e0 10 94 3d 69 0e 13 be 79 59 df bd 62 82 33 be
       0.07229781 -0.14360966 -0.109057374 -0.17530206
000130 56 73 e5 bd fb ac fe ba 7e e9 ab 3d 01 2f 44 3d
       -0.11203639 -0.0019430214 0.083941445 0.04789639
000140 d8 49 c3 bd 0c cc 29 be e5 6d e0 bd 83 0d cb bd
       -0.09535569 -0.16581744 -0.10958461 -0.099146865
000150 dc 8c a0 bd 34 f0 1d be 98 c8 f9 3d db c1 8f bd
       -0.07839367 -0.15423661 0.12196463 -0.07019397
000160 66 d7 99 3d 6b db 52 3c ae b0 06 3e 91 66 1a be
       0.07511787 0.012869696 0.13153335 -0.15078188
000170 72 e7 0f bc 65 cd 9b 3d 40 5f a8 bd d5 10 15 be
       -0.008783208 0.07607535 -0.082212925 -0.14557202
000180 79 d1 47 3d 57 92 96 3d b0 31 2c 3e 6f 73 12 3b
       0.048783753 0.07352131 0.1681583 0.0022346636
000190 d3 01 23 3e 03 a1 32 3e d2 2c cf bd 84 56 27 be
       0.15918665 0.17444234 -0.10115971 -0.16341597
0001a0 47 8f f0 3d 4d 1e f9 3c 23 e8 1b be 2c 68 39 3e
       0.11746078 0.030409956 -0.15225272 0.18106145
0001b0 68 b5 64 3d fe 9e 50 3d 4b 57 e8 bd c0 c4 26 3e
       0.055837065 0.050932877 -0.11344775 0.16285992
0001c0 4b e7 18 be ed 31 07 be 0c 7c 1b be 83 6a b3 bd
       -0.14931981 -0.13202639 -0.15184039 -0.0876055
0001d0 2f b1 29 bd d9 4e 22 be e8 f4 0d 3e 68 c6 f5 3d
       -0.04142874 -0.1585039 0.13862956 0.120007336
0001e0 5c df 2b 3e 91 f6 c1 bc 9f 77 32 bd 3c cf 0f be
       0.16784424 -0.023677142 -0.04357111 -0.14043897
0001f0 88 19 a2 bd 30 cb 3d be 46 05 cc bd c2 ba ae bd
       -0.07915026 -0.18534541 -0.09961943 -0.08531715
000200 63 33 fc 3d 6f cf 02 3e a3 39 2b be 9b d4 e2 3c
       0.12314489 0.12774442 -0.16721205 0.027689269
000210 25 cd 00 3e 09 da cc 3a 2b c3 3a be d7 9a b6 bd
       0.12578256 0.0015628944 -0.18238513 -0.08916252
000220 0e 89 ce 3c 12 1c 27 be ca 6d 0d be 83 61 fd bd
       0.025211837 -0.16319302 -0.13811412 -0.123721145
000230 8e 0a 32 be 08 c0 02 be 7f 38 e0 3d 8c db 0e 3c
       -0.17386839 -0.12768567 0.10948276 0.008719336
000240 0e 0f 80 bc e2 54 14 3e 4f 9f 24 bd ea d5 eb bd
       -0.015632179 0.14485505 -0.04019099 -0.1151541
000250 20 b4 88 bc 22 57 82 bc 48 91 b3 3d 9d 49 ba 3d
       -0.016687453 -0.015910689 0.087679446 0.09096072
000260 4f 17 1b be b1 47 3a 3c 38 77 1d 3e d8 bf 0e bd
       -0.1514561 0.011369632 0.1537751 -0.034850925
000270 a5 13 33 bc b2 07 33 3d dd 59 08 3d 6a ba e3 bd
       -0.010929977 0.04370851 0.033288825 -0.1111954
000280 a7 ce 26 bb 66 1f 1a be 5f d6 4a 3e 45 5f eb bd
       -0.0025452764 -0.1505104 0.19808339 -0.114927806
000290 7a 68 d8 3c db 68 2e be 52 f2 30 3e e9 d1 c6 bc
       0.026417006 -0.17032187 0.17279938 -0.024270015
0002a0 c9 4c 2f 3e 7c da c6 bd 7e c4 3e be d0 98 02 be
       0.17119135 -0.09709641 -0.18629643 -0.12753606
0002b0 39 e9 20 3e 7a 9f 47 3e 0a 4c 0e bd 52 ae 59 3d
       0.15713967 0.19494429 -0.034740485 0.05314476
0002c0 70 ec 16 3e 9c 0a 90 3d 12 82 2e be 89 a1 e0 bd
       0.14738631 0.070332736 -0.17041805 -0.109683104
0002d0 76 4e e2 3c 36 c7 00 3e 9e 4b 1c be d2 1d 8a 3d
       0.027625304 0.12575993 -0.1526322 0.06743969
0002e0 cb 58 3f 3e 06 8e f5 bc 9c a4 cb 3c a9 2c c3 3d
       0.18686216 -0.029974949 0.024858765 0.095300026
0002f0 bd ec 38 3d 45 5d b4 3d 09 e1 30 3d dc f5 64 3c
       0.045147646 0.08806852 0.04318336 0.013974633
000300 dd 8b b8 bd af af 95 3c 77 40 f1 bd 61 cf 17 3e
       -0.09011052 0.018272249 -0.11779874 0.14825203
000310 68 7a 3b 3e 50 91 fa 3d c0 9b 45 be f3 e4 66 bd
       0.18308413 0.122347474 -0.19297695 -0.056370687
000320 76 f9 25 be 85 76 15 be bf 31 99 bb d5 4c 7e bd
       -0.16208443 -0.14595993 -0.0046751196 -0.06208499
000330 86 f6 2e bd 1a e5 d7 bd a2 cc 10 be 0a 23 f3 bd
       -0.04271557 -0.105417445 -0.14140561 -0.118719175
000340 db cc 42 3e 5b 24 cf 3d 19 42 d4 bd 9a 01 09 3e
       0.19023459 0.10114356 -0.103641696 0.13379517
000350 2e 24 37 be cc a6 0e 3d de 46 44 bd 87 36 12 3d
       -0.17884895 0.03482704 -0.047919147 0.035696533
000360 40 3f 02 3e f8 81 b8 bd ff 85 8b bc f7 40 08 be
       0.1271944 -0.090091646 -0.017031668 -0.13306032
000370 12 1c df 3d 88 13 c0 3d 1b ef 23 bd 07 46 07 3e
       0.10894026 0.09378725 -0.04002295 0.13210307
000380 b5 35 fe 3d 3c d5 38 3e 6d dd 47 bd db ab ae bd
       0.124125876 0.18050092 -0.048795152 -0.085288726
000390 64 f3 2e 3d d4 a1 f9 bd 29 92 cd 3c 7a fc 9d bd
       0.042712584 -0.121890694 0.025094109 -0.07714172
0003a0 7e ff d1 3b 48 f4 e3 bc 50 be 05 be 83 29 1a 3e
       0.006408631 -0.027826443 -0.1306088 0.15054898
0003b0 77 02 1f be e8 ce 12 3e 64 1a 0e bd 44 d1 1b 3e
       -0.15528284 0.14336741 -0.034693137 0.15216547
0003c0 0d 2b ad 3d f0 aa 2b 3e 80 06 b0 3d 4a 07 41 bd
       0.08455477 0.16764426 0.0859499 -0.047126092
0003d0 7e dd 89 bd 19 5c 36 3e 9a f9 1b 3e 03 66 93 3a
       -0.067316994 0.1780857 0.15231934 0.0011245612
0003e0 5d 55 20 be df 7b f7 3c d0 f5 13 be ec 66 a4 bc
       -0.15657564 0.030210434 -0.14449239 -0.020068608
0003f0 17 5a 20 3d bd 91 f8 3d fd 1f c3 3d 9d b6 13 3e
       0.039148416 0.12137172 0.09527586 0.1442513

Gate.weight f4 [4, 32]
000000 a2 49 de bd 73 b0 e3 3d 32 64 b7 3d 23 d0 2e 3d
       -0.10853888 0.111176394 0.089546576 0.042678963
000010 2a b5 ee bd 6e b4 fb 3b 9b b7 7d 3d b5 31 1d be
       -0.11655648 0.007681421 0.061942678 -0.15350993
000020 e4 04 38 3e 37 2c 78 bb d3 2c ec bd 63 0e df 3c
       0.17970616 -0.003786815 -0.11531987 0.02722854
000030 5b 55 95 37 14 10 a6 bd 71 95 1a be 2a 57 90 bd
       1.780193e-05 -0.081085354 -0.1509607 -0.07047875
000040 0a 6d 1c be 66 70 1e bd c1 8f e5 3d 3b 84 a3 3d
       -0.1527597 -0.03868141 0.112090595 0.07984205
000050 b4 2a 17 be b6 0a 0b 3d 87 4f 62 bd 71 1f 18 bd
       -0.14762384 0.03394576 -0.055251624 -0.03713936
000060 a5 89 1e 3e b6 77 73 bd 53 c8 24 3e 69 97 26 3d
       0.15482195 -0.059440337 0.16092043 0.04067174
000070 f0 1e 21 3e db 07 a5 bc 8d 4c cb 3d bd 92 c0 3c
       0.15734458 -0.020145347 0.0992671 0.02350747
000080 5c 35 ac bd fc ee 2d 3e 1f 22 96 3d b1 6d 74 bd
       -0.08408615 0.16985697 0.07330727 -0.059674922
000090 97 16 24 3e 96 73 79 3c 08 14 0c 3e 2a d9 32 be
       0.16024242 0.015225312 0.13679516 -0.17465654
0000a0 52 3f b0 3d eb 6d 47 be a7 6a 0a be 3f 05 15 3e
       0.086058274 -0.19475524 -0.13517247 0.14552782
0000b0 0c 9e ad 3d b4 d6 b9 3d 8e 4d ca 3d 6f 04 19 3c
       0.08477411 0.090741545 0.09878074 0.009339436
0000c0 4a ff 24 3e ee 01 43 3d 99 86 74 bd e0 53 da bd
       0.1611301 0.047609262 -0.059698675 -0.10660529
0000d0 fe 83 02 be 83 0b b7 bd 35 ef b8 bc 45 36 70 bd
       -0.12745664 -0.089377426 -0.022575 -0.058645505
0000e0 3e f8 0b be 63 9d 59 3d d1 32 1f 3e 3e 47 11 bb
       -0.13668916 0.05312861 0.15546729 -0.0022167708
0000f0 5d 6d 03 3d f2 cd b0 bd 66 4c 35 be 25 91 ad bd
       0.03208672 -0.08633031 -0.17704925 -0.0847495
000100 fa ea 07 be 30 26 88 bc d5 94 19 3e ce ec b0 bd
       -0.1327323 -0.016619772 0.14998181 -0.08638917
000110 fa b1 1c 3e 98 76 94 3d fc 56 b3 bd 5d 97 03 3e
       0.15302268 0.072491825 -0.08756825 0.1285071
000120 f0 e6 0f 3d 39 8b 16 3e 64 43 38 be 73 bf 2f 3c
       0.03513235 0.14701547 -0.17994457 0.010726797
000130 ae 16 8a bc 6a 4d c3 3d 08 56 49 bd a3 f4 c0 bd
       -0.016856518 0.0953625 -0.04915431 -0.09421661
000140 68 67 a4 3d 6e 1e a4 bd 04 6e d5 3d c8 bb 12 be
       0.08027536 -0.080136165 0.104213744 -0.14329445
000150 65 8a fe bd 8f fb 25 3e ee bc 1b be d4 d6 97 bd
       -0.124287404 0.16209243 -0.1520879 -0.07414022
000160 5f 89 70 3d 0a 08 71 3d 39 7a e7 bc ee 75 64 bd
       0.058724757 0.058845557 -0.028256522 -0.05577653
000170 4a e2 32 be fa a8 46 bd 37 d8 c4 3a 27 ba 6d 3c
       -0.17469135 -0.048500992 0.001501805 0.014509714
000180 ea 33 fe bd b1 62 59 bd 33 ef 68 bd c9 bd b1 bd
       -0.124122456 -0.053072635 -0.056868743 -0.08678777
000190 79 c3 d8 bd 00 e2 11 be c3 b5 da bb 2c 76 15 be
       -0.105841585 -0.14246368 -0.0066744997 -0.1459586
0001a0 17 3d 2b be 56 f5 b6 bd d7 60 18 3d 03 e9 17 be
       -0.16722523 -0.08933513 0.03720173 -0.1483498
0001b0 c5 56 d0 bd f0 ed 71 3d cd a8 1f 3e c7 0c 2b 3e
       -0.101728 0.059064806 0.15591736 0.16704093
0001c0 a1 60 47 3e 4a 0b 0c 3c de 6f 11 be 86 c4 e1 bc
       0.19470455 0.008547613 -0.1420283 -0.02755953
0001d0 56 3a cc 3d c1 2e fa 3c 1d 06 8f bc 54 fa b8 ba
       0.09972064 0.030539872 -0.01745897 -0.001411269
0001e0 c5 8d 54 be 0b e4 46 bd 93 07 c7 bd 98 1b cd bd
       -0.20757206 -0.048557322 -0.097182415 -0.10015029
0001f0 11 c8 0a be 90 5e 8e 3d 33 fe 3d be e3 1e b2 3a
       -0.13552882 0.0695163 -0.18554 0.0013589527

experts.0.gate_proj.weight f4 [32, 32]
000000 ac 27 fe bd a2 89 bc 3b 61 b1 7d 3c df c1 a7 bd
       -0.124099106 0.005753712 0.015484185 -0.08191275
000010 b3 42 00 be d7 fb 96 3d 7f c4 2e be d0 ca 12 3e
       -0.12525444 0.073722534 -0.17067145 0.1433518
000020 2a 33 49 3e 9f 71 f3 bd ee 7a af bd 16 b8 2e be
       0.19648424 -0.11886906 -0.08568369 -0.1706241
000030 a2 a8 01 bc b1 a2 74 bd 7f 92 4d 3d c6 a2 17 bd
       -0.00791374 -0.059725467 0.050188538 -0.037020467
000040 e1 7f fb 3c 75 52 22 be 53 71 1e bc 16 85 cf bd
       0.030700626 -0.15851767 -0.009670573 -0.10132806
000050 ad 15 24 3e e1 dd 8a bd fe 35 99 bd fb bb 14 3c
       0.16023894 -0.06780601 -0.07481001 0.009078021
000060 cf d7 15 bb 12 48 46 be b9 04 bc bd ef 5b 46 bd
       -0.0022864228 -0.1936343 -0.09180588 -0.04842752
000070 08 a5 0a bd b5 9e c3 bd 7c 9b b3 3d 67 c7 ed bc
       -0.033848792 -0.09551755 0.08769891 -0.029025747
000080 a0 9f 91 3d 84 6a 79 3d 11 ff e4 bd d4 39 39 3e
       0.07110524 0.060892597 -0.111814626 0.18088466
000090 e3 42 ef 3d 5a 9d 17 bd 6b 24 c0 3d c5 8c e2 bd
       0.116826795 -0.037015297 0.09381946 -0.11062006
0000a0 5a cc 98 bb 85 49 0d 3e eb 12 ff 3b b3 24 95 bd
       -0.0046630325 0.13797577 0.0077842376 -0.072823904
0000b0 3a c0 11 3e ae 37 2a bc b6 f4 21 3e 33 9b 9c bd
       0.14233485 -0.010389252 0.15816006 -0.076467894
0000c0 c9 eb e0 3d b3 5c 0d bd 6e 8a 4d be 48 9d 86 bd
       0.109824724 -0.034512233 -0.20072338 -0.06572968
0000d0 ef 13 2b be 38 8b 04 3e e5 4c 06 be b9 a3 da bd
       -0.16706823 0.12943733 -0.1311527 -0.10675759
0000e0 45 68 d4 bd f2 ce 2a 3e b2 3c 9e 3d f7 5d 12 3d
       -0.1037145 0.16680506 0.077264205 0.035734143
0000f0 a4 af 9a 3d 40 29 03 3d 7b fd a4 bd 3b 8f 0b 3e
       0.07553032 0.03202176 -0.0805616 0.13628857
000100 a1 02 05 be 76 75 e9 bd 51 45 7f bd 45 7d 2e 3e
       -0.12989284 -0.11399357 -0.062321965 0.17039974
000110 b8 5c 98 bd bc 54 0a be 0e 7d 33 be b5 46 91 bd
       -0.0743956 -0.13508886 -0.17528173 -0.070935644
000120 3f f9 9d bd 6c 25 02 3d b8 d8 38 3e 87 a7 8e bb
       -0.077135555 0.03177397 0.18051422 -0.004353467
000130 51 cb 2f 3d 7a 27 17 3e 3b b3 16 be ac 16 14 bd
       0.042918507 0.14761153 -0.14716808 -0.036154434
000140 66 96 42 bd b9 33 12 be 31 0f fe bd 78 93 bc bc
       -0.047506712 -0.14277543 -0.12405241 -0.023019537
000150 38 39 8a 3c 93 57 8c bd ed f9 34 3d 22 92 66 bd
       0.016872987 -0.06852641 0.04418366 -0.056291707
000160 87 71 24 be e0 53 8d bd 53 e2 4e 3d ae a2 a8 3c
       -0.16058932 -0.069007635 0.05050881 0.020585384
000170 13 a3 60 bd 8e f5 46 3c ee 5f d9 3d fe 5a fc 3d
       -0.05484302 0.012143506 0.10614 0.12322043
000180 c6 50 ca bc 14 01 35 3d 21 20 91 bc 4c 5e 1c be
       -0.024696719 0.04419048 -0.017715516 -0.15270346
000190 8f 9d 34 3e 50 8a 37 bb 03 3e de 3c 6d a6 fe 3d
       0.17638229 -0.0028006025 0.027129179 0.12434087
0001a0 2e 70 72 3d 5c 99 a8 3d c3 1b ea bc ac d9 de 3d
       0.059189014 0.08232376 -0.028577691 0.10881361
0001b0 99 7d 1a be c9 51 c2 3d 66 f7 1c 3e a0 cf 21 be
       -0.15086974 0.094882555 0.1532875 -0.15801859
0001c0 f2 7c 02 be 51 c5 dc 3d 74 a3 e9 bd e5 4c c5 bd
       -0.12742975 0.107798226 -0.11408129 -0.09633807
0001d0 2d b5 57 3b a7 f0 c3 bc 1e 2d 9a 3d 6b 67 bf bc
       0.0032914386 -0.023918463 0.07528137 -0.023364743
0001e0 bf a7 d4 bd 79 02 80 bd 8d ee 2a 3e 6c 63 64 bd
       -0.103835575 -0.062504716 0.16692562 -0.05575888
0001f0 62 2f a6 bc 17 f6 dd bd d5 f9 8f bd 88 4d f9 bd
       -0.020286266 -0.108379535 -0.070300736 -0.12172991
000200 4e 37 2b be 8b 9a 5a 3b f3 50 77 3c 6c c9 71 3d
       -0.16720316 0.0033356275 0.015094983 0.05902998
000210 79 09 c1 3d f1 5d fb bc d9 8d 18 3e 60 d3 28 3e
       0.09425635 -0.030684443 0.1489786 0.16486883
000220 6c d0 22 3e bb f5 86 3d 5e d3 23 be d9 47 05 be
       0.15899819 0.06589838 -0.15998599 -0.13015689
000230 c8 4a 02 be 71 7e 16 3c 0b 95 cf 3d 5c 8a 1b bc
       -0.1272384 0.009185419 0.101358496 -0.009493437
000240 eb d2 26 3e 99 86 8c 3d 6c 95 26 3e dd ca 9c bd
       0.16291396 0.0686161 0.16267937 -0.076558806
000250 d9 20 27 3d e9 85 8d 3d 03 48 0e 3e bb 5b 2e bd
       0.04080281 0.06910307 0.13894658 -0.04256795
000260 f7 15 11 be 4c 3d e9 3c a5 1c 47 3d a6 b4 0f be
       -0.14168535 0.028471611 0.048611302 -0.14033756
000270 cc 75 30 3e 9b 0e b9 3d ec a2 fc bd 3e 01 85 3c
       0.17232436 0.09035989 -0.123357624 0.016235944
000280 13 6a b3 bd 2e 1f 8a bd a9 86 b7 3d 5b 7f 4e bc
       -0.087604664 -0.06744228 0.08961231 -0.012603606
000290 7a 2c a9 3d 91 f1 23 be 8a 88 07 be ca f0 5b 3d
       0.08260436 -0.16010119 -0.1323568 0.05369643
0002a0 73 a4 8d bd 19 64 a0 b9 64 2a 07 bc 07 63 72 bd
       -0.06916132 -0.00030592157 -0.008249853 -0.05917647
0002b0 a3 a6 13 3e 4f 86 3d be 5c 2b 09 3d 10 95 ca 3d
       0.14419036 -0.18508266 0.033488616 0.09891713
0002c0 6d fb bb 3c a3 94 78 bd 8c 73 88 bc 27 62 28 bc
       0.022947038 -0.060688626 -0.01665666 -0.010277308
0002d0 50 e5 18 be b1 16 01 be 09 5a ce 3c 28 c4 81 bd
       -0.14931226 -0.12606312 0.025189416 -0.06336242
0002e0 b2 9f f4 bd 12 5d f0 3d 29 dc 50 3c 9c 73 41 be
       -0.11944522 0.11736502 0.012747803 -0.18891758
0002f0 80 05 12 be 01 e0 9a bb 88 18 db 3d 86 a5 be bd
       -0.1425991 -0.0047264104 0.10698038 -0.09308915
000300 32 be 0a 3e cc f3 1f 3d 64 b7 af bc 0c c6 95 bd
       0.13549116 0.039050862 -0.021449752 -0.07313165
000310 0b 95 49 be 03 f7 df bd 18 b7 41 bd 69 ac a3 3c
       -0.19685762 -0.109357856 -0.047293752 0.019979673
000320 f2 88 4b 3d 4e 4a 57 3c 84 ee da 3d 25 bd a5 bd
       0.049691148 0.013140274 0.106900245 -0.08092717
000330 84 5d 15 bd 03 ea f3 3c 35 ef 40 bd 1b 6f f3 bd
       -0.036466137 0.029774671 -0.047103126 -0.11886426
000340 e8 6b 8f 3c e2 38 c0 3d 85 a1 cc 3d 9c 7e 0d 3d
       0.017507508 0.093858495 0.09991745 0.034544572
000350 11 a2 f5 3c 99 da 1b 3e ef cb 04 3e 09 12 36 3d
       0.029984506 0.15220107 0.1296842 0.044450793
000360 a2 5d 2c 3c d1 50 af bd cb 92 9e 3c 2c 75 fd 3d
       0.010520371 -0.085603364 0.019357106 0.123758644
000370 62 f3 bf 3d 61 35 02 be 1f 5a 32 3e a3 0b 4c bc
       0.093725935 -0.12715675 0.17417191 -0.012453946
000380 c0 4e a3 3d 40 4a 97 3d 04 b4 d8 3d 3d 64 25 3d
       0.07974005 0.07387209 0.1058121 0.040378798
000390 61 7b 17 3e 97 5c 7d 3b d0 a8 cc 3d 6e 1f ab bd
       0.14793159 0.0038659924 0.09993136 -0.08355604
0003a0 7d 19 1f 3d 0d b4 23 be 97 5c 0f 3e 42 de 20 3e
       0.038842667 -0.15986653 0.14000164 0.15709785
0003b0 4f be cf bd 1d a0 f2 bd 1c b8 a1 bc 8d 9e 91 3d
       -0.1014372 -0.118469454 -0.01974111 0.07110319
0003c0 8f 8c 34 bd 99 80 02 3e 23 c0 21 be 7b ba 25 3e
       -0.04407936 0.12744369 -0.1579595 0.16184418
0003d0 7d f0 b4 bd 80 51 14 3e 6e 14 c7 bd e3 ec ac bd
       -0.08834932 0.14484215 -0.097206935 -0.0844362
0003e0 28 1f 33 be ee eb 62 3c 61 5f 81 bd 74 a7 b8 3d
       -0.17492354 0.013850195 -0.0631702 0.09016314
0003f0 de 0e b4 bd af ff 0b 3e 50 98 da bd 0b 91 9e bd
       -0.08791898 0.13671754 -0.106735826 -0.077425085
