output/FF-L-MoME/ts_encoder_epoch7.pt (torch, 433260 bytes, 34 tensors)

proj.weight f4 [32, 8]
0	0x3bc87174	0.0061170403
1	0xbe828dcd	-0.2549881
2	0xbe6f69fd	-0.23380275
3	0xbe6be8f9	-0.23038091
4	0x3e306688	0.17226613
5	0xbe85975f	-0.2609205
6	0xbcce8b7c	-0.025212996
7	0x3e8f7c74	0.28024638
8	0xbeb109a3	-0.34577665
9	0x3e738dd2	0.23784569
10	0x3ea1ad02	0.31577307
11	0x3e19b1ad	0.15009184
12	0x3d502eb0	0.050825775
13	0x3eae3787	0.3402674
14	0x3e8b86bc	0.27251232
15	0x3e96dda6	0.2946598
16	0xbdec32c8	-0.11533123
17	0x3e0bd980	0.13657188
18	0x3d758a8f	0.059946593
19	0xbe9de1be	-0.3083629
20	0xbe93ff8c	-0.28905904
21	0xbea26d9c	-0.3172425
22	0xbd8dd697	-0.069256954
23	0x3c63feb3	0.0139157055
24	0x3e1b7eaf	0.15185045
25	0xbe729536	-0.23689732
26	0x3b5ef03a	0.0034017698
27	0x3e55816d	0.20850153
28	0xbe9550aa	-0.29163104
29	0x3e9b4993	0.3032957
30	0xbda222bc	-0.07916781
31	0xbe8351fc	-0.25648487
32	0xbd0ffca8	-0.03515306
33	0xbd2524ac	-0.040318176
34	0x3e9fb6d0	0.31194162
35	0x3e13bbd3	0.14427118
36	0x3e5fc901	0.2185402
37	0x3e873aba	0.26411992
38	0xbe682001	-0.22668459
39	0xbe2dde16	-0.1697925
40	0xbe7a6f16	-0.24456438
41	0xbe2f7c58	-0.17137277
42	0xbe73eb0d	-0.23820134
43	0x3d6f25b8	0.05838558
44	0xbeb6d1da	-0.3570698
45	0x3e8cff08	0.27538323
46	0xbeaf0216	-0.3418128
47	0x3e522da0	0.20525217
48	0xbeaf35bc	-0.34220684
49	0x3e39f325	0.18159159
50	0xbe380bca	-0.17973247
51	0x3d988d2c	0.074488014
52	0x3ea321f8	0.31861854
53	0xbe017618	-0.12642705
54	0xbc286240	-0.010277331
55	0xbd752b6c	-0.059855863
56	0xbeb19f7b	-0.34691986
57	0x3e8e4e47	0.27794096
58	0xbda12663	-0.0786865
59	0xbdb39ad3	-0.08769765
60	0xbe1a314d	-0.1505787
61	0x3e227b36	0.15867314
62	0xbe456010	-0.19274926
63	0xbe429d9b	-0.19005434
64	0x3e9276c8	0.28606248
65	0xbe8c12d5	-0.27358118
66	0xbeaf0fbe	-0.34191698
67	0x3dba026c	0.09082493
68	0xbe0a265e	-0.13491198
69	0xbe33df35	-0.17565615
70	0xbd7591c0	-0.05995345
71	0x3e9e6754	0.30938208
72	0x3dc581e5	0.09643916
73	0xbea34cda	-0.3189457
74	0x3e11a4b9	0.14222993
75	0xbeb0e5af	-0.34550235
76	0x3dd89943	0.10576107
77	0x3d22ef83	0.039779197
78	0xbe960f07	-0.2930834
79	0x3e355621	0.17708637
80	0x3d9d441c	0.076790065
81	0x3ea494b3	0.32144699
82	0xbde3169c	-0.11088297
83	0x3e6918f1	0.2276342
84	0x3d626530	0.05527228
85	0x3eba238f	0.36355254
86	0xbe9b8af1	-0.3037944
87	0x3e72287f	0.2364826
88	0xbe1ca9d4	-0.1529916
89	0xbe7e738c	-0.24848765
90	0xbe84d5d6	-0.25944394
91	0x3deca10e	0.11554156
92	0x3e074f71	0.13213898
93	0x3bd259cd	0.0064193965
94	0xbb3b1f1a	-0.0028552474
95	0xbe0a125c	-0.13483566
96	0x3ea1e850	0.31622553
97	0x3d4b63d0	0.049655735
98	0x3e1a35e0	0.15059614
99	0xbe28056c	-0.16408318
100	0xbe9eeb0b	-0.310387
101	0xbe8ff587	-0.2811701
102	0x3e93bbd6	0.28854245
103	0xbdd195fa	-0.10233684
104	0x3c6c8cb7	0.014437846
105	0xbeb50e8b	-0.35362658
106	0x3d8c37e4	0.06846598
107	0xbdb49095	-0.08816639
108	0xbd244ab6	-0.040110312
109	0x3c0e26e9	0.008676269
110	0x3e85493b	0.26032433
111	0xbd906b7b	-0.0705175
112	0xbe5dfaaa	-0.21677652
113	0x3ea1c4ef	0.3159556
114	0x3eb60645	0.35551658
115	0x3eb04e75	0.34434858
116	0xbe978c22	-0.295991
117	0xbd1335f8	-0.03594014
118	0xbe464aae	-0.19364426
119	0x3e4e70e6	0.20160255
120	0xbba265ff	-0.0049560065
121	0x3e0484f8	0.12941349
122	0x3ea94107	0.33057424
123	0x3e895088	0.26819253
124	0xbd93a949	-0.07210023
125	0x3e84d571	0.25944093
126	0x3e8e466d	0.27788106
127	0xbe2ed659	-0.17073955
128	0x3c54d473	0.012990105
129	0xbe86afc8	-0.26305985
130	0xbe10fcb9	-0.14158906
131	0x3e0fd3e6	0.14045677
132	0x3ba85d1c	0.0051380526
133	0x3ea25d19	0.31711653
134	0x3ea9a300	0.33132172
135	0xbdda4023	-0.10656764
136	0xbdec00bf	-0.1152358
137	0xbe80dcc5	-0.25168434
138	0xbbe6dda5	-0.007045465
139	0x3d5ff653	0.054678272
140	0x3e08250a	0.1329538
141	0x3e0e8767	0.1391884
142	0x3dd02f4b	0.101652704
143	0xbd9c8d13	-0.07644095
144	0xbdbcaba2	-0.09212424
145	0xbe5732f8	-0.21015537
146	0xbe5e2f77	-0.21697794
147	0xbea4c240	-0.3217945
148	0xbe8c23b1	-0.2737098
149	0xbe52888e	-0.20559904
150	0x3e396978	0.1810664
151	0xbcfd80f5	-0.03094528
152	0xbe488d2d	-0.19585104
153	0xbe45b08f	-0.19305633
154	0x3ea474e9	0.32120445
155	0xbd906dfe	-0.07052229
156	0xbd62f9d4	-0.055414036
157	0xbeb83c9c	-0.3598374
158	0xbe97d7fb	-0.29656968
159	0xbe7b0637	-0.2451409
160	0xbdb7b11a	-0.08969326
161	0x3d26fa2f	0.040765937
162	0x3eb24b3d	0.34823027
163	0xbe2a6025	-0.16638239
164	0xbcbe1b78	-0.023206457
165	0xbdd112b8	-0.102086484
166	0xbea1a37e	-0.31570047
167	0x3e13fa30	0.14450908
168	0x3e910f30	0.283319
169	0x3b9b2554	0.0047346745
170	0x3cb132cd	0.021630669
171	0xbe8cdcb5	-0.27512136
172	0x3e41c46d	0.18922587
173	0xbe048a47	-0.12943374
174	0xbe09284a	-0.13394275
175	0xbe8be2bc	-0.27321422
176	0x3e672532	0.22572783
177	0xbe78c625	-0.24294336
178	0xbcd04f8c	-0.025428556
179	0xbeb01c4e	-0.34396595
180	0xbe26100a	-0.16217056
181	0xbe08057d	-0.13283344
182	0xbe8d684e	-0.2761864
183	0x3e6f27ee	0.23355076
184	0x3e916453	0.28396854
185	0x3d896acd	0.06709824
186	0xbe9a5d76	-0.3014943
187	0xbe1f39ef	-0.15549444
188	0x3e1f6fbb	0.15569966
189	0xbe17e114	-0.14831954
190	0x3df2469c	0.11829874
191	0xbe19350f	-0.14961646
192	0xbdb2301a	-0.08700581
193	0x3d97312e	0.07382427
194	0xbdfb85f7	-0.12281411
195	0xbb0da56e	-0.0021613496
196	0xbe1ffe15	-0.15624268
197	0xbe986f86	-0.29772586
198	0x3ea8df36	0.32982796
199	0x3ea44024	0.32080185
200	0xbe2a465f	-0.16628407
201	0x3e70bfbe	0.23510644
202	0x3e11ab72	0.14225557
203	0x3e0e3432	0.13887098
204	0x3eb25a24	0.34834397
205	0xbd0e304b	-0.034714025
206	0xbd627a35	-0.055292327
207	0xbe9912c9	-0.29897144
208	0xbdac63a3	-0.08417442
209	0x3eb6186a	0.355655
210	0x3e9f1c76	0.310764
211	0xbc49900c	-0.01230241
212	0xbe7958f1	-0.24350335
213	0xbe49a083	-0.19690137
214	0xbe236a3c	-0.15958494
215	0x3e9580cb	0.29199824
216	0x3cc669b8	0.024220333
217	0xbea270fe	-0.3172683
218	0xbe9cc955	-0.30622354
219	0xbda9642c	-0.082710594
220	0x3cb6973e	0.022288915
221	0xbe8863f6	-0.26638764
222	0xbe92717f	-0.28602216
223	0x3e879254	0.26478827
224	0x3ead7170	0.33875608
225	0x3d2f9560	0.042867064
226	0x3cea2a6e	0.028584685
227	0x3ea3252b	0.31864294
228	0xbdcc5cf8	-0.0997867
229	0xbe99e285	-0.30055633
230	0xbe6913a0	-0.22761393
231	0x3e930a1d	0.28718653
232	0xbe47ac26	-0.19499263
233	0x3e914720	0.28374577
234	0x3ea053e2	0.31313998
235	0x3dffcaf0	0.12489879
236	0x3e304071	0.17212082
237	0xbd874630	-0.06605184
238	0xbe841d28	-0.25803494
239	0xbe3da7da	-0.18521062
240	0xbe2bacb5	-0.16765101
241	0xbe5375fd	-0.20650478
242	0xbe9dae0d	-0.30796853
243	0xbe7c30fe	-0.24628064
244	0xbe32e507	-0.1747018
245	0x3d9b44f2	0.0758151
246	0x3e2cd6dd	0.16878839
247	0xbe30a521	-0.17250492
248	0xbd0332f2	-0.032031007
249	0x3ba09c46	0.0049014417
250	0xbe3bcbb7	-0.1833943
251	0xbec00ebe	-0.37511247
252	0xbe31e10a	-0.17371002
253	0xbe86daaa	-0.26338702
254	0x3d345432	0.044025607
255	0xbe9f5433	-0.31118926

proj.bias f4 [32]
0	0x3e272808	0.16323864
1	0xbe041295	-0.12897713
2	0x3e9e3eaf	0.309072
3	0x3e1e756d	0.15474482
4	0xbeaed0e4	-0.34143746
5	0xbea885d5	-0.32914606
6	0xbe9da390	-0.3078885
7	0xbe3f5350	-0.18684125
8	0xbe4f64c6	-0.20253286
9	0x3dc2e288	0.09515864
10	0xbe9fc317	-0.3120353
11	0xbea7433b	-0.3266848
12	0xbd37bbe0	-0.044856906
13	0x3e9848c3	0.29743013
14	0x3df75ada	0.120778754
15	0x3bc6927b	0.0060599423
16	0xbdaecc22	-0.08535029
17	0xbe994b44	-0.29940236
18	0x3e93a2af	0.28835055
19	0x3e3d68e8	0.1849705
20	0x3eb3c9e9	0.35114983
21	0xbd821010	-0.0635072
22	0xbe19d030	-0.15020823
23	0xbe376c54	-0.17912418
24	0xbe4b1ce1	-0.19835235
25	0xbddd4cad	-0.1080564
26	0xbe8ff7b7	-0.2811868
27	0x3d2d589f	0.042320844
28	0xbdec7be3	-0.11547067
29	0x3e83968a	0.2570079
30	0x3cbec977	0.023289425
31	0x3e90db16	0.2829215

EiLM.0.gamma_generator.weight f4 [1, 32]
0	0xbd8841e5	-0.066531934
1	0xbdf610b0	-0.12014902
2	0xbdf5115d	-0.119662024
3	0x3c6f9b02	0.014624359
4	0x3e371b3b	0.17881481
5	0xbdae1ba0	-0.08501363
6	0x3da97b69	0.08275492
7	0xbc84fc44	-0.01623357
8	0xbe3a7a40	-0.18210697
9	0x3d072820	0.03299725
10	0xbd15aef1	-0.03654379
11	0x3d324f16	0.043532453
12	0xbe4979de	-0.19675395
13	0xbe2074d8	-0.15669572
14	0x3b58c294	0.0033074962
15	0xbc9417e0	-0.01807779
16	0x3da613b9	0.081092305
17	0x3e46299f	0.19351815
18	0xbd535ccb	-0.051602166
19	0x3e07d0d0	0.1326325
20	0xbdb2db3b	-0.08733221
21	0xbc915392	-0.017740045
22	0xbe24edd4	-0.16106349
23	0x3e195a66	0.1497589
24	0xbe13e80d	-0.14443989
25	0xbd94629b	-0.0724537
26	0x3e156107	0.14587794
27	0xbd789d25	-0.06069674
28	0xbe0d1096	-0.13775858
29	0xbde98728	-0.11402732
30	0x3de7c2ee	0.11316477
31	0x3d3d275c	0.046180114

EiLM.0.beta_generator.weight f4 [32, 32]
0	0xbd6fec28	-0.058574826
1	0x3d8b3aab	0.067982994
2	0xbe216463	-0.1576095
3	0xbde94ec9	-0.1139198
4	0x3d13c648	0.036077768
5	0x3bd7853e	0.006577163
6	0x3ccc62e4	0.024949498
7	0x3d398ead	0.04530208
8	0x3d07b0f7	0.03312775
9	0x3c8e3957	0.017361326
10	0xbe17e00b	-0.1483156
11	0x3dfdd8ec	0.1239489
12	0x3dc73122	0.09726168
13	0xbda7e84c	-0.08198604
14	0xbe292265	-0.16517027
15	0xbe104768	-0.1408974
16	0x3dd9a480	0.10627079
17	0x3d0da94f	0.034585293
18	0xbe0ea47d	-0.13929935
19	0xbe1dc4d2	-0.15407112
20	0xbd9768a6	-0.07393007
21	0xbd617e63	-0.055052172
22	0x3df8b46e	0.12143789
23	0xbb3b2f01	-0.0028561952
24	0xbe2328af	-0.15933488
25	0x3ceb0800	0.028690338
26	0x3e32d871	0.17465378
27	0x3ca2e11c	0.019882731
28	0xbde3ad22	-0.11117007
29	0xbe05d796	-0.13070521
30	0x3ddd3b19	0.108022876
31	0xbe20720d	-0.15668507
32	0x3bc2d8f1	0.0059462716
33	0xbe38278d	-0.17983837
34	0x3e21d94c	0.15805548
35	0xbdff6837	-0.12471049
36	0x3dc719b9	0.09721703
37	0xbd0fab12	-0.035075255
38	0xbdeff380	-0.11716366
39	0x3d577ee3	0.052611243
40	0x3d4867f4	0.048927262
41	0xbd8397bd	-0.06425426
42	0xbe184c86	-0.14872941
43	0x3b9346c6	0.004494521
44	0xbd4fe587	-0.050756004
45	0xbdec63d3	-0.115424775
46	0x3e042677	0.12905298
47	0xbdb51b86	-0.0884314
48	0xbe19ade0	-0.15007734
49	0x3e28fa66	0.1650177
50	0x3dbd390a	0.09239395
51	0xbe080b95	-0.13285668
52	0xbe3984af	-0.18117021
53	0x3d84eaa4	0.06490067
54	0x3e0b2c0b	0.1359102
55	0x3ba82654	0.005131522
56	0xbc8fd84d	-0.017559195
57	0x3d8e8461	0.06958843
58	0x3db9b032	0.0906681
59	0x3de8c68b	0.11365994
60	0xbdb65424	-0.08902767
61	0xbe06c0d0	-0.1315949
62	0x3e09977b	0.13436691
63	0xbd2189ea	-0.039438166
64	0xbd2bab73	-0.041911554
65	0xbd85c3e4	-0.06531504
66	0x3dfc2b06	0.123128936
67	0x3dae720b	0.08517846
68	0x3d8e5495	0.069497265
69	0xbd48cfcc	-0.049026296
70	0xbdd1f607	-0.10252004
71	0xbe21d66f	-0.15804456
72	0x3d155992	0.036462374
73	0x3dcadb4a	0.09905107
74	0x3d3e1dfb	0.04641531
75	0x3c8325cf	0.01600924
76	0x3d8473f0	0.06467426
77	0xbde2f920	-0.11082673
78	0x3d9d4732	0.07679595
79	0x3d3b3ead	0.04571407
80	0xbdae7249	-0.08517892
81	0x3d9bc566	0.0760601
82	0x3dadbf57	0.08483761
83	0xbe0d77e3	-0.13815264
84	0x3cb55294	0.022134103
85	0x3c35fda3	0.011107835
86	0x3c9e26cd	0.019305611
87	0xb93b764a	-0.00017877776
88	0xbdcde036	-0.100525305
89	0x3da1e8cd	0.07905731
90	0x3dd8af0e	0.10580264
91	0xbda77561	-0.08176685
92	0xbc59a538	-0.01328402
93	0xbe074bb4	-0.13212472
94	0xbb872c3e	-0.004125147
95	0xbe108362	-0.14112619
96	0x3d92d163	0.071688436
97	0xbe1baa8f	-0.15201782
98	0x3df72fb1	0.12069643
99	0xbd8b0da5	-0.06789712
100	0xbdbd1bc2	-0.0923381
101	0xbe159818	-0.146088
102	0x3d9424ea	0.07233603
103	0xbd94e026	-0.072693154
104	0xbd2ef110	-0.042710364
105	0x3d421878	0.047386616
106	0xbe2a10bf	-0.1660795
107	0x3c824355	0.015901247
108	0xbd4c2adf	-0.049845573
109	0xbd9a655e	-0.075388655
110	0x3de638d5	0.112413086
111	0x3e166128	0.146855
112	0xbda836d6	-0.08213584
113	0xbdce5db5	-0.10076467
114	0xbdf362b0	-0.118840575
115	0xbe0da336	-0.13831791
116	0xbc07401c	-0.008255031
117	0x3d75847f	0.05994081
118	0x3b9b32ec	0.004736295
119	0xbdf53dab	-0.11974653
120	0xbc7dc48e	-0.015488757
121	0xbe1b1ff8	-0.15148914
122	0x3ddfa4d1	0.10920108
123	0x3d58280d	0.05277257
124	0x3e291ef3	0.16515712
125	0xbc142ec7	-0.009044356
126	0x3d57a012	0.05264289
127	0xbe19be70	-0.15014052
128	0x3da477bc	0.0803065
129	0x3e219145	0.15778072
130	0x3d6d3f6f	0.057921823
131	0xbd4aa110	-0.049470007
132	0x3d74a3db	0.059726577
133	0xbe1cedcb	-0.15325086
134	0x3d8b7d33	0.06810989
135	0xbd43651d	-0.04770385
136	0x3dad8ff6	0.08474724
137	0xbdfbe8e9	-0.123002835
138	0x3dcd48c2	0.10023643
139	0x3d518abb	0.051157694
140	0xbe1a8958	-0.15091455
141	0xbd92cdaf	-0.07168137
142	0x3d33ca22	0.04389394
143	0xba51a7a2	-0.00079976965
144	0x3e130b71	0.14359833
145	0x3e13ca93	0.14432745
146	0x3bfd2437	0.0077252644
147	0x3dc2647e	0.094918236
148	0x3caa1605	0.020762453
149	0x3df1eee5	0.11813144
150	0xbb9f4b88	-0.004861299
151	0xbe1b3451	-0.15156676
152	0xbc457050	-0.012050703
153	0x3cf163c5	0.02946652
154	0x3ccaf332	0.024774168
155	0x3e063264	0.1310516
156	0x3c30b5cc	0.010785531
157	0x3e23e1b5	0.16004069
158	0x3c63eac0	0.013910949
159	0xbd99ef30	-0.075163245
160	0xbd55fd56	-0.052243553
161	0x3dc4958d	0.09598837
162	0xbe24ada0	-0.16081858
163	0xbe17354d	-0.14766426
164	0xbd62142c	-0.05519502
165	0x3e184261	0.14869072
166	0xbe25c690	-0.16189027
167	0xbcdb96f9	-0.026805388
168	0x3dc3aa7c	0.09554002
169	0xbd992a93	-0.074788235
170	0x3d350e8e	0.044203334
171	0x3e362b78	0.1779002
172	0xbde87499	-0.11350364
173	0x3cc36222	0.023850504
174	0x3cb12a17	0.021626515
175	0x3e44867e	0.1919193
176	0xbe03ca13	-0.12870054
177	0x3e29a2a7	0.16565953
178	0x3d2778bd	0.04088663
179	0xbd391e6b	-0.045195024
180	0xbd0ad085	-0.033890266
181	0x3df6f21c	0.120578974
182	0x3d5c2935	0.053750236
183	0x3e35c201	0.17749788
184	0x3e13978a	0.14413276
185	0xbd36cbc7	-0.04462793
186	0x3c1112f4	0.008854616
187	0x3d724a31	0.059152786
188	0xbd92342c	-0.07138857
189	0x3e040d27	0.12895642
190	0xbe0d515f	-0.13800572
191	0x3e0a3aed	0.13499041
192	0x3d2f8f86	0.042861484
193	0xbdc343c1	-0.095344074
194	0x3d94e72f	0.07270657
195	0xbd2ac5ee	-0.041692667
196	0x3c43f349	0.011959859
197	0x3d2251a1	0.03962863
198	0x3dedba8f	0.11607849
199	0x3de2b9dc	0.11070606
200	0xbe19d366	-0.15022048
201	0x3e258185	0.16162689
202	0xbd0b5a30	-0.034021556
203	0xbd39be5d	-0.04534756
204	0x3d8900b9	0.06689591
205	0x3e254c6e	0.16142437
206	0x3d2d01b4	0.042237952
207	0xbe03000f	-0.12792991
208	0xbe147d91	-0.14501025
209	0x3d9be42b	0.07611879
210	0xbce153e5	-0.027505824
211	0xbe276edc	-0.16350883
212	0xbc920efe	-0.017829414
213	0x3ca69416	0.020334285
214	0xbd13684a	-0.03598813
215	0xbe293619	-0.16524543
216	0xbe08d4d1	-0.13362433
217	0x3df9be32	0.1219448
218	0xbd966eb2	-0.07345332
219	0x3e25ad76	0.16179451
220	0x3e25120c	0.16120166
221	0xbc542b58	-0.012949787
222	0x3ca863f6	0.020555478
223	0xbe1a73b8	-0.15083206
224	0x3cd79751	0.02631727
225	0xbcc10bbf	-0.023565171
226	0xbc10dc0a	-0.008841524
227	0x3d976934	0.07393113
228	0x3d126396	0.035739504
229	0xbd6b049a	-0.057377435
230	0xbdfa86e0	-0.122327566
231	0xbda81016	-0.08206193
232	0x3d4d05b3	0.050054263
233	0xbc01578d	-0.007894409
234	0x3c9a0b2f	0.01880416
235	0x3ce8b923	0.028408593
236	0xbe1a87b7	-0.15090834
237	0xbe1090cc	-0.14117736
238	0xbe105b6a	-0.14097372
239	0xbe213237	-0.15741812
240	0x3d47abd5	0.048747856
241	0xbe023df6	-0.12718949
242	0x3e1cf654	0.15328342
243	0x3dfac94c	0.122454256
244	0x3c6defc6	0.0145224985
245	0xbd28e9a6	-0.04123845
246	0x3c4de7f3	0.012567508
247	0xbe13bbca	-0.14427105
248	0xbd8ac340	-0.06775522
249	0xbe048f4b	-0.12945287
250	0xbdf2528a	-0.11832149
251	0xbd9e2a4e	-0.07722913
252	0x3dce3b10	0.10069859
253	0x3e060e29	0.13091339
254	0xbd946074	-0.072449595
255	0x3de06762	0.10957219

EiLM.1.gamma_generator.weight f4 [1, 32]
0	0xbe0c3419	-0.13691749
1	0x3dcb3912	0.09922995
2	0x3e04e208	0.12976849
3	0xbc889678	-0.016673312
4	0x3d4a076e	0.04932349
5	0xbe31505e	-0.17315814
6	0x3d9c47b3	0.07630863
7	0x3d9f0286	0.07764153
8	0x3dd26644	0.10273412
9	0x3d63026c	0.05542223
10	0xbd581578	-0.05275485
11	0xbc9b9334	-0.01899109
12	0x3e1f6d52	0.15569046
13	0x3e26dee1	0.16295959
14	0xbd13fdf7	-0.03613087
15	0xbe22cd2d	-0.15898581
16	0x3cada6d9	0.021197723
17	0xbd91e546	-0.071238086
18	0xbd7bcc2e	-0.061474018
19	0xbe1dd69d	-0.154139
20	0xbc023279	-0.007946604
21	0xbe07c0bc	-0.13257116
22	0x3c7707d3	0.015077549
23	0x390fa609	0.00013699396
24	0xbdb8d056	-0.09024112
25	0xbd84f8dc	-0.06492779
26	0x3cd4fb63	0.025998777
27	0x3de44c9d	0.11147425
28	0x3de79946	0.113085315
29	0x3e2e37e3	0.17013507
30	0x3d240f03	0.04005338
31	0x3db4c9df	0.08827566

EiLM.1.beta_generator.weight f4 [32, 32]
0	0x3d2123a8	0.039340645
1	0xbe0bf632	-0.13668135
2	0x3e110d29	0.14165176
3	0xbc94bc67	-0.018156243
4	0xbde8b986	-0.11363511
5	0xbc89a4c1	-0.016802194
6	0x3bfcff27	0.007720846
7	0xbd59d2b3	-0.053179454
8	0xbdb0ef72	-0.086394206
9	0xbd92d5d4	-0.07169691
10	0x3dbb07e3	0.09132364
11	0xbe277ca5	-0.16356142
12	0x3daaf9fe	0.083484635
13	0xbe08ae5a	-0.1334776
14	0xbd06853e	-0.032841913
15	0x3cc41f50	0.023940712
16	0xbe05935b	-0.13044493
17	0xbe195d56	-0.14977011
18	0xbe07560c	-0.13216418
19	0x3e0f7727	0.14010297
20	0x3d97020a	0.07373436
21	0xbdef39a5	-0.11680917
22	0x3e1c8c1c	0.15287822
23	0xbcd5692b	-0.026051125
24	0x3e34fcf2	0.17674616
25	0xbe024d8d	-0.12724896
26	0xbe17b0ab	-0.14813487
27	0xbde09893	-0.10966601
28	0x3e0d806d	0.13818522
29	0xbdb5af3c	-0.08871314
30	0x3e186be7	0.14884911
31	0x3db7bd61	0.08971668
32	0x3caf6396	0.021409791
33	0xbe17c4e4	-0.14821202
34	0xbde2364b	-0.11045512
35	0x3c34c4de	0.011033265
36	0xbe2200e3	-0.15820651
37	0x3d28c994	0.041207865
38	0x3d01ddbe	0.03170561
39	0x3d73c84d	0.059517194
40	0xbdbb7230	-0.09152639
41	0x3e244b90	0.1604445
42	0xbdbfe5c0	-0.09369993
43	0xbc878216	-0.016541522
44	0xbd5b184e	-0.053489976
45	0xbd604679	-0.054754708
46	0xbdb18af8	-0.08669084
47	0xbe24d326	-0.16096172
48	0x3e25d429	0.16194214
49	0xbdb81656	-0.08988635
50	0xbd9e1168	-0.07718164
51	0xbd77aeeb	-0.06046955
52	0xbd23c5ed	-0.03998368
53	0xbdb2ec5f	-0.087364905
54	0x3dede348	0.11615616
55	0x3d6199e0	0.055078387
56	0x3d8767f9	0.06611628
57	0x3de23a1f	0.11046242
58	0x3dd00a57	0.10158222
59	0x3d2c1c5b	0.04201923
60	0xbd9cb9ae	-0.07652603
61	0x3d607e9b	0.05480824
62	0xbd332f32	-0.04374618
63	0xbdc282b6	-0.094975874
64	0xbd86cedf	-0.06582426
65	0x3d44f769	0.04808751
66	0x3bb55719	0.0055340645
67	0x3e19693a	0.14981547
68	0xbe4ae8d0	-0.19815373
69	0x3da3f5c7	0.08005863
70	0xbdb11997	-0.08647459
71	0xbd4b6dd5	-0.04966529
72	0xbbd000e3	-0.006347762
73	0x3d9b7420	0.075905085
74	0xbd8fe09b	-0.07025262
75	0x3d9788d0	0.07399142
76	0x3cb2f8c0	0.021847129
77	0xbdf7546c	-0.12076649
78	0x3e08de2b	0.13366
79	0x3e1a3bba	0.15061846
80	0x3cb41e35	0.02198706
81	0xbd1aec31	-0.037822906
82	0x3dfca7ae	0.1233667
83	0xbdbaade2	-0.09115197
84	0x3d2f68b3	0.04282446
85	0xbdb03728	-0.0860427
86	0x3e181577	0.14851938
87	0xbde944a5	-0.11390046
88	0x3e408334	0.1880005
89	0xbde0cb24	-0.10976246
90	0x3da80df4	0.08205786
91	0xbde3673e	-0.11103676
92	0xbe0f8ab2	-0.14017752
93	0xbd198e1b	-0.037489038
94	0x3da5668c	0.080762
95	0x3c420a92	0.0118433405
96	0x3d4e7675	0.05040594
97	0x3de068db	0.109574996
98	0xbd23af07	-0.03996184
99	0xbbfdebc1	-0.0077490513
100	0xbe1659b9	-0.14682664
101	0x3dcbbd9c	0.099482745
102	0x3d8f1daa	0.0698808
103	0xbd936f38	-0.07198948
104	0x3cacb0cc	0.021080397
105	0xbce22f31	-0.027610393
106	0xbe0ab448	-0.13545334
107	0xbdd5643f	-0.10419511
108	0xbe082415	-0.13295014
109	0xbda06936	-0.078325674
110	0x3dc958ad	0.09831367
111	0xbddd3528	-0.108011544
112	0xbdf9ed5c	-0.12203476
113	0xbcffd392	-0.031228814
114	0xbda92ede	-0.08260892
115	0xbdf1d8e6	-0.11808948
116	0xbd6595d8	-0.056051105
117	0x3df50da6	0.11965494
118	0xbe16ce60	-0.14727163
119	0x3d2d554c	0.042317674
120	0xbb78b8f5	-0.003795204
121	0xbc9dedd7	-0.01927845
122	0x3d849715	0.06474129
123	0x3dcaf5c5	0.09910158
124	0x3df21b72	0.11821641
125	0xbdb1ff30	-0.08691251
126	0xbb5623ac	-0.003267507
127	0xbe23f8a5	-0.16012819
128	0x3d80a951	0.062822945
129	0xbe1097ea	-0.1412045
130	0xbcc3a741	-0.023883464
131	0xbd81210d	-0.06305132
132	0x3e308315	0.17237504
133	0xbb673aed	-0.0035282925
134	0x3d9e3adf	0.077260725
135	0xbe121d5c	-0.14269012
136	0xbe2f0999	-0.17093505
137	0x3cc68cf2	0.02423713
138	0xbd45ddaa	-0.0483071
139	0x3db6108d	0.088898756
140	0x3d10653b	0.03525279
141	0x3d3e3110	0.04643351
142	0xbdec35ca	-0.11533697
143	0xbd6e20d6	-0.058136784
144	0xbd976d57	-0.07393902
145	0x3e1b718a	0.1518003
146	0xbc65ec7c	-0.014033433
147	0xbda02b98	-0.07820815
148	0x3cf629a6	0.030049156
149	0xbd5c2935	-0.053750236
150	0xbe227e15	-0.15868409
151	0x3be1886c	0.006882718
152	0x3db8d1dd	0.09024403
153	0x3e127617	0.1430286
154	0x3e2f341f	0.17109726
155	0xbd80b931	-0.062853225
156	0xbe22a648	-0.15883744
157	0xbd1248f1	-0.035714094
158	0xbdedd264	-0.116123945
159	0x3e1a057a	0.15041152
160	0xbd553f59	-0.052062366
161	0x3db334bc	0.08750293
162	0x3debe314	0.11517921
163	0x3dd23a2e	0.10265003
164	0xbe28ae30	-0.16472697
165	0x3e1ee9d3	0.15518884
166	0xbbdfc300	-0.0068286657
167	0x3e2fa397	0.17152248
168	0x3d8b9b51	0.06816734
169	0x396933df	0.00022239935
170	0xbe127831	-0.14303662
171	0x3b6e1fc9	0.0036334863
172	0x3e1a83eb	0.15089385
173	0x3c67971d	0.014135149
174	0xbe1614d8	-0.14656389
175	0xbca5207c	-0.020157091
176	0x3dbd07d7	0.09230011
177	0xbe0e8970	-0.13919616
178	0x3c529fea	0.012855509
179	0x3cc4c09f	0.02401763
180	0xbcabb385	-0.020959625
181	0x3d3eb567	0.046559718
182	0xbe040f97	-0.12896572
183	0x3cc5fdf3	0.024168944
184	0x3d82497c	0.06361672
185	0xbe0e8cf4	-0.13920957
186	0xbe4283af	-0.18995546
187	0xbe1cb44c	-0.15303153
188	0xbc38156e	-0.011235578
189	0xbe02d596	-0.12776789
190	0xbb8f1b68	-0.0043672808
191	0x3d10f55d	0.035390247
192	0xbd62942c	-0.05531709
193	0x3df9c41c	0.12195608
194	0x3dcf38fc	0.10118291
195	0x3dfe57e0	0.124191046
196	0x3c5e323f	0.013561784
197	0x3cfa39b4	0.030545093
198	0xbd3c2731	-0.045935813
199	0xbdfa81f8	-0.12231821
200	0x3d0e4d60	0.03474176
201	0xbd2be44f	-0.04196578
202	0x3d04f4c3	0.032459985
203	0xbc5421af	-0.012947484
204	0xbe2cfe32	-0.16893843
205	0x3c649386	0.013951188
206	0xbca01eb7	-0.019545896
207	0x3e22cf25	0.15899332
208	0x3e369e5c	0.17833847
209	0x3e146994	0.144934
210	0x3d9f397a	0.07774635
211	0xbe043682	-0.12911418
212	0x3d957dca	0.07299383
213	0xbcb2393d	-0.021755809
214	0xbdbb9f0a	-0.09161194
215	0x3e08db00	0.13364792
216	0xbe2e39d7	-0.17014252
217	0x3d1e2e66	0.038618468
218	0x3cb1d8ef	0.021709887
219	0xbc8f3454	-0.017481007
220	0xbc887e0f	-0.016661672
221	0x3d526ba4	0.051372185
222	0x3ca8cd0b	0.020605585
223	0x3e08ffe6	0.13378868
224	0xbcf7745f	-0.030206857
225	0xbdfca2fe	-0.12335776
226	0xbdf6d822	-0.12052943
227	0x3d0f36e2	0.03496445
228	0xbe2b3915	-0.16720994
229	0x3c89f025	0.016838143
230	0x3c6a9f47	0.014320201
231	0xbdc50c8e	-0.09621535
232	0x3cb56004	0.02214051
233	0x3d107285	0.035265464
234	0xbdbb6f52	-0.09152092
235	0xbdce4a13	-0.10072722
236	0x3e0ea333	0.13929443
237	0xbbd17470	-0.0063920543
238	0xbe290f47	-0.16509734
239	0x3e282027	0.16418515
240	0xbd7ae751	-0.061255757
241	0xbe23aeac	-0.15984601
242	0xbd9dc478	-0.07703489
243	0x3d8b91d1	0.06814922
244	0xbd8ef9b1	-0.069812186
245	0x3e072221	0.13196613
246	0x3d7b09b3	0.061288547
247	0xbe17920c	-0.14801806
248	0x3c9a35ff	0.018824575
249	0xbe25a9ce	-0.16178057
250	0x3dc55926	0.09636144
251	0xbe19fe40	-0.15038395
252	0xbe1d7db3	-0.15379982
253	0xbe204927	-0.15652905
254	0x3e12ad47	0.14323913
255	0xbe0a4cb9	-0.1350583

EiLM.2.gamma_generator.weight f4 [1, 32]
0	0xbc10e742	-0.008844199
1	0xbd5dcd0f	-0.054150637
2	0x3e13e466	0.14442596
3	0xbd7214b1	-0.059101764
4	0x3cc92bd5	0.024557034
5	0x3cf47f13	0.02984575
6	0xbe0a7ca2	-0.13524106
7	0x3db01149	0.08597047
8	0x3d75159c	0.05983506
9	0xbd4633df	-0.048389312
10	0x3d612a52	0.054972
11	0xbe1e0cb5	-0.15434535
12	0x3e35598d	0.17709942
13	0x3e479cbd	0.19493385
14	0xbe1fb1b3	-0.1559513
15	0xbe2679ff	-0.16257475
16	0x3df77ae3	0.12083986
17	0x3bcd6dd7	0.0062691974
18	0xbba4c620	-0.005028501
19	0x3dcb1db9	0.099177785
20	0x3d90df27	0.07073813
21	0xbda8a1da	-0.08233996
22	0x3e3aafd7	0.1823114
23	0xbccd8d50	-0.025091797
24	0xbdf6d159	-0.12051649
25	0xbd893be0	-0.067008734
26	0xbdff773f	-0.12473916
27	0xbd2d2416	-0.042270742
28	0x3d5e531c	0.054278478
29	0xbc5a0d47	-0.01330883
30	0xbdf9d254	-0.1219832
31	0xbe1073f8	-0.14106739

EiLM.2.beta_generator.weight f4 [32, 32]
0	0x3da18489	0.07886607
1	0x3c723b76	0.014784684
2	0x3e262af1	0.16227318
3	0xbe1b43ef	-0.15162633
4	0xbe1aadaa	-0.1510531
5	0xbd2c8d44	-0.04212691
6	0x3de33d42	0.110956684
7	0xbddefbc4	-0.10887864
8	0xbe2132eb	-0.1574208
9	0x3dca2e0a	0.098720625
10	0xbe052c31	-0.13005139
11	0x3e32dd8b	0.17467324
12	0xbdd1b532	-0.102396384
13	0xbdfb8cea	-0.122827366
14	0xbd09338c	-0.033496425
15	0x3cd12c75	0.025533894
16	0x3e27dfce	0.16393968
17	0x3ba5faad	0.0050652833
18	0xbe266694	-0.16250068
19	0xbe4310c4	-0.19049364
20	0xbdf515e8	-0.11967069
21	0xbd07010f	-0.032959994
22	0x3dacc6f0	0.08436382
23	0xbdb227fe	-0.08699034
24	0xbcbe7099	-0.02324705
25	0x3de65477	0.11246579
26	0x3a7dbb92	0.0009679134
27	0xbde6408c	-0.1124278
28	0xbdd44346	-0.10364394
29	0xbd77d00b	-0.06050114
30	0x3db82dfb	0.08993145
31	0xbde32122	-0.11090304
32	0x3d863b71	0.06554306
33	0x3e1193be	0.14216515
34	0xbd2c1102	-0.042008407
35	0xbc432eb7	-0.011912993
36	0xbdb38b70	-0.0876683
37	0xbd72c628	-0.059271008
38	0x3dbf5bcb	0.0934368
39	0x3cddf77b	0.027095547
40	0x3e138eae	0.14409897
41	0xbd0b6d92	-0.03404004
42	0x3e08009e	0.13281485
43	0xbc400358	-0.011719547
44	0x3e36174a	0.17782322
45	0xbdde610a	-0.108583525
46	0x3e370ca0	0.1787591
47	0xbd99b39e	-0.075049624
48	0xbdced488	-0.10099131
49	0x3d1764c5	0.036961336
50	0xbd9b9864	-0.075974256
51	0x3e229ba4	0.15879685
52	0xbe121ede	-0.14269587
53	0x3e25ef07	0.16204463
54	0x3e2bfdd3	0.16796045
55	0xbc2afee1	-0.010436744
56	0x3d971585	0.073771514
57	0x3c8b0c7f	0.016973732
58	0xbe07ebd0	-0.13273549
59	0xbd899bcf	-0.06719171
60	0x3d2db8b6	0.042412482
61	0xbe203309	-0.15644468
62	0x3d834201	0.064090736
63	0xbd4d4412	-0.050113745
64	0x3d1889a8	0.037240654
65	0x3d0faa94	0.035074785
66	0x3c4a29f2	0.012339102
67	0xbcad9302	-0.021188263
68	0x3d09de49	0.033659253
69	0x3ded3311	0.11582006
70	0xbd23d585	-0.03999855
71	0x3d456a75	0.04819723
72	0x3e0696e5	0.13143499
73	0xbd4691a0	-0.048478723
74	0xbdbbee32	-0.091762915
75	0x3e32a534	0.17445832
76	0xbd043963	-0.03228129
77	0x3deddb30	0.11614072
78	0x3dca9c02	0.098930374
79	0x3df91a73	0.12163248
80	0xbda5c924	-0.08095005
81	0xbdf462c9	-0.11932904
82	0xbd3475cd	-0.044057656
83	0x3d843be5	0.064567365
84	0x3e192d06	0.14958581
85	0x3cc37780	0.023860693
86	0x3e124501	0.14284135
87	0xbdad5745	-0.08463911
88	0xbe2cd0d9	-0.16876544
89	0x3e14c12c	0.14526814
90	0xbdd86d7d	-0.10567758
91	0xbc6b24da	-0.014352048
92	0xbe27957d	-0.16365619
93	0xbe432e6c	-0.19060677
94	0x3d0f4032	0.03497333
95	0xbe319eaa	-0.17345682
96	0x3d5396d8	0.051657528
97	0x3c34ef98	0.011043452
98	0x3daa0c79	0.0830316
99	0x3dde7180	0.10861492
100	0x3dd69cd2	0.1047913
101	0xbbface08	-0.0076539554
102	0x3dd8393e	0.10557793
103	0xbe318fa4	-0.17339951
104	0x3d2b3709	0.041800532
105	0x3d9a8361	0.0754459
106	0xbbec8af9	-0.0072187153
107	0x3df993b4	0.12186375
108	0x3e08cfeb	0.13360564
109	0x3e18d000	0.14923096
110	0x3df3fb0a	0.11913116
111	0x3c990248	0.018677846
112	0x3969203f	0.00022232624
113	0xbdaf1e1a	-0.08550663
114	0x3d8a55d9	0.067546554
115	0x3d60a169	0.054841433
116	0xbdb926f0	-0.0904063
117	0x3e10e4c1	0.14149763
118	0x3d2824e3	0.041050803
119	0xbd3f15cc	-0.046651646
120	0xbd3770dc	-0.044785365
121	0x3cecfd1c	0.028929286
122	0xbd718473	-0.058964204
123	0x3d5bd629	0.053671036
124	0x3cacb10d	0.021080518
125	0xb9bb9280	-0.0003577657
126	0x3dde1f3b	0.108458005
127	0xbd998918	-0.07496852
128	0xbe1efc94	-0.15526038
129	0xbcdaa6d7	-0.026690884
130	0xbe321772	-0.17391756
131	0x3d0901e4	0.03344907
132	0x3e272f17	0.16326557
133	0xbdc780db	-0.09741374
134	0xbcb96f7f	-0.022636173
135	0x3e0e217d	0.13879962
136	0xbdc88ff7	-0.09793084
137	0x3d41ddfc	0.04733084
138	0x3c87ccc8	0.01657714
139	0xbdc8f709	-0.09812743
140	0x3e19b8b9	0.15011872
141	0x3e1fa735	0.15591128
142	0x3da89e23	0.08233287
143	0xbe2345a6	-0.15944538
144	0xbe32aab5	-0.17447932
145	0x37fa4c13	2.9837747e-05
146	0xbd397de1	-0.045286063
147	0x3d2e2355	0.042514164
148	0xbde8054a	-0.11329134
149	0xbe218ebf	-0.1577711
150	0xbde9ca86	-0.114155814
151	0xbcd67c1a	-0.026182223
152	0xbc4dbe12	-0.012557523
153	0x3db0a723	0.08625629
154	0x3d477e62	0.048704512
155	0xbd598c4a	-0.053112306
156	0xbdb8e2eb	-0.09027656
157	0x3dce2f9d	0.10067675
158	0xbdd562c0	-0.10419226
159	0x3d3560bd	0.04428171
160	0xbe310c2b	-0.17289798
161	0x3c263b5f	0.010145991
162	0xbe150dc9	-0.1455604
163	0xbe097a0b	-0.13425462
164	0xbd513cd1	-0.05108339
165	0xbdf09818	-0.117477596
166	0x3d39fff3	0.045410108
167	0x3c8b2598	0.0169857
168	0x3d803755	0.06260554
169	0x3aba573a	0.0014216669
170	0x3e32542d	0.17414923
171	0x3d3aad17	0.045575228
172	0x3d39ee94	0.04539354
173	0x3e2ff89e	0.17184684
174	0xbe092245	-0.13391979
175	0xbd44c5bf	-0.048040148
176	0xbdca57a3	-0.09879997
177	0xbd70ed04	-0.058819786
178	0x3db2917d	0.08719156
179	0xbe3eea57	-0.18644081
180	0xbd12eea6	-0.035872124
181	0xbe303fd0	-0.17211843
182	0xbd36bdda	-0.04461465
183	0xbe1d930f	-0.1538813
184	0xbd321767	-0.04347935
185	0xbd949fa4	-0.072570115
186	0x3e28b43f	0.16475008
187	0xbcbc57d9	-0.022991108
188	0xbdb0b6ef	-0.08628642
189	0xbdd0e507	-0.101999335
190	0x3de16cd8	0.110070884
191	0xbe299b0a	-0.16563049
192	0x3e0b3bf0	0.13597083
193	0xbe26a955	-0.16275533
194	0x3d7edd9d	0.062223066
195	0xbca25283	-0.019814735
196	0x3dbeff82	0.09326078
197	0xbdc95b9a	-0.09831925
198	0xbdc499c4	-0.09599641
199	0xbdf2e714	-0.11860481
200	0xba887c63	-0.0010413047
201	0xbe1ca664	-0.15297848
202	0xbd64b14d	-0.05583315
203	0xbce60bfd	-0.028081888
204	0x3e2b735b	0.16743223
205	0xbdefe65b	-0.11713859
206	0xbdd247d7	-0.102676086
207	0xbdc3e76a	-0.09565623
208	0x3ccfaf14	0.025352038
209	0x3d625f34	0.055266574
210	0x3bba42b2	0.00568422
211	0x3cdb6ef3	0.026786303
212	0x3dbf2bc9	0.09334523
213	0x3d57ac54	0.05265458
214	0xbd2c9b35	-0.042140204
215	0xbcf8d408	-0.030374542
216	0xbcc8fc0b	-0.024534246
217	0xbd551f61	-0.05203188
218	0xbd9fe3e9	-0.07807142
219	0xbdbb34c5	-0.09140924
220	0x3df75c81	0.120781906
221	0x3e0e7693	0.1391242
222	0xbd6849e4	-0.056711093
223	0xbd952c5f	-0.07283854
224	0xbcbc0e80	-0.022956133
225	0xbe318715	-0.17336686
226	0xbd43abe9	-0.04777137
227	0x3df65c56	0.120293304
228	0x3da855a5	0.082194604
229	0xbd6ce6fe	-0.05783748
230	0x3e31acf8	0.17351139
231	0xbdeed4b0	-0.11661661
232	0x3e0697a3	0.13143782
233	0x3e0bb4dd	0.13643213
234	0xbe1279da	-0.14304295
235	0x3d385b0b	0.0450087
236	0x3ce2e647	0.027697695
237	0x3e2dbe17	0.16967045
238	0x3e22f634	0.15914232
239	0xbde3517a	-0.11099525
240	0xbe17d1b3	-0.14826088
241	0x3d19ec71	0.037579004
242	0x3e2868a8	0.16446173
243	0x3e132430	0.14369273
244	0x3e36621b	0.17810862
245	0xbd8d3786	-0.06895356
246	0x3d952610	0.072826505
247	0x3d4188a5	0.047249455
248	0xbae83f92	-0.0017719141
249	0xbcfec355	-0.031099001
250	0xbe25f790	-0.16207719
251	0xbc61074b	-0.013734649
252	0x3e1d9f63	0.15392832
253	0x39ae1e92	0.00033210643
254	0x3e045031	0.12921216
255	0xbe28d792	-0.16488484

EiLM.3.gamma_generator.weight f4 [1, 32]
0	0x3d09b6c7	0.033621576
1	0xbd4fa8bd	-0.05069803
2	0x3e1bff79	0.15234174
3	0x3d47d231	0.04878444
4	0xbe0470c0	-0.12933636
5	0xbd35f51a	-0.0444232
6	0xbe0da21b	-0.1383137
7	0x3cb899cd	0.022534275
8	0xbd40edcc	-0.04710178
9	0xbe1b911f	-0.15192078
10	0xbdab9749	-0.08378465
11	0x3d0cf11e	0.034409635
12	0x3e1b0128	0.1513716
13	0x3e16bf7a	0.1472148
14	0xbe324e16	-0.174126
15	0xbdafdfd3	-0.08587613
16	0xbde917ed	-0.113815166
17	0xbc42e0ab	-0.011894385
18	0x3df79f0b	0.12090882
19	0x3dcd30af	0.10019051
20	0x3d7a1986	0.061059497
21	0xbdc4dd97	-0.096125774
22	0xbdd9086f	-0.10597312
23	0x3c0ec777	0.008714548
24	0x3dcda54c	0.100412935
25	0x3e1d14ab	0.15339915
26	0xbe0afabe	-0.13572213
27	0x3e19f77a	0.15035811
28	0x3df8ce6e	0.12148748
29	0xbd3ad119	-0.045609567
30	0xbdce1ce5	-0.10064105
31	0x3d76fee7	0.060301688

EiLM.3.beta_generator.weight f4 [32, 32]
0	0xbe3ba9fa	-0.1832656
1	0x3e2e5fe5	0.17028768
2	0x3d8ae8e4	0.067827016
3	0x3c919d2c	0.01777514
4	0x3e23e555	0.16005452
5	0xbe23e2eb	-0.16004531
6	0xbdf8225d	-0.12115929
7	0xbce1df84	-0.0275724
8	0x3e3129f2	0.17301157
9	0x3d2438ce	0.040093236
10	0xbe2f29cf	-0.17105792
11	0xbd65a4c5	-0.05606534
12	0x3e06c3e1	0.1316066
13	0x3d89a3dd	0.067207076
14	0x3b626b7e	0.0034548934
15	0xbe0a81cf	-0.1352608
16	0xbbc55c2d	-0.006022951
17	0xbcaee6c8	-0.02135028
18	0xbe240d41	-0.16020681
19	0x3c768ba5	0.015047942
20	0x3e01d0cd	0.12677307
21	0xbdfbbd85	-0.12292007
22	0xbdde0cee	-0.1084231
23	0xbd2c4229	-0.042055283
24	0xbd22be4a	-0.039732255
25	0xbe13540c	-0.1438753
26	0xbe081881	-0.13290597
27	0xbd929d61	-0.07158924
28	0xbe1775ea	-0.14791074
29	0xbdacd3cb	-0.08438834
30	0xbbfd790a	-0.0077353762
31	0x3e0debbe	0.1385946
32	0x3e061bad	0.13096495
33	0xbd2e12da	-0.042498447
34	0xbdf9c46f	-0.1219567
35	0x3bcefc68	0.0063167103
36	0xbe188f44	-0.14898401
37	0x3e1f3a58	0.155496
38	0xbdc7c821	-0.097549684
39	0x3d5c2827	0.05374923
40	0xbe254841	-0.16140844
41	0x3dfb756a	0.12278254
42	0x3d2def81	0.042464737
43	0x3e1b897e	0.15189168
44	0xbdeb4b05	-0.11488918
45	0xbdc96014	-0.098327786
46	0x3e27ee64	0.16399533
47	0x3d1f30bb	0.038864832
48	0xbdc0ccc2	-0.094140545
49	0x3dc2bbbe	0.09508465
50	0x3d75c2bc	0.060000166
51	0xbdd48973	-0.10377779
52	0xbe0f2d50	-0.13982129
53	0x3d8d8e8b	0.069119535
54	0xbcd5b9e9	-0.026089625
55	0x3dd60cb2	0.1045164
56	0xbdac693c	-0.08418509
57	0x3d962205	0.073307075
58	0xbd5e26e2	-0.0542363
59	0xbdb8a6ac	-0.09016165
60	0xbe0795d2	-0.13240746
61	0x3def683e	0.116898045
62	0x3e2086b1	0.1567638
63	0x3d275548	0.040852815
64	0x3de89d59	0.11358137
65	0x3db1a547	0.08674102
66	0x3e3cfad0	0.18455052
67	0x3d8fda6d	0.07024083
68	0xbe483dd8	-0.19554842
69	0xbe277fee	-0.16357395
70	0x3db1341b	0.086525165
71	0xbcb9ec7b	-0.02269577
72	0x3d996225	0.07489423
73	0xbe15b637	-0.1462029
74	0xbde1130f	-0.10989963
75	0xbe320cb9	-0.17387666
76	0xbde61102	-0.11233713
77	0xba774393	-0.00094323716
78	0x3da61c0e	0.0811082
79	0x3d456297	0.048189726
80	0xbdc4295e	-0.09578203
81	0xbe2aea47	-0.16690932
82	0xbdddcae9	-0.10829718
83	0xbdd1f127	-0.10251074
84	0xbd993343	-0.074804805
85	0xbe1f6aac	-0.15568036
86	0x3df9462a	0.12171586
87	0xbd8f5122	-0.06997897
88	0x3d9fecde	0.07808851
89	0x3c3158b4	0.010824371
90	0x3e0608d5	0.13089307
91	0xbe1a73ec	-0.15083283
92	0xbc00065b	-0.007814015
93	0x3d96b391	0.07358468
94	0xbda3ea86	-0.08003716
95	0xbe164ae3	-0.14677005
96	0x3d309a4b	0.043115895
97	0x3d9806b8	0.074231565
98	0x3e2ca93d	0.16861434
99	0x3b954cac	0.004556259
100	0x3e22422a	0.15845552
101	0x3e318be0	0.17338514
102	0xbdc5d4cb	-0.09659728
103	0xbe27ea38	-0.16397941
104	0x3df2c602	0.11854173
105	0x3cea17b6	0.02857576
106	0xbe1bd480	-0.15217781
107	0x3e3c780f	0.18405174
108	0x3d5f9840	0.054588556
109	0x3d521410	0.051288664
110	0xbdec3e3a	-0.11535306
111	0x3e29fbf2	0.16600016
112	0xbe17e858	-0.14834726
113	0xbe0651fc	-0.13117212
114	0xbe1a5597	-0.15071712
115	0xbdb73e24	-0.08947399
116	0xbd1d5143	-0.038407575
117	0xbe231217	-0.1592487
118	0x3e0da381	0.13831903
119	0x3df94579	0.12171454
120	0x3e2a5c26	0.16636714
121	0xbcce5664	-0.025187679
122	0xbd2f2cf1	-0.04276747
123	0xbe10dfc4	-0.1414786
124	0xbda2c774	-0.07948199
125	0xbe405666	-0.18782958
126	0xbdccfc69	-0.10009081
127	0xbdad1ebc	-0.08453128
128	0x3e02c371	0.12769867
129	0x3e027d45	0.12743099
130	0xbe2b66bb	-0.16738407
131	0x3cc7cc5e	0.024389442
132	0x3e0003e3	0.12501483
133	0x3a89be31	0.0010508952
134	0xbe3f585e	-0.18686053
135	0xbdb9ef51	-0.09078849
136	0x3cbeb401	0.023279192
137	0xbe2210b4	-0.15826684
138	0xbe0e80de	-0.13916346
139	0xbe01ebb9	-0.12687577
140	0xbe2ffcdf	-0.17186306
141	0xbe01c98e	-0.12674543
142	0x3de3c26b	0.11121067
143	0x3bf552ee	0.0074866926
144	0xbc8e7d63	-0.017393773
145	0x3e143c9e	0.14476249
146	0xbd31b821	-0.04338849
147	0xbde70fb1	-0.1128229
148	0xbc9c09ab	-0.019047579
149	0xbc85c364	-0.016328521
150	0x3db7ebc3	0.08980515
151	0x3dbbfd14	0.0917913
152	0xbe1aaa34	-0.1510399
153	0x3c66b2dd	0.01408073
154	0x3e1c2c70	0.15251327
155	0xbd070ab1	-0.03296918
156	0xbc2762f0	-0.01021646
157	0x3d3f322f	0.04667872
158	0x3d05a7d9	0.032630775
159	0xbde3ee19	-0.11129398
160	0xbbd83b18	-0.0065988414
161	0xbe1ae553	-0.15126543
162	0x3e4cc78e	0.19997999
163	0xbde72ca8	-0.112878144
164	0x3cd02c81	0.025411846
165	0xbe2fbea7	-0.17162572
166	0x3e33d0b1	0.17560078
167	0xbcb6ec64	-0.022329517
168	0x3e321aaa	0.17392984
169	0xbdcd64ca	-0.100289896
170	0xbe3f7737	-0.1869782
171	0xbe026e1b	-0.12737314
172	0x3e21392e	0.15744469
173	0x3e489a9e	0.19590232
174	0xbd10d5fd	-0.035360325
175	0x3d578624	0.05261816
176	0x3e161058	0.14654672
177	0x3d8be7e6	0.068313405
178	0xbe2d9b9e	-0.16953894
179	0xbde29731	-0.11063994
180	0x3cf4e78f	0.029895572
181	0x3dfee0f2	0.12445249
182	0xbe1c621a	-0.15271798
183	0x3d894bd3	0.067039154
184	0x3e4113e1	0.1885524
185	0xbcf7be7b	-0.030242195
186	0x3cc3fc3d	0.023923988
187	0x3dc50390	0.0961982
188	0x3d3db176	0.046311818
189	0x3db403f0	0.087898135
190	0x3d2e19e8	0.042505175
191	0x3c4746fc	0.01216292
192	0xbdb02bd7	-0.08602112
193	0x3c92b3ed	0.01790806
194	0xbdf97d23	-0.12182071
195	0x3e130758	0.1435827
196	0x3e3ea349	0.18616976
197	0x3dff0e8b	0.12453946
198	0xbe4af451	-0.19819762
199	0xbd6edfdd	-0.05831896
200	0xbe2a8599	-0.16652526
201	0xbe109a48	-0.14121354
202	0xbb339a62	-0.0027405252
203	0xbd7a7405	-0.0611458
204	0xbd33caba	-0.043894507
205	0xbddc9740	-0.10771036
206	0xbe0e9a5b	-0.1392607
207	0xbdecb002	-0.11557008
208	0x3e44c74d	0.19216652
209	0x3dd39d87	0.1033278
210	0xbdd577cc	-0.1042324
211	0x3e0bee60	0.13665152
212	0xbe3aa7ef	-0.18228124
213	0x3d198aa9	0.037485752
214	0xbd44c0ed	-0.04803555
215	0x3d13a2b7	0.03604385
216	0x3dfb7732	0.12278594
217	0xbdb883ad	-0.0900949
218	0xbc781299	-0.015141153
219	0xbe092917	-0.13394581
220	0x3dd9e18a	0.10638721
221	0x3dc11a6a	0.09428866
222	0xbd297183	-0.04136802
223	0x3e0ba793	0.13638143
224	0x3df67cdd	0.120355345
225	0x3e3935cd	0.1808693
226	0xbd4787b5	-0.048713405
227	0xbda7c043	-0.08190968
228	0x3d30f1b2	0.04319925
229	0xbdf7930a	-0.12088592
230	0x3ce418ce	0.027843859
231	0xbd9fa963	-0.0779598
232	0x3c08580c	0.008321773
233	0xbcf7ec78	-0.030264124
234	0xbe04edbe	-0.12981316
235	0x3e1d0917	0.15335499
236	0xbe208aec	-0.15677994
237	0x3e121f67	0.14269792
238	0xbd18e074	-0.03732343
239	0x3e1cc9ed	0.15311404
240	0x3db11328	0.08646232
241	0x3e2bb564	0.16768414
242	0x3db69adb	0.08916255
243	0xbd4be809	-0.049781833
244	0xbd84306a	-0.06454547
245	0x3e36e52a	0.17860857
246	0x3e19e0da	0.1502718
247	0xb8b27580	-8.5095875e-05
248	0xbe20a76b	-0.15688865
249	0x3ce07c6c	0.027403079
250	0xbe12a61b	-0.14321177
251	0xbcae5adc	-0.02128356
252	0x3d1dcb6f	0.038524088
253	0x3df1db28	0.11809379
254	0x3dc54abb	0.09633394
255	0x3e13c295	0.14429696

Gate.weight f4 [4, 32]
0	0xbddb7842	-0.10716297
1	0x3ddf4ba0	0.10903096
2	0x3dbd27b6	0.0923609
3	0x3d21fd6b	0.03954832
4	0xbdf44a64	-0.119282514
5	0x3bb1c96b	0.005425622
6	0x3d5bba79	0.05364463
7	0xbe20ee9a	-0.1571602
8	0x3e3a4394	0.18189842
9	0xbb79fe19	-0.0038145839
10	0xbdf06cff	-0.11739539
11	0x3cbc9788	0.023021474
12	0x3c0535ec	0.008130532
13	0xbda37e0d	-0.07983027
14	0xbe188169	-0.14893116
15	0xbd928c8d	-0.07155714
16	0xbe244367	-0.16041337
17	0xbd48e87c	-0.04904984
18	0x3de8a9a3	0.11360481
19	0x3da7bb3d	0.0819001
20	0xbe112976	-0.14175972
21	0x3d13cfbc	0.036086783
22	0xbd5b5130	-0.053544223
23	0xbd0d33f4	-0.034473374
24	0x3e21af17	0.15789448
25	0xbd7b6ec3	-0.061384927
26	0x3e2848a1	0.16433956
27	0x3d2b6644	0.041845575
28	0x3e2557d1	0.1614678
29	0xbca4cb21	-0.02011639
30	0x3dcb26e4	0.09919527
31	0x3ccf5c71	0.025312634
32	0xbdb0efd1	-0.08639491
33	0x3e2fdc1e	0.17173812
34	0x3d90b988	0.07066637
35	0xbd7768c7	-0.060402658
36	0x3e277781	0.16354181
37	0x3c75cdf4	0.015002716
38	0x3e0e3f6a	0.13891378
39	0xbe327ddc	-0.17430824
40	0x3dadffab	0.084960304
41	0xbe493dda	-0.19652501
42	0xbe077f02	-0.13232043
43	0x3e154351	0.1457646
44	0x3da7dfbe	0.08196972
45	0x3db25351	0.087072976
46	0x3dccb106	0.09994702
47	0x3c313dd6	0.0108179655
48	0x3e263d6a	0.16234365
49	0x3d4b0fd1	0.04957563
50	0xbd7ea808	-0.062171966
51	0xbdddd5ef	-0.1083182
52	0xbe042033	-0.12902908
53	0xbdb6763e	-0.08909272
54	0xbcc2dc33	-0.02378664
55	0xbd7108ed	-0.058846403
56	0xbe0d56b7	-0.1380261
57	0x3d64ff1a	0.055907346
58	0x3e2132f3	0.15742092
59	0xbb7bc3cc	-0.0038416265
60	0x3d0a1934	0.03371544
61	0xbdae7f78	-0.085204065
62	0xbe37141e	-0.17878768
63	0xbdb261df	-0.08710074
64	0xbe06105b	-0.13092177
65	0xbc9990ae	-0.018745746
66	0x3e1b5ea7	0.15172826
67	0xbdba62cb	-0.091008745
68	0x3e1b071d	0.15139432
69	0x3d9b73b4	0.07590428
70	0xbdab3849	-0.08360345
71	0x3e070672	0.13186052
72	0x3d200a0c	0.03907208
73	0x3e16f624	0.14742333
74	0xbe3a21db	-0.18176977
75	0x3c7a1c2b	0.015265505
76	0xbc52c57e	-0.012864469
77	0x3dc41101	0.09573556
78	0xbd554676	-0.05206915
79	0xbdc60797	-0.096694164
80	0x3da14e75	0.078762926
81	0xbd9fac27	-0.07796507
82	0x3dd9673b	0.10615393
83	0xbe10df4b	-0.1414768
84	0xbe01eb49	-0.1268741
85	0x3e268ba9	0.16264214
86	0xbe18a070	-0.14904952
87	0xbd8c1db4	-0.06841603
88	0x3d8131f9	0.0630836
89	0x3d6989b1	0.05701608
90	0xbcd99cab	-0.026563963
91	0xbd5b0a65	-0.05347671
92	0xbe336bab	-0.17521541
93	0xbd5640d2	-0.05230791
94	0x3b7b4fcf	0.003834713
95	0x3c8677c5	0.016414532
96	0xbe0230e9	-0.1271397
97	0xbd4b1a07	-0.04958537
98	0xbd7e7db1	-0.062131587
99	0xbda21f33	-0.07916107
100	0xbdccda42	-0.10002567
101	0xbe11c241	-0.14234258
102	0xbba618c5	-0.0050688707
103	0xbe148e53	-0.14507417
104	0xbe2f5cba	-0.17125216
105	0xbdb5e77b	-0.08882042
106	0x3d296ce6	0.04136362
107	0xbe173dc4	-0.14769655
108	0xbde7f62c	-0.113262504
109	0x3d6cb929	0.05779377
110	0x3e1f0807	0.15530406
111	0x3e2da56b	0.16957633
112	0x3e522943	0.20523553
113	0x3c675cb1	0.01412122
114	0xbe14a555	-0.14516194
115	0xbcfe4fb0	-0.031043857
116	0x3dc64a9e	0.09682201
117	0x3ce180d6	0.027527254
118	0xbca8b56f	-0.020594327
119	0xbbb11ce6	-0.0054050563
120	0xbe5b1578	-0.21394908
121	0xbd375f00	-0.044768333
122	0xbdda7c1d	-0.10668204
123	0xbdd28461	-0.102791555
124	0xbe116202	-0.14197543
125	0x3d92658b	0.07148274
126	0xbe3f0df8	-0.18657672
127	0xbb0459ed	-0.0020195202

experts.0.gate_proj.weight f4 [32, 32]
0	0xbe000d74	-0.12505132
1	0x3bba7fef	0.0056915204
2	0x3c881494	0.016611375
3	0xbdab4da8	-0.08364421
4	0xbe00ffd4	-0.1259759
5	0x3d8ba077	0.068177156
6	0xbe34b438	-0.17646873
7	0x3e0a453c	0.13502973
8	0x3e48e44d	0.1961834
9	0xbdf757cf	-0.12077295
10	0xbdb051cf	-0.08609354
11	0xbe359c04	-0.17735296
12	0xbb58743c	-0.0033028265
13	0xbd75e840	-0.060035944
14	0x3d62b613	0.05534942
15	0xbd121f68	-0.035674483
16	0x3cd8ec78	0.026479945
17	0xbe279660	-0.16365957
18	0xbc24a4a6	-0.010049021
19	0xbdce3947	-0.100695185
20	0x3e2820d2	0.1641877
21	0xbd863ba7	-0.065543465
22	0xbd992703	-0.07478144
23	0x3c149a0f	0.009069934
24	0xba83f6fa	-0.0010068112
25	0xbe467f6f	-0.1938455
26	0xbdb21e5e	-0.08697198
27	0xbd4b664b	-0.0496581
28	0xbce01d57	-0.02735774
29	0xbdbee594	-0.09321132
30	0x3daeb801	0.0853119
31	0xbcee2788	-0.029071584
32	0x3d824c03	0.06362154
33	0x3d8b18ee	0.06791864
34	0xbdf377d1	-0.118880875
35	0x3e40375f	0.18771122
36	0x3dfe8249	0.12427194
37	0xbd2541bc	-0.040345892
38	0x3dc57f94	0.09643474
39	0xbde6771f	-0.11253189
40	0xbc3a78de	-0.011381356
41	0x3e0667a0	0.13125467
42	0x3c7566ea	0.01497815
43	0xbd9753d2	-0.07389034
44	0x3e0cc56c	0.13747185
45	0xbc8a914d	-0.016914988
46	0x3e280811	0.16409327
47	0xbd8d1695	-0.06889073
48	0x3dea435a	0.114386275
49	0xbcf60d43	-0.03003562
50	0xbe550c08	-0.20805371
51	0xbd9350a7	-0.071931176
52	0xbe2fdbc7	-0.17173682
53	0x3e03b428	0.12861693
54	0xbe0da027	-0.13830625
55	0xbde895bd	-0.11356685
56	0xbde37405	-0.11106113
57	0x3e31e62a	0.17372957
58	0x3da17483	0.07883551
59	0x3ceb188c	0.028698228
60	0x3da20280	0.07910633
61	0x3d1dd504	0.038533226
62	0xbdb30c6e	-0.08742605
63	0x3e03fb81	0.1288891
64	0xbe07c1ee	-0.13257572
65	0xbde815c5	-0.11332277
66	0xbd78fc30	-0.06078738
67	0x3e2ce2c7	0.16883384
68	0xbd9a4272	-0.07532205
69	0xbe107828	-0.14108336
70	0xbe38b463	-0.18037562
71	0xbd9c3709	-0.076276846
72	0xbda05c2c	-0.078300804
73	0x3cedb928	0.029018953
74	0x3e38b855	0.18039067
75	0xbc3232ed	-0.010876399
76	0x3d42a5e1	0.047521476
77	0x3e15d9a0	0.14633799
78	0xbe0ffa4c	-0.14060324
79	0xbd09f324	-0.033679143
80	0xbd503605	-0.050832767
81	0xbe1661a9	-0.14685692
82	0xbdfee61d	-0.124462344
83	0xbcbc4202	-0.022980694
84	0x3ca12712	0.01967195
85	0xbd8a1271	-0.06741799
86	0x3d377dfa	0.044797875
87	0xbd68a7fb	-0.056800824
88	0xbe22394b	-0.15842168
89	0xbd8f54bd	-0.069985844
90	0x3d652fc6	0.055953763
91	0x3c910e09	0.017706888
92	0xbd498df4	-0.049207643
93	0x3c6fff09	0.014648207
94	0x3dd27ca0	0.102776766
95	0x3dfc666d	0.12324224
96	0xbce6c49f	-0.028169928
97	0x3d3a8b4a	0.045542993
98	0xbca4bc16	-0.020109218
99	0xbe1801d4	-0.14844447
100	0x3e387a79	0.1801547
101	0xbb8721fd	-0.0041239248
102	0x3cf2f36a	0.029657084
103	0x3e01eeef	0.12688802
104	0x3d54c06c	0.05194132
105	0x3da5ff04	0.08105281
106	0xbcd58b56	-0.026067417
107	0x3dddc565	0.10828666
108	0xbe206d34	-0.15666658
109	0x3dbd8703	0.09254267
110	0x3e1ebaaa	0.15500894
111	0xbe1f3997	-0.15549313
112	0xbe00f11d	-0.12591977
113	0x3de167d4	0.11006132
114	0xbdeeee34	-0.116665274
115	0xbdc6c188	-0.09704882
116	0x3b406eef	0.0029362997
117	0xbcad3c38	-0.021146879
118	0x3d92f7dc	0.07176182
119	0xbcd2341a	-0.02565961
120	0xbde1e60d	-0.11030207
121	0xbd6e835d	-0.058230747
122	0x3e2a18a1	0.16610958
123	0xbd701827	-0.058616783
124	0xbcae1e30	-0.021254629
125	0xbdd26fcf	-0.10275232
126	0xbd93a6fa	-0.072095826
127	0xbdfcb680	-0.123394966
128	0xbe2daaea	-0.1695973
129	0x3bb91401	0.0056481366
130	0x3c475769	0.012166836
131	0x3d6c7ef4	0.05773826
132	0x3dc75aeb	0.09734138
133	0xbcffcdd4	-0.031226076
134	0x3e1d3b2c	0.15354604
135	0x3e292d18	0.16521108
136	0x3e1ffd8e	0.15624067
137	0x3d843c90	0.06456864
138	0xbe20d0ee	-0.157047
139	0xbe0424dd	-0.12904687
140	0xbe0781bf	-0.13233088
141	0x3bd179bb	0.006392685
142	0x3dceab0d	0.10091219
143	0xbbf49354	-0.007463852
144	0x3e2a7582	0.16646388
145	0x3d958045	0.07299856
146	0x3e23fbad	0.16013975
147	0xbda268ec	-0.079301685
148	0x3d19c844	0.037544504
149	0x3d8e27eb	0.069412075
150	0x3e0c2560	0.13686132
151	0xbd228f2e	-0.039687328
152	0xbe14c230	-0.14527202
153	0x3cff94fa	0.031198967
154	0x3d496f5a	0.04917846
155	0xbe121111	-0.14264323
156	0x3e305280	0.17218971
157	0x3dba73b5	0.091041006
158	0xbe002018	-0.12512243
159	0x3c6268bf	0.013818919
160	0xbdc03fb3	-0.0938715
161	0xbd7b2487	-0.061314132
162	0x3daa5319	0.08316631
163	0xbbac476e	-0.0052575385
164	0x3db884ed	0.090097286
165	0xbe2394d1	-0.15974738
166	0xbe02a4c5	-0.12758167
167	0x3d62b818	0.055351347
168	0xbd9f7ce9	-0.077874966
169	0xbba6e59c	-0.0050932895
170	0xbacc5a5f	-0.0015590898
171	0xbd662642	-0.05618883
172	0x3e0db4ad	0.13838454
173	0xbe42d813	-0.19027738
174	0x3d0df3f1	0.03465647
175	0x3dd77112	0.10519613
176	0x3ce5f8f5	0.028072814
177	0xbd629ad7	-0.055323448
178	0xbcbf1a48	-0.023327962
179	0xbc7e45a8	-0.015519537
180	0xbe1da01c	-0.15393108
181	0xbe03093f	-0.12796496
182	0x3c973dab	0.018462023
183	0xbd8e02ee	-0.069341525
184	0xbe04c215	-0.12964661
185	0x3dffac6f	0.12484061
186	0x3c2a9fe2	0.010414096
187	0xbe46f842	-0.1943064
188	0xbe12f43a	-0.14350978
189	0x3b44b10d	0.0030012757
190	0x3dd139b8	0.10216087
191	0xbdcb856c	-0.099375576
192	0x3e10d3ee	0.14143345
193	0x3d017483	0.031605255
194	0xbc5f1d07	-0.0136177605
195	0xbd9d69a3	-0.07686164
196	0xbe51fb1b	-0.20505945
197	0xbde7adc6	-0.113124415
198	0xbd5a5c82	-0.05331088
199	0x3c80b3ed	0.015710795
200	0x3d6202c0	0.055178404
201	0x3c8b38b3	0.01699481
202	0x3dcac243	0.09900334
203	0xbdaff60f	-0.08591854
204	0xbcf39ac0	-0.029736876
205	0x3d151067	0.036392596
206	0xbd308d82	-0.043103702
207	0xbdfff0f5	-0.12497131
208	0x3c2d38a4	0.010572586
209	0x3db12e2b	0.08651384
210	0x3ddc0fdd	0.10745213
211	0x3d2bfd63	0.041989695
212	0x3d1a3574	0.037648633
213	0x3e1f49cc	0.15555495
214	0x3e0ba2cf	0.13636325
215	0x3d44715a	0.047959663
216	0x3c8f29e6	0.017476033
217	0xbdbdfddd	-0.09276936
218	0x3cc1efc6	0.023673903
219	0x3e0446de	0.12917659
220	0x3dc9f438	0.09861034
221	0xbe02bd02	-0.12767413
222	0x3e357a48	0.17722428
223	0xbb9f34c2	-0.004858584
224	0x3d980cbd	0.07424305
225	0x3d9cc71c	0.076551646
226	0x3dd49454	0.10379854
227	0x3d2bd7c0	0.041953802
228	0x3e1b4498	0.15162885
229	0x3b34da4d	0.0027595938
230	0x3dca0826	0.098648354
231	0xbda6a54a	-0.08136995
232	0x3d10bbad	0.03533523
233	0xbe25108d	-0.16119595
234	0x3e137c01	0.14402772
235	0x3e1efb68	0.15525591
236	0xbdcd3628	-0.10020095
237	0xbdfec978	-0.12440771
238	0xbc8f9df6	-0.017531376
239	0x3d99c913	0.07509055
240	0xbd3519de	-0.044214122
241	0x3e02f6b6	0.12789425
242	0xbe258209	-0.16162886
243	0x3e228530	0.1587112
244	0xbdb7a1ae	-0.08966385
245	0x3e18f473	0.14937
246	0xbdc750f4	-0.097322375
247	0xbda7936e	-0.08182417
248	0xbe35dc82	-0.17759898
249	0x3c84616c	0.016159736
250	0xbd7276d8	-0.05919537
251	0x3dae3cd7	0.08507698
252	0xbdaf117f	-0.08548259
253	0x3e0dc354	0.13844043
254	0xbde29cfb	-0.11065098
255	0xbda418b9	-0.08012528
