output/FF-L-MoME/ts_encoder_epoch1.pt (torch, 433260 bytes, 34 tensors)

proj.weight f4 [32, 8]
00000000: 4891 1c39 8a8e 83be 7ed2 71be e3a5 6abe
00000010: a197 353e 44e9 80be 2bd4 24bd 1b3d 873e
00000020: 7389 aebe 4522 753e fb1c a33e 93a6 193e
00000030: c255 413d a3d2 aa3e 736f 923e 457c 9d3e
00000040: 5eeb f9bd 5401 093e 5987 6d3d aca4 9cbe
00000050: 584d 8fbe 3869 9abe 6387 a5bd df3f 5c3b
00000060: 7bb8 203e 765d 70be 9cbc d73b 9066 553e
00000070: 9e58 97be bd3c 973e c6da 8cbd 6d35 7ebe
00000080: 007e e5bc 5e4c 16bd 29e5 a13e 4f6b 133e
00000090: c1ba 5b3e e49e 833e 88b5 58be d9f0 1bbe
000000a0: 9818 7ebe b292 2fbe efff 73be 7f21 7d3d
000000b0: 9917 b2be 83a7 943e 60bb b2be 1eee 4c3e
000000c0: b927 b1be 8be7 343e bbaa 3dbe 76e9 903d
000000d0: db07 a13e c807 07be c5ae 9fba a05c 55bd
000000e0: 161c b0be ba10 903e 0e2b 9abd 590c acbd
000000f0: 0d82 13be 9646 2b3e 575d 43be 1eb1 3abe
00000100: b1b3 8f3e 83dc 8cbe 9487 afbe 824c c03d
00000110: 5c7d 00be 9718 24be b000 8fbd a9bd 993e
00000120: d057 bf3d f8f4 a2be c912 123e b172 afbe
00000130: da3d e93d 6b57 593d e4c8 9abe c444 2e3e
00000140: 57d6 a43d 619c a43e f2a6 e2bd 2d86 653e
00000150: b9fb 3b3d cf42 b23e 92df 97be 353c 773e
00000160: bcf1 20be e004 80be 36b4 84be 983c f43d
00000170: e575 103e 7114 b03c e572 1ebc 4d41 12be
00000180: 23b1 a03e 912c 513d 9ce0 1b3e 8e4f 22be
00000190: eaef 98be db92 86be 25c4 933e ccdb ccbd
000001a0: 7bf3 0d3c 9a07 b6be 75bf 863d 56b4 b1bd
000001b0: c076 12bd df07 8a3c f07c 7c3e 437a acbd
000001c0: 83ec 5fbe 1ab1 9f3e 5ed2 b23e 3d1f ab3e
000001d0: 027f a0be 94be 7abd b8dd 45be 1866 4b3e
000001e0: 25cf 13bb cbf2 033e 07e6 a83e 18c7 863e
000001f0: d60c aabd e88a 783e 53bb 903e 6f7c 2cbe
00000200: 65d6 8f3c a51a 86be 87f3 10be 0486 0a3e
00000210: cb18 cdbb c651 993e a30f ad3e 7e0a ccbd
00000220: 5ffb e4bd e2ac 80be 1f12 e0bb 6132 533d
00000230: 87c1 013e 19a6 043e fb30 e53d 2c34 85bd
00000240: f634 c9bd c4a7 58be 3195 5ebe 4e96 a2be
00000250: 2e8b 86be cd44 40be e48e 2e3e eac0 26bd
00000260: b710 4fbe cdef 47be 7aeb a23e 3267 8fbd
00000270: 1e10 4ebd e269 b3be d1ba 9dbe 7fae 83be
00000280: ad50 b5bd 8419 223d ff1f b13e ad55 2fbe
00000290: 6d92 09bd e8cb f1bd 58dc a1be e683 103e
000002a0: d3e3 983e fa65 8a3c 28c3 0a3d 94d2 88be
000002b0: 2597 473e 5e8f 01be 1933 03be 49bc 86be
000002c0: d4f0 5f3e c64d 7cbe 81f9 f5bc 859d b0be
000002d0: 4c1f 23be fbbb 00be c525 95be 2c36 5c3e
000002e0: f581 8c3e 6145 7f3d c1da 9dbe d877 23be
000002f0: c1d3 1f3e bb0e 15be f521 e53d 36d6 21be
00000300: 7e1e bbbd 49db 963d 41f4 fabd b092 2c3b
00000310: 049a 14be 9c56 8fbe ff4e a33e f158 9f3e
00000320: 9eea 24be 5342 723e ece0 133e b8d1 0b3e
00000330: 321a af3e 8f8a 3abd 8396 2ebd d96b 92be
00000340: ec8c bebd 4660 b33e 02cc 9d3e ca3b 0abc
00000350: 31a7 6bbe 2dd3 31be 6ff7 1fbe 8fdb 983e
00000360: 077d 8e3c 0ec7 a3be 34bd 9dbe 4711 a4bd
00000370: fb16 003d 3ab7 80be 1a16 97be 8f4f 823e
00000380: 5513 a83e e60d 173d e844 ba3c a5a9 a13e
00000390: 1611 c5bd f353 95be 9978 71be d2be 8d3e
000003a0: ae9e 43be 90aa 913e 77a7 a03e c51d f83d
000003b0: 8cee 263e a2ba a4bd ff84 7ebe 6b15 36be
000003c0: b86d 30be 9453 54be 92d8 9dbe b8a8 78be
000003d0: e67a 29be 412a ba3d 583e 213e 948f 3bbe
000003e0: ec6d 16bd de91 833b 114e 3dbe 6ec3 bebe
000003f0: 9b1f 2abe 6a7a 80be 8f92 063d 6dc1 a4be
0.00014931441 -0.25694686 -0.23615453 -0.22914843 0.17733623 -0.25177968 -0.0402414 0.26413807
-0.3408924 0.23938854 0.31858048 0.1500495 0.047200926 0.33363828 0.28600654 0.30758873
-0.12203096 0.13379413 0.057990406 -0.30594385 -0.27988696 -0.301584 -0.080824636 0.0033607406
0.15695374 -0.23473153 0.0065837633 0.20839906 -0.29559797 0.29538527 -0.06877665 -0.24825068
-0.028014183 -0.036693923 0.31620148 0.14396404 0.2145796 0.2570716 -0.21162999 -0.15228595
-0.2481407 -0.17145804 -0.238281 0.061799522 -0.3478363 0.2903405 -0.3490858 0.2001271
-0.34600618 0.17666452 -0.1852216 0.07075779 0.31451306 -0.13186562 -0.0012182823 -0.052090287
-0.34396428 0.2813776 -0.07527743 -0.08400793 -0.14405079 0.16726145 -0.19078575 -0.18231627
0.2806678 -0.27511987 -0.34283125 0.09389593 -0.12547821 -0.16025005 -0.06982553 0.30027512
0.09342921 -0.3182752 0.14264978 -0.3426719 0.113887504 0.053061884 -0.30231392 0.1701842
0.080486946 0.32150558 -0.110669985 0.22414465 0.04589436 0.34816596 -0.29662758 0.24144061
-0.15717214 -0.2500372 -0.2591874 0.1192562 0.14107473 0.021494122 -0.009670948 -0.14282723
0.31385145 0.051067892 0.152224 -0.1585066 -0.2987054 -0.26283917 0.28860584 -0.100028604
0.008664007 -0.35552675 0.06579486 -0.086769745 -0.03575778 0.016849456 0.24657035 -0.08421757
-0.21867566 0.31189805 0.34926122 0.3342227 -0.313469 -0.061216906 -0.1932286 0.19863164
-0.0022553888 0.12885587 0.32987997 0.2632377 -0.083032295 0.24271739 0.28267917 -0.16844343
0.017558286 -0.26192203 -0.14155398 0.13527685 -0.006259059 0.299452 0.33800992 -0.09962939
-0.11180758 -0.251319 -0.0068380977 0.051561717 0.12671481 0.12953986 0.11190983 -0.065040916
-0.098245546 -0.21157748 -0.217366 -0.31755298 -0.2627806 -0.18776245 0.17046696 -0.04071132
-0.2022122 -0.1952507 0.3182028 -0.07002105 -0.05030834 -0.3504172 -0.30806592 -0.25719067
-0.08853278 0.039575115 0.34594724 -0.17122526 -0.033586908 -0.1180647 -0.3161342 0.14112815
0.29861316 0.01689433 0.03387752 -0.26723158 0.19491251 -0.12652346 -0.12812461 -0.26315525
0.21869212 -0.24639043 -0.0300262 -0.34495178 -0.15929908 -0.12571709 -0.29130378 0.2150504
0.274429 0.062322024 -0.30830958 -0.15963686 0.15608121 -0.145564 0.111881174 -0.15804371
-0.09136675 0.07366044 -0.12253619 0.002633255 -0.14511877 -0.27995765 0.31896207 0.31122544
-0.16105124 0.23658113 0.1444127 0.1365422 0.34199673 -0.045542296 -0.042624008 -0.28597906
-0.093042225 0.35034388 0.30819708 -0.008437106 -0.23012997 -0.17365713 -0.15621732 0.2985501
0.017393602 -0.31987804 -0.30808413 -0.08011108 0.031271916 -0.2513979 -0.2950905 0.25451323
0.3282725 0.03687849 0.022737935 0.3157474 -0.096223995 -0.2916561 -0.2358116 0.27684647
-0.191035 0.2845044 0.31377766 0.12115053 0.16301936 -0.0804341 -0.24855421 -0.17781608
-0.17229354 -0.20735008 -0.30829293 -0.24283111 -0.16550788 0.090900905 0.15746439 -0.1831649
-0.036725923 0.0040151915 -0.18486811 -0.37258476 -0.16613619 -0.25093395 0.032854613 -0.32178822

proj.bias f4 [32]
00000000: 8e19 293e 37a8 06be 4c0b 9f3e 3aae 183e
00000010: 2c86 a9be 41a2 a3be 487d 9bbe 9860 37be
00000020: c79c 4abe 0f3c d43d 6bb7 a2be 415d a4be
00000030: 9d49 26bd 3f15 9d3e 7ab7 f63d 8c30 5f3a
00000040: 249d 98bd 61ba 94be 61e7 923e b744 393e
00000050: dce5 b03e 2d4c 6fbd 9a5e 1cbe 903f 3abe
00000060: e84b 4cbe bf06 d6bd 6315 8fbe b63d 1e3d
00000070: f2a0 efbd 9cc9 803e 6d9f ac3c f3a9 913e
0.16513655 -0.13150106 0.31063306 0.14910212 -0.33110178 -0.31959727 -0.3036902 -0.17907941
-0.19786368 0.10363018 -0.31780562 -0.32102397 -0.040597547 0.30680272 0.12046714 0.0008514009
-0.07451847 -0.29048446 0.28692153 0.18092619 0.3455037 -0.058422256 -0.15270463 -0.1818831
-0.19950831 -0.104505055 -0.27946004 0.03863307 -0.1170062 0.25153816 0.021072114 0.28449973

EiLM.0.gamma_generator.weight f4 [1, 32]
00000000: b0ad 84bd 554a f9bd 16f6 efbd f921 613c
00000010: adba 373e 0a5a b0bd 2f8c a63d d5fb a6bc
00000020: bf83 39be e267 153d 658b 18bd 010c 243d
00000030: ffed 45be aec1 1dbe e905 4138 9ac8 b4bc
00000040: 4c3d 9e3d e241 3f3e cd0b 54bd d3f0 013e
00000050: 272c b5bd cf1d 8abc 6f10 1fbe 3c5a 133e
00000060: d114 0fbe 9a61 95bd d872 123e 6a63 6abd
00000070: 7cdc 09be 7fcd e6bd 9529 fd3d 9019 223d
-0.06478441 -0.12172381 -0.11716859 0.01374101 0.17942305 -0.086109236 0.08132207 -0.020383755
-0.18116663 0.036476023 -0.037242312 0.04005051 -0.1932907 -0.15405914 4.602029e-05 -0.02206831
0.07726535 0.18677476 -0.051769067 0.12689523 -0.08846312 -0.016859917 -0.15533613 0.1438989
-0.13972785 -0.07294007 0.14301622 -0.057223715 -0.13463014 -0.11269664 0.12361447 0.03957516

EiLM.0.beta_generator.weight f4 [32, 32]
00000000: 2110 20bd 30ef 823d ea66 21be f4a4 00be
00000010: e0e2 1d3d 15bb cd3b 74a1 083c d81f 713d
00000020: 435e f43c dd1d ab3c ba05 1abe cda9 de3d
00000030: 84b9 d33d 6838 a4bd 5885 1bbe bf93 1bbe
00000040: 61fd cf3d fdfe df3c b22a 1abe 0e72 0dbe
00000050: 7a5e adbd 0915 60bd 88dc 013e 7422 06bc
00000060: f40d 1ebe 6dc2 1d3d 5f30 2e3e 37e8 c93c
00000070: 43f6 ddbd c947 ebbd cac8 db3d a30d 27be
00000080: 3619 22bc 0ebb 33be c62c 203e 227a ebbd
00000090: 6c9b c63d 2b0b 09bd 6168 cebd 2dfc 283d
000000a0: c393 503d 5acb 8dbd f46b 14be c1ed ac3c
000000b0: 0ca0 6cbd 9636 f2bd 5720 f43d 8860 9ebd
000000c0: e261 12be 03e1 2f3e 42c2 d33d 0aa4 18be
000000d0: fef2 2fbe c27c 8a3d fdad 053e acff 113c
000000e0: 3b9e bdbc 3063 683d c6ba c63d 9110 db3d
000000f0: d671 bfbd 0123 19be b797 0c3e fc2c 13bd
00000100: b47d dbbc da30 9bbd 5a6d fd3d 2161 9c3d
00000110: e508 953d 9e07 4bbd a8d0 f9bd 67d9 15be
00000120: ee24 113d 2947 d93d f578 333d 564f 0e3a
00000130: 64a1 923d d069 ddbd bb4a ae3d 7c29 073d
00000140: bdb8 b7bd 1467 853d 4979 953d 53c0 fdbd
00000150: 1041 6c3c 9ed8 3c3c fc86 d43c 3d88 c7bb
00000160: 21b3 c5bd 30f8 b33d 05d1 cc3d f585 9abd
00000170: ab29 10bc 2848 eabd c709 52bb f32a 18be
00000180: af8d b83d 8bba 1ebe 5c26 e83d ace9 acbd
00000190: ce97 aabd 995c 0fbe 9c16 433d 7d19 88bd
000001a0: 2da7 5abd 92b2 773d 120e 27be bde0 ed3b
000001b0: 423b 4abd 0692 a3bd 6a2e 003e 63c7 123e
000001c0: d26f a4bd 6eb5 cebd a13c 01be 1ba9 f5bd
000001d0: 62a3 b7bc 6bd3 853d 5a18 be3b 3139 00be
000001e0: 3b9f afbc 21ed 13be 06e6 e23d 800a 5b3d
000001f0: 5ef6 253e 96aa 9b3b a3b4 3e3d 5c73 14be
00000200: 9cb7 863d 8e9a 233e 8da4 603d 120a 28bd
00000210: 844c 7c3d 2a17 1abe df5f a53d 0082 5fbd
00000220: ccef af3d 281d 02be e7d6 d73d e538 873d
00000230: 8c67 22be 340f 9bbd 8437 173d f7e3 193c
00000240: 6069 1b3e 6b33 1a3e ecf4 983c e82e a83d
00000250: 18b6 e43c 18e0 f93d 6c4c 36bc b099 19be
00000260: d23b 9bbc 5f1b 8f3c a530 023d 52a1 fe3d
00000270: c150 ba3b 23db 143e 0c54 6c3c 34b5 91bd
00000280: 5233 49bd 4417 ba3d 191a 1ebe 3874 20be
00000290: 83f5 72bd f8b8 103e ebdd 32be 55f1 94bc
000002a0: 6661 cc3d dcb8 91bd 904c 1e3d e198 263e
000002b0: 7495 d2bd 1d48 043d 0edf e73c 9144 393e
000002c0: e411 0dbe cde9 1c3e 9b82 f43c 0b82 0dbd
000002d0: 7fb8 1cbd 31d6 eb3d fba7 833d b9d4 303e
000002e0: d7c7 193e 86da 02bd ef29 12ba a7a3 8e3d
000002f0: b8f5 80bd 0916 163e f3ad 0fbe 6389 fc3d
00000300: e03b 1b3d e27a acbd 30c4 843d 01fc 22bd
00000310: 7641 923c e894 433d c542 013e 9490 d23d
00000320: 1584 21be ea6e 213e 3e54 d9bc cf7c f1bc
00000330: c2b5 673d 96b1 1c3e 4070 213d 94d0 f0bd
00000340: 97f4 09be ebee b53d 7430 76bc 0afa 30be
00000350: 9662 9fbc 2867 d93c fcf9 3bbd 1483 2bbe
00000360: 33f3 12be 323a e93d 5624 81bd b9df 1b3e
00000370: 2a1c 1c3e ba6e ddbc 604a 8c3c c97f 0fbe
00000380: 6f95 233d 59fe b0bc 522e 64bc cc88 853d
00000390: 761b 243d b54f 5abd e510 08be 9e3b 9fbd
000003a0: 9e63 2a3d be50 e3ba 1585 9b3c 08d9 cd3c
000003b0: b0d5 1bbe 51e8 14be fe28 07be e26c 21be
000003c0: 9211 483d 03f9 fbbd 279f 183e a179 0b3e
000003d0: 3b2b d73b ba35 1ebd c454 2f3c 18dc 10be
000003e0: 88c1 8fbd faf7 febd 0920 eebd ac0b a1bd
000003f0: d41f c73d 2fb5 0a3e 6477 a1bd 201b f03d
-0.03907788 0.06393278 -0.15761915 -0.12562925 0.038546443 0.0062784054 0.008339275 0.05886826
0.029830104 0.020888263 -0.15041247 0.10872231 0.10338119 -0.08018571 -0.15187585 -0.1519308
0.1015575 0.027343268 -0.1505535 -0.1381304 -0.084652856 -0.05470756 0.12681782 -0.008186925
-0.1543501 0.038515497 0.1701064 0.024646861 -0.10837986 -0.11488301 0.10731657 -0.16313796
-0.009893706 -0.17551824 0.1564208 -0.11497904 0.09697613 -0.033457916 -0.100785024 0.04125612
0.050922167 -0.06923552 -0.14494306 0.021109464 -0.05776982 -0.11826818 0.11920231 -0.077332556
-0.14295152 0.17175679 0.10339786 -0.14906326 -0.17182538 0.06762077 0.13054653 0.008911055
-0.02314674 0.056735218 0.09703593 0.10696519 -0.09347884 -0.14954759 0.1372975 -0.035931572
-0.026793338 -0.07577677 0.12374373 0.07635713 0.07277087 -0.04956781 -0.12198001 -0.14633714
0.03543561 0.10609276 0.043816525 0.0005428692 0.07159689 -0.10811198 0.085103475 0.032998547
-0.08970783 0.06513801 0.07298524 -0.123901986 0.014419809 0.011526255 0.025943272 -0.006089239
-0.09653307 0.087875724 0.10000805 -0.075450815 -0.008798997 -0.11439544 -0.0032049285 -0.14860134
0.09011399 -0.15500848 0.113354415 -0.08443007 -0.08329736 -0.14000167 0.047628984 -0.066454865
-0.053382087 0.060473032 -0.16313961 0.007259457 -0.04937292 -0.07986836 0.12517706 0.14333872
-0.080291405 -0.10093199 -0.12620784 -0.11995145 -0.022416774 0.065344654 0.005801243 -0.12521817
-0.021438232 -0.14445926 0.1107903 0.05347681 0.16207263 0.00475056 0.046558987 -0.14497131
0.065779895 0.15976927 0.054844428 -0.04102523 0.06159641 -0.15047899 0.080749266 -0.054567337
0.085906595 -0.12706435 0.10539036 0.06602649 -0.15859812 -0.07571259 0.03691818 0.00939273
0.15176916 0.15058677 0.018671475 0.08212072 0.02791886 0.122009456 -0.011126619 -0.15000033
-0.018949423 0.017469106 0.031784672 0.12433113 0.005685896 0.14536719 0.014424335 -0.0711464
-0.04912121 0.09086469 -0.15439643 -0.15669334 -0.05931617 0.1413306 -0.17467467 -0.018181482
0.09979515 -0.07115337 0.038647234 0.16269256 -0.10282412 0.032295335 0.028304603 0.18092562
-0.13776356 0.15323563 0.029847434 -0.034547847 -0.038261887 0.11515463 0.06428524 0.17268647
0.15017639 -0.03194668 -0.00055757066 0.06964808 -0.06296867 0.14656843 -0.140312 0.12330892
0.037898898 -0.084218755 0.06482732 -0.03979111 0.01785348 0.04774943 0.12623127 0.10281482
-0.15773042 0.15764967 -0.026529428 -0.029478459 0.056569822 0.15302119 0.03941369 -0.11758533
-0.1347221 0.088834606 -0.015026201 -0.17282882 -0.01945619 0.026538447 -0.0458927 -0.16749221
-0.14350586 0.11388053 -0.06305759 0.15222062 0.15245119 -0.027030338 0.017125309 -0.1401359
0.039937433 -0.021605657 -0.013927059 0.065202326 0.04006525 -0.05329867 -0.13287695 -0.07775043
0.04159891 -0.0017342789 0.018984357 0.025127903 -0.15218234 -0.14541747 -0.13199231 -0.15764192
0.04884488 -0.123033546 0.14904462 0.13620616 0.006566433 -0.038625456 0.010701362 -0.14146459
-0.07019335 -0.124496415 -0.11627204 -0.07863554 0.097228676 0.13545679 -0.078841 0.11723924

EiLM.1.gamma_generator.weight f4 [1, 32]
00000000: e434 0cbe 380c d13d b9aa fd3d 8d36 97bc
00000010: 6ef9 623d 7410 2cbe 4d48 a83d 6c02 943d
00000020: 2c9e c63d 985f 6e3d 9d1e 43bd 81a1 08bc
00000030: 112c 193e a4ac 213e 55d0 15bd 1da4 19be
00000040: 9f54 e33c a930 82bd b150 74bd ca67 21be
00000050: b08f 2cbc d25b 02be 8354 423c f7f7 513b
00000060: 4fbc c8bd 13f6 94bd c7ab 053d 3e58 d33d
00000070: 8e8c db3d e5df 243e fcaf 353d a72d c23d
-0.13692051 0.10207409 0.123860784 -0.018458629 0.055413656 -0.16803151 0.08216915 0.072270244
0.09698138 0.058196634 -0.047636617 -0.008339287 0.14958216 0.15788513 -0.036575634 -0.1500401
0.027750311 -0.063569374 -0.059647266 -0.15762249 -0.010532305 -0.12730339 0.0118609695 0.0032038668
-0.09801542 -0.072734974 0.032634523 0.10319565 0.10720168 0.16101034 0.044357285 0.09481364

EiLM.1.beta_generator.weight f4 [32, 32]
00000000: 959d 453d a99e 0fbe 883a 0e3e b1a2 e5bc
00000010: 6fbf e0bd 722b 72bc d6e3 3fbc ebdd 68bd
00000020: 1659 bbbd 1517 68bd 78f9 b93d 77a3 2cbe
00000030: 6b7a b13d acb7 09be e6eb f2bc 1239 b93c
00000040: 13ae 07be 3a32 19be a3a8 0ebe 0def 193e
00000050: a50b 873d 12aa ecbd 1cb5 203e 7fba e0bc
00000060: 22db 2e3e 903b f4bd 219f 18be b1a3 d8bd
00000070: 8f0b 0e3e 9efd 9ebd b8e2 113e a702 be3d
00000080: 64fc b63b 7932 1abe 2833 dbbd 0393 d93c
00000090: dcb5 24be 6eb3 233d 7dd4 453d ee4c 4a3d
000000a0: 7ea2 a8bd 954b 1b3e 0745 bdbd 9092 c3bb
000000b0: dc44 66bd 4439 5cbd 4e59 cfbd 9525 21be
000000c0: 082a 293e c0da b7bd ff24 86bd f3b0 a5bd
000000d0: ba73 e5bc 8562 b3bd 04c8 e83d 7685 5c3d
000000e0: 47f4 8c3d cee2 c93d 9675 d33d 93f6 1f3d
000000f0: 962f 9bbd 839c 203d 8af9 0bbd b0d4 c9bd
00000100: 89a2 47bd b234 4f3d 5626 b4bb 9fe3 073e
00000110: 8f67 3cbe 72f5 bc3d a278 e0bd c1e1 21bd
00000120: d6bb 96bc 7188 9f3d 0edf 7cbd 294b 8e3d
00000130: 5e1d 8e3c 147a 06be 448a 193e 2b66 163e
00000140: d786 f03c 7108 03bd bda7 fd3d fd23 94bd
00000150: 461c c33c e284 9abd 3d83 113e bf44 02be
00000160: 37e1 343e f79c d6bd 8e75 b83d 0a47 ecbd
00000170: 8086 17be 21a2 e3bc 78e2 923d b2dd 9a3c
00000180: 6d2a 923d da98 d73d 820c 24bd eb97 a8bc
00000190: f2eb 13be 5f0d ce3d 4379 3b3d febb 7ebd
000001a0: 69da 893c fdc7 a6bc 3fa6 0ebe 7a94 f8bd
000001b0: 623c 01be 90b5 9ebd 60ba e03d d581 f5bd
000001c0: 6b5e 03be 3c88 16bd 3891 bfbd 83fa c8bd
000001d0: 1f79 8abd 1f07 f23d 2be0 12be 8e83 1d3d
000001e0: edaa b038 a2f2 b7bb cc3a 733d 96ab d83d
000001f0: 7dd7 f83d 5dd7 8cbd 2560 0cbc d682 24be
00000200: 8990 1f3d 3f08 11be cc4a 91bc 7dd6 4fbd
00000210: cbe8 2a3e b4f9 1bbc 5cf9 cb3d a60e 17be
00000220: 0507 24be 8e5e 433c 7d8f 4cbd 4497 cb3d
00000230: 0d8e 0e3d 8ca0 503d dc99 01be 2f8f 5abd
00000240: 6f3c 97bd 2ead 173e 235e b4bb 0904 c5bd
00000250: 1220 313d d5dc 6bbd f7e5 21be db9e 273c
00000260: f7d3 bf3d a9ab 0a3e 9fd3 2d3e f1fc 82bd
00000270: c28f 1fbe 1270 47bd 4488 dfbd 5bdf 133e
00000280: b8c9 1bbd 7678 b33d 0ab9 dc3d 617c ca3d
00000290: 3ebf 1fbe fbb7 273e 1c5c 6cbc 41fe 2b3e
000002a0: b157 733d 6f38 0b3c aae5 0dbe 3c4d ff3b
000002b0: 8645 153e 1831 e83b f583 14be da43 95bc
000002c0: 533f c93d c9c4 07be 4975 5a3c 1fe1 d63c
000002d0: 61a3 e7bc 6619 5c3d a4df 07be dc5e b93c
000002e0: 9139 6c3d ad1a 13be c48d 3cbe 0982 23be
000002f0: 9114 8abc 895b 06be ed51 ebb7 c93c 2f3d
00000300: 5b98 8bbd 39a9 ec3d baff ec3d c098 0b3e
00000310: 95a5 33ba eeed 8e3c 0aae 04bd b457 f7bd
00000320: 6ea5 4e3d 2dea 56bd b633 b63c 3b04 babc
00000330: 36cf 22be 43dd d73c 4c1c eabc 9bee 183e
00000340: c783 2b3e e6f5 093e eba0 973d ce5c 0cbe
00000350: 657a b03d b8e2 0cbd e809 acbd b2c9 0d3e
00000360: 5a5a 1fbe bfd8 333d 1611 293c ac60 10bc
00000370: 17d7 9ebb 49a3 653d f41f d73c a850 f43d
00000380: 7b5d 79bc aa30 03be 3334 f8bd aadb b13c
00000390: 719a 2abe f984 653c 65ad 92ba 522c b0bd
000003a0: 9b99 833c 7385 3c3d 65ac c3bd 412a e9bd
000003b0: 4e77 143e 2a49 9ebb e902 1dbe 8937 243e
000003c0: d894 8dbd 699c 27be 825d bcbd b054 b13d
000003d0: 7956 a2bd 3117 053e 19bb 8c3d 493b 12be
000003e0: 504b a43c e820 1abe 24ec b93d af0b 14be
000003f0: 3701 1bbe 9faa 0fbe d21a 0d3e 3f16 09be
0.048245985 -0.14025368 0.13889515 -0.028031679 -0.10974013 -0.014780866 -0.011712035 -0.056852262
-0.09147851 -0.056662638 0.090807855 -0.16859232 0.086659275 -0.13448972 -0.0296535 0.022610221
-0.13249998 -0.14960566 -0.13931517 0.15032597 0.06594018 -0.11555876 0.15694088 -0.027432678
0.1707578 -0.11925423 -0.14904453 -0.10578097 0.13871597 -0.077632174 0.14246643 0.0927785
0.0055842865 -0.15058316 -0.10703117 0.026559358 -0.16084999 0.03996604 0.048298348 0.049389772
-0.08234118 0.15165551 -0.092416815 -0.0059683993 -0.056218013 -0.05376555 -0.101244554 -0.15736993
0.1651994 -0.0897727 -0.06550025 -0.08090391 -0.028009284 -0.087590255 0.11366275 0.053838216
0.0688253 0.09857713 0.10325162 0.03905351 -0.07577436 0.03921176 -0.034173526 -0.0985502
-0.04873899 0.050587364 -0.005497734 0.13270424 -0.1839888 0.092265025 -0.10960509 -0.039521936
-0.018400114 0.07789696 -0.06173616 0.069479294 0.017347988 -0.13132507 0.1499415 0.14687411
0.029361172 -0.031990472 0.12385509 -0.07233427 0.023817193 -0.07544877 0.1421022 -0.12721537
0.17664038 -0.104791574 0.09006797 -0.11536987 -0.14797401 -0.02778727 0.07172102 0.01890454
0.07136998 0.10527201 -0.04005099 -0.020580253 -0.14445475 0.10061144 0.04576994 -0.062191002
0.016827779 -0.020359034 -0.13930605 -0.12137695 -0.1262069 -0.07749474 0.10973048 -0.11987654
-0.12828986 -0.036751017 -0.0935387 -0.09813406 -0.06761383 0.118177645 -0.14343326 0.03845554
8.4241714e-05 -0.005613641 0.059382245 0.105796024 0.12150476 -0.06877015 -0.0085678445 -0.16065535
0.0389562 -0.14163302 -0.017735861 -0.05074166 0.16690366 -0.009519983 0.09959671 -0.14751682
-0.16018303 0.011924399 -0.04994153 0.09940961 0.03480344 0.05093436 -0.12656349 -0.053359207
-0.07384574 0.14812157 -0.005504386 -0.0961991 0.043243475 -0.05758365 -0.15810381 0.010230745
0.09366601 0.13542046 0.16975258 -0.06395901 -0.15582183 -0.048690863 -0.109146625 0.14440672
-0.03803417 0.087632105 0.10777481 0.09887005 -0.15600297 0.16378777 -0.014426257 0.16796209
0.0594098 0.008497342 -0.13857141 0.0077911895 0.14577302 0.0070859306 -0.14503463 -0.01822083
0.09826531 -0.13258661 0.013333627 0.026230393 -0.028276147 0.05373516 -0.13268906 0.02262824
0.057672087 -0.14365645 -0.18413454 -0.15967573 -0.01685551 -0.13120855 -2.8052333e-05 0.04278258
-0.06816169 0.11555714 0.115722135 0.13632488 -0.0006852982 0.017447438 -0.03239254 -0.12077275
0.050450735 -0.05246942 0.022241455 -0.022707095 -0.15899357 0.026350623 -0.028577946 0.14934771
0.16749488 0.13472709 0.074037395 -0.13707277 0.08617095 -0.034395903 -0.08400327 0.13846472
-0.1556181 0.043907877 0.010319015 -0.008812111 -0.004847418 0.056063924 0.026260354 0.119294465
-0.015220041 -0.12811533 -0.12119331 0.02171119 -0.16660477 0.014008754 -0.0011190592 -0.086022034
0.016064456 0.046025705 -0.09554366 -0.113850124 0.14498636 -0.004830499 -0.15333141 0.1603681
-0.06913155 -0.1636826 -0.09197523 0.08658731 -0.079266496 0.12997128 0.068716235 -0.14280428
0.020055443 -0.15051615 0.090782434 -0.14457582 -0.15137182 -0.1402993 0.13779762 -0.13387392

EiLM.2.gamma_generator.weight f4 [1, 32]
00000000: 3b6e 40bc 5993 52bd 5ca8 113e 8055 65bd
00000010: df5b c13c 67b1 fd3c e20f 06be e12a b23d
00000020: 4ed3 733d 33e6 5dbd bbf6 623d c81d 19be
00000030: 13e4 313e 3e1f 453e e8b6 1fbe f933 23be
00000040: 55a1 fe3d 514b 533c 04d6 a9ba 41c9 cd3d
00000050: a656 953d ae2f aabd 45f7 343e cb1b b0bc
00000060: c3a3 fdbd 28ee 89bd 9167 f9bd 8b0d 3bbd
00000070: 3551 533d aaa6 8ebc b475 04be d55d 0abe
-0.011745031 -0.051410053 0.1422438 -0.055989742 0.023603378 0.030968381 -0.13091996 0.08699585
0.059527688 -0.054174613 0.05541108 -0.14952767 0.1737216 0.19250199 -0.15597117 -0.15937795
0.124331154 0.012896375 -0.0012957458 0.10048152 0.072919175 -0.083098754 0.17672451 -0.021497628
-0.12384751 -0.06734878 -0.12177957 -0.045667212 0.051591117 -0.017413456 -0.12935525 -0.13512357

EiLM.2.beta_generator.weight f4 [32, 32]
00000000: 25d3 d13d fa29 523c d80e 213e d778 29be
00000010: 6564 13be bab1 18bd a99b bb3d 123b c3bd
00000020: d20c 2abe d2aa d33d c56b 03be b0e8 253e
00000030: 0156 cebd e660 01be 1580 90bc e106 923c
00000040: b050 273e 88c9 373b 9a46 2fbe f057 30be
00000050: 3000 09be 8213 e8bc 867b ae3d af1a bdbd
00000060: c6c2 bbbc 8b00 f43d 8716 5b3a 4ec1 e4bd
00000070: 8e78 d8bd 1379 40bd 3337 b43d 350a e3bd
00000080: 737f 3d3d d51d 143e 32e7 21bd 820c 81ba
00000090: cad7 bdbd 77bb 80bd 3923 e53d 3f10 603c
000000a0: a179 193e affe 16bd 2928 083e c46a 2e3b
000000b0: d801 333e 0055 dabd b9d1 2a3e a879 84bd
000000c0: 5f73 c9bd 9e3e 233d 1d58 8dbd 1347 103e
000000d0: c367 05be 7d56 243e 2464 2b3e 65c1 74bb
000000e0: b893 933d 6018 dd3b 46d5 05be e81e 8fbd
000000f0: 4cfb 2b3d 05ba 30be e4c9 8a3d 25c9 4dbd
00000100: 09d7 523d 506e c93c 800d 333c 48a8 f2bc
00000110: 96ed 1c3d 60ba ef3d c417 77bd abfe 6d3d
00000120: c099 033e eba4 24bd 3fba bebd 8d8a 253e
00000130: a3c9 e2bc 919b ee3d f7ea d83d 12d6 e53d
00000140: 4475 aabd c6f8 01be 5216 5ebd 5b9a a13d
00000150: c85b 113e a438 d03c f70f 173e 4677 b4bd
00000160: ac05 2dbe 9e82 1c3e 19c8 dfbd 1c00 27bc
00000170: 5b18 25be 6a1a 33be 9504 0e3d 96ac 34be
00000180: 80ee 8a3d 1a54 b73b f791 a43d b145 c33d
00000190: 3d66 e03d f49d b8bb e2f7 a63d 18ca 2cbe
000001a0: e0fa 153d 410c b23d d0e3 f1bb bf77 df3d
000001b0: d4d8 0d3e 90f4 183e 7094 033e f607 343c
000001c0: 58c9 cdba 008d b8bd a795 6b3d f4a6 8f3d
000001d0: 955f cfbd 5f55 123e f3af 3b3d e0e4 5abd
000001e0: b306 3ebd 3eca 1d3d 2838 7cbd 2621 6f3d
000001f0: f2bb b73c 7259 8a3c de27 d53d 0403 9cbd
00000200: 4762 32be fc28 edbc 2e68 2ebe a4d2 383d
00000210: 1682 223e c288 d0bd 3508 17bc fdd3 053e
00000220: e655 b8bd dd3a 343d 31c9 833c 49a4 b4bd
00000230: d87d 183e a600 233e 7e92 903d 5565 1dbe
00000240: d889 30be cf17 08ba e99e 22bd c842 df3c
00000250: aa3d cfbd c300 24be c992 e8bd b94d bcbc
00000260: defc 62bc 0802 a23d 98c7 483d 049e 5cbd
00000270: a95f b5bd a3c6 b93d c043 d1bd 7c49 283d
00000280: b6bf 27be 8070 443c c719 17be f538 16be
00000290: 94fc 3ebd c0b3 ebbd da06 033d 5f33 ed3c
000002a0: 66c7 6d3d 1b03 f63a e6d7 333e 0eaa 123d
000002b0: 2a2a 433d 2bc8 2e3e d6eb f8bd f6b2 60bd
000002c0: e317 cdbd a6f4 80bd ab80 ac3d fbb7 30be
000002d0: f5ad 41bd b991 2dbe 3f6a 32bd 90cb 25be
000002e0: 065a 35bd bb61 85bd 75d0 273e f521 a8bc
000002f0: 0943 b1bd 096e b8bd 3707 d93d e66f 2cbe
00000300: b113 013e 9852 1ebe 2f9b 7f3d f7ab 6ebc
00000310: bd0e ba3d f9a7 c9bd cf0f adbd 8e42 02be
00000320: 769f f439 153c 22be ae96 5dbd 5910 9cbc
00000330: 9207 293e 7e1b efbd 4e5a debd e41a bdbd
00000340: ea16 ea3c aebe 743d 8e7a 463c 0c4c 7a3c
00000350: c599 c63d 9127 533d 1821 38bd 01af 0bbd
00000360: 5b4c d6bc fa3c 5dbd 4f04 9abd 3dfd bebd
00000370: 057e f53d d1df 063e def7 72bd a3cf 94bd
00000380: e92f 48bc c81b 34be 9781 3fbd f539 ea3d
00000390: 29fe a43d b49f 75bd 1af9 253e 3c7b ebbd
000003a0: c781 043e eae5 133e 659f 17be 887d 133d
000003b0: af49 073d 182a 303e 1348 283e 77b3 ecbd
000003c0: 2e2a 1dbe 2cbb 113d 6479 1d3e 7737 1f3e
000003d0: 85fb 323e 8d92 93bd 7860 9e3d 7394 513d
000003e0: b7d6 a13a f0e4 b6bc d2f2 29be c865 17bc
000003f0: 2443 203e 8033 203c 96f3 ff3d 17e9 28be
0.10245351 0.012827391 0.15728319 -0.16550003 -0.14393766 -0.03727887 0.09160549 -0.09532751
-0.16606453 0.10335316 -0.1283408 0.16202044 -0.10074998 -0.1263462 -0.0176392 0.017825546
0.16339374 0.0028043706 -0.17116776 -0.17221045 -0.13378978 -0.028329615 0.08519654 -0.09233605
-0.022920024 0.11914166 0.0008357544 -0.111696824 -0.10569869 -0.046990465 0.08799591 -0.11085931
0.046264123 0.14464505 -0.039527126 -0.0009845647 -0.09269674 -0.06285756 0.11188359 0.013675748
0.14987804 -0.03686398 0.1329657 0.002661393 0.17481172 -0.10660744 0.16681565 -0.064685166
-0.098364584 0.03985464 -0.06901572 0.14089613 -0.13027863 0.16048618 0.1673742 -0.0037346717
0.072059095 0.0067472905 -0.13069639 -0.06988317 0.041987702 -0.17258461 0.06776789 -0.050240654
0.051474605 0.024588734 0.010928512 -0.029621258 0.038312517 0.1170547 -0.0603254 0.0581042
0.1285162 -0.04019634 -0.093128674 0.16166134 -0.027684039 0.11650766 0.10591691 0.11222471
-0.08323148 -0.12692556 -0.054220505 0.07890769 0.14195168 0.025417633 0.14752184 -0.08811812
-0.16896695 0.15284202 -0.109268375 -0.010192897 -0.16122572 -0.17490545 0.03467234 -0.17643961
0.067837715 0.0055947425 0.08035653 0.09534777 0.109570004 -0.005634064 0.08152749 -0.16873968
0.036616206 0.086937435 -0.0073818937 0.10911512 0.13852245 0.14937043 0.12849593 0.010988226
-0.0015700264 -0.090112686 0.057515766 0.07014266 -0.10125653 0.14290379 0.045822095 -0.05344093
-0.046393108 0.03852295 -0.061576992 0.058381222 0.022428486 0.016888354 0.10407995 -0.07617763
-0.17420302 -0.028950207 -0.17031929 0.045122758 0.15869936 -0.101823345 -0.009218265 0.13069148
-0.09000759 0.04400145 0.016087146 -0.088203974 0.14891756 0.15918216 0.07059191 -0.15370686
-0.17240083 -0.0005191536 -0.03970233 0.027253523 -0.10119183 -0.16015916 -0.11356122 -0.02298628
-0.013854234 0.07910544 0.049018472 -0.053861633 -0.08856136 0.0907109 -0.102180004 0.041085705
-0.16381726 0.011989713 -0.14755927 -0.14670165 -0.046627596 -0.11508894 0.031988956 0.02895516
0.05805149 0.0018769236 0.17562827 0.035806708 0.047647633 0.17068546 -0.12154357 -0.05485817
-0.10014322 -0.06296663 0.08422979 -0.17257683 -0.04728504 -0.1695012 -0.043558355 -0.16190934
-0.044275306 -0.06512781 0.16388114 -0.020524004 -0.08655364 -0.090053625 0.10597079 -0.16839561
0.12605168 -0.15461195 0.062403854 -0.014567367 0.09084842 -0.09846491 -0.08450281 -0.12720701
0.00046658114 -0.15843232 -0.054098777 -0.019050764 0.16506794 -0.116751656 -0.10857068 -0.092336446
0.02857538 0.05975216 0.01211418 0.01527692 0.09697298 0.051551405 -0.044953436 -0.034102444
-0.026159456 -0.05401323 -0.07520353 -0.09325645 0.11986927 0.13171317 -0.059318416 -0.07266166
-0.012218454 -0.17588723 -0.046754446 0.11436836 0.0805629 -0.059966758 0.16208306 -0.114981145
0.12940131 0.14443174 -0.14806898 0.036008388 0.033029255 0.17203557 0.16433744 -0.11557668
-0.15348122 0.03557889 0.15378338 0.15548502 0.1747876 -0.07205687 0.07733244 0.051166963
0.0012347315 -0.022325963 -0.16596535 -0.009240575 0.15650612 0.009777904 0.12497632 -0.16495167

EiLM.3.gamma_generator.weight f4 [1, 32]
00000000: 2a84 1b3d a686 52bd ac68 183e 828d 3a3d
00000010: 7648 00be 9876 29bd 7c12 0ebe c663 903c
00000020: 59b1 4fbd 51b9 18be 5928 a7bd 2ef3 1f3d
00000030: 8fd0 183e 2b03 143e 01be 30be 1703 a7bd
00000040: 6cf5 e1bd 6de1 ecbb c456 f33d a1cf cf3d
00000050: 17e1 713d db6a bfbd 8e32 dabd 61cb 363c
00000060: cddc c53d 0369 183e a55b 07be 9361 153e
00000070: c825 f23d 3f7c 4cbd 1b3d cbbd c2ce 823d
0.03796784 -0.051397942 0.14883679 0.04554511 -0.12527642 -0.041372865 -0.13874239 0.0176257
-0.05070624 -0.14914443 -0.081619926 0.039050274 0.14923309 0.14454333 -0.1725998 -0.08154886
-0.11033139 -0.0072290213 0.118817836 0.10147024 0.059052553 -0.09346553 -0.10654174 0.011156888
0.09661255 0.14883809 -0.13218553 0.14588003 0.118236125 -0.049923178 -0.09923764 0.06387092

EiLM.3.beta_generator.weight f4 [32, 32]
00000000: e964 2fbe 27bf 2c3e 2504 833d c47d ac3b
00000010: c1a2 283e 45cf 20be 692e 12be 378a f1bc
00000020: c69b 293e 87c8 623d d3f0 2ebe b053 80bd
00000030: 2580 093e 86ef 853d 0c89 1e3c edf4 0bbe
00000040: f85f f9bb 813d a5bc 0928 2cbe 62ce e53c
00000050: c47f ee3d 99a2 f8bd 1c7b d7bd 7221 35bd
00000060: 6fec 3cbd bd65 09be ee84 08be 2e81 8bbd
00000070: bbde 17be e1f6 91bd d7e3 7fbc e0f5 123e
00000080: b1e2 e63d a467 3ebd fe84 eebd 6f81 b93c
00000090: f4e2 1dbe 9ae6 1a3e a7d4 a0bd 3bc4 353d
000000a0: c02e 1abe 4c3f ec3d 767e 293d ce04 263e
000000b0: 63ec edbd 7c8d c2bd 05a9 183e e24c 313d
000000c0: 47c0 bebd d4f3 be3d 58a9 8c3d 9641 fdbd
000000d0: baa4 00be e84f 883d 6ab6 d8bc e8c7 dc3d
000000e0: 1a58 a3bd 464f 7f3d be4e 60bd d7f7 bbbd
000000f0: a6fd 04be 6b40 d03d 23c9 2a3e bb1c 153d
00000100: 3570 043e 4f9a b33d c619 343e 0857 5b3d
00000110: 96f3 3cbe e068 1ebe b1d5 823d 0d1e 6fbc
00000120: 6107 833d 8a12 0fbe 9b40 d6bd 3aa6 37be
00000130: 68ff e9bd e294 08bc fda3 c33d 341d 383d
00000140: c318 bbbd bc14 27be 9cf4 e2bd 5955 acbd
00000150: 7c4c babd 71c3 17be 5235 f33d 138b a1bd
00000160: 62be 8b3d 3b71 8d3c 0247 0b3e 1068 1cbe
00000170: 3e4d 58bc bb9f ad3d 6419 b7bd dbce 10be
00000180: 266e 873d 290f 953d bee4 293e f47e 0ebc
00000190: 7988 273e 0d12 363e 8e70 f8bd 8cc6 1cbe
000001a0: 5fda e53d becf 0d3d 9b7c 1cbe 5f10 2d3e
000001b0: f44c 703d b0d3 493d 8f01 d2bd 7092 1e3e
000001c0: 9402 1bbe fcbf 09be de8b 22be df72 90bd
000001d0: ae8e 55bd 5e19 21be 46b7 0e3e 8571 e93d
000001e0: 1716 2c3e 986c 67bc 165a 38bd 118c 0cbe
000001f0: 9cb0 a1bd 239c 2fbe e1c3 d8bd 6e97 adbd
00000200: 2386 da3d 552b 023e 9617 27be d635 193d
00000210: 8a1f f83d ebce 30bb b760 29be 3bd6 c0bd
00000220: 03e8 053d 09c9 30be 402f 0ebe 8055 eebd
00000230: 6b74 32be ce95 febd ca6d cd3d 179a 4d3c
00000240: 6998 74bc 1b9c 123e b9d1 08bd 6775 05be
00000250: 72ac ecbb 8a4a 94bc 5c55 b43d 5329 bf3d
00000260: d4d4 18be 889a a13b 26d5 1c3e 5422 13bd
00000270: de70 12bc c040 053d e493 233d c5a6 ecbd
00000280: c5cc 3a3c 3799 19be 3e93 443e fa66 f8bd
00000290: 5143 0b3d d528 27be 95ff 253e 0e02 c1bc
000002a0: 26fc 263e 5633 b8bd 8e83 3bbe 8d53 02be
000002b0: c6a1 1d3e 7e70 413e b154 f4bc 71b3 593d
000002c0: ea4e 1a3e 9144 9a3d 955e 30be 4f98 d0bd
000002d0: 56ee 9d3c aa0e 063e dc32 1fbe 86e0 853d
000002e0: 04f5 393e 77e9 f1bc 4953 ee3c 306a bb3d
000002f0: dc69 273d f318 b93d 1dee 2b3d 9f22 a53c
00000300: be5e cbbd 290a 7d3c 8b4b e2bd b38c 203e
00000310: e480 333e 4f22 ed3d 6e66 3bbe 6595 64bd
00000320: 4ea2 1cbe a2d9 1dbe b3bc 0cbc 9083 87bd
00000330: d179 1dbd 80cb cabd 032f 17be fa10 fdbd
00000340: 6aa6 3e3e 9df9 c33d 7441 d3bd 93d2 003e
00000350: 3ed4 2ebe da5e f03c e745 39bd 41c6 183d
00000360: f3ba 093e 9905 b8bd 3a56 b6bc f06b 04be
00000370: 1576 ea3d ef1f c03d f779 0bbd 9439 fd3d
00000380: 9550 0b3e 5b53 363e d2e5 4ebd a7ce bfbd
00000390: 60cc 373d 2bf1 f8bd 9875 513c 80a9 8bbd
000003a0: aedf 143b 1a09 b5bc cabd 06be 8aa5 103e
000003b0: 3986 1cbe d227 123e 6c78 d3bc e779 183e
000003c0: 20d7 a63d 337c 293e 9d55 9c3d 0da1 07bd
000003d0: 3cc0 97bd 4cd5 363e 90e8 1e3e e3ea de3a
000003e0: 614b 20be f546 143d 310f 16be a094 8dbc
000003f0: 9d9d 203d 25b6 073e f791 bb3d 6b68 143e
-0.17128338 0.16869794 0.06397275 0.005264016 0.16468336 -0.15704067 -0.14275517 -0.029484851
0.16563329 0.05536702 -0.17084055 -0.06265962 0.1342779 0.06539826 0.009676229 -0.1366765
-0.0076103173 -0.020170929 -0.16812147 0.028052513 0.11645463 -0.12140388 -0.10521528 -0.04422135
-0.04612392 -0.13417716 -0.13331959 -0.068117484 -0.14831059 -0.071271665 -0.015618286 0.14351606
0.11273707 -0.04648556 -0.1164646 0.022644727 -0.15418607 0.1512703 -0.0785306 0.044376593
-0.15056896 0.115355104 0.04138037 0.1621277 -0.11617353 -0.09499642 0.14908226 0.04328621
-0.09314018 0.0932385 0.06868237 -0.12366025 -0.12562838 0.06655866 -0.02645417 0.107803166
-0.079757884 0.06233146 -0.054762594 -0.09178131 -0.12987384 0.10168537 0.1667829 0.036404353
0.12933429 0.087696664 0.17587957 0.053549796 -0.18452296 -0.15469694 0.06388415 -0.014594567
0.06397892 -0.13971916 -0.10461541 -0.17934504 -0.11425668 -0.008336278 0.09552763 0.044949725
-0.09135582 -0.16316503 -0.11081812 -0.08414716 -0.090966195 -0.14820649 0.118754044 -0.078878544
0.06823422 0.017265907 0.13601306 -0.15274072 -0.01320201 0.08477732 -0.0894039 -0.14141409
0.06612806 0.07278282 0.16591164 -0.00869726 0.16360654 0.17780323 -0.12130843 -0.15310115
0.112232916 0.034621947 -0.15281908 0.16900776 0.05866714 0.049274147 -0.102542035 0.15485549
-0.15137702 -0.13452142 -0.15873668 -0.0705316 -0.052138023 -0.15732333 0.13937101 0.11398605
0.16805302 -0.014125012 -0.045007788 -0.13725306 -0.07895014 -0.17149405 -0.10584236 -0.084761485
0.10670116 0.12711842 -0.16317591 0.037404858 0.121153906 -0.0026978801 -0.165408 -0.09415861
0.032691967 -0.17264189 -0.13885212 -0.116374016 -0.17427222 -0.12430917 0.10030706 0.012548945
-0.014928916 0.14317362 -0.033403132 -0.13033067 -0.0072227055 -0.01810195 0.088053435 0.09334054
-0.14924937 0.0049317516 0.15315685 -0.03592141 -0.008938042 0.032532454 0.03993596 -0.11555246
0.01140136 -0.14999853 0.19196793 -0.12129016 0.033999745 -0.1632417 0.16210778 -0.02356055
0.16307124 -0.089941666 -0.18311903 -0.12727185 0.15393743 0.18890569 -0.02982554 0.053149644
0.15069166 0.07532609 -0.1722358 -0.101853006 0.019278686 0.13091531 -0.15546745 0.06536965
0.18159872 -0.02953027 0.029092448 0.09151113 0.04087244 0.09037962 0.04197513 0.02015811
-0.0993018 0.015444317 -0.11049565 0.15678672 0.17529637 0.115788095 -0.18300793 -0.055806536
-0.1529629 -0.15415052 -0.008589911 -0.066168904 -0.03844625 -0.09902096 -0.14764027 -0.12356754
0.1861817 0.09569094 -0.103152186 0.12580328 -0.17073151 0.029342104 -0.04523268 0.037298445
0.13450222 -0.08985443 -0.022257913 -0.129318 0.114483036 0.09381091 -0.03405186 0.12364498
0.13604958 0.17805235 -0.050512142 -0.09365588 0.04487264 -0.12155374 0.012784384 -0.06819439
0.0022716331 -0.022099067 -0.13158336 0.14125648 -0.15285577 0.14273003 -0.025814258 0.14890252
0.081465006 0.16551284 0.07633517 -0.033112574 -0.07409713 0.17854804 0.15518403 0.0017007258
-0.15653755 0.036200482 -0.14654233 -0.017282784 0.03921281 0.13253076 0.091587 0.14492957

Gate.weight f4 [4, 32]
00000000: a272 e3bd 93d3 e83d 2f31 ad3d 834b 713d
00000010: f564 e2bd f6c4 5f3c c804 a53d 2792 12be
00000020: 93da 303e 3e7e c0ba 0e99 e4bd 59fd 183d
00000030: 6c42 cebc 8a4e a9bd 5dbb 1fbe 7dad 8dbd
00000040: 657c 0ebe 3f81 90bc 1555 e03d 9f4f a03d
00000050: 67fd 1dbe b777 fc3c fea9 71bd c9ad 41bd
00000060: 76e0 0f3e d6eb 5ebd c55f 193e 55ca 203d
00000070: 7595 153e 1c32 8abc 1ea0 cd3d 12a8 ac3c
00000080: 2b79 a0bd 8c2a 2b3e 909b 9d3d b323 6cbd
00000090: 8080 1d3e e45c 853c 076e 083e 3811 35be
000000a0: 7acd b43d 35a3 42be bdde 0fbe 9eb3 153e
000000b0: 2e9f ac3d 971e ce3d a2ce c13d 97c3 cf3b
000000c0: 3e1e 293e 534c 3c3d 487e 60bd fea5 d6bd
000000d0: 7ea6 00be 4cce c6bd 1655 aebc 9967 75bd
000000e0: b12f 0abe c83f 423d 2c4c 163e c5a4 c83a
000000f0: 5253 d03c 71bb b6bd 701e 31be acb6 a5bd
00000100: f5f9 0cbe 52e1 1cbc 9a03 143e b3ad a3bd
00000110: dab5 213e 909d 863d 7e5a c2bd 1d2a f83d
00000120: 17e4 d73c 281d 153e 715f 32be 37af be3a
00000130: a3d1 e0bc 0344 bf3d d877 2cbd 5280 b3bd
00000140: 98ae b03d 0667 a9bd f206 ca3d 3531 19be
00000150: 9221 f8bd 1bd1 203e 9b33 23be 7f31 b2bd
00000160: 00a8 4b3d ceb3 813d 4bab eebc adc7 7dbd
00000170: 3421 31be 0178 27bd c982 98bb 799a 0a3c
00000180: ef8f f4bd d891 73bd 8c51 41bd 34a7 dcbd
00000190: b2c7 eebd 317d 13be 7cf8 2bbc f0ea 18be
000001a0: b413 22be b0ce bebd 6f14 f23c e675 1abe
000001b0: cfbf 91bd 8346 713d d4bb 213e 90ad 263e
000001c0: 40b7 303e a1bc 82bb 4ad9 0bbe 0ae4 b3bc
000001d0: f4a8 d43d 37a4 2b3d 507a 30bc 7ce0 213c
000001e0: a0fb 43be c914 65bd d961 92bd 85b7 c4bd
000001f0: a54e f4bd 70db 833d 4bca 3cbe 064e f13b
-0.11105849 0.113684796 0.08456647 0.058909904 -0.11054412 0.013657799 0.080575526 -0.14313565
0.1727088 -0.0014686061 -0.11162005 0.037350986 -0.025178157 -0.08266933 -0.15598817 -0.06917856
-0.1391464 -0.017639754 0.10953728 0.078276865 -0.15428697 0.030818803 -0.059000008 -0.047284875
0.14050469 -0.05442413 0.1497794 0.03925546 0.14607795 -0.016869597 0.100403056 0.021076236
-0.07835611 0.16715449 0.07695687 -0.057651233 0.1538105 0.016279645 0.13323222 -0.1768235
0.08828254 -0.19007571 -0.14049812 0.146193 0.084287986 0.10064428 0.0946324 0.006340455
0.16515443 0.045971226 -0.05480793 -0.10480879 -0.12563512 -0.09707317 -0.021280807 -0.05991325
-0.13494755 0.047424108 0.14677495 0.0015307894 0.025430355 -0.0892247 -0.17296767 -0.080914825
-0.13767226 -0.009575205 0.14454499 -0.07992115 0.15792027 0.065730214 -0.09489916 0.121174075
0.026353879 0.14561903 -0.1741922 0.0014548068 -0.027443713 0.09339144 -0.04210648 -0.087647095
0.08627051 -0.08271603 0.09864606 -0.14960177 -0.12115778 0.15704767 -0.15937655 -0.08700847
0.049720764 0.06333123 -0.029134413 -0.061958004 -0.17297822 -0.04088593 -0.0046542627 0.008459681
-0.11941516 -0.05946526 -0.04719691 -0.10774079 -0.116591826 -0.14403225 -0.010496255 -0.14933372
-0.15827829 -0.09316766 0.02955076 -0.15084037 -0.07116663 0.058905136 0.15794307 0.16277146
0.17257404 -0.0039897715 -0.13657108 -0.021959323 0.10383788 0.041904654 -0.010771349 0.009880181
-0.19138956 -0.055928025 -0.07147569 -0.09605316 -0.11929063 0.06438339 -0.18436544 0.0073640374

experts.0.gate_proj.weight f4 [32, 32]
00000000: 142d 06be 4b5e 5c3c 5db4 923b f05e 8bbd
00000010: 5da1 eabd 6e7e a43d aa8d 1cbe cd97 1f3e
00000020: df75 403e 5049 fabd 0d9a 9bbd 7a0c 1fbe
00000030: 03a5 d9bc 557d 88bd 11db 393d 58fa febc
00000040: 91d1 3e3d b485 10be 7fbf 90bc 6c66 e0bd
00000050: f5b9 153e baca 98bd 4139 acbd c494 133a
00000060: ba2e 88bc b571 3cbe d897 d1bd 56d1 5cbd
00000070: b771 2ebd a212 b9bd 9748 ad3d 1916 19bd
00000080: d801 b43d dd25 373d be6a c2bd 17dc 2e3e
00000090: ae86 ca3d 8af9 18bd 0735 aa3d 6c21 f5bd
000000a0: 48ba 503c 7d9d 193e 1a96 19bc 6893 9fbd
000000b0: fa3a 213e b9b2 a03b cfb3 1c3e dc3e bebd
000000c0: 8b97 c83d 719f 46bd 7664 3cbe 0e32 52bd
000000d0: feab 1dbe d2c1 053e 9987 eabd 61ee c1bd
000000e0: e696 afbd 662c 1a3e d40d 9f3d 0c62 543d
000000f0: e0db 9e3d cb53 a93c 1d37 8bbd 7384 1c3e
00000100: c954 04be 4ada ecbd 0db6 82bd cbfb 333e
00000110: 894f 93bd 1b2b 03be d859 2abe 0712 84bd
00000120: d154 9ebd 5f85 063d cdca 383e cc1d f13b
00000130: 5925 0b3d a635 173e 0e07 1bbe fa0f 1bbd
00000140: 45c5 38bd 4411 0cbe c57a febd 6f86 a8bc
00000150: 126c 753c f39c 8cbd e972 303d 2fe9 6ebd
00000160: b88a 2cbe 8f03 86bd b86d 373d e88f bc3c
00000170: d5ca 70bd 07da 813c 3675 dd3d aeae fc3d
00000180: 0e9d 9dbc ddc5 283d 142f 69bc a045 22be
00000190: 1990 2e3e 2d41 a6ba 2fb2 953c 020a f13d
000001a0: 18f9 943d 59cd ad3d 1092 04bd bee8 de3d
000001b0: 82ae 0ebe 23d5 c93d 1a42 193e 1905 26be
000001c0: 82a7 04be a2ab d33d 2ba1 e1bd 7893 c3bd
000001d0: f9c5 6a3b f283 dcbc 7433 a73d e231 7abc
000001e0: 3e0a bfbd c807 8fbd 9aa8 2b3e 2d1e 51bd
000001f0: d1b3 8dbc c3fb f2bd 0df0 8abd eb12 f4bd
00000200: 0f5a 29be 5346 3e3b ebd5 8c3c 8d4f 5f3d
00000210: c72f ba3d f02f 0dbd a2ca 123e bd47 223e
00000220: 0571 263e 2d94 833d 6665 26be 2043 0bbe
00000230: 3a2b eebd 8bfb 3e3c 4435 d73d 3bd6 20bc
00000240: e01d 243e d1d6 813d 0136 283e 29d7 9abd
00000250: a13c 2f3d 9b74 823d 22ac 0e3e 18d1 38bd
00000260: 33f2 03be da5f d43c 4e9c 503d f7d0 0ebe
00000270: 5275 343e 5661 b53d 3707 fdbd 60fb 8c3c
00000280: 39fe a0bd c11c 9bbd cb80 cd3d 9fda d4bc
00000290: bd94 8f3d 16cd 29be 6e17 14be 916d 373d
000002a0: 35dd 60bd 5a91 a03b ab96 94bc b3a2 8ebd
000002b0: 0677 213e 1fd6 35be 33e4 123d 8855 ba3d
000002c0: 0554 493c 920c 96bd c751 e7bb dd73 80bb
000002d0: dca9 0fbe 602c f8bd 8c2f 133d f6ec 50bd
000002e0: 4073 cfbd db7f d63d 0d3f a83c a490 3abe
000002f0: 2a0d 0cbe 582f 92bc 54ba e53d bdd8 abbd
00000300: 0213 f23d 6391 683d cb8a 2fbd 5453 82bd
00000310: 8041 32be a5b2 d5bd 42f1 edbc fe74 c73c
00000320: add3 093d f584 9a3b c650 023e 8100 88bd
00000330: 3f0d 66bd f7f6 4f3c 4eeb 61bd a609 d1bd
00000340: ad6f 153d 4d04 ec3d f5f9 a33d 1cc2 8c3c
00000350: 4ae8 193c b777 143e 8a95 e33d f5e0 0c3d
00000360: e52e 0ebc 6a2d 85bd 7f39 0e3c 1f6a de3d
00000370: 4b2c b03d a242 f6bd 9119 273e f972 03bd
00000380: dc62 b13d d081 933d c46d d83d 60bd 253d
00000390: d0e9 143e 3252 283b 24ee d63d 9fdd b9bd
000003a0: 8942 293d e365 22be a85e 0b3e 01c3 253e
000003b0: 4d01 dbbd fac8 e0bd 09df bdbc 09f1 8a3d
000003c0: b6b2 28bd 2474 043e be2e 1fbe b18a 283e
000003d0: c3ae b3bd 6874 0c3e 2988 cebd 02ed b9bd
000003e0: 87a7 33be 5710 6d3c 6c30 93bd 8339 c43d
000003f0: 6a7b b9bd c9bc 0e3e f058 d5bd af46 9cbd
-0.13103133 0.013450216 0.0044770674 -0.06805217 -0.11456559 0.08031927 -0.15288416 0.15585251
0.18794964 -0.122210145 -0.07597742 -0.15532103 -0.026567942 -0.0666453 0.045374934 -0.031125233
0.046586577 -0.14113504 -0.017669437 -0.109570354 0.14621718 -0.07460542 -0.08409358 0.0005629773
-0.016623843 -0.18402751 -0.1023404 -0.053910576 -0.042588916 -0.09036757 0.08461111 -0.03737459
0.08789414 0.044713844 -0.09493016 0.17076145 0.09888969 -0.037347354 0.083108954 -0.11969265
0.012739725 0.15001483 -0.009374166 -0.077917874 0.15745154 0.004904118 0.15302967 -0.09289333
0.097945295 -0.0484919 -0.18397698 -0.051317267 -0.15397641 0.13062218 -0.114516445 -0.09469295
-0.085737035 0.15055999 0.077663094 0.051851317 0.077567816 0.020669838 -0.067976214 0.152849
-0.12922968 -0.11565073 -0.0638238 0.1757652 -0.071929045 -0.12809412 -0.16635835 -0.06448751
-0.07731021 0.032842036 0.18046112 0.0073582884 0.033971164 0.14766559 -0.1513941 -0.037857033
-0.045110006 -0.13678461 -0.1242576 -0.020571915 0.014979379 -0.06865873 0.043078337 -0.05832785
-0.16849792 -0.065436475 0.04478237 0.023017839 -0.058787186 0.015851034 0.10813372 0.12338005
-0.019239929 0.041204322 -0.014232416 -0.15846872 0.17047156 -0.0012684219 0.018273441 0.11769487
0.07274073 0.084864326 -0.03236586 0.10884236 -0.13933757 0.09855106 0.14966622 -0.16212882
-0.12954524 0.10335471 -0.110170685 -0.09549612 0.0035823567 -0.026918385 0.08164111 -0.015270682
-0.093281254 -0.06983906 0.16763535 -0.05105417 -0.017297657 -0.11864426 -0.06784067 -0.11917671
-0.16538261 0.0029033616 0.017191848 0.054519225 0.09091144 -0.034469545 0.14335111 0.15847678
0.16254051 0.06424747 -0.16249618 -0.13599825 -0.116293386 0.011656652 0.105082065 -0.0098167015
0.16027021 0.06339801 0.16426851 -0.0756057 0.04278243 0.06369897 0.13932851 -0.045121282
-0.1288536 0.025924612 0.050930314 -0.13946901 0.17622879 0.08856456 -0.12354892 0.017209709
-0.07860989 -0.07573844 0.10034331 -0.025983153 0.070107915 -0.1658214 -0.14462063 0.044782225
-0.05489846 0.0049001398 -0.01813825 -0.06964626 0.1576806 -0.17757462 0.03586216 0.09098345
0.012288098 -0.07326616 -0.007059309 -0.003920062 -0.1402964 -0.12117839 0.035934016 -0.051007234
-0.10129404 0.10473605 0.020537877 -0.18219239 -0.13676897 -0.01784484 0.1121718 -0.08390949
0.11820032 0.056779277 -0.042856973 -0.0636355 -0.17407799 -0.10434464 -0.029045705 0.024347778
0.033649135 0.0047155567 0.12726125 -0.06640721 -0.056164976 0.012693158 -0.055156045 -0.102069184
0.036483455 0.11524258 0.0800666 0.017182402 0.009393761 0.14498793 0.11112507 0.034394223
-0.008678173 -0.06502803 0.0086807 0.10860085 0.08602198 -0.12024428 0.16318347 -0.03209207
0.08661434 0.07202494 0.10567811 0.040463805 0.14542317 0.0025683758 0.104946405 -0.09075474
0.04132322 -0.15859179 0.13610327 0.1618767 -0.106936075 -0.10975833 -0.02317764 0.06784255
-0.041186057 0.12934929 -0.15545174 0.16459157 -0.087735675 0.1371628 -0.10084564 -0.09078409
-0.17544375 0.014469228 -0.0718697 0.09581282 -0.090567425 0.13939203 -0.10417354 -0.07630669
