output/FF-L-MoME/ts_encoder_epoch0.pt (torch, 433260 bytes, 34 tensors)

proj.weight f4 [32, 8]
00000000: 21fb 663a 34cd 82be b380 6fbe a314 67be
00000010: 821a 3a3e f96d 7cbe a333 43bd 68c1 833e
00000020: c1e7 afbe 0cbd 713e ff0f a13e 86c5 143e
00000030: bf4e 2b3d 9dd4 a73e f358 953e 8d38 a03e
00000040: aa86 fabd b690 093e 223d 733d 303d 9bbe
00000050: 7a32 8dbe 6296 97be 7430 afbd c425 acb8
00000060: 3925 1c3e 493f 75be 396f a63a a636 4f3e
00000070: 2888 9abe 8bda 933e 8553 87bd feef 7bbe
00000080: ef91 f7bc a71e 22bd b91a a03e 6ac5 0e3e
00000090: d7a8 563e 98fa 803e 40de 50be 33e5 13be
000000a0: 5ee2 7cbe d890 2dbe 1c21 71be 3336 873d
000000b0: 6047 afbe 2636 983e 164a b5be cb59 493e
000000c0: 9b66 b0be 4b2e 373e 9ce0 3abe fcd1 993d
000000d0: ad9d a33e 26de 00be a502 5ebb 3c63 5dbd
000000e0: 4138 afbe 072f 913e 19a6 94bd 36f8 a4bd
000000f0: a5f1 0ebe 3707 313e a853 43be 14b0 38be
00000100: e987 8f3e 8da0 8cbe cee4 aebe fdb3 c53d
00000110: fbdb f8bd 5182 1ebe 89d7 9abd 727f 973e
00000120: f4bc c03d ee2d a2be 9746 143e d3db adbe
00000130: 60df f13d 3e1b 6f3d bcbd 9cbe bd7e 2b3e
00000140: c450 a23d 0b97 a33e 335c e8bd 663c 613e
00000150: f49b 253d f0ab ae3e 558f 95be ed41 7a3e
00000160: 1ce8 20be 5035 7fbe d0d4 83be d6d5 fa3d
00000170: 16e9 143e b8f7 de3c 7f6a 65bc c2ba 15be
00000180: 912a a13e 415e 553d bb2f 1d3e 264c 20be
00000190: 31d0 97be 54d7 84be e048 943e 74f7 c8bd
000001a0: 035b 343c 0984 b4be b7b3 8e3d a146 a7bd
000001b0: a134 f6bc f1ee bd3c fb3f 773e 0961 b6bd
000001c0: fc8b 5fbe 2893 9f3e 2477 b23e 3f2d aa3e
000001d0: 9a1b a2be 4c4e 87bd b229 44be db8e 4b3e
000001e0: d5d4 82bb 4c71 013e dd3c a73e de5a 843e
000001f0: e35a b6bd b0d1 703e 69ea 923e c1f4 29be
00000200: 353b 913c 4b6a 86be b925 12be 8e12 083e
00000210: ae4b 1ebc 39f8 963e ded4 ae3e f4c1 c6bd
00000220: 15a3 e7bd 0795 81be f9e2 0cbc 5e66 4b3d
00000230: 5eda ff3d 1315 033e 1af2 e63d 3420 83bd
00000240: 9685 cabd 0659 58be 0555 5dbe 2e4c a1be
00000250: 4383 84be ab9a 3abe 68c9 283e b668 38bd
00000260: 62f0 4dbe 47e1 45be f747 a43e c5a2 87bd
00000270: 73ec 3abd 0692 b0be 8531 a1be a2bf 86be
00000280: 039f b2bd 4ff0 243d 5e30 b13e 7975 30be
00000290: 88df 13bd 4c99 fabd 1858 a0be 5b8f 113e
000002a0: 9318 9a3e 1cb9 9c3c f1ac 113d 0272 88be
000002b0: e3a5 473e ac25 02be 3b6b fbbd 45b0 83be
000002c0: 92f7 603e 42d4 7abe 6b59 e5bc 6a0c afbe
000002d0: 7f36 1fbe bb38 f8bd d95e 9abe 36d7 513e
000002e0: 9811 8c3e e598 7c3d 7954 9ebe 4d16 25be
000002f0: 0567 1e3e 96e1 16be 87a7 db3d 003c 27be
00000300: 26e5 babd 32fd 983d e51a f7bd 4527 c33b
00000310: b6d5 0fbe d823 8cbe 0c7b a03e 6256 9d3e
00000320: 1a06 28be 7f4f 6e3e 4143 0f3e 1cf9 053e
00000330: ecda ab3e 62de 57bd 8cc3 19bd 570d 90be
00000340: 5d25 c4bd c821 b23e e0a4 9c3e bb0d 16bc
00000350: fd07 6bbe 1b91 2ebe d1ba 1dbe 86e2 9a3e
00000360: 6c03 833c 730b a4be f49c 9dbe 13b7 a0bd
00000370: 0b16 0c3d 0f36 7dbe 774c 9abe 462a 7f3e
00000380: 4b48 a53e 94eb 033d b12a 943c 7eb3 9f3e
00000390: 1a9d cabd 01fc 95be 509b 79be d218 8a3e
000003a0: 33f7 45be 972b 903e 99b4 9e3e 9723 ed3d
000003b0: 0d4b 203e adfc b4bd b7f9 78be 7d5b 32be
000003c0: b034 30be bc38 53be 9af4 9cbe e7ab 75be
000003d0: ce69 25be e3c2 c43d 6285 1c3e 912f 3fbe
000003e0: 25ad 0cbd 5a9f eb3b ad4d 39be 6c1d bcbe
000003f0: 2fd6 23be f79b 79be cb01 e13c 5e13 a7be
0.0008811225 -0.25547183 -0.23388939 -0.22566466 0.18174174 -0.24651326 -0.047656666 0.25733495
-0.34356502 0.23607272 0.31457517 0.14528474 0.041823145 0.327794 0.29169425 0.31293145
-0.122327164 0.13434109 0.059384473 -0.3032012 -0.27577573 -0.2960692 -0.085541636 -8.2086335e-05
0.15248574 -0.23949923 0.0012697942 0.2023569 -0.30182004 0.28877673 -0.06607727 -0.24603269
-0.030220954 -0.039580014 0.31270388 0.13942495 0.20962845 0.25191188 -0.20397282 -0.14442901
-0.24695727 -0.16949785 -0.23547786 0.066021346 -0.34234142 0.29728812 -0.35408086 0.1966316
-0.34453282 0.17888753 -0.18249744 0.075107545 0.31956235 -0.12584743 -0.0033876088 -0.054049715
-0.34222606 0.28356192 -0.07258243 -0.08055155 -0.13959368 0.17287908 -0.19074881 -0.18035918
0.2803338 -0.2746624 -0.3415894 0.09653471 -0.12151333 -0.154794 -0.07560641 0.2958942
0.0941104 -0.31675667 0.14480053 -0.33956775 0.118101835 0.05837559 -0.30613506 0.16747566
0.07925561 0.31951174 -0.113457106 0.21995696 0.04043193 0.34115553 -0.29210916 0.24439211
-0.15713543 -0.24922681 -0.257483 0.12247817 0.1454204 0.02721773 -0.014002441 -0.14622024
0.31477788 0.05209184 0.15350239 -0.15654048 -0.29651025 -0.25945532 0.2896185 -0.09812823
0.011008027 -0.35256985 0.06967872 -0.08167768 -0.030054392 0.023185225 0.241455 -0.08905227
-0.21830744 0.3116696 0.34856522 0.33237645 -0.31661683 -0.06606731 -0.1915653 0.19878714
-0.0039926567 0.12640876 0.32663622 0.25850576 -0.08904054 0.2351749 0.28694466 -0.16597272
0.017728427 -0.2625297 -0.14272203 0.13288328 -0.009661598 0.29486254 0.3414678 -0.097049624
-0.11310402 -0.2530901 -0.008599036 0.04965817 0.12492822 0.12801008 0.11276646 -0.06402627
-0.09888761 -0.2112771 -0.21614464 -0.31503433 -0.25881395 -0.18223064 0.1648308 -0.045021735
-0.2011123 -0.19324218 0.32086155 -0.06622843 -0.04563565 -0.34486407 -0.31483093 -0.2631808
-0.08721735 0.04026824 0.34607214 -0.17232312 -0.036101848 -0.1223627 -0.3131721 0.14214842
0.30096874 0.019131236 0.03556532 -0.2664948 0.19496875 -0.12709683 -0.12276312 -0.2572042
0.2196944 -0.24495032 -0.02799674 -0.3418916 -0.15548132 -0.121201955 -0.30150488 0.20492253
0.27357173 0.06166925 -0.30923823 -0.16121788 0.15468986 -0.14734492 0.10725313 -0.16331482
-0.09125738 0.07470168 -0.120656766 0.005955609 -0.14046368 -0.27371097 0.31343877 0.30729967
-0.16408578 0.23272513 0.13990499 0.13083309 0.33565462 -0.052702315 -0.037540004 -0.28135177
-0.09577439 0.34791398 0.3059454 -0.009158547 -0.22952266 -0.17047541 -0.15403296 0.3025095
0.015992843 -0.32039985 -0.30783808 -0.07847419 0.03420071 -0.24727653 -0.30136463 0.2491847
0.32281718 0.032207087 0.018086763 0.3119163 -0.09893246 -0.29293826 -0.24375653 0.2697206
-0.1933258 0.28158256 0.3099716 0.11579054 0.1565363 -0.088372566 -0.24314009 -0.17417713
-0.17207599 -0.20627111 -0.30655366 -0.23991357 -0.16153643 0.09607484 0.15285257 -0.18670489
-0.03434481 0.007190627 -0.18096037 -0.36741197 -0.15999673 -0.24375902 0.027466675 -0.32631963

proj.bias f4 [32]
00000000: e226 293e 40ed 07be a7d7 9d3e 99f2 143e
00000010: 4c99 a9be 1aa4 a2be be9b 9abe c001 35be
00000020: b470 49be ae5f d43d 09a0 a3be 8a4b a5be
00000030: ea73 20bd 281c 9d3e cbc1 f63d 39ce 0bbb
00000040: 7897 94bd de03 93be 0ede 913e 162a 393e
00000050: 6a98 b03e e65c 70bd 032c 1cbe 6888 39be
00000060: 8829 4dbe aa04 d8bd ac0b 8fbe 539f 153d
00000070: 9959 efbd c4d0 7f3e bee0 a23c 4abf 923e
0.16518739 -0.13274097 0.30828592 0.14545669 -0.3312477 -0.31765825 -0.30196947 -0.17676449
-0.19671899 0.10369812 -0.31958035 -0.32284194 -0.039173044 0.30685544 0.12048682 -0.0021332635
-0.07255453 -0.28713888 0.28489727 0.18082461 0.34491283 -0.058682345 -0.15251164 -0.18118441
-0.20035374 -0.105477646 -0.27938592 0.036528897 -0.11687011 0.24981982 0.019882556 0.28661567

EiLM.0.gamma_generator.weight f4 [1, 32]
00000000: a6f2 86bd 28c6 fabd 3389 eabd 1f9b 803c
00000010: 7802 353e 4d7d b4bd dbba a83d 3ab3 b2bc
00000020: 9006 38be 2b02 0d3d 0b7f 23bd 58e3 163d
00000030: 2c66 43be 89e6 1abe 029f 60bb 2e26 c8bc
00000040: 98a2 9a3d 8605 3d3e 27d1 52bd 3910 fb3d
00000050: 8843 b2bd a3fc a2bc 0af3 1cbe 0b2d 113e
00000060: 82d7 0cbe b2e2 8bbd c71d 103e 6b65 5fbd
00000070: cffc 06be 5370 e4bd f03f fd3d 730c 1d3d
-0.0658925 -0.122448266 -0.1145195 0.015698968 0.17676723 -0.08812962 0.08238765 -0.021813978
-0.17971253 0.034425896 -0.03991608 0.036837906 -0.19081944 -0.15127005 -0.0034274464 -0.024432268
0.075505435 0.18459138 -0.051468994 0.122589536 -0.08704287 -0.019895857 -0.15327087 0.14177339
-0.13754085 -0.06830348 0.14073859 -0.05454008 -0.13182376 -0.11154237 0.12365711 0.03834195

EiLM.0.beta_generator.weight f4 [32, 32]
00000000: 0de4 20bd c310 833d 3619 21be 2225 01be
00000010: 6412 213d ee23 c23b 7ca4 fa3b 21f6 733d
00000020: 9a29 f53c 5ec0 a33c 75d3 19be e849 db3d
00000030: 81e2 d43d f6af a2bd c27f 1bbe d1b7 1cbe
00000040: 0eae d13d fc3b db3c 762b 1bbe 4d22 0fbe
00000050: cd57 afbd e204 62bd b711 033e 1e62 3ebc
00000060: cc3c 1ebe 62e6 283d dbd8 2d3e 75b4 cb3c
00000070: 62a8 dcbd cc48 e6bd 209c db3d 8ab4 27be
00000080: 9a09 15bc 00d8 32be 5fc6 1e3e fd00 edbd
00000090: 16a6 c83d 1008 04bd a0c3 ccbd 64ff 2d3d
000000a0: 01e0 4c3d 1d6f 8ebd c44b 13be a294 bb3c
000000b0: 8297 72bd e777 f5bd ff2a f83d c58d 9bbd
000000c0: 5360 11be e621 313e 58da d53d 109c 16be
000000d0: 0d4a 30be 54c6 8d3d f9eb 033e ff8c 253c
000000e0: 603c c2bc d2ba 5b3d 42c7 c93d 1410 d83d
000000f0: aee3 c2bd 7b57 1bbe afac 0c3e 1717 11bd
00000100: 1802 e0bc aff1 9ebd adaf 003e a8e6 9e3d
00000110: b5bc 923d ec2c 52bd d36c fcbd f259 16be
00000120: 9c09 193d 4b4f d93d 1df1 2c3d f936 4abb
00000130: 7c83 973d 76c4 d8bd ef5a aa3d 9529 f73c
00000140: e934 babd 3af0 803d 31e2 8f3d 568c 00be
00000150: 3800 793c f83e 1a3c df1d e83c b374 07bc
00000160: 3be7 c2bd ad0a bb3d 0139 c83d ccf7 95bd
00000170: 3b32 d3bb 7ecd e1bd 65d9 15bb 941f 1abe
00000180: a4de ba3d b39d 1ebe 5d98 e43d 850f b1bd
00000190: adf0 a4bd 26f9 0dbe ceeb 373d 88a5 86bd
000001a0: 209b 5fbd 2eba 7e3d edc8 24be f83b 043c
000001b0: 9073 4fbd 01b4 a6bd 27b7 023e a392 133e
000001c0: 24ff a0bd 9162 ccbd 6ff7 02be f342 f1bd
000001d0: ae3d c8bc 65eb 893d a9cd b13b b988 01be
000001e0: e9b6 bdbc bc69 14be 6ea4 e53d 5f55 543d
000001f0: f253 243e 0795 c23b d9e5 3f3d 43b1 13be
00000200: 72d6 8a3d fe1f 243e 7022 583d 90b4 2bbd
00000210: 55df 813d 723f 18be 95f6 a43d 557a 55bd
00000220: 32a3 ad3d a230 01be a249 db3d e5fd 8a3d
00000230: c66c 24be 30c5 9fbd b503 243d d826 343c
00000240: 5ab3 1c3e 81ad 1b3e d202 9b3c 49b8 af3d
00000250: eb18 df3c b4e5 fe3d e6ca 59bc d1e2 17be
00000260: 9782 a0bc 78c2 513c 92de 093d e161 fa3d
00000270: 4756 593b 76d2 123e 9913 7a3c 72b8 90bd
00000280: d8bf 4ebd 56c4 b93d 12d7 1cbe ff21 20be
00000290: 6f15 75bd 688d 0f3e da88 32be fcc1 95bc
000002a0: 4118 ce3d 826a 94bd 353a 1b3d ca93 243e
000002b0: fbcb cfbd 0d4d 0b3d 6fce da3c c69e 373e
000002c0: 0813 0dbe 7586 1b3e 012c f13c f940 19bd
000002d0: 1ffc 1cbd 14ec e83d 5c1c 873d 4391 2d3e
000002e0: 5539 1a3e f2c8 eabc 1fd4 ddba 2c00 913d
000002f0: 9f82 7bbd 568e 183e 989b 0fbe ad19 fa3d
00000300: 88cd 203d 2a62 aabd 2d47 7f3d bc72 29bd
00000310: 7840 a63c b66a 4c3d 25fb 003e ab39 d53d
00000320: c293 23be cdc1 223e 5de6 c6bc 4702 d6bc
00000330: 2cff 5c3d dede 193e 880c 2d3d 95b3 ebbd
00000340: af51 08be 515f ba3d 411f 68bc 75cb 2dbe
00000350: 9374 aabc 48d8 ef3c 9a8e 45bd 7097 29be
00000360: 11b6 14be 6370 e13d beb4 78bd 8642 193e
00000370: 7151 193e d255 f2bc c020 8a3c 21b5 0dbe
00000380: a4c3 223d c84e b7bc 0ea8 67bc 611f 853d
00000390: 63e8 253d 8ec4 59bd 9e10 09be 13b6 a0bd
000003a0: ff6a 2a3d 0c00 4db9 889a 9d3c adac d33c
000003b0: a0f3 1bbe d93e 15be 7612 07be 2f44 21be
000003c0: 3dab 463d b7bc fbbd 3c7a 173e 7be0 0c3e
000003d0: e10e d73b 0cc7 1cbd 4b38 303c 226d 0fbe
000003e0: 69ba 90bd 277b ffbd 9629 eebd e227 a1bd
000003f0: b9e0 c63d 5606 0b3e f2cd a0bd c6e7 f03d
-0.039279986 0.063996814 -0.15732273 -0.12611821 0.03932418 0.0059246933 0.0076490026 0.0595609
0.029927064 0.019989189 -0.1502207 0.10707456 0.10394765 -0.07943718 -0.15185454 -0.15304495
0.102382764 0.026762001 -0.15153298 -0.13977928 -0.085616685 -0.055180438 0.12799726 -0.011620073
-0.1545288 0.041235335 0.16977255 0.024866322 -0.10774304 -0.11244354 0.10723138 -0.16377464
-0.0090965275 -0.1746521 0.1550536 -0.11572454 0.097973034 -0.03223425 -0.0999825 0.042479888
0.050018314 -0.06954787 -0.14384371 0.022898022 -0.05922652 -0.1198576 0.12117576 -0.075954
-0.14196901 0.17298087 0.104420364 -0.1470797 -0.17215748 0.06922594 0.12882985 0.010104417
-0.02371043 0.053644963 0.098524585 0.10549942 -0.09516083 -0.1517009 0.13737749 -0.03542241
-0.027344748 -0.07760941 0.12567015 0.07758838 0.07164899 -0.051312372 -0.12325444 -0.14682749
0.03736268 0.10610827 0.04222213 -0.003085552 0.073981255 -0.10584347 0.083181255 0.030171195
-0.09092123 0.062958196 0.070255645 -0.12553534 0.015197806 0.009414427 0.028334556 -0.008267569
-0.0951676 0.091328956 0.09776498 -0.07322654 -0.006445197 -0.11025523 -0.0022865173 -0.15051109
0.091244966 -0.15489845 0.111618735 -0.08645538 -0.08053718 -0.13864574 0.044902615 -0.06574541
-0.054591298 0.062189274 -0.16092272 0.008070938 -0.05064732 -0.08139802 0.1276518 0.14411406
-0.07861164 -0.099797376 -0.12789701 -0.11780348 -0.024443474 0.06734351 0.005426128 -0.12649812
-0.023158507 -0.1449346 0.11213003 0.05183923 0.16047648 0.0059381756 0.04685006 -0.14423089
0.067791834 0.16027829 0.052767217 -0.041920245 0.06341425 -0.14867952 0.08054844 -0.052118618
0.08478393 -0.12616208 0.10707404 0.06786708 -0.16057119 -0.078012824 0.040042598 0.010995589
0.15302792 0.15202905 0.018922243 0.085800715 0.027233562 0.12446156 -0.013293004 -0.14832617
-0.01959352 0.012802713 0.033659525 0.122257 0.0033162998 0.14338097 0.0152634615 -0.0706643
-0.050475925 0.09070651 -0.15316418 -0.15637968 -0.059834894 0.14018786 -0.17435017 -0.018280976
0.1006322 -0.07246877 0.037897307 0.16072002 -0.10146328 0.03400903 0.026709763 0.17931661
-0.13776791 0.1518801 0.029439928 -0.03741548 -0.03832638 0.11373153 0.06597206 0.16949944
0.15060933 -0.028660271 -0.0016924179 0.07080111 -0.061403867 0.14898047 -0.14024198 0.122119285
0.03925851 -0.083195046 0.062323738 -0.041369185 0.020294413 0.049906455 0.12595804 0.1041139
-0.15974334 0.15894242 -0.024279768 -0.026124133 0.05395429 0.15026423 0.04224828 -0.11508862
-0.1331241 0.091002114 -0.014167608 -0.16972144 -0.02080754 0.029277936 -0.0482317 -0.16561675
-0.14522578 0.11007764 -0.060719244 0.14966783 0.14972474 -0.029581938 0.01686132 -0.13838626
0.03973736 -0.022376433 -0.014139188 0.06500126 0.040504824 -0.053165965 -0.13385245 -0.07847228
0.041605946 -0.00019550341 0.019238725 0.025839174 -0.15229654 -0.14574756 -0.13190636 -0.15748666
0.04850315 -0.12291854 0.14792722 0.13757508 0.006563053 -0.038275763 0.010755609 -0.14006475
-0.07066805 -0.12474661 -0.11629026 -0.07868935 0.09710831 0.13576636 -0.07851781 0.11762957

EiLM.1.gamma_generator.weight f4 [1, 32]
00000000: 70f1 07be 942e d73d 5fa6 f23d 2638 bcbc
00000010: 4e13 7a3d 4318 27be 7b14 a03d 99c7 993d
00000020: 4b48 bd3d 8853 783d 63d3 2bbd c44a 63bb
00000030: 07e6 133e e437 1c3e 3d59 fdbc a1cf 14be
00000040: 2e8d 043d dca4 70bd 1e30 73bd 7d62 1cbe
00000050: eaa2 7dbc 5c53 f9bd 9834 fd3b f92d 3f3b
00000060: 8074 d2bd cbb2 9dbd 1cd1 193d 1480 c83d
00000070: 4893 d03d 02d2 213e d221 333d 0773 ca3d
-0.13275695 0.10506931 0.11848139 -0.022975992 0.061053567 -0.16317849 0.07816406 0.07508773
0.092423044 0.060626537 -0.04194964 -0.0034682015 0.14443217 0.15255696 -0.030926341 -0.14532329
0.032361202 -0.058750972 -0.05937206 -0.15271945 -0.015480736 -0.12174103 0.007727217 0.002917169
-0.10276127 -0.07700118 0.037552938 0.09790054 0.10184342 0.15802768 0.043733425 0.09885221

EiLM.1.beta_generator.weight f4 [32, 32]
00000000: ecbe 453d 2bc1 10be 5276 0e3e 73fe e6bc
00000010: e35c e0bd 2001 77bc b1ca 69bc 871b 71bd
00000020: 206a babd 1c23 5fbd 2cdd b93d d3df 2cbe
00000030: 1c08 b33d ba64 09be d021 f9bc 38f3 b43c
00000040: 6477 08be 327e 19be dcdf 10be 0962 1a3e
00000050: 220e 873d 60d6 ecbd 34bf 213e 52f1 dcbc
00000060: d1a8 2e3e 51f9 f1bd 093a 19be b834 d7bd
00000070: 6188 0e3e 442d 9cbd a92f 123e e3fa bd3d
00000080: 4b77 a33b 3101 1bbe 263b d8bd 9f5b e93c
00000090: 864b 27be 10c8 1e3d 22c6 4a3d 4767 443d
000000a0: d794 a5bd 388d 1b3e caa4 c1bd a3dd d8bb
000000b0: ee70 60bd c357 57bd 8e89 d3bd 4fcb 21be
000000c0: 3724 273e 10b6 b9bd cd2d 85bd 9a10 a7bd
000000d0: 0f8d d3bc a881 b6bd 79e0 e93d 1024 663d
000000e0: b101 903d df52 c73d c4d7 d03d d0a9 263d
000000f0: 1a7c 98bd 7c5d 1c3d 22cf 0abd c9ed cbbd
00000100: fac2 40bd a819 553d e81e 13bc fb2e 043e
00000110: dde4 36be adae c23d 07bc e5bd 90d2 18bd
00000120: 0609 adbc a4ec 9f3d 4f8d 6abd 5a91 923d
00000130: 1c16 693c 208f 09be 8de0 1d3e b06b 183e
00000140: 12b5 093d 912e f1bc e9da fb3d d64c 90bd
00000150: daa3 a03c b9fa 92bd da1b 103e 895a 06be
00000160: 2dbc 313e 8962 d7bd 8b04 bf3d 2c78 f4bd
00000170: 0ee7 1abe 572c dfbc 4a48 933d 66c7 a93c
00000180: 33e5 903d b988 d53d b3a1 1ebd 1851 a6bc
00000190: 0b48 14be 4561 cb3d 4aaf 363d a648 80bd
000001a0: 5073 923c c97d a5bc 40df 0fbe a539 fdbd
000001b0: 84db febd 615d 9bbd 4600 df3d 918e f9bd
000001c0: ad76 04be 0f24 1dbd e584 c3bd ff69 cbbd
000001d0: 8236 8abd 8316 ef3d daaa 10be f545 173d
000001e0: 44f0 483a 9ecd 2ebb 02b6 6c3d 7abd db3d
000001f0: 2d5b fc3d f986 86bd 6099 08bc 2eb7 25be
00000200: 1bd3 1b3d 8bbb 10be eb5b 8ebc d179 4ebd
00000210: 5319 2a3e 4f1f 24bc af13 cf3d 3a74 17be
00000220: cebb 23be 152a 3d3c e462 4fbd 105c cc3d
00000230: 6ad5 0f3d f102 523d e726 02be a7ef 58bd
00000240: 1717 98bd 1596 173e 7bf1 a3bb bb96 c6bd
00000250: 6b2c 343d 5b75 6dbd 4ea5 21be 53b5 373c
00000260: 5f5a c03d 36d5 093e b4bb 2d3e 1988 82bd
00000270: 2859 1fbe 50bb 4bbd c4db dfbd a377 133e
00000280: fb3c 16bd ac09 b43d 7c71 d93d 783d c73d
00000290: 48a2 1dbe a80b 293e 1d46 88bc d9f6 2b3e
000002a0: e3d0 6e3d 007a 243c 5012 0cbe 50ed 153c
000002b0: 3ff6 133e 37f3 b23b 4f9b 12be e5b4 8bbc
000002c0: fd3f cb3d 5b62 06be 5c9b 4a3c 6441 e93c
000002d0: aa1f f3bc 23d0 633d a5b6 08be 9904 bc3c
000002e0: 4b49 673d fa3c 14be d149 3bbe 810e 25be
000002f0: 34bb 97bc 0c91 06be 5578 bdb8 3eaa 333d
00000300: 818d 90bd d336 ea3d aa95 f33d 96b9 0e3e
00000310: e278 96bb 1fa2 733c 720f f2bc 2c09 fbbd
00000320: 8f84 593d 0f91 5fbd c2f2 9b3c 4cf3 cfbc
00000330: 4404 20be 24b1 f13c 29f8 06bd 3356 163e
00000340: 934a 293e 687d 073e 5c50 993d 2b75 10be
00000350: 9958 b63d e264 1bbd 1c5a a8bd 5f78 0d3e
00000360: fec5 1cbe ee9c 3c3d 02a3 f93b 7ea7 bebb
00000370: cdae ceba c08f 693d 66e8 db3c 0e53 f03d
00000380: 5c0b 81bc 2721 03be 73a9 f7bd e6bc b03c
00000390: 9efd 29be 4058 5f3c aebd 1eba 64e1 adbd
000003a0: 86d7 833c 21de 373d f377 c3bd 2942 ebbd
000003b0: 35b0 143e 4d86 8bbb d812 1dbe ce7f 233e
000003c0: cf94 8cbd 7b4e 28be 671e bdbd 11a3 ae3d
000003d0: b68e a3bd fab0 043e e556 8e3d 4287 14be
000003e0: a6fe a43c 0069 18be 2123 b93d 1f05 14be
000003f0: 2c7b 1abe 87d2 0dbe 9a4d 0d3e 6f5f 09be
0.04827778 -0.14136188 0.13912323 -0.028197503 -0.10955217 -0.015075952 -0.014269517 -0.058864143
-0.09102273 -0.054476842 0.09075388 -0.16882257 0.08741781 -0.1341733 -0.03041163 0.022088632
-0.13326794 -0.14989546 -0.14147896 0.1507646 0.065944925 -0.11564326 0.15795594 -0.02697054
0.17056586 -0.118151315 -0.14963545 -0.10508102 0.13919212 -0.07625821 0.14275993 0.092763685
0.004988586 -0.15137173 -0.10558157 0.028486071 -0.16337404 0.038765013 0.04950536 0.047950055
-0.080850296 0.1519059 -0.09455259 -0.006618218 -0.0547952 -0.05257393 -0.10328971 -0.15800212
0.16322409 -0.09067929 -0.065028764 -0.08157463 -0.025824098 -0.08911449 0.11419768 0.056186736
0.070315726 0.09732603 0.10197404 0.04068929 -0.074455455 0.03817509 -0.033888943 -0.09957463
-0.047060944 0.05202642 -0.008979537 0.12908547 -0.17860742 0.09505973 -0.11217504 -0.037310183
-0.021122467 0.078088075 -0.05726367 0.0715663 0.014226463 -0.13433504 0.1541769 0.1488483
0.033619948 -0.02944115 0.12297613 -0.07045905 0.01960938 -0.07176728 0.14073125 -0.13120474
0.1735694 -0.10516841 0.093270384 -0.119369835 -0.15127203 -0.027242823 0.071915224 0.020724963
0.07074966 0.104264684 -0.038728427 -0.02030234 -0.14480607 0.09930662 0.044600762 -0.062638566
0.01787725 -0.02020158 -0.14050007 -0.123645104 -0.12444213 -0.0758617 0.10888724 -0.121853955
-0.12935896 -0.038364466 -0.09546832 -0.099323265 -0.06748678 0.11674216 -0.14127675 0.03693195
0.0007665197 -0.002667285 0.057790764 0.10729499 0.12322078 -0.06568713 -0.008337349 -0.16183159
0.038043123 -0.14134042 -0.017377814 -0.050409142 0.16611223 -0.01001723 0.10111176 -0.1479043
-0.1598961 0.011545678 -0.05063142 0.09978497 0.035115637 0.051272336 -0.12710153 -0.052962925
-0.07426279 0.14803346 -0.005003152 -0.09696718 0.043987673 -0.057973247 -0.15785715 0.011212665
0.09392237 0.1346024 0.16966134 -0.06373615 -0.15561354 -0.049739182 -0.10930589 0.14401107
-0.03667925 0.08790907 0.106173486 0.09728521 -0.15393937 0.16508353 -0.016634995 0.16793384
0.05830468 0.010038853 -0.1367886 0.009150818 0.14449404 0.0054611224 -0.14317058 -0.01705403
0.09924314 -0.13123457 0.012366142 0.028473563 -0.029678185 0.055618417 -0.13350923 0.022951411
0.056466382 -0.14476386 -0.18289877 -0.16118814 -0.018521883 -0.13141268 -9.034636e-05 0.043863527
-0.0705824 0.11436238 0.118937805 0.13937983 -0.004592047 0.014870196 -0.02954838 -0.12257609
0.053104933 -0.054581698 0.019036654 -0.025384568 -0.15626627 0.029503413 -0.032951508 0.1468132
0.16532354 0.13231432 0.074860305 -0.14107196 0.089036174 -0.037938006 -0.08220312 0.13815449
-0.15309903 0.046048097 0.007618309 -0.0058183065 -0.0015768647 0.057021856 0.026844215 0.117345914
-0.015752487 -0.12805615 -0.12092867 0.021574449 -0.16600654 0.01363188 -0.0006055486 -0.084902555
0.01609398 0.044889573 -0.09544363 -0.114872284 0.14520343 -0.0042579533 -0.1533922 0.15966722
-0.068643205 -0.16436188 -0.092343144 0.08527196 -0.07986204 0.12958136 0.069501676 -0.14504722
0.020140957 -0.14883804 0.090399034 -0.14455079 -0.15086049 -0.13849841 0.13799134 -0.13415311

EiLM.2.gamma_generator.weight f4 [1, 32]
00000000: e591 30bc 4601 51bd 25dc 0f3e bf0e 6abd
00000010: 16f0 cd3c c0bd 043d 6423 07be 6e99 b33d
00000020: de1c 703d 5457 57bd 044d 693d c678 16be
00000030: f837 303e fc09 433e d441 1dbe 2681 21be
00000040: 571e 003e 0e56 6d3c 5576 96ba bbe8 d43d
00000050: 9c24 943d 9af1 a5bd 153c 333e 1631 9cbc
00000060: 1923 00be ba2c 91bd 113d f6bd f4f2 41bd
00000070: 3c5f 4b3d 1140 9cbc 82e8 04be b75c 09be
-0.0107769715 -0.051026605 0.14048822 -0.05714297 0.025138896 0.032407522 -0.13197094 0.08769499
0.05862128 -0.052573517 0.056958213 -0.14694509 0.1720885 0.19046777 -0.15357143 -0.15771922
0.12511574 0.014485849 -0.0011479357 0.10395952 0.07233545 -0.081027225 0.17503388 -0.019066375
-0.12513389 -0.07088609 -0.12023366 -0.04735084 0.04965137 -0.019073518 -0.1297932 -0.13414274

EiLM.2.beta_generator.weight f4 [32, 32]
00000000: 2424 d33d e663 5c3c 3bc6 1f3e 4b57 2bbe
00000010: 7ba4 10be 051f 15bd ef6a b93d 6cdf bebd
00000020: 9647 2bbe ecb0 d23d 9496 01be 206e 253e
00000030: 224c d0bd 1729 02be 7373 7fbc 4a2c 933c
00000040: 828e 293e 56a2 593b 505e 30be 1c34 30be
00000050: 5555 0bbe 0e67 debc 96b9 ae3d fa1f c4bd
00000060: c602 c7bc f541 f63d 5598 f23a 69b4 e7bd
00000070: ff74 dabd a7b4 37bd 4b5a b43d 518e e2bd
00000080: 4379 403d 88be 143e d0ec 24bd ffad 9cba
00000090: f8c7 bdbd 43b7 7ebd ec9d e63d accd 663c
000000a0: bf10 193e e562 16bd ec7e 083e aa5f 803b
000000b0: f93b 323e d94d dcbd 76f6 2b3e 8456 82bd
000000c0: e029 c9bd 8780 263d d0e9 8bbd ccaa 113e
000000d0: 9c2d 05be e340 253e 902d 2a3e 13d8 0abb
000000e0: 7198 933d 376b 883b 9bf9 04be d275 90bd
000000f0: 03c7 273d 34e4 32be a331 8b3d 19ee 4cbd
00000100: a4d3 503d 9142 be3c bfd9 413c 7d2b f1bc
00000110: fdc8 1d3d 96da ed3d 78a1 7cbd 272a 6f3d
00000120: bdb1 043e ba06 24bd fb91 bfbd 57e8 223e
00000130: b80a d8bc c339 f13d 20ce d73d d8b0 e13d
00000140: acb9 aabd 9378 03be 010b 68bd 6a9d a03d
00000150: 394e 113e fb57 c83c dec0 183e da42 b9bd
00000160: 359a 2cbe 37e2 1e3e 8558 e2bd d620 14bc
00000170: 96c1 23be db22 2fbe 9f00 113d da05 36be
00000180: f111 8d3d 88b7 b73b 7a4c a23d c499 bf3d
00000190: f7e1 e43d fb07 9cbb ec56 a03d 1bab 2cbe
000001a0: b301 133d 2244 b43d 6a58 b9bb 7a0e df3d
000001b0: 9a49 0d3e 5f1d 183e c787 053e 4404 343c
000001c0: 6c03 3eb9 5c2b b7bd 43af 643d f0df 913d
000001d0: 922c d3bd f5a0 133e 239f 3c3d 57fb 64bd
000001e0: 79f5 42bd e4f1 223d 6cee 78bd a95f 6b3d
000001f0: 911d b03c 4b2f 993c 7296 d43d 3658 9bbd
00000200: d846 31be 1041 f1bc 4cb6 2ebe 2319 3b3d
00000210: 8f1f 223e 7c14 d0bd 56e4 19bc 9ed5 063e
00000220: 7071 b7bd 1db1 373d 5783 813c 546b b4bd
00000230: 546d 183e 0b7e 223e 4c0d 923d b73f 1dbe
00000240: be25 31be 4079 f8b9 7aad 24bd e883 f23c
00000250: 4a79 cdbd bc80 23be 1810 eabd 7720 aabc
00000260: 00d5 58bc 502e 9c3d ab26 493d a6b1 5cbd
00000270: f754 b6bd 7427 b83d 1582 cfbd c7c6 253d
00000280: 744e 28be b7ff 493c 1e27 17be 59df 16be
00000290: 3f6f 3abd add3 ebbd 14fb 043d aa2e fa3c
000002a0: 14b4 6c3d c576 203a 525b 343e 0b68 0e3d
000002b0: 992f 433d 3234 2f3e 2543 f8bd c14c 63bd
000002c0: 40bd cabd 0603 82bd 1a3d ac3d e6ef 31be
000002d0: 8b22 46bd 2da0 2dbe 3fde 2fbd aade 28be
000002e0: d22c 37bd 0ee5 81bd f7d3 273e 5916 abbc
000002f0: 4fce b0bd 1683 b4bd fabf d93d 4ff0 2cbe
00000300: 24c0 013e 68a0 1dbe e336 7b3d 601b 7cbc
00000310: 728f bb3d 78c9 c7bd 418b aebd 615a 02be
00000320: 122d f8b9 9d3c 21be e3e2 59bd 45b4 8cbc
00000330: 8af6 273e c391 f1bd e6b6 dbbd 9288 babd
00000340: a08f ed3c 9a70 793d 5caf 4e3c dad9 873c
00000350: b580 c53d d8a3 573d fc74 3cbd 2b91 07bd
00000360: a27d dcbc 8405 62bd 70e9 97bd 6fa9 c0bd
00000370: 8d03 f33d 7f5c 053e 39b1 76bd 6ef2 92bd
00000380: 2eae 4bbc ede7 34be 4a42 3ebd cf37 ea3d
00000390: 17c0 a43d d6f0 76bd 0a3e 243e f671 eebd
000003a0: 91d4 043e d41e 153e f1c2 17be d458 133d
000003b0: c56f 093d c07d 303e a5b2 273e 916e edbd
000003c0: 04bc 1dbe d60c 113d fc33 1c3e e569 1f3e
000003d0: 6f10 333e 1d2c 94bd eec8 9f3d ac42 533d
000003e0: 8662 863a b25f a9bc 2f6d 2abe 960c 0ebc
000003f0: a3b9 203e 31f0 2c3c 2232 ff3d 2bb9 28be
0.10309628 0.013451552 0.15602963 -0.16732518 -0.14125244 -0.036406536 0.09053599 -0.09319958
-0.16726527 0.102876514 -0.12655097 0.1615529 -0.10170771 -0.12710987 -0.01559149 0.017965455
0.16558269 0.0033208332 -0.17223477 -0.17207378 -0.1360677 -0.02714875 0.085314915 -0.095764115
-0.024293315 0.12024299 0.0018508533 -0.113137074 -0.106668465 -0.044850018 0.088062845 -0.11062301
0.046990644 0.14525807 -0.040264904 -0.001195371 -0.09266657 -0.06218649 0.1126059 0.014087122
0.14947794 -0.036715407 0.13329667 0.003917654 0.1740569 -0.10757036 0.16793236 -0.06364158
-0.0982244 0.040649917 -0.068317056 0.1422531 -0.1300568 0.16138034 0.16618943 -0.002118592
0.0720681 0.0041631716 -0.12985842 -0.070537224 0.040961277 -0.17469865 0.06796577 -0.050031755
0.050983086 0.0232251 0.0118317 -0.029439682 0.038521755 0.116139576 -0.061677426 0.05838981
0.12958427 -0.040045477 -0.093540154 0.15908943 -0.026372299 0.11778595 0.10537362 0.110200584
-0.08336195 -0.12838964 -0.05665112 0.07842524 0.14189996 0.024456015 0.14917323 -0.09045954
-0.168557 0.15515982 -0.1105204 -0.009041032 -0.15991816 -0.1710314 0.035400983 -0.1777567
0.06888188 0.0056065954 0.07924743 0.093555 0.11175912 -0.0047616935 0.07829079 -0.16862147
0.035890292 0.08802058 -0.0056562917 0.10891433 0.13797608 0.14854954 0.13040076 0.010987345
-0.00018121087 -0.08943817 0.055831205 0.07122791 -0.103112355 0.14416869 0.046050202 -0.05590376
-0.047597382 0.039781466 -0.06077425 0.057464276 0.021498473 0.018699309 0.10380258 -0.07585184
-0.17312181 -0.02944997 -0.17061728 0.04567827 0.15832351 -0.10160157 -0.009392818 0.13167426
-0.08957183 0.044846643 0.015809698 -0.08809534 0.14885455 0.15868394 0.071314424 -0.15356337
-0.17299554 -0.00047392584 -0.040204503 0.029603913 -0.100329 -0.15967077 -0.11428851 -0.020767434
-0.013234377 0.07626021 0.049109142 -0.053880356 -0.089029245 0.089919 -0.10132233 0.040472772
-0.16436177 0.012329034 -0.14761016 -0.14733638 -0.04551625 -0.11514983 0.03246601 0.03053983
0.057788923 0.00061212137 0.17612961 0.03476719 0.047652815 0.17109755 -0.12122182 -0.05549312
-0.09899378 -0.06348233 0.08410092 -0.1737667 -0.048372786 -0.16955633 -0.04293656 -0.1649119
-0.04472048 -0.06342517 0.16389452 -0.02088468 -0.086331 -0.08814065 0.1063232 -0.16888545
0.12670952 -0.15393221 0.06133164 -0.015387386 0.091582194 -0.09755224 -0.08522654 -0.1272979
-0.00047335826 -0.15745778 -0.05319489 -0.017175803 0.16402641 -0.1179538 -0.107282445 -0.0910808
0.02899915 0.0608984 0.012615051 0.016583372 0.096436895 0.052646488 -0.046010002 -0.033097427
-0.026915375 -0.05518104 -0.074175715 -0.09407317 0.11865912 0.13023566 -0.060227606 -0.07175146
-0.012431664 -0.17666598 -0.046449937 0.11436426 0.08044451 -0.060288273 0.16039291 -0.1164283
0.12971713 0.14562541 -0.14820458 0.035973385 0.033553857 0.1723547 0.16376741 -0.115933545
-0.15403754 0.035412632 0.15254205 0.1556774 0.17486738 -0.072349764 0.07801996 0.051577255
0.0010252751 -0.020675514 -0.16643213 -0.008669993 0.15695815 0.010555313 0.12460734 -0.16476886

EiLM.3.gamma_generator.weight f4 [1, 32]
00000000: 5b10 313d b56b 43bd a17e 123e 5c74 253d
00000010: 0995 f4bd 7efa 12bd ed61 13be 3053 b03c
00000020: d7c6 65bd 796b 16be c22f 9bbd 39f5 333d
00000030: a021 133e b210 0e3e b55e 2abe 706d 9cbd
00000040: c627 d8bd 25a0 ddba fff1 f33d a4a9 db3d
00000050: 6841 5a3d f2f0 b3bd 0107 e4bd cdbd 373c
00000060: f0d0 ba3d dbd6 143e 59ed 01be 20d2 0f3e
00000070: d775 e63d 3dbe 59bd 33fc cfbd 356e 8d3d
0.04322849 -0.04771014 0.14306118 0.040394172 -0.11942489 -0.03588342 -0.14392824 0.021524042
-0.05609783 -0.14689435 -0.075774685 0.043935034 0.14368296 0.13873556 -0.1663769 -0.07638061
-0.10554461 -0.0016908689 0.119113915 0.10725716 0.053285033 -0.08786191 -0.111341484 0.011214686
0.09121883 0.14535086 -0.12688197 0.14045 0.11252945 -0.05315994 -0.10155525 0.06905786

EiLM.3.beta_generator.weight f4 [32, 32]
00000000: cbff 2ebe 4beb 2b3e 6731 823d 2eff 963b
00000010: e4b1 293e a5a5 20be d9c3 14be 4bd1 f9bc
00000020: e284 293e 9250 6b3d a139 2ebe 2931 80bd
00000030: 9893 093e 7375 853d 2563 213c ee0d 0cbe
00000040: 3cf2 f8bb 9381 a4bc 7571 2ebe c02d ed3c
00000050: 5f35 ed3d a488 f7bd 052c d6bd 5c65 35bd
00000060: ba46 3fbd 91ac 08be 7e8f 08be 3bad 8bbd
00000070: 670b 18be e5e8 8ebd fbb6 79bc c73a 133e
00000080: fac4 e63d e585 3fbd 1613 edbd 1ef4 c43c
00000090: 48b0 1fbe e260 1a3e 0210 9ebd 80ec 323d
000000a0: 835a 19be d7b2 ec3d c602 243d 8e20 263e
000000b0: 7dc5 ecbd ccb3 c1bd 1e70 173e ec7f 313d
000000c0: 844c c1bd 5854 be3d 027c 8e3d 2f97 fdbd
000000d0: 0815 febd 000b 873d 381d dabc e3a4 e13d
000000e0: aa33 a1bd 159d 763d 3358 62bd 008c babd
000000f0: 3182 04be 396d cc3d ce45 2b3e 7fd4 123d
00000100: e5ce 053e 2e54 b63d 92c7 303e 6ba7 4c3d
00000110: 6ed2 37be d9d4 1bbe f0e5 7a3d b498 4cbc
00000120: 0239 7b3d d070 0ebe 29ab cdbd e789 35be
00000130: 5dda efbd bd52 35bc 3ae8 cb3d c7bf 3f3d
00000140: ca0a b3bd f6bc 24be d11a e5bd 7a5f a8bd
00000150: 6b57 c2bd dd38 14be 38fe f03d 9328 a9bd
00000160: 7f62 853d 4289 8b3c be4c 0e3e 4e12 20be
00000170: 440e 85bc ae86 af3d 9843 b7bd 8d2e 0fbe
00000180: fe39 873d 58dd 933d 57b1 2a3e 1100 15bc
00000190: 51e6 273e 2145 353e 2847 fcbd 35d5 1cbe
000001a0: dffb e63d 4e04 0e3d f017 1dbe f6f1 2a3e
000001b0: 89c9 753d d57f 4e3d 4a19 d2bd ffd7 1c3e
000001c0: 9f6c 1bbe 11f8 0abe ce4a 24be 4846 92bd
000001d0: 1ea6 57bd 76f9 21be 6494 103e 5390 e43d
000001e0: a856 2c3e 175c 36bc 809b 3cbd 7f7b 0bbe
000001f0: 914d 9fbd 1f91 2cbe 6e40 d9bd eb8d afbd
00000200: fd5c da3d f1d6 023e b3a1 27be 075b 183d
00000210: b14d f83d 8e92 1fbb 960d 28be cbf8 bfbd
00000220: 81d0 043d b8fd 30be 60ea 0dbe bed5 ecbd
00000230: bdf8 32be 4598 ffbd 9b23 ce3d 0949 5e3c
00000240: 2c57 6dbc 7324 133e fe81 06bd 5e59 05be
00000250: f6f9 eabb 7b47 8fbc fa72 b33d 9b81 c03d
00000260: 551d 19be de0d 353b 8989 1d3e 8914 16bd
00000270: b1f4 1dbc 558c ff3c 9fe1 243d 51e1 ecbd
00000280: ecdf 583c f154 19be 9995 423e 51dc fbbd
00000290: 7d72 153d 3f8d 25be 2975 233e ea34 bdbc
000002a0: f681 253e b24d b4bd 1972 39be 62bf 00be
000002b0: 1501 1c3e c466 3f3e 867e e0bc 8b5b 5f3d
000002c0: 2474 1b3e ab6b 9d3d 5fbe 31be d4df cabd
000002d0: 0a21 903c 3455 083e 5035 20be 7232 873d
000002e0: d581 383e 357d fdbc 1675 fa3c a9a8 b73d
000002f0: 5e74 1f3d f674 b83d 1a9a 2c3d c254 b03c
00000300: 7238 d0bd 3dc8 713c 391c dcbd 6643 233e
00000310: fcc5 2f3e ae6e e83d df4e 38be 9007 6bbd
00000320: f73c 1abe fa75 20be 9e37 3cbc 3cb5 8cbd
00000330: 8263 13bd bcac c4bd 1b4b 1bbe f7f0 00be
00000340: e8d3 3c3e f37b bf3d 4552 d0bd 4c02 f93d
00000350: 5f4d 2cbe dc07 d53c 774f 33bd 6e4e 153d
00000360: bc17 0c3e a805 b3bd bc01 cabc 34a6 01be
00000370: 2d9f f03d b56b c13d d685 0abd 3b8f f93d
00000380: b9cc 0a3e 8143 363e 1f95 4cbd 01e8 bfbd
00000390: 91fd 383d b136 fabd c0af 513c 5e11 8abd
000003a0: f228 263b 9bae bfbc bde8 06be 2209 0f3e
000003b0: 3be1 1bbe 4a24 133e 3272 d7bc c362 173e
000003c0: a1b1 a73d a890 283e 9d5c 9b3d 78b0 0ebd
000003d0: bbbe 98bd 8c0d 363e 8607 203e dfc8 93ba
000003e0: 1b1b 20be b99b 1e3d babd 16be e9d5 89bc
000003f0: 8429 243d f60d 0a3e 2c33 bb3d ebe0 133e
-0.17089765 0.16788976 0.06357079 0.0046080565 0.16571766 -0.15688188 -0.14527835 -0.030495306
0.16554597 0.057449885 -0.17014171 -0.062593766 0.13435209 0.06516542 0.009850298 -0.13677189
-0.007597236 -0.020081317 -0.17035468 0.02895248 0.11582445 -0.12086609 -0.10457615 -0.044286117
-0.04669831 -0.13347079 -0.13335988 -0.068201505 -0.148481 -0.06978015 -0.01524138 0.1437789
0.11268039 -0.04675855 -0.11575906 0.024042185 -0.1559459 0.1507602 -0.07717897 0.043682575
-0.14975934 0.115575485 0.040041707 0.16223356 -0.115611054 -0.09458122 0.14788863 0.043334886
-0.09438422 0.09293431 0.06957246 -0.123823516 -0.12406355 0.06593895 -0.02662526 0.11017778
-0.07871182 0.0602084 -0.055259895 -0.09108734 -0.12940289 0.0998177 0.16725847 0.035847183
0.13067205 0.08902775 0.1726363 0.04996435 -0.17951366 -0.15217914 0.06125444 -0.012487579
0.061333664 -0.13910222 -0.10042412 -0.17728387 -0.11711571 -0.01106709 0.09956403 0.046813753
-0.08742292 -0.16087708 -0.111867554 -0.08221336 -0.0948933 -0.14474817 0.117672384 -0.08259692
0.06512927 0.017033223 0.13896462 -0.15631983 -0.016242154 0.0857061 -0.08948439 -0.13982601
0.06602858 0.07219952 0.16669212 -0.009094254 0.16396452 0.17702152 -0.123182595 -0.15315707
0.11278509 0.034672074 -0.15341163 0.16693863 0.060006652 0.05041488 -0.1025873 0.15316771
-0.15178154 -0.13571192 -0.1604416 -0.07142311 -0.052648656 -0.15817818 0.14119107 0.1116034
0.16829932 -0.011130354 -0.046046734 -0.13621329 -0.077784665 -0.16852234 -0.10607992 -0.085719906
0.10662267 0.12777306 -0.16370277 0.037196185 0.121241935 -0.0024348828 -0.16411433 -0.09373625
0.032425407 -0.17284286 -0.13858938 -0.115642056 -0.17477699 -0.12480215 0.10065385 0.013567218
-0.014486115 0.14369373 -0.032838814 -0.13022372 -0.007170911 -0.01749014 0.087621644 0.0939972
-0.14952596 0.0027626674 0.15384497 -0.036640678 -0.0096408585 0.031194845 0.04025423 -0.11566413
0.013236981 -0.14973809 0.1900238 -0.122978814 0.036486138 -0.16167162 0.15962662 -0.02309652
0.16162857 -0.08803882 -0.18109931 -0.12573007 0.15234788 0.18691546 -0.027404081 0.05453066
0.15181023 0.07686552 -0.17357777 -0.09905973 0.01759388 0.13313752 -0.15645337 0.066014186
0.18018277 -0.030943492 0.030573409 0.08967716 0.038929336 0.090066835 0.04213915 0.02152479
-0.10167016 0.014757213 -0.107475705 0.15943679 0.17165369 0.113492355 -0.17998837 -0.05738026
-0.15062319 -0.15670004 -0.01148787 -0.06870505 -0.03598357 -0.09603259 -0.15165369 -0.12591921
0.18440211 0.09349813 -0.10171942 0.12158641 -0.1682639 0.026004724 -0.043776955 0.03645175
0.13680929 -0.08741313 -0.02465903 -0.12661058 0.1174911 0.094443716 -0.033819042 0.12185522
0.13554658 0.17799188 -0.0499469 -0.09370423 0.045163695 -0.12217463 0.01279825 -0.06741594
0.0025353995 -0.023398688 -0.1317472 0.13968328 -0.15222637 0.14369312 -0.02629957 0.14783768
0.08188177 0.16461432 0.07586024 -0.034836262 -0.07458254 0.17778605 0.1562787 -0.0011275074
-0.1563534 0.038722727 -0.14720812 -0.016825633 0.040078655 0.13481888 0.0914062 0.14441268

Gate.weight f4 [4, 32]
00000000: d28a e6bd eda5 e83d 78f0 a93d 9db0 863d
00000010: 2492 dbbd 43dc 833c 8cb3 b33d bfed 0dbe
00000020: 6bd4 2c3e 1eaa 8039 4441 e1bd d3c7 273d
00000030: 6228 1dbd 3274 acbd edc4 20be 3329 8dbd
00000040: d10d 0dbe af00 3dbc 0cb7 dd3d 5cc0 a13d
00000050: 6433 1ebe 2657 0a3d 95bf 75bd 46e7 51bd
00000060: 3042 023e 5566 51bd 7fcc 153e 296d 1f3d
00000070: 722c 123e f5f7 44bc 5eda cd3d 08bc a73c
00000080: f58d 9fbd 0e85 2a3e 5f05 9d3d 9a1d 62bd
00000090: d2c7 1d3e 3431 8e3c 7ba7 083e a23f 34be
000000a0: af81 b43d 3824 41be e522 10be a72e 173e
000000b0: d41b a63d ff91 d03d d779 be3d f6d2 c03b
000000c0: 714f 2b3e f858 423d 6e08 5fbd f7de d5bd
000000d0: 5439 01be 4f9d c7bd a2fa adbc bf92 77bd
000000e0: e630 0cbe 12f2 413d f6a4 133e cc75 0e3b
000000f0: 06ec be3c 019f b6bd 9b37 30be fe0a a5bd
00000100: 7baa 0dbe daee dabb a1ba 113e 23d2 a9bd
00000110: 00ee 223e 6d5e 863d 495c c2bd c832 f43d
00000120: 4b81 d53c 2886 143e 8857 30be 3ce4 5c3a
00000130: d042 00bd 0091 be3d bb35 2bbd b887 b0bd
00000140: e12d bb3d f997 a4bd 7d2e c73d 644f 1cbe
00000150: ec66 fcbd 2bb8 193e 44a3 24be 25d1 b7bd
00000160: c09d 513d b4c1 813d 909a eabc dc68 81bd
00000170: fdb1 31be 6054 2dbd 5078 babb 49ef c93b
00000180: 0df4 f0bd bb5d 78bd ed58 34bd ffc1 eebd
00000190: 8bf1 f8bd b087 15be 9bfa 65bc daa1 1bbe
000001a0: d758 1fbe 0d86 c3bd 521c da3c 4de4 1cbe
000001b0: c410 6cbd 055f 793d bcf0 223e 67e3 253e
000001c0: b364 2b3e 7da9 2bbc 2bdc 09be 7720 aebc
000001d0: 248b da3d b5f7 333d bc64 19bc 64f4 583c
000001e0: 60d3 3abe 67d2 72bd 7439 84bd 5454 c3bd
000001f0: 3c9d e9bd 0b4b 7f3d aab5 3cbe 7f58 153c
-0.112569466 0.11359773 0.08297819 0.06576655 -0.107212335 0.01609624 0.0877448 -0.13860224
0.16877906 0.0002454081 -0.109987766 0.04096205 -0.03836859 -0.084206 -0.15700121 -0.06892624
-0.13774802 -0.0115358075 0.10825929 0.07898018 -0.15449291 0.033774517 -0.05999716 -0.05124595
0.12720561 -0.051122982 0.1462879 0.038922463 0.14274767 -0.012022008 0.10051416 0.020475402
-0.07790748 0.16652319 0.0766704 -0.05520401 0.15408257 0.017357446 0.13345139 -0.17602399
0.08813798 -0.18861473 -0.14075811 0.1476389 0.081107765 0.101840965 0.09300583 0.0058845235
0.16729523 0.04744813 -0.0544514 -0.10442918 -0.12619525 -0.09746801 -0.021237675 -0.060442682
-0.13690528 0.047349997 0.14418396 0.0021737693 0.023305904 -0.08917046 -0.17208712 -0.08058737
-0.13834564 -0.0066813054 0.1423135 -0.082920335 0.15911102 0.06560979 -0.09490258 0.11923748
0.026062628 0.14504302 -0.1722089 0.00084263436 -0.031313717 0.09305 -0.04179929 -0.08619636
0.0913961 -0.08036799 0.09725664 -0.1526466 -0.12324318 0.15011661 -0.16077906 -0.08975438
0.051175833 0.06335774 -0.028638154 -0.063188285 -0.17353053 -0.042316794 -0.005690612 0.006162558
-0.11765299 -0.060636263 -0.04403012 -0.116580956 -0.12155446 -0.14602542 -0.0140368 -0.1519846
-0.15561233 -0.095470525 0.026624832 -0.15321465 -0.057633176 0.060881633 0.15912145 0.16200028
0.16737632 -0.010477421 -0.13462894 -0.021255715 0.1067107 0.043937404 -0.009362396 0.013241861
-0.18244696 -0.059282687 -0.06456271 -0.09537569 -0.11406943 0.062327426 -0.18428674 0.009115337

experts.0.gate_proj.weight f4 [32, 32]
00000000: 6dc1 0fbe fc07 a53c 8bec 92bb b96c 76bd
00000010: 4179 d5bd ec31 9c3d 18ef 15be 48cc 1f3e
00000020: ff34 353e 2082 02be 1add 88bd bee9 1dbe
00000030: ed1d 1abd e410 99bd 2cb9 4d3d f840 bcbc
00000040: 0331 5c3d d2cf 08be f3e6 d9bc 43b9 ecbd
00000050: da8c 0f3e 3562 97bd 3ed0 bebd 9f0a 01bc
00000060: 1b9e fdbc f9c5 31be d54c d3bd f141 7dbd
00000070: 1aeb 25bd 208a a0bd 3bf6 9d3d 4ddb 39bd
00000080: c234 bb3d 07a4 283d b600 b9bd b4aa 2c3e
00000090: 7e0b c13d 149f 20bd e441 a33d c341 fabd
000000a0: ac1d 843c 7c9a 1a3e 7dfe 61bc dda5 a6bd
000000b0: 5cc7 263e a690 f23b b370 1e3e be3e c5bd
000000c0: b9f3 bf3d 2707 5abd 9286 38be ccca 43bd
000000d0: 43a9 19be 2b3d 073e 9eb5 e2bd c9fc bbbd
000000e0: 10af a7bd 02cb 163e 3480 a33d 42f3 613d
000000f0: 1924 a53d 69ec a43c acc2 87bd b278 203e
00000100: df9b 01be 4dcb f1bd 2d39 7cbd d2be 353e
00000110: 2efe 97bd 1827 ffbd 9429 29be 393b 7cbd
00000120: 5112 98bd 0ed9 0e3d 332d 363e 35f8 413c
00000130: 7449 073d 4e93 193e 7dae 1dbe 0d2b 26bd
00000140: 86af 3ebd 4057 0cbe b84f f9bd 618e 93bc
00000150: 2e85 863c ae40 8cbd d0d5 393d d6c5 6bbd
00000160: d57d 2cbe 0a63 8abd c486 2d3d 4aa7 d33c
00000170: 99bf 7abd dcfb 643c 471e e33d 76c8 003e
00000180: 3e95 85bc c129 233d 3683 47bc aa66 24be
00000190: affe 2a3e 4da8 be38 5532 6a3c 1891 ec3d
000001a0: 9550 a23d bbf8 af3d b587 0ebd 4d74 e03d
000001b0: 990a 09be b31e cf3d a38e 163e d432 28be
000001c0: 8e12 04be 4a8f d13d ac78 dcbd 2a97 c2bd
000001d0: ed2e 623b 567c f9bc e90d ad3d f1a1 3dbc
000001e0: d115 b1bd 99bb 97bd cb1b 2b3e bca3 47bd
000001f0: 513b 90bc b77c 00be d6bb 86bd 978e f0bd
00000200: 7f4a 27be b4cd 003b ea0c 993c 77a9 573d
00000210: d9bf b43d 4008 0cbd 2e0f 113e 9d68 203e
00000220: 083b 2b3e 935e 833d 414b 28be 412b 0bbe
00000230: f25c e2bd 907b 5d3c efb7 d43d b515 36bc
00000240: 83c7 233e 6559 7e3d 8103 2a3e 66c5 99bd
00000250: 7414 2f3d dc49 7b3d 8e40 103e cb32 2bbd
00000260: 7bfe f4bd 0c8b bc3c b6c6 503d 224e 0dbe
00000270: ec07 353e 7606 a83d e85a fabd 44f0 963c
00000280: 7656 9abd e846 a0bd 39b9 d43d 1b3b fcbc
00000290: 6147 863d cacb 2bbe 974d 18be 1cea 2a3d
000002a0: 81ba 48bd bfe4 b83b f2c6 afbc 6174 96bd
000002b0: da70 263e 294e 33be 80bc 153d 80e3 b43d
000002c0: 59dc 123c 79cd 9ebd 60ec 74bb a9ed 15bb
000002d0: 0016 0dbe 3f63 f5bd a81e 213d 3c1f 3dbd
000002e0: fb44 c1bd fa1c cd3d 6703 c23c 7f2e 38be
000002f0: 40c4 09be 3b87 c6bc 4ba0 e93d 4cba a5bd
00000300: a8b1 ef3d 9173 6d3d dc08 38bd 7269 7fbd
00000310: 8b05 30be 3cc5 d4bd 87da ddbc 0009 c73c
00000320: d1ab 043d eee8 8d3b f7e7 033e 7b58 84bd
00000330: 1bea 71bd 4ca8 443c 376f 65bd c1ac cebd
00000340: 2497 1f3d ac10 f23d 4c0d a13d cc51 823c
00000350: eec5 ee3b 2cb9 133e 4895 e03d 106f 083d
00000360: 96d8 39bc afbe 81bd ffd1 f63b 6d6a dc3d
00000370: 8ab3 ae3d 1b23 f6bd 9978 263e 9190 09bd
00000380: b0b2 b43d 1937 923d 13ad d73d 381e 2b3d
00000390: 5df3 143e 4a37 683b 989a db3d 3940 babd
000003a0: 5ba2 2a3d 95ea 20be 13b7 0a3e 3d8d 283e
000003b0: ee1a e2bd 2c12 ddbd 3247 cebc cdff 883d
000003c0: 1e55 23bd 4239 063e 89c7 1ebe 7a4f 293e
000003d0: 016f b3bd ab36 0b3e 7cd1 cfbd 5a35 bebd
000003e0: a3dc 35be 3a6a 763c 4698 99bd 9b16 c73d
000003f0: 3eb3 bcbd 34e6 0f3e 02b9 d3bd 76da 9bbd
-0.1403863 0.020145409 -0.0044837645 -0.06016228 -0.10423518 0.07626709 -0.14641988 0.15605271
0.17695998 -0.12744951 -0.06682797 -0.15421197 -0.037626196 -0.07473925 0.05022542 -0.022980198
0.05375768 -0.13360527 -0.026599383 -0.11558773 0.14018574 -0.073917784 -0.09317063 -0.007876067
-0.03095918 -0.17360677 -0.10317389 -0.061830465 -0.040507413 -0.07838845 0.0771298 -0.045375157
0.09140922 0.041172054 -0.09033339 0.16861993 0.0942602 -0.03921421 0.07971552 -0.12219574
0.01612743 0.15097994 -0.013793585 -0.08137105 0.16286987 0.0074024973 0.15472679 -0.09631108
0.09372658 -0.053229477 -0.18020085 -0.047800824 -0.15005974 0.13206927 -0.11069797 -0.09179074
-0.081876874 0.14725879 0.07983437 0.05516363 0.08063526 0.02013226 -0.066289276 0.15671042
-0.12657116 -0.11806355 -0.061577965 0.17748573 -0.07421528 -0.124586284 -0.16519767 -0.061579917
-0.074253686 0.03487497 0.1779068 0.011838962 0.033029035 0.14997599 -0.15398593 -0.0405684
-0.04655411 -0.13705158 -0.12173408 -0.018012227 0.016420927 -0.06848274 0.045369923 -0.057561718
-0.16844876 -0.067571715 0.04236485 0.025836606 -0.061217878 0.013976064 0.11089759 0.1257647
-0.016306516 0.03983474 -0.012177279 -0.16054788 0.16698717 9.0912545e-05 0.014294227 0.11551112
0.07925526 0.085923634 -0.03479739 0.109596826 -0.13382949 0.10113277 0.14702849 -0.1642564
-0.12897703 0.10232408 -0.10765204 -0.095014885 0.0034512833 -0.030454796 0.08449919 -0.011574254
-0.08646739 -0.07408828 0.16709821 -0.048740134 -0.01760641 -0.12547575 -0.065787956 -0.11745947
-0.16337012 0.0019653859 0.018682916 0.05265185 0.088256545 -0.034187555 0.14165947 0.15664907
0.16721737 0.06414523 -0.16434957 -0.13590719 -0.11052884 0.013518229 0.10386645 -0.011113574
0.15994076 0.062096972 0.16602899 -0.07508354 0.042744115 0.061349735 0.14087126 -0.041796487
-0.11962601 0.023015521 0.050970756 -0.13799337 0.17678803 0.08204357 -0.1222437 0.018425114
-0.07536022 -0.07826024 0.10386891 -0.030789902 0.06556583 -0.16776958 -0.14873348 0.04172717
-0.04900599 0.005642503 -0.02145717 -0.07346416 0.16253987 -0.17510284 0.03655672 0.08832455
0.008963668 -0.077540345 -0.0037372336 -0.0022877252 -0.13777924 -0.1198182 0.039335877 -0.046172366
-0.09436985 0.100152925 0.023683263 -0.17986487 -0.1345377 -0.024234405 0.114075266 -0.08092174
0.11703807 0.05797154 -0.044930324 -0.06235642 -0.17189614 -0.10389182 -0.027081741 0.024296284
0.03239042 0.004330746 0.12881456 -0.06462189 -0.05906115 0.012003016 -0.056014266 -0.10091544
0.0389625 0.11819586 0.07863864 0.015908144 0.0072867787 0.14426106 0.10965973 0.033309042
-0.011343142 -0.06335198 0.0075323577 0.107624866 0.08530338 -0.120184146 0.16256942 -0.033585135
0.088231444 0.07139415 0.10531058 0.041776866 0.1454596 0.0035433345 0.10722846 -0.09094281
0.04165874 -0.15714486 0.135464 0.16460128 -0.11040293 -0.10794482 -0.025180433 0.06689415
-0.039876096 0.1310778 -0.15505804 0.16534224 -0.08761407 0.13595073 -0.10147378 -0.0928752
-0.17759947 0.015039975 -0.07499747 0.097211085 -0.09213875 0.1405266 -0.10338022 -0.076100275
