output/FF-L-MoME/ts_encoder_epoch4.pt (torch, 433260 bytes, 34 tensors)

proj.weight f4 [32, 8]
0	0x3b83d434	0.0040230993
1	0xbe82a924	-0.2551967
2	0xbe6fea21	-0.23429157
3	0xbe6b6224	-0.22986656
4	0x3e32c730	0.17458797
5	0xbe837007	-0.25671408
6	0xbcf7519d	-0.030190283
7	0x3e8c8c63	0.27450857
8	0xbeafb3c3	-0.34316835
9	0x3e749e0b	0.23888414
10	0x3ea2a2ec	0.31764925
11	0x3e1aaff2	0.1510618
12	0x3d4c7384	0.04991485
13	0x3ead0042	0.3378926
14	0x3e8e0449	0.27737644
15	0x3e992415	0.2991034
16	0xbdf1bb60	-0.11803317
17	0x3e0ae5a7	0.13564168
18	0x3d733279	0.059374306
19	0xbe9d764c	-0.30754316
20	0xbe91eb57	-0.28499863
21	0xbe9ed393	-0.31020793
22	0xbd94b695	-0.07261387
23	0x3c2bf7a9	0.0104960585
24	0x3e1ec274	0.15503865
25	0xbe70ec2e	-0.23527595
26	0x3bb85392	0.0056251967
27	0x3e569e99	0.20958938
28	0xbe95cdbb	-0.29258522
29	0x3e99dbb9	0.30050448
30	0xbd98d367	-0.07462197
31	0xbe8150e8	-0.2525704
32	0xbd02c11d	-0.03192245
33	0xbd1e9215	-0.038713533
34	0x3ea0b3fe	0.31387323
35	0x3e13fa4e	0.14450952
36	0x3e5e410d	0.21704502
37	0x3e85a989	0.26105908
38	0xbe62e72e	-0.221585
39	0xbe27760b	-0.16353624
40	0xbe7c1385	-0.24616821
41	0xbe2f840c	-0.17140216
42	0xbe74038f	-0.23829482
43	0x3d72320f	0.05912977
44	0xbeb50135	-0.35352483
45	0x3e901ffb	0.281494
46	0xbeafd20b	-0.34339938
47	0x3e50f44f	0.20405696
48	0xbeaf794f	-0.3427224
49	0x3e38048c	0.17970484
50	0xbe39f87e	-0.18161198
51	0x3d938a74	0.07204142
52	0x3ea16d26	0.31528586
53	0xbe0689c9	-0.13138498
54	0xbb7e0de7	-0.003876561
55	0xbd5eff20	-0.054442525
56	0xbeb1110c	-0.34583318
57	0x3e8ed9df	0.27900597
58	0xbd9f3428	-0.0777362
59	0xbdb21583	-0.08695509
60	0xbe1843b6	-0.1486958
61	0x3e24cb2d	0.1609313
62	0xbe4459d3	-0.1917489
63	0xbe3f7966	-0.18698654
64	0x3e917433	0.28408965
65	0xbe8c2ebb	-0.27379403
66	0xbeaf00ed	-0.34180394
67	0x3dbc9e21	0.09209848
68	0xbe05ae99	-0.13054885
69	0xbe2ca88d	-0.16861172
70	0xbd7eabef	-0.062175687
71	0x3e9d145b	0.30679592
72	0x3dc29464	0.095009595
73	0xbea3311c	-0.31873405
74	0x3e11a9f5	0.1422499
75	0xbeb084d0	-0.34476328
76	0x3ddf5f82	0.109068885
77	0x3d3a3570	0.04546112
78	0xbe97cf2f	-0.29650256
79	0x3e32bc41	0.17454626
80	0x3da0db94	0.07854381
81	0x3ea4a3ae	0.32156128
82	0xbde28397	-0.11060255
83	0x3e683f20	0.2268033
84	0x3d53309c	0.05156003
85	0x3eb6dcdf	0.35715386
86	0xbe9aa354	-0.30202734
87	0x3e739264	0.23786312
88	0xbe1dd625	-0.15413721
89	0xbe7e8df8	-0.24858844
90	0xbe84588b	-0.25848803
91	0x3defc569	0.11707575
92	0x3e0b638e	0.13612196
93	0x3c5913e4	0.013249371
94	0xbb7e5f1a	-0.003881401
95	0xbe0c65ef	-0.1371076
96	0x3ea0f97f	0.3144035
97	0x3d4b9e5d	0.049711574
98	0x3e1a587e	0.1507282
99	0xbe268b29	-0.16264023
100	0xbe9c8b9a	-0.30575258
101	0xbe8c0773	-0.27349433
102	0x3e93e695	0.28886858
103	0xbdd08739	-0.10182042
104	0x3c38959a	0.011266137
105	0xbeb59e6c	-0.3547243
106	0x3d884e61	0.066555746
107	0xbdb66cce	-0.089074716
108	0xbd21bbf4	-0.039485887
109	0x3c375252	0.01118906
110	0x3e82cbcb	0.25546107
111	0xbd9a3731	-0.07530058
112	0xbe5f8c13	-0.21830778
113	0x3ea0a27d	0.3137397
114	0x3eb429fc	0.35188282
115	0x3eadc85f	0.33941934
116	0xbe9be62c	-0.30449045
117	0xbd44bce2	-0.048031695
118	0xbe46fc46	-0.19432172
119	0x3e4c8f25	0.1997648
120	0xbb6dbd9b	-0.0036276344
121	0x3e045c55	0.12925847
122	0x3ea92998	0.33039546
123	0x3e8885e6	0.26664656
124	0xbd9cc3b0	-0.07654512
125	0x3e8140a4	0.2524463
126	0x3e8e74ed	0.27823582
127	0xbe2ee48c	-0.17079371
128	0x3c7206bf	0.014772116
129	0xbe868ffa	-0.2628172
130	0xbe115dc7	-0.1419593
131	0x3e0d7893	0.13815527
132	0xb93193f4	-0.00016935152
133	0x3e9e2003	0.30883798
134	0x3eaa60de	0.3327703
135	0xbdd61e02	-0.10454942
136	0xbde78ed4	-0.11306539
137	0xbe80879d	-0.25103465
138	0xbbd64350	-0.006538786
139	0x3d5c4e98	0.05378589
140	0x3e055e62	0.13024285
141	0x3e09a732	0.13442686
142	0x3dd9308a	0.10604961
143	0xbd928036	-0.071533605
144	0xbdc1b50d	-0.09458361
145	0xbe57970d	-0.21053715
146	0xbe5e1398	-0.21687162
147	0xbea3da9b	-0.3200272
148	0xbe89a240	-0.268816
149	0xbe4a51f5	-0.19757827
150	0x3e364c26	0.17802486
151	0xbd0c1671	-0.03420109
152	0xbe4b379b	-0.1984543
153	0xbe4667bf	-0.19375513
154	0x3ea3dca2	0.32004267
155	0xbd909665	-0.070599355
156	0xbd59f89c	-0.053215608
157	0xbeb614a3	-0.3556262
158	0xbe9941c9	-0.29933003
159	0xbe7e7cc8	-0.24852288
160	0xbdb87acb	-0.09007796
161	0x3d223e76	0.03961035
162	0x3eb16190	0.34644747
163	0xbe2cba06	-0.16867837
164	0xbce45110	-0.027870685
165	0xbddf068e	-0.10889922
166	0xbea2a064	-0.31762993
167	0x3e119e35	0.14220507
168	0x3e93b819	0.28851393
169	0x3c0bb289	0.008526453
170	0x3cd0e83b	0.025501361
171	0xbe8b8502	-0.27249914
172	0x3e443a4c	0.19162863
173	0xbe03184d	-0.12802239
174	0xbe08ad9e	-0.1334748
175	0xbe8aad84	-0.27085507
176	0x3e644398	0.2229141
177	0xbe79c53a	-0.24391642
178	0xbcdd2078	-0.026993021
179	0xbeb04935	-0.34430853
180	0xbe2490e4	-0.16070896
181	0xbe045c98	-0.12925947
182	0xbe8f5faa	-0.28002673
183	0x3e6967c7	0.22793494
184	0x3e8f13c4	0.27944767
185	0x3d845c3a	0.06462903
186	0xbe9c0922	-0.30475718
187	0xbe210f29	-0.1572844
188	0x3e1faaf1	0.15592553
189	0xbe163abb	-0.14670841
190	0x3deeca51	0.116596825
191	0xbe1bafa8	-0.15203726
192	0xbdb55f5b	-0.08856078
193	0x3d97cee5	0.07412509
194	0xbdfa85d7	-0.12232559
195	0xb966b0f7	-0.00022000434
196	0xbe1af08f	-0.15130828
197	0xbe9467b3	-0.28985366
198	0x3ea765f7	0.3269498
199	0x3ea2b8c5	0.31781593
200	0xbe2785b4	-0.16359597
201	0x3e71baca	0.2360641
202	0x3e1300b2	0.14355734
203	0x3e0df0d4	0.138614
204	0x3eb13548	0.34610963
205	0xbd1fe33f	-0.03903508
206	0xbd4f19be	-0.05056166
207	0xbe967863	-0.29388723
208	0xbdb2b821	-0.08726526
209	0x3eb55a50	0.35420465
210	0x3e9f1b19	0.3107536
211	0xbc2e5c4c	-0.0106421225
212	0xbe733fcc	-0.23754805
213	0xbe3f715e	-0.1869559
214	0xbe208299	-0.15674819
215	0x3e96d862	0.29461962
216	0x3cb4b5bd	0.022059316
217	0xbea28dde	-0.3174886
218	0xbe9cb686	-0.30608004
219	0xbda5f55d	-0.0810344
220	0x3cdd57c8	0.027019396
221	0xbe847bd7	-0.25875732
222	0xbe931ab2	-0.28731304
223	0x3e864b23	0.262292
224	0x3eabcc82	0.33554465
225	0x3d2aa5ac	0.041661903
226	0x3ce2eafc	0.02769994
227	0x3ea32a68	0.3186829
228	0xbdc612fd	-0.096715905
229	0xbe971567	-0.29508516
230	0xbe6a119d	-0.22858281
231	0x3e91ceaf	0.28478
232	0xbe45afed	-0.19305392
233	0x3e918008	0.28417993
234	0x3ea0886b	0.3135408
235	0x3dfdf5af	0.12400376
236	0x3e2cb137	0.16864477
237	0xbd93359d	-0.0718796
238	0xbe82be18	-0.25535655
239	0xbe3b3342	-0.18281272
240	0xbe2d8760	-0.16946173
241	0xbe5396ba	-0.20662966
242	0xbe9d9a8b	-0.3078197
243	0xbe7ac9b9	-0.24491014
244	0xbe2e9ecc	-0.17052764
245	0x3da95648	0.0826841
246	0x3e29302b	0.16522281
247	0xbe347f42	-0.1762667
248	0xbd0cf881	-0.03441668
249	0x3b8d5e3b	0.0043142117
250	0xbe3cbcdf	-0.18431424
251	0xbebfdc18	-0.37472606
252	0xbe2ef248	-0.1708461
253	0xbe843b57	-0.25826523
254	0x3d248d52	0.040173836
255	0xbea150ca	-0.3150695

proj.bias f4 [32]
0	0x3e278577	0.16359507
1	0xbe04b60f	-0.12960075
2	0x3e9e35d5	0.30900446
3	0x3e1c14b9	0.1524228
4	0xbeabb8ec	-0.33539522
5	0xbea6668b	-0.3250011
6	0xbe9cb318	-0.30605388
7	0xbe3b169e	-0.18270347
8	0xbe4e877a	-0.20168868
9	0x3dc93fc9	0.09826619
10	0xbea0bab3	-0.3139244
11	0xbea5d937	-0.32392284
12	0xbd3349bf	-0.0437715
13	0x3e9ac295	0.3022658
14	0x3df908f3	0.1215991
15	0x3b91c431	0.0044484367
16	0xbda05bf8	-0.07830042
17	0xbe970315	-0.2949454
18	0x3e925c60	0.28586102
19	0x3e3a0f44	0.18169886
20	0x3eb2b315	0.34902254
21	0xbd75de0a	-0.060026206
22	0xbe1c2ff7	-0.15252672
23	0xbe391fd0	-0.18078542
24	0xbe4d6ea3	-0.20061736
25	0xbdd6e9b5	-0.10493795
26	0xbe900772	-0.2813068
27	0x3d2069f6	0.039163552
28	0xbdf1fba4	-0.11815575
29	0x3e82880f	0.2549443
30	0x3ca6ba15	0.020352403
31	0x3e90706d	0.28210774

EiLM.0.gamma_generator.weight f4 [1, 32]
0	0xbd88a426	-0.06671934
1	0xbdfa2af5	-0.12215225
2	0xbdf1eb52	-0.11812462
3	0x3c7360f5	0.014854659
4	0x3e37cd3a	0.17949381
5	0xbdaf8fc8	-0.08572346
6	0x3da982de	0.08276914
7	0xbca0242d	-0.0195485
8	0xbe392d86	-0.18083772
9	0x3d13b54d	0.036061574
10	0xbd1527e6	-0.036415003
11	0x3d2f5fac	0.04281585
12	0xbe47ae01	-0.19499971
13	0xbe1ee43e	-0.15516755
14	0x398f44e9	0.00027326428
15	0xbca54fc4	-0.020179637
16	0x3da2693a	0.079302266
17	0x3e424cb8	0.18974578
18	0xbd54c479	-0.051945183
19	0x3e040062	0.12890771
20	0xbdb2ccc2	-0.08730461
21	0xbc8ac3d5	-0.016939083
22	0xbe2162b2	-0.15760306
23	0x3e160284	0.14649397
24	0xbe118b3e	-0.14213273
25	0xbd982947	-0.07429748
26	0x3e13cbd1	0.14433219
27	0xbd725081	-0.059158806
28	0xbe0b2cbc	-0.13591284
29	0xbde7ad4d	-0.113123514
30	0x3df48ec4	0.11941293
31	0x3d29a1fc	0.041414246

EiLM.0.beta_generator.weight f4 [32, 32]
0	0xbd4b6ed5	-0.049666245
1	0x3d855dae	0.065120086
2	0xbe20e6c1	-0.15713026
3	0xbdf23cba	-0.11827989
4	0x3d1497d9	0.036277626
5	0x3bbd0274	0.0057681147
6	0x3c99d07a	0.018776167
7	0x3d45f70a	0.048331298
8	0x3d042f31	0.032271568
9	0x3ca90a25	0.02063472
10	0xbe1905a0	-0.14943552
11	0x3df1d077	0.1180734
12	0x3dce20c3	0.100648426
13	0xbda4b6f1	-0.08042706
14	0xbe24c737	-0.1609162
15	0xbe1578ba	-0.14596835
16	0x3dd41350	0.10355246
17	0x3cfcec08	0.030874267
18	0xbe13621a	-0.14392892
19	0xbe19dd09	-0.15025724
20	0xbda06e2a	-0.07833512
21	0xbd60acbf	-0.054852244
22	0x3dff655c	0.12470505
23	0xbb8adc06	-0.0042376546
24	0xbe1f3098	-0.15545881
25	0x3d0147b8	0.031562537
26	0x3e300a0a	0.1719133
27	0x3cb56d64	0.022146888
28	0xbddfd17d	-0.109286286
29	0xbe0068b0	-0.12539935
30	0x3de2399c	0.11046144
31	0xbe249d6f	-0.16075681
32	0xba949cb2	-0.0011338203
33	0xbe358d81	-0.1772976
34	0x3e2077f8	0.15670764
35	0xbdf77a18	-0.120838344
36	0x3dc8e5cc	0.09809455
37	0xbd09163f	-0.03346848
38	0xbde37b89	-0.11107547
39	0x3d4e7c4a	0.0504115
40	0x3d47d13f	0.048783537
41	0xbd8a3c00	-0.06749725
42	0xbe161aea	-0.14658704
43	0x3c38bc7e	0.011275409
44	0xbd60e558	-0.05490622
45	0xbdf0f129	-0.11764748
46	0x3e00fb4b	0.1259586
47	0xbdaac125	-0.08337621
48	0xbe15a147	-0.14612304
49	0x3e2c6242	0.16834357
50	0x3dc69447	0.096962504
51	0xbe0c2a9b	-0.13688128
52	0xbe359eb2	-0.17736319
53	0x3d8852c4	0.06656411
54	0x3e07a048	0.13244736
55	0x3bd4f863	0.0064993366
56	0xbcb2f9e9	-0.021847682
57	0x3d84ae71	0.064785846
58	0x3dc12f6b	0.094328724
59	0x3de1d84d	0.11027584
60	0xbdbc01b0	-0.09180009
61	0xbe0d27be	-0.13784692
62	0x3e08f585	0.13374908
63	0xbd14b633	-0.03630657
64	0xbd11bb8b	-0.035579246
65	0xbd924646	-0.0714231
66	0x3dfca484	0.12336066
67	0x3da90555	0.0825297
68	0x3d9109e0	0.07081962
69	0xbd4a8761	-0.049445514
70	0xbddf864c	-0.10914287
71	0xbe2004ee	-0.1562688
72	0x3d15c610	0.03656584
73	0x3dd45ea4	0.10369614
74	0x3d3a62a8	0.045504242
75	0x3c379a48	0.011206217
76	0x3d8aec0d	0.06783304
77	0xbde0104d	-0.10940609
78	0x3da029da	0.078204826
79	0x3d27f353	0.041003536
80	0xbdb2376b	-0.087019764
81	0x3d90f980	0.07078838
82	0x3da65f77	0.08123677
83	0xbe0b29d5	-0.13590176
84	0x3ca0aa50	0.019612461
85	0x3c441e36	0.0119700935
86	0x3cbae5b7	0.022814615
87	0xbafae639	-0.0019142098
88	0xbdc830fd	-0.09774969
89	0x3da4e147	0.08050781
90	0x3dd33e40	0.103146076
91	0xbda27e70	-0.07934272
92	0xbc3575e3	-0.01107547
93	0xbe02d983	-0.12778287
94	0xba5f1cf2	-0.0008511088
95	0xbe14773f	-0.14498614
96	0x3da4e2f4	0.080511004
97	0xbe1ecad6	-0.15507063
98	0x3df153be	0.11783551
99	0xbd9a0916	-0.07521264
100	0xbdb779eb	-0.08958801
101	0xbe144415	-0.14479096
102	0x3d7ae725	0.061255593
103	0xbd928ce2	-0.071557775
104	0xbd409a55	-0.047022182
105	0x3d60ab7a	0.054851033
106	0xbe29bcbc	-0.16575903
107	0x3c375753	0.011190253
108	0xbd44bf97	-0.048034277
109	0xbd9bdf29	-0.07610924
110	0x3deeff02	0.11669733
111	0x3e142ce6	0.14470252
112	0xbda927ca	-0.08259542
113	0xbdd1807f	-0.10229587
114	0xbdfacf1d	-0.12246535
115	0xbe078832	-0.13235548
116	0xbc6466ca	-0.013940522
117	0x3d7d4468	0.061832815
118	0x3be50866	0.0069895266
119	0xbdf708f3	-0.12062254
120	0xbc8bd9b4	-0.017071582
121	0xbe178b79	-0.14799298
122	0x3dde13a9	0.108435936
123	0x3d5f691d	0.054543603
124	0x3e28e123	0.16492133
125	0xbb5cfc71	-0.0033719803
126	0x3d50a8b7	0.05094215
127	0xbe1837c0	-0.14865017
128	0x3d965177	0.07339757
129	0x3e22a017	0.15881382
130	0x3d67d71e	0.056601636
131	0xbd3def7c	-0.04637097
132	0x3d78e9af	0.060769733
133	0xbe1bc1ba	-0.1521062
134	0x3d953f70	0.0728749
135	0xbd40613f	-0.04696774
136	0x3dade890	0.084916234
137	0xbe014c16	-0.1262668
138	0x3dd12c45	0.10213522
139	0x3d659a4d	0.056055356
140	0xbe1e0e4f	-0.15435146
141	0xbd96b001	-0.07357789
142	0x3d2e4299	0.04254398
143	0x3b48c2c4	0.0030633667
144	0x3e166f4f	0.14690898
145	0x3e15bd8f	0.14623092
146	0x3c3bef1f	0.011470585
147	0x3dbdf4a3	0.092751764
148	0x3cc3559e	0.023844536
149	0x3df4ffa5	0.11962823
150	0xbbffdfdd	-0.007808669
151	0xbe1a2a26	-0.15055141
152	0xbc851cc3	-0.016249066
153	0x3cd5d8f8	0.026104435
154	0x3ce41339	0.027841197
155	0x3e03b31a	0.1286129
156	0x3c0c2a5d	0.008555022
157	0x3e1f7239	0.15570916
158	0x3c3d3bd1	0.011549906
159	0xbd950e85	-0.0727816
160	0xbd5340f1	-0.051575605
161	0x3dbc9347	0.092077784
162	0xbe20c5b3	-0.15700416
163	0xbe1b6f20	-0.1517911
164	0xbd6d4e13	-0.057935786
165	0x3e139d2b	0.14415424
166	0xbe2ae496	-0.16688761
167	0xbcd28c22	-0.025701586
168	0x3dc9b4a3	0.09848907
169	0xbd909a60	-0.07060695
170	0x3d297b4c	0.04137735
171	0x3e302c12	0.17204311
172	0xbddcb59e	-0.10776828
173	0x3cec529d	0.028847987
174	0x3cbd899b	0.023136904
175	0x3e4016f3	0.18758754
176	0xbe08d42d	-0.13362189
177	0x3e23480d	0.15945454
178	0x3d105193	0.035234045
179	0xbd2e1fb9	-0.04251072
180	0xbd1132bc	-0.035448775
181	0x3df0e1af	0.11761796
182	0x3d75fc67	0.060055163
183	0x3e34bf96	0.17651209
184	0x3e16ef50	0.14739728
185	0xbd233c78	-0.03985259
186	0x3b73650b	0.0037139084
187	0x3d83e659	0.0644042
188	0xbd884440	-0.06653643
189	0x3e0b3b18	0.13596761
190	0xbe0cc1ee	-0.13745853
191	0x3e034941	0.12820913
192	0x3d2d34e0	0.042286754
193	0xbdb5dfb0	-0.08880556
194	0x3d8ce49e	0.06879543
195	0xbd2bdaf7	-0.041956868
196	0x3c6f3958	0.014601074
197	0x3d31e0ad	0.04342716
198	0x3df2b497	0.11850851
199	0x3dde4845	0.10853628
200	0xbe1e2cc0	-0.15446758
201	0x3e21fdd2	0.15819481
202	0xbcfd8f56	-0.030952137
203	0xbd25be9a	-0.040464975
204	0x3d8057df	0.0626676
205	0x3e21537c	0.15754503
206	0x3d2d6ff7	0.042343106
207	0xbdfeac56	-0.12435214
208	0xbe1007f8	-0.1406554
209	0x3da81168	0.08206445
210	0xbcba6fb2	-0.022758339
211	0xbe295f8d	-0.16540356
212	0xbca0169e	-0.019542035
213	0x3cb9ebd6	0.022695463
214	0xbd2608a5	-0.040535588
215	0xbe2b7e2e	-0.16747352
216	0xbe0d8aa8	-0.13822424
217	0x3df73a73	0.12071695
218	0xbd8cfc2e	-0.06884037
219	0x3e221c40	0.15831089
220	0x3e20dfa8	0.15710318
221	0xbc8c0b94	-0.017095365
222	0x3c893b0c	0.016751789
223	0xbe14c6b7	-0.14528929
224	0x3d0d7685	0.034536857
225	0xbcb6214d	-0.022232676
226	0xbc435c37	-0.011923841
227	0x3d8dbf25	0.069212236
228	0x3d18a8fa	0.037270524
229	0xbd632f5c	-0.055465087
230	0xbe037f20	-0.12841463
231	0xbda6f59b	-0.08152314
232	0x3d392a57	0.045206394
233	0xbb9480b7	-0.0045319456
234	0x3c998e79	0.018744694
235	0x3cd73c04	0.026273735
236	0xbe1af7a5	-0.15133531
237	0xbe12bc19	-0.14329566
238	0xbe0bc33f	-0.13648699
239	0xbe20a5fd	-0.1568832
240	0x3d487c08	0.04894641
241	0xbdfe5ef5	-0.12420455
242	0x3e1b1f7f	0.15148734
243	0x3e033f19	0.12817039
244	0x3c2a98dd	0.010412422
245	0xbd22eafe	-0.039774887
246	0x3c3fea20	0.011713535
247	0xbe11bc06	-0.14231881
248	0xbd8c448d	-0.068490125
249	0xbe0229d2	-0.12711266
250	0xbdefec31	-0.11714972
251	0xbd9f822a	-0.07788499
252	0x3dc9d3ff	0.09854888
253	0x3e070ba8	0.1318804
254	0xbd9a7e95	-0.07543675
255	0x3dea2a7c	0.114338845

EiLM.1.gamma_generator.weight f4 [1, 32]
0	0xbe0dafc1	-0.13836576
1	0x3dcce137	0.10003894
2	0x3e03810c	0.12842196
3	0xbc818bd6	-0.01581375
4	0x3d4e8a1d	0.050424684
5	0xbe307be3	-0.17234759
6	0x3da1e9d2	0.07905926
7	0x3d97ca28	0.07411605
8	0x3dd19442	0.10233356
9	0x3d605f3c	0.054778323
10	0xbd528152	-0.05139286
11	0xbc7ac3d6	-0.01530548
12	0x3e1dfc29	0.15428223
13	0x3e262a5c	0.16227096
14	0xbd1b1eea	-0.03787128
15	0xbe1fb2ff	-0.15595625
16	0x3cc2ccd7	0.023779316
17	0xbd8d25c1	-0.068919666
18	0xbd783e7f	-0.060606476
19	0xbe20dc73	-0.15709095
20	0xbbeb8d09	-0.0071884436
21	0xbe06a697	-0.13149486
22	0x3c6ff71d	0.014646319
23	0x3a376c50	0.0006997036
24	0xbdbd81fe	-0.0925331
25	0xbd8b3b54	-0.06798425
26	0x3ce5cf5c	0.028052978
27	0x3dde3eb3	0.10851803
28	0x3de485b9	0.11158318
29	0x3e2a0988	0.16605198
30	0x3d309983	0.04311515
31	0x3db7190a	0.08940323

EiLM.1.beta_generator.weight f4 [32, 32]
0	0x3d2da312	0.042391844
1	0xbe0e7b47	-0.13914214
2	0x3e1026bf	0.1407728
3	0xbcb7f3d0	-0.022455126
4	0xbde672a3	-0.11252334
5	0xbc880390	-0.016603261
6	0xb9957bc7	-0.00028511716
7	0xbd6a844a	-0.057255067
8	0xbdb40b2c	-0.08791193
9	0xbd81fc1b	-0.063469134
10	0x3db9f8d8	0.09080666
11	0xbe294309	-0.16529478
12	0x3dafb1c1	0.08578826
13	0xbe083886	-0.13302812
14	0xbd0843d4	-0.03326781
15	0x3cc1540d	0.023599649
16	0xbe06d5a2	-0.13167432
17	0xbe19f69c	-0.1503548
18	0xbe09d0b3	-0.13458519
19	0x3e119bb2	0.1421955
20	0x3d911f05	0.07085995
21	0xbdee5666	-0.11637573
22	0x3e1f8057	0.15576302
23	0xbcd7f97d	-0.026364082
24	0x3e320513	0.17384748
25	0xbdfef718	-0.12449473
26	0xbe18caa2	-0.14921048
27	0xbddb9610	-0.107219815
28	0x3e0e7d76	0.13915047
29	0xbdadb438	-0.084816396
30	0x3e174a2d	0.1477439
31	0x3db8241c	0.08991262
32	0x3c6f45e2	0.014604064
33	0xbe1834fb	-0.1486396
34	0xbde0acb2	-0.10970439
35	0x3c87eb43	0.016591674
36	0xbe20f959	-0.15720119
37	0x3d2c3a9f	0.042048093
38	0x3d1cc6a6	0.038275383
39	0x3d72057a	0.059087254
40	0xbdb42b39	-0.087973066
41	0x3e1e9cfe	0.15489575
42	0xbdbcb9c4	-0.092151195
43	0xbc4c21c8	-0.012459226
44	0xbd64463f	-0.055731054
45	0xbd6421bb	-0.05569623
46	0xbdb99735	-0.090620436
47	0xbe240e28	-0.16021025
48	0x3e282092	0.16418675
49	0xbdb89494	-0.09012714
50	0xbd946b50	-0.07247031
51	0xbd85ad1f	-0.06527161
52	0xbd136d43	-0.035992872
53	0xbdb101b8	-0.08642906
54	0x3de92915	0.11384789
55	0x3d57a5ad	0.052648235
56	0x3d88107a	0.06643768
57	0x3dd85229	0.10562546
58	0x3dd39b4b	0.10332354
59	0x3d237718	0.0399085
60	0xbd9dde7d	-0.07708452
61	0x3d4d7358	0.05015883
62	0xbd2893af	-0.041156467
63	0xbdc52d88	-0.09627825
64	0xbd75b045	-0.059982557
65	0x3d488ea2	0.04896415
66	0x3add401b	0.0016880067
67	0x3e13c672	0.1443117
68	0xbe468f44	-0.19390589
69	0x3dac10dc	0.08401653
70	0xbdc24b8f	-0.09487068
71	0xbd428afc	-0.047495827
72	0xbc26c95c	-0.010179844
73	0x3d9e0608	0.07715994
74	0xbd89836e	-0.06714521
75	0x3d93da1a	0.07219334
76	0x3cabf5f4	0.020991303
77	0xbdfe6750	-0.12422049
78	0x3e0d56a4	0.13802582
79	0x3e174fe6	0.14776573
80	0x3cc5689d	0.024097735
81	0xbd128e4e	-0.035780244
82	0x3dfe1304	0.12405971
83	0xbdb1510a	-0.08658035
84	0x3d130f41	0.03590322
85	0xbda7e980	-0.081988335
86	0x3e161009	0.14654554
87	0xbdf231d9	-0.11825914
88	0x3e3bf61b	0.183556
89	0xbddc51df	-0.10757803
90	0x3dacf790	0.08445656
91	0xbde54ffe	-0.11196898
92	0xbe11e633	-0.1424797
93	0xbd0c13bc	-0.034198508
94	0x3da01a47	0.07817512
95	0x3c61d658	0.013784014
96	0x3d720b72	0.059092946
97	0x3ddb063a	0.10694547
98	0xbd237d6d	-0.039914537
99	0xbc447cb0	-0.011992618
100	0xbe15c617	-0.14626347
101	0x3dcccddc	0.10000202
102	0x3d7ca9e1	0.061685447
103	0xbd91a765	-0.07112006
104	0x3ca4a599	0.020098494
105	0xbcc23245	-0.023705611
106	0xbe0c56bf	-0.13704966
107	0xbde13277	-0.109959535
108	0xbe0501bc	-0.12988943
109	0xbd9f649d	-0.07782862
110	0x3dcf70c4	0.1012893
111	0xbde70705	-0.11280636
112	0xbdff4ac7	-0.124654345
113	0xbd098232	-0.03357143
114	0xbdaf432f	-0.08557736
115	0xbde8c915	-0.11366478
116	0xbd76ad5d	-0.060223926
117	0x3df468fb	0.11934086
118	0xbe152f65	-0.14568861
119	0x3d27743a	0.040882327
120	0xba3e35ce	-0.00072559423
121	0xbc8092b1	-0.015694948
122	0x3d7ef797	0.06224784
123	0x3dd081e6	0.10181026
124	0x3df5417a	0.11975379
125	0xbda7e792	-0.081984654
126	0xbb386cfe	-0.0028141136
127	0xbe250b20	-0.16117525
128	0x3d529dc6	0.051419996
129	0xbe106c33	-0.14103775
130	0xbcb11d3d	-0.021620387
131	0xbd6b0309	-0.05737594
132	0x3e2f4cbd	0.17119117
133	0xbbb495d0	-0.005511023
134	0x3db352df	0.08756041
135	0xbe111adf	-0.14170407
136	0xbe2a5ba9	-0.16636528
137	0x3c8db84d	0.017299796
138	0xbd465dde	-0.048429362
139	0x3dc1834b	0.0944887
140	0x3d09e990	0.03367001
141	0x3d421e70	0.04739231
142	0xbdf45161	-0.11929584
143	0xbd5fd3b4	-0.054645255
144	0xbd9571ab	-0.07297071
145	0x3e1a3065	0.15057524
146	0xbc307e58	-0.01077231
147	0xbdac0247	-0.08398872
148	0x3d1322bc	0.035921797
149	0xbd61ef71	-0.05515999
150	0xbe236c8b	-0.15959375
151	0x3c06baed	0.0082232775
152	0x3db9bca7	0.09069186
153	0x3e0ed4bc	0.13948339
154	0x3e2f911b	0.17145197
155	0xbd8460d3	-0.0646378
156	0xbe222c0b	-0.15837114
157	0xbd2818b2	-0.041039176
158	0xbdea0292	-0.114262715
159	0x3e1876c6	0.14889058
160	0xbd3870a9	-0.045029316
161	0x3db3f3c7	0.08786731
162	0x3de5c167	0.11218529
163	0x3dd0987c	0.10185334
164	0xbe259869	-0.16171421
165	0x3e22ac21	0.15885974
166	0xbc2f304e	-0.010692669
167	0x3e2b9eb0	0.16759753
168	0x3d837b44	0.064199954
169	0x3b888c11	0.004167088
170	0xbe10efae	-0.1415393
171	0x3bab7d79	0.0052334634
172	0x3e18bf58	0.14916742
173	0x3c3d4325	0.011551653
174	0xbe174a13	-0.14774351
175	0xbca281b8	-0.019837245
176	0x3dc24af5	0.09486953
177	0xbe0bba7d	-0.13645358
178	0x3c659f97	0.0140151
179	0x3cb917c3	0.022594338
180	0xbcc2b241	-0.023766639
181	0x3d4ae78b	0.049537223
182	0xbe054810	-0.13015771
183	0x3cbec9ae	0.023289528
184	0x3d7bae3d	0.061445463
185	0xbe106a87	-0.14103137
186	0xbe404d14	-0.18779403
187	0xbe1f41ef	-0.15552495
188	0xbc586330	-0.013207242
189	0xbe0569cf	-0.13028644
190	0xbacba074	-0.001553549
191	0x3d1ff0f9	0.03904817
192	0xbd7adfe0	-0.06124866
193	0x3df559a3	0.119799875
194	0x3ddc50d5	0.10757605
195	0x3e02d689	0.12777151
196	0x3bfe6107	0.0077630314
197	0x3cc9ed8c	0.024649404
198	0xbd20e9c6	-0.039285444
199	0xbdf3eb64	-0.119101316
200	0x3d2836c1	0.041067842
201	0xbd38a7e4	-0.045081988
202	0x3ce5ad26	0.028036665
203	0xbc8a5c88	-0.016889825
204	0xbe28ff06	-0.16503534
205	0x3c9caf05	0.019126425
206	0xbca98cc4	-0.020697005
207	0x3e1fab64	0.15592724
208	0x3e315a3a	0.17319575
209	0x3e10171e	0.14071319
210	0x3d985026	0.07437162
211	0xbe04a804	-0.12954718
212	0x3d9fc584	0.07801345
213	0xbcdeb9e5	-0.02718825
214	0xbdb464b4	-0.0880827
215	0x3e0c2aac	0.13688153
216	0xbe278d25	-0.16362436
217	0x3d25a90e	0.040444426
218	0x3c8b44bc	0.017000549
219	0xbc6852e7	-0.014179922
220	0xbc4467bd	-0.011987624
221	0x3d5e31ac	0.05424659
222	0x3cb100c8	0.021606818
223	0x3e01b8fe	0.12668225
224	0xbcbefa7c	-0.0233128
225	0xbe020a97	-0.12699352
226	0xbdf653f3	-0.12027731
227	0x3ce93cf8	0.028471455
228	0xbe2c1146	-0.16803464
229	0x3c677c49	0.014128753
230	0x3c017a38	0.007902674
231	0xbdc15f86	-0.09442048
232	0x3ca1dd6b	0.0197589
233	0x3d2c7c5a	0.04211078
234	0xbdc0f482	-0.09421636
235	0xbdda5bdd	-0.10662053
236	0x3e1295e1	0.14314987
237	0xbb95470a	-0.0045555877
238	0xbe2439f1	-0.16037728
239	0x3e26856e	0.16261837
240	0xbd8760d3	-0.06610265
241	0xbe25bd15	-0.1618541
242	0xbdac0ef5	-0.0840129
243	0x3d989b68	0.074515164
244	0xbd973efc	-0.0738506
245	0x3e0584d3	0.1303895
246	0x3d87f8fd	0.066392876
247	0xbe13cce6	-0.14433631
248	0x3ca73db0	0.020415157
249	0xbe20acf9	-0.15690984
250	0x3dbdd8b9	0.09269852
251	0xbe167211	-0.1469195
252	0xbe1b78ad	-0.15182753
253	0xbe192280	-0.14954567
254	0x3e1133d9	0.14179935
255	0xbe0b09d7	-0.13577972

EiLM.2.gamma_generator.weight f4 [1, 32]
0	0xbbf0676b	-0.007336547
1	0xbd52ba83	-0.051447403
2	0x3e11cc69	0.14238133
3	0xbd737943	-0.059441816
4	0x3cc61a46	0.02418245
5	0x3cfea4fd	0.031084532
6	0xbe0adb9f	-0.13560341
7	0x3db7189f	0.08940243
8	0x3d6d6f53	0.057967495
9	0xbd5549d9	-0.05207238
10	0x3d6157be	0.055015318
11	0xbe1d9c00	-0.1539154
12	0x3e336b47	0.17521392
13	0x3e458062	0.19287255
14	0xbe1c82c2	-0.15284255
15	0xbe24fc9b	-0.16111986
16	0x3dfadce1	0.122491606
17	0x3c2afe54	0.010436613
18	0xbb84b56b	-0.004049947
19	0x3dd38c5f	0.10329508
20	0x3d8fa77f	0.07014369
21	0xbda93753	-0.082625054
22	0x3e36c1b8	0.17847335
23	0xbcbb2467	-0.022844506
24	0xbdfb01ca	-0.122562006
25	0xbd853548	-0.06504303
26	0xbdfba6dc	-0.12287685
27	0xbd32de07	-0.043668773
28	0x3d558403	0.05212785
29	0xbc66ea58	-0.014093958
30	0xbe03569e	-0.1282601
31	0xbe0b6306	-0.13611993

EiLM.2.beta_generator.weight f4 [32, 32]
0	0x3db7cb0b	0.08974274
1	0x3c5cc82c	0.013475459
2	0x3e235f32	0.15954283
3	0xbe204872	-0.15652636
4	0xbe179f8e	-0.14806959
5	0xbd231a30	-0.039819896
6	0x3dd55dc9	0.10418279
7	0xbdd95a4f	-0.10612928
8	0xbe2558a9	-0.16147102
9	0x3dd0e4f0	0.10199916
10	0xbe03c434	-0.12867814
11	0x3e2ec45d	0.17067094
12	0xbdd0ade9	-0.10189421
13	0xbdff1ace	-0.124562845
14	0xbce89dec	-0.028395616
15	0x3cb88e5b	0.022528818
16	0x3e27dd69	0.16393055
17	0x3b8f1380	0.0043663383
18	0xbe28d45e	-0.16487262
19	0xbe3f3c25	-0.18675287
20	0xbe00ce24	-0.12578636
21	0xbcf5a6e6	-0.02998681
22	0x3dadc2a8	0.08484393
23	0xbdb5599b	-0.088549815
24	0xbcb5adb3	-0.022177553
25	0x3de7aede	0.1131265
26	0x3a7fa3e4	0.00097518996
27	0xbde6f752	-0.11277641
28	0xbdd6b034	-0.10482827
29	0xbd6a1ca8	-0.057156235
30	0x3dbcf595	0.092265286
31	0xbde32d8e	-0.11092673
32	0x3d68e416	0.056858145
33	0x3e13151a	0.14363518
34	0xbd28c786	-0.041205905
35	0xbc0a723a	-0.008450085
36	0xbdb68c29	-0.08913452
37	0xbd770f62	-0.060317405
38	0x3dcbe382	0.09955503
39	0x3cc7b4e1	0.024378242
40	0x3e151545	0.14558895
41	0xbd12e54d	-0.03586321
42	0x3e0837f7	0.13302599
43	0xbbce0e65	-0.006288337
44	0x3e3414ae	0.17586014
45	0xbdddc4de	-0.10828565
46	0x3e33d4a0	0.17561579
47	0xbd902d8c	-0.070399374
48	0xbdcb92ce	-0.0994011
49	0x3d1cdd8b	0.038297217
50	0xbd972c8d	-0.07381544
51	0x3e1ed285	0.15509994
52	0xbe0d28fc	-0.13785166
53	0x3e2563b8	0.16151321
54	0x3e2b0139	0.16699685
55	0xbbfbe8bf	-0.0076876576
56	0x3d91ea78	0.071247995
57	0x3c6524e1	0.013985843
58	0xbe06673a	-0.13125315
59	0xbd8bde5d	-0.06829522
60	0x3d2b0512	0.041752882
61	0xbe251efd	-0.16125102
62	0x3d80a965	0.062823094
63	0xbd48794a	-0.048943795
64	0x3d313d8e	0.043271594
65	0x3cf281ef	0.029602973
66	0x3c314aa0	0.010821015
67	0xbcc2bfb5	-0.023773054
68	0x3d14fff4	0.03637691
69	0x3def6c86	0.11690621
70	0xbd3fe947	-0.04685333
71	0x3d492dcb	0.049115937
72	0x3e04f74c	0.12984961
73	0xbd319d15	-0.043362696
74	0xbdbb4d31	-0.091455825
75	0x3e2fbfaf	0.17162965
76	0xbcfdd465	-0.030985067
77	0x3ded37af	0.115828864
78	0x3dcbbcfc	0.09948155
79	0x3df47b20	0.11937547
80	0xbda5925e	-0.08084558
81	0xbdfab8b3	-0.1224226
82	0xbd3d2364	-0.04617633
83	0x3d8777ed	0.06614671
84	0x3e162bb0	0.14665103
85	0x3cd2e559	0.025744127
86	0x3e146e60	0.1449523
87	0xbdaf588b	-0.0856181
88	0xbe2d493a	-0.16922465
89	0x3e153a93	0.14573126
90	0xbdda83d4	-0.106696755
91	0xbc600181	-0.013672234
92	0xbe26f796	-0.16305384
93	0xbe402b42	-0.18766502
94	0x3d1b458d	0.037908126
95	0xbe324473	-0.17408924
96	0x3d6fa124	0.058503285
97	0x3be861da	0.007091743
98	0x3da8495a	0.08217116
99	0x3dd2c476	0.10291378
100	0x3dd8d3eb	0.10587295
101	0xbc016bfb	-0.00789928
102	0x3dc40d1f	0.09572815
103	0xbe325d88	-0.17418492
104	0x3d23bfb5	0.039977748
105	0x3da9b0b8	0.082856596
106	0xbbff4256	-0.0077898903
107	0x3def4be4	0.11684397
108	0x3e0c309d	0.1369042
109	0x3e1a0112	0.15039471
110	0x3df88a34	0.12135735
111	0x3c8241b3	0.015900468
112	0xbab35ff3	-0.0013685211
113	0xbdb53d30	-0.08849561
114	0x3d81d474	0.0633935
115	0x3d702197	0.058625784
116	0xbdc19cb0	-0.09453714
117	0x3e11317c	0.14179033
118	0x3d3731e9	0.044725332
119	0xbd44dc17	-0.048061457
120	0xbd3882d8	-0.045046657
121	0x3d0508fe	0.03247928
122	0xbd7aa1c1	-0.061189417
123	0x3d684fb7	0.056716647
124	0x3cb92568	0.022600845
125	0x3bb5c129	0.005546708
126	0x3ddd6f3e	0.108122334
127	0xbd9be34d	-0.076117136
128	0xbe2888e4	-0.1645847
129	0xbce2d8b0	-0.027691215
130	0xbe30340b	-0.17207353
131	0x3d19c9f0	0.0375461
132	0x3e258138	0.16162574
133	0xbdcb6034	-0.09930459
134	0xbc8c9e33	-0.017165279
135	0x3e0dfb52	0.13865402
136	0xbdc1cc20	-0.09462762
137	0x3d387526	0.045033596
138	0x3c8494d9	0.016184257
139	0xbdc1cf68	-0.09463388
140	0x3e18ec44	0.14933878
141	0x3e210c86	0.15727434
142	0x3da1d438	0.07901806
143	0xbe20b320	-0.15693331
144	0xbe31d876	-0.1736773
145	0xba6dd732	-0.0009072899
146	0xbd334e4c	-0.04377584
147	0x3d21ecb0	0.039532363
148	0xbddd99c2	-0.108203426
149	0xbe22dca7	-0.15904485
150	0xbde9f328	-0.114233315
151	0xbcc7556a	-0.02433272
152	0xbc6ce0d7	-0.014457903
153	0x3dad2800	0.08454895
154	0x3d48a2e8	0.048983485
155	0xbd59f0b5	-0.05320807
156	0xbdb7313b	-0.08944937
157	0x3dc8507d	0.09780977
158	0xbdd7afd8	-0.105315864
159	0x3d31ee9e	0.043440454
160	0xbe2d82f0	-0.1694448
161	0x3c2e9b4c	0.010657143
162	0xbe160fad	-0.14654417
163	0xbe0e16f2	-0.1387594
164	0xbd493aa3	-0.049128186
165	0xbdeebe23	-0.116573595
166	0x3d2a01a6	0.04150548
167	0x3ca245c3	0.019808656
168	0x3d78f1e3	0.060777556
169	0x3b2a0954	0.0025945501
170	0x3e33857c	0.17531389
171	0x3d2fa7c1	0.042884592
172	0x3d3d7036	0.04624959
173	0x3e2f7d14	0.17137557
174	0xbe05aca3	-0.13054137
175	0xbd4f342f	-0.050586876
176	0xbdcb887e	-0.09938143
177	0xbd77bedf	-0.060484763
178	0x3db100ae	0.08642708
179	0xbe3c7a88	-0.18406117
180	0xbd275fb7	-0.040862765
181	0xbe2e95ac	-0.17049283
182	0xbd32f5bc	-0.04369138
183	0xbe20c545	-0.15700252
184	0xbd32c6b9	-0.043646548
185	0xbd90fdcb	-0.07079657
186	0x3e284514	0.16432601
187	0xbcb7f9cd	-0.022457981
188	0xbdb0d686	-0.08634667
189	0xbdc96d62	-0.09835316
190	0x3de2c6de	0.11073087
191	0xbe2b605c	-0.16735977
192	0x3e08ab34	0.13346559
193	0xbe218055	-0.15771611
194	0x3d7f20dd	0.0622872
195	0xbc9b21c0	-0.018936992
196	0x3dbbec08	0.09175879
197	0xbdc92514	-0.09821525
198	0xbdbfbd70	-0.09362304
199	0xbdf7f286	-0.121068045
200	0xba69e72e	-0.0008922693
201	0xbe203a60	-0.15647268
202	0xbd62ecce	-0.055401616
203	0xbcd66f35	-0.026176075
204	0x3e2acccc	0.16679686
205	0xbdef9ae5	-0.11699466
206	0xbdd2d4d4	-0.102945
207	0xbdc2be45	-0.09508947
208	0x3cd8f386	0.026483309
209	0x3d6cdb8c	0.057826564
210	0x3bf33a5e	0.0074227294
211	0x3cce29ee	0.025166478
212	0x3dc08b9c	0.094016284
213	0x3d533c0d	0.05157094
214	0xbd33f5ad	-0.043935467
215	0xbd06b859	-0.03289065
216	0xbcccba85	-0.024991283
217	0xbd501e59	-0.05081019
218	0xbd9d0e02	-0.076686874
219	0xbdbb0f18	-0.09133738
220	0x3df63a9e	0.12022899
221	0x3e0cb5c5	0.13741215
222	0xbd78fa93	-0.06078584
223	0xbd94094f	-0.07228338
224	0xbc8e45ac	-0.017367207
225	0xbe331936	-0.17490086
226	0xbd413e82	-0.047178753
227	0x3df075ae	0.117411956
228	0x3da4960b	0.08036431
229	0xbd734bdf	-0.05939853
230	0x3e2bad5a	0.16765347
231	0xbdf4187a	-0.11918731
232	0x3e059b5d	0.13047548
233	0x3e10bedb	0.14135306
234	0xbe158024	-0.14599663
235	0x3d28c057	0.041199055
236	0x3cfc1aec	0.030774556
237	0x3e2f74af	0.17134355
238	0x3e24a50f	0.1607859
239	0xbde52334	-0.11188355
240	0xbe1a4cfd	-0.15068431
241	0x3d191d4b	0.03738145
242	0x3e23f37b	0.16010849
243	0x3e16d425	0.14729364
244	0x3e35570e	0.1770899
245	0xbd911ce9	-0.07085592
246	0x3d9a915d	0.07547257
247	0x3d4c55ae	0.049886398
248	0x39a5df5a	0.00031637662
249	0xbce18262	-0.027527992
250	0xbe27f8a9	-0.1640345
251	0xbc39524f	-0.011311128
252	0x3e1efe80	0.15526772
253	0x3b22d950	0.0024848767
254	0x3e02e268	0.1278168
255	0xbe285bc6	-0.16441259

EiLM.3.gamma_generator.weight f4 [1, 32]
0	0x3d0c11cc	0.03419666
1	0xbd52cb35	-0.051463325
2	0x3e1b22e3	0.15150027
3	0x3d452edd	0.048140395
4	0xbe039907	-0.12851344
5	0xbd353000	-0.04423523
6	0xbe0d15b8	-0.13777816
7	0x3c980d77	0.018561108
8	0xbd410f13	-0.047133517
9	0xbe1b48b2	-0.1516445
10	0xbdaa6b01	-0.083211906
11	0x3d1467ae	0.03623169
12	0x3e1b03d8	0.15138185
13	0x3e16b531	0.14717557
14	0xbe328293	-0.17432623
15	0xbdacb2de	-0.08432554
16	0xbde5c302	-0.112188354
17	0xbc2bd984	-0.0104888715
18	0x3df67955	0.12034861
19	0x3dca8fe6	0.09890728
20	0x3d7bae0c	0.06144528
21	0xbdc401f4	-0.09570685
22	0xbdd77af1	-0.10521496
23	0x3c0f3964	0.00874171
24	0x3dcc0e33	0.09963646
25	0x3e1aafc5	0.15106113
26	0xbe09e3c6	-0.13465795
27	0x3e1847df	0.14871167
28	0x3df726db	0.12067958
29	0xbd450851	-0.048103634
30	0xbdc9a770	-0.09846389
31	0x3d774075	0.060364205

EiLM.3.beta_generator.weight f4 [32, 32]
0	0xbe36a6ee	-0.17837116
1	0x3e2d4d34	0.16923982
2	0x3d8734a6	0.06601839
3	0x3c412076	0.011787524
4	0x3e2542de	0.16138789
5	0xbe2334de	-0.15938136
6	0xbe058aeb	-0.13041274
7	0xbcffbd76	-0.031218272
8	0x3e2e02d0	0.1699326
9	0x3d477b37	0.04870149
10	0xbe2f1f87	-0.1710187
11	0xbd6facae	-0.05851429
12	0x3e08c1a4	0.13355118
13	0x3d896499	0.067086406
14	0x3b9fae24	0.004873054
15	0xbe0a0142	-0.13477042
16	0xbbe40fae	-0.006959877
17	0xbcaa6cbe	-0.020803805
18	0xbe26f5c0	-0.16304684
19	0x3c9723d6	0.018449705
20	0x3dfa9d37	0.122370176
21	0xbdfa5dcc	-0.122249216
22	0xbdd8ff54	-0.10595575
23	0xbd2d5e07	-0.042326
24	0xbd306844	-0.043068185
25	0xbe0f8597	-0.14015804
26	0xbe08bcaa	-0.1335322
27	0xbd8e30d0	-0.06942904
28	0xbe175668	-0.14779055
29	0xbda38825	-0.07984952
30	0xbc23e6ae	-0.010003729
31	0x3e0fb6e4	0.14034611
32	0x3dfa8541	0.122324474
33	0xbd350b5a	-0.04420028
34	0xbdf48ce4	-0.11940935
35	0x3c4bb6a4	0.012433682
36	0xbe19903c	-0.14996427
37	0x3e1dd6c9	0.15413965
38	0xbdb827ca	-0.08991964
39	0x3d5a6240	0.053316355
40	0xbe20598c	-0.1565916
41	0x3df203eb	0.118171535
42	0x3d2c6e3b	0.04209731
43	0x3e1f3f5e	0.15551516
44	0xbded4217	-0.11584871
45	0xbdc75d1d	-0.09734557
46	0x3e235f97	0.15954433
47	0x3d237de2	0.039914973
48	0xbdbf9fa0	-0.09356618
49	0x3dbf1c89	0.093316145
50	0x3d80db85	0.0629187
51	0xbdde5e7e	-0.10857867
52	0xbe095d56	-0.13414511
53	0x3d8b7aff	0.06810569
54	0xbcdaae68	-0.026694492
55	0x3dd66799	0.104689784
56	0xbda936e1	-0.082624204
57	0x3d8e473f	0.06947183
58	0xbd5e06cd	-0.054205704
59	0xbdba61e3	-0.09100702
60	0xbe068647	-0.1313716
61	0x3de6b738	0.11265415
62	0x3e232885	0.15933426
63	0x3d1eb396	0.038745485
64	0x3df51893	0.11967578
65	0x3db16472	0.086617365
66	0x3e399b16	0.18125567
67	0x3d835472	0.06412591
68	0xbe44d3c4	-0.19221407
69	0xbe24c291	-0.16089846
70	0x3d9f2ba7	0.07771998
71	0xbcadbb58	-0.021207497
72	0x3d91446d	0.07093129
73	0xbe11de15	-0.14244874
74	0xbddd9553	-0.10819497
75	0xbe3457f4	-0.17611676
76	0xbde5c339	-0.112188764
77	0xbb4faa6c	-0.0031687273
78	0x3dae6c0a	0.085167006
79	0x3d3eb277	0.046556916
80	0xbdc1f3d2	-0.09470333
81	0xbe29ab78	-0.16569316
82	0xbddf7a0f	-0.10911953
83	0xbdc7d6ee	-0.097577915
84	0xbda5b0a4	-0.08090332
85	0xbe1c9006	-0.15289316
86	0x3df89796	0.12138288
87	0xbd93eaaa	-0.07222493
88	0x3d977d66	0.07396965
89	0x3c5eaea1	0.013591439
90	0x3e074d00	0.13212967
91	0xbe1a7af7	-0.1508597
92	0xbc18f9cb	-0.009336899
93	0x3d9ead2e	0.07747875
94	0xbda9de8e	-0.08294402
95	0xbe147f55	-0.14501698
96	0x3d55d559	0.052205417
97	0x3d962490	0.073311925
98	0x3e2b6e4e	0.16741297
99	0x3a860edc	0.0010227817
100	0x3e2438fb	0.16037361
101	0x3e33d5c3	0.17562012
102	0xbdd4daa6	-0.103932664
103	0xbe265a94	-0.1624549
104	0x3def280d	0.11677561
105	0x3cfd668a	0.030932683
106	0xbe1b8a1f	-0.15189408
107	0x3e37e2be	0.17957589
108	0x3d65a47d	0.05606507
109	0x3d4de7d5	0.05026992
110	0xbde6421f	-0.1124308
111	0x3e2528db	0.16128866
112	0xbe18dc42	-0.14927772
113	0xbe078da4	-0.13237625
114	0xbe1b72b8	-0.1518048
115	0xbdb0c0ec	-0.08630547
116	0xbd321d37	-0.043484893
117	0xbe21934f	-0.1577885
118	0x3e0d8554	0.13820392
119	0x3df23dce	0.118281946
120	0x3e2c7986	0.16843233
121	0xbcbce697	-0.023059173
122	0xbd32dd0f	-0.04366785
123	0xbe0fa787	-0.1402875
124	0xbda26fe8	-0.07931501
125	0xbe3c6f97	-0.18401943
126	0xbdcad59b	-0.09904023
127	0xbdaec4db	-0.08533641
128	0x3df0b3f0	0.1175307
129	0x3e02c9cb	0.1277229
130	0xbe29ff26	-0.16601238
131	0x3cf74dd1	0.030188473
132	0x3dff5983	0.12468245
133	0x394ad795	0.00019344532
134	0xbe35aa86	-0.17740831
135	0xbdb7235d	-0.08942292
136	0x3cdd6174	0.027024008
137	0xbe29851f	-0.16554688
138	0xbe0daa73	-0.13834552
139	0xbdf87cb8	-0.12133163
140	0xbe327b1a	-0.17429772
141	0xbe01be25	-0.1267019
142	0x3ddbb4cb	0.10727843
143	0x3c2f1793	0.010686773
144	0xbc7c4327	-0.01539687
145	0x3e13e18f	0.14441513
146	0xbd219bb9	-0.03945515
147	0xbdf233c5	-0.118262805
148	0xbc6580b5	-0.014007737
149	0xbc890656	-0.016726654
150	0x3db421d8	0.08795518
151	0x3dbce736	0.092237875
152	0xbe1b3ef2	-0.1516073
153	0x3c250fef	0.0100746
154	0x3e1d6943	0.15372185
155	0xbd112e6f	-0.035444673
156	0xbc2b123d	-0.01044136
157	0x3d2919c4	0.041284338
158	0x3d0d6381	0.034518722
159	0xbde52b5f	-0.11189913
160	0x3aed6260	0.0018110983
161	0xbe19c022	-0.15014699
162	0x3e494a2b	0.19657199
163	0xbdee70db	-0.11642619
164	0x3ce66a35	0.028126815
165	0xbe2c7908	-0.16843045
166	0x3e2d4045	0.16919048
167	0xbccdfd6c	-0.025145255
168	0x3e2d2813	0.16909818
169	0xbdc2ead2	-0.09517445
170	0xbe3e1f1f	-0.1856656
171	0xbe02ec48	-0.12785447
172	0x3e20787c	0.15670961
173	0x3e4630c7	0.19354545
174	0xbd0bc3f7	-0.034122434
175	0x3d57124f	0.052507695
176	0x3e17b11d	0.14813657
177	0x3d922c63	0.07137372
178	0xbe2e0f92	-0.16998127
179	0xbddee448	-0.10883385
180	0x3cd073b8	0.025445804
181	0x3e021eab	0.12707011
182	0xbe1ce394	-0.15321189
183	0x3d878ad7	0.066182785
184	0x3e3e55cd	0.18587418
185	0xbcf3443c	-0.029695623
186	0x3cd28ef1	0.025702925
187	0x3dc22c12	0.09481062
188	0x3d357d2d	0.04430883
189	0x3db51e7f	0.08843707
190	0x3d2ef2a7	0.04271188
191	0x3c7d374c	0.015455078
192	0xbdbce16f	-0.092226855
193	0x3c9551a9	0.018227415
194	0xbdeeb8c8	-0.11656338
195	0x3e1938b2	0.14963034
196	0x3e39fb8c	0.18162364
197	0x3df7e545	0.121042766
198	0xbe4274f2	-0.18989924
199	0xbd603f56	-0.0547479
200	0xbe248a33	-0.16068344
201	0xbe16e368	-0.14735186
202	0xbba7d1f0	-0.005121462
203	0xbd802a43	-0.06258061
204	0xbd2dddb4	-0.04244776
205	0xbdd5e5ac	-0.10444197
206	0xbe10fb0e	-0.1415827
207	0xbdf38cb7	-0.118920736
208	0x3e420318	0.18946493
209	0x3dce150e	0.100626096
210	0xbdd5ae15	-0.10433594
211	0x3e08c40d	0.13356037
212	0xbe35a31c	-0.17738003
213	0x3d0b484c	0.034004495
214	0xbd437cb2	-0.04772634
215	0x3d180443	0.03711344
216	0x3e037b80	0.1284008
217	0xbdb990d6	-0.090608284
218	0xbc9134db	-0.017725399
219	0xbe08154d	-0.13289376
220	0x3de03fed	0.10949693
221	0x3dc070c8	0.09396511
222	0xbd1f6bfb	-0.038921338
223	0x3e059a60	0.1304717
224	0x3e0235f9	0.12715901
225	0x3e37e597	0.17958675
226	0xbd4b1829	-0.049583588
227	0xbdb27f35	-0.08715669
228	0x3d32cadf	0.043650504
229	0xbdf8b076	-0.12143032
230	0x3cba8e07	0.022772802
231	0xbd9bf01c	-0.076141566
232	0x3bb0cda7	0.0053956094
233	0xbcd75b85	-0.026288757
234	0xbe0596cd	-0.13045807
235	0x3e189f5a	0.14904538
236	0xbe1ea377	-0.15492044
237	0x3e123ef9	0.14281835
238	0xbd0672d8	-0.032824367
239	0x3e1afe33	0.15136032
240	0x3dac29f2	0.08406438
241	0x3e2b692a	0.16739336
242	0x3dadd4eb	0.084878765
243	0xbd38598d	-0.045007277
244	0xbd8d6665	-0.06904296
245	0x3e370bf3	0.17875652
246	0x3e1c6e4b	0.15276448
247	0x3a8415fa	0.001007735
248	0xbe200b1c	-0.15629238
249	0x3cfa6455	0.03056542
250	0xbe143597	-0.14473568
251	0xbca1910c	-0.019722484
252	0x3d1f38dc	0.038872585
253	0x3dfc23dd	0.12311528
254	0x3dc362b8	0.095403135
255	0x3e13a2c0	0.14417553

Gate.weight f4 [4, 32]
0	0xbde09648	-0.10966164
1	0x3de690f3	0.112581156
2	0x3db3c43c	0.08777663
3	0x3d3afb10	0.045649588
4	0xbdeaf867	-0.1147316
5	0x3c08830f	0.008332028
6	0x3d8724af	0.06598794
7	0xbe1b9575	-0.15193732
8	0x3e360351	0.17774703
9	0xbb83b73e	-0.004019647
10	0xbde95dd5	-0.1139485
11	0x3ced0a7b	0.028935662
12	0xbbaa34e4	-0.0051942933
13	0xbda7bd40	-0.081903934
14	0xbe1b01ab	-0.15137355
15	0xbd8e4942	-0.069475666
16	0xbe183c83	-0.14866833
17	0xbd08b65f	-0.033377048
18	0x3de32a71	0.110920794
19	0x3da13b72	0.078726664
20	0xbe198f91	-0.14996172
21	0x3d05fc5e	0.03271138
22	0xbd685ebf	-0.056730982
23	0xbd23f782	-0.040030964
24	0x3e1bd676	0.15218529
25	0xbd6d2818	-0.057899565
26	0x3e22e40d	0.15907307
27	0x3d22833a	0.03967593
28	0x3e1f3511	0.15547587
29	0xbc9d4824	-0.019199438
30	0x3dca7dda	0.098872855
31	0x3cb63bb9	0.022245275
32	0xbda90dbe	-0.08254574
33	0x3e2d7dcd	0.1694252
34	0x3d98da02	0.07463457
35	0xbd75ad1d	-0.059979547
36	0x3e21cfa6	0.15801868
37	0x3c72ada9	0.014811912
38	0x3e0a4987	0.13504611
39	0xbe34232e	-0.17591545
40	0x3db11b4b	0.08647784
41	0xbe46942e	-0.19392464
42	0xbe0c17a0	-0.13680887
43	0x3e144ef9	0.1448325
44	0x3db013bc	0.08597514
45	0x3dbfc544	0.09363797
46	0x3dc91d0c	0.098199934
47	0x3c0fd686	0.008779174
48	0x3e255b6b	0.16148154
49	0x3d3cfa06	0.04613688
50	0xbd6edfba	-0.05831883
51	0xbdd9cb8a	-0.10634525
52	0xbe0172b3	-0.1264141
53	0xbdbb5a1b	-0.09148046
54	0xbcb6d9a1	-0.02232057
55	0xbd71b574	-0.059010938
56	0xbe0ae745	-0.13564785
57	0x3d5261a5	0.051362652
58	0x3e1d8c2d	0.15385504
59	0xbac6e543	-0.0015174526
60	0x3cfc5ffa	0.030807484
61	0xbdb242d2	-0.08704151
62	0xbe347295	-0.17621835
63	0xbdab64a1	-0.08368803
64	0xbe0822d4	-0.13294536
65	0xbc8494af	-0.01618418
66	0x3e196f30	0.14983821
67	0xbdada9a8	-0.08479625
68	0x3e1cd486	0.15315446
69	0x3d924217	0.07141512
70	0xbdb7d744	-0.089766055
71	0x3e025002	0.12725833
72	0x3d0b0946	0.03394439
73	0x3e171e9c	0.1475777
74	0xbe37f986	-0.1796628
75	0x3c1039ae	0.008802814
76	0xbc932cbe	-0.01796567
77	0x3dc3f04a	0.09567316
78	0xbd45c9b3	-0.04828806
79	0xbdbfe72c	-0.093702644
80	0x3da41178	0.080111444
81	0xbda766fd	-0.0817394
82	0x3dd4cf6c	0.10391125
83	0xbe131025	-0.14361627
84	0xbdfaf74d	-0.122542
85	0x3e25bfe2	0.16186479
86	0xbe1c6d35	-0.15276034
87	0xbd9c6536	-0.07636492
88	0x3d6ac0ff	0.05731296
89	0x3d71ba29	0.059015427
90	0xbcede457	-0.029039545
91	0xbd665a60	-0.056238532
92	0xbe32fdc2	-0.17479613
93	0xbd41d0ca	-0.047318257
94	0x3a79d3f4	0.00095301797
95	0x3c68dc02	0.01421261
96	0xbdfbe248	-0.12299019
97	0xbd60e2dd	-0.054903854
98	0xbd5fd5ff	-0.054647442
99	0xbdb90ae6	-0.09035282
100	0xbddd5bbe	-0.10808514
101	0xbe11ae73	-0.14226703
102	0xbbe12477	-0.006870802
103	0xbe158a32	-0.14603499
104	0xbe28fab6	-0.16501889
105	0xbdb8277a	-0.089919046
106	0x3d1194ac	0.035542175
107	0xbe17e151	-0.14832045
108	0xbdc48011	-0.09594739
109	0x3d6ffda0	0.058591485
110	0x3e1fc2fd	0.15601726
111	0x3e29c210	0.16577935
112	0x3e422f9e	0.18963477
113	0x3bd32d5d	0.0064446167
114	0xbe101794	-0.14071494
115	0xbcd4bdf5	-0.025969485
116	0x3dcc8c07	0.099876456
117	0x3d07f134	0.033189014
118	0xbc8109c4	-0.015751727
119	0x3aa9b4a7	0.0012947515
120	0xbe516934	-0.20450288
121	0xbd4d5e4b	-0.050138753
122	0xbdbc4852	-0.091934815
123	0xbdca93f3	-0.098915
124	0xbe0749d0	-0.13211751
125	0x3d8be8c1	0.06831504
126	0xbe3d77c9	-0.18502726
127	0x3b3d77e6	0.0028910576

experts.0.gate_proj.weight f4 [32, 32]
0	0xbe0054e6	-0.12532386
1	0x3bef04ac	0.007294258
2	0x3c5c2aec	0.013437968
3	0xbda2c375	-0.07947437
4	0xbdfcb1b5	-0.123385824
5	0x3d99bc4b	0.07506617
6	0xbe2b8a88	-0.16752064
7	0x3e1564fc	0.14589304
8	0x3e47ca0a	0.19510666
9	0xbdf514a3	-0.11966827
10	0xbdabd124	-0.083895
11	0xbe2bf40f	-0.1679232
12	0xbc360f6e	-0.011112077
13	0xbd79cf30	-0.060988605
14	0x3d49ae44	0.04923846
15	0xbd1337ca	-0.035941876
16	0x3d0aaace	0.0338543
17	0xbe1eff8e	-0.15527174
18	0xbc35bb3e	-0.011092005
19	0xbdd32010	-0.1030885
20	0x3e211829	0.15731873
21	0xbd8e0108	-0.069337904
22	0xbd9c9ef6	-0.07647507
23	0x3c01623b	0.007896955
24	0xbb94fff5	-0.004547114
25	0xbe44a2a9	-0.19202675
26	0xbdbfef97	-0.0937187
27	0xbd4a85a2	-0.04944385
28	0xbd11e64e	-0.035620026
29	0xbdc275b7	-0.094951086
30	0x3db29ca5	0.08721284
31	0xbcfa8941	-0.030583026
32	0x3d97c52a	0.07410653
33	0x3d6e4653	0.058172535
34	0xbddf8bb1	-0.10915316
35	0x3e375e01	0.17906953
36	0x3de940e1	0.11389328
37	0xbd156da5	-0.03648152
38	0x3dbd9be8	0.092582524
39	0xbde52802	-0.111892715
40	0xbaea92dc	-0.0017896551
41	0x3e0f8de2	0.14018968
42	0x3b9ec6c1	0.0048454707
43	0xbd94d18f	-0.07266533
44	0x3e13cd88	0.14433873
45	0xbbf7f6e4	-0.0075672735
46	0x3e204593	0.1565154
47	0xbda26092	-0.079285756
48	0x3ddd8d02	0.10817911
49	0xbd14d5bf	-0.036336657
50	0xbe4aaedd	-0.19793268
51	0xbd816056	-0.06317203
52	0xbe29224d	-0.16516991
53	0x3e043a3c	0.1291284
54	0xbe03be0d	-0.12865467
55	0xbdd7067f	-0.10499286
56	0xbdce53cd	-0.100745775
57	0x3e2828dc	0.16421837
58	0x3d9cdcb1	0.07659281
59	0x3d1e147a	0.038593747
60	0x3d99d6d1	0.07511676
61	0x3cf58c08	0.029973999
62	0xbda0407d	-0.078248
63	0x3e0e55ee	0.13899967
64	0xbe05e29f	-0.1307473
65	0xbde84814	-0.11341873
66	0xbd8302e2	-0.06397034
67	0x3e303219	0.1720661
68	0xbd946dfa	-0.07247539
69	0xbe08679c	-0.13320774
70	0xbe30d0f0	-0.17267203
71	0xbd8ea984	-0.06965926
72	0xbd9f7702	-0.07786371
73	0x3d00bfea	0.031433024
74	0x3e3a0ae0	0.18168211
75	0xbac54cc9	-0.0015052791
76	0x3d253794	0.040336207
77	0x3e1646c5	0.14675434
78	0xbe17743f	-0.14790438
79	0xbd11bc5b	-0.03558002
80	0xbd3b16d6	-0.045676075
81	0xbe0fa013	-0.14025907
82	0xbe00422b	-0.12525241
83	0xbcbf03be	-0.023317214
84	0x3c7afd26	0.015319144
85	0xbd8e1b34	-0.06938782
86	0x3d2f9272	0.04286427
87	0xbd6c2162	-0.057649024
88	0xbe26f9f7	-0.16306292
89	0xbd89681f	-0.06709313
90	0x3d4953f5	0.049152333
91	0x3ca6d8c3	0.020367032
92	0xbd635483	-0.05550052
93	0x3c5afbe4	0.0133657195
94	0x3dd8a5f7	0.1057853
95	0x3dfa06ce	0.12208329
96	0xbcbfdcf8	-0.023420796
97	0x3d327a9b	0.043573957
98	0xbc8b352f	-0.016993133
99	0xbe1df928	-0.15427077
100	0x3e33412f	0.17505334
101	0xbb17e570	-0.0023177527
102	0x3cd404bf	0.02588117
103	0x3dfbc905	0.12294201
104	0x3d7fcc18	0.0624505
105	0x3da98e78	0.08279127
106	0xbcf0e49b	-0.029405883
107	0x3ddfaa93	0.10921206
108	0xbe17dc20	-0.14830065
109	0x3dc3e62f	0.095653884
110	0x3e1bf2f0	0.15229392
111	0xbe22cb8b	-0.15897958
112	0xbe02c739	-0.1277131
113	0x3ddb944d	0.107216455
114	0xbde7d5a0	-0.113200426
115	0xbdc51b95	-0.096244015
116	0x3b450c3c	0.0030067107
117	0xbcc9f0b2	-0.024650905
118	0x3d9d3105	0.07675365
119	0xbcad6858	-0.021167919
120	0xbdcf8c02	-0.10134126
121	0xbd8361bb	-0.06415125
122	0x3e2b30a0	0.16717768
123	0xbd5fdc58	-0.054653496
124	0xbca06ac1	-0.019582154
125	0xbde31323	-0.110876344
126	0xbd8ebf6a	-0.06970103
127	0xbdf8369a	-0.121197894
128	0xbe2a4688	-0.16628468
129	0x3b2e6c3c	0.0026614806
130	0x3c83ea94	0.016103067
131	0x3d6fc5d8	0.058538288
132	0x3dbea3e1	0.09308601
133	0xbcfb2591	-0.030657561
134	0x3e173d2b	0.14769427
135	0x3e2851fd	0.16437526
136	0x3e241b9d	0.16026159
137	0x3d878b5e	0.06618379
138	0xbe24e81f	-0.16104172
139	0xbe05bbef	-0.13059972
140	0xbdffd3c2	-0.124915615
141	0x3c264ce7	0.010150171
142	0x3dd01e05	0.10161976
143	0xbc26c9e2	-0.010179969
144	0x3e2597e0	0.16171217
145	0x3d89907a	0.0671701
146	0x3e277de4	0.16356617
147	0xbd9b1151	-0.07571662
148	0x3d2b15cf	0.041768845
149	0x3d8c0890	0.06837571
150	0x3e0f01b2	0.1396549
151	0xbd30fc02	-0.043209083
152	0xbe0e7e2a	-0.13915315
153	0x3ce0de15	0.027449647
154	0x3d477e4a	0.048704423
155	0xbe0ee453	-0.13954286
156	0x3e30b7a6	0.17257556
157	0x3db7a9c4	0.08967927
158	0xbdfb7f16	-0.12280099
159	0x3c8b561a	0.01700883
160	0xbdaef290	-0.08542359
161	0xbd8e6e2d	-0.06954608
162	0x3dbc8e4d	0.09206829
163	0xbc8158a4	-0.015789337
164	0x3da367e1	0.07978798
165	0xbe248023	-0.16064505
166	0xbe09c803	-0.13455205
167	0x3d55f057	0.05223116
168	0xbd866c54	-0.06563631
169	0x3a9811cf	0.0011601987
170	0xbc2d8524	-0.010590825
171	0xbd78c8af	-0.06073826
172	0x3e167432	0.14692762
173	0xbe3bba64	-0.18332821
174	0x3d086fef	0.033309873
175	0x3dc65ba9	0.096854515
176	0x3ca9a17a	0.02070688
177	0xbd812095	-0.06305043
178	0xbc6b30f5	-0.014354934
179	0xbc0d6cc6	-0.008631891
180	0xbe17042b	-0.14747684
181	0xbe000204	-0.12500769
182	0x3ce3ec5f	0.027822671
183	0xbd7755a0	-0.060384393
184	0xbdebf2c4	-0.11520913
185	0x3dea7c18	0.1144945
186	0x3c674eca	0.014117906
187	0xbe3fa098	-0.18713605
188	0xbe11297c	-0.14175981
189	0xbc0196c5	-0.007909481
190	0x3dde1348	0.10843521
191	0xbdba1efd	-0.09087942
192	0x3e07163d	0.13192077
193	0x3d2fcb3c	0.04291843
194	0xbcd2962e	-0.025706377
195	0xbd90e453	-0.070747994
196	0xbe450a67	-0.1924225
197	0xbddc0103	-0.107423805
198	0xbd337805	-0.04381563
199	0x3cb20ce8	0.02173467
200	0x3d3ecdda	0.046583034
201	0x3c3a24dd	0.011361328
202	0x3de387e5	0.11109904
203	0xbd9f3248	-0.07773262
204	0xbd251708	-0.040305167
205	0x3cd53278	0.026025042
206	0xbd4a4bbb	-0.04938863
207	0xbdec0b68	-0.11525613
208	0x3caee491	0.021349223
209	0x3dc8a2c6	0.097966716
210	0x3dc41f78	0.09576315
211	0x3cfc145f	0.030771432
212	0x3cd3942b	0.025827488
213	0x3e19eb17	0.15031086
214	0x3e00f4f0	0.12593436
215	0x3d2de9db	0.04245935
216	0x3bd8fee1	0.006622181
217	0xbda72bb3	-0.08162632
218	0x3c873993	0.016506946
219	0x3df6ec92	0.12056841
220	0x3dbafc73	0.09130182
221	0xbe0124ee	-0.12611744
222	0x3e301d7d	0.17198749
223	0xbc87c87d	-0.016575092
224	0x3da5ca55	0.080952324
225	0x3d969c28	0.07354003
226	0x3dd8f7ed	0.10594163
227	0x3d26570f	0.04061037
228	0x3e16d177	0.14728342
229	0x3b559c3c	0.0032594344
230	0x3dcd96e6	0.10038547
231	0xbdaf4f12	-0.08560003
232	0x3d205421	0.03914273
233	0xbe24387c	-0.16037172
234	0x3e0e6b20	0.13908052
235	0x3e21566e	0.15755627
236	0xbdd13530	-0.10215223
237	0xbdeee8ce	-0.11665498
238	0xbc9f5b80	-0.01945281
239	0x3d90cf55	0.070707954
240	0xbd339eb3	-0.04385252
241	0x3e026285	0.12732895
242	0xbe21490c	-0.15750521
243	0x3e2695a7	0.16268025
244	0xbdb3fa41	-0.087879665
245	0x3e122c61	0.14274742
246	0xbdc94b27	-0.09828787
247	0xbdb16368	-0.08661538
248	0xbe330286	-0.17481431
249	0x3c65f8f8	0.01403641
250	0xbd844252	-0.06457962
251	0x3dbad0c8	0.09121853
252	0xbdb40439	-0.08789868
253	0x3e0d32ce	0.13788912
254	0xbdda385d	-0.10655282
255	0xbd9e2fe4	-0.07723978
