output/FF-L-MoME/ts_encoder_epoch3.pt (torch, 433260 bytes, 34 tensors)

proj.weight f4 [32, 8]
0	0x3b2eff5c	0.00267025
1	0xbe82fbea	-0.2558282
2	0xbe70ca7b	-0.2351474
3	0xbe6b759b	-0.22994082
4	0x3e3360c8	0.17517388
5	0xbe82cb03	-0.2554551
6	0xbd05e9f4	-0.03269382
7	0x3e8b1513	0.27164516
8	0xbeaf3793	-0.34222087
9	0x3e74facf	0.23923801
10	0x3ea308fb	0.3184279
11	0x3e1ae680	0.15126991
12	0x3d4ab0fd	0.049485195
13	0x3eac86b5	0.33696523
14	0x3e8f1c88	0.27951455
15	0x3e9a3a09	0.30122402
16	0xbdf49201	-0.119419105
17	0x3e0a35ed	0.13497134
18	0x3d705662	0.05867613
19	0xbe9d581f	-0.30731294
20	0xbe9133bf	-0.28359792
21	0xbe9d8d04	-0.3077165
22	0xbd98bb75	-0.074576296
23	0x3c0daaf1	0.008646713
24	0x3e1fdc15	0.15611298
25	0xbe706af4	-0.234783
26	0x3bd5e458	0.006527465
27	0x3e56c90a	0.20975128
28	0xbe961cbd	-0.293188
29	0x3e993b0e	0.29927868
30	0xbd9619a1	-0.07329107
31	0xbe80d04d	-0.2515892
32	0xbcf95769	-0.030437188
33	0xbd1ae256	-0.037813507
34	0x3ea159a6	0.3151371
35	0x3e14542c	0.14485234
36	0x3e5de7a5	0.21670397
37	0x3e852efb	0.26012406
38	0xbe606923	-0.21915106
39	0xbe246646	-0.16054639
40	0xbe7cd89a	-0.24692002
41	0xbe2f9c7b	-0.17149536
42	0xbe744846	-0.23855695
43	0x3d74511e	0.059647672
44	0xbeb43423	-0.35196027
45	0x3e9165e7	0.28398058
46	0xbeb03c88	-0.34421182
47	0x3e507d79	0.20360364
48	0xbeb0091a	-0.34381944
49	0x3e36c4a9	0.17848457
50	0xbe3b66fe	-0.18301007
51	0x3d91ed7c	0.07125375
52	0x3ea10e91	0.31456426
53	0xbe078a28	-0.13236296
54	0xbafa9dff	-0.0019120573
55	0xbd57f1f6	-0.052720986
56	0xbeb0a301	-0.34499362
57	0x3e8f5a74	0.27998698
58	0xbd9d2c00	-0.07674408
59	0xbdaff235	-0.08591119
60	0xbe16a119	-0.14709891
61	0x3e26bb40	0.16282368
62	0xbe43720e	-0.19086477
63	0xbe3d67dc	-0.1849665
64	0x3e90e005	0.28295913
65	0xbe8c62f5	-0.27419248
66	0xbeaf3ba9	-0.34225205
67	0x3dbd8d27	0.09255438
68	0xbe0416ec	-0.12899369
69	0xbe2a11e4	-0.16608387
70	0xbd821cd1	-0.063531525
71	0x3e9c67f6	0.30548066
72	0x3dc1f893	0.0947124
73	0xbea2fea4	-0.318349
74	0x3e11e226	0.14246425
75	0xbeb02f09	-0.34410885
76	0x3de29281	0.110631
77	0x3d441ff9	0.047882054
78	0xbe985cb1	-0.29758218
79	0x3e31f8b2	0.17380026
80	0x3da26ba2	0.079306856
81	0x3ea4aa0e	0.3216099
82	0xbde2145d	-0.1103904
83	0x3e67a55f	0.22621678
84	0x3d4c7ba3	0.049922597
85	0x3eb58996	0.35456532
86	0xbe9a371e	-0.30120176
87	0x3e74133c	0.23835462
88	0xbe1ed383	-0.15510373
89	0xbe7f13f4	-0.24909955
90	0xbe84877f	-0.25884625
91	0x3df0c74f	0.11756765
92	0x3e0cce66	0.1375061
93	0x3c801968	0.015637115
94	0xbb9ba5d8	-0.0047499947
95	0xbe0da1a8	-0.13831198
96	0x3ea09402	0.3136292
97	0x3d4bdf1d	0.049773324
98	0x3e1a38f4	0.15060788
99	0xbe25a633	-0.16176681
100	0xbe9b7c19	-0.30368116
101	0xbe8a667f	-0.27031323
102	0x3e941ca7	0.2892811
103	0xbdced807	-0.10099798
104	0x3c253e01	0.010085584
105	0xbeb5eacc	-0.35530698
106	0x3d8673e8	0.06565076
107	0xbdb66570	-0.089060664
108	0xbd1f7265	-0.038927455
109	0x3c4a98f7	0.012365571
110	0x3e818496	0.25296468
111	0xbd9f5caf	-0.0778135
112	0xbe5ff734	-0.21871644
113	0x3ea029e6	0.31281966
114	0x3eb3897f	0.3506584
115	0x3eacbce5	0.33737865
116	0xbe9d988a	-0.3078044
117	0xbd57936d	-0.05263083
118	0xbe476a99	-0.19474258
119	0x3e4b925d	0.19880052
120	0xbb4621e2	-0.0030232598
121	0x3e0454f9	0.1292304
122	0x3ea93840	0.33050728
123	0x3e88199a	0.26582032
124	0xbda0a53c	-0.07844016
125	0x3e7f99d4	0.24961025
126	0x3e8ea2b4	0.27858508
127	0xbe2ef019	-0.17083777
128	0x3c813ee6	0.015777063
129	0xbe865b4c	-0.2624153
130	0xbe10f22a	-0.14154878
131	0x3e0ccc9f	0.13749932
132	0xbafa381f	-0.0019090212
133	0x3e9caa9b	0.30598912
134	0x3eaaf845	0.3339254
135	0xbdd3747a	-0.103249505
136	0xbde5e8e4	-0.11226061
137	0xbe8065e4	-0.25077736
138	0xbbc900a6	-0.0061341105
139	0x3d5b5ba5	0.053554196
140	0x3e049638	0.12947929
141	0x3e0828ac	0.13296765
142	0x3ddd8553	0.10816445
143	0xbd8dab1f	-0.069174044
144	0xbdc4394d	-0.09581242
145	0xbe57f2a4	-0.21088654
146	0xbe5e6f46	-0.21722135
147	0xbea38c5e	-0.3194303
148	0xbe88bc12	-0.26705986
149	0xbe47565b	-0.19466536
150	0x3e34a70f	0.17641853
151	0xbd125873	-0.035728883
152	0xbe4c9374	-0.19978124
153	0xbe470028	-0.19433653
154	0x3ea36344	0.3191167
155	0xbd90f1e4	-0.07077387
156	0xbd576976	-0.05259081
157	0xbeb56176	-0.3542592
158	0xbe9a2459	-0.30105856
159	0xbe803d8c	-0.25046957
160	0xbdb7f5de	-0.08982442
161	0x3d211ee3	0.039336096
162	0x3eb128c0	0.34601402
163	0xbe2dcc5e	-0.16972491
164	0xbcf4e679	-0.029895054
165	0xbde50afb	-0.11183735
166	0xbea2f03e	-0.31823915
167	0x3e107de4	0.14110523
168	0x3e959eea	0.29222804
169	0x3c407920	0.011747628
170	0x3cecf49c	0.028925233
171	0xbe8a422a	-0.27003604
172	0x3e463b77	0.19358622
173	0xbe01aaef	-0.12662862
174	0xbe075de5	-0.13219412
175	0xbe898ff3	-0.26867637
176	0x3e62a25c	0.22132248
177	0xbe7accfd	-0.2449226
178	0xbce87898	-0.028377816
179	0xbeb09a33	-0.34492645
180	0xbe2475d7	-0.16060577
181	0xbe038023	-0.12841849
182	0xbe90b22b	-0.2826093
183	0x3e65f8e2	0.22458223
184	0x3e8dfc78	0.2773168
185	0x3d8209ce	0.06349526
186	0xbe9ce7bf	-0.30645558
187	0xbe22272a	-0.15835252
188	0x3e1f77c8	0.15573037
189	0xbe15f917	-0.14645801
190	0x3dec1ebc	0.115292996
191	0xbe1d6a9c	-0.153727
192	0xbdb72781	-0.08943082
193	0x3d97a1dc	0.07403919
194	0xbdfaf233	-0.12253227
195	0x3a054884	0.0005084353
196	0xbe1912d2	-0.14948586
197	0xbe92e593	-0.28690776
198	0x3ea6a1fb	0.32545456
199	0x3ea2054a	0.3164466
200	0xbe265870	-0.16244674
201	0x3e7236ec	0.23653764
202	0x3e13e01d	0.14440961
203	0x3e0ddd08	0.13853848
204	0x3eb0ce12	0.3453222
205	0xbd263d14	-0.040585592
206	0xbd46f86e	-0.048576765
207	0xbe956419	-0.2917793
208	0xbdb74904	-0.089494735
209	0x3eb4a068	0.3527863
210	0x3e9e8ad5	0.30965295
211	0xbc2575dc	-0.010098901
212	0xbe70cd72	-0.23515871
213	0xbe3b3fa0	-0.1828599
214	0xbe1f77b9	-0.15573014
215	0x3e97a775	0.29619947
216	0x3ca8d937	0.020611389
217	0xbea2ebf7	-0.31820652
218	0xbe9d1aa9	-0.30684403
219	0xbda59b7d	-0.08086298
220	0x3ce7a0e9	0.02827497
221	0xbe83513b	-0.2564791
222	0xbe93d5db	-0.28874096
223	0x3e8566cb	0.26054987
224	0x3eaac265	0.33351436
225	0x3d25cc70	0.04047817
226	0x3cd8e6ce	0.026477244
227	0x3ea2eacf	0.3181977
228	0xbdc4bde8	-0.09606534
229	0xbe9644b8	-0.29349303
230	0xbe6ae0df	-0.22937344
231	0x3e911b21	0.2834101
232	0xbe44afb4	-0.1920765
233	0x3e91ab5b	0.28451046
234	0x3ea0ce20	0.3140726
235	0x3dfd02f7	0.12354081
236	0x3e2b38d0	0.16720891
237	0xbd97d733	-0.07414093
238	0xbe821024	-0.2540294
239	0xbe3a2b10	-0.1818049
240	0xbe2e79b3	-0.17038612
241	0xbe53d456	-0.20686468
242	0xbe9dc303	-0.30812845
243	0xbe7a5449	-0.24446215
244	0xbe2d2862	-0.16909936
245	0x3dae53db	0.08512088
246	0x3e27626c	0.16346139
247	0xbe363e32	-0.17797163
248	0xbd111275	-0.035417993
249	0x3b8318a5	0.0040007406
250	0xbe3d65ef	-0.18495916
251	0xbebfc5c2	-0.37455565
252	0xbe2dd8a9	-0.1697718
253	0xbe834230	-0.25636435
254	0x3d1de513	0.03854854
255	0xbea22434	-0.31668246

proj.bias f4 [32]
0	0x3e27d15f	0.16388462
1	0xbe051767	-0.12997209
2	0x3e9e6fd6	0.309447
3	0x3e1b5f75	0.15173133
4	0xbeaad555	-0.33365884
5	0xbea57ff4	-0.32324183
6	0xbe9c2574	-0.30497324
7	0xbe3a0dc5	-0.18169315
8	0xbe4d7a69	-0.20066227
9	0x3dcd09c9	0.10011632
10	0xbea14d4e	-0.3150429
11	0xbea52b84	-0.32259762
12	0xbd2f92a2	-0.04286445
13	0x3e9b6652	0.30351502
14	0x3df7d861	0.12101818
15	0x3b64217f	0.0034810004
16	0xbd9e5388	-0.07730776
17	0xbe963fe7	-0.2934563
18	0x3e926613	0.285935
19	0x3e398866	0.18118438
20	0x3eb2159a	0.34782106
21	0xbd7256ad	-0.05916469
22	0xbe1c7aaa	-0.15281168
23	0xbe397bdb	-0.18113653
24	0xbe4d4d3e	-0.20048997
25	0xbdd5abd0	-0.10433161
26	0xbe8fc534	-0.28080142
27	0x3d20137c	0.03908108
28	0xbdf1226f	-0.11774146
29	0x3e81fe09	0.25389126
30	0x3ca666fb	0.020312777
31	0x3e90b2e7	0.28261492

EiLM.0.gamma_generator.weight f4 [1, 32]
0	0xbd862580	-0.06550121
1	0xbdf99e46	-0.121883914
2	0xbdf1f41a	-0.11814137
3	0x3c6aaf99	0.014324092
4	0x3e384a6d	0.17997141
5	0xbdaebab1	-0.08531702
6	0x3da87ed0	0.082273126
7	0xbca61dcb	-0.020277878
8	0xbe39f685	-0.18160446
9	0x3d197eb0	0.037474334
10	0xbd1512ae	-0.036394767
11	0x3d2f14c5	0.042744417
12	0xbe478810	-0.19485497
13	0xbe1edad4	-0.15513164
14	0x38a8457d	8.0238075e-05
15	0xbca8476a	-0.020541865
16	0x3da19678	0.07890028
17	0x3e417963	0.18893962
18	0xbd536ade	-0.05161559
19	0x3e02a347	0.12757598
20	0xbdb41f6a	-0.08795054
21	0xbc864cd1	-0.01639405
22	0xbe20d2bd	-0.1570539
23	0x3e155a0c	0.14585131
24	0xbe10ee12	-0.14153317
25	0xbd98e581	-0.074656494
26	0x3e13ac13	0.1442111
27	0xbd711733	-0.058860015
28	0xbe0b0a85	-0.13578232
29	0xbde85864	-0.11344984
30	0x3df7f8a8	0.12107974
31	0x3d27d487	0.040974166

EiLM.0.beta_generator.weight f4 [32, 32]
0	0xbd33e2f9	-0.04391763
1	0x3d832804	0.06404117
2	0xbe20e997	-0.15714107
3	0xbdf776a6	-0.12083177
4	0x3d164674	0.036688283
5	0x3bbda3fc	0.0057873707
6	0x3c6fb08f	0.014629497
7	0x3d55c1f6	0.05218693
8	0x3d01cf57	0.031691875
9	0x3cadac9d	0.021200472
10	0xbe19baa9	-0.15012611
11	0x3dea1494	0.11429706
12	0x3dd120ae	0.10211311
13	0xbda432d0	-0.08017504
14	0xbe212a16	-0.15738711
15	0xbe18adda	-0.14910069
16	0x3dd17d16	0.102289364
17	0x3cf05c13	0.02934078
18	0xbe15f500	-0.14644241
19	0xbe1527b4	-0.14565927
20	0xbda54c11	-0.08071149
21	0xbd6048a1	-0.054756764
22	0x3e008cec	0.12553757
23	0xbba4ad70	-0.005025558
24	0xbe1dc429	-0.1540686
25	0x3d09e6d4	0.0336674
26	0x3e2f03f1	0.17091347
27	0x3cbf0eab	0.023322424
28	0xbddea621	-0.1087153
29	0xbdf9af0c	-0.12191591
30	0x3de155ac	0.11002669
31	0xbe2673c7	-0.16255103
32	0xbbb28e10	-0.005449064
33	0xbe351cce	-0.1768677
34	0x3e2077d1	0.15670706
35	0xbdf28a59	-0.11842794
36	0x3dc81fe0	0.09771705
37	0xbd0a4c62	-0.03376425
38	0xbddaf2f9	-0.106908746
39	0x3d4059f2	0.04696078
40	0x3d4b755b	0.049672466
41	0xbd8b1e0f	-0.067928426
42	0xbe158b1c	-0.14603847
43	0x3c73f7c8	0.014890619
44	0xbd657fbf	-0.05603003
45	0xbdf1036a	-0.11768229
46	0x3dfc0d82	0.12307264
47	0xbda49db3	-0.08037891
48	0xbe146b77	-0.1449412
49	0x3e2d856e	0.1694543
50	0x3dc9c496	0.09851949
51	0xbe109eca	-0.14123073
52	0xbe331ac8	-0.17490685
53	0x3d8895a4	0.06669167
54	0x3e075e09	0.13219465
55	0x3bfbf450	0.0076890364
56	0xbcba9e22	-0.022780482
57	0x3d7e0315	0.062014658
58	0x3dc2f965	0.095202245
59	0x3ddf3147	0.10898071
60	0xbdbd1af7	-0.09233659
61	0xbe10de7f	-0.14147376
62	0x3e0a6a8e	0.1351721
63	0xbd12b03c	-0.0358126
64	0xbcf615a0	-0.030039608
65	0xbd9589a5	-0.07301644
66	0x3dfbdef9	0.12298388
67	0x3da3f697	0.08006018
68	0x3d92e436	0.07172434
69	0xbd4815c6	-0.04884889
70	0xbde99527	-0.11405402
71	0xbe1b86aa	-0.15188089
72	0x3d116ba5	0.03550305
73	0x3dd5cf08	0.10439879
74	0x3d38d356	0.04512342
75	0x3bf2d232	0.007410311
76	0x3d8d22a6	0.06891374
77	0xbde04414	-0.10950485
78	0x3da6a5eb	0.08137115
79	0x3d1a0a60	0.03760755
80	0xbdb3cf4b	-0.08779772
81	0x3d8dba6e	0.06920324
82	0x3da27cf5	0.0793399
83	0xbe066cba	-0.13127413
84	0x3c8b2e42	0.01698983
85	0x3c4bb712	0.012433784
86	0x3cbd663e	0.023120042
87	0xbb4c8f37	-0.0031213292
88	0xbdc67eaa	-0.09692128
89	0x3da94522	0.08265139
90	0x3dd1bb95	0.102408566
91	0xbda03976	-0.0782346
92	0xbc2e9008	-0.010654457
93	0xbdfe5ae1	-0.124196775
94	0xbad846cf	-0.0016500595
95	0xbe15a734	-0.14614564
96	0x3daf12e4	0.08548525
97	0xbe1f4d15	-0.15556748
98	0x3dede250	0.11615431
99	0xbda0fdad	-0.07860885
100	0xbdb3e026	-0.08782987
101	0xbe12bbb5	-0.14329417
102	0x3d622aa9	0.055216465
103	0xbd8f2b6c	-0.06990704
104	0xbd4aab35	-0.049479682
105	0x3d6c8818	0.057746977
106	0xbe291d86	-0.16515169
107	0x3c131f29	0.008979597
108	0xbd44ec24	-0.048076764
109	0xbd9e6580	-0.07734203
110	0x3df53ec6	0.11974864
111	0x3e133927	0.1437727
112	0xbda86234	-0.08221856
113	0xbdd0bef0	-0.101926684
114	0xbdfda6d2	-0.12385334
115	0xbe0290a1	-0.12750484
116	0xbc8b43b2	-0.017000053
117	0x3d81448c	0.063119024
118	0x3be0249a	0.0068403007
119	0xbdf8ee89	-0.12154872
120	0xbc956b7c	-0.01823973
121	0xbe164323	-0.14674048
122	0x3ddf3894	0.10899463
123	0x3d5fe364	0.054660216
124	0x3e27f355	0.16401418
125	0xba247432	-0.0006273418
126	0x3d4914cb	0.049092095
127	0xbe16eb62	-0.14738229
128	0x3d8d044d	0.06885586
129	0x3e2320b0	0.15930438
130	0x3d661b32	0.05617828
131	0xbd36161f	-0.04445469
132	0x3d797b78	0.060908765
133	0xbe1b98cf	-0.1519501
134	0x3d9c0be8	0.076194584
135	0xbd4bc760	-0.049750686
136	0x3dae9d81	0.08526135
137	0xbe01c994	-0.12674552
138	0x3dd3281e	0.10310386
139	0x3d73efac	0.05955474
140	0xbe1f902b	-0.1558234
141	0xbd97a2b2	-0.074040785
142	0x3d2420b7	0.04007026
143	0x3bc3d2f9	0.0059760776
144	0x3e180cd4	0.14848644
145	0x3e1720d2	0.14758614
146	0x3c5d3c89	0.013503202
147	0x3db65ba3	0.08904197
148	0x3cd26872	0.025684569
149	0x3df5d73d	0.12003944
150	0xbc0a1fc6	-0.008430427
151	0xbe19b06e	-0.15008709
152	0xbc932f80	-0.017966986
153	0x3cc2c05a	0.023773361
154	0x3cee2e72	0.029074881
155	0x3e0258d2	0.12729195
156	0x3bfdca0d	0.0077450336
157	0x3e1c620c	0.15271777
158	0x3c3ee719	0.011651778
159	0xbd92c656	-0.07166736
160	0xbd48eef6	-0.049056016
161	0x3dbbc428	0.09168273
162	0xbe201a43	-0.15635018
163	0xbe1d9580	-0.15389061
164	0xbd6e60d1	-0.0581978
165	0x3e131dd7	0.14366852
166	0xbe2e5229	-0.17023529
167	0xbcbaf076	-0.022819739
168	0x3dca25ce	0.09870492
169	0xbd9089dc	-0.070575446
170	0x3d264b94	0.04059942
171	0x3e2ce74b	0.16885106
172	0xbdd95442	-0.10611774
173	0x3cf3ae09	0.029746072
174	0x3cd06059	0.025436567
175	0x3e3d3985	0.18478973
176	0xbe0a3128	-0.13495314
177	0x3e2156fe	0.15755841
178	0x3d09604f	0.033539113
179	0xbd215ba4	-0.039394036
180	0xbd17e4c5	-0.037083406
181	0x3defcb28	0.11708671
182	0x3d79d629	0.060995255
183	0x3e336090	0.17517304
184	0x3e182daa	0.1486117
185	0xbd196097	-0.03744563
186	0x3b1e911f	0.0024195386
187	0x3d875223	0.06607463
188	0xbd86159d	-0.06547091
189	0x3e0e9836	0.13925251
190	0xbe0d9457	-0.13826118
191	0x3e015a3d	0.1263208
192	0x3d22a866	0.03971138
193	0xbdb1990d	-0.0867177
194	0x3d8a1347	0.06741958
195	0xbd26b96c	-0.040704176
196	0x3c808b19	0.015691327
197	0x3d37d5bc	0.044881567
198	0x3df8eb21	0.12154222
199	0x3dd9bf36	0.10632174
200	0xbe1f439f	-0.15553139
201	0x3e210f65	0.15728529
202	0xbcefabe4	-0.029256769
203	0xbd166dcf	-0.036725815
204	0x3d7712e1	0.06032074
205	0x3e1fa551	0.15590407
206	0x3d277dbf	0.040891405
207	0xbdf8f122	-0.121553674
208	0xbe0dbb57	-0.13840996
209	0x3dad12ac	0.08450827
210	0xbca43f76	-0.020049792
211	0xbe2c78ca	-0.16842952
212	0xbc9d94f1	-0.01923606
213	0x3cc45c8a	0.023969907
214	0xbd2e0b82	-0.042491443
215	0xbe2bd0c3	-0.16778855
216	0xbe0fc3ff	-0.1403961
217	0x3df2e308	0.11859709
218	0xbd88ae1d	-0.066738345
219	0x3e1fce6e	0.1560609
220	0x3e1f204f	0.15539669
221	0xbca6e41f	-0.020372448
222	0x3c8a5260	0.016884983
223	0xbe126de1	-0.14299728
224	0x3d183901	0.03716374
225	0xbcb2b4c2	-0.021814708
226	0xbc519e47	-0.012794084
227	0x3d8add07	0.06780439
228	0x3d1c221c	0.038118467
229	0xbd5f7be5	-0.054561514
230	0xbe056047	-0.13025008
231	0xbda3a175	-0.0798978
232	0x3d32a2e4	0.043612376
233	0xbb66d4b1	-0.0035221989
234	0x3c9a6018	0.01884465
235	0x3cd1f15c	0.025627784
236	0xbe1b6912	-0.151768
237	0xbe13bcf0	-0.14427543
238	0xbe09d00d	-0.13458271
239	0xbe21027d	-0.15723605
240	0x3d48674f	0.048926648
241	0xbdfd1b7d	-0.123587586
242	0x3e1a9fd9	0.1510004
243	0x3e06617a	0.13123122
244	0x3c124b9f	0.008929162
245	0xbd205afe	-0.039149277
246	0x3c354766	0.011064386
247	0xbe113c4d	-0.14183159
248	0xbd8d30e2	-0.06894089
249	0xbe015d27	-0.12633191
250	0xbdeeffa5	-0.11669854
251	0xbda0250a	-0.07819565
252	0x3dc8751f	0.09787964
253	0x3e07e62c	0.13271397
254	0xbd9d34af	-0.07676064
255	0x3deccae8	0.11562139

EiLM.1.gamma_generator.weight f4 [1, 32]
0	0xbe0db049	-0.13836779
1	0x3dce0ad7	0.10060661
2	0x3e027564	0.12740093
3	0xbc85c305	-0.016328344
4	0x3d53ea68	0.05173722
5	0xbe2f7630	-0.17134929
6	0x3da4a163	0.080385946
7	0x3d948494	0.0725185
8	0x3dce893b	0.100847684
9	0x3d64742a	0.055774845
10	0xbd4ec72d	-0.050482918
11	0xbc5a9481	-0.01334107
12	0x3e1cd787	0.15316592
13	0x3e25450a	0.16139618
14	0xbd1c04d7	-0.038090553
15	0xbe1e1931	-0.15439297
16	0x3ccbc979	0.024876343
17	0xbd8b006d	-0.067871906
18	0xbd757559	-0.059926365
19	0xbe228fae	-0.15875122
20	0xbbffc73e	-0.007805734
21	0xbe0592a6	-0.13044223
22	0x3c6e7d12	0.014556186
23	0x3a2e47de	0.0006648282
24	0xbdc032d5	-0.093846954
25	0xbd8e1104	-0.06936839
26	0x3cef1d1c	0.029188685
27	0x3ddb673e	0.10713051
28	0x3de29a52	0.110645905
29	0x3e285469	0.1643845
30	0x3d339ab1	0.043848697
31	0x3db96206	0.090518996

EiLM.1.beta_generator.weight f4 [32, 32]
0	0x3d3a9ead	0.04556148
1	0xbe0ecf21	-0.13946201
2	0x3e0f0a42	0.13968757
3	0xbcce909d	-0.025215441
4	0xbde41e8b	-0.11138638
5	0xbc80e329	-0.015733318
6	0xbbb6a97d	-0.005574404
7	0xbd6b93fe	-0.057514183
8	0xbdb7eaab	-0.08980306
9	0xbd76c98a	-0.060250796
10	0x3dba3efd	0.09094045
11	0xbe2ab107	-0.16669093
12	0x3db06881	0.086136825
13	0xbe08f4ec	-0.1337468
14	0xbd01e790	-0.031714976
15	0x3cc00202	0.023438457
16	0xbe06f45a	-0.1317915
17	0xbe196cf1	-0.14982964
18	0xbe0afbd2	-0.13572624
19	0x3e14ce29	0.14531769
20	0x3d8c6276	0.068547174
21	0xbded0fc7	-0.11575275
22	0x3e200d39	0.15630044
23	0xbcde0ea7	-0.027106596
24	0x3e3088ca	0.17239681
25	0xbdfb4dda	-0.122707084
26	0xbe188b35	-0.14896853
27	0xbdda3672	-0.10654916
28	0x3e0e1dbc	0.1387853
29	0xbda8c815	-0.082412876
30	0x3e149328	0.1450926
31	0x3dbae2b5	0.09125272
32	0x3c216ecb	0.009853075
33	0xbe182fc2	-0.14861968
34	0xbddfa63a	-0.10920377
35	0x3c9eecea	0.019400079
36	0xbe213f26	-0.15746745
37	0x3d2b3a2a	0.041803516
38	0x3d2e7362	0.042590506
39	0x3d64ff0c	0.055907294
40	0xbdb1331c	-0.086523265
41	0x3e1cead6	0.15323958
42	0xbdbb881b	-0.091568194
43	0xbc186bb0	-0.009303018
44	0xbd67dec0	-0.056608915
45	0xbd630a8b	-0.055429976
46	0xbdc07088	-0.09396464
47	0xbe220009	-0.15820326
48	0x3e294bc1	0.16532804
49	0xbdb7f634	-0.089825064
50	0xbd8f75d7	-0.07004898
51	0xbd90a98a	-0.07063587
52	0xbd09af2a	-0.033614315
53	0xbdb11f88	-0.08648592
54	0x3de89eb2	0.11358394
55	0x3d55a051	0.052154843
56	0x3d87a497	0.0662319
57	0x3dd34cc3	0.103173755
58	0x3dd4c077	0.10388272
59	0x3d1fab07	0.038981464
60	0xbd9dec27	-0.07711058
61	0x3d3f894f	0.046761807
62	0xbd20af6b	-0.03922979
63	0xbdc57446	-0.09641318
64	0xbd613eb1	-0.054991428
65	0x3d47aa32	0.048746295
66	0xba01a3c7	-0.0004945364
67	0x3e0f37d5	0.13986142
68	0xbe43d820	-0.19125414
69	0x3db0663b	0.08613249
70	0xbdcfe62f	-0.10151326
71	0xbd37b14e	-0.044846825
72	0xbc4f4fbc	-0.0126532875
73	0x3da08afd	0.0783901
74	0xbd870ac0	-0.06593847
75	0x3d8ef17f	0.069796555
76	0x3cab0a6e	0.020878997
77	0xbe011143	-0.12604241
78	0x3e118f51	0.14214827
79	0x3e158603	0.14601903
80	0x3cccec63	0.025015062
81	0xbd108d74	-0.03529115
82	0x3dfcc8cc	0.123429865
83	0xbda5cc7d	-0.08095644
84	0x3d018792	0.03162343
85	0xbda3d8cf	-0.08000337
86	0x3e1580f2	0.1459997
87	0xbdf7aaef	-0.1209315
88	0x3e39ef4f	0.18157695
89	0xbdd91277	-0.10599225
90	0x3daf403c	0.085571736
91	0xbde554d0	-0.11197817
92	0xbe132468	-0.14369357
93	0xbcfd71df	-0.030938087
94	0x3d9a161e	0.0752375
95	0x3c6ccd5b	0.014453257
96	0x3d85b251	0.06528152
97	0x3dd9d073	0.10635462
98	0xbd24a4cc	-0.040196225
99	0xbc81913f	-0.015816329
100	0xbe155cfd	-0.14586253
101	0x3dcd1b4a	0.100149706
102	0x3d60da28	0.05489555
103	0xbd89f95c	-0.06737015
104	0x3c9961bd	0.018723363
105	0xbcb44dec	-0.022009812
106	0xbe0d51ab	-0.13800685
107	0xbdeae887	-0.11470132
108	0xbe033c6d	-0.1281602
109	0xbd9f39a0	-0.07774663
110	0x3dd74f8f	0.105132215
111	0xbded856d	-0.115977146
112	0xbe0156d9	-0.12630786
113	0xbd0dc683	-0.034613144
114	0xbdb51e93	-0.08843722
115	0xbddb4a1b	-0.10707494
116	0xbd823240	-0.06357241
117	0x3df3b84e	0.11900388
118	0xbe145956	-0.14487204
119	0x3d250c4f	0.04029494
120	0xb84d2809	-4.8913094e-05
121	0xbc4399b9	-0.011938506
122	0x3d7a0c1e	0.061046712
123	0x3dd44959	0.103655525
124	0x3df67e50	0.12035811
125	0xbd9ded5e	-0.0771129
126	0xbbaf76a3	-0.005354719
127	0xbe251b82	-0.16123775
128	0x3d3d92f6	0.04628273
129	0xbe10bf0f	-0.14135383
130	0xbca6cd80	-0.020361662
131	0xbd640ea5	-0.05567803
132	0x3e2e0910	0.16995645
133	0xbbea34e9	-0.0071474207
134	0x3dbb9ff4	0.09161368
135	0xbe1270b5	-0.14300807
136	0xbe28289e	-0.16421744
137	0x3c817893	0.015804565
138	0xbd4864ae	-0.04892414
139	0x3dc52ce3	0.09627702
140	0x3d0b6ef4	0.03404136
141	0x3d4743f6	0.048648797
142	0xbdf8234e	-0.12116109
143	0xbd5aa8f4	-0.053383783
144	0xbd963696	-0.0733463
145	0x3e1913b3	0.14948921
146	0xbc29d5fe	-0.010365961
147	0xbdb23fff	-0.087036125
148	0x3d1d532d	0.0384094
149	0xbd65b29d	-0.056078542
150	0xbe2285c6	-0.15871343
151	0x3c194986	0.009355908
152	0x3dbb33e6	0.09140758
153	0x3e0dadb7	0.13835798
154	0x3e2eeca5	0.1708246
155	0xbd83ee27	-0.06441908
156	0xbe216093	-0.15759496
157	0xbd2f74ea	-0.042836107
158	0xbde743d7	-0.11292236
159	0x3e171375	0.14753516
160	0xbd29081b	-0.041267496
161	0x3db29b54	0.08721033
162	0x3de2c59f	0.110728495
163	0x3dcf417b	0.10119911
164	0xbe23f632	-0.16011885
165	0x3e244560	0.1604209
166	0xbc51ea0d	-0.01281215
167	0x3e2b9081	0.16754343
168	0x3d7ff515	0.062489588
169	0x3bd17eba	0.006393281
170	0xbe102fd5	-0.14080746
171	0x3bad36d5	0.0052860775
172	0x3e17e510	0.14833474
173	0x3c26bc89	0.010176786
174	0xbe16a6fe	-0.1471214
175	0xbca24fa2	-0.019813363
176	0x3dc4124b	0.095738016
177	0xbe0a943c	-0.1353311
178	0x3c60f241	0.013729633
179	0x3cc28552	0.023745213
180	0xbcce1f2a	-0.025161345
181	0x3d50f8c6	0.0510185
182	0xbe05cdaf	-0.13066743
183	0x3cbe56b5	0.023234705
184	0x3d780a15	0.06055649
185	0xbe117ee8	-0.14208567
186	0xbe3f44da	-0.18678609
187	0xbe206b62	-0.15665963
188	0xbc69c3b7	-0.014267853
189	0xbe0598b4	-0.13046533
190	0xba22c0bd	-0.000620853
191	0x3d23da0c	0.040002868
192	0xbd849d48	-0.064753115
193	0x3df21043	0.11819508
194	0x3de34ae6	0.1109827
195	0x3e064a52	0.13114288
196	0x3b9b5265	0.004740047
197	0x3cb232ae	0.021752682
198	0xbd1168d5	-0.035500366
199	0xbdf3f60a	-0.119121626
200	0x3d37e969	0.04490033
201	0xbd465483	-0.04842044
202	0x3cd29c02	0.025709156
203	0xbc984a9d	-0.018590266
204	0xbe26a983	-0.16275601
205	0x3cb4ea5b	0.022084406
206	0xbcc26f28	-0.023734644
207	0x3e1d254b	0.15346257
208	0x3e2f16bd	0.17098518
209	0x3e0d885b	0.13821547
210	0x3d972669	0.07380373
211	0xbe07bf35	-0.13256533
212	0x3da6841d	0.08130667
213	0xbcf7f430	-0.030267805
214	0xbdb0f97b	-0.086413346
215	0x3e0cc764	0.13747936
216	0xbe241e9e	-0.16027305
217	0x3d2c4736	0.0420601
218	0x3c6b19f5	0.01434945
219	0xbc490934	-0.012270261
220	0xbc14fd16	-0.0090935435
221	0x3d617574	0.055043653
222	0x3cc151a1	0.023598494
223	0x3dfd0620	0.12354684
224	0xbc9ac367	-0.018892003
225	0xbe029b20	-0.12754488
226	0xbdf718a9	-0.120652504
227	0x3cd2d10c	0.025734447
228	0xbe2bafcd	-0.16766281
229	0x3c660429	0.014039078
230	0x3b7f96e7	0.0038999857
231	0xbdb9e275	-0.090763964
232	0x3c9632e8	0.01833482
233	0x3d30e74d	0.043189336
234	0xbdc275a2	-0.09495093
235	0xbde102d7	-0.1098687
236	0x3e13a500	0.14418411
237	0xbb966d66	-0.004590678
238	0xbe2141c2	-0.15747741
239	0x3e24d061	0.16095115
240	0xbd8a3223	-0.06747844
241	0xbe266bcb	-0.16252057
242	0xbdb15024	-0.08657864
243	0x3da2a378	0.079413354
244	0xbd9c3e38	-0.07629055
245	0x3e053af9	0.13010778
246	0x3d89891c	0.06715605
247	0xbe137dde	-0.14403483
248	0x3ca99933	0.020702934
249	0xbe1dbf30	-0.15404963
250	0x3dbbe303	0.091741584
251	0xbe154975	-0.14578803
252	0xbe1b215e	-0.15149447
253	0xbe154921	-0.14578678
254	0x3e0f60c6	0.1400176
255	0xbe0a8b7e	-0.13529775

EiLM.2.gamma_generator.weight f4 [1, 32]
0	0xbc19434e	-0.009354426
1	0xbd518619	-0.051153276
2	0x3e11a8b8	0.14224517
3	0xbd6e683c	-0.058204874
4	0x3cc3a28b	0.023881217
5	0x3cfcb8f7	0.030849917
6	0xbe08f4f4	-0.13374692
7	0x3db62c49	0.088951655
8	0x3d7006c2	0.058600195
9	0xbd5b844c	-0.053592965
10	0x3d6230c2	0.05522228
11	0xbe1c6876	-0.15274224
12	0x3e32d434	0.17463762
13	0x3e455922	0.19272283
14	0xbe1d97b8	-0.15389907
15	0xbe23cac5	-0.15995319
16	0x3dfc6c18	0.12325305
17	0x3c3cd807	0.011526114
18	0xbb63f529	-0.0034783578
19	0x3dd24097	0.10266226
20	0x3d91c686	0.071179435
21	0xbda9ea86	-0.08296685
22	0x3e3631ac	0.17792386
23	0xbcb7c7e8	-0.02243419
24	0xbdfc74cc	-0.12326965
25	0xbd860030	-0.065430045
26	0xbdfab3da	-0.12241335
27	0xbd362666	-0.044470213
28	0x3d543fcc	0.051818654
29	0xbc76f3ec	-0.015072804
30	0xbe040a91	-0.12894656
31	0xbe0a9428	-0.1353308

EiLM.2.beta_generator.weight f4 [32, 32]
0	0x3dc3ff23	0.09570148
1	0x3c4e634d	0.012596917
2	0x3e22de34	0.15905076
3	0xbe22f69f	-0.15914391
4	0xbe16bd0a	-0.1472055
5	0xbd202e9a	-0.039106943
6	0x3dcc19d0	0.09965861
7	0xbdd20a44	-0.10255864
8	0xbe2669bb	-0.1625127
9	0x3dd1f10b	0.102510534
10	0xbe04097a	-0.1289424
11	0x3e2b47ef	0.16726659
12	0xbdced786	-0.100997016
13	0xbdfffc90	-0.12499344
14	0xbcca20ee	-0.024673905
15	0x3ca1847a	0.01971649
16	0x3e2720ee	0.16321155
17	0x3b6a56bf	0.003575727
18	0xbe2ab19f	-0.1666932
19	0xbe3a3607	-0.18184672
20	0xbe037ecd	-0.1284134
21	0xbcf131b2	-0.029442642
22	0x3dadd58d	0.08487997
23	0xbdb7173a	-0.08939977
24	0xbcaefa10	-0.021359473
25	0x3deb286b	0.114823185
26	0x3a154925	0.00056947983
27	0xbde58936	-0.112078115
28	0xbdd6ad96	-0.10482328
29	0xbd5da96c	-0.05411665
30	0x3dbb80de	0.09155439
31	0xbde525e7	-0.1118887
32	0x3d542108	0.051789314
33	0x3e133401	0.14375307
34	0xbd25ae87	-0.040449645
35	0xbbb874f1	-0.005629175
36	0xbdb9029f	-0.09033703
37	0xbd7c0c7c	-0.061535344
38	0x3dd5c580	0.10438061
39	0x3ca73162	0.02040929
40	0x3e16b2f6	0.14716706
41	0xbd13ad1f	-0.036053773
42	0x3e081840	0.132905
43	0xbb40aa83	-0.0029398508
44	0x3e33a38d	0.17542858
45	0xbddc0c40	-0.10744524
46	0x3e302097	0.17199932
47	0xbd8a0e24	-0.06740978
48	0xbdcada5c	-0.0990493
49	0x3d1e859f	0.03870165
50	0xbd954b89	-0.07289798
51	0x3e19b429	0.15010132
52	0xbe09f802	-0.13473514
53	0x3e24a568	0.16078722
54	0x3e2bab99	0.16764678
55	0xbbc3589c	-0.005961491
56	0x3d9164dd	0.07099316
57	0x3c402436	0.011727383
58	0xbe0654f0	-0.13118339
59	0xbd8d183e	-0.068893895
60	0x3d2bf425	0.04198088
61	0xbe288714	-0.16457778
62	0x3d842212	0.06451811
63	0xbd488284	-0.048952594
64	0x3d45bc7f	0.048275467
65	0x3ce0b93f	0.027432082
66	0x3c2bb49a	0.0104800705
67	0xbcd55cee	-0.026045289
68	0x3d1819e5	0.03713407
69	0x3df067a5	0.117385186
70	0xbd55a72c	-0.05216138
71	0x3d595a59	0.053064678
72	0x3e041c81	0.12901498
73	0xbd2d8192	-0.042359896
74	0xbdbc52f9	-0.09195513
75	0x3e2bf12d	0.1679122
76	0xbcf4bf0d	-0.029876256
77	0x3dece258	0.11566609
78	0x3dd18c66	0.10231857
79	0x3dedeb4d	0.11617146
80	0xbda72bd0	-0.081626534
81	0xbdfd65bc	-0.1237292
82	0xbd4530d9	-0.048142288
83	0x3d91c496	0.07117574
84	0x3e13dc29	0.14439453
85	0x3cd5ae0e	0.026083972
86	0x3e14c5ff	0.14528655
87	0xbdb0bde4	-0.08629969
88	0xbe2cd92f	-0.16879724
89	0x3e1779a6	0.14792499
90	0xbddbec66	-0.10738449
91	0xbc4d740a	-0.012539873
92	0xbe268994	-0.1626342
93	0xbe3c6cbc	-0.18400854
94	0x3d16bbb4	0.0368001
95	0xbe33240a	-0.17494217
96	0x3d825c92	0.06365313
97	0x3bc584f6	0.006027813
98	0x3da69c71	0.081353076
99	0x3dcd5f8b	0.10027989
100	0x3ddae623	0.10688426
101	0xbbe3bd24	-0.0069500376
102	0x3db7bfeb	0.08972152
103	0xbe307ab5	-0.17234309
104	0x3d1e348a	0.038624324
105	0x3dad93d2	0.0847546
106	0xbbfec106	-0.007774475
107	0x3de8b188	0.113619864
108	0x3e0cfa2b	0.13767307
109	0x3e197e7c	0.14989656
110	0x3dfe0475	0.12403194
111	0x3c5fe9d6	0.013666591
112	0xbad15889	-0.001597182
113	0xbdb630e8	-0.08896047
114	0x3d7d2501	0.061802868
115	0x3d80e57a	0.06293769
116	0xbdc6a66d	-0.09699712
117	0x3e11d550	0.14241529
118	0x3d37dc25	0.04488768
119	0xbd4a6729	-0.049414787
120	0xbd384fa2	-0.04499782
121	0x3d0c2118	0.03421125
122	0xbd7b44cd	-0.06134491
123	0x3d6bb18c	0.05754237
124	0x3cb81c2e	0.022474375
125	0x3c0e320e	0.008678926
126	0x3dda76c2	0.106671825
127	0xbd9c07e8	-0.076186955
128	0xbe2d6b35	-0.16935427
129	0xbce265f0	-0.027636498
130	0xbe2ffdd4	-0.17186671
131	0x3d224984	0.03962089
132	0x3e250bba	0.16117755
133	0xbdccd7ae	-0.10002075
134	0xbc5fb244	-0.013653342
135	0x3e0b8f2c	0.13628834
136	0xbdbff93b	-0.09373709
137	0x3d370c0a	0.044689216
138	0x3c87422e	0.01651105
139	0xbdbbe1c2	-0.09173919
140	0x3e1834ab	0.14863841
141	0x3e2174ea	0.15767255
142	0x3d9c081a	0.07618733
143	0xbe1e2a05	-0.15445717
144	0xbe30f2a3	-0.17280059
145	0xb9f81bd8	-0.0004732299
146	0xbd2e6757	-0.04257902
147	0x3d11bf02	0.03558255
148	0xbdd9111c	-0.105989665
149	0xbe231c14	-0.1592868
150	0xbde922ae	-0.11383568
151	0xbcc1c06e	-0.023651328
152	0xbc7f3c63	-0.015578362
153	0x3da9b776	0.082869455
154	0x3d4a757b	0.049428444
155	0xbd5c8aa4	-0.053843156
156	0xbdb74bb2	-0.089499846
157	0x3dc39a9d	0.095509745
158	0xbdd74e6d	-0.105130054
159	0x3d32b14e	0.043626122
160	0xbe2a88c8	-0.1665374
161	0x3c36f594	0.011166949
162	0xbe16a2e5	-0.14710577
163	0xbe112a19	-0.14176215
164	0xbd457408	-0.04820636
165	0xbded0080	-0.11572361
166	0x3d19d7f9	0.037559483
167	0x3cbb6841	0.02287686
168	0x3d752b70	0.05985588
169	0x3b28c5eb	0.0025752734
170	0x3e33dd12	0.175648
171	0x3d25dfb5	0.040496547
172	0x3d3f6c05	0.046733875
173	0x3e2efc2c	0.17088383
174	0xbe021912	-0.12704876
175	0xbd58071c	-0.052741155
176	0xbdcbe9ce	-0.09956704
177	0xbd7a698e	-0.06113582
178	0x3dafeca0	0.085900545
179	0xbe383040	-0.17987156
180	0xbd329fad	-0.04360931
181	0xbe2ddb97	-0.16978298
182	0xbd34c0e4	-0.044129267
183	0xbe22a84a	-0.1588451
184	0xbd3307b3	-0.043708514
185	0xbd8dce8e	-0.06924163
186	0x3e2842b2	0.16431692
187	0xbcb2f10a	-0.021843452
188	0xbdb14c3d	-0.086571194
189	0xbdc3eb53	-0.09566369
190	0x3ddfde02	0.109310165
191	0xbe2c253d	-0.1681108
192	0x3e05a11d	0.13049741
193	0xbe1fe3ba	-0.15614215
194	0x3d7fbb88	0.062434703
195	0xbc8ab090	-0.016929895
196	0x3dbb5498	0.09146994
197	0xbdc92c20	-0.09822869
198	0xbdb892dc	-0.09012386
199	0xbdfc945e	-0.12332986
200	0xb9a1b1c6	-0.00030840765
201	0xbe21fd84	-0.15819365
202	0xbd607f2d	-0.054808784
203	0xbcc3391c	-0.023830943
204	0x3e2a0410	0.16603112
205	0xbdef6ba0	-0.1169045
206	0xbdd7b2a1	-0.10532118
207	0xbdbff8d1	-0.0937363
208	0x3ce0d94d	0.027447367
209	0x3d6fc2ca	0.058535375
210	0x3c165034	0.009174395
211	0x3cac11af	0.021004526
212	0x3dc314ff	0.09525489
213	0x3d529250	0.051409066
214	0xbd35b554	-0.04436238
215	0xbd0b5104	-0.03401281
216	0xbccfbecf	-0.02535954
217	0xbd5381ea	-0.051637568
218	0xbd9bcbd4	-0.076072365
219	0xbdbcaf14	-0.09213081
220	0x3df60062	0.12011792
221	0x3e0a875c	0.13528198
222	0xbd76aa96	-0.060221277
223	0xbd93a97f	-0.07210063
224	0xbc730f2e	-0.014835162
225	0xbe33770d	-0.17525883
226	0xbd40cd66	-0.047070883
227	0x3deea89c	0.116532534
228	0x3da443df	0.08020758
229	0xbd735db6	-0.05941554
230	0x3e298510	0.16554666
231	0xbdf18f56	-0.11794917
232	0x3e051d95	0.12999566
233	0x3e11ff09	0.14257444
234	0xbe16499e	-0.1467652
235	0x3d214c8a	0.039379634
236	0x3d00f038	0.03147909
237	0x3e2f83cc	0.1714012
238	0x3e260b42	0.16215232
239	0xbde7fc2f	-0.11327397
240	0xbe1b463c	-0.15163511
241	0x3d17a903	0.037026417
242	0x3e227e98	0.15868604
243	0x3e198cff	0.14995192
244	0x3e349fd6	0.17639098
245	0xbd9198df	-0.07109236
246	0x3d9b19db	0.07573291
247	0x3d4f354d	0.05058794
248	0x3a8637a4	0.0010239971
249	0xbcd6f3d1	-0.026239308
250	0xbe287b8d	-0.16453381
251	0xbc2e1dff	-0.010627269
252	0x3e1f45a3	0.15553908
253	0x3b81ba93	0.003959009
254	0x3e0205f7	0.12697588
255	0xbe28876b	-0.16457908

EiLM.3.gamma_generator.weight f4 [1, 32]
0	0x3d10c24f	0.035341557
1	0xbd542c9f	-0.051800366
2	0x3e1aae78	0.15105617
3	0x3d42cc64	0.047558203
4	0xbe02bcf2	-0.1276739
5	0xbd328f5a	-0.043593742
6	0xbe0d5297	-0.13801037
7	0x3c9042d1	0.017609986
8	0xbd447042	-0.04795862
9	0xbe1a9172	-0.15094545
10	0xbda9e068	-0.08294755
11	0x3d1675bf	0.036733385
12	0x3e1ac01d	0.15112348
13	0x3e164bd4	0.14677364
14	0xbe3233e7	-0.17402612
15	0xbdac6818	-0.08418292
16	0xbde4df6f	-0.11175429
17	0xbc268c0b	-0.010165225
18	0x3df66bb4	0.120322615
19	0x3dca2751	0.0987078
20	0x3d79ef32	0.06101913
21	0xbdc2dfcb	-0.09515341
22	0xbdd708da	-0.10499735
23	0x3c0b04eb	0.008485059
24	0x3dcb75a3	0.09934547
25	0x3e19fed6	0.15038618
26	0xbe0963eb	-0.13417022
27	0x3e17b64d	0.14815636
28	0x3df66ea3	0.12032821
29	0xbd4732b9	-0.048632357
30	0xbdc8c66c	-0.09803471
31	0x3d77fefc	0.060545906

EiLM.3.beta_generator.weight f4 [32, 32]
0	0xbe32f1ee	-0.17475101
1	0x3e2d3176	0.16913399
2	0x3d8564e6	0.065133855
3	0x3c1648e1	0.009172649
4	0x3e2656d9	0.16244067
5	0xbe2228d7	-0.15835892
6	0xbe0b06d1	-0.13576819
7	0xbcffc212	-0.03122047
8	0x3e2c156a	0.16805044
9	0x3d51f055	0.05125459
10	0xbe2f172a	-0.1709868
11	0xbd770060	-0.060303092
12	0x3e092a13	0.13394956
13	0x3d87ffa9	0.0664056
14	0x3bd46d08	0.006482724
15	0xbe0ae5ae	-0.13564178
16	0xbbe9bd23	-0.0071331426
17	0xbca6e0d5	-0.02037088
18	0xbe27d452	-0.16389588
19	0x3cb0ff11	0.021606
20	0x3df5a221	0.11993814
21	0xbdf97e4a	-0.12182291
22	0xbdd88e7c	-0.10574052
23	0xbd3202a5	-0.043459553
24	0xbd34c729	-0.044135246
25	0xbe0d43e6	-0.13795432
26	0xbe0897c9	-0.13339151
27	0xbd8cafce	-0.068694696
28	0xbe178ae7	-0.14799081
29	0xbd9e4b8d	-0.07729254
30	0xbc4de890	-0.012567654
31	0x3e111ded	0.14171572
32	0x3defddd2	0.11712231
33	0xbd364f94	-0.044509485
34	0xbdf2a563	-0.11847951
35	0x3c7dd878	0.015493505
36	0xbe1a618c	-0.15076274
37	0x3e1cf39c	0.15327305
38	0xbdae59dc	-0.08513233
39	0x3d4e0dd0	0.05030614
40	0xbe1e6f21	-0.1547208
41	0x3def2222	0.11676432
42	0x3d2cd4ab	0.042195003
43	0x3e2255c9	0.15853037
44	0xbdee4af6	-0.116353914
45	0xbdc5d259	-0.09659261
46	0x3e1fc924	0.15604073
47	0x3d2b73d3	0.041858505
48	0xbdbe5970	-0.092944026
49	0x3dbedd01	0.09319497
50	0x3d8494be	0.06473683
51	0xbde9493f	-0.11390924
52	0xbe0676c1	-0.13131239
53	0x3d8a6bb9	0.06758828
54	0xbcd8e6b1	-0.02647719
55	0x3dd700bc	0.10498187
56	0xbda8dbea	-0.0824507
57	0x3d89d1eb	0.06729492
58	0xbd5da57a	-0.05411289
59	0xbdbb9c6e	-0.09160696
60	0xbe062337	-0.13099371
61	0x3de01eb8	0.10943359
62	0x3e253101	0.16131975
63	0x3d1cc460	0.038273215
64	0x3dfeb75c	0.12437317
65	0x3db0533d	0.086096264
66	0x3e3809f8	0.17972553
67	0x3d75e5f6	0.06003376
68	0xbe42ed86	-0.1903592
69	0xbe234924	-0.1594587
70	0x3d91d2e2	0.07120301
71	0xbc9bfe41	-0.019042136
72	0x3d8d1835	0.06889383
73	0xbe10093e	-0.14066026
74	0xbddc8135	-0.10766832
75	0xbe371535	-0.17879184
76	0xbde4e7c4	-0.11177018
77	0xbb8e3d73	-0.0043408214
78	0x3db5e6cd	0.088819124
79	0x3d36fd6d	0.04467528
80	0xbdc17364	-0.09445837
81	0xbe2989bc	-0.16556448
82	0xbde1e33a	-0.11029668
83	0xbdbc90a1	-0.09207273
84	0xbdacfd2c	-0.08446726
85	0xbe1b49af	-0.15164827
86	0x3df8973f	0.12138223
87	0xbd97d8c5	-0.074143924
88	0x3d94942f	0.07254826
89	0x3c7fafd2	0.015605884
90	0x3e07d374	0.13264257
91	0xbe19f3f7	-0.15034471
92	0xbc239fe9	-0.009986856
93	0x3da5d349	0.0809694
94	0xbdafb45a	-0.08579321
95	0xbe14203f	-0.14465426
96	0x3d71c06e	0.059021406
97	0x3d955283	0.072911285
98	0x3e2abc6c	0.1667344
99	0xbb3594ca	-0.0027707093
100	0x3e2519cf	0.16123126
101	0x3e34ace5	0.17644079
102	0xbde350c4	-0.11099389
103	0xbe229df9	-0.15880574
104	0x3debeb5b	0.115195
105	0x3d04a328	0.03238216
106	0xbe1bf6f2	-0.15230921
107	0x3e336fc5	0.17523105
108	0x3d6adabd	0.05733751
109	0x3d4c27ba	0.049842574
110	0xbdddddb5	-0.10833303
111	0x3e21dce7	0.15806924
112	0xbe19ea7d	-0.15030856
113	0xbe0844b8	-0.13307464
114	0xbe1da75f	-0.15395878
115	0xbda3bbce	-0.07994805
116	0xbd40eb28	-0.047099262
117	0xbe213d0d	-0.15745945
118	0x3e0daa26	0.13834438
119	0x3defa8bd	0.11702106
120	0x3e2cf041	0.16888525
121	0xbca42843	-0.02003873
122	0xbd35791b	-0.04430495
123	0xbe0e392c	-0.13888997
124	0xbda22462	-0.07917096
125	0xbe380817	-0.17971836
126	0xbdcf94fd	-0.10135839
127	0xbdaf3848	-0.08555657
128	0x3de72bf0	0.11287677
129	0x3e027ff0	0.12744117
130	0xbe29085d	-0.16507097
131	0x3d041dfe	0.032255165
132	0x3dfd8299	0.12378425
133	0xba80835f	-0.0009804777
134	0xbe316f1b	-0.1732754
135	0xbdb98d50	-0.09060156
136	0x3ced7900	0.028988361
137	0xbe2b9e7a	-0.16759673
138	0xbe0dc10a	-0.1384317
139	0xbdf484c5	-0.11939386
140	0xbe3281a5	-0.17432268
141	0xbe00caf9	-0.12577428
142	0x3dd75e70	0.105160594
143	0x3c43a7ad	0.0119418325
144	0xbc78951b	-0.015172268
145	0x3e132a32	0.14371565
146	0xbd1dd0c3	-0.03852917
147	0xbdf98607	-0.12183767
148	0xbc3fbe1d	-0.011703041
149	0xbc8d848c	-0.017275117
150	0x3db50aac	0.08839926
151	0x3dbdd99e	0.09270023
152	0xbe1ada54	-0.15122348
153	0x3c0c28a6	0.008554613
154	0x3e1d2f5d	0.15350099
155	0xbd1225d2	-0.0356806
156	0xbc22cf88	-0.009937175
157	0x3d204b82	0.03913451
158	0x3d13f3ba	0.036121108
159	0xbde7b14f	-0.11313116
160	0x3bd62b1c	0.0065359008
161	0xbe1a5264	-0.15070492
162	0x3e47c5d8	0.19509065
163	0xbdf14608	-0.117809355
164	0x3cf35cf6	0.029707413
165	0xbe2acc99	-0.1667961
166	0x3e29cdc3	0.16582398
167	0xbcca7f75	-0.02471898
168	0x3e2b0b47	0.1670352
169	0xbdbea663	-0.093090795
170	0xbe3d913b	-0.18512432
171	0xbe03c905	-0.12869652
172	0x3e1fe925	0.15616281
173	0x3e44b04e	0.1920788
174	0xbd065f88	-0.03280595
175	0x3d549e28	0.051908642
176	0x3e183192	0.1486266
177	0x3d94850c	0.07251939
178	0xbe2e9c75	-0.17051871
179	0xbdd97d2f	-0.1061958
180	0x3cbfcdf0	0.023413628
181	0x3e0374a0	0.12837458
182	0xbe1d73a3	-0.15376143
183	0x3d871ceb	0.065973125
184	0x3e3d5849	0.1849071
185	0xbcf24f8d	-0.029578948
186	0x3cd9b865	0.026577184
187	0x3dc0b96a	0.09410365
188	0x3d319c88	0.04336217
189	0x3db6deed	0.089292385
190	0x3d2eb464	0.042652503
191	0x3c897ae3	0.01678223
192	0xbdc4af65	-0.09603766
193	0x3c8dd00f	0.017311124
194	0xbde95be1	-0.11394478
195	0x3e1c6e13	0.15276365
196	0x3e37ba89	0.17942251
197	0x3df3c530	0.11902845
198	0xbe3e37da	-0.18575993
199	0xbd60adf1	-0.054853383
200	0xbe21330c	-0.15742129
201	0xbe1a2ba1	-0.15055706
202	0xbbd22ead	-0.0064142556
203	0xbd8129be	-0.0630679
204	0xbd286661	-0.04111326
205	0xbdd1647c	-0.10224244
206	0xbe13a48f	-0.14418243
207	0xbdf72fe5	-0.12069682
208	0x3e40da41	0.18833257
209	0x3dc9e6c2	0.09858467
210	0xbdd4e1d6	-0.10394637
211	0x3e04f878	0.12985408
212	0xbe32bcd2	-0.17454842
213	0x3d036472	0.032078214
214	0xbd3fee0d	-0.046857882
215	0x3d180f25	0.037123818
216	0x3e0614a0	0.13093805
217	0xbdb9466c	-0.09046635
218	0xbc9f0fd5	-0.019416729
219	0xbe070acf	-0.13187717
220	0x3de46254	0.11151567
221	0x3dbf8e8e	0.09353362
222	0xbd157290	-0.03648621
223	0x3e027bfc	0.12742609
224	0x3e06e0fa	0.13171759
225	0x3e3724c0	0.17885113
226	0xbd4cfdc8	-0.050046712
227	0xbdb7678b	-0.08955296
228	0x3d3483db	0.04407106
229	0xbdf86762	-0.12129094
230	0x3c9a6a35	0.018849472
231	0xbd9585b5	-0.07300893
232	0x3b8ad674	0.0042369906
233	0xbccecbaa	-0.025243599
234	0xbe0612ca	-0.13093105
235	0x3e15936c	0.14607018
236	0xbe1dc26c	-0.15406197
237	0x3e121733	0.14266662
238	0xbcf64cc3	-0.0300659
239	0x3e195eff	0.14977644
240	0x3daa2a69	0.0830887
241	0x3e2ae8b9	0.16690339
242	0x3da94736	0.082655355
243	0xbd25fa71	-0.040522043
244	0xbd91e3a0	-0.07123494
245	0x3e370b45	0.17875393
246	0x3e1ce5f2	0.15322092
247	0x3a8632ca	0.0010238525
248	0xbe1fc1a6	-0.15601215
249	0x3d059c69	0.032619867
250	0xbe14e7e3	-0.14541583
251	0xbc9a5b8c	-0.018842481
252	0x3d1fc325	0.039004464
253	0x3e014990	0.12625718
254	0x3dc0b6cb	0.09409865
255	0x3e13bdc0	0.14427853

Gate.weight f4 [4, 32]
0	0xbde177c4	-0.110091716
1	0x3de7fd31	0.11327589
2	0x3db1720c	0.08664331
3	0x3d495245	0.049150724
4	0xbde89fd0	-0.11358607
5	0x3c2009a6	0.009767925
6	0x3d90013e	0.07031487
7	0xbe192c50	-0.1495831
8	0x3e34999b	0.17636721
9	0xbb6b3476	-0.0035889423
10	0xbde7cb7e	-0.1131811
11	0x3d007e5d	0.03137051
12	0xbc2eb9bf	-0.0106644025
13	0xbda80fb8	-0.08206123
14	0xbe1c71c0	-0.15277767
15	0xbd8dbab5	-0.06920377
16	0xbe144989	-0.14481176
17	0xbce84f81	-0.028358223
18	0x3de23674	0.11045542
19	0x3da00d48	0.07815033
20	0xbe1b9372	-0.15192965
21	0x3cff281a	0.031147052
22	0xbd6c05aa	-0.05762259
23	0xbd2d5d98	-0.042325586
24	0x3e195bcb	0.14976422
25	0xbd6983e8	-0.05701056
26	0x3e1ff9bf	0.15622614
27	0x3d215333	0.039385986
28	0x3e1c4c91	0.15263583
29	0xbc9b3ade	-0.018948968
30	0x3dcb4ebb	0.09927126
31	0x3cb1d0f3	0.02170608
32	0xbda4ef0f	-0.08053409
33	0x3e2c4b7f	0.16825674
34	0x3d9ba1ca	0.07599218
35	0xbd7477f5	-0.059684712
36	0x3e1f964e	0.1558468
37	0x3c7cb4ae	0.015423937
38	0x3e09bdd1	0.13451315
39	0xbe3469a3	-0.17618422
40	0x3db32f85	0.08749298
41	0xbe451337	-0.19245611
42	0xbe0e0337	-0.13868414
43	0x3e14ec2b	0.14543216
44	0x3db02702	0.0860119
45	0x3dc5d02e	0.09658848
46	0x3dc5f00c	0.09664926
47	0x3bf6681c	0.007519735
48	0x3e26543e	0.16243073
49	0x3d3be6c1	0.04587436
50	0xbd67bb1e	-0.056574933
51	0xbdd801f5	-0.10547248
52	0xbe01192c	-0.12607259
53	0xbdbfac7b	-0.0935907
54	0xbcb13706	-0.021632683
55	0xbd71900c	-0.058975264
56	0xbe0a0582	-0.13478664
57	0x3d4ab47b	0.049488526
58	0x3e1ac95d	0.15115876
59	0xb856d514	-5.122002e-05
60	0x3ceb4580	0.028719664
61	0xbdb496c9	-0.088178225
62	0xbe32e33f	-0.174695
63	0xbda867be	-0.08222912
64	0xbe09f2f0	-0.1347158
65	0xbc63d837	-0.01390653
66	0x3e179a82	0.14805034
67	0xbda9c364	-0.08289221
68	0x3e1e938a	0.15485969
69	0x3d8d1ebb	0.06890627
70	0xbdbbe890	-0.09175217
71	0x3dff7fa3	0.12475517
72	0x3cfdef08	0.030997768
73	0x3e163f46	0.14672574
74	0xbe3612b0	-0.17780566
75	0x3bbbb9d0	0.0057289377
76	0xbcaaeeec	-0.02086588
77	0x3dc21536	0.09476702
78	0xbd3b122a	-0.04567162
79	0xbdbb4a68	-0.09145051
80	0x3da730ad	0.08163581
81	0xbda8dd23	-0.082453035
82	0x3dd0e137	0.10199206
83	0xbe150909	-0.14554228
84	0xbdf91a68	-0.1216324
85	0x3e24e292	0.16102055
86	0xbe1ef415	-0.15522797
87	0xbda45b91	-0.080252774
88	0x3d5f2033	0.054474067
89	0x3d78cc1a	0.06074152
90	0xbcec9574	-0.028879859
91	0xbd6f15ce	-0.058370404
92	0xbe31ebae	-0.17375061
93	0xbd369398	-0.04457435
94	0xbaa04253	-0.0012226797
95	0x3c48046d	0.012208086
96	0xbdf95086	-0.12173562
97	0xbd68e407	-0.05685809
98	0xbd54cae0	-0.05195129
99	0xbdc23ca0	-0.094842196
100	0xbde2d057	-0.11074894
101	0xbe11d2f6	-0.14240631
102	0xbbff5c95	-0.007793019
103	0xbe160758	-0.14651239
104	0xbe26a2b0	-0.16272998
105	0xbdb92e3d	-0.090420224
106	0x3d0931bb	0.033494692
107	0xbe185b0e	-0.14878485
108	0xbdb54d23	-0.08852603
109	0x3d6f8691	0.058477942
110	0x3e202cfd	0.15642162
111	0x3e287038	0.16449058
112	0x3e3ba481	0.18324472
113	0x3b5896b4	0.003304881
114	0xbe0e8d22	-0.13921025
115	0xbcc5a688	-0.02412726
116	0x3dcf73aa	0.10129483
117	0x3d16b35c	0.036792144
118	0xbc624a95	-0.013811727
119	0x3b895ef7	0.004192229
120	0xbe4dbb97	-0.20091091
121	0xbd551926	-0.052025937
122	0xbdaec2b7	-0.08533233
123	0xbdc81051	-0.09768737
124	0xbe033159	-0.12811793
125	0x3d89685f	0.0670936
126	0xbe3d04db	-0.18458883
127	0x3b9831cd	0.0046446086

experts.0.gate_proj.weight f4 [32, 32]
0	0xbe00c5a4	-0.12575394
1	0x3c065c4f	0.008200719
2	0x3c3f860f	0.011689677
3	0xbd9e115c	-0.07718155
4	0xbdf9c361	-0.12195469
5	0x3d9f6275	0.07782451
6	0xbe273bff	-0.1633148
7	0x3e199a8c	0.15000361
8	0x3e4738a0	0.19455194
9	0xbdf544dd	-0.11976025
10	0xbda8ffc9	-0.08251912
11	0xbe27bcdb	-0.16380636
12	0xbc72b5d3	-0.014813858
13	0xbd7d1f6f	-0.061797556
14	0x3d3f7c49	0.046749387
15	0xbd12786e	-0.035759382
16	0x3d18a2b8	0.037264556
17	0xbe1b1f63	-0.15148692
18	0xbc432555	-0.011910756
19	0xbdd61678	-0.10453504
20	0x3e1db1bd	0.15399833
21	0xbd919330	-0.07108152
22	0xbd9ee500	-0.07758522
23	0x3bf1a8be	0.007374852
24	0xbbd5f290	-0.00652916
25	0xbe4378bc	-0.19089025
26	0xbdc5c5d0	-0.0965687
27	0xbd4b27d9	-0.04959855
28	0xbd1d71df	-0.038438674
29	0xbdc3a095	-0.09552113
30	0x3db39819	0.08769245
31	0xbd015ec5	-0.03158452
32	0x3da39c50	0.079887986
33	0x3d581482	0.052753933
34	0xbdd4408e	-0.10363875
35	0x3e33e912	0.17569378
36	0x3ddcea54	0.10786882
37	0xbd11ebcf	-0.035625275
38	0x3db7abe5	0.08968333
39	0xbde8c1b3	-0.1136507
40	0x3b851807	0.004061702
41	0x3e143af8	0.1447562
42	0xba5d5842	-0.00084436324
43	0xbd964e2d	-0.073391296
44	0x3e180f62	0.14849618
45	0xbb1281f2	-0.0022355285
46	0x3e1d83b0	0.15382266
47	0xbdae3168	-0.08505517
48	0x3dd67aca	0.10472639
49	0xbd2508cf	-0.040291604
50	0xbe44b800	-0.19210815
51	0xbd6fb295	-0.05851992
52	0xbe252aaa	-0.16129556
53	0x3e0436fe	0.12911603
54	0xbdfc1621	-0.12308908
55	0xbdced253	-0.1009871
56	0xbdc21006	-0.094757125
57	0x3e225510	0.15852761
58	0x3d9be70b	0.07612427
59	0x3d34c36f	0.044131692
60	0x3d98bc81	0.07457829
61	0x3cd05e51	0.025435599
62	0xbd962eda	-0.07333155
63	0x3e14229c	0.14466327
64	0xbe05293f	-0.13004015
65	0xbde9cb71	-0.114157565
66	0xbd834104	-0.06408885
67	0x3e316705	0.17324455
68	0xbd9412cf	-0.0723015
69	0xbe065f09	-0.1312219
70	0xbe2e8be8	-0.17045557
71	0xbd8afdf3	-0.06786718
72	0xbd9e99fa	-0.077442124
73	0x3d02bd9b	0.031919103
74	0x3e39aae7	0.181316
75	0x3ab447c5	0.0013754299
76	0x3d1cd678	0.03829047
77	0x3e16ab97	0.14713894
78	0xbe193265	-0.1496063
79	0xbd156f1c	-0.036482915
80	0xbd386da8	-0.04502645
81	0xbe0e3774	-0.13888341
82	0xbdffc5e5	-0.12488917
83	0xbcb8c307	-0.022553934
84	0x3c730c18	0.014834426
85	0xbd8e314e	-0.06942998
86	0x3d2f730c	0.042834327
87	0xbd6c1d56	-0.057645164
88	0xbe289508	-0.16463101
89	0xbd88508c	-0.06655988
90	0x3d41fb80	0.04735899
91	0x3caf78e6	0.021419954
92	0xbd692b5e	-0.056926124
93	0x3c5f5341	0.013630689
94	0x3ddaa8f6	0.10676758
95	0x3dfad7ec	0.12248215
96	0xbcb485c3	-0.022036439
97	0x3d2fc630	0.042913616
98	0xbc84a42c	-0.016191565
99	0xbe1fc69a	-0.15603104
100	0x3e31c9b3	0.17362098
101	0xbb0b5e88	-0.0021266062
102	0x3cc3eba4	0.023916073
103	0x3df80bbf	0.121116154
104	0x3d867bdb	0.06566592
105	0x3daaebc9	0.08345754
106	0xbcf7ff11	-0.030272992
107	0x3ddf584f	0.109055154
108	0xbe153d66	-0.14574203
109	0x3dc5a955	0.09651438
110	0x3e1b013e	0.15137193
111	0xbe23d2bb	-0.15998356
112	0xbe0367d1	-0.12832572
113	0x3dd908f5	0.105974115
114	0xbde5fd67	-0.11229973
115	0xbdc4e41d	-0.09613822
116	0x3b4c46e2	0.003117018
117	0xbccf4355	-0.025300661
118	0x3da03bac	0.078238815
119	0xbc9d69e8	-0.01921554
120	0xbdca7d66	-0.09887199
121	0xbd86e50c	-0.06586656
122	0x3e2b592a	0.16733232
123	0xbd5b2ee1	-0.053511504
124	0xbc9a1beb	-0.01881214
125	0xbde7dd93	-0.11321559
126	0xbd8db053	-0.06918397
127	0xbdf710a8	-0.12063724
128	0xbe297d66	-0.16551742
129	0x3b120b67	0.0022284628
130	0x3c8abca5	0.016935656
131	0x3d6cfa24	0.05785574
132	0x3dbc6dc4	0.09200624
133	0xbd0036bb	-0.031302195
134	0x3e157dc6	0.1459876
135	0x3e2702eb	0.16309707
136	0x3e250e05	0.1611863
137	0x3d879b95	0.06621472
138	0xbe25e191	-0.16199328
139	0xbe06f27c	-0.13178438
140	0xbdfabf98	-0.12243575
141	0x3c367682	0.011136653
142	0x3dd17c6f	0.10228812
143	0xbc2d3eb6	-0.0105740335
144	0x3e249532	0.16072538
145	0x3d8655bb	0.065593205
146	0x3e2834fa	0.16426459
147	0xbd99c689	-0.07508571
148	0x3d2f0c74	0.042736486
149	0x3d89be02	0.06725694
150	0x3e0f5f8a	0.14001289
151	0xbd35c7eb	-0.04438011
152	0xbe0bd609	-0.13655867
153	0x3cd9d4cb	0.026590725
154	0x3d4809af	0.04883736
155	0xbe0e56eb	-0.13900344
156	0x3e3141e9	0.17310299
157	0x3db719e2	0.08940484
158	0xbdfaf607	-0.12253957
159	0x3c8ff088	0.017570749
160	0xbda931f0	-0.08261478
161	0xbd93e708	-0.072218
162	0x3dc30fb9	0.09524483
163	0xbc9c0f47	-0.019050254
164	0x3d9c07dd	0.07618687
165	0xbe2576de	-0.16158625
166	0xbe0d1b24	-0.13779885
167	0x3d4e3f66	0.05035343
168	0xbd7cdca2	-0.06173385
169	0x3b5a2b27	0.003328988
170	0xbc5fe64c	-0.013665747
171	0xbd815d4e	-0.063166246
172	0x3e19fcd2	0.1503785
173	0xbe3924a1	-0.18080379
174	0x3d08bce3	0.03338326
175	0x3dc1169e	0.09428142
176	0x3c91eec4	0.017814048
177	0xbd87cc4e	-0.06630765
178	0xbc3a58c2	-0.011373701
179	0xbbd179fb	-0.006392715
180	0xbe1434b4	-0.1447323
181	0xbdfd3c57	-0.123650245
182	0x3cfe6e8d	0.031058574
183	0xbd6b0257	-0.05737528
184	0xbde236ee	-0.11045633
185	0x3de2ef4a	0.11080797
186	0x3c81038a	0.015748758
187	0xbe3d5505	-0.18489464
188	0xbe105126	-0.14093456
189	0xbc3cdb43	-0.011526885
190	0x3de1ef7e	0.11032008
191	0xbdb44161	-0.088015325
192	0x3e025aa5	0.1272989
193	0x3d4368b1	0.047707263
194	0xbcfe1e4d	-0.031020308
195	0xbd8abcaf	-0.0677427
196	0xbe3f4434	-0.18678361
197	0xbdd87c37	-0.10570567
198	0xbd21d52e	-0.039509945
199	0x3cc10967	0.023564054
200	0x3d2fac2d	0.04288881
201	0x3c1245a5	0.008927737
202	0x3deec58c	0.11658773
203	0xbd97e92e	-0.07417522
204	0xbd37cd7e	-0.044873707
205	0x3caccb28	0.021092966
206	0xbd549fd8	-0.05191025
207	0xbde2fb0d	-0.110830404
208	0x3cd5a0df	0.026077686
209	0x3dd2bb25	0.10289601
210	0x3db990ff	0.09060859
211	0x3cd39c94	0.025831498
212	0x3ca793b9	0.020456182
213	0x3e183c6d	0.148668
214	0x3df86951	0.121294625
215	0x3d25c9ee	0.04047578
216	0x3ae1ad27	0.0017217741
217	0xbd9cd529	-0.076578446
218	0x3c5df709	0.013547667
219	0x3deecb2d	0.116598465
220	0x3db620d4	0.0889298
221	0xbdff027b	-0.12451645
222	0x3e2d5658	0.16927469
223	0xbcb17ef7	-0.021666987
224	0x3dac0c8a	0.08400829
225	0x3d93928f	0.07205688
226	0x3ddac934	0.10682908
227	0x3d245462	0.040119536
228	0x3e14f08c	0.14544886
229	0x3b4bb141	0.0031080993
230	0x3dcf1c93	0.10112872
231	0xbdb3c1db	-0.08777209
232	0x3d2867b8	0.04111454
233	0xbe236e8d	-0.1596014
234	0x3e0c5b5f	0.1370673
235	0x3e225c24	0.15855461
236	0xbdd2b263	-0.10287931
237	0xbde80c43	-0.11330464
238	0xbca95bae	-0.0206736
239	0x3d8c85ce	0.06861459
240	0xbd329f3c	-0.04360889
241	0x3e02385d	0.12716813
242	0xbe1f64f8	-0.1556586
243	0x3e280964	0.16409832
244	0xbdb2b6ee	-0.08726297
245	0x3e1029ef	0.14078496
246	0xbdc94ab9	-0.09828705
247	0xbdb33179	-0.087496705
248	0xbe3219d3	-0.17392664
249	0x3c551e56	0.013007721
250	0xbd88b06e	-0.06674276
251	0x3dc0578a	0.09391697
252	0xbdb575ec	-0.088603824
253	0x3e0cd963	0.13754801
254	0xbdd6a0e4	-0.10479906
255	0xbd9b6c9d	-0.07589076
