output/FT-S-MoME/ts_encoder_epoch2.pt (torch, 376236 bytes, 34 tensors)

proj.weight f4 [32, 8]
-0.21993771 -0.22137494 0.1176696 -0.27209875 0.2696172 0.32933247 -0.09949732 0.24499364
-0.23961854 0.21329856 -0.14746916 0.07363927 0.09597057 0.27470288 -0.273527 -0.07540951
-0.32956666 0.01093362 -0.19000198 0.3138643 0.03251486 0.27980444 0.16218969 -0.24773622
0.3571835 0.25172895 -0.30732659 -0.31048185 0.18635292 0.2529412 -0.122610725 -0.2878436
0.36550856 -0.045823406 0.14984049 -0.2563952 -0.2758876 0.12584774 -0.2263505 -0.29730475
0.13478939 -0.23434956 -0.009784953 -0.0009513271 0.17172495 0.012238834 0.06006239 -0.19808997
-0.25664988 0.24347156 0.22559476 -0.09452103 0.26582408 -0.24279475 -0.003380058 -0.17638028
0.06584482 -0.07904074 -0.022509925 -0.024428984 -0.115405135 -0.054542813 0.08844846 0.20942421
-0.13568716 0.25488752 -0.1043038 0.07886106 0.24459817 -0.35143167 0.03743709 -0.19991027
0.15562423 -0.12719516 -0.20286676 0.15216257 0.25903958 0.26938054 -0.08980982 0.27580577
-0.012375707 -0.26981148 -0.081404105 0.0039327624 -0.071516044 0.05398963 -0.023886988 -0.19759658
-0.29869074 0.0971914 0.11079302 0.020957122 0.019964557 -0.2373168 -0.1591702 0.115348816
-0.22713014 -0.101082526 0.24766047 -0.07983691 0.34148613 0.18483196 -0.29579303 -0.12209795
0.22097397 0.19514887 0.33375704 0.3462795 0.30932185 0.112322845 0.0012179691 0.16390008
0.08174401 0.23981024 -0.14131303 -0.23365594 -0.3331901 0.35610628 0.3459465 0.16044703
0.23363754 -0.100237176 -0.06914036 -0.34054518 0.2983166 -0.2892411 0.24299315 -0.13533863
0.03214255 -0.33941922 -0.065476045 0.3444962 0.1029395 -0.16369796 -0.12295553 0.03372269
0.17304158 0.26131213 -0.2093316 0.32492796 0.3106431 -0.16004084 -0.31755775 0.21311185
-0.35128817 -0.20361985 0.17220941 0.27946404 -0.3428269 -0.2579678 0.049121875 0.072094984
0.27824202 -0.16925807 -0.16094643 -0.31256002 -0.09825996 -0.104422115 0.22148652 -0.19442105
0.14365773 0.36382416 0.064069204 -0.14441991 0.18709497 0.22130638 0.3601015 -0.04808497
0.086397365 0.05282504 -0.34329575 -0.1690896 0.07207636 0.09090775 0.24786118 -0.2475256
0.0962936 0.0587755 -0.14369941 -0.11731443 -0.31649125 0.2640588 0.026927987 -0.09302703
-0.14091367 0.29203758 0.18273579 -0.026570655 -0.23448661 0.08585312 0.20987068 -0.03173972
-0.06980407 0.26561233 0.28627717 0.30384278 0.2993537 -0.24151264 -0.11066742 -0.041413363
-0.06646949 0.11467763 -0.35195494 -0.011202193 0.32960966 0.26977736 0.05930327 -0.34459478
0.08951926 -0.19099657 0.07573888 0.35422522 -0.050521437 0.021058645 0.045748502 -0.13245149
-0.099156685 0.3549143 -0.040256876 -0.29504803 0.05758754 0.20706101 -0.26836225 0.120042145
-0.32580286 -0.072543174 -0.006082764 -0.0078968005 0.048390556 -0.023483826 0.1823774 0.33306593
-0.1697123 -0.047235608 -0.039558716 -0.25528648 -0.36224425 -0.2526288 0.103951275 0.23724411
0.23516469 -0.13128865 0.006954856 0.14188714 -0.100417055 0.1558766 -0.23847918 0.25245053
-0.09627066 -0.17839317 -0.032121975 0.17213748 0.21109223 -0.12785171 -0.15533179 -0.35351428
00000000: 5a37 61be 1db0 62be c2fc f03d 8750 8bbe
00000010: 440b 8a3e 449e a83e 40c5 cbbd 9ddf 7a3e
00000020: 905e 75be f06a 5a3e 2802 17be 30d0 963d
00000030: 388c c43d dba5 8c3e bb0b 8cbe 4d70 9abd
00000040: f6bc a8be ed22 333c e18f 42be d2b2 a03e
00000050: 4d2e 053d 8742 8f3e 0e15 263e 90ae 7dbe
00000060: c1e0 b63e 9ee2 803e e959 9dbe 7af7 9ebe
00000070: 4dd3 3e3e 8281 813e 551b fbbd 3d60 93be
00000080: f023 bb3e 53b1 3bbd c96f 193e 3b46 83be
00000090: 2441 8dbe 3bde 003e 6dc8 67be 5438 98be
000000a0: 3b06 0a3e 55f9 6fbe 1151 20bc 7b62 79ba
000000b0: aad8 2f3e 6485 483c fb03 763d 19d8 4abe
000000c0: 9d67 83be 9c50 793e 5002 673e 3e94 c1bd
000000d0: 181a 883e 309f 78be f783 5dbb 089d 34be
000000e0: a6d9 863d 1de0 a1bd bc66 b8bc 4b1f c8bc
000000f0: 8759 ecbd 4968 5fbd 7724 b53d 4d73 563e
00000100: 93f1 0abe 9e80 823e 3b9d d5bd e881 a13d
00000110: f177 7a3e daee b3be a257 193d 47b5 4cbe
00000120: f55b 1f3e 733f 02be 4ebc 4fbe 81d0 1b3e
00000130: d6a0 843e 3fec 893e 36ee b7bd 6a36 8d3e
00000140: 7ac3 4abc bb24 8abe 32b7 a6bd 67de 803b
00000150: 0177 92bd 3b24 5d3d a5ae c3bc c256 4abe
00000160: feed 98be 490c c73d 73e7 e23d 45ae ab3c
00000170: b68c a33c 2d03 73be 83fd 22be 003c ec3d
00000180: ce94 68be 5b04 cfbd b59a 7d3e 8981 a3bd
00000190: 45d7 ae3e 9744 3d3e 2f72 97be 7d0e fabd
000001a0: 0047 623e 1bd5 473e 34e2 aa3e 8c4b b13e
000001b0: 6f5f 9e3e 8509 e63d 43a4 9f3a 6cd5 273e
000001c0: 6769 a73d d190 753e 5db4 10be 8143 6fbe
000001d0: e597 aabe 9053 b63e e61f b13e 3a4c 243e
000001e0: ae3e 6f3e 2649 cdbd 7699 8dbd f05b aebe
000001f0: f4bc 983e 6917 94be 32d3 783e 3696 0abe
00000200: e8a7 033d 5bc8 adbe 4e18 86bd ce61 b03e
00000210: f2d1 d23d 70a0 27be 1cd0 fbbd ce20 0a3d
00000220: d031 313e b4ca 853e 065b 56be f55c a63e
00000230: 9d0c 9f3e bfe1 23be ee96 a2be fe39 5a3e
00000240: 0bdc b3be b981 50be aa57 303e e915 8f3e
00000250: 0287 afbe 5b14 84be 0534 493d 89a6 933d
00000260: bd75 8e3e fd51 2dbe 24cf 24be de07 a0be
00000270: 853c c9bd 43db d5bd 5dcd 623e 5016 47be
00000280: 031b 133e 2947 ba3e b736 833d d0e2 13be
00000290: d395 3f3e 249e 623e 395f b83e bff4 44bd
000002a0: 1af1 b03d 125f 583d 76c4 afbe d325 2dbe
000002b0: c59c 933d d82d ba3d 52cf 7d3e 5a77 7dbe
000002c0: 9435 c53d 94be 703d f025 13be 8c42 f0bd
000002d0: 240b a2be b732 873e 1598 dc3c f584 bebd
000002e0: ac4b 10be f385 953e 171f 3b3e b4aa d9bc
000002f0: 421d 70be c3d3 af3d 57e8 563e 8201 02bd
00000300: 70f5 8ebd 57fe 873e ec92 923e 4891 9b3e
00000310: e344 993e 174f 77be 9aa5 e2bd 0fa1 29bd
00000320: 2821 88bd 1bdc ea3d 7033 b4be 6789 37bc
00000330: 99c2 a83e 4220 8a3e fce7 723d ba6e b0be
00000340: e055 b73d 9b94 43be fc1c 9b3d 025d b53e
00000350: 91ef 4ebd 2e83 ac3c c862 3b3d 5da1 07be
00000360: a912 cbbd 54b7 b53e 65e4 24bd 8910 97be
00000370: eae0 6b3d cd07 543e c766 89be a8d8 f53d
00000380: a2cf a6be 8491 94bd ec51 c7bb 9561 01bc
00000390: 2d35 463d 2761 c0bc 24c1 3a3e 9e87 aa3e
000003a0: 10c9 2dbe 207a 41bd 5208 22bd e9b4 82be
000003b0: 1478 b9be 9058 81be 68e4 d43d 1ff0 723e
000003c0: 03cf 703e 8870 06be 90e5 e33b dd4a 113e
000003d0: 75a7 cdbd 1e9e 1f3e e333 74be 3241 813e
000003e0: 8d29 c5bd b3ac 36be 5592 03bd cf44 303e
000003f0: 9028 583e 8feb 02be 4c0f 1fbe d3ff b4be

proj.bias f4 [32]
-0.07168525 -0.31872037 0.22544731 0.104805864 -0.12508215 0.15511295 -0.3304973 0.02349628
0.33421767 -0.020921027 0.13088296 -0.34379223 -0.08406664 0.2935283 -0.04590708 0.051323656
-0.086208425 0.039510977 0.3668229 0.030467512 -0.21280405 -0.035763796 -0.34912235 0.020409483
0.31482995 0.16072127 0.3527602 0.1750058 0.060837526 0.1642167 0.22173421 0.07733387
00000000: b7cf 92bd 512f a3be a9db 663e 75a4 d63d
00000010: 8915 00be eed5 1e3e f136 a9be 457b c03c
00000020: 941e ab3e 9362 abbc 2f06 063e 8905 b0be
00000030: 212b acbd 5749 963e 1009 3cbd c138 523d
00000040: 0b8e b0bd 43d6 213d 36d0 bb3e 0197 f93c
00000050: 4ee9 59be 0f7d 12bd 2ac0 b2be ca31 a73c
00000060: 6431 a13e 1e94 243e fc9c b43e b834 333e
00000070: c530 793d 6c28 283e 4b0e 633e 3861 9e3d

EiLM.0.gamma_generator.weight f4 [1, 32]
0.12325607 -0.14347774 -0.17751595 0.02926191 -0.111502215 0.17213017 -0.15257566 -0.015550341
0.10841691 -0.072371334 0.06291154 -0.06550966 -0.12161553 0.13142322 -0.13474882 -0.08975476
0.08001098 -0.028003901 0.051872116 -0.120900825 -0.17848055 0.07949987 0.17800994 -0.014184211
-0.1367103 0.043568157 0.049189568 0.09354634 -0.17449436 0.10447795 0.17494898 -0.05338262
00000000: ae6d fc3d d4eb 12be bec6 35be acb6 ef3c
00000010: 465b e4bd e442 303e cb3c 1cbe dcc6 7ebc
00000020: af09 de3d 6c37 94bd c4d7 803d ee29 86bd
00000030: 9011 f9bd cf93 063e 98fb 09be 58d1 b7bd
00000040: ccdc a33d 7068 e5bc db77 543d da9a f7bd
00000050: 9bc3 36be d4d0 a23d 3d48 363e e564 68bc
00000060: c9fd 0bbe 8674 323d 007b 493d 3995 bf3d
00000070: a6ae 32be 89f8 d53d d325 333e bca7 5abd

EiLM.0.beta_generator.weight f4 [32, 32]
0.054547712 0.04033939 -0.10208938 -0.07977167 0.090407886 -0.05677578 0.14452423 -0.1550594
0.04011869 -0.0370162 -0.1319465 0.0043800864 -0.10574369 -0.030560784 -0.009039062 0.060053017
0.12434525 0.008879572 0.07069324 0.14922522 -0.078119196 -0.17567469 -0.049948905 0.002505728
0.12401987 -0.08767428 0.18458557 0.049220752 -0.039691616 -0.16048034 -0.16616857 -0.11879352
-0.047581002 -0.10772499 -0.18977372 -0.02839341 -0.16114026 -0.14903465 -0.1521658 0.120711565
0.0036100314 -0.1847471 0.08499127 -0.024121804 0.10262719 -0.17037706 -0.07936386 0.061693106
-0.13228099 0.09556262 0.008086458 -0.100108 0.093291104 0.036831524 0.12260705 -0.061024904
-0.0017490746 -0.047486406 -0.18554898 -0.15162772 -0.16392082 0.17808646 0.016410701 0.036813248
-0.1472342 -0.059957575 -0.025469124 0.030057548 -0.18014356 0.10729891 0.0911327 -0.13572383
0.06595059 -0.07605583 -0.039610595 0.016399445 0.07199148 -0.03248343 -0.1619735 -0.0042340048
-0.14834838 -0.16159903 -0.10214367 0.022301128 -0.035762675 -0.12007819 0.15690391 -0.16817825
0.065860786 0.051350664 0.00952014 -0.06805063 0.107200235 -0.12943485 -0.03675811 0.014216636
0.08527234 -0.08557608 -0.14359802 -0.16018485 -0.05002612 0.031999625 0.023917558 0.1502276
-0.07529468 -0.10141299 -0.010036831 -0.16542009 -0.022914551 0.118926115 -0.003997241 0.115187205
-0.14521609 -0.16667067 0.12371292 -0.010179271 -0.091212206 0.12372867 0.07748084 0.07618702
0.025278812 -0.05644796 -0.0903895 -0.027855579 0.03122878 0.060588643 -0.12647523 -0.0894562
0.10690639 -0.14787209 -0.08319261 0.14702354 -0.03832169 -0.02874839 -0.0013249855 -0.101474404
0.056095533 0.0099859955 -0.15823221 -0.12687531 -0.056921806 0.0723009 -0.16382596 -0.10731156
-0.16103914 -0.11151981 -0.061750542 -0.019203503 -0.16919129 -0.12493266 0.07270463 0.10662067
-0.1277805 0.004889666 0.068906896 0.13683024 0.14407785 0.11076802 0.14034122 0.025171364
-0.09990003 0.1540202 -0.11315737 0.054408994 0.09567373 0.08137638 -0.1546641 -0.1306709
-0.039064016 -0.1314411 0.009973066 -0.15134156 -0.05740742 -0.09176013 -0.10296593 -0.063454494
-0.0859067 0.1675566 -0.13709398 0.005024893 0.09492837 0.005005048 -0.011056185 -0.043988883
-0.05983934 0.05661359 -0.05036941 -0.15026625 0.038220987 -0.1771514 -0.036322717 -0.11149717
-0.010168956 -0.004118529 -0.15591091 -0.1269164 -0.06753054 -0.11278989 0.07701585 0.1401405
0.051169854 0.12080915 -0.096894875 0.059345055 0.020916546 -0.18105647 0.13613434 0.008056222
0.12487442 0.1602049 0.046214867 0.1054614 -0.04384614 -0.027454235 0.16428412 0.061759815
0.08963678 0.15487535 -0.015277689 -0.049502566 0.0584762 0.13779055 -0.1564499 -0.026171716
0.17048953 -0.03810997 0.021182016 -0.07405434 -0.106485344 0.07210045 -0.12992506 -0.066706344
0.02125658 0.16290696 0.08853988 0.16681615 -0.10169313 0.0795202 0.055389807 -0.15263297
-0.12158113 0.087264 0.09662023 -0.15649518 0.1215584 0.007509296 -0.123028316 0.04057375
-0.040925317 -0.035961367 0.11680055 0.02692592 0.0055166697 0.021053152 0.12773176 -0.1779424
00000000: 6c6d 5f3d eb3a 253d 3d14 d1bd 545f a3bd
00000010: c527 b93d b88d 68bd 29fe 133e e4c7 1ebe
00000020: 7f53 243d 4d9e 17bd fc1c 07be d486 8f3b
00000030: 2690 d8bd 9c5a fabc 9318 14bc 27fa 753d
00000040: b9a8 fe3d a07b 113c 9ec7 903d 7fce 183e
00000050: f5fc 9fbd 11e4 33be 3997 4cbd 2437 243b
00000060: 21fe fd3d 938e b3bd 0004 3d3e b39b 493d
00000070: ad93 22bd f554 24be 1828 2abe 044a f3bd
00000080: 4ce4 42bd eb9e dcbd 0b54 42be 4c99 e8bc
00000090: f401 25be 8a9c 18be 5ad1 1bbe a037 f73d
000000a0: 4796 6c3b 582e 3dbe e70f ae3d 179b c5bc
000000b0: 342e d23d 5377 2ebe 8589 a2bd e9b1 7c3d
000000c0: ab74 07be 56b6 c33d 107d 043c 6c05 cdbd
000000d0: 680f bf3d a7dc 163d 6819 fb3d 40f5 79bd
000000e0: 3441 e5ba 1b81 42bd 8d00 3ebe 4c44 1bbe
000000f0: dcda 27be 4c5c 363e bc6f 863c 7dc9 163d
00000100: 90c4 16be 1396 75bd a0a4 d0bc 3f3b f63c
00000110: 8e77 38be 88bf db3d c8a3 ba3d 30fb 0abe
00000120: 1a11 873d 29c3 9bbd b83e 22bd 2158 863c
00000130: 4570 933d 580d 05bd 62dc 25be 68bd 8abb
00000140: a3e8 17be 377a 25be b330 d1bd dbb0 b63c
00000150: e27b 12bd 8eeb f5bd 6bab 203e eb36 2cbe
00000160: 05e2 863d 1355 523d 5cfa 1b3c 215e 8bbd
00000170: cc8b db3d 928a 04be ac8f 16bd e5ec 683c
00000180: 44a3 ae3d 8342 afbd 5c0b 13be 7f07 24be
00000190: 30e8 4cbd 0a12 033d c1ee c33c 44d5 193e
000001a0: 1934 9abd 9db1 cfbd 8571 24bc e263 29be
000001b0: 4cb7 bbbc 898f f33d 4afb 82bb 45e7 eb3d
000001c0: 87b3 14be b7ab 2abe 335d fd3d f5c6 26bc
000001d0: 77cd babd 7565 fd3d 46ae 9e3d f107 9c3d
000001e0: 8315 cf3c fa35 67bd 211e b9bd 6231 e4bc
000001f0: 80d3 ff3c cc2b 783d b982 01be d034 b7bd
00000200: bdf1 da3d c86b 17be e360 aabd 578d 163e
00000210: 34f7 1cbd be81 ebbc 23ab adba d0d1 cfbd
00000220: 6ec4 653d 4d9c 233c a007 22be 9aeb 01be
00000230: d726 69bd 7f12 943d fec1 27be 2ac6 dbbd
00000240: 72e7 24be 8064 e4bd 23ee 7cbd aa50 9dbc
00000250: 7b40 2dbe b2dc ffbd 2ae6 943d f05b da3d
00000260: e4d8 02be 7e39 a03b 0f1f 8d3d 3a1d 0c3e
00000270: 2589 133e 58da e23d 9cb5 0f3e 2d34 ce3c
00000280: 6398 ccbd 79b7 1d3e 0dbf e7bd f7db 5e3d
00000290: 97f0 c33d a9a8 a63d 4460 1ebe 98ce 05be
000002a0: 9701 20bd 7f98 06be 1266 233c 48f9 1abe
000002b0: 0b24 6bbd bcec bbbd cddf d2bd 6ef4 81bd
000002c0: daef afbd f593 2b3e 5d62 0cbe dca7 a43b
000002d0: ce69 c23d 6301 a43b 0025 35bc b02d 34bd
000002e0: 191a 75bd a7e3 673d 2850 4ebd 65df 19be
000002f0: 9c8d 1c3d 2d67 35be 21c7 14bd a158 e4bd
00000300: b19b 26bc baf4 86bb 1ca7 1fbe 5ff6 01be
00000310: 744d 8abd 63fe e6bd 7cba 9d3d fe80 0f3e
00000320: 7b97 513d ca6a f73d d270 c6bd cd13 733d
00000330: 2d59 ab3c de66 39be cd66 0b3e 3ffe 033c
00000340: 29be ff3d c10c 243e cd4b 3d3d 25fc d73d
00000350: 0398 33bd b4e7 e0bc 193a 283e dcf7 7c3d
00000360: 7d93 b73d a597 1e3e 464f 7abc 34c3 4abd
00000370: bd84 6f3d f718 0d3e 6734 20be 1166 d6bc
00000380: cf94 2e3e 3319 1cbd e885 ad3c cda9 97bd
00000390: fd14 dabd 67a9 933d 130b 05be 569d 88bd
000003a0: 4722 ae3c 15d1 263e 6654 b53d dad1 2a3e
000003b0: 7d44 d0bd 7ddb a23d 6ce0 623d d14b 1cbe
000003c0: 87ff f8bd 78b7 b23d d4e0 c53d 4640 20be
000003d0: 9cf3 f83d 8a10 f63b 45f6 fbbd a930 263d
000003e0: 4ea1 27bd 3a4c 13bd 2035 ef3d bf93 dc3c
000003f0: 2ec5 b43b a977 ac3c 1dcc 023e 8836 36be

EiLM.1.gamma_generator.weight f4 [1, 32]
-0.018252522 -0.1447354 -0.1761477 0.121344775 0.024807177 -0.019897463 0.090270996 -0.10669576
-0.13130037 0.0021500725 0.026629452 -0.017578304 0.17517929 0.13841525 -0.040256742 -0.04583875
0.07516133 -0.14222084 -0.059142727 0.123102464 0.09631296 0.03762749 0.15883115 -0.062421992
0.08356151 0.04483107 -0.04097932 0.06491874 -0.12256654 0.17869118 0.11054482 0.050176587
00000000: 5086 95bc 8435 14be 1060 34be 9c83 f83d
00000010: 6c38 cb3c 0100 a3bc 00e0 b83d 4e83 dabd
00000020: 9b73 06be 3be8 0c3b 0226 da3c 6000 90bc
00000030: 3362 333e babc 0d3e 41e4 24bd 6ac1 3bbd
00000040: 2fee 993d 57a2 11be a53f 72bd 251d fc3d
00000050: bb3f c53d 481f 1a3d a2a4 223e 34ae 7fbd
00000060: 4c22 ab3d c9a0 373d eed9 27bd 1ef4 843d
00000070: 2b04 fbbd d2fa 363e 5365 e23d f785 4d3d

EiLM.1.beta_generator.weight f4 [32, 32]
0.019206753 0.09598361 0.012268836 -0.16313222 -0.1689785 0.12803213 -0.00061103364 0.14813502
-0.12850979 0.1786757 0.055389207 0.14487734 -0.11960824 0.0468997 -0.034980386 -0.13268358
0.023049336 0.15380034 0.11181407 0.16997407 -0.061547805 0.10503154 -0.17000963 0.14136419
-0.15723823 0.035832807 0.094625 -0.102582626 0.12891266 -0.116324484 -0.111329205 -0.027518071
-0.041823808 -0.016043011 -0.16930678 -0.018309657 0.14005104 -0.09655069 0.1164379 0.16977014
0.0071842344 -0.12378081 -0.13691874 0.04977806 -0.13605115 -0.13542694 0.18281047 0.121240295
0.028497364 -0.14681438 -0.1367524 -0.11888468 -0.066627905 0.11159793 -0.05831178 -0.056642797
0.15448233 -0.05660665 -0.08870298 0.09745269 0.17074178 -0.084138244 -0.014493015 0.0618083
-0.026958777 0.059838884 0.0011460833 -0.13931654 0.037504196 0.16404904 0.062934324 -0.06482497
-0.019761099 -0.09187567 -0.101207405 -0.16453508 -0.023904167 -0.13462995 0.14826816 -0.134033
0.13599741 -0.103654854 0.14440481 0.16826881 0.033869185 0.0047390843 0.09396162 -0.14521612
0.108747624 -0.08212787 0.0018363742 -0.051779285 -0.0050987722 0.0800182 -0.06814943 -0.17200375
0.0063830796 -0.14208359 -0.043113675 0.17796826 -0.16037583 -0.061553005 0.04474623 0.16830604
-0.05559791 0.119757146 0.1370441 0.13184085 0.10008485 -0.07851978 -0.049752157 -0.018728938
-0.04973386 -0.048878957 -0.16568422 0.08237803 0.0128722815 0.055612914 0.17412375 -0.056339532
-0.07543165 0.15927687 -0.1765002 -0.06890064 0.05264518 -0.07733414 -0.1593273 -0.111835256
0.059605792 -0.038013965 -0.082407795 0.07229603 -0.058616888 -0.0959667 0.11703926 0.050134525
-0.15749806 -0.16305768 -0.15450262 0.08199325 -0.06734837 0.08992052 -0.15407874 0.18325357
0.021296088 0.011044907 0.00034821572 -0.12843217 -0.03789879 -0.13345987 0.106568106 -0.04687388
-0.06853704 -0.12269575 0.14570798 0.101826794 0.03507245 0.06575397 -0.090991475 0.02222677
-0.17612687 0.01642691 0.15890995 0.14253755 -0.12042294 0.021829912 0.1630294 0.09115487
-0.17509425 -0.15382487 0.06755038 0.025272269 -0.08414071 0.053671554 -0.1552026 -0.07634122
-0.15458275 0.1652894 0.0468754 -0.17811617 0.14569964 -0.029428847 -0.054375842 0.12910232
-0.14757726 -0.059497405 -0.15289642 0.102354504 -0.052633427 0.032024264 0.08703302 0.075593255
0.13899557 -0.08054517 -0.060804717 -0.17306046 -0.08020865 -0.09049191 -0.06520666 0.16587947
-0.12848109 0.065070815 0.11714771 -0.014856583 -0.10225574 0.1547079 0.18456195 0.011853525
-0.1537476 -0.072082184 0.09608816 0.07839443 -0.012305948 -0.11639773 -0.11672402 -0.071365535
-0.0853523 0.019035242 -0.06573634 0.1535022 -0.0014246101 0.05689447 -0.12295483 0.1577584
-0.15743396 -0.0140859615 -0.014740875 -0.114882536 0.011004479 -0.051576834 0.12166014 -0.06571538
-0.060325477 0.08816945 -0.08749033 -0.012344073 -0.17405254 -0.14010863 -0.0035018716 -0.11675848
-0.13347574 -0.06290142 -0.15467104 -0.060096018 -0.060514227 -0.15446192 -0.15942791 0.16472878
-0.13001168 -0.13398626 -0.14097795 0.02302117 0.079438634 0.0035674744 -0.11898089 -0.015967285
00000000: 7b57 9d3c 0e93 c43d 3a03 493c 220c 27be
00000010: b308 2dbe db1a 033e c62d 20ba b5b0 173e
00000020: 1298 03be c3f6 363e cbdf 623d ba5a 143e
00000030: 2af5 f4bd e619 403d 9847 0fbd 34de 07be
00000040: f6d1 bc3c d67d 1d3e c6fe e43d af0d 2e3e
00000050: 8d19 7cbd c71a d73d 0117 2ebe c6c1 103e
00000060: 0f03 21be 6cc5 123d c1ca c13d d716 d2bd
00000070: ae01 043e 883b eebd 9100 e4bd 946d e1bc
00000080: 714f 2bbd a26c 83bc c25e 2dbe 22fe 95bc
00000090: 8a69 0f3e 5ebc c5bd fe76 ee3d 39d8 2d3e
000000a0: ba69 eb3b cb80 fdbd 6d34 0cbe 14e4 4b3d
000000b0: fe50 0bbe 5cad 0abe ab32 3b3e d54c f83d
000000c0: 4e73 e93c 8256 16be d208 0cbe d079 f3bd
000000d0: 3674 88bd 758d e43d 55d8 6ebd 4702 68bd
000000e0: 9e30 1e3e 60dc 67bd e8a9 b5bd 4795 c73d
000000f0: efd6 2e3e ac50 acbd 1c74 6dbc b32a 7d3d
00000100: a7d8 dcbc 9e19 753d 2d38 963a ffa8 0ebe
00000110: 009e 193d 79fc 273e b6e3 803d f4c2 84bd
00000120: 07e2 a1bc 5029 bcbd d445 cfbd e27b 28be
00000130: acd2 c3bc 6fdc 09be 9cd3 173e f23f 09be
00000140: e842 0b3e ff48 d4bd dbde 133e a94e 2c3e
00000150: 6aba 0a3d 524a 9b3b f36e c03d 89b3 14be
00000160: 13b7 de3d a832 a8bd 7eb2 f03a 8416 54bd
00000170: 9a13 a7bb 95e0 a33d ee91 8bbd c021 30be
00000180: 2729 d13b 5c7e 11be f797 30bd 503d 363e
00000190: 9039 24be 011f 7cbd d347 373d 6b58 2c3e
000001a0: a2ba 63bd 3c43 f53d 4a55 0c3e 4a01 073e
000001b0: 49f9 cc3d face a0bd ebc8 4bbd 6e6d 99bc
000001c0: bbb5 4bbd 4d35 48bd 20a9 29be d0b5 a83d
000001d0: 43e6 523c 5eca 633d 7f4d 323e 48c4 66bd
000001e0: e97b 9abd 7a19 233e 78bc 34be c71b 8dbd
000001f0: 79a2 573d 5d61 9ebd b226 23be e209 e5bd
00000200: 3425 743d 88b4 1bbd 6bc5 a8bd f10f 943d
00000210: 4318 70bd 308a c4bd 48b2 ef3d dc59 4d3d
00000220: 2c47 21be 98f8 26be ef35 1ebe 14ec a73d
00000230: f1ed 89bd 4028 b83d d1c6 1dbe d3a6 3b3e
00000240: 2275 ae3c b3f5 343c b990 b639 b983 03be
00000250: c33b 1bbd b4a9 08be 6140 da3d d3fe 3fbd
00000260: 265d 8cbd e947 fbbd 7934 153e 918a d03d
00000270: 21a8 0f3d 04aa 863d bd59 babd ea14 b63c
00000280: 9a5a 34be ba91 863c 4ab9 223e 5df5 113e
00000290: 4da0 f6bd a5d4 b23c 2ef1 263e 68af ba3d
000002a0: e84b 33be 4484 1dbe db57 8a3d ca07 cf3c
000002b0: f751 acbd b4d6 5b3d 6eed 1ebe c958 9cbd
000002c0: f14a 1ebe a041 293e 6b00 403d 1664 36be
000002d0: 4932 153e c414 f1bc 34b9 5ebd 6633 043e
000002e0: 7e1e 17be 8db3 73bd e190 1cbe 3d9f d13d
000002f0: 2696 57bd e02b 033d 5e3e b23d a3d0 9a3d
00000300: db54 0e3e def4 a4bd 5e0e 79bd c336 31be
00000310: 6f44 a4bd d353 b9bd 128b 85bd 4fdc 293e
00000320: 8c90 03be d943 853d 23eb ef3d 0769 73bc
00000330: 756b d1bd bf6b 1e3e cffd 3c3e 4a35 423c
00000340: 0370 1dbe d39f 93bd dfc9 c43d 428d a03d
00000350: e39e 49bc ef61 eebd 010d efbd 1828 92bd
00000360: 30cd aebd ccef 9b3c c6a0 86bd ae2f 1d3e
00000370: fcb9 baba 2d0a 693d becf fbbd 6b8b 213e
00000380: 5e36 21be cec8 66bc b683 71bc 8947 ebbd
00000390: 214c 343c 3b42 53bd f428 f93d c995 86bd
000003a0: d917 77bd 2f92 b43d 212e b3bd cb3e 4abc
000003b0: d43a 32be a378 0fbe a87f 65bb 121f efbd
000003c0: ddad 08be 76d2 80bd 1662 1ebe 3e27 76bd
000003d0: c4dd 77bd 442b 1ebe 1241 23be a9ae 283e
000003e0: c821 05be b233 09be 865c 10be e596 bc3c
000003f0: b9b0 a23d 4acc 693b 41ac f3bd d3cd 82bc

EiLM.2.gamma_generator.weight f4 [1, 32]
0.10951758 -0.09419598 0.08162171 -0.16807133 -0.11349875 -0.034654092 0.022955056 -0.09851788
0.17701726 -0.12409804 0.1228091 0.14741822 -0.09785616 -0.11338505 -0.015623512 -0.012904082
-0.006252283 -0.073567376 0.052289408 -0.086972475 -0.14550652 -0.025805222 0.11194485 -0.13891229
-0.1312168 -0.06785061 -0.06690003 0.038171355 -0.17275988 0.13569471 0.11285873 -0.09582276
00000000: c14a e03d d2e9 c0bd 4829 a73d e41a 2cbe
00000010: 0872 e8bd 73f1 0dbd 3e0c bc3c bec3 c9bd
00000020: 0344 353e 1d27 febd 5683 fb3d cdf4 163e
00000030: cf68 c8bd 6c36 e8bd c2f9 7fbc a56b 53bc
00000040: f4df ccbb 7eaa 96bd 6b2d 563d a01e b2bd
00000050: a9ff 14be 7965 d3bc 5743 e53d 063f 0ebe
00000060: b25d 06be 43f5 8abd e202 89bd 9159 1c3d
00000070: f7e7 30be 8ef3 0a3e 7a22 e73d b93e c4bd

EiLM.2.beta_generator.weight f4 [32, 32]
-0.019449925 -0.12776412 -0.07793242 -0.16835332 -0.17670853 0.138146 0.1579928 0.10468944
0.018370282 -0.0059043225 -0.03832355 0.0016617177 -0.15184999 0.12096651 -0.055892646 0.03784489
0.09570274 -0.06545222 -0.04413301 -0.027032316 -0.15425573 -0.13911146 -0.1640187 -0.03895481
0.091003895 -0.16205584 -0.10029432 -0.1602024 -0.16105868 -0.18183328 0.03334906 0.06477767
0.13927108 0.050951295 -0.14778894 -0.05271745 0.045543958 -0.10604052 0.09092389 0.103492424
0.016143193 0.124724 -0.08327845 -0.12963735 0.14768602 0.07492894 -0.037448402 0.04811086
-0.033236798 -0.12243736 0.09260533 0.013450473 -0.11828002 -0.071686246 -0.041157864 0.016185746
0.013026751 -0.1651101 -0.12795055 0.059413906 0.100437954 -0.020571386 -0.089343086 0.0487394
-0.06068574 -0.10389358 0.1638278 0.12397422 -0.14729899 0.1187725 -0.06428995 0.006826927
0.13120294 -0.12595318 -0.17457508 0.032975126 -0.14809811 -0.05234314 -0.03740732 0.036075052
0.086444624 0.15821984 0.10126713 0.1680707 0.14549954 -0.14232792 0.07549828 0.16489375
0.12485447 0.12240073 -0.083744004 0.05740401 0.08406522 0.04983386 0.11538473 -0.053405505
0.048832364 -0.14321272 0.1418606 -0.021782702 -0.033001672 -0.08007842 -0.1524448 -0.003397895
-0.16725437 -0.11403483 0.058361206 0.036820494 0.028163997 -0.087960936 0.096588306 -0.07109727
0.16908182 -0.13620761 -0.052186903 0.027193954 -0.034867685 0.13969992 -0.11005432 0.087408185
0.1362932 0.06518758 0.046538267 -0.1453786 -0.08871183 -0.117723815 0.11820304 -0.041649412
-0.02769932 0.059356738 -0.0341777 -0.17368157 0.1370832 0.044126574 0.058115445 0.16865554
0.17068885 -0.041426163 -0.11879259 -0.18141429 0.18555322 0.097349174 -0.09946079 -0.040691316
-0.15256979 0.069319144 -0.08337133 0.072631575 0.054437 -0.07371417 -0.06609521 0.009912868
0.018908972 0.0012339726 -0.15731697 -0.15913437 0.01848749 -0.15651634 0.11072962 0.1802142
0.025292918 -0.122173436 -0.04732965 0.1107724 -0.15380712 0.014505525 0.10235586 -0.15540971
-0.08804069 0.099529795 0.16765088 0.09877257 -0.07551739 -0.121487245 -0.11320456 0.1589485
-0.049694344 -0.06520681 0.12811844 0.12577681 -0.12210949 0.16205604 0.0406275 0.048369713
-0.13342851 -0.048561227 0.15126437 -0.16330379 -0.086526856 0.063695416 -0.030961217 0.13975285
-0.047311094 0.053135857 -0.12480914 -0.11218823 0.012533571 -0.022272667 -0.09368895 0.08727711
-0.15970781 0.009251889 -0.15346754 0.14588618 -0.069082126 -0.11698652 0.085090235 0.059786506
0.07115959 0.17708598 -0.100939654 -0.17149785 0.11111233 0.09974366 0.048248827 -0.11741723
-0.11998195 0.16330762 -0.03881464 0.16466875 -0.09391957 0.018353896 0.06676805 0.05311919
0.122850835 0.14870192 -0.058890887 0.071761124 -0.026078388 0.10682038 0.060918514 0.1499533
-0.16251862 -0.043703604 0.08433046 0.18025757 -0.12951839 0.09606289 0.1539684 -0.03695787
0.09351876 -0.03455799 0.109135 0.048377767 -0.08193202 0.10344734 -0.037129603 -0.013736693
-0.035162516 -0.094084755 0.09376483 0.15751863 -0.12637445 -0.1576416 -0.14138694 -0.064532384
00000000: 7355 9fbc 99d4 02be 089b 9fbd d064 2cbe
00000010: 15f3 34be 2576 0d3e ddc8 213e 6b67 d63d
00000020: 467d 963c 0c79 c1bb 28f9 1cbd fecd d93a
00000030: 907e 1bbe 4abd f73d b0ef 64bd 3e03 1b3d
00000040: ccff c33d d00b 86bd d1c4 34bd e072 ddbc
00000050: 37f5 1dbe 3c73 0ebe 85f4 27be 148f 1fbd
00000060: 4060 ba3d f7f1 25be 1c67 cdbd 190c 24be
00000070: 91ec 24be 8132 3abe 0699 083d 28aa 843d
00000080: 149d 0e3e 4eb2 503d fc55 17be 41ee 57bd
00000090: 4d8c 3a3d c62b d9bd 4e36 ba3d d6f3 d33d
000000a0: bb3e 843c 4c6f ff3d e48d aabd a7bf 04be
000000b0: 013b 173e 5874 993d 7f63 19bd e50f 453d
000000c0: 4f23 08bd 70c0 fabd dda7 bd3d 5f5f 5c3c
000000d0: cc3c f2bd 3dd0 92bd 2695 28bd f897 843c
000000e0: 276e 553c 9f12 29be 7805 03be ff5b 733d
000000f0: 6ab2 cd3d 5385 a8bc 82f9 b6bd f7a2 473d
00000100: 9c91 78bd 28c6 d4bd 7ac2 273e 32e6 fd3d
00000110: 8cd5 16be ff3e f33d 73aa 83bd 6ab4 df3b
00000120: 105a 063e dff9 00be cfc3 32be ed10 073d
00000130: 08a7 17be c365 56bd 6b38 19bd 6fc3 133d
00000140: e109 b13d 6204 223e 2465 cf3d ba1a 2c3e
00000150: d5fd 143e 69be 11be d89e 9a3d e8d9 283e
00000160: b3b3 ff3d 3cad fa3d fa81 abbd 7820 6b3d
00000170: 632a ac3d 971e 4c3d d44e ec3d bbbf 5abd
00000180: 7204 483d 5ba6 12be e843 113e a371 b2bc
00000190: c32c 07bd 2800 a4bd 7d1a 1cbe 38af 5ebb
000001a0: bb44 2bbe 188b e9bd 290c 6f3d 16d1 163d
000001b0: 2fb8 e63c dd24 b4bd 17d0 c53d 729b 91bd
000001c0: c923 2d3e 027a 0bbe efc1 55bd dbc5 de3c
000001d0: 6bd1 0ebd 7f0d 0f3e 2964 e1bd 1003 b33d
000001e0: 7290 0b3e 1181 853d e99e 3e3d 21de 14be
000001f0: 8cae b5bd 2f19 f1bd 6f14 f23d 9398 2abd
00000200: afe9 e2bc 0d20 733d eafd 0bbd 95d9 31be
00000210: 8a5f 0c3e 11be 343d 760a 6e3d 0ab4 2c3e
00000220: 0fc9 2e3e 7bae 29bd 8849 f3bd abc4 39be
00000230: aa01 3e3e 015f c73d 19b2 cbbd f0ab 26bd
00000240: 413b 1cbe 32f7 8d3d 96be aabd ddbf 943d
00000250: 55f9 5e3d 74f7 96bd ed5c 87bd 9569 223c
00000260: fde6 9a3c 40bd a13a b317 21be 1ff4 22be
00000270: 1473 973c d245 20be 36c6 e23d 128a 383e
00000280: 1833 cf3c 1136 fabd bcdc 41bd a4dc e23d
00000290: 9d7f 1dbe 95a8 6d3c f39f d13d b923 1fbe
000002a0: ad4e b4bd 47d6 cb3d acac 2b3e 4649 ca3d
000002b0: dda8 9abd 4ece f8bd cbd7 e7bd 65c3 223e
000002c0: 4c8c 4bbd 268b 85bd 7b31 033e a3cb 003e
000002d0: 8a14 fabd 05f2 253e 0569 263d 521f 463d
000002e0: 7ca1 08be 23e8 46bd 0ce5 1a3e 1c39 27be
000002f0: fe34 b1bd be72 823d 61a2 fdbc 5f1b 0f3e
00000300: 47c9 41bd fca4 593d ef9b ffbd f1c2 e5bd
00000310: 9b59 4d3c 2b75 b6bc fedf bfbd 57be b23d
00000320: 728a 23be 3c95 173c 9826 1dbe 3063 153e
00000330: ee7a 8dbd a196 efbd ca43 ae3d b2e2 743d
00000340: 1ebc 913d 0756 353e 73b9 cebd 229d 2fbe
00000350: dc8e e33d 6746 cc3d 90a0 453d 7278 f0bd
00000360: 19b9 f5bd 1d3a 273e 1afc 1ebd ed9e 283e
00000370: e758 c0bd e95a 963c b0bd 883d 8293 593d
00000380: 3899 fb3d 5145 183e 9237 71bd 7ff7 923d
00000390: 58a2 d5bc a5c4 da3d b185 793d 5c8d 193e
000003a0: 486b 26be 8d02 33bd 73b5 ac3d 7195 383e
000003b0: 78a0 04be 9fbc c43d e4a9 1d3e 2361 17bd
000003c0: c386 bf3d ae8c 0dbd 2c82 df3d c427 463d
000003d0: facb a7bd 33dc d33d 3615 18bd de0f 61bc
000003e0: 9206 10bd 82af c0bd c607 c03d 904c 213e
000003f0: 4e68 01be cd6c 21be bdc7 10be 8e29 84bd

EiLM.3.gamma_generator.weight f4 [1, 32]
-0.04123637 -0.02696755 -0.022742739 0.15987495 -0.048895493 -0.12832575 0.0998031 0.16108988
-0.15185852 0.12018004 -0.123524964 0.07712395 -0.030056117 -0.084144495 0.09593133 -0.09256081
-0.16788453 -0.09436512 -0.11253379 0.1148841 -0.14724925 -0.029692646 0.08576705 0.14501014
0.06618318 0.045446713 -0.07785595 0.117148235 -0.15241691 -0.11853057 -0.12688209 -0.15224577
00000000: 78e7 28bd 0deb dcbc fb4e babc 42b6 233e
00000010: a446 48bd d367 03be 9165 cc3d bff4 243e
00000020: cd80 1bbe f420 f63d a8fa fcbd 29f3 9d3d
00000030: 3f38 f6bc f353 acbd a577 c43d 8690 bdbd
00000040: ece9 2bbe 8042 c1bd 1e78 e6bd 5b48 eb3d
00000050: 82c8 16be fe3d f3bc a3a6 af3d 8a7d 143e
00000060: 0c8b 873d 5526 3a3d f172 9fbd 6aeb ef3d
00000070: 2e13 1cbe 28c0 f2bd 61ed 01be 51e6 1bbe

EiLM.3.beta_generator.weight f4 [32, 32]
-0.09112366 0.18312095 -0.11763095 -0.03681156 -0.061346237 -0.029550217 -0.08563022 0.01611611
-0.09988539 -0.15809295 0.07049147 -0.03955943 0.07613739 -0.050447665 -0.16065519 0.048349496
0.14692004 -0.16369084 -0.021705262 -0.05298751 0.15743484 -0.07479895 -0.011809099 0.104606695
0.07025871 -0.013322229 -0.1534278 -0.107343525 -0.0061600185 -0.18759973 0.012576251 0.04609433
-0.07705792 -0.16308323 0.08680907 0.12213761 -0.17636524 -0.00895627 0.07261832 0.012419378
-0.14214392 0.16371693 -0.058381118 -0.046566747 0.1652233 -0.12393355 0.11500872 -0.13341671
0.029063147 0.16268529 0.093770586 0.048840657 0.040725432 -0.05158514 0.09111596 -0.09388522
0.10836801 0.024586977 -0.020743417 -0.04387253 0.1621342 0.09555758 0.12330227 -0.078201525
0.035683945 0.16608717 0.16661026 0.022282887 0.10717513 -0.06945732 0.039504603 0.015220411
0.013780921 0.07941176 -0.08623328 0.009429898 -0.06840858 -0.0103133395 -0.1660456 -0.009145053
-0.0003775903 0.115522966 -0.13437742 -0.07577386 0.013574926 0.11442256 -0.0789822 -0.0995773
-0.14815545 0.045201175 -0.108824514 -0.03461087 0.0075743278 -0.16194274 0.14933692 -0.122946106
0.09107599 -0.08049901 -0.10147513 0.097091205 -0.05590368 -0.12048699 -0.13664472 0.01673832
-0.052453805 -0.04115236 -0.15550157 -0.08812588 -0.041541807 -0.14482224 0.009767436 0.11304842
-0.024623945 0.029475568 -0.05325071 -0.16832216 -0.13584578 0.0962362 0.014644982 0.14270481
-0.13839528 0.15760079 0.10032366 -0.040011875 -0.09057438 0.14803694 0.049188748 0.107318416
0.104063936 -0.0714107 0.061166596 -0.058598485 -0.12640685 0.14651415 -0.11577262 0.15654211
-0.0238813 0.087695755 0.16264959 -0.0435921 0.12830047 -0.1334479 -0.14135982 0.10812863
0.10284564 -0.02805874 0.081798896 0.1451824 0.1668921 -0.17615518 0.05184518 -0.06101834
0.14731711 -0.035827983 -0.16200326 -0.048399344 0.08585686 0.008109979 0.13772215 0.037190516
-0.11464641 0.1721339 0.10318583 -0.114067316 0.077206045 0.13451466 0.015766833 0.029842686
0.006508095 0.056226686 0.045273066 0.14379685 -0.106024586 -0.04385977 0.102562815 0.050494604
-0.026965817 -0.16423406 0.15550445 -0.15526426 -0.16694163 -0.100303985 0.16774732 0.10824453
0.04787437 -0.10237043 0.033733826 -0.12195004 0.046506133 0.06923859 -0.064641334 0.049954515
-0.07059683 0.16876528 0.054997634 -0.08071972 -0.020825135 0.111576885 0.095009774 -0.038244203
-0.15365683 0.1262422 0.17051576 -0.1426069 -0.07463513 -0.062155206 0.0165557 0.10833837
0.06125496 0.12403579 0.06808675 0.09213061 -0.10470891 0.1514735 0.13242 0.050316494
0.003772282 -0.052872583 0.055299968 0.13212733 0.14674804 0.051214293 -0.005791874 -0.03239516
0.046439163 0.16277008 0.043708675 -0.10767628 -0.031071994 0.11178846 -0.105402075 0.049968604
0.09954497 0.07100639 -0.10224601 0.02627457 0.08218023 0.112693354 -0.017736178 -0.12549077
-0.1437099 -0.1364987 0.1326266 0.07101456 -0.15161192 -0.11895654 -0.069952965 -0.045352556
-0.10280784 0.13421676 0.08848133 -0.105601355 -0.101829946 -0.17402889 -0.169703 -0.07309696
00000000: 0b9f babd 0f84 3b3e 7fe8 f0bd b8c7 16bd
00000010: 3146 7bbd 4c13 f2bc e65e afbd ef05 843c
00000020: b690 ccbd 1ee3 21be d55d 903d 1209 22bd
00000030: eced 9b3d 36a2 4ebd cb82 24be 1f0a 463d
00000040: 3572 163e 929e 27be 3ccf b1bc 6e09 59bd
00000050: 9936 213e 3130 99bd f47a 41bc 093c d63d
00000060: cce3 8f3d 7a45 5abc 2d1c 1dbe ecd6 dbbd
00000070: fbd9 c9bb 251a 40be 9f0c 4e3c 68cd 3c3d
00000080: 8bd0 9dbd 4aff 26be f4c8 b13d 4923 fa3d
00000090: 1799 34be 52bd 12bc eab8 943d a67a 4b3c
000000a0: 2d8e 11be 69a5 273e 0a21 6fbd c6bc 3ebd
000000b0: 4c30 293e e0d0 fdbd b189 eb3d 649e 08be
000000c0: d615 ee3c f996 263e cb0a c03d 240d 483d
000000d0: b6cf 263d f14a 53bd 019b ba3d e546 c0bd
000000e0: 0cf0 dd3d a16a c93c 19ee a9bc afb3 33bd
000000f0: 8206 263e b1b3 c33d e785 fc3d 1f28 a0bd
00000100: 5429 123d c112 2a3e e19b 2a3e 9a8a b63c
00000110: a27e db3d a43f 8ebd 94cf 213d 085f 793c
00000120: 5fc9 613c a2a2 a23d 139b b0bd dc7f 1a3c
00000130: cc19 8cbd 48f9 28bc dc07 2abe 22d5 15bc
00000140: 50f7 c5b9 4e97 ec3d 3c9a 09be 532f 9bbd
00000150: 5e69 5e3c 6056 ea3d 6bc1 a1bd 2fef cbbd
00000160: 10b6 17be de24 393d 63df debd 21c4 0dbd
00000170: 1132 f83b 51d4 25be c7eb 183e 2bcb fbbd
00000180: 0c86 ba3d aadc a4bd 31d2 cfbd c1d7 c63d
00000190: 42fb 64bd e2c1 f6bd 98ec 0bbe cd1e 893c
000001a0: cdd9 56bd 618f 28bd ce3b 1fbe 577b b4bd
000001b0: be27 2abd 484c 14be 9907 203c ee85 e73d
000001c0: 28b8 c9bc bf76 f13c 6b1d 5abd a55c 2cbe
000001d0: 281b 0bbe 7c17 c53d 82f1 6f3c 3621 123e
000001e0: 7eb7 0dbe 1a62 213e 7e76 cd3d 7ee3 23bd
000001f0: 0f7f b9bd ff96 173e 247a 493d c2c9 db3d
00000200: 791f d53d c63f 92bd d389 7a3d f704 70bd
00000210: cc70 01be ce07 163e 321a edbd 934c 203e
00000220: b7a2 c3bc d599 b33d 9d8d 263e a18d 32bd
00000230: 3361 033e 91a6 08be a1c0 10be 8b72 dd3d
00000240: bca0 d23d 71db e5bc 2e86 a73d b2aa 143e
00000250: c3e5 2a3e 0662 34be 9d5b 543d 5eee 79bd
00000260: 4cda 163e 5dc0 12bd 2fe4 25be 643e 46bd
00000270: b9d5 af3d b8df 043c 0907 0d3e 1555 183d
00000280: bdcb eabd de43 303e 1853 d33d 209c e9bd
00000290: 341e 9e3d 36be 093e 7229 813c a678 f43c
000002a0: dc41 d53b f44d 663d 4070 393d 7b3f 133e
000002b0: 6b23 d9bd 4da6 33bd 740c d23d 6ed3 4e3d
000002c0: 6be7 dcbc f92c 28be 8f3c 1f3e 98fd 1ebe
000002d0: bff2 2abe 2d6c cdbd f4c5 2b3e 4faf dd3d
000002e0: ea17 443d 97a7 d1bd 7b2c 0a3d f1c0 f9bd
000002f0: 377d 3e3d f6cc 8d3d ad62 84bd 1b9d 4c3d
00000300: 1295 90bd ced0 2c3e 3345 613d 6150 a5bd
00000310: 7999 aabc 6c82 e43d 7c94 c23d f4a5 1cbd
00000320: 3758 1dbe a345 013e af9b 2e3e 8b07 12be
00000330: 4eda 98bd 7596 7ebd d29f 873c 82e0 dd3d
00000340: 7be6 7a3d 7a06 fe3d 1171 8b3d f9ae bc3d
00000350: a071 d6bd df1b 1b3e 1c99 073e ab18 4e3d
00000360: 6438 773b ec90 58bd 3882 623d 634c 073e
00000370: 1e45 163e 14c6 513d c3c9 bdbb cab0 04bd
00000380: fe36 3e3d 33ad 263e de07 333d 6285 dcbd
00000390: b28a febc 59f1 e43d 0bdd d7bd e1ab 4c3d
000003a0: 3cde cb3d cc6b 913d 5b66 d1bd c43d d73c
000003b0: 1c4e a83d c6cb e63d 764b 91bc a780 00be
000003c0: b028 13be 51c6 0bbe 44cf 073e 1570 913d
000003d0: 2840 1bbe 7d9f f3bd 8043 8fbd 9ac3 39bd
000003e0: eb8c d2bd 1e70 093e b335 b53d 8645 d8bd
000003f0: 388c d0bd a134 32be a0c6 2dbe dcb3 95bd

Gate.weight f4 [4, 32]
0.1495802 0.017047137 -0.016505478 0.14284927 0.057652067 -0.106438026 0.14009841 -0.15521078
0.07948104 0.16148332 0.13834256 0.010384271 -0.008969997 -0.108114846 -0.10295701 -0.055750236
0.103235565 -0.07847289 -0.04786957 -0.13917889 -0.12784882 -0.028256131 -0.07279853 -0.030995952
0.08924212 0.15176363 -0.12910631 -0.05159086 -0.1814395 0.17131029 -0.05371471 -0.15853396
0.13909045 -0.10866075 0.16249806 -0.13266382 -0.12488895 0.015676988 0.034334235 -0.026530074
0.100089416 0.111363225 0.13706124 -0.097926795 -0.035474982 -0.19038032 0.07538906 0.12671739
-0.10230967 0.052181862 0.05849226 0.14117216 0.005762979 0.048728317 0.013595275 -0.00916412
-0.14315443 0.07956678 -0.14032279 -0.030758198 0.02652924 0.111008495 -0.10388131 0.00044783583
0.090137765 -0.1603258 0.06892133 0.13605835 -0.020666365 -0.1725993 0.031856768 0.13990308
0.13963535 0.07426707 -0.13435885 0.022450592 -0.121227615 -0.004221215 0.17485082 -0.07666341
0.082853936 0.17703953 -0.13625985 0.021487776 0.09258238 0.11267416 0.084613375 -0.004311505
-0.07538341 -0.07253388 -0.04985132 0.14908427 -0.0030225567 0.025581619 -0.010114507 -0.118889146
-0.09641584 0.108403645 -0.023073325 0.14725402 0.10624894 -0.06917171 -0.10038728 -0.08089512
-0.062490672 -0.050371815 -0.08574019 0.14965126 0.15718922 0.1278883 -0.07288476 -0.173992
-0.06787045 0.13237806 -0.12509592 -0.13885295 -0.083554246 -0.16569898 -0.036683246 0.047781594
0.108679384 0.07742576 -0.15544052 -0.046324085 -0.12175667 0.060207404 0.15762113 -0.15269709
00000000: 8d2b 193e 70a6 8b3c 7f36 87bc 1447 123e
00000010: 9324 6c3d 2efc d9bd f575 0f3e 93ef 1ebe
00000020: f5c6 a23d e25b 253e aca9 0d3e ca22 2a3c
00000030: e5f6 12bc 516b ddbd 20db d2bd 5c5a 64bd
00000040: 2b6d d33d 65b6 a0bd e212 44bd e984 0ebe
00000050: cdea 02be 6779 e7bc 6517 95bd 39eb fdbc
00000060: 93c4 b63d ed67 1b3e 7234 04be f050 53bd
00000070: 47cb 39be f76b 2f3e f503 5cbd ba56 22be
00000080: ba6d 0e3e 8789 debd e465 263e 06d9 07be
00000090: c7c5 ffbd 076d 803c 0ea2 0c3d 9955 d9bc
000000a0: aefb cc3d 6712 e43d c859 0c3e d88d c8bd
000000b0: 374e 11bd 0ff3 42be 9465 9a3d 34c2 013e
000000c0: bb87 d1bd a6bc 553d 9495 6f3d 6f8f 103e
000000d0: 5fd7 bc3b 5897 473d b7be 5e3c 1b25 16bc
000000e0: 1397 12be e8f3 a23d c7b0 0fbe 9ef8 fbbc
000000f0: d953 d93c 6c58 e33d b9bf d4bd 82cb ea39
00000100: 269a b83d 722c 24be a026 8d3d e152 0b3e
00000110: 824c a9bc dfbd 30be 3e7c 023d c142 0f3e
00000120: 92fc 0e3e 5519 983d 5e95 09be 4eea b73c
00000130: 2f46 f8bd 1e52 8abb 180c 333e b501 9dbd
00000140: 53af a93d da49 353e b487 0bbe 2207 b03c
00000150: d59b bd3d b6c1 e63d c749 ad3d 8647 8dbb
00000160: 9e62 9abd a58c 94bd e630 4cbd 8ca9 183e
00000170: 1616 46bb 8b90 d13c 51b7 25bc 277c f3bd
00000180: ab75 c5bd bb02 de3d 4504 bdbc c2c9 163e
00000190: 0b99 d93d e6a9 8dbd d997 cdbd 57ac a5bd
000001a0: 38f6 7fbd ad52 4ebd 8e98 afbd 2e3e 193e
000001b0: 36f6 203e 27f5 023e 9b44 95bd f52a 32be
000001c0: aaff 8abd 1d8e 073e 2519 00be 782f 0ebe
000001d0: 7d1e abbd feac 29be 2c41 16bd a2b6 433d
000001e0: 4c93 de3d 6691 9e3d cd2b 1fbe 53be 3dbd
000001f0: 905b f9bd 0a9c 763d 6f67 213e a05c 1cbe

experts.0.gate_proj.weight f4 [32, 32]
-0.15202768 0.13761754 0.032931726 -0.0214524 0.11155935 0.009690118 0.019520676 -0.04415051
0.061670765 -0.17810939 -0.14273643 0.17715944 0.025183326 -0.03135405 -0.056386817 0.12511788
0.15575413 -0.15457198 -0.044467963 -0.038918678 -0.095563844 0.100370675 0.15496816 -0.12394779
-0.10178505 0.110020064 -0.15202397 -0.15069567 0.16448122 -0.081468955 0.059932087 -0.02695589
0.13981225 0.10251877 0.12527615 -0.038895067 -0.1773742 0.16325188 0.15318738 0.010915483
0.1681174 0.107870795 -0.095340885 -0.021904621 -0.0006163777 0.09178504 0.04848132 -0.1547811
0.1426679 0.09541302 0.030021768 0.113085 0.13842802 0.14340621 -0.09989004 -0.023764819
-0.0988758 0.018659983 0.1580332 -0.030567981 0.16258939 0.1580363 -0.11431691 -0.06527376
-0.075394034 0.0071819294 -0.109305635 -0.011299111 0.16657715 -0.13101462 0.03365021 0.04827275
-0.13178253 -0.05242547 -0.079622805 -0.052750457 -0.1543794 0.091280244 0.045286898 0.047851786
-0.06634193 -0.082854345 0.16378008 -0.008818507 -0.08851361 0.042636562 0.074837044 -0.0870295
-0.02321034 0.0467352 -0.045593135 -0.09667784 0.11365792 0.10919916 0.04770444 0.12160138
0.054499295 -0.059315402 -0.047776848 -0.06766932 0.14437422 -0.14797057 -0.052863665 0.012769326
-0.051606003 -0.07438633 -0.11287808 0.033816054 0.12864475 0.0060412693 -0.08584629 -0.11231292
0.16341317 0.057474747 0.17303279 0.02609054 -0.13071714 -0.025489625 -0.037486527 -0.1301985
-0.11474214 0.10624219 0.068271525 0.0075354227 -0.16920276 -0.16468331 -0.011049214 0.028804151
0.09167936 0.05951257 0.021521054 -0.1285344 0.12605225 -0.14314559 0.15903606 0.002655599
0.02876573 -0.053981848 -0.07723787 0.14299792 -0.031442866 -0.09963892 -0.07031177 0.015855419
-0.094081976 0.13581026 -0.04368057 0.058167506 0.16777869 -0.122703955 -0.07151784 -0.16640204
0.14095044 0.059992358 0.1212561 -0.042557567 -0.13529031 -0.011836628 -0.13746469 -0.04158303
0.14305024 -0.14567105 0.06534932 -0.010900459 -0.13130045 0.072901 -0.029100291 -0.007298497
0.022621337 0.0799025 0.09765176 0.03861063 0.1512401 0.088863865 -0.061973646 0.05682057
0.15067752 0.09606637 -0.055763554 0.15792477 -0.06281663 0.06519263 0.16416183 -0.13771774
0.17379558 0.052097753 0.083362885 0.15920882 -0.0034027079 -0.09619305 -0.12395379 -0.049678195
0.110576406 -0.028650584 0.12829396 -0.14312604 0.09430805 0.11662537 0.07022624 0.15471841
0.12757911 -0.05389957 0.055309534 -0.05605954 0.17024784 0.04012779 0.12893818 -0.1247916
0.17983128 0.06834067 0.1715393 0.036877934 0.023832446 0.043564472 0.12646613 0.12359083
-0.12679464 0.10548833 0.15464547 -0.05565002 0.042457387 0.16208754 0.05959857 0.14439897
0.09046053 -0.09142289 0.17212412 -0.07047142 -0.03512745 -0.004170368 0.12915084 0.1009197
0.022806764 0.06471543 -0.15702993 -0.12994798 -0.033057623 0.06778589 0.12415931 -0.026817838
0.13830653 -0.08561574 0.012633149 -0.08035661 0.13744766 0.06047158 -0.035102528 -0.0068541956
-0.15897861 -0.0008928534 -0.05870717 -0.072648555 0.14197099 -0.12861387 0.06795072 -0.11930844
00000000: 25ad 1bbe 9deb 0c3e 6be3 063d f2bc afbc
00000010: 3a79 e43d 4dc3 1e3c d3e9 9f3c 2ad7 34bd
00000020: 7c9a 7c3d 4f62 36be 8029 12be 4969 353e
00000030: 434d ce3c 1b6d 00bd ddf5 66bd e71e 003e
00000040: 037e 1f3e 1e48 1ebe 0a24 36bd 3169 1fbd
00000050: fab6 c3bd 248f cd3d f9af 1e3e 57d8 fdbd
00000060: ae74 d0bd 3352 e13d 2cac 1bbe f74f 1abe
00000070: c46d 283e 32d9 a6bd 597b 753d 99d2 dcbc
00000080: f12a 0f3e 5cf5 d13d 6448 003e 6f50 1fbd
00000090: 95a1 35be 802b 273e 27dd 1c3e dbd6 323c
000000a0: f826 2c3e 5deb dc3d 1542 c3bd 5271 b3bc
000000b0: 6894 21ba ccf9 bb3d 5994 463d f07e 1ebe
000000c0: 8917 123e e767 c33d 36f0 f53c 1c99 e73d
000000d0: 13c0 0d3e 14d9 123e 2693 ccbd 70ae c2bc
000000e0: 657f cabd d2dc 983c 75d3 213e b469 fabc
000000f0: d57d 263e 45d4 213e fc1e eabd 40ae 85bd
00000100: 3068 9abd 6456 eb3b a2db dfbd e81f 39bc
00000110: 3393 2a3e b228 06be cdd4 093d a6b9 453d
00000120: 00f2 06be 17bc 56bd 4811 a3bd dd10 58bd
00000130: a215 1ebe 23f1 ba3d c17e 393d 3c00 443d
00000140: 47de 87bd 8aaf a9bd f7b5 273e 807b 10bc
00000150: a046 b5bd ada3 2e3d 2a44 993d 863c b2bd
00000160: 9c23 bebc 696d 3f3d debf 3abd 08ff c5bd
00000170: 7cc5 e83d cfa3 df3d bb65 433d 250a f93d
00000180: a73a 5f3d b5f4 72bd a8b1 43bd 3696 8abd
00000190: d6d6 133e 9985 17be 9287 58bd 6f36 513c
000001a0: d160 53bd dc57 98bd 9f2c e7bd b482 0a3d
000001b0: 73bb 033e d7f5 c53b 2ed0 afbd 5104 e6bd
000001c0: c855 273e a46a 6b3d 822f 313e d4bb d53c
000001d0: b7da 05be 9ecf d0bc 798b 19bd c152 05be
000001e0: edfd eabd 8195 d93d f1d1 8b3d b5eb f63b
000001f0: 7d43 2dbe bea2 28be c307 35bc aff6 eb3c
00000200: 63c2 bb3d 74c3 733d ec4c b03c 869e 03be
00000210: d713 013e c294 12be 59da 223e 8f09 2e3b
00000220: 1ca6 eb3c 121c 5dbd e32e 9ebd 0c6e 123e
00000230: 3cca 00bd 7d0f ccbd 9eff 8fbd 39e3 813c
00000240: 0dae c0bd d811 0b3e 66ea 32bd 0d41 6e3d
00000250: 2dce 2b3e 364c fbbd f277 92bd 4c65 2abe
00000260: 5055 103e 8cba 753d 1e55 f83d d850 2ebd
00000270: 8b89 0abe 6bee 41bc 8bc3 0cbe f852 2abd
00000280: c37b 123e cb2a 15be ddd5 853d d797 32bc
00000290: a073 06be 1f4d 953d bc63 eebc 3b28 efbb
000002a0: 6250 b93c eca3 a33d a5fd c73d 2e26 1e3d
000002b0: afde 1a3e 42fe b53d 14d8 7dbd b0bc 683d
000002c0: 354b 1a3e 72be c43d 5368 64bd 08b7 213e
000002d0: 01a6 80bd b783 853d 0a1a 283e e105 0dbe
000002e0: 78f7 313e 7464 553d 29ba aa3d a307 233e
000002f0: f7ff 5ebb dd00 c5bd 7cdb fdbd 5d7b 4bbd
00000300: e275 e23d a1b4 eabc 7e5f 033e a28f 12be
00000310: 9424 c13d 48d9 ee3d c6d2 8f3d 816e 1e3e
00000320: 19a4 023e ccc5 5cbd 408c 623d b09e 65bd
00000330: 7355 2e3e 0a5d 243d 5f08 043e bd92 ffbd
00000340: b125 383e 31f6 8b3d 00a8 2f3e 510d 173d
00000350: 433c c33c a970 323d 5680 013e 301d fd3d
00000360: 74d6 01be 440a d83d 625b 1e3e 46f1 63bd
00000370: cce7 2d3d 47fa 253e a11d 743d 53dd 133e
00000380: 5f43 b93d ed3b bbbd 4e41 303e 5253 90bd
00000390: cde1 0fbd 95a7 88bb 1e40 043e fdae ce3d
000003a0: 40d5 ba3c 8689 843d 74cc 20be 1511 05be
000003b0: 6e67 07bd 54d3 8a3d 3c47 fe3d 15b1 dbbc
000003c0: 3aa0 0d3e 4e57 afbd 44fb 4e3c 0292 a4bd
000003d0: 14bf 0c3e 0cb1 773d abc7 0fbd 2999 e0bb
000003e0: 4acb 22be 610e 6aba ee76 70bd c4c8 94bd
000003f0: d860 113e 5bb3 03be bf29 8b3d fc57 f4bd
