output/FT-S-MoME/ts_encoder_epoch4.pt (torch, 376236 bytes, 34 tensors)

proj.weight f4 [32, 8]
00000000: 8dc7 64be 8643 66be 96f1 e93d 4a18 8dbe
00000010: c242 883e eccb a63e 9a1d d3bd 8a27 773e
00000020: 0e98 72be b951 5d3e 97e6 13be 3213 9d3d
00000030: 2958 ca3d bf13 8e3e 68e1 8abe e642 96bd
00000040: 8b7b aabe 6752 f03b ce53 46be c7d8 9e3e
00000050: 96ee eb3c a14b 8d3e ed59 223e 98a5 80be
00000060: 08b7 b83e 51c1 823e 5b77 9bbe fd16 9dbe
00000070: 07b7 423e 557f 833e a00f f3bd a85d 91be
00000080: c5cf bc3e 09ea 2dbd a9e9 1c3e f788 81be
00000090: 3b79 8bbe 358f 043e 462b 64be f471 96be
000000a0: 2581 063e ea97 73be adaa 59bc 3c80 8ebb
000000b0: bf37 2c3e 4eed 0d3c f55b 673d e894 4ebe
000000c0: 2d5c 85be f97d 753e 4346 633e 1727 c9bd
000000d0: 303e 863e 2d5f 7cbe d5bc e8bb 2373 38be
000000e0: b5b4 8c3d 8e1e 9cbd 6ba1 a2bc 74a3 b2bc
000000f0: 8afa e6bd cbc6 54bd c5b5 ba3d 7f5f 593e
00000100: 237a 0fbe 9a2e 803e a4e4 debd 831b 983d
00000110: 28e0 753e b348 b6be 7424 073d a625 51be
00000120: b513 1c3e bb89 05be 44f0 52be 8f9e 183e
00000130: 980c 833e fd4f 883e ea3b bebd ba9f 8b3e
00000140: 12d2 84bc be1b 8cbe 356c aebd 1e05 3c39
00000150: be31 9abd d38f 4d3d c041 e3bc 4c55 4ebe
00000160: 823b 97be 92f3 cd3d e2c5 e93d 461e c73c
00000170: fa53 bf3c 2e6b 6fbe 436e 1fbe 2e64 f33d
00000180: 7430 65be 0703 c8bd 7699 803e dd28 9cbd
00000190: b19e b03e bbe9 403e 40bb 95be ba90 f3bd
000001a0: 77ac 663e 903e 4c3e cf11 ad3e 0f7c b33e
000001b0: 4693 a03e a304 ef3d 2822 b93b a45c 2c3e
000001c0: 81da ab3d 39b0 773e c4da 0ebe 6473 6dbe
000001d0: c4ab a9be db36 b73e 5d20 b23e fa74 263e
000001e0: 16f7 6a3e 35ff d5bd 8d4b 96bd f487 b0be
000001f0: de84 963e ab5e 96be ec39 743e cd32 0fbe
00000200: b4cb 043d bc8e adbe ddfd 84bd 2191 b03e
00000210: efe6 d33d 1814 27be 90e5 fabd dff5 0b3d
00000220: a251 353e 6ed5 873e 5a61 52be 9b5c a83e
00000230: ea05 a13e 72f6 1fbe 4a96 a0be a046 5e3e
00000240: 03f7 b5be 3ac2 54be 7c20 2c3e b9fc 8c3e
00000250: 03aa b1be 4042 86be 73a7 373d 54d8 8a3d
00000260: da2c 8c3e 2a04 32be e999 29be 686c a2be
00000270: fd0b d3bd f9d0 dfbd abe0 5d3e e1dc 4bbe
00000280: 1e91 163e bff7 bb3e 09a8 893d 8fa9 10be
00000290: aec2 423e a7ad 653e 3ffb b93e 46c2 37bd
000002a0: 7c01 a73d 4730 443d fe55 b2be 4e75 32be
000002b0: b055 893d ab00 b03d be07 793e 9807 81be
000002c0: 5ed6 c73d ada3 753d 3f2c 12be 6b73 eebd
000002d0: 4f91 a1be 3bb1 873e d837 e53c 932e bcbd
000002e0: aa8c 0abe e760 983e 8fb9 403e 2a7a acbc
000002f0: a184 6abe e91c bb3d e49c 5c3e e380 d6bc
00000300: ed01 86bd 5c4c 8a3e d5f3 943e 88f2 9d3e
00000310: 84a9 9b3e 4372 72be 556b d9bd 14b3 17bd
00000320: f958 8ebd b8b3 e43d edac b5be 1f3a 66bc
00000330: 5c4c a73e 58a9 883e 1200 673d c1f4 b1be
00000340: 7b1f be3d eb3c 40be 679d a13d f8fd b63e
00000350: 63a2 41bd d9c4 c63c de3c 493d d01c 04be
00000360: 1a13 c5bd 1236 b73e c55c 19bd dba4 95be
00000370: c16f 773d d5e6 563e 87e8 87be 4300 fc3d
00000380: 7eb9 a6be 01a3 94bd dcea cfbb e176 03bc
00000390: 5fe7 453d e36a c0bc d626 3b3e fbce aa3e
000003a0: e81c 32be ff90 52bd 72bc 32bd 9dd0 84be
000003b0: 0290 bbbe c46b 83be ce73 cc3d 0cb0 6e3e
000003c0: 585f 753e 2adc 01be 4ede 3a3c 83e3 153e
000003d0: 1164 c4bd 3b55 243e f470 6fbe b5a0 833e
000003e0: a993 cebd 927e 3bbe aa0c 17bd c474 2b3e
000003f0: 9a3c 533e fdf9 07be 8f23 24be 2982 b7be
-0.22341748 -0.22486696 0.11423032 -0.27557594 0.26613432 0.32577455 -0.103083804 0.24136177
-0.23690817 0.21613206 -0.14443432 0.07669677 0.098800965 0.2774944 -0.27125096 -0.073369786
-0.3329738 0.007334042 -0.19367906 0.31024763 0.02880029 0.27596763 0.15854616 -0.25126338
0.36077142 0.25538114 -0.30364498 -0.306816 0.19015132 0.25683084 -0.118682146 -0.28391767
0.36877266 -0.04245952 0.1532351 -0.25299808 -0.2724093 0.12945254 -0.22282133 -0.29383814
0.13135202 -0.2378842 -0.013285321 -0.004348783 0.1681814 0.008662535 0.05648418 -0.2017399
-0.26046887 0.23973836 0.22194771 -0.09821909 0.2621932 -0.24645682 -0.0071025887 -0.18012671
0.06870405 -0.07623015 -0.01985236 -0.021806456 -0.11278255 -0.051947396 0.09116701 0.21227835
-0.14011435 0.25035554 -0.108834535 0.074271224 0.2401129 -0.3560234 0.03299375 -0.20424518
0.15241893 -0.13040821 -0.20599467 0.14904235 0.25595546 0.26623526 -0.092887715 0.272703
-0.01621345 -0.27364916 -0.085167326 0.00017930983 -0.07529019 0.05018599 -0.027741313 -0.20149726
-0.29537588 0.10056223 0.11414696 0.024306428 0.023355473 -0.2338073 -0.15569405 0.11884342
-0.22381765 -0.097662024 0.2511708 -0.076249816 0.34496072 0.18839161 -0.29244423 -0.11892839
0.22526728 0.1994574 0.3380265 0.35055587 0.3136236 0.11670806 0.0056498237 0.16832215
0.08391286 0.24188317 -0.1395064 -0.2318855 -0.3313886 0.3578404 0.34790316 0.1625556
0.22945818 -0.104490675 -0.07338629 -0.34478724 0.29398245 -0.293691 0.2385022 -0.13984223
0.03242083 -0.3389796 -0.06493733 0.34485725 0.103467815 -0.16316259 -0.12250817 0.034170028
0.17706922 0.2653002 -0.20544949 0.32883152 0.31449825 -0.15621355 -0.3136466 0.21706629
-0.35540017 -0.20777217 0.16809267 0.27536562 -0.3470002 -0.2622242 0.044837426 0.067795426
0.2737797 -0.17384401 -0.16562618 -0.31723332 -0.10305021 -0.1092853 0.21667735 -0.19908477
0.14703795 0.36712453 0.06721503 -0.14127181 0.19019577 0.22429524 0.36324498 -0.044863008
0.0815458 0.047897603 -0.34831232 -0.1742756 0.06705797 0.085938774 0.2431936 -0.25201106
0.09757684 0.059970547 -0.14274691 -0.11643108 -0.31556174 0.26502404 0.02798073 -0.09188571
-0.13530222 0.2976143 0.18820785 -0.021054346 -0.22902156 0.091363735 0.21544224 -0.026184505
-0.06543336 0.27011383 0.2909228 0.308491 0.30402768 -0.236764 -0.10616175 -0.037036017
-0.06950564 0.11167091 -0.35483494 -0.014051943 0.32675445 0.266917 0.05639655 -0.34757045
0.09283348 -0.18773238 0.0789135 0.35740638 -0.047274005 0.024263786 0.049130313 -0.12901616
-0.09622784 0.3578344 -0.037441988 -0.29227337 0.06040931 0.20986493 -0.26544592 0.123047374
-0.32563394 -0.07257653 -0.006345136 -0.008023948 0.048316356 -0.023488468 0.18276533 0.3336104
-0.1739384 -0.05140781 -0.043636747 -0.2594041 -0.36633307 -0.25668156 0.099830255 0.23309344
0.23962152 -0.12681642 0.011405541 0.1463757 -0.09589399 0.16048138 -0.23382932 0.25708547
-0.10086758 -0.18310001 -0.03687731 0.16743761 0.20628586 -0.13278957 -0.1602919 -0.35841492

proj.bias f4 [32]
00000000: 302d 93bd 49d2 a3be ea6f 693e 0826 d23d
00000010: 16f0 01be 678f 223e 59de a9be d98a c13c
00000020: 4cf9 ab3e 1669 a8bc 9912 073e a8ba b0be
00000030: 0f70 acbd 3393 953e c7a4 39bd f719 5b3d
00000040: 45d2 b6bd 5456 233d 2224 bd3e 7686 053d
00000050: e7a8 59be b8d6 13bd e846 b3be c34e ab3c
00000060: 5765 a03e 13bd 253e ab56 b43e f629 323e
00000070: 811e 803d 55b7 273e 5110 623e 8250 a43d
-0.07186353 -0.31996372 0.22796598 0.1026116 -0.12689242 0.15875016 -0.3317745 0.023625778
0.33588636 -0.020557921 0.13190688 -0.34517407 -0.08419811 0.29213867 -0.04532316 0.05349156
-0.089268245 0.03987725 0.3694163 0.032598935 -0.21255837 -0.036093444 -0.35015035 0.02091158
0.31327316 0.16185407 0.35222372 0.1739882 0.06255818 0.1637853 0.22076537 0.08023168

EiLM.0.gamma_generator.weight f4 [1, 32]
00000000: 93f9 fa3d 1a06 18be cf5c 38be d22d e13c
00000010: 48ee e1bd 7e7e 2f3e 4c2e 1abe 14f4 44bc
00000020: 6f11 de3d 5ea4 9abd d909 7b3d a0c3 8bbd
00000030: 823b f8bd cfbb 043e f489 06be a3e4 b7bd
00000040: f869 9b3d 8392 d7bc c50c 693d 2126 febd
00000050: 1090 3bbe 8fe1 a43d dcb7 3a3e 646a 8cbc
00000060: c2d5 0abe 4e95 403d 03f7 3b3d 2d7d c43d
00000070: 9c11 34be bbbc e03d f253 353e 6ef6 4dbd
0.12254634 -0.14846078 -0.18004154 0.02748767 -0.11031777 0.17138097 -0.15056723 -0.012021083
0.10843169 -0.07550882 0.06128869 -0.06824422 -0.12120725 0.12962268 -0.13138562 -0.08979156
0.07588571 -0.02631498 0.056896944 -0.12409616 -0.18316674 0.080508344 0.182342 -0.017140575
-0.13558105 0.047017388 0.045889866 0.09594188 -0.17584842 0.109734975 0.17707804 -0.05028384

EiLM.0.beta_generator.weight f4 [32, 32]
00000000: 0b3a 613d c29d 343d 87c8 cdbd 3b4f a1bd
00000010: 93e3 b93d 73e9 63bd 8608 123e ec8f 20be
00000020: febb 213d 4fc4 10bd 56ae 05be 7e08 c23b
00000030: 96b8 dabd 3245 f3bc c29b 37bc 7bfb 723d
00000040: 7c70 013e 0ce0 0f3c 4b89 8b3d 12f8 1b3e
00000050: 52de 9cbd 3dac 33be 881f 56bd 7fd5 863b
00000060: cef9 fb3d e41b b7bd 5513 3f3e 3161 403d
00000070: 6e6e 1bbd 24af 27be bccd 2abe b3cb f7bd
00000080: 443e 3fbd 95ba e2bd be61 45be a701 01bd
00000090: 1f6f 25be 4084 18be 1bd5 1bbe 12cd fd3d
000000a0: 9018 973b 8651 40be e1a0 ae3d 94da dfbc
000000b0: f1b7 d53d 6444 31be 83c7 9fbd a47d 803d
000000c0: 566f 09be ac6e c43d 2c0c 2f3c f81c d0bd
000000d0: bb71 b83d f165 163d 140a 013e b633 83bd
000000e0: a787 503a b6d3 3cbd 5a0f 41be c781 18be
000000f0: fd76 28be f1a5 3a3e 8d62 913c 12b9 243d
00000100: 1c49 16be e98b 75bd a4db d9bc a864 e83c
00000110: a877 39be 0e3f de3d 9699 b93d b25b 09be
00000120: 8ff1 873d 694f 9cbd 7f19 1dbd acd5 7c3c
00000130: 1063 943d 56fe 09bd 9ad0 26be f43f 75bb
00000140: 65ab 17be b6d2 25be c483 d1bd 6f4c c03c
00000150: 7a25 14bd 065f f6bd 3105 213e a810 2dbe
00000160: f065 893d d037 503d 9b37 123c f76a 8abd
00000170: dd41 dc3d adf8 03be 4ce9 15bd 528c 773c
00000180: 778b ac3d 5674 b2bd ac25 13be c7af 22be
00000190: b72e 49bd 7ece 023d 0f63 c83c 105a 1a3e
000001a0: 080c 9bbd 8f5e d0bd c2b3 35bc 9c18 29be
000001b0: f565 c3bc 7be3 f53d 301e 5abb a178 ea3d
000001c0: eea0 15be ccf7 29be 1c71 003e 4603 38bc
000001d0: 663a bcbd b24e fe3d 07a9 9f3d 8ac8 9c3d
000001e0: 8bc0 ca3c c0f2 65bd 26fa babd 97c8 dcbc
000001f0: 526a f53c f1ba 7b3d d4f0 00be e10a b8bd
00000200: d895 dd3d 071a 18be b058 aebd 32eb 133e
00000210: ecdb 21bd e5a1 e8bc b425 27bb db2f cbbd
00000220: af05 693d 2d28 f33b 1c89 20be e9ef 04be
00000230: 50f2 63bd 7f0e 8f3d e7fc 27be 0c69 d9bd
00000240: 39fd 24be 4755 e5bd 9e78 7bbd 6878 9bbc
00000250: 5030 2fbe 9552 00be 8432 993d 7cd8 d53d
00000260: 68df 00be a095 a23b 4618 883d ab76 0e3e
00000270: 4a28 143e 971e e83d 894d 103e c150 df3c
00000280: d8b7 cfbd 6ceb 1c3e 3871 e4bd 06ef 6a3d
00000290: 7594 c63d 8ca9 a43d 3a4c 1cbe 7410 07be
000002a0: 7065 22bd cbeb 04be 19ed ff3b 674e 18be
000002b0: 8c40 72bd 50dd b5bd 4da0 d1bd 8f0e 84bd
000002c0: 2cbe b0bd cf07 2c3e cdca 0bbe 3906 7d3b
000002d0: 5f3d c53d 5f3d b13b 46bd 46bc f66c 2cbd
000002e0: 05cf 7dbd ff16 6a3d 3b90 4abd 5886 1abe
000002f0: b786 163d f9d2 36be 33b1 16bd e06d e8bd
00000300: 0512 24bc a403 07bc f43d 22be a1c8 04be
00000310: 2fb4 8abd a2f5 e6bd 50ae 9f3d 2025 123e
00000320: 0200 553d 9dde f23d 04de c8bd ea07 693d
00000330: 22aa b83c c2bc 3bbe 75b9 0d3e 9fae 0d3c
00000340: bdb1 f93d 65f4 243e 1840 4b3d d091 d23d
00000350: 95f0 40bd 485f e0bc 1ade 2b3e c6f6 723d
00000360: d646 bb3d 2964 203e b5be 8fbc 5e3e 43bd
00000370: 7f20 6c3d cf12 113e 1ac4 1ebe f3c9 bbbc
00000380: 9b4e 2d3e 8ab3 13bd 5f0b c83c 097f 90bd
00000390: d22e d9bd dc0a 923d c01b 04be dfc7 8ebd
000003a0: 6c90 a83c b432 2a3e 7380 b33d e660 2e3e
000003b0: d10c d4bd bc28 a93d d089 5e3d f138 1dbe
000003c0: 1d29 f5bd 15ca b13d c71d c13d 8d9c 1fbe
000003d0: 6625 003e 5aac f33b 66bd 01be 6cae 323d
000003e0: 232a 33bd c009 17bd 0c5b f53d 3914 c93c
000003f0: 747a af3b 098a 8c3c cffd 003e 95c3 39be
0.054986995 0.044095762 -0.10048013 -0.0787644 0.090766095 -0.055642556 0.14261064 -0.15679902
0.039485924 -0.035343464 -0.13054785 0.0059214225 -0.10679738 -0.02969608 -0.011206569 0.05932186
0.12640566 0.008781444 0.06813296 0.1523135 -0.07659592 -0.17546172 -0.052276164 0.004114806
0.12303506 -0.089408666 0.18659718 0.04696769 -0.03794711 -0.16375405 -0.16680044 -0.120993994
-0.04669024 -0.11070744 -0.19275567 -0.031495716 -0.1615567 -0.148942 -0.15218012 0.1239263
0.0046110824 -0.18781099 0.08526779 -0.027325906 0.10435475 -0.17311245 -0.07801726 0.06273964
-0.13421378 0.095914215 0.010684054 -0.10161775 0.09006067 0.036718313 0.12601501 -0.064063475
0.0007954784 -0.04610034 -0.18853512 -0.14893256 -0.1645164 0.18227364 0.017747188 0.04021556
-0.14676327 -0.05994788 -0.02659399 0.02836831 -0.18112051 0.108518705 0.09062497 -0.13413885
0.066378705 -0.07632334 -0.038354393 0.015431803 0.07245457 -0.03368982 -0.16290513 -0.0037422152
-0.14811476 -0.16193661 -0.102302104 0.023473946 -0.036168553 -0.12029843 0.15724637 -0.16900885
0.06708896 0.050834477 0.00892439 -0.06758683 0.1075475 -0.12887831 -0.036599442 0.015109139
0.08425038 -0.087135956 -0.1436984 -0.15887366 -0.049116816 0.031935208 0.024461297 0.15073419
-0.07570654 -0.101742856 -0.011090221 -0.16513294 -0.023852328 0.12006279 -0.0033282153 0.114487894
-0.14612171 -0.16598433 0.12543148 -0.011231249 -0.09190826 0.12417354 0.07795911 0.07655437
0.024750015 -0.056139708 -0.09129743 -0.026951117 0.029957924 0.061457578 -0.12591869 -0.0898645
0.10819596 -0.14853679 -0.085130095 0.14445189 -0.039516374 -0.02839751 -0.002550465 -0.09921237
0.056890186 0.007420561 -0.15677303 -0.12982143 -0.05565101 0.06985187 -0.16405068 -0.10615739
-0.16112222 -0.11197906 -0.061394326 -0.018978313 -0.17108274 -0.12531503 0.07480338 0.10441682
-0.12585223 0.0049616843 0.06645255 0.13912456 0.14468494 0.113339595 0.14092077 0.027260186
-0.10142487 0.15324181 -0.11154407 0.057356857 0.09696285 0.08040151 -0.15263453 -0.1318987
-0.03964752 -0.12980573 0.0078102467 -0.14873658 -0.059143588 -0.08880103 -0.10235653 -0.06448089
-0.086300224 0.16799854 -0.13651581 0.0038608445 0.09630846 0.0054089273 -0.012130087 -0.0420961
-0.061965007 0.057150837 -0.049453955 -0.1509031 0.036749568 -0.17853917 -0.036790084 -0.11349082
-0.010014062 -0.008240614 -0.15843946 -0.12967159 -0.067726485 -0.112773195 0.07796919 0.14271975
0.05200196 0.11858866 -0.09807971 0.056892313 0.022542063 -0.18333724 0.13840277 0.00864759
0.12192104 0.16108854 0.04962167 0.10281718 -0.047104437 -0.027389184 0.16783944 0.059317373
0.0914437 0.15663208 -0.01754699 -0.0476669 0.05764818 0.14167331 -0.15504494 -0.022923445
0.16924517 -0.036059894 0.024419485 -0.0705548 -0.106046334 0.071309775 -0.12901211 -0.06971716
0.020576678 0.16620904 0.08764734 0.17029151 -0.10354007 0.082597226 0.054330647 -0.15353753
-0.11970732 0.08681122 0.09429508 -0.15587063 0.12514266 0.0074363174 -0.12669906 0.043623373
-0.043741357 -0.036874533 0.119802564 0.024545776 0.0053551737 0.017155664 0.1259682 -0.18141015

EiLM.1.gamma_generator.weight f4 [1, 32]
00000000: 66c5 9cbc fbd1 19be fa71 37be ff28 f43d
00000010: 9816 d03c 999a aabc e769 be3d fa64 d2bd
00000020: f629 07be 347d b3ba eb64 c93c 2de4 abbc
00000030: 1699 333e 679b 0b3e 6311 14bd 3e17 3bbd
00000040: b788 903d 82c2 0fbe 507c 5cbd d26b f43d
00000050: c034 bb3d be67 203d cc8a 273e fbd6 85bd
00000060: 74e0 ac3d 0442 4a3d 2b1c 38bd 4999 8a3d
00000070: 6ce4 fcbd 232b 3d3e c3f3 e73d 5db9 5b3d
-0.019137096 -0.15021507 -0.17914572 0.11921882 0.025401399 -0.020825671 0.09297543 -0.10273166
-0.131996 -0.001369393 0.024584254 -0.020982826 0.17538866 0.136335 -0.036149394 -0.045676462
0.07057326 -0.14039043 -0.05382949 0.119346276 0.09140921 0.039161436 0.1636154 -0.06535145
0.084412485 0.049379364 -0.044948738 0.06767518 -0.123482555 0.18473487 0.11325791 0.053643573

EiLM.1.beta_generator.weight f4 [32, 32]
00000000: 1f52 a23c c27e cd3d 93f4 633c a1e2 25be
00000010: 6162 2cbe bb57 043e 061c 42bb dde3 153e
00000020: e2c7 04be f0a2 383e 76a4 683d 11f3 153e
00000030: 6585 f7bd 7b21 443d e8b8 18bd b3fb 08be
00000040: 9dba d03c 58b2 1d3e 488d df3d 8141 313e
00000050: df79 75bd b824 d83d 32f0 30be 1796 123e
00000060: a525 22be 5593 0a3d 219b c53d 7d46 d6bd
00000070: 2b44 063e 9248 f5bd 3cde e4bd a5ae f5bc
00000080: 28ea 26bd f6ea 9ebc d7f2 30be b408 b3bc
00000090: a811 0f3e 2394 c5bd a94b ee3d 6894 313e
000000a0: 6d10 083c 3f82 02be e8e6 0bbe 2e96 3c3d
000000b0: 8849 09be f8ee 0dbe dfe3 3c3e 3db3 fa3d
000000c0: 0656 d63c aade 15be 86eb 08be f7c6 f6bd
000000d0: 2c26 90bd e48b e43d db28 5ebd 4fff 75bd
000000e0: c21c 213e 7193 60bd 5ac7 bcbd a7b7 cd3d
000000f0: 6328 2e3e b98b a2bd 9b6d 52bc 4891 863d
00000100: 49a1 d7bc 6b11 733d b8d3 03ba 0128 11be
00000110: ecb5 143d f151 293e 9cac 803d 83de 7fbd
00000120: 3dcf 9ebc 3295 bdbd 0e14 cdbd 0148 2abe
00000130: 4d51 bfbc 36e1 0bbe ba36 173e 4faf 08be
00000140: 182a 0b3e 74cf d4bd 90fc 133e d222 2d3e
00000150: cb58 073d 39e5 963b 9e47 c23d edf5 15be
00000160: 7685 e13d 8680 a8bd 8b2a 083a fd94 4fbd
00000170: 45d1 95bb 5e24 a73d 109a 8abd e797 2ebe
00000180: da72 a53b b38b 13be 47de 30bd b473 373e
00000190: fb53 23be ee8c 7abd 9923 3a3d 5b15 2d3e
000001a0: 5d83 64bd f123 f53d 5e6e 0b3e 4449 073e
000001b0: 2008 cb3d 0bdd 9ebd b9b9 49bd 979e 9fbc
000001c0: 531e 50bd 7808 45bd b795 27be 3b57 a73d
000001d0: 969c 443c d547 653d f4c7 323e 72d1 64bd
000001e0: 9189 9bbd c959 233e ecb9 35be 9b79 8bbd
000001f0: 1ff9 503d 8363 9cbd 8a9a 22be 9ce4 e5bd
00000200: c161 7a3d 7986 1fbd 0c3a adbd dd70 8e3d
00000210: 1d66 75bd d60d c4bd a25b ed3d 05ac 573d
00000220: 3850 20be c9e9 29be 24bc 1cbe 0a62 a13d
00000230: fded 86bd e1bc b23d 0ef6 1dbe 5c06 3d3e
00000240: b396 ad3c 0530 2b3c ad26 4e3a 067d 03be
00000250: 47b0 23bd fa2a 09be b843 df3d bc3c 4abd
00000260: 03f1 87bd 1504 fbbd b769 123e e3e8 d53d
00000270: 67d2 113d 0f98 8c3d 6433 b9bd 6a96 c93c
00000280: 53c8 35be 925e 7b3c c0e5 233e 9dca 143e
00000290: 296b f4bd 97f0 a63c 9a89 293e 6b96 b83d
000002a0: c8a1 33be c75d 1cbe d2f2 853d 3a1b e13c
000002b0: 38f2 aebd 4d8f 663d 181b 1ebe 2cb1 9dbd
000002c0: a8a6 1ebe b44e 293e 53e6 413d 080a 38be
000002d0: 5ad4 163e 2d83 efbc b38c 61bd 77e5 053e
000002e0: 73f9 18be 6754 70bd 130d 1cbe cc7b d13d
000002f0: 5c89 5fbd f7ea ff3c 09e4 b03d c7b7 973d
00000300: 903b 0e3e 1f39 aebd 5ecc 81bd 3ff5 33be
00000310: 790d a4bd 3e8e b9bd 9464 82bd 5075 2c3e
00000320: 0606 03be a46c 803d a778 ec3d 49f6 8dbc
00000330: 530c cebd e423 1c3e bf00 403e cb7c 473c
00000340: c12c 21be 1b19 91bd e69e cc3d 3270 9a3d
00000350: d11a 81bc c5b7 edbd c9dc e6bd fd09 97bd
00000360: 3389 abbd 684d af3c b899 8bbd 36ea 1e3e
00000370: 4492 18bb c750 7a3d a667 f8bd c4fe 243e
00000380: e061 22be d4bf 3ebc 7cd3 3abc 5912 e4bd
00000390: 223d 373c 9528 57bd 7f0a fb3d e842 8dbd
000003a0: f318 79bd a0d3 bb3d 0895 b4bd 62de 0ebc
000003b0: 10ee 33be 803f 0cbe b595 9ebb cb7f f0bd
000003c0: 3247 06be 7161 82bd a82f 21be bc36 73bd
000003d0: c743 67bd ab83 1ebe bd64 27be 74e4 2b3e
000003e0: 17e3 07be b558 0abe ac05 0dbe 3b67 a83c
000003f0: b0d6 a13d f097 1cba 08f8 f7bd 3b29 a0bc
0.019814549 0.10033943 0.0139132915 -0.16199733 -0.16834404 0.12924092 -0.0029618754 0.14637704
-0.12966874 0.18030906 0.056797467 0.14643504 -0.1208599 0.047883492 -0.037285715 -0.13377266
0.02547961 0.15400064 0.10915619 0.17310144 -0.05993068 0.105538785 -0.17279127 0.14315067
-0.15834673 0.033831913 0.09648729 -0.10462663 0.13111942 -0.11976732 -0.111752 -0.029990504
-0.040750653 -0.019399147 -0.17280136 -0.021854736 0.13971579 -0.096473955 0.11635525 0.17341769
0.008304697 -0.12744997 -0.13662302 0.04604166 -0.13406956 -0.1386069 0.18446301 0.12241218
0.026164066 -0.14635721 -0.13371095 -0.12049668 -0.07038531 0.111594945 -0.05423818 -0.060057934
0.15733626 -0.05482811 -0.09217711 0.100447945 0.17007594 -0.07936806 -0.012843515 0.06570679
-0.026322024 0.059342783 -0.0005028802 -0.14175417 0.036306307 0.16535164 0.062829226 -0.062468063
-0.019385928 -0.092569724 -0.10013591 -0.1662903 -0.023354197 -0.1366013 0.1476697 -0.13348125
0.13590276 -0.10391131 0.14451814 0.16907814 0.033043664 0.004604962 0.09486316 -0.14644594
0.11011784 -0.08227639 0.00051943277 -0.050679196 -0.004572066 0.08161233 -0.06767666 -0.17050134
0.0050490918 -0.1440876 -0.04318073 0.17915231 -0.15950005 -0.061169557 0.045444105 0.16902678
-0.05578934 0.11969746 0.1361632 0.13211542 0.09913659 -0.07757004 -0.049249385 -0.019484801
-0.05081017 -0.04810378 -0.16365705 0.08170935 0.012000224 0.055976707 0.17459089 -0.055863805
-0.07594598 0.15952219 -0.17746705 -0.06810304 0.05101883 -0.07636168 -0.15879264 -0.112252444
0.06112838 -0.038946602 -0.08458337 0.06955121 -0.059911836 -0.095729515 0.11589743 0.052654285
-0.15655601 -0.16593088 -0.15306145 0.078800276 -0.065883614 0.08727432 -0.15425894 0.18459457
0.021190023 0.0104484605 0.00078640395 -0.12840661 -0.039963033 -0.133953 0.10901588 -0.049374327
-0.06637766 -0.12256638 0.1429814 0.1044481 0.035601046 0.068649404 -0.09043005 0.024607856
-0.17752199 0.015342372 0.16005611 0.14530416 -0.11934502 0.020378394 0.16556397 0.09013065
-0.17542183 -0.15270148 0.06540455 0.027478803 -0.08542293 0.056289006 -0.15440023 -0.076998085
-0.15493262 0.16533929 0.047338795 -0.17972577 0.14729443 -0.029237354 -0.05506582 0.13075815
-0.14938907 -0.058674242 -0.15239362 0.102286905 -0.054574355 0.03123997 0.08637244 0.074080996
0.13889909 -0.08506989 -0.06337808 -0.17574023 -0.08010382 -0.09060334 -0.0636684 0.16841626
-0.12795267 0.062707216 0.1154645 -0.017329352 -0.100609444 0.15248066 0.18750285 0.012175749
-0.15739729 -0.070848666 0.09991245 0.07540931 -0.015759857 -0.11607317 -0.1127258 -0.07374952
-0.08375778 0.021399215 -0.06816429 0.15519032 -0.002328054 0.06111219 -0.12129144 0.1611281
-0.15857649 -0.011642415 -0.011402961 -0.11136312 0.011184009 -0.052528936 0.12257861 -0.06897527
-0.06081481 0.09171224 -0.08817488 -0.008720012 -0.17571282 -0.13696098 -0.004839624 -0.117431246
-0.13113096 -0.06366242 -0.15740836 -0.05937837 -0.056461122 -0.15479915 -0.16347022 0.16786367
-0.13270222 -0.13510402 -0.13771695 0.020557037 0.079022765 -0.0005973568 -0.12107855 -0.01955091

EiLM.2.gamma_generator.weight f4 [1, 32]
00000000: d3db e43d 7790 c7bd 394c 9c3d 6d8e 31be
00000010: 1e38 eabd 3f4b 07bd 26a0 aa3c 75bf bcbd
00000020: 4b70 363e cf14 05be 1d4a fe3d 1b2b 113e
00000030: d71b c4bd b0c0 f1bd 38ba 69bc 700c 3bbc
00000040: c782 1abc 0b13 95bd 2e51 663d ba14 b3bd
00000050: 1503 1cbe 5e9e d0bc 5ee3 f23d b370 13be
00000060: 0053 02be eeab 87bd 5e72 94bd fb1c 2d3d
00000070: 6deb 2fbe 4aa3 113e 2e82 ed3d 9dc7 b9bd
0.11174741 -0.09744351 0.07631726 -0.17339487 -0.11436485 -0.033030745 0.020828318 -0.09216205
0.17816274 -0.12996219 0.1241648 0.141766 -0.095756225 -0.1180433 -0.014265589 -0.01141654
-0.009430594 -0.07279023 0.056229763 -0.08744188 -0.1523555 -0.02546614 0.11859773 -0.1439846
-0.12726974 -0.0662459 -0.07248376 0.042263966 -0.17179652 0.14222446 0.115970954 -0.09071276

EiLM.2.beta_generator.weight f4 [32, 32]
00000000: 0027 95bc 3c56 fbbd 3f5a 9dbd 88e0 2bbe
00000010: ada2 35be 1818 0f3e 6f76 1e3e 7fb6 d33d
00000020: 6787 983c 7ed3 8ebb ef53 0dbd bf35 2a3b
00000030: 5a7d 1bbe fd57 f83d 0195 75bd 9664 1b3d
00000040: 08b4 cc3d 7edd 87bd 88f0 42bd 7d32 bcbc
00000050: 2fcd 1bbe 0028 0fbe 15d9 2bbe 4a59 1bbd
00000060: 07bc bb3d b467 29be 1c3c cabd e2d3 24be
00000070: 3f2a 24be bdd9 3dbe 1d51 043d 2b92 803d
00000080: f801 0f3e 213d 3f3d 6afa 19be 406c 64bd
00000090: e5d1 373d c2e8 d9bd 06e7 bd3d a390 d93d
000000a0: 248a 883c f5c8 f93d 4230 adbd 8fcf 07be
000000b0: 09dc 183e 4014 943d 53e1 0dbd 8c8b 483d
000000c0: 9172 15bd fc4e f9bd d530 c43d 2dc4 2b3c
000000d0: c297 f9bd 8f84 92bd 2a0f 17bd 6426 603c
000000e0: a0a8 6d3c a73d 26be 5fdd 05be ed6b 7b3d
000000f0: 9a5f cd3d 0442 83bc c2ef b3bd f751 553d
00000100: 79f5 78bd 339a d2bd fdff 283e 5ca2 003e
00000110: 1fef 15be 97fe f13d 755f 84bd 71db a53b
00000120: a44a 063e 8e72 00be 85d2 32be 35a7 0b3d
00000130: e7fd 17be 8da0 51bd 798e 19bd 3952 123d
00000140: 863c b23d 5f12 223e 850d ce3d ed5c 2c3e
00000150: aca1 153e 12ca 11be eba1 983d 9993 293e
00000160: 8502 fe3d 5323 fa3d f041 a9bd f2bd 673d
00000170: 1b0d ab3d 4724 463d c069 eb3d b32a 5fbd
00000180: 6f0e 473d d800 17be 7863 103e 9f3a bdbc
00000190: 9400 0bbd bf02 a8bd 012f 19be be7b 36bb
000001a0: 499a 2abe 928a ebbd 0b3d 643d 4624 123d
000001b0: f338 f23c cd4f b6bd 0c7c cb3d 2974 8fbd
000001c0: 1ac3 2a3e 07e8 0bbe dff8 4ebd fb39 bf3c
000001d0: b6c1 11bd 5e92 0e3e 26f5 dbbd 6ba3 b03d
000001e0: 41cb 0b3e 2e49 8a3d 30d1 3a3d 83ee 13be
000001f0: 3320 b7bd 7616 eabd f5d6 f13d ea6d 21bd
00000200: ee64 d9bc 6943 713d 749e 15bd 00bf 34be
00000210: 6656 0c3e a8df 3a3d 8f67 673d 05d0 2e3e
00000220: 0a4a 2f3e 4e3f 33bd f125 f0bd 59df 3cbe
00000230: 145e 3f3e 4013 c13d 29f9 cbbd b2c3 25bd
00000240: 93b1 1cbe 7c74 8f3d bcdb a7bd 70dd 963d
00000250: b857 513d 53db 96bd b1b0 83bd 167a 083c
00000260: 928a a93c 5f8d a53a 778e 23be 16b6 21be
00000270: 498f 993c ef98 1dbe 996d e53d e2a3 3a3e
00000280: 4609 c63c 1ca3 fcbd 1512 3cbd ead0 e53d
00000290: fbf6 1dbe 45fd 523c e2be d63d f52b 21be
000002a0: 42c4 b4bd 663e cf3d c0af 293e 8d16 ce3d
000002b0: fad5 9abd 09a1 f5bd 0a92 e4bd d4f4 223e
000002c0: d9e7 4fbd ccd0 86bd a2c2 023e 53cf fc3d
000002d0: 15b5 f5bd 6897 253e 25b8 263d 7441 4a3d
000002e0: 73b1 09be bc99 41bd 0de6 1c3e b783 28be
000002f0: ce20 b2bd 9241 813d 6509 03bd 6b62 0e3e
00000300: 818b 42bd 47eb 463d b1d9 01be b300 e9bd
00000310: 41ce 4a3c b663 c2bc 2af1 babd 2df9 b73d
00000320: e92b 23be d551 d53b 182c 1fbe a817 133e
00000330: 07a9 8bbd ad52 f2bd 1ca8 b43d 7386 783d
00000340: 3b2a 8b3d 9996 353e 1c61 c8bd 1b06 33be
00000350: b044 de3d eab9 cc3d 5165 553d 8f7f f5bd
00000360: 9a01 f4bd 1b4f 2a3e e6f6 29bd 3edb 2a3e
00000370: 48fa c1bd 13d6 ba3c a9f9 8a3d e87f 653d
00000380: 4f14 fa3d bc72 1c3e 9fed 65bd 71b9 993d
00000390: b0bd cfbc 8565 db3d b43b 743d bb34 163e
000003a0: 837b 27be 02bd 26bd a402 ae3d b804 3c3e
000003b0: f861 06be 69b2 ca3d 0d5d 1b3e f0ee 1bbd
000003c0: 28fd c43d ec14 10bd 47d6 d83d e88b 503d
000003d0: 4bd3 9fbd e915 d43d 5872 28bd 2365 35bc
000003e0: 4919 17bd e015 c6bd 9970 c63d 0bf3 1e3e
000003f0: 23c8 00be 0b73 26be c522 12be 503a 8bbd
-0.018207073 -0.12272307 -0.07683229 -0.1678487 -0.17737837 0.13974035 0.15474866 0.10337543
0.018619252 -0.004358708 -0.034503873 0.0025971977 -0.15184537 0.121261574 -0.059956554 0.037937723
0.09995276 -0.06634043 -0.04759267 -0.022973293 -0.1521499 -0.13980103 -0.16782029 -0.03792695
0.09166723 -0.16543466 -0.09874746 -0.16096452 -0.1603174 -0.18540092 0.03230392 0.06277879
0.13965595 0.046689156 -0.15036932 -0.055767298 0.044877905 -0.10640098 0.0927258 0.106232904
0.016667433 0.12196533 -0.0845647 -0.13262771 0.14927687 0.07230425 -0.034638714 0.048961207
-0.036486212 -0.12173268 0.095796265 0.010483784 -0.12187149 -0.0715419 -0.036879696 0.013681028
0.014505535 -0.16234456 -0.13072728 0.061382223 0.10028 -0.01602269 -0.087859645 0.05208012
-0.060780976 -0.102833174 0.16503902 0.12561935 -0.14641999 0.11816137 -0.064635195 0.00506156
0.1311441 -0.12543699 -0.1746312 0.034095008 -0.1484295 -0.051178504 -0.03748939 0.035722945
0.0870295 0.1582732 0.100611724 0.16832323 0.14612454 -0.1423724 0.074527584 0.1656021
0.12402824 0.12213769 -0.0826453 0.05657763 0.08352109 0.04837444 0.114947796 -0.05448408
0.04859775 -0.14746416 0.14100444 -0.023099242 -0.0339361 -0.08203649 -0.14959337 -0.0027844752
-0.16660418 -0.115010396 0.055722278 0.035679124 0.029568171 -0.089019395 0.099357694 -0.07004578
0.16675988 -0.1366273 -0.05053031 0.023343077 -0.035585128 0.13923022 -0.10740118 0.086249195
0.13651754 0.06752239 0.045609653 -0.14446454 -0.089416884 -0.11430065 0.11808578 -0.039411463
-0.026537385 0.058902178 -0.036528066 -0.17650986 0.13704833 0.04562345 0.056495246 0.1707154
0.17118087 -0.043761544 -0.11725987 -0.18444575 0.18688232 0.094275 -0.09959633 -0.040469833
-0.15302114 0.070046395 -0.08196208 0.073664546 0.051109046 -0.073660515 -0.064301856 0.008329889
0.020695958 0.0012630633 -0.15972315 -0.15792117 0.018745081 -0.15390371 0.11202545 0.18226579
0.024174344 -0.12335798 -0.045915682 0.11221488 -0.15426247 0.012877767 0.10485627 -0.15739425
-0.08826496 0.101193234 0.1657095 0.10062895 -0.07560344 -0.11993606 -0.11160667 0.15913707
-0.050758217 -0.065827936 0.12769559 0.123442315 -0.11997429 0.16171038 0.040702958 0.049378827
-0.13446598 -0.047265753 0.15322132 -0.16456495 -0.08697663 0.06311335 -0.03199138 0.13904731
-0.047496323 0.04856422 -0.12680699 -0.113770865 0.012378276 -0.023729187 -0.0912803 0.089830734
-0.15934719 0.0065099993 -0.15544164 0.14364493 -0.06819349 -0.118321754 0.08821127 0.060675096
0.06795164 0.1773323 -0.09784147 -0.17482798 0.10852945 0.09996398 0.052098576 -0.119872205
-0.11914368 0.16631739 -0.041495226 0.16685197 -0.094715655 0.022807157 0.067859 0.056030184
0.12210905 0.15278143 -0.056134816 0.07506073 -0.025359005 0.10712723 0.05962725 0.14668553
-0.1635571 -0.040707596 0.084965974 0.18361175 -0.1312331 0.0989731 0.15172215 -0.038069665
0.09618598 -0.035176203 0.10587745 0.050914675 -0.07803973 0.103557415 -0.04112467 -0.011071476
-0.03688935 -0.09672141 0.09689445 0.15522401 -0.12576346 -0.16254823 -0.14271076 -0.067982316

EiLM.3.gamma_generator.weight f4 [1, 32]
00000000: 281c 33bd 055d dabc 58ef a9bc 30c8 263e
00000010: f46c 43bd d80d 04be 306f d23d 04bb 213e
00000020: 7ac8 1cbe f233 fc3d 95ee 00be 6326 a43d
00000030: 63c8 02bd 51d8 a6bd 7e66 c73d e5db c0bd
00000040: ced3 2cbe 1854 c0bd 552b e6bd e65a e83d
00000050: 61e8 13be 9bf5 ecbc 6bba ac3d b2d1 173e
00000060: 629d 823d d8e4 3c3d 12a9 9abd 0012 ed3d
00000070: b571 1dbe 2042 f7bd 273c 02be 5c61 1ebe
-0.043728024 -0.026655683 -0.02074401 0.16287303 -0.047711328 -0.12895906 0.102751136 0.15793997
-0.1531085 0.12314595 -0.12591012 0.08015134 -0.031929385 -0.08146728 0.09736346 -0.094169416
-0.16877672 -0.093910396 -0.11238734 0.113454625 -0.14444114 -0.028925708 0.08433994 0.14826086
0.06377675 0.04611668 -0.07551779 0.11575699 -0.15375407 -0.12073159 -0.12718259 -0.15466827

EiLM.3.beta_generator.weight f4 [32, 32]
00000000: ab94 b7bd fe0a 413e 7454 eebd 68a8 14bd
00000010: 910e 7fbd 23db e5bc 8b69 b6bd 3809 713c
00000020: 6197 cbbd 464c 20be 1cd4 983d c0fa 1dbd
00000030: fca9 9b3d 2e47 4dbd 66f8 28be 6575 473d
00000040: be22 1b3e 37eb 28be 4735 d2bc 3dc7 47bd
00000050: 5e78 233e 53d5 9abd 0faa 80bc a7eb d73d
00000060: 3184 913d 4938 8abc ed42 1bbe 86b1 ddbd
00000070: 2ba6 acbb c5fb 43be ec36 3a3c 6a87 343d
00000080: 002b 9dbd ce39 2bbe 3aa4 ac3d 9862 f43d
00000090: 0d0a 35be d48e 18bc 30ca 983d fa8c 783c
000000a0: 6944 11be 51ee 243e 91a5 74bd 186f 4abd
000000b0: 3b9b 2a3e 2b6e 01be 0e74 f13d 4bfb 07be
000000c0: 7db5 d23c 248c 273e d7a9 c63d abf5 3b3d
000000d0: ad42 173d 2225 52bd 4435 c33d e25a c5bd
000000e0: 9689 e03d c7f7 e03c d8a1 c0bc 333b 2cbd
000000f0: 79d4 253e 6006 cd3d 86c7 ff3d 617d 99bd
00000100: 4b4f 103d 0c84 2b3e e585 2c3e a98e ca3c
00000110: 16e1 dd3d 346a 8fbd 0fd3 203d 3b6f 513c
00000120: 486e 583c 5ced a43d 0491 b1bd 2da9 393c
00000130: b9ba 8dbd 4bd2 09bc 6f08 2abe d192 21bc
00000140: 33e7 df38 583c ed3d f248 0abe b687 9abd
00000150: 36dc 6b3c 2fa8 ea3d 8e6d a4bd a366 c9bd
00000160: 9927 19be 969e 373d 97af dbbd 9630 14bd
00000170: 8c27 fe3b f631 28be da77 183e 8992 ffbd
00000180: d002 ba3d 4902 aebd fad7 d1bd 5eed c43d
00000190: 7642 67bd 8af1 fbbd 69ae 08be c14d 8e3c
000001a0: 50e0 54bd fa10 2fbd 8d94 22be 06af b6bd
000001b0: d39c 25bd 0fda 14be bc0d 573c 3590 e93d
000001c0: c7e4 dfbc 3913 ee3c c0c9 52bd 8ef8 30be
000001d0: 46ef 0bbe 4b75 c43d 2af8 913c 5bde 103e
000001e0: becc 0dbe a25b 243e 862d cb3d b1a9 1fbd
000001f0: 1c83 bbbd a399 1b3e a16f 493d 96a4 e03d
00000200: a1f6 d63d 8017 92bd 9038 713d 8493 7abd
00000210: 1f11 01be 051f 183e 2aae f1bd 227a 223e
00000220: 8107 c3bc ede8 ae3d a13c 283e 418e 3ebd
00000230: 7c3a 043e 1993 0bbe f5f9 10be 10f8 dc3d
00000240: 3662 d13d e12c dcbc 46f4 aa3d 4f40 163e
00000250: 6e12 273e d7d7 33be f414 5b3d 2d69 7fbd
00000260: 456f 183e bd88 13bd 797a 28be f9f2 41bd
00000270: 8341 b13d c2d6 2a3c d1e4 0e3e ad45 1f3d
00000280: a884 edbd 1721 2f3e b594 d73d 6b9d e5bd
00000290: ae0d 9e3d e6f0 073e 0055 953c f813 e03c
000002a0: 9e06 cb3b a4e8 6e3d 0403 2f3d 00fd 153e
000002b0: b770 dabd 585f 2abd 348a d53d 391d 4e3d
000002c0: 24b3 e7bc 159c 28be d9c3 1e3e 4092 21be
000002d0: e4b1 28be 0bb4 cdbd 57bd 2b3e 3e69 e03d
000002e0: 556e 3d3d 1e37 cfbd 5525 153d 231f febd
000002f0: ec11 3d3d b729 8b3d 9861 86bd 680e 483d
00000300: 3a3e 91bd 6222 283e d800 593d 3643 a8bd
00000310: 5329 acbc 92cd e13d 0f40 c73d 0515 12bd
00000320: 8a11 1dbe ba47 fd3d 9eb7 2c3e 5151 14be
00000330: 3531 97bd 6bf1 81bd 5c5d a03c 4dcb df3d
00000340: 5af8 6d3d a4ad fe3d 03ee 913d c605 b63d
00000350: 8be6 dbbd d156 1b3e c173 0b3e 36eb 433d
00000360: 26db 973b 30b9 4cbd 8b98 573d fca0 093e
00000370: a378 153e e37d 633d c4b1 9abb 412f f2bc
00000380: da10 3b3d 62fa 2a3e 81fc 3e3d fdcb d5bd
00000390: b49f f7bc bfdf e53d 2d2b dbbd f88f 3e3d
000003a0: 868a c93d 1097 973d dc49 d0bd 79f0 f33c
000003b0: 3044 a43d 5317 ed3d f1ab a2bc c1ca 01be
000003c0: dda5 10be 563c 0cbe 7995 043e 5dd6 963d
000003d0: 9864 17be f20a f3bd 1928 97bd 7c36 2ebd
000003e0: b169 d6bd 09c5 063e 61f9 bb3d c18e ddbd
000003f0: ecae cebd c278 37be 20f3 2ebe 4f21 9dbd
-0.08963903 0.1885185 -0.11637202 -0.036293417 -0.06226975 -0.028058594 -0.089068495 0.014711671
-0.099409826 -0.15654096 0.07462332 -0.038569212 0.07600781 -0.05011671 -0.16501006 0.04869594
0.15149972 -0.16495977 -0.02566017 -0.048773993 0.15963885 -0.075602196 -0.01570609 0.10542994
0.07105292 -0.016872542 -0.15162249 -0.108248755 -0.005268832 -0.19139011 0.011365633 0.044074453
-0.07674217 -0.1672127 0.08429761 0.11932868 -0.17679615 -0.009311397 0.07460439 0.01517033
-0.14186253 0.16106535 -0.05972821 -0.049422354 0.16660778 -0.12639682 0.11789714 -0.13279454
0.025721306 0.16362053 0.09700363 0.045888584 0.03692882 -0.051304944 0.09531644 -0.09636475
0.109637424 0.0274619 -0.023514673 -0.042048644 0.16194333 0.100109816 0.12489228 -0.07494617
0.03523187 0.1674959 0.16847952 0.024726229 0.10833947 -0.070026785 0.03926378 0.012782867
0.013209887 0.08053085 -0.08670238 0.011331839 -0.0692038 -0.008411954 -0.1660478 -0.009861664
0.00010676533 0.11583775 -0.13504389 -0.07545416 0.014395764 0.1145786 -0.080287084 -0.098340295
-0.14956512 0.044828974 -0.107268505 -0.036179148 0.007756179 -0.16425309 0.1488947 -0.12479121
0.09082568 -0.084965296 -0.102462724 0.09615587 -0.056459866 -0.12301929 -0.13347782 0.01737106
-0.051971734 -0.0427408 -0.1587698 -0.08920102 -0.040432762 -0.14536308 0.013125833 0.114044584
-0.02733077 0.0290619 -0.051461935 -0.17282316 -0.13665494 0.09592684 0.01781853 0.14147322
-0.13847634 0.1605058 0.09920792 -0.03898019 -0.091558665 0.15195327 0.049178723 0.10968892
0.104962595 -0.071333885 0.058891833 -0.061175838 -0.12604187 0.14855583 -0.11800797 0.15866902
-0.02380729 0.08540521 0.16429378 -0.046522383 0.12912935 -0.13630332 -0.14157851 0.10789502
0.102238104 -0.026876869 0.08347373 0.1467297 0.16315624 -0.17562805 0.05348678 -0.062356163
0.14886196 -0.036019076 -0.1645297 -0.047350857 0.086550735 0.010427179 0.13954474 0.038884807
-0.11597568 0.17102467 0.105264105 -0.11211666 0.07717453 0.13275489 0.018229008 0.027353272
0.006195857 0.058327332 0.042727485 0.14647293 -0.1066603 -0.041594833 0.10426751 0.050320838
-0.028283663 -0.1646579 0.15504397 -0.15778446 -0.1647411 -0.10044106 0.16771446 0.10957573
0.0462478 -0.10117935 0.036412556 -0.124082826 0.04615967 0.06795066 -0.06561583 0.048841864
-0.07091947 0.16419366 0.05297932 -0.082159445 -0.021015799 0.110255376 0.09729015 -0.035664577
-0.15338722 0.123671964 0.1686692 -0.14484145 -0.07382432 -0.06344875 0.019575767 0.109274484
0.058098175 0.12435463 0.07125475 0.0888782 -0.10737332 0.15169837 0.13618375 0.047831737
0.004634279 -0.049981296 0.05263571 0.13440317 0.145968 0.055539977 -0.0047208983 -0.029563548
0.045670368 0.16697076 0.046627525 -0.10439298 -0.03022752 0.11224317 -0.107015945 0.046524018
0.098408744 0.0740186 -0.101703376 0.029777752 0.08020818 0.11576714 -0.019857379 -0.12675
-0.14125772 -0.13694891 0.12947644 0.07365105 -0.14784467 -0.11867322 -0.07380695 -0.04253243
-0.10469378 0.131611 0.091784246 -0.10818244 -0.100919574 -0.17917159 -0.17084932 -0.07672369

Gate.weight f4 [4, 32]
00000000: 9a67 183e a116 9f3c 5fa2 8ebc c37a 103e
00000010: 6fc7 753d 5607 d8bd 2679 113e 1b2a 23be
00000020: 5a6d a43d c8f6 223e 2187 103e cae8 573c
00000030: 7c41 d0bb 9791 e3bd 9d8b d8bd 9eb0 56bd
00000040: 0020 d93d e469 a7bd ff34 3bbd 05a7 0bbe
00000050: 9789 05be 0cfa cabc 8387 8fbd 7ac3 0dbd
00000060: cc05 b03d 96f7 1a3e 1571 07be df6c 5bbd
00000070: 3504 3cbe ec13 323e 292f 6cbd 0a56 1fbe
00000080: 0c5a 0b3e 5247 e2bd 658e 283e ad0b 08be
00000090: d0d6 f8bd 56da a73c 36e5 053d cf65 f6bc
000000a0: d7ca d53d ffc9 dc3d c294 103e 28c1 c3bd
000000b0: e9ed 13bd ffe5 46be babc 913d 9eff 063e
000000c0: 7da6 cabd 2594 453d 300a 803d c5cc 143e
000000d0: 23b5 ee3a 061c 593d 925b 793c 02b7 64bc
000000e0: f166 16be 386a a83d 25bb 11be 0a4d f8bc
000000f0: f8ef c23c 6063 eb3d 1366 ddbd 25de 9c3b
00000100: d8f1 bc3d 925a 24be 0bce 8a3d 2af5 0b3e
00000110: 7f86 bcbc 1fbc 35be 5c37 033d 77fa 133e
00000120: 8967 0a3e 7796 9d3d 4f24 0dbe c673 aa3c
00000130: 7fab fabd 8c42 b6ba 1d75 363e d3f5 a5bd
00000140: 9cc6 a43d be82 383e a160 0fbe 4e04 963c
00000150: 601f c43d 090f e03d 46b5 aa3d 7df2 23ba
00000160: 6f1f 95bd 6a0f 98bd 9230 46bd a861 193e
00000170: f414 f0b9 9370 b73c 2981 eebb 18b8 fabd
00000180: bd44 c1bd 2ffe db3d 977d bbbc f791 183e
00000190: 012e d23d b2ac 93bd 7d73 cebd de8f 9dbd
000001a0: cdba 85bd 7ee3 3ebd d876 b8bd 36fb 153e
000001b0: f0a7 1f3e db4c 073e dd4f 8cbd 23b3 37be
000001c0: d87f 92bd f10e 0c3e cc23 04be 9eaf 12be
000001d0: 0aac a2bd cb6b 2ebe 2b90 21bd bdae 583d
000001e0: 1926 e73d 2b85 9d3d 53cd 1bbe bc38 38bd
000001f0: 75f2 f3bd f572 653d 3923 263e 6ffa 20be
0.14883271 0.01941997 -0.017411409 0.1410933 0.060004648 -0.10548274 0.1420637 -0.1593403
0.0802867 0.15914452 0.14114048 0.01317806 -0.0063554626 -0.111117534 -0.10573504 -0.05241453
0.10601807 -0.08174494 -0.045704838 -0.13637932 -0.13040768 -0.024777435 -0.07008269 -0.03461025
0.08594856 0.15133509 -0.13226731 -0.053570624 -0.1836098 0.17390412 -0.057662163 -0.15560165
0.13608569 -0.110487595 0.16460569 -0.13285704 -0.12150347 0.020489853 0.032689296 -0.030077843
0.10439079 0.10780715 0.14119247 -0.09558326 -0.03611556 -0.19423674 0.07116075 0.13183448
-0.09895036 0.048236985 0.06251943 0.14531238 0.0018211942 0.05300524 0.015219586 -0.013959648
-0.14687707 0.082233846 -0.14231546 -0.030310173 0.023796067 0.11493564 -0.10810485 0.004787224
0.092258155 -0.16050175 0.06777581 0.13667741 -0.023013351 -0.17747544 0.032035217 0.14451014
0.13516058 0.076947145 -0.13783382 0.020807158 -0.122397415 -0.001390533 0.17818113 -0.08103528
0.08045694 0.18018624 -0.14001705 0.0183126 0.09576297 0.10940368 0.083353564 -0.000625409
-0.07281386 -0.07424815 -0.048386164 0.14978659 -0.00045791978 0.022392547 -0.0072785807 -0.12242144
-0.09436939 0.10741841 -0.022887034 0.14899431 0.10262681 -0.072106734 -0.100806214 -0.07693456
-0.0652977 -0.046603672 -0.09007043 0.1464661 0.15591407 0.13212912 -0.0685117 -0.17939429
-0.071532905 0.13677575 -0.1290428 -0.14324805 -0.0794297 -0.17033307 -0.03944413 0.05290102
0.112865634 0.076914154 -0.15215044 -0.04497598 -0.119114794 0.056017835 0.16224374 -0.15720533

experts.0.gate_proj.weight f4 [32, 32]
00000000: feb6 1dbe a5f0 093e e8c0 123d 2507 a0bc
00000010: d5b5 e83d 6a34 6a3c bb26 943c 02d8 45bd
00000020: cd72 853d 0093 38be 8454 0fbe dd00 363e
00000030: 038b d13c 72e9 09bd b055 72bd d81b 043e
00000040: beee 203e 7ec7 20be c51e 2bbd 5fb8 14bd
00000050: a5cd c8bd d665 d33d cdfc 1d3e d541 02be
00000060: 775f d4bd 7d4d ea3d eb47 1abe 9278 18be
00000070: e392 253e 3bdc a1bd 422e 693d 6bbd c4bc
00000080: b2f3 103e 40c3 d53d a99e fb3d a953 24bd
00000090: 6eef 36be bd8d 243e 371c 1e3e 613c 603c
000000a0: 96a2 293e eb70 e03d 7ea5 c7bd 8de1 a5bc
000000b0: aea0 a6ba f417 be3d cbde 503d 28ca 1fbe
000000c0: ff48 113e ee3a c53d c2da e33c 7fbd e43d
000000d0: bfca 0f3e 8c5f 133e e0f8 c7bd e54d b2bc
000000e0: 1c58 cdbd eb31 873c 0ec1 1f3e 737c 03bd
000000f0: 6d4f 283e 6c3e 203e 55f5 ebbd 78f4 8abd
00000100: 7ca0 98bd 8ca7 1c3c ca51 e2bd 2ddb 2fbc
00000110: d497 293e 6b67 08be 168a 0c3d d504 4a3d
00000120: 31b9 09be c409 4fbd e6bb a7bd b7ec 5dbd
00000130: 28d4 1dbe 5947 bf3d e08d 423d 67bb 3a3d
00000140: 7d63 8abd 1851 a4bd 62c4 243e 1da3 2fbc
00000150: 71be b0bd c6ef 283d e876 9a3d cca8 adbd
00000160: fb0b afbc 9bd3 3d3d 54c6 38bd 4dbe c7bd
00000170: 6403 e93d 815f da3d de80 513d b07a f43d
00000180: 0fad 5c3d 4a00 73bd d915 3dbd f573 8abd
00000190: 8545 143e 85f2 15be 3abd 58bd 1674 343c
000001a0: 7396 4bbd 060f 9abd 6dbd e4bd bad3 0c3d
000001b0: 7461 053e c959 af3b 873f b3bd 92b2 e6bd
000001c0: de86 283e 2950 6a3d cdd8 323e 44e4 d73c
000001d0: 1b29 07be 5ca8 d5bc e894 20bd 9ed0 06be
000001e0: 2e03 eabd 97ef db3d 65a1 8e3d 6716 123c
000001f0: 9bdb 2dbe 3fc2 27be 5fb7 39bc 22a2 f83c
00000200: 6a6f bb3d c4be 703d 47c1 bc3c ee0d 04be
00000210: 76b2 013e 989d 11be 5345 223e ae91 013b
00000220: daf7 f33c a149 62bd fdd5 9abd d2ae 123e
00000230: 543c fbbc 012b cfbd a3bf 92bd 9223 853c
00000240: d58a bfbd 95d1 083e cd49 2bbd 5081 723d
00000250: 4d39 2a3e 0abf f9bd 3952 93bd e93f 2bbe
00000260: 664a 0f3e f239 793d fdab f93d 665b 2dbd
00000270: ba72 0abe cc75 27bc d447 0ebe 3413 24bd
00000280: 1939 133e 5642 15be 4da6 873d 4112 36bc
00000290: 9919 07be e2ec 953d 3203 f0bc 7862 dcbb
000002a0: 0b05 b53c bd92 a43d f768 c73d 196a 1b3d
000002b0: c70d 1b3e 80aa b63d c20b 7bbd 7c38 6a3d
000002c0: bbe0 193e 2b5a c43d d81f 66bd 8782 213e
000002d0: ef48 7fbd 57e5 863d bb05 283e 4c7c 0cbe
000002e0: 24da 313e 9d92 583d 74bd aa3d 508a 223e
000002f0: 2ad3 26bb bfb7 c5bd ed54 febd a76b 4dbd
00000300: 771a d73d a57f 0ebd 1c7d 093e a2fd 0ebe
00000310: bb09 ce3d f9a1 ff3d 1058 853d e0a4 163e
00000320: d145 0a3e 1a26 78bd 10ed 803d d28a 5fbd
00000330: e0d8 2b3e b187 063d 8187 f83d 39b0 eebd
00000340: bc36 3e3e 1853 793d e037 373e e2d6 353d
00000350: ef4e 873c 0af9 513d b7f8 fd3d 1bb4 eb3d
00000360: 56dd 08be b69c e53d ec7c 213e bc2d 53bd
00000370: 4970 163d 7b65 2d3e 90e5 533d 63e3 1b3e
00000380: 5a99 bd3d e5b1 b7bd 427d 2f3e d889 94bd
00000390: 04b6 13bd 255c afbb 82b7 053e 577f cf3d
000003a0: b388 aa3c dc2a 873d a344 22be 5fb1 03be
000003b0: f1d3 fbbc 5385 8b3d 9838 003e 2d85 e7bc
000003c0: 4c39 0f3e 0139 afbd 8a6a 373c a252 a7bd
000003d0: e214 0e3e 3410 743d 3498 0bbd 9c83 d7bb
000003e0: 1c71 23be 88a6 0dbb 26a4 75bd db84 98bd
000003f0: 95c4 123e e9fb 04be 875a 893d 9573 f7bd
-0.15401837 0.13470705 0.0358285 -0.019534657 0.11362807 0.014294723 0.018084874 -0.048301704
0.06516037 -0.18024826 -0.13997084 0.17773767 0.025578981 -0.033669896 -0.05916375 0.12901247
0.15716073 -0.157011 -0.04177739 -0.036308642 -0.098048486 0.10322158 0.15428467 -0.12720425
-0.10369771 0.11440561 -0.15066497 -0.14889744 0.16169314 -0.07903334 0.05692888 -0.024016103
0.14155462 0.104376316 0.122861214 -0.040118847 -0.17864773 0.16069694 0.1544045 0.01368627
0.16565928 0.109590374 -0.09748362 -0.020249153 -0.0012712681 0.092819124 0.050993722 -0.1560446
0.14188002 0.096303806 0.027814273 0.11168956 0.14042185 0.14391917 -0.09764266 -0.021765659
-0.10026571 0.016503295 0.15600988 -0.032101106 0.16436549 0.15648812 -0.11521403 -0.0678491
-0.07452485 0.009561431 -0.11050756 -0.010733408 0.16561824 -0.13320701 0.034311377 0.049321014
-0.13449551 -0.050546423 -0.08190136 -0.054180827 -0.15412962 0.0933978 0.047498584 0.045588877
-0.06757257 -0.0802328 0.16090539 -0.010720042 -0.08630074 0.04124429 0.07542211 -0.08479461
-0.021368017 0.04634438 -0.045111015 -0.09753094 0.113776 0.10662747 0.051148288 0.11937463
0.05387598 -0.059326448 -0.046163414 -0.06760398 0.14479645 -0.14643295 -0.052914836 0.011014005
-0.049704026 -0.07522397 -0.111689426 0.034381606 0.13025457 0.0053512794 -0.08752351 -0.11264528
0.16457698 0.057205353 0.17465515 0.026353963 -0.13199274 -0.026081257 -0.039204508 -0.13165519
-0.11426388 0.107390575 0.06964377 0.008916474 -0.16978304 -0.16382693 -0.011335223 0.030350748
0.0915211 0.05877568 0.02304138 -0.12895939 0.12665734 -0.14220273 0.15846758 0.001977067
0.02978127 -0.055246 -0.07560346 0.14324501 -0.030668415 -0.10115624 -0.07165458 0.016252313
-0.09352652 0.13361199 -0.04181843 0.059205353 0.16623421 -0.12194641 -0.07193417 -0.16723599
0.13993225 0.060846277 0.12191007 -0.042323492 -0.13520327 -0.010220956 -0.13894588 -0.040057376
0.1437725 -0.14576086 0.06623516 -0.0111127505 -0.13193358 0.073205724 -0.029298399 -0.0067256056
0.022097131 0.080358006 0.09736817 0.03794298 0.15141974 0.08919239 -0.06129051 0.057182774
0.15027134 0.09587511 -0.056182712 0.15772448 -0.062325414 0.06586712 0.16408436 -0.1371929
0.1736837 0.052874196 0.083369166 0.15873075 -0.0025455453 -0.096541874 -0.12418542 -0.050151493
0.10503095 -0.0347897 0.13426632 -0.1396394 0.1006045 0.12482066 0.06510937 0.14711332
0.13503195 -0.06058321 0.06295216 -0.05457575 0.1678195 0.03284425 0.1213522 -0.116547056
0.18575567 0.06087026 0.17892408 0.04439438 0.01651713 0.051262893 0.12400954 0.11508962
-0.13365683 0.11211531 0.1577031 -0.051557288 0.036728177 0.16933243 0.0517326 0.1522346
0.09257765 -0.089694776 0.17137626 -0.07252854 -0.036062256 -0.0053515607 0.13058284 0.1013171
0.020817136 0.06599972 -0.15846495 -0.1286063 -0.03074071 0.06812539 0.12521589 -0.028261745
0.13986701 -0.085557945 0.0111948345 -0.08170058 0.13875154 0.059585765 -0.0340807 -0.0065769684
-0.15961117 -0.0021614153 -0.059970997 -0.07447215 0.14332803 -0.12986721 0.0670672 -0.120825924
