output/FT-S-MoME/ts_encoder_epoch7.pt (torch, 376236 bytes, 34 tensors)

proj.weight f4 [32, 8]
00000000: dc1d 68be e19e 69be eabd e33d 17ac 8ebe
00000010: 71ca 863e 4165 a53e a290 d8bd 216f 743e
00000020: 3e97 6ebe 5767 613e d388 0fbe 9b16 a63d
00000030: dab5 d23d 3d0d 903e fa51 89be 007f 90bd
00000040: d821 adbe 5d9f ed3a f5eb 4bbe 052c 9c3e
00000050: 8c1a c13c 5fa3 8a3e 4b99 1d3e 62e5 82be
00000060: 0d37 ba3e 8e4a 843e daf6 99be 7f9b 9bbe
00000070: e3bb 453e 14fe 843e ee09 edbd a2eb 8fbe
00000080: 31d5 be3e d52b 1dbd 4413 213e c6fb 7ebe
00000090: e36f 89be 67a2 083e 1359 60be bda0 94be
000000a0: 966a 033e caf0 76be 81b8 85bc 7efe eabb
000000b0: 6d3e 293e 0046 bd3b d3bc 5b3d a380 51be
000000c0: 26b5 86be 56f2 723e 3d03 613e ffd5 cdbd
000000d0: 702b 853e 4373 7ebe 3013 17bc e091 3abe
000000e0: 6762 8e3d c888 9abd 4939 9fbc d2dd afbc
000000f0: 4655 e6bd 3c52 53bd d4fb bb3d f92a 5a3e
00000100: f411 13be 5b9d 7c3e 1a34 e6bd e2c8 903d
00000110: 5ab3 723e e3ce b7be 4b9b fa3c b36b 53be
00000120: d40b 193e 0aab 08be f9b7 55be 89ef 153e
00000130: 6cda 813e 9d2b 873e 313f c2bd ff9e 8a3e
00000140: e199 98bc a057 8dbe dcda b2bd 137b ffba
00000150: 2257 9ebd 5b87 453d 43c5 f3bc 6b6f 50be
00000160: 2496 95be eba5 d43d a31f f03d 134b e03c
00000170: 4d7d d73c 6f69 6cbe 919f 1cbe 84ff f83d
00000180: 0cf2 61be d56e c1bd 3e3f 823e 5f3b 95bd
00000190: 951b b23e 649c 433e 12b2 94be dedf efbd
000001a0: 47bc 693e 3f53 4f3e 6a81 ae3e 01e7 b43e
000001b0: 6eeb a13e 3150 f43d c0b2 063c 18ee 2e3e
000001c0: f6c0 ac3d d010 783e 4619 0fbe 81c1 6dbe
000001d0: eace a9be 1c16 b73e df37 b23e a6d3 263e
000001e0: bf4e 673e ff8c ddbd b094 9dbd f652 b2be
000001f0: 27c6 943e f216 98be bbd8 703e 358a 12be
00000200: 89db 053d c243 adbe 0678 83bd 02d0 b03e
00000210: cb7e d53d b625 26be 8721 f9bd cd47 0f3d
00000220: b2ae 373e 85fd 883e a75f 50be 6b5f a93e
00000230: 8ef6 a13e 0628 1ebe ec9d 9fbe e33a 603e
00000240: 2e9e b7be 551e 58be 4bfb 283e 1c70 8b3e
00000250: a731 b3be 49c8 87be a0a1 2b3d 8dee 843d
00000260: 9563 8a3e f3b0 35be bd54 2dbe 884a a4be
00000270: 968f dabd 602c e7bd 5741 5a3e 742d 4fbe
00000280: 55bd 173e 2980 bc3e 0d20 8b3d 13ec 0fbe
00000290: f688 433e 1570 663e 2485 ba3e 284d 33bd
000002a0: f67b 9c3d d719 2f3d fdff b4be ca06 38be
000002b0: 3442 7d3d 66c3 a53d 6934 743e 6b55 83be
000002c0: 67de c53d f76c 713d f0d4 13be 754b f2bd
000002d0: 9e78 a2be 23e8 863e f3fe d93c 7750 bebd
000002e0: 817a 07be 0ad9 993e 2964 433e 0831 97bc
000002f0: be0b 68be fce1 bf3d 7d02 5f3e 5564 c3bc
00000300: 61b0 7abd 9c83 8c3e 7046 973e 1c49 a03e
00000310: 06f9 9d3e e6d0 6dbe 7a82 d0bd d7cf 06bd
00000320: 69c1 90bd cf4d e23d 7f1c b6be 25c4 72bc
00000330: 12f1 a63e 874a 883e b88d 633d 3b70 b2be
00000340: 3217 c23d cf48 3ebe c21d a53d 42dc b73e
00000350: 4959 3abd 1a56 d53c c7c6 513d 5c05 02be
00000360: 8384 c1bd ce16 b83e 7196 13bd 42fb 94be
00000370: 00ca 7c3d 6339 583e 9823 87be 074a ff3d
00000380: 0f2e a8be 611b 9bbd f33f 24bc 6d04 3bbc
00000390: 4a67 383d 7be4 d8bc 5ac3 383e c5bd a93e
000003a0: b87e 34be c2c3 5bbd f3e2 3abd 97dd 85be
000003b0: 7595 bcbe 4e66 84be 204b c83d 19a7 6c3e
000003c0: abad 783e 6323 fdbd a990 6c3c ac04 193e
000003d0: ee73 bebd b737 273e bd93 6cbe f605 853e
000003e0: 2610 d5bd 55d5 3ebe 0d29 24bd 1745 283e
000003f0: 3c18 503e ba21 0bbe 373b 27be 48fe b8be
-0.2266764 -0.22814514 0.111202076 -0.2786567 0.26326326 0.32303813 -0.105744615 0.23870517
-0.23299882 0.22012077 -0.14017038 0.081097804 0.10288592 0.281351 -0.26820356 -0.07055473
-0.33814883 0.0018129159 -0.19914229 0.30502334 0.023572229 0.27077767 0.15390508 -0.2556563
0.36370125 0.2583813 -0.30071145 -0.30392072 0.19309954 0.25975096 -0.115741596 -0.2810946
0.37272027 -0.03837188 0.15730006 -0.24900731 -0.26843175 0.13343202 -0.21908979 -0.29028884
0.12833628 -0.24115291 -0.01632333 -0.007171451 0.1652772 0.005776167 0.053646874 -0.20459227
-0.2631008 0.23725256 0.21973892 -0.10050582 0.26009703 -0.24848656 -0.009220883 -0.1821971
0.069523625 -0.0754562 -0.019436495 -0.021468077 -0.11246733 -0.051592097 0.09178892 0.21305455
-0.14362317 0.24669401 -0.11240406 0.07069565 0.2370123 -0.3590003 0.030591628 -0.20646553
0.14945918 -0.13346496 -0.20870961 0.14642157 0.25361955 0.26400462 -0.09484709 0.2707443
-0.018628063 -0.27605915 -0.0873315 -0.0019491635 -0.07731463 0.04822479 -0.029757148 -0.20355003
-0.2921611 0.10383209 0.11724784 0.027379548 0.026304865 -0.23087095 -0.15295245 0.12158111
-0.2206499 -0.09444968 0.25438875 -0.07286715 0.34786668 0.19102627 -0.29042107 -0.11712621
0.22825728 0.202466 0.3408311 0.35332492 0.3162493 0.11929358 0.008221328 0.17083013
0.08435242 0.24225163 -0.13974485 -0.23218347 -0.33165675 0.35759056 0.3480825 0.16291675
0.22588633 -0.108179085 -0.076943755 -0.3482892 0.29057428 -0.29705006 0.23520176 -0.14310534
0.03268007 -0.33840758 -0.06419377 0.34533697 0.104245745 -0.16225323 -0.12164598 0.034980584
0.17937735 0.2675592 -0.20348988 0.3308061 0.3163342 -0.15444955 -0.31175172 0.21897464
-0.3586287 -0.21105321 0.1650211 0.2723397 -0.3499882 -0.26519993 0.041902184 0.064908125
0.270291 -0.17743282 -0.16926856 -0.32088113 -0.10671918 -0.11287761 0.21313988 -0.20232183
0.14818318 0.36816528 0.067932226 -0.14054899 0.19095215 0.22503693 0.36429703 -0.043774754
0.07640831 0.042749252 -0.35351554 -0.1797134 0.061830714 0.0809391 0.23848118 -0.25651106
0.096615605 0.058941808 -0.14436698 -0.118307985 -0.3173265 0.2634898 0.026610827 -0.09292691
-0.13230325 0.300484 0.19081177 -0.018455997 -0.2266073 0.09369275 0.21778293 -0.023851553
-0.061203364 0.2744416 0.29545927 0.31305778 0.30854052 -0.2322422 -0.101811364 -0.032913055
-0.0706814 0.11049997 -0.35568616 -0.014817272 0.32605797 0.2661936 0.055555075 -0.3485125
0.094770804 -0.18582462 0.080623165 0.3591023 -0.045495305 0.026042033 0.05121496 -0.12697357
-0.09449103 0.359549 -0.036032144 -0.29097944 0.06171608 0.21115641 -0.26394343 0.124652915
-0.3284764 -0.075735815 -0.010025012 -0.011414629 0.04502038 -0.026476135 0.1804327 0.33152595
-0.17626464 -0.053653486 -0.045626592 -0.26145622 -0.36832777 -0.25859302 0.09779954 0.23110618
0.24284999 -0.12360265 0.014438787 0.14943188 -0.092994556 0.16329847 -0.23103233 0.2598111
-0.10403471 -0.18636067 -0.04007821 0.16432606 0.20321745 -0.13587084 -0.16331182 -0.361315

proj.bias f4 [32]
00000000: 98a7 97bd fbc8 a3be de81 6b3e 4199 cb3d
00000010: 394f 03be b7e6 263e 7472 abbe a1bf c33c
00000020: a32d ab3e c83d bcbc b0e2 063e 9e19 b1be
00000030: fba1 a7bd b39d 953e c4ac 36bd 9309 613d
00000040: 2ad7 c2bd d6da 2a3d a051 be3e 349f 0f3d
00000050: 5219 59be 0778 1dbd d99b b3be 8ec8 ba3c
00000060: 1fa9 9f3e 3c3f 263e 0e42 b33e 90c6 303e
00000070: f0cc 843d 9f7e 263e 4e19 633e fd0c ab3d
-0.07405013 -0.31989273 0.22998759 0.0994134 -0.1282319 0.16298948 -0.33485758 0.023895087
0.33433256 -0.022978678 0.13172412 -0.34589857 -0.08185192 0.29221877 -0.044598356 0.05494077
-0.095136955 0.041712604 0.3717165 0.035063937 -0.21201065 -0.038444545 -0.3507984 0.02280071
0.31183717 0.1623506 0.35011333 0.17263246 0.06484401 0.1625924 0.22177622 0.08352087

EiLM.0.gamma_generator.weight f4 [1, 32]
00000000: c110 f93d 01e4 19be eb19 37be 40e4 ed3c
00000010: b4d3 dcbd f3f1 2c3e c144 18be 966e 2bbc
00000020: 3f76 db3d 170f 9bbd f225 783d 788a 8bbd
00000030: e032 fabd 7cd7 053e e139 05be 8959 bbbd
00000040: b887 9a3d 7cb3 c2bc 2e7e 763d 526a ffbd
00000050: 70ba 3dbe 455f a73d 5c7a 393e 267c 94bc
00000060: 7c66 0cbe 2b70 4c3d 09c4 343d c589 c43d
00000070: b74b 35be d927 e43d f68e 353e ce2d 54bd
0.12161399 -0.15028383 -0.1788098 0.029039502 -0.10782567 0.16889171 -0.14869978 -0.010463377
0.10715913 -0.075712375 0.060583062 -0.0681352 -0.12216735 0.13070482 -0.1301036 -0.09147937
0.075454175 -0.023767225 0.060178928 -0.12471451 -0.18528152 0.08172468 0.18113083 -0.018125605
-0.1371097 0.04991166 0.044132266 0.0959659 -0.17704664 0.11140413 0.17730317 -0.051801495

EiLM.0.beta_generator.weight f4 [32, 32]
00000000: e195 633d 69ea 483d 20f8 ccbd a72e a1bd
00000010: 9afb ba3d 42d5 59bd 2a0a 0f3e 417a 21be
00000020: 33f8 1b3d c112 0abd c047 03be b7b4 e83b
00000030: 2332 ddbd 2f8a efbc 1a4a 63bc b5a3 6c3d
00000040: 0fe4 023e dc3f 253c 80ec 853d 54f7 203e
00000050: 6054 9cbd a186 32be 4e42 62bd a51d b73b
00000060: 0482 fa3d bd29 bbbd c2e5 403e 1ba4 323d
00000070: 3caf 10bd 596f 2bbe a9db 29be a794 fabd
00000080: 8a2f 3bbd 2da7 e7bd 2def 45be ce81 05bd
00000090: 2aba 25be 967e 19be f011 1cbe 5b41 013e
000000a0: 87a0 c63b a889 41be 69f6 ae3d 4aef e7bc
000000b0: b202 d83d 5032 32be aeb7 a0bd 24da 823d
000000c0: 6d3d 09be 04f7 c23d 37f0 463c 3b76 d2bd
000000d0: ce16 b73d 6fc5 123d 5d1f 023e 26e2 87bd
000000e0: 451a 173b c5dc 3bbd a475 42be 49c3 16be
000000f0: ebb6 29be 5c9e 3c3e faba 8a3c 165b 283d
00000100: a41a 15be 46c6 68bd 6620 e1bc 503c db3c
00000110: c755 3cbe 3906 e33d 8df7 b53d 6175 08be
00000120: c152 893d 1dd1 98bd 08ac 0fbd 2ecf 7b3c
00000130: 8d59 943d 2d42 0ebd 3ab8 2abe 47f0 12bb
00000140: b776 14be 7ef8 27be fa41 d8bd 9fd5 da3c
00000150: 217f 0dbd c5bf f8bd 9e20 1f3e 9e73 2cbe
00000160: 69b4 8c3d 1881 463d 3170 223c 516e 8abd
00000170: 286b de3d 7abc 05be 7f52 1abd 4d86 743c
00000180: 06c0 a83d 4ab2 b7bd 330e 12be 2369 20be
00000190: e80a 45bd 0658 f43c b1a3 dc3c 5b47 1b3e
000001a0: eb1e 9bbd 64fc d0bd 34e5 50bc 9ab8 28be
000001b0: c5ab c9bc 1b96 f73d 8fa5 08bb f981 e93d
000001c0: 2ad4 16be edd0 29be 4951 023e af02 5ebc
000001d0: abdc bbbd e4df fe3d 3324 a23d 9d57 9c3d
000001e0: 71c4 c43c 0aca 62bd 3950 bebd 3ebb c8bc
000001f0: 2e87 ea3c 7437 803d 8f89 01be 2cf0 b9bd
00000200: f01f e03d 3a79 17be 2763 adbd 9037 133e
00000210: f849 26bd 0e3b ecbc e804 9ebb 557d c7bd
00000220: 9e54 6b3d 2f81 e83b 161e 1fbe f4bf 04be
00000230: 30b7 64bd bf9f 8f3d 2620 2abe e9e1 d7bd
00000240: 17bd 23be d9ef e6bd 744a 7fbd 2744 8fbc
00000250: 0115 2ebe d2af 00be eff0 973d 91bd d23d
00000260: 32f2 ffbd 76c5 7e3b 258a 873d 3bc1 0e3e
00000270: dc19 153e 7c27 e63d 18c1 0f3e 95dc db3c
00000280: b4f6 d3bd 9b7b 1a3e 429c e3bd f056 723d
00000290: c104 c93d 235b a03d fcfa 17be f78d 07be
000002a0: 5615 24bd 28a7 05be c225 a33b 9557 18be
000002b0: d24f 75bd 45fb b4bd 091e cbbd 6760 85bd
000002c0: cd3e b6bd 577d 2c3e eef6 09be c7c4 f339
000002d0: 2b15 c43d 60d9 c73b 0ce3 1ebc fb62 2abd
000002e0: d7a0 81bd 8015 733d b8dc 50bd c36f 18be
000002f0: 0730 123d 8e0c 35be d7b1 15bd c44d e8bd
00000300: 3a26 15bc 524f 46bc 7daa 23be 3676 06be
00000310: 6837 8bbd b54b e8bd 59f1 a13d 1135 143e
00000320: 4546 5b3d 702e f03d d59f cbbd b2e2 633d
00000330: f4e3 c33c b0cb 3cbe 81f3 0e3e dcf5 1d3c
00000340: 12bc f73d d2f2 243e d142 573d 1839 cd3d
00000350: ed4e 49bd 9b47 e7bc b73f 2e3e c9fa 6b3d
00000360: ab25 bd3d 401b 223e 6487 99bc 2f06 3fbd
00000370: e0a5 623d 724d 143e f933 1fbe bdc4 adbc
00000380: d7b7 2b3e ae21 11bd 0b11 ce3c 993f 8ebd
00000390: 39c9 d8bd a239 923d 1660 02be 2980 93bd
000003a0: a8b9 a13c 5da9 2b3e 8099 b13d 9e0a 2f3e
000003b0: 94f6 d4bd 7fe7 a93d ba1e 633d c1db 1dbe
000003c0: 8596 f5bd 1986 b23d 6f4f bf3d f07a 20be
000003d0: 310c 013e a652 fe3b 619a 02be 6a70 3c3d
000003e0: afe5 38bd 2956 15bd e0e6 f73d d5c8 c33c
000003f0: 51b0 b83b 7371 863c b50c 013e 0235 3abe
0.055562858 0.049051676 -0.100082636 -0.07870226 0.091300204 -0.053181894 0.13968721 -0.15769292
0.038078498 -0.03370929 -0.12820339 0.007101621 -0.108005784 -0.029240696 -0.013872648 0.05777331
0.1278231 0.010086026 0.065392494 0.15719348 -0.07633281 -0.1743417 -0.055239014 0.0055882507
0.1223183 -0.0913882 0.18837646 0.043613534 -0.035323367 -0.16741695 -0.165877 -0.122353844
-0.045699634 -0.11311183 -0.1932952 -0.032594495 -0.16184297 -0.14989695 -0.15241218 0.12622587
0.006061617 -0.18900168 0.08543093 -0.028312344 0.10547389 -0.17402005 -0.07847534 0.06389263
-0.13402338 0.09519771 0.012142233 -0.10276457 0.089398965 0.03583282 0.12707277 -0.06634931
0.002305643 -0.04586484 -0.18990189 -0.14722933 -0.16573684 0.18419784 0.01693486 0.04110249
-0.14560944 -0.056829713 -0.02748127 0.026762158 -0.18392096 0.11085171 0.08885107 -0.13326026
0.06705237 -0.0746176 -0.03507617 0.01536922 0.07243643 -0.03473108 -0.1667184 -0.0022421048
-0.14498411 -0.16403386 -0.10559459 0.02671319 -0.034545068 -0.12145952 0.15539786 -0.1684098
0.06870348 0.048462957 0.009914444 -0.067593224 0.10860282 -0.1306018 -0.03767633 0.014924598
0.082397506 -0.08969553 -0.14263229 -0.15665106 -0.048106104 0.02982713 0.026933523 0.15163939
-0.075742565 -0.1020439 -0.012749959 -0.1647667 -0.024618039 0.12089177 -0.0020850634 0.114017434
-0.14729372 -0.16583605 0.1272632 -0.0135504445 -0.091729484 0.124450475 0.07917061 0.076338984
0.024019452 -0.05536846 -0.09292645 -0.024503347 0.028628912 0.06260577 -0.1265013 -0.09079012
0.109435916 -0.14792338 -0.084661774 0.14376664 -0.040597886 -0.028836753 -0.004822362 -0.09740702
0.057453744 0.007095478 -0.1553882 -0.1296385 -0.055838764 0.07012891 -0.16613826 -0.10541136
-0.15990101 -0.11276216 -0.062326863 -0.017488552 -0.170002 -0.1256707 0.07419001 0.10290063
-0.12497367 0.003887502 0.06618146 0.13940899 0.14560646 0.11238 0.14038503 0.02683858
-0.10349789 0.15086214 -0.11113788 0.05916494 0.0981536 0.07829883 -0.14841837 -0.13237749
-0.04005941 -0.13052046 0.0049788663 -0.1487716 -0.059890576 -0.08836988 -0.09917838 -0.06512528
-0.08898697 0.16844688 -0.13473102 0.00046495182 0.0957435 0.006098911 -0.009697687 -0.0415983
-0.06329506 0.059346676 -0.050991744 -0.14886384 0.035690334 -0.1768057 -0.036546554 -0.113429576
-0.009103352 -0.012103872 -0.15983005 -0.13131031 -0.06797677 -0.11342565 0.079073615 0.14473368
0.05353381 0.11727607 -0.09942595 0.055636115 0.023912407 -0.18437076 0.13960077 0.009641137
0.120964184 0.16108254 0.052553955 0.100206554 -0.049147535 -0.028232386 0.17016493 0.057612214
0.092357 0.15830708 -0.018741317 -0.046636757 0.055333972 0.14482668 -0.1554717 -0.021211976
0.16769348 -0.03543251 0.025154611 -0.06945724 -0.10585255 0.07139899 -0.12731966 -0.07202179
0.019741848 0.16763826 0.08671856 0.17093894 -0.103985935 0.082961075 0.055449225 -0.1541586
-0.119916 0.08716983 0.09341323 -0.15671897 0.12602307 0.0077613173 -0.12754203 0.046005644
-0.04514092 -0.03645912 0.12104583 0.023899475 0.005636253 0.016411519 0.12602504 -0.18184283

EiLM.1.gamma_generator.weight f4 [1, 32]
00000000: d41f b1bc 83fa 1ebe f41b 36be e38f f83d
00000010: c371 e13c 597e ccbc 0b7d c93d 9b79 d2bd
00000020: ca03 09be 1937 caba b18f aa3c a189 aebc
00000030: eaaa 323e 10ea 0c3e 8dc8 02bd 335b 3fbd
00000040: 49c4 8c3d 9002 0ebe 8049 4dbd cf6e ea3d
00000050: 8bc4 b83d fb40 253d 4d2c 283e 95b4 85bd
00000060: 8d53 a73d 9253 613d 15b3 3dbd 13f7 8b3d
00000070: 3b2f 00be 3361 413e 35bd e73d 09be 593d
-0.021621622 -0.1552525 -0.17784101 0.12136819 0.027520066 -0.024962591 0.09838303 -0.10277101
-0.13380352 -0.0015427797 0.02082047 -0.021305861 0.17448011 0.13761163 -0.03192954 -0.046717834
0.06873376 -0.13868165 -0.050118923 0.11446916 0.090218626 0.040345173 0.1642315 -0.06528584
0.08170233 0.05501134 -0.046313364 0.06834235 -0.12518017 0.18884735 0.11315385 0.053159747

EiLM.1.beta_generator.weight f4 [32, 32]
00000000: 4635 ab3c 9b67 d93d 6d3b 6e3c b9bb 25be
00000010: 76de 2bbe f593 063e e339 d6bb b76d 153e
00000020: 6d65 06be 7c56 3a3e c90f 743d e755 173e
00000030: 3e66 fabd 59df 463d 764d 26bd 98b1 0abe
00000040: 2bf4 e13c 3232 1f3e b7bc d83d 75b2 363e
00000050: 9106 73bd 65af da3d dfd5 34be 9ee6 133e
00000060: 4bcd 22be 9a8b 003d a6c1 c83d cc8a dcbd
00000070: 3a52 093e 4bcc fdbd 1ff7 e2bd 96de 01bd
00000080: 0dfe 22bd f4af b6bc 4ca1 31be 8746 bbbc
00000090: 1537 0f3e fa7d c8bd bd7c ee3d 8934 343e
000000a0: 791d 1c3c 5139 04be 4b43 0cbe 1e84 373d
000000b0: 334f 08be acce 0ebe 0b08 3d3e 619c fc3d
000000c0: c7ed d33c 0246 16be 56c8 06be bcdb f9bd
000000d0: 8d2a 92bd 7978 e33d 82f3 57bd 6630 80bd
000000e0: b75b 223e f07d 5cbd 5d79 c0bd 507e d13d
000000f0: 3efc 2c3e de8d 9dbd e7c4 5bbc bf75 883d
00000100: 8776 c4bc 0b52 7f3d b771 1abb 8b3e 14be
00000110: 375c 043d aa31 2c3e 1402 783d 5107 77bd
00000120: c6db 94bc 829d bbbd 2f80 c4bd adf8 2bbe
00000130: 9048 babc 796f 0ebe 87a1 123e 6743 06be
00000140: b55d 0f3e fbe3 dabd 8fc5 0f3e c696 303e
00000150: 1d50 0e3d 45d4 403b 2d23 bf3d 92be 16be
00000160: 5a12 e73d e44b aebd 5f03 173a e434 49bd
00000170: d7ee 5ebb 8f51 a63d 4dc9 8cbd 3e90 2dbe
00000180: 36dd 1a3b f1db 16be 4aed 2abd 0edc 393e
00000190: ac4c 22be 7a90 81bd f472 473d 1b64 2e3e
000001a0: 0e16 63bd 48a7 f53d cba6 093e bcef 073e
000001b0: 2617 c93d 00fb 9cbd 538a 45bd f285 a3bc
000001c0: 19f7 55bd 1cb9 44bd f650 25be b8ee a23d
000001d0: 095f 493c 4ab6 653d 16f4 333e c4fb 64bd
000001e0: 8a75 9dbd 234c 243e 0456 37be 60e1 86bd
000001f0: 13aa 483d 4df7 99bd c5af 23be cd44 e8bd
00000200: b96f 803d 176a 1dbd 145d acbd 8544 8d3d
00000210: 8b8a 79bd f96e c5bd dcaa e83d 0498 5f3d
00000220: 9095 1fbe 8788 2abe f388 1bbe b7f9 a13d
00000230: 1177 87bd f8bc b33d 7326 20be c0e0 3d3e
00000240: 29b9 b83c a9ed 1b3c 1ff6 6fb9 c84e 02be
00000250: 75d9 1ebd b99d 09be 5461 de3d 1a21 51bd
00000260: 1f1e 86bd 0e4c fdbd c723 123e df9f d63d
00000270: 953d 143d 82a4 8a3d 139b babd 0db1 c63c
00000280: 950e 38be 98ef 473c f6cb 233e c23d 163e
00000290: 1f3a f2bd c2e8 973c beeb 2d3e c8cb b63d
000002a0: 729c 33be eea8 1dbe e636 7e3d d070 dd3c
000002b0: 8645 afbd e155 663d 448a 1abe 5603 9ebd
000002c0: 609a 21be 400b 293e 922e 4a3d 108d 3cbe
000002d0: 74bc 163e c0f5 ecbc 8964 53bd 4389 063e
000002e0: aec8 19be e392 68bd 5b8c 1dbe 9d33 d73d
000002f0: ce60 65bd 5ad9 093d f302 b13d 1207 993d
00000300: ad35 0e3e e4bf b7bd 61ae 83bd 9da3 34be
00000310: d2ed a2bd f7ee bbbd 250a 7bbd bdd5 2d3e
00000320: 4f39 02be fdd4 7b3d 6415 e73d f02d 95bc
00000330: 837c ccbd 23ec 1b3e 4284 423e 181e 4b3c
00000340: c434 23be 5ed2 8fbd 95f3 d33d 0a68 933d
00000350: bfe6 91bc 1020 eebd a442 e1bd 1598 99bd
00000360: e9f4 abbd d8ba c63c 20dc 8dbd 3578 1f3e
00000370: 3faa 9fbb 1b32 843d 389f f8bd f549 263e
00000380: fed4 23be ecae 33bc a717 32bc e5b6 e2bd
00000390: 1614 303c b0bc 54bd ef75 fd3d 8a85 92bd
000003a0: b25c 7abd 9507 bf3d f7c5 b5bd 1a02 07bc
000003b0: a7e0 33be 3942 0cbe d79b 8bbb 695f f0bd
000003c0: 5bca 05be 2734 83bd 8f8c 22be 7167 77bd
000003d0: 838f 61bd 12c8 1ebe 542c 28be db69 2e3e
000003e0: 3e9d 08be 6cb6 0abe b06e 0bbe 2476 a63c
000003f0: 4315 a23d fbbb b7ba 54ba f8bd 20f9 a1bc
0.020899426 0.10615464 0.014540535 -0.16184892 -0.16784081 0.13142379 -0.0065376624 0.14592634
-0.13124628 0.18197054 0.059585366 0.14778863 -0.122265324 0.048552845 -0.040601216 -0.13544309
0.027582249 0.15546492 0.105828695 0.17841513 -0.059332434 0.10677985 -0.1765971 0.14443442
-0.15898626 0.031383134 0.098025605 -0.10768661 0.13410273 -0.123924814 -0.11082291 -0.031706415
-0.039793063 -0.022300698 -0.17346686 -0.022860778 0.13985856 -0.09789653 0.11644886 0.17598166
0.009528511 -0.1291249 -0.13697545 0.04480373 -0.13311462 -0.13946027 0.184601 0.123345144
0.025870217 -0.14675143 -0.1316236 -0.12200114 -0.07137022 0.11106963 -0.05272246 -0.06259231
0.15855299 -0.05383104 -0.09398148 0.1022917 0.16893098 -0.07693075 -0.013413644 0.06663083
-0.0239823 0.0623341 -0.0023566314 -0.14476983 0.032314505 0.1681582 0.060548857 -0.06030971
-0.018171202 -0.091609016 -0.095947616 -0.16794081 -0.022739679 -0.13909711 0.1431943 -0.1311165
0.1400059 -0.10688015 0.14040206 0.17245016 0.03474437 0.0029423398 0.09332881 -0.14721134
0.11282797 -0.08510569 0.0005760695 -0.049122706 -0.0034016871 0.08121025 -0.068743326 -0.16949555
0.0023630387 -0.14732338 -0.041730203 0.1815035 -0.1584956 -0.06326385 0.048693612 0.17030375
-0.055440955 0.11994797 0.13442533 0.13275045 0.09818868 -0.07665062 -0.04822762 -0.019961331
-0.052237604 -0.048028097 -0.16144165 0.07955688 0.012290725 0.056082048 0.1757358 -0.055904165
-0.076884344 0.16044669 -0.17903906 -0.065859556 0.04899032 -0.07517872 -0.1598502 -0.11341248
0.062713094 -0.038431253 -0.08416191 0.06897835 -0.06092314 -0.09640307 0.11360714 0.054588333
-0.15584397 -0.16653644 -0.1518896 0.079089575 -0.06614507 0.08776277 -0.15639667 0.18542767
0.022549229 0.009517112 -0.00022884503 -0.12725365 -0.038781602 -0.13439073 0.108584076 -0.05105696
-0.06548714 -0.12368022 0.1427146 0.10479712 0.03619154 0.067696586 -0.09111609 0.024254346
-0.17974313 0.01220312 0.15995774 0.14671996 -0.11827492 0.018543605 0.1698446 0.08925587
-0.17540148 -0.15396473 0.062064074 0.027031332 -0.085581824 0.056234244 -0.15091807 -0.0771548
-0.15781546 0.16508198 0.04936082 -0.18413186 0.14720327 -0.028925776 -0.05160955 0.13138299
-0.1501796 -0.056780707 -0.15385573 0.10507891 -0.056000523 0.03365455 0.08643141 0.07472052
0.13887663 -0.08972147 -0.064297445 -0.17640539 -0.07955517 -0.09176438 -0.06128897 0.16976066
-0.12717174 0.06148242 0.11283377 -0.018210381 -0.09984686 0.15226798 0.18995765 0.012397312
-0.15938097 -0.07022546 0.10349194 0.07197578 -0.017810224 -0.11627209 -0.10999039 -0.074997105
-0.08396322 0.024259016 -0.06926751 0.15573199 -0.00487259 0.06454869 -0.121397436 0.1623915
-0.15999219 -0.010966998 -0.010869897 -0.110700406 0.010746976 -0.05193776 0.1237601 -0.07154377
-0.061123557 0.09327618 -0.088756494 -0.008240247 -0.17566167 -0.13697137 -0.004260521 -0.11736948
-0.13065474 -0.06406432 -0.15873931 -0.060401384 -0.055068504 -0.15506008 -0.1642316 0.17032568
-0.13341233 -0.13546151 -0.13616443 0.020320006 0.079142116 -0.0014017815 -0.12144914 -0.019772112

EiLM.2.gamma_generator.weight f4 [1, 32]
00000000: 2905 ea3d 295f cbbd 9bf9 983d 157c 33be
00000010: e0cd ebbd 11c3 08bd 893e 9d3c a0d8 b3bd
00000020: 53c4 373e 0d41 07be 19dc ff3d bbb6 0f3e
00000030: dabe c2bd f872 f3bd 9d54 7cbc 5338 2abc
00000040: 7124 1bbc f900 96bd a9b9 6e3d 1f10 b2bd
00000050: 4aac 1dbe 0b18 d5bc 9395 f63d 792e 17be
00000060: 6399 00be 4c21 87bd a951 99bd 74fc 313d
00000070: 8eb2 30be 3dd4 133e be04 ed3d 8890 b7bd
0.114267655 -0.0993026 0.074694835 -0.17527802 -0.11513877 -0.033389155 0.019194858 -0.08781552
0.17945985 -0.13208409 0.12493152 0.1403455 -0.09509058 -0.11887163 -0.015401033 -0.010389405
-0.0094691375 -0.07324404 0.058282528 -0.08694481 -0.15397754 -0.026012441 0.12040248 -0.14763822
-0.12558512 -0.06598148 -0.074862786 0.04345365 -0.17255613 0.14436431 0.1157317 -0.08963114

EiLM.2.beta_generator.weight f4 [32, 32]
00000000: 98cc 84bc c33f efbd 50fc 9bbd 81c7 2cbe
00000010: d7c4 37be 1fb7 113e ebf8 183e b5ad d33d
00000020: b3b6 9f3c 0187 58bb ba8b f5bc cb56 613b
00000030: 9fba 1bbe b921 f83d b869 86bd d9f4 1e3d
00000040: 2869 d53d 6097 8bbd 418d 54bd b8fa 95bc
00000050: 0a70 19be 693b 10be a247 2fbe d47f 1bbd
00000060: b4a7 c03d 9848 2fbe f4de c7bd afc9 24be
00000070: 7e05 22be eb79 42be ec35 033d 30b9 7b3d
00000080: 9a6f 0f3e a5a1 353d ee57 1abe e6ea 64bd
00000090: ba1c 3b3d 7eee dcbd 52f4 c13d dc41 dc3d
000000a0: 41ad 843c 6446 f83d 01e4 afbd 9f1e 08be
000000b0: 9794 183e 0d23 953d fb61 07bd 79d4 453d
000000c0: b13b 19bd 7c45 f6bd 5742 c93d dff8 163c
000000d0: cc05 febd 6387 91bd 31a4 15bd 47c3 523c
000000e0: 2b92 5c3c 9c3f 23be a60c 07be ced5 783d
000000f0: 45e0 ca3d 30ab 62bc 374a b3bd 13d0 553d
00000100: b2ba 7abd b104 d2bd 81a9 2a3e f6e5 013e
00000110: d74e 13be 97b8 f13d 1118 87bd b2e3 7c3b
00000120: 470c 063e c4ce 00be d153 33be 258a 113d
00000130: 0d1d 18be 577d 4bbd 8f30 17bd 26bb 0b3d
00000140: 748b af3d 090c 243e 772c d13d 942e 2d3e
00000150: 738b 143e 8112 11be 31c4 973d 6255 293e
00000160: 628d fc3d 837c f93d 97db a7bd 46a6 603d
00000170: 7d61 aa3d 7a8a 3e3d bafb ec3d 45cc 63bd
00000180: 8801 453d 1595 1dbe 13e1 0e3e 289b c5bc
00000190: 28bf 0cbd 728e abbd bbe7 14be ba41 7ebb
000001a0: ca4f 2abe 1773 eebd 5fd0 533d 7e8c 0a3d
000001b0: 440b 013d eb51 b8bd 9ec6 d53d 601e 8dbd
000001c0: 93f6 273e fb0e 0cbe 27e7 41bd 7022 903c
000001d0: 1e7c 18bd 50f2 0d3e ff9b d4bd f3d7 af3d
000001e0: cf3f 0b3e ce04 933d fba1 383d 3b1a 13be
000001f0: 3d09 bcbd 5abd debd b293 f13d 8996 16bd
00000200: 5707 c4bc 3e72 7c3d 56e9 1bbd c4bc 36be
00000210: a0cf 0c3e 1ee9 443d 6742 583d b67b 313e
00000220: 078e 2f3e b530 34bd 5f35 e8bd 15d8 3dbe
00000230: 6cf2 3f3e 9030 be3d c4bf d2bd 93e7 27bd
00000240: b912 1abe 12b4 913d 7896 a8bd 0a68 a13d
00000250: 843d 473d e91c 97bd 623c 8abd f670 ec3b
00000260: eb53 b33c 50bf ebb9 aab5 24be 8019 23be
00000270: a572 963c 7e2d 1ebe 2dc4 e63d f3ec 3a3e
00000280: b0fc b43c 7110 02be a5b4 3bbd e7d5 e63d
00000290: 978f 1ebe 7b52 403c 3085 de3d 2f6d 24be
000002a0: fc1c b5bd 14f8 cf3d 6714 263e 65d6 cd3d
000002b0: 5100 99bd d541 f5bd 0041 dcbd 32b4 233e
000002c0: ba04 59bd eb16 88bd ba50 043e b2fb f13d
000002d0: 4358 f4bd 7713 253e 60ca 313d 542b 503d
000002e0: d97b 0abe 491b 36bd a065 1e3e b244 28be
000002f0: 60ea b3bd 8160 863d dcea 05bd ce1d 0f3e
00000300: 571d 48bd 1dc5 353d 4e2b 01be a61b e6bd
00000310: 4920 623c 86fc dcbc ea87 b3bd b1f1 b83d
00000320: f3af 23be c234 b53b 0bef 21be 50d8 123e
00000330: e806 8cbd bf92 f0bd 19c7 ba3d 0873 773d
00000340: 3d4c 873d 834a 363e 9511 c3bd d886 36be
00000350: e990 dc3d 36de cd3d 844a 5b3d 786e f7bd
00000360: bad7 f6bd 7bf4 2d3e ff55 2fbd 4fc0 2b3e
00000370: d671 c4bd fcc1 d13c fb72 8a3d 84e8 653d
00000380: fc52 f83d 4b6e 1e3e 0d0b 65bd 1dee 9a3d
00000390: c1be d4bc b3ae dd3d 2d41 703d 3072 143e
000003a0: d49a 27be 135d 25bd 0fad ae3d e782 3c3e
000003b0: 31a0 06be f7df ca3d 93da 1a3e a4d2 1abd
000003c0: 828f c43d bbf4 14bd d269 d43d cac8 533d
000003d0: 0eb2 9bbd 541c d43d e26a 25bd c3f2 26bc
000003e0: ed3f 15bd 2869 cabd f360 c83d c27a 1f3e
000003f0: 556c febd bd82 28be 17ee 11be e0c0 8bbd
-0.01621084 -0.116820835 -0.07616484 -0.1687298 -0.17946182 0.14230011 0.14938705 0.10335866
0.019496297 -0.0033039453 -0.029973853 0.0034384008 -0.15207909 0.12115807 -0.06563133 0.038807724
0.104204476 -0.06815982 -0.051892523 -0.018308029 -0.14984146 -0.14085163 -0.1711717 -0.037963703
0.09406987 -0.17117536 -0.09759322 -0.16092561 -0.15822408 -0.1899182 0.032033846 0.061455905
0.14007416 0.04434361 -0.15072605 -0.05588808 0.045681693 -0.10787676 0.094704285 0.10754749
0.016195895 0.12122801 -0.0858841 -0.13292931 0.14900433 0.07282076 -0.033052426 0.048298333
-0.03741044 -0.12024972 0.098271064 0.009214609 -0.124034494 -0.07105901 -0.03653354 0.012863941
0.013462584 -0.15942234 -0.13188419 0.060750775 0.09906057 -0.01383476 -0.0875439 0.05220039
-0.061213203 -0.10254801 0.16666223 0.1268538 -0.14385544 0.11802786 -0.06596387 0.0038587865
0.13090621 -0.12578875 -0.17512442 0.035532136 -0.14854832 -0.04968008 -0.036911543 0.034114026
0.085715204 0.16020216 0.10213559 0.169123 0.1450632 -0.14167215 0.074104674 0.16536477
0.12331654 0.12181952 -0.0819618 0.05484607 0.08319376 0.04651878 0.115714505 -0.05561473
0.048097163 -0.15388902 0.13953047 -0.024121836 -0.03436199 -0.08376779 -0.14541523 -0.00387965
-0.16632 -0.116430454 0.05171239 0.03382539 0.031504884 -0.089999996 0.10438274 -0.06890559
0.16402654 -0.1367759 -0.047339585 0.017594546 -0.037227742 0.13861966 -0.103813164 0.08586111
0.1359856 0.07178651 0.04507635 -0.14365475 -0.091814496 -0.1087596 0.11795749 -0.036764655
-0.023929281 0.061632387 -0.038064323 -0.17845446 0.13751078 0.04807388 0.0527977 0.17332348
0.17144023 -0.043991763 -0.11338305 -0.1853946 0.1874482 0.09286606 -0.10290483 -0.04099233
-0.15046205 0.07114424 -0.08231825 0.07881172 0.04864265 -0.07378561 -0.06749798 0.0072156144
0.021890601 -0.00044965232 -0.16084924 -0.15927696 0.018365214 -0.15447041 0.11267886 0.18254451
0.022093147 -0.12701584 -0.045826573 0.112712674 -0.15484463 0.011738415 0.10865247 -0.16057275
-0.08843419 0.10154739 0.1621872 0.10050658 -0.074707635 -0.11975447 -0.10754585 0.15986708
-0.052983023 -0.06644996 0.1292142 0.11815585 -0.11930897 0.16120706 0.04340589 0.05082257
-0.13523807 -0.044459615 0.15468454 -0.16432455 -0.08784938 0.065613754 -0.032694682 0.13976213
-0.048856106 0.044377435 -0.12614176 -0.11235742 0.013801643 -0.026975881 -0.08766158 0.09030474
-0.15985088 0.005529971 -0.15813844 0.14340329 -0.06837255 -0.117467396 0.09120006 0.060412437
0.06606338 0.17801861 -0.09524838 -0.17824876 0.10769827 0.10052149 0.05353786 -0.12081617
-0.12052865 0.16987793 -0.04280662 0.16772579 -0.09592025 0.025605194 0.06760212 0.056129947
0.12125203 0.15471761 -0.055918742 0.07564948 -0.025969865 0.10824337 0.058655906 0.14496684
-0.16367656 -0.040371966 0.08529102 0.1840931 -0.13147046 0.09905999 0.15122442 -0.03779854
0.095976844 -0.036366206 0.10371746 0.05170516 -0.076023206 0.10356966 -0.040385135 -0.010189715
-0.036437918 -0.09883338 0.097841166 0.15574172 -0.124230064 -0.16456123 -0.1425098 -0.06823897

EiLM.3.gamma_generator.weight f4 [1, 32]
00000000: acb4 3cbd f9a9 e4bc 8385 afbc 5997 273e
00000010: 71ca 3fbd a6e6 03be fd60 da3d 5736 1f3e
00000020: 2261 1dbe eb6e fb3d cb72 03be d0b2 a23d
00000030: 9524 03bd 20ea a7bd 8096 ce3d 5935 c2bd
00000040: 7226 2fbe aab1 bfbd 8311 e3bd 75ec e13d
00000050: 3ffd 14be 2859 e8bc 8e53 b13d 34eb 193e
00000060: c07c 803d 3c86 443d 80a3 9bbd e06d ef3d
00000070: 9876 1ebe ba4a f3bd e035 01be 79bf 1dbe
-0.04607074 -0.02791308 -0.021425968 0.16366328 -0.046823923 -0.12880954 0.1066303 0.15548073
-0.15369084 0.12277015 -0.12836759 0.07944262 -0.03201731 -0.08198953 0.10087299 -0.094828315
-0.1710451 -0.093600586 -0.110873245 0.11031429 -0.1454973 -0.028362826 0.08658515 0.15031129
0.06273794 0.04797958 -0.075995445 0.11690879 -0.15474927 -0.11879487 -0.12618208 -0.15405072

EiLM.3.beta_generator.weight f4 [32, 32]
00000000: 52a4 b2bd 735a 473e 7c8b edbd f94c 19bd
00000010: 8f9f 84bd ca4a cebc 593e c2bd a166 713c
00000020: bd31 c9bd 8b62 1fbe 2f32 a33d 5d1d 1bbd
00000030: d1ab 9b3d 1c98 4ebd 2f3a 2fbe f278 4c3d
00000040: 9ec3 1f3e 3911 2bbe 34a8 f9bc 9f2b 33bd
00000050: 7b87 253e 0478 9dbd 71a1 9bbc 4336 d73d
00000060: 0d4d 973d 6bf1 bcbc a5ea 19be 941c debd
00000070: fa8e 4cbb 99c4 48be 6d7e 353c 5f91 303d
00000080: ceaf 9cbd 41c3 2cbe 6bd4 ac3d c85b f53d
00000090: 58b9 33be e7ad 34bc 043e 9d3d be1c 873c
000000a0: 2a5d 12be 3db3 243e 0a43 79bd 86ec 49bd
000000b0: 42c3 293e 7b6c 00be cf5f f43d 044b 09be
000000c0: bb95 cd3c 279e 293e 2f4d cb3d d719 393d
000000d0: 348d 0e3d 9c86 4ebd 50de c13d 5661 c6bd
000000e0: cd55 dd3d d3e4 f93c 831b cabc eac1 30bd
000000f0: 81a5 243e fca1 d03d 0557 003e f69a 9abd
00000100: d6cd 0b3d 5ea8 2d3e 8350 2f3e 96e8 e23c
00000110: e031 e53d eb09 92bd f60e 1f3d f705 373c
00000120: 0645 3b3c 721b a63d d9d8 b2bd 3d68 6a3c
00000130: 847e 91bd d3a7 a4bb ef20 29be 79fc 51bc
00000140: 7194 97ba 8b2d f43d c9eb 08be e6b4 96bd
00000150: 0067 563c bc2c ee3d 960d a9bd 4d6f c7bd
00000160: c3c5 1bbe a998 3a3d b01a dabd 7708 23bd
00000170: 4208 003c ca76 2bbe 1790 193e 5fe5 02be
00000180: 97a3 b93d 7f92 bbbd af2a d6bd cb76 c23d
00000190: 1dac 66bd aab7 ffbd 7027 04be e9f7 833c
000001a0: dc07 54bd 4406 39bd 156a 27be e329 bbbd
000001b0: 0fc3 1dbd bfd6 15be c8b2 9c3c 83d8 eb3d
000001c0: 18c8 fabc 24ed ec3c 4620 44bd fca8 37be
000001d0: ce27 0ebe 227d c33d 69ba b63c f983 103e
000001e0: 5679 0ebe 5283 293e 55d2 c93d 4969 1cbd
000001f0: 1503 c1bd e917 223e 147c 4a3d 2338 e73d
00000200: c404 dc3d 993b 8bbd 8c48 6c3d 1764 80bd
00000210: 9947 00be 809e 1a3e b3c7 f9bd ff6e 253e
00000220: 50fa c3bc 6433 af3d f685 2c3e 75fa 40bd
00000230: f080 043e e0b0 0cbe a6a6 14be c615 db3d
00000240: 92a4 d63d b170 cfbc affc a93d 455e 1c3e
00000250: 1089 243e 4396 33be fd74 4b3d 19f3 81bd
00000260: bf66 193e 702b 1bbd c5c0 29be c742 49bd
00000270: 574a b13d a27c 173c 1abd 0f3e 6692 1e3d
00000280: c5f3 f1bd 2e58 2b3e a1b3 d73d 1b3b e4bd
00000290: aee2 9d3d 94d1 063e 5989 b73c 1717 c33c
000002a0: 5485 c53b de6e 703d 1301 1e3d 2e46 163e
000002b0: 6f1f d9bd 7a69 28bd 7e85 de3d a1a6 4f3d
000002c0: 457f febc 29fe 28be 8066 203e aa1b 27be
000002d0: 7b62 28be a050 cebd 9eac 2e3e 6005 e43d
000002e0: a55d 383d 202d c9bd 894d 1d3d 1c64 ffbd
000002f0: 0496 383d d9ca 8f3d 1957 87bd f478 4b3d
00000300: 8098 94bd 2d7c 243e 82c8 5d3d d85f a4bd
00000310: b328 9fbc fe5f da3d 7abe ce3d a1c6 0fbd
00000320: 282b 1ebe 6a7e fc3d 9d3b 2a3e 273e 14be
00000330: 0989 98bd 6bdc 7ebd 24c4 b63c c171 de3d
00000340: 7a63 683d 5d8a 003e 77b8 963d 5ffc af3d
00000350: 7df4 dcbd 3428 1c3e d6f0 0b3e df18 413d
00000360: fc31 393b eca2 3dbd b6eb 513d 757d 0a3e
00000370: cca7 143e 05f5 6c3d e046 a9bb d835 f8bc
00000380: 3fc6 373d dc1f 2d3e 1dbe 3e3d 9df1 d4bd
00000390: adfe f9bc ee7d e83d 2c7c ddbd 684d 373d
000003a0: 3804 c93d f531 973d 3d00 d0bd 133f f73c
000003b0: 642d a33d b64f ed3d dded a2bc 92d2 01be
000003c0: f3af 11be e727 0dbe d291 023e 9cc3 983d
000003d0: 9301 16be 1a3d f2bd 825f 94bd 6fec 2abd
000003e0: 8ce7 d5bd 1606 053e d30b be3d 1375 ddbd
000003f0: b2fd cabd 7573 39be 9d29 2ebe 781a 9dbd
-0.08722748 0.19468097 -0.1159887 -0.037426922 -0.06475746 -0.025182147 -0.09484548 0.014733941
-0.0982394 -0.15564935 0.07968556 -0.0378698 0.07601131 -0.05043803 -0.17112039 0.04992003
0.15601966 -0.16705789 -0.030475713 -0.043742772 0.16164963 -0.07688907 -0.01899788 0.105083965
0.07387743 -0.023064336 -0.15030916 -0.108452946 -0.003121315 -0.19606246 0.011077506 0.043107387
-0.076507196 -0.16871358 0.08438953 0.119803965 -0.17551172 -0.01102779 0.07677844 0.016493198
-0.14293352 0.16083999 -0.06085495 -0.049297832 0.16578391 -0.12541382 0.119323365 -0.13407522
0.025095811 0.16564237 0.09926831 0.04519066 0.03480263 -0.050421342 0.09466231 -0.09686534
0.10807381 0.03050462 -0.024671322 -0.04315368 0.1607876 0.10187146 0.12533195 -0.07549088
0.034131847 0.16958758 0.17120557 0.027698796 0.111911535 -0.07130798 0.038832627 0.011170856
0.011430031 0.081107035 -0.08732767 0.014307079 -0.07104209 -0.005024889 -0.1651647 -0.012816542
-0.0011564625 0.11922749 -0.13371195 -0.073587224 0.013086081 0.11629626 -0.082545444 -0.09738026
-0.15212159 0.045555744 -0.106496215 -0.039802995 0.007814469 -0.16744533 0.14996372 -0.1278281
0.090644054 -0.09158801 -0.1045736 0.09495314 -0.056316484 -0.12486203 -0.12905669 0.016109424
-0.051765308 -0.04517199 -0.16349061 -0.09138849 -0.0385161 -0.146327 0.019128218 0.11515906
-0.03061299 0.028921671 -0.04788234 -0.17935556 -0.13882372 0.095453516 0.022305684 0.14112844
-0.13913473 0.16554001 0.09854571 -0.038186345 -0.09424416 0.15829434 0.049434736 0.11290004
0.107430965 -0.06798477 0.057686374 -0.062690906 -0.12527312 0.15099525 -0.12196293 0.16155623
-0.02392307 0.08554724 0.16847977 -0.047113854 0.12939811 -0.13739347 -0.14516696 0.10697512
0.10480608 -0.02532229 0.08300149 0.15270336 0.1606791 -0.17537789 0.049672116 -0.06345195
0.14980601 -0.037883222 -0.16577442 -0.04913595 0.08656757 0.009246023 0.1403698 0.038713835
-0.118140735 0.16732857 0.10532308 -0.11144086 0.07709251 0.13165885 0.02240436 0.023814721
0.006027857 0.05869948 0.038575243 0.14675209 -0.106016986 -0.041116215 0.10865305 0.05069602
-0.031066546 -0.16503204 0.156641 -0.16319147 -0.16443817 -0.10073972 0.17058036 0.11133838
0.04501118 -0.0982306 0.03840402 -0.12470266 0.04506494 0.07021112 -0.066084094 0.049675897
-0.072556496 0.16062994 0.054146297 -0.08026093 -0.019428587 0.1066284 0.10094924 -0.035101537
-0.1544615 0.12328799 0.16624303 -0.14476834 -0.074480124 -0.062221926 0.022310324 0.108615406
0.056735493 0.12552781 0.073594026 0.08593058 -0.1078882 0.15249711 0.1366609 0.04714286
0.0028258553 -0.046297953 0.051250182 0.1352442 0.14517134 0.057850856 -0.0051659197 -0.030299112
0.044866797 0.16906685 0.046568025 -0.103976466 -0.030516947 0.11352144 -0.108146995 0.044751555
0.09815258 0.073825754 -0.101562954 0.030181443 0.07967642 0.11587469 -0.019888813 -0.12677982
-0.14227276 -0.13784753 0.12750939 0.074591845 -0.14649038 -0.118280604 -0.07244779 -0.041729387
-0.10444555 0.12990603 0.09279599 -0.10813346 -0.0991167 -0.1811045 -0.17008062 -0.07671064

Gate.weight f4 [4, 32]
00000000: 8ecd 1a3e e1bc be3c ac37 9ebc b162 0c3e
00000010: a0bc 783d 912d ddbd bb02 153e 16d9 24be
00000020: dd57 9e3d 3498 223e 97c1 103e 1edb 803c
00000030: 6701 d0ba b4d0 e5bd e28f d9bd 9edb 58bd
00000040: ef34 dd3d 7ae3 a9bd c296 3ebd 585f 0bbe
00000050: fcb5 05be 2223 c2bc cdff 89bd cd93 11bd
00000060: f36b ac3d bc8c 183e ac55 0abe d348 69bd
00000070: 6a12 3cbe 4b1b 323e 8199 75bd 75df 1ebe
00000080: a228 093e 75b3 e8bd 3439 2c3e 40ae 09be
00000090: 74e8 f3bd c066 c93c 3684 f53c 34d9 03bd
000000a0: 8c25 dd3d f7ce d63d 9514 143e 4d5e c1bd
000000b0: 77d0 1dbd 800b 4abe c21f 8b3d bdc2 0a3e
000000c0: ec11 c5bd 2a52 383d c462 873d 8535 183e
000000d0: cca6 c5ba c3b6 663d 75be 7f3c 9719 8fbc
000000e0: b96f 19be 87d8 ae3d f5a5 12be 6c1e f3bc
000000f0: eaf2 bc3c f14f f23d 28b1 e2bd 0e4d 053c
00000100: d4e3 be3d d227 23be 5c9f 833d 0b94 0c3e
00000110: b02b c3bc 0d11 3abe ca97 083d 1adb 153e
00000120: 2d18 073e c02d a03d b901 0fbe 0d1b a93c
00000130: 9336 fdbd abe3 77b9 a053 383e da0f a9bd
00000140: c623 a23d 80f0 393e eec2 11be ae1c 8b3c
00000150: 768d c73d 92b3 dd3d 748f ab3d 8cfc 7a3a
00000160: 0976 93bd 7d08 9fbd 7614 48bd 3d21 193e
00000170: 292d 0439 f328 ab3c 7e00 d6bb 708e febd
00000180: 2849 c4bd bcda d63d 0c3c b0bc 4e98 1d3e
00000190: 85fc cc3d f751 94bd 4c33 d3bd e48d 99bd
000001a0: 6519 85bd ff0f 34bd 8457 bebd cb57 123e
000001b0: dcd3 1d3e a6cb 0a3e 0d2a 87bd 5be3 3abe
000001c0: 3450 99bd a5c3 0f3e 8b6c 06be d8e4 15be
000001d0: a6f6 9cbd 9d3e 32be 1980 30bd 1ec5 663d
000001e0: b635 ef3d 07bc a03d 5d94 17be 1249 2abd
000001f0: b0e8 f3bd 15f2 583d 7b2f 2a3e 37c1 23be
0.15117475 0.023283424 -0.019313656 0.13709523 0.06072676 -0.10799707 0.14551823 -0.16098437
0.07731602 0.15878373 0.14136349 0.015729483 -0.0015869559 -0.112214476 -0.106231466 -0.05294382
0.10801112 -0.08295341 -0.046530493 -0.1361059 -0.13057703 -0.023698393 -0.06738243 -0.035541344
0.08419027 0.14897436 -0.13509244 -0.056954216 -0.183664 0.17393224 -0.059960846 -0.1551493
0.13394406 -0.11362354 0.16818696 -0.13445377 -0.11909571 0.024585128 0.02997027 -0.032189563
0.10798177 0.10488694 0.14460976 -0.094418146 -0.038528886 -0.1973095 0.06793167 0.1355085
-0.09622559 0.045000233 0.06610635 0.14864166 -0.0015079617 0.05632664 0.015609373 -0.017468257
-0.14984025 0.08537393 -0.1432112 -0.029677592 0.02306505 0.11831654 -0.11068946 0.008136047
0.093207985 -0.15933159 0.0642688 0.13728349 -0.023824543 -0.18170567 0.033347882 0.14634362
0.13192816 0.07821226 -0.13965501 0.020642782 -0.12363925 -0.00023640569 0.1800065 -0.082549766
0.079169795 0.1815815 -0.14234516 0.016981449 0.097437784 0.10825266 0.08376971 0.00095743756
-0.07200248 -0.07765291 -0.048847638 0.14954086 0.00012605324 0.02089355 -0.0065308204 -0.124295115
-0.09584266 0.10490939 -0.021513008 0.15390131 0.10009102 -0.07242196 -0.103125185 -0.074977666
-0.06498984 -0.043960568 -0.09294036 0.14291303 0.15412849 0.13554248 -0.065998174 -0.18250792
-0.07486001 0.14039476 -0.13127343 -0.14638078 -0.07664232 -0.17406698 -0.043090913 0.05634033
0.116801664 0.07848363 -0.1480269 -0.04157359 -0.11909616 0.052965242 0.16619675 -0.15991674

experts.0.gate_proj.weight f4 [32, 32]
00000000: 8488 1dbe 84be 0a3e a8e1 053d c15a 95bc
00000010: fda4 e83d 13be 513c 15e4 963c d87f 41bd
00000020: 7e16 843d 2b05 38be b926 10be ba16 363e
00000030: 1519 c83c 47ac 07bd caff 6ebd cca7 033e
00000040: e861 1f3e f2ce 1fbe feb3 2ebd 3fd1 16bd
00000050: c88e c7bd cdcb d13d 0402 1f3e 4baf 01be
00000060: 7664 d3bd cda6 e63d 1e81 1cbe be41 16be
00000070: 2c52 253e 97c6 a2bd 6282 6d3d 7233 ccbc
00000080: 914f 113e 15dd d43d a365 ff3d 010c 21bd
00000090: 019e 37be 848d 253e f09f 1c3e 5711 603c
000000a0: dc09 2a3e ae31 e13d 1aa7 c6bd 99cd b3bc
000000b0: 5c08 87ba d260 be3d 3e55 503d cac7 1fbe
000000c0: 6ecb 113e 538c c53d 68cb e63c bcdd e43d
000000d0: d474 0f3e 512c 143e 33bd c9bd 45aa b8bc
000000e0: 77f2 ccbd ea2a 983c e5ac 203e 362e 00bd
000000f0: 98d8 283e 1f5d 203e 12d6 e8bd 6d4c 8abd
00000100: b939 93bd ffef 0a3c 6824 d8bd 2335 65bc
00000110: 8a9e 273e 0e8a 08be 7634 083d 3a5e 513d
00000120: 8736 0abe 277f 4dbd 7613 a7bd 5f5b 5abd
00000130: 061e 1cbe f4bc be3d 83b1 443d 0520 373d
00000140: 6f66 88bd 15cf a7bd be55 263e 2772 36bc
00000150: 993d b1bd 2f38 283d 0b98 963d 9747 adbd
00000160: ce96 b5bc fe6c 3e3d 55ca 36bd 803e cbbd
00000170: 9ab1 ef3d ba39 dc3d 8ecb 4c3d de06 f43d
00000180: 93b1 533d f8d5 73bd 5099 37bd c329 88bd
00000190: 5c8c 153e 48c1 12be 459a 52bd 6453 dc3b
000001a0: 55aa 3bbd 7a0a 9dbd 2199 e1bd 42d3 0f3d
000001b0: e791 083e 30f7 9e3b 6023 bbbd 6ce7 e5bd
000001c0: 3d8d 2b3e ae16 6e3d 4adc 343e e477 d93c
000001d0: 5119 09be d872 dfbc 445f 30bd 935d 09be
000001e0: f6ff e5bd 6af1 df3d 08ec 943d e4ba 2d3c
000001f0: d662 30be 2964 27be d905 39bc f2fa 083d
00000200: b7e0 b73d 800f 6c3d c83d b73c ca18 04be
00000210: 44ee 033e e23d 11be 5a83 223e abfa 773a
00000220: c3be 003d 9cd9 6cbd 4427 97bd 00dd 143e
00000230: f1ff 04bd be28 d4bd 166b 96bd 9dc8 903c
00000240: 29e7 bfbd f651 063e 24c4 22bd e6c2 7a3d
00000250: c71a 283e e724 f7bd accf 90bd f077 2cbe
00000260: b34f 0d3e fce5 753d 0169 f53d b4c2 28bd
00000270: f2ae 0bbe d195 fbbb 8bae 11be a7ec 1cbd
00000280: 426a 143e 5767 15be 2a79 8b3d aa61 25bc
00000290: 3424 07be 6671 9a3d 0917 fabc 4034 dfbb
000002a0: b705 b53c a475 a43d 49fd c93d 2e72 163d
000002b0: f5d4 1b3e fe57 b43d a1f3 79bd 82a9 753d
000002c0: 2949 193e 9112 c03d 1b31 65bd e007 233e
000002d0: 5ea2 80bd 2901 8e3d b9db 283e ac1e 0ebe
000002e0: 73a6 2f3e ca86 643d 3cfa a83d 5329 233e
000002f0: 824e eeba 4105 c4bd d852 01be 8818 4bbd
00000300: 4e67 d63d 1018 11bd 26c9 083e 0db7 0dbe
00000310: caca cf3d 6c0c 003e 72aa 833d 67f6 163e
00000320: cab9 0a3e b981 7abd cc16 823d 2351 5dbd
00000330: 990d 2a3e 9c71 033d ccc8 f73d 56ff ecbd
00000340: 16cc 3d3e 58eb 763d 5dbe 373e eb15 393d
00000350: 57f4 813c 07e2 543d 7702 ff3d 0420 ea3d
00000360: 2bed 09be d350 e53d 4c36 203e d387 4bbd
00000370: cdc4 143d ed3f 2e3e 5da7 523d 6d49 1c3e
00000380: 8097 c03d 3b9b b6bd 20ca 2e3e 7460 98bd
00000390: ce14 14bd 730d bebb dc82 063e 933e d13d
000003a0: 7e84 a23c a41d 873d 3524 22be 3d55 02be
000003b0: 2a59 f5bc d1a9 893d c67e 003e ffdf e4bc
000003c0: 6680 103e fd70 b2bd 9562 353c e2a3 a6bd
000003d0: e80b 0e3e a721 763d 995c 07bd 282c e7bb
000003e0: a52f 25be 0a4e 56bb ae3a 7bbd 39b1 9bbd
000003f0: 7d2f 143e bda5 04be 2e41 853d 3ce2 f7bd
-0.15384108 0.13549238 0.032685906 -0.018231751 0.11359594 0.012801665 0.018419305 -0.047241062
0.064496025 -0.17970721 -0.14077272 0.17782107 0.024426023 -0.03312328 -0.05834941 0.12856978
0.15564692 -0.15606287 -0.042652123 -0.036820646 -0.0974403 0.1024395 0.15528113 -0.12664525
-0.10321896 0.112622835 -0.1528363 -0.14673516 0.16144627 -0.07948034 0.05798567 -0.024926875
0.14190508 0.103937306 0.124705575 -0.03931809 -0.17931367 0.16167265 0.15295386 0.013676009
0.16605324 0.10995804 -0.09699841 -0.021948623 -0.0010302174 0.09295811 0.050862543 -0.15603557
0.14237759 0.09645905 0.028173164 0.11175105 0.1400941 0.1447003 -0.0985054 -0.022542128
-0.10007184 0.01857515 0.15690954 -0.03129407 0.16488874 0.15660523 -0.11368956 -0.06752858
-0.07188744 0.008480071 -0.10553819 -0.01398972 0.16369072 -0.13333914 0.033253156 0.051115252
-0.13497363 -0.05017009 -0.08158009 -0.053309795 -0.15245828 0.09313384 0.04802085 0.04470827
-0.06660163 -0.08193795 0.16243646 -0.0111356145 -0.08654327 0.041069206 0.07353219 -0.0846092
-0.022166636 0.04649066 -0.044626553 -0.0992403 0.11703797 0.10753198 0.049998812 0.11915372
0.05168302 -0.05953023 -0.044823945 -0.066485904 0.14604324 -0.14331543 -0.051416654 0.006723808
-0.04581674 -0.07668014 -0.11015535 0.03511358 0.13336907 0.0048512444 -0.091376066 -0.11225781
0.16753097 0.058127098 0.17662159 0.026546426 -0.13388564 -0.027276441 -0.043059602 -0.13414602
-0.11230461 0.10934718 0.07271582 0.01060364 -0.17225203 -0.16346802 -0.011292898 0.033442445
0.08978408 0.05763197 0.022368327 -0.12900081 0.1288386 -0.14183763 0.15870419 0.00094596547
0.031431925 -0.057824716 -0.07380536 0.1453743 -0.032470647 -0.103593335 -0.07344644 0.017673785
-0.09370262 0.13117203 -0.039737836 0.061221026 0.16416465 -0.120675854 -0.0707086 -0.16842628
0.13799934 0.060033783 0.119829185 -0.04120131 -0.13640955 -0.0076777716 -0.14226739 -0.038311627
0.14493659 -0.14590202 0.068102196 -0.010094086 -0.13197404 0.0754116 -0.030528562 -0.0068116486
0.022097452 0.08030251 0.098627634 0.036729984 0.15217955 0.08805846 -0.06102336 0.05997611
0.14969315 0.09378541 -0.055955034 0.15920973 -0.06280969 0.06933815 0.16490068 -0.13878888
0.17153339 0.055792607 0.082508534 0.15933733 -0.0018181356 -0.095713146 -0.12629259 -0.04958394
0.104689226 -0.03542334 0.13357982 -0.1383936 0.10146101 0.12504739 0.06428994 0.14742433
0.13547435 -0.06115887 0.063520044 -0.054032456 0.1660675 0.03209077 0.12098846 -0.11572139
0.18534884 0.060283035 0.17943712 0.04518692 0.01586358 0.05197337 0.12451642 0.11431888
-0.13469379 0.111970566 0.15645713 -0.04969008 0.036320496 0.17016573 0.05142914 0.15262385
0.09403896 -0.089163266 0.17069292 -0.07440272 -0.036152653 -0.005799943 0.13135856 0.10217013
0.019838568 0.065974504 -0.15834124 -0.12727828 -0.029949743 0.06721843 0.1254836 -0.02793884
0.1411148 -0.08712957 0.011070867 -0.08136727 0.1387173 0.060090687 -0.033047292 -0.0070548244
-0.16131456 -0.0032700323 -0.06133526 -0.07602162 0.1447124 -0.12953849 0.06506573 -0.12103698
