output/FT-S-MoME/ts_encoder_epoch8.pt (torch, 376236 bytes, 34 tensors)

proj.weight f4 [32, 8]
-0.22777091 -0.22928378 0.11015776 -0.27963486 0.26232952 0.32210284 -0.10664818 0.23781267
-0.23223028 0.22101113 -0.1392292 0.08192781 0.10368058 0.28221446 -0.2675964 -0.070040636
-0.33994544 -0.00019269735 -0.20107004 0.30330005 0.02187098 0.26897696 0.15227225 -0.2571249
0.36461735 0.25934708 -0.29977718 -0.3030514 0.19397421 0.26066637 -0.114823006 -0.2802403
0.3739639 -0.03701329 0.15862727 -0.24780418 -0.26722348 0.1347404 -0.21786447 -0.2891785
0.12693112 -0.24268013 -0.017776843 -0.008530238 0.16394152 0.004383568 0.05226713 -0.20592551
-0.26394936 0.23644619 0.21901292 -0.10120332 0.25945476 -0.24911995 -0.00988133 -0.18285845
0.0700936 -0.07493189 -0.019001987 -0.021030834 -0.11206019 -0.0511976 0.09228041 0.21360923
-0.14486317 0.24534144 -0.113728896 0.06949534 0.235923 -0.3601415 0.029627051 -0.2073557
0.1481286 -0.13487026 -0.21000569 0.14523159 0.25248381 0.26285353 -0.095890924 0.2697217
-0.019577157 -0.27701303 -0.088213935 -0.0027865774 -0.078112274 0.047426358 -0.030566862 -0.20437475
-0.2910525 0.105003245 0.118343465 0.028388267 0.027277429 -0.22981824 -0.1519864 0.12253062
-0.21973473 -0.09344017 0.25537756 -0.07199773 0.34861955 0.19177112 -0.28993046 -0.1167251
0.22934721 0.20357928 0.3418681 0.35428855 0.31715503 0.12022344 0.009142848 0.1717326
0.0849972 0.24281317 -0.13933505 -0.23173372 -0.33123243 0.35797468 0.34860468 0.16353063
0.2246644 -0.109474465 -0.07818838 -0.34944877 0.28945497 -0.29821286 0.23406357 -0.14422047
0.032576706 -0.33838186 -0.06411162 0.34539685 0.10434977 -0.1620493 -0.121475734 0.035030793
0.18032409 0.26848352 -0.20266303 0.33160174 0.31707072 -0.15372173 -0.3109773 0.21977496
-0.35982022 -0.21228826 0.16386099 0.27124146 -0.35105926 -0.2663044 0.040821947 0.06384973
0.26932 -0.17848492 -0.17031825 -0.3218666 -0.10768444 -0.11388203 0.2121536 -0.20318753
0.14892077 0.3688414 0.068515256 -0.13995242 0.19151592 0.22555633 0.36492208 -0.04310804
0.07516406 0.041415296 -0.35483813 -0.18095069 0.060630485 0.07972346 0.23735553 -0.25757504
0.09687484 0.059081808 -0.14437045 -0.11830589 -0.317308 0.2635539 0.026721783 -0.09263933
-0.13135245 0.30139118 0.19163519 -0.017701736 -0.22588956 0.09443808 0.21854769 -0.02307759
-0.06004746 0.275688 0.29674235 0.31425145 0.30968958 -0.23100804 -0.10062139 -0.031826153
-0.07136884 0.10984023 -0.3562683 -0.015382438 0.32551616 0.26563817 0.0549596 -0.34916273
0.09547944 -0.18512589 0.08127453 0.35974863 -0.04487903 0.026668018 0.0519373 -0.12626742
-0.09359612 0.3604172 -0.035245948 -0.29022768 0.06243077 0.21184713 -0.26318154 0.12545598
-0.32876623 -0.07624846 -0.010671266 -0.0118731465 0.044585615 -0.026920678 0.18017495 0.33148742
-0.17716888 -0.05451849 -0.046421796 -0.26224017 -0.3690797 -0.25932896 0.09702879 0.23033433
0.24388102 -0.12255524 0.015419869 0.15035456 -0.09212384 0.16418207 -0.23015974 0.26066437
-0.10516241 -0.18754156 -0.04122473 0.16326095 0.20219249 -0.13695621 -0.16437094 -0.36231366
00000000: c73c 69be 5ec9 6abe 649a e13d 4d2c 8fbe
00000010: 0e50 863e aaea a43e 5c6a dabd 2a85 733e
00000020: c6cd 6dbe be50 623e 1992 0ebe c5c9 a73d
00000030: 7c56 d43d 6a7e 903e 6502 89be 7771 8fbd
00000040: 540d aebe cd0e 4ab9 4ee5 4dbe 254a 9b3e
00000050: c52a b33c 59b7 893e 42ed 1b3e e0a5 83be
00000060: 20af ba3e 24c9 843e 657c 99be 8e29 9bbe
00000070: 2da1 463e 1076 853e 5328 ebbd a87b 8fbe
00000080: 3278 bf3e 3f9b 17bd 306f 223e 61c0 7dbe
00000090: 84d1 88be 63f9 093e dd17 5fbe 340f 94be
000000a0: 3bfa 013e 2481 78be bea0 91bc 69c2 0bbc
000000b0: 49e0 273e 09a4 8f3b 0f16 563d 23de 52be
000000c0: 5f24 87be f31e 723e ec44 603e b043 cfbd
000000d0: 41d7 843e 4d19 7fbe 4de5 21bc 3f3f 3bbe
000000e0: 3c8d 8f3d e475 99bd 0eaa 9bbc db48 acbc
000000f0: d07f e5bd 93b4 51bd 83fd bc3d 61bc 5a3e
00000100: 0357 14be c93a 7b3e b2ea e8bd 9353 8e3d
00000110: cd95 713e 7764 b8be 6eb4 f23c 0d55 54be
00000120: 06af 173e 6e1b 0abe bb0b 57be 97b7 143e
00000130: 8f45 813e bd94 863e 7662 c4bd f618 8a3e
00000140: 4660 a0bc a7d4 8dbe 82a9 b4bd 039f 36bb
00000150: 54f9 9fbd 2442 423d 5b67 fabc 9d47 51be
00000160: d504 95be f10b d73d 0f5e f23d 838e e83c
00000170: ea74 df3c 7955 6bbe 53a2 1bbe 55f1 fa3d
00000180: 2402 61be 8f5d bfbd d9c0 823e 8c73 93bd
00000190: 437e b23e a65f 443e c471 94be 920d efbd
000001a0: ffd9 6a3e 1677 503e 5609 af3e 4f65 b53e
000001b0: 2562 a23e b537 f63d e2cb 153c acda 2f3e
000001c0: 0313 ae3d 04a4 783e d9ad 0ebe 9b4b 6dbe
000001d0: 4c97 a9be 7548 b73e 507c b23e 9374 273e
000001e0: 6d0e 663e 2634 e0bd 3b21 a0bd f3ea b2be
000001f0: 7133 943e 5baf 98be 5cae 6f3e 88ae 13be
00000200: 276f 053d 6340 adbe f44c 83bd dbd7 b03e
00000210: 55b5 d53d 40f0 25be 45c8 f8bd 737c 0f3d
00000220: e1a6 383e ac76 893e e686 4fbe b4c7 a93e
00000230: 1857 a23e 3b69 1dbe 6b38 9fbe b00c 613e
00000240: 5b3a b8be 1862 59be 2dcb 273e 29e0 8a3e
00000250: 0abe b3be 0d59 88be ea34 273d a6c3 823d
00000260: 50e4 893e c0c4 36be e867 2ebe b3cb a4be
00000270: a989 dcbd fb3a e9bd cb3e 593e 6410 50be
00000280: b07e 183e c8d8 bc3e ba51 8c3d b04f 0fbe
00000290: c01c 443e 3df8 663e 11d7 ba3e 0e92 30bd
000002a0: 9def 993d 16a3 293d 58ad b5be 234b 39be
000002b0: ac57 783d 0e46 a33d 540d 733e e0e0 83be
000002c0: 5166 c63d c4ff 713d d9d5 13be 5c4a f2bd
000002d0: 3276 a2be 89f0 863e a4e7 da3c b0b9 bdbd
000002e0: 4281 06be f24f 9a3e 043c 443e 3b03 91bc
000002f0: 984f 67be c168 c13d f7ca 5f3e 370d bdbc
00000300: 53f4 75bd fa26 8d3e 9dee 973e 91e5 a03e
00000310: a28f 9e3e 5f8d 6cbe 9612 cebd 245c 02bd
00000320: d429 92bd eaf3 e03d cc68 b6be 9f06 7cbc
00000330: 0eaa a63e ba01 883e 511d 613d 75c5 b2be
00000340: ba8a c33d a491 3dbe 4373 a63d f930 b83e
00000350: 13d3 37bd e376 da3c 35bc 543d 3f4c 01be
00000360: 53af bfbd 9a88 b83e 0e5e 10bd b998 94be
00000370: 68b7 7f3d 74ee 583e bbbf 86be 8877 003e
00000380: 0c54 a8be 2728 9cbd 89d6 2ebc 9687 42bc
00000390: 689f 363d c188 dcbc c87f 383e b8b8 a93e
000003a0: c26b 35be c84e 5fbd c824 3ebd 5844 86be
000003b0: 04f8 bcbe c4c6 84be 08b7 c63d c3dc 6b3e
000003c0: f2bb 793e 3efe fabd 9ea3 7c3c 8cf6 193e
000003d0: 6cab bcbd 581f 283e ffae 6bbe cd75 853e
000003e0: 645f d7bd e50a 40be 43db 28bd e12d 273e
000003f0: 8c0b 4f3e 403e 0cbe db50 28be 2d81 b9be

proj.bias f4 [32]
-0.07588545 -0.31949827 0.22985454 0.0997881 -0.12781131 0.16308373 -0.3365894 0.024756836
0.3333383 -0.024785973 0.13024892 -0.34505212 -0.08078429 0.29362231 -0.044100963 0.054127097
-0.09648032 0.043210853 0.3709677 0.034963455 -0.21155421 -0.039871417 -0.3506469 0.024302488
0.31221095 0.16151457 0.3503332 0.17327245 0.065287985 0.1614278 0.2232241 0.08347204
00000000: d569 9bbd 4795 a3be fd5e 6b3e b45d cc3d
00000010: f8e0 02be 6cff 263e 7255 acbe d9ce ca3c
00000020: 51ab aa3e f40b cbbc f95f 053e acaa b0be
00000030: 3c72 a5bd aa55 963e 36a3 34bd 60b4 5d3d
00000040: 7997 c5bd ddfd 303d 7aef bd3e d735 0f3d
00000050: aba1 58be 3650 23bd fe87 b3be 0316 c73c
00000060: 1dda 9f3e 1364 253e e05e b33e 556e 313e
00000070: b5b5 853d 544d 253e dc94 643e 64f3 aa3d

EiLM.0.gamma_generator.weight f4 [1, 32]
0.120457545 -0.15227284 -0.17871761 0.02960005 -0.1070577 0.16782393 -0.14692907 -0.010121624
0.10691017 -0.07559888 0.05952748 -0.068117924 -0.122143164 0.13135296 -0.1289296 -0.09190765
0.07543625 -0.022567136 0.06249986 -0.12632802 -0.18656945 0.08188898 0.18051745 -0.017646484
-0.1381922 0.051838942 0.043625448 0.09565162 -0.17905115 0.113148265 0.17689237 -0.052097958
00000000: 72b2 f63d 69ed 1bbe c001 37be ce7b f23c
00000010: 1141 dbbd 09da 2b3e 9374 16be 2bd5 25bc
00000020: b8f3 da3d 96d3 9abd 16d3 733d 6981 8bbd
00000030: 3226 fabd 6481 063e 1f06 04be 143a bcbd
00000040: 527e 9a3d b7de b8bc daff 7f3d 225c 01be
00000050: 100c 3fbe 69b5 a73d 91d9 383e 5c8f 90bc
00000060: 4282 0dbe 1255 543d 99b0 323d ffe4 c33d
00000070: 2f59 37be 47ba e73d 4623 353e ab64 55bd

EiLM.0.beta_generator.weight f4 [32, 32]
0.056489285 0.051714547 -0.10029637 -0.07842568 0.09162517 -0.053374283 0.13871244 -0.15751304
0.037351582 -0.03408781 -0.12707272 0.007584329 -0.10896129 -0.029122537 -0.014886464 0.057183236
0.12770922 0.009978589 0.063328 0.15960547 -0.07611354 -0.17341423 -0.05561626 0.005480105
0.12225178 -0.092070185 0.18842043 0.042761125 -0.03311229 -0.16922326 -0.1649349 -0.12268169
-0.04606565 -0.114786945 -0.19386007 -0.032840006 -0.16194767 -0.15012054 -0.15134788 0.12707643
0.006475032 -0.1892168 0.08512571 -0.028904218 0.10616883 -0.17419639 -0.07809989 0.064182475
-0.13376532 0.09550117 0.013634365 -0.10393631 0.08860759 0.035450667 0.12695664 -0.06652845
0.002243677 -0.044998646 -0.19063185 -0.14685848 -0.16749696 0.18587063 0.01648126 0.04151338
-0.14561208 -0.055452038 -0.027464664 0.027103152 -0.18440868 0.11083991 0.08858891 -0.13307022
0.06660026 -0.07431464 -0.03433055 0.015523435 0.07176013 -0.03472341 -0.16768828 -0.0021162592
-0.14430855 -0.16478594 -0.10795996 0.027849114 -0.03334481 -0.12120367 0.15485047 -0.16838636
0.06871662 0.047968667 0.010193215 -0.067393 0.11001532 -0.131443 -0.037726708 0.014696844
0.08164782 -0.09164849 -0.14263985 -0.15644394 -0.04808959 0.029239474 0.028454036 0.15232676
-0.07527413 -0.10190938 -0.01353465 -0.16501495 -0.02404316 0.121004514 -0.0013387222 0.11415144
-0.14747496 -0.16524461 0.12926568 -0.015084176 -0.09240704 0.12400866 0.07932335 0.0761961
0.023725023 -0.054543857 -0.093749635 -0.023916591 0.026387883 0.063953646 -0.12728661 -0.09060987
0.109543316 -0.14767894 -0.084792554 0.14382952 -0.040976528 -0.029198471 -0.004688445 -0.09669518
0.057442248 0.0071141785 -0.15462603 -0.12964511 -0.055777863 0.07019386 -0.16673146 -0.10522931
-0.15930681 -0.1129273 -0.06247626 -0.016922735 -0.16978426 -0.1257816 0.07354187 0.102706805
-0.124909155 0.003909142 0.065622866 0.13949947 0.14545968 0.11238084 0.14009567 0.026734084
-0.10361634 0.15018213 -0.111172564 0.059179917 0.098360814 0.07804541 -0.14772336 -0.13219626
-0.039864995 -0.13072346 0.0042817756 -0.14893109 -0.05980166 -0.08844178 -0.09851336 -0.06517733
-0.0895995 0.16873872 -0.13396248 -0.00033772748 0.09515532 0.0060323784 -0.009076247 -0.041810147
-0.0634022 0.05968895 -0.051433835 -0.14852296 0.03504925 -0.17634818 -0.036602147 -0.11318623
-0.009689971 -0.014336818 -0.16005744 -0.13172811 -0.067992605 -0.11323252 0.07991094 0.14508668
0.05412925 0.117476486 -0.100444734 0.055275306 0.024552308 -0.18440713 0.14034656 0.009905651
0.12106863 0.1615711 0.0544253 0.098374635 -0.049974922 -0.028778315 0.17036444 0.05790599
0.092108876 0.15928505 -0.01879497 -0.046527382 0.053352967 0.14654252 -0.15612257 -0.020912018
0.16780664 -0.03483137 0.025662957 -0.069481835 -0.10598966 0.07165052 -0.12796043 -0.072625056
0.019705167 0.1680251 0.086745426 0.17120564 -0.10424382 0.08286852 0.055283092 -0.15415022
-0.120099865 0.0868895 0.0925195 -0.15643087 0.12667799 0.007766265 -0.1273441 0.046200648
-0.0450066 -0.03704382 0.12166967 0.023907023 0.0066295015 0.01556338 0.12610537 -0.18197796
00000000: 4f61 673d a2d2 533d 2f68 cdbd a59d a0bd
00000010: faa5 bb3d fe9e 5abd a20a 0e3e 194b 21be
00000020: f9fd 183d a99f 0bbd 5a1f 02be f785 f83b
00000030: 1927 dfbd 6392 eebc 5be6 73bc f838 6a3d
00000040: 35c6 023e 3c7d 233c 1cb2 813d 9e6f 233e
00000050: 6ae1 9bbd 8093 31be e0cd 63bd 7492 b33b
00000060: 245f fa3d 4b8f bcbd 49f1 403e 4a26 2f3d
00000070: c1a0 07bd dd48 2dbe b2e4 28be 8a40 fbbd
00000080: 56af 3cbd 6b15 ebbd 4183 46be 3e83 06bd
00000090: 9cd5 25be 33b9 19be f0fa 1abe 5320 023e
000000a0: 812c d43b 0cc2 41be 6356 ae3d 8ac8 ecbc
000000b0: 0b6f d93d 8a60 32be d6f2 9fbd 1a72 833d
000000c0: c7f9 08be 1e96 c33d ac62 5f3c 8fdc d4bd
000000d0: e577 b53d b834 113d ec00 023e 1140 88bd
000000e0: a70a 133b 8050 38bd ff34 43be 1262 16be
000000f0: 5384 2bbe df54 3e3e b503 873c ef09 2a3d
00000100: 551b 15be ad21 63bd 93fd e0bc 6e07 de3c
00000110: a1d5 3cbe 0900 e33d 1a6e b53d 8f43 08be
00000120: b865 883d 4632 98bd 319e 0cbd 0156 7e3c
00000130: faf6 923d 223a 0ebd 7ab6 2bbe f0b0 0abb
00000140: 9fc5 13be a5bd 28be 1d1a ddbd d323 e43c
00000150: 9194 08bd a139 f8bd 1f91 1e3e 796d 2cbe
00000160: 4dbb 8c3d cb7a 443d 7101 273c 5705 8abd
00000170: b64f e13d fe98 06be 5287 1abd 08cb 703c
00000180: f936 a73d 34b2 bbbd 2e10 12be d732 20be
00000190: 97f9 44bd 9f87 ef3c 7018 e93c 8cfb 1b3e
000001a0: 5329 9abd ddb5 d0bd 70c0 5dbc aef9 28be
000001b0: 29f6 c4bc 37d1 f73d 1078 afba 3bc8 e93d
000001c0: ad03 17be e235 29be 395e 043e 9f23 77bc
000001d0: e73f bdbd 41f8 fd3d 4874 a23d b30c 9c3d
000001e0: fb5a c23c 6169 5fbd cfff bfbd baec c3bc
000001f0: 672b d83c 21fa 823d 6c57 02be ab91 b9bd
00000200: 3f58 e03d 2639 17be b8a7 adbd 0c48 133e
00000210: 01d7 27bd a231 efbc 87a1 99bb 1f08 c6bd
00000220: 9048 6b3d 0e1e e93b 4956 1ebe b0c1 04be
00000230: 5477 64bd ccc1 8f3d a7bb 2abe 7782 d7bd
00000240: 5321 23be 6e46 e7bd 1be7 7fbd 8ca1 8abc
00000250: eddb 2dbe e4cc 00be 1f9d 963d f257 d23d
00000260: 5fd0 ffbd 4318 803b 4865 863d f3d8 0e3e
00000270: 62f3 143e ed27 e63d 3d75 0f3e 7001 db3c
00000280: ce34 d4bd 58c9 193e 71ae e3bd a466 723d
00000290: 6571 c93d 46d6 9f3d cb44 17be 755e 07be
000002a0: 7a49 23bd 5fdc 05be 234e 8c3b 6481 18be
000002b0: 96f2 74bd f720 b5bd 5fc1 c9bd b17b 85bd
000002c0: f17f b7bd d8c9 2c3e 762d 09be 0411 b1b9
000002d0: cbe0 c23d 42ab c53b 8ab4 14bc 1e41 2bbd
000002e0: 03d9 81bd 677c 743d 49ac 52bd 6716 18be
000002f0: cd8f 0f3d 9e94 34be 22ec 15bd 2fce e7bd
00000300: afc2 1ebc f9e4 6abc 19e6 23be bce3 06be
00000310: b53f 8bbd 74e6 e7bd 59a8 a33d 9a91 143e
00000320: a2b6 5d3d 8397 f03d f8b5 cdbd 5c68 623d
00000330: ec21 c93c 39d5 3cbe 02b7 0f3e 504b 223c
00000340: d4f2 f73d e572 253e 10ed 5e3d a478 c93d
00000350: 81b2 4cbd 80c0 ebbc 0474 2e3e d52e 6d3d
00000360: 94a3 bc3d 9f1b 233e e9f7 99bc 7f93 3ebd
00000370: a488 5a3d 3e0f 163e 98de 1fbe ae4f abbc
00000380: 81d5 2b3e 57ab 0ebd 1f3b d23c 7e4c 8ebd
00000390: 1b11 d9bd 82bd 923d 0f08 03be 72bc 94bd
000003a0: bb6c a13c c60e 2c3e 96a7 b13d 8850 2f3e
000003b0: c97d d5bd f8b6 a93d 8670 623d 8ed9 1dbe
000003c0: ebf6 f5bd 1ff3 b13d dd7a bd3d 6a2f 20be
000003d0: e0b7 013e 277c fe3b 7e66 02be e43c 3d3d
000003e0: d758 38bd 43bb 17bd f32d f93d a9d8 c33c
000003f0: 4a3c d93b 8cfd 7e3c c421 013e 6e58 3abe

EiLM.1.gamma_generator.weight f4 [1, 32]
-0.024180219 -0.1587708 -0.17679629 0.12253308 0.028956003 -0.02605691 0.10090233 -0.10358244
-0.13458972 -0.0007918591 0.018521188 -0.02115192 0.17429648 0.1387991 -0.029592786 -0.04752075
0.06839307 -0.13699754 -0.047621403 0.111442626 0.08943025 0.04072302 0.16360843 -0.06408342
0.079803124 0.057851397 -0.046090487 0.0678611 -0.12781434 0.19151066 0.11264069 0.052683584
00000000: 9815 c6bc d094 22be 160a 35be a0f2 fa3d
00000010: 2435 ed3c 4d75 d5bc e1a5 ce3d 0823 d4bd
00000020: e3d1 09be c494 4fba bfb9 973c cb46 adbc
00000030: c77a 323e 5a21 0e3e 926c f2bc 1ea5 42bd
00000040: aa11 8c3d 1549 0cbe a90e 43bd 083c e43d
00000050: 3527 b73d 2ecd 263d f888 273e 2b3e 83bd
00000060: d26f a33d 96f5 6c3d 61c9 3cbd c3fa 8a3d
00000070: c3e1 02be 5f1b 443e 29b0 e63d beca 573d

EiLM.1.beta_generator.weight f4 [32, 32]
0.022375029 0.10912796 0.014210386 -0.16177325 -0.16774812 0.13111798 -0.0077951006 0.14642021
-0.1317749 0.18149476 0.061089285 0.1482306 -0.12302315 0.048517313 -0.042071514 -0.13581976
0.027845722 0.1551284 0.10331669 0.18107665 -0.058895357 0.10747712 -0.17717583 0.14407977
-0.15876043 0.030346116 0.09787755 -0.10828659 0.13642171 -0.12590955 -0.1100431 -0.031961944
-0.04041148 -0.024382945 -0.17405784 -0.02292798 0.13997127 -0.09845378 0.11793414 0.17682454
0.009828246 -0.129462 -0.13768299 0.044231288 -0.13255568 -0.13947521 0.18535888 0.12352784
0.025901835 -0.14627145 -0.12973668 -0.12362831 -0.072390445 0.11084057 -0.052705947 -0.06270516
0.15821141 -0.052467998 -0.09479973 0.102578275 0.16699047 -0.07490193 -0.013859129 0.067045406
-0.02320858 0.06386029 -0.0027476999 -0.14515729 0.03134666 0.16850483 0.05968287 -0.05945218
-0.018354869 -0.09189003 -0.09449692 -0.16863441 -0.023143789 -0.13983907 0.14183564 -0.13064821
0.1410128 -0.10810506 0.13725337 0.17401588 0.03599791 0.0030295812 0.093057394 -0.14810619
0.11352933 -0.086033665 0.00034232778 -0.048089962 -0.0017317886 0.08085585 -0.068519644 -0.16917549
0.0012412982 -0.14940065 -0.041687798 0.18180166 -0.15844321 -0.063674994 0.050523475 0.17098375
-0.054844875 0.12023083 0.13357307 0.1326191 0.09870705 -0.076473854 -0.04751388 -0.019846912
-0.05255044 -0.047475565 -0.1591694 0.078093424 0.011506171 0.055548985 0.1759433 -0.05588751
-0.07725033 0.16131507 -0.17978908 -0.065428235 0.04622322 -0.07381283 -0.1608296 -0.11326723
0.0629922 -0.038191084 -0.08435165 0.06910265 -0.06130204 -0.097030975 0.11383535 0.055472743
-0.15583476 -0.16670126 -0.15115699 0.07910504 -0.0661637 0.08792722 -0.15693912 0.18562879
0.023157535 0.009333459 -0.00040237056 -0.12682974 -0.03861033 -0.13448793 0.10794849 -0.05135692
-0.06546314 -0.123510584 0.14197963 0.1049234 0.035829164 0.06779513 -0.091428705 0.024196733
-0.18026963 0.01119124 0.16000725 0.146769 -0.11808881 0.018627917 0.17053328 0.08906116
-0.17516764 -0.15403545 0.061151966 0.026832853 -0.085378885 0.056126192 -0.15021914 -0.0771174
-0.15847936 0.16518874 0.050113257 -0.18521579 0.14701128 -0.029067166 -0.0508122 0.13133232
-0.1502093 -0.05664168 -0.15404601 0.10553465 -0.05671065 0.034208313 0.086325735 0.074991666
0.13781135 -0.09230984 -0.06439289 -0.17649235 -0.07914224 -0.09175105 -0.06000073 0.1698263
-0.12690353 0.061682664 0.11134879 -0.018455148 -0.09945544 0.15257382 0.19121405 0.0123266615
-0.1595414 -0.06939058 0.105678305 0.069814734 -0.018772725 -0.116530515 -0.10980192 -0.07444138
-0.08468893 0.025808593 -0.069279574 0.155585 -0.0070915916 0.06657081 -0.121902615 0.16253126
-0.1599213 -0.010259958 -0.01022745 -0.11080619 0.010474916 -0.051378556 0.12281613 -0.07238247
-0.061140254 0.09388906 -0.08862878 -0.007970782 -0.1758062 -0.13710299 -0.004570342 -0.117284946
-0.13064188 -0.064422905 -0.15975124 -0.060050264 -0.05417457 -0.15515783 -0.16414003 0.17062543
-0.1331296 -0.13633063 -0.13535865 0.020374015 0.08024141 -0.0024241195 -0.12140112 -0.020026702
00000000: d64b b73c 7b7e df3d aed2 683c e3a7 25be
00000010: 2ac6 2bbe cb43 063e 0b6e ffbb 2eef 153e
00000020: 00f0 06be c3d9 393e c238 7a3d c3c9 173e
00000030: 90f3 fbbd 17ba 463d 2e53 2cbd 5614 0bbe
00000040: b61c e43c fbd9 1e3e b397 d33d 286c 393e
00000050: 423c 71bd f71c dc3d 956d 35be a689 133e
00000060: 1892 22be 6b98 f83c 0674 c83d 5cc5 ddbd
00000070: 22b2 0b3e 6fee 00be 475e e1bd 87ea 02bd
00000080: 8286 25bd bebe c7bc 383c 32be 76d3 bbbc
00000090: a154 0f3e 23a2 c9bd 7487 f13d 7e11 353e
000000a0: a706 213c b091 04be c5fc 0cbe de2b 353d
000000b0: adbc 07be 97d2 0ebe b8ce 3d3e 2afc fc3d
000000c0: 1630 d43c 2fc8 15be b1d9 04be d730 fdbd
000000d0: 7141 94bd 6100 e33d 31e2 57bd 906b 80bd
000000e0: 2c02 223e afe8 56bd 5c26 c2bd 8f14 d23d
000000f0: 8dff 2a3e 2f66 99bd 6611 63bc 1a4f 893d
00000100: ec1f bebc 2fc9 823d c112 34bb 1da4 14be
00000110: 5b65 003d 888c 2c3e 0676 743d 2184 73bd
00000120: f35c 96bc d730 bcbd 9a87 c1bd 80ae 2cbe
00000130: 0b98 bdbc f931 0fbe 5d3d 113e a5c8 05be
00000140: a965 103e 3066 ddbd 268c 0c3e 3831 323e
00000150: 8b72 133d f08b 463b e094 be3d 26a9 17be
00000160: 1182 e83d 6b32 b0bd 757a b339 fbf9 44bd
00000170: 2ffd e2ba c097 a53d 0754 8cbd 573c 2dbe
00000180: 0eb3 a23a 7cfc 18be d3c0 2abd 372a 3a3e
00000190: f03e 22be 0968 82bd b4f1 4e3d 5d16 2f3e
000001a0: 05a5 60bd 953b f63d 61c7 083e 4dcd 073e
000001b0: ec26 ca3d 539e 9cbd ea9d 42bd fe95 a2bc
000001c0: 213f 57bd bd75 42bd 4efd 22be 72ef 9f3d
000001d0: 6184 3c3c 5587 633d 7b2a 343e 4dea 64bd
000001e0: 6c35 9ebd c72f 253e a11a 38be 3dff 85bd
000001f0: 8f54 3d3d 2e2b 97bd 84b0 24be a6f8 e7bd
00000200: 0e02 813d 416e 1cbd 8fc0 acbd b185 8d3d
00000210: d917 7bbd 2db8 c6bd 8222 e93d 6337 633d
00000220: 2693 1fbe bcb3 2abe e6c8 1abe d301 a23d
00000230: d580 87bd 3013 b43d a6b4 20be 7915 3e3e
00000240: dfb4 bd3c 5deb 183c 43f5 d2b9 a8df 01be
00000250: de25 1ebd 34b7 09be 1914 dd3d a25b 52bd
00000260: 8a11 86bd 1ef3 fcbd 1c63 113e 14e2 d63d
00000270: 9ac1 123d 2cd8 8a3d f93e bbbd 3a38 c63c
00000280: 9a98 38be 765b 373c f1d8 233e 9d4a 163e
00000290: 8cd8 f1bd 9399 983c 47a0 2e3e b365 b63d
000002a0: 255f 33be 78bb 1dbe 7c7a 7a3d 92d0 db3c
000002b0: 20db aebd 94e4 653d 0cd3 19be baef 9dbd
000002c0: 6a48 22be 3d27 293e 8f43 4d3d 35a9 3dbe
000002d0: 208a 163e 441e eebc 7420 50bd fb7b 063e
000002e0: 77d0 19be 1b01 68bd 3dbe 1dbe 8d22 d83d
000002f0: 6d49 68bd 041e 0c3d 8ccb b03d 3b95 993d
00000300: 6b1e 0d3e f10c bdbd 6be0 83bd 69ba 34be
00000310: 5415 a2bd f9e7 bbbd 53c3 75bd f2e6 2d3e
00000320: 00f3 01be f6a6 7c3d d60a e43d 402f 97bc
00000330: 4baf cbbd 503c 1c3e 9ecd 433e c4f5 493c
00000340: d25e 23be a61c 8ebd de6d d83d 07fb 8e3d
00000350: 42c9 99bc 8da7 eebd d4df e0bd b974 98bd
00000360: 6471 adbd 8b6c d33c 73e2 8dbd ad51 1f3e
00000370: 9560 e8bb 4756 883d 14a8 f9bd 986e 263e
00000380: 69c2 23be 6219 28bc 0991 27bc 5bee e2bd
00000390: fb9e 2b3c 5272 52bd 0687 fb3d 433d 94bd
000003a0: 346e 7abd e848 c03d 0183 b5bd e297 02bc
000003b0: 8a06 34be ba64 0cbe cfc2 95bb 1733 f0bd
000003c0: fcc6 05be 28f0 83bd d495 23be 44f7 75bd
000003d0: 27e6 5dbd b2e1 1ebe 5314 28be 6fb8 2e3e
000003e0: 2053 08be 429a 0bbe 759b 0abe 68e7 a63c
000003f0: 9c55 a43d fadd 1ebb 27a1 f8bd 0a0f a4bc

EiLM.2.gamma_generator.weight f4 [1, 32]
0.11410938 -0.10043169 0.07384308 -0.17537951 -0.11513732 -0.033808097 0.02017758 -0.086648315
0.17963001 -0.1327012 0.12469685 0.13984047 -0.09483022 -0.11884427 -0.015076128 -0.010289734
-0.009376219 -0.072947055 0.05957445 -0.087631375 -0.15491575 -0.026052333 0.120475635 -0.14801422
-0.12577097 -0.06498951 -0.07585521 0.043618396 -0.17399839 0.14585878 0.11554649 -0.08930427
00000000: 2eb2 e93d 21af cdbd 0a3b 973d b096 33be
00000010: 1dcd ebbd 5c7a 0abd 744b a53c ac74 b1bd
00000020: eef0 373e d3e2 07be 1061 ff3d 5732 0f3e
00000030: 5936 c2bd a064 f3bd dd01 77bc 4696 28bc
00000040: b69e 19bc 4465 95bd 5704 743d 1478 b3bd
00000050: 3ca2 1ebe b46b d5bc eebb f63d 0a91 17be
00000060: 1bca 00be 3819 85bd fa59 9bbd 34a9 323d
00000070: a22c 32be 015c 153e a3a3 ec3d 28e5 b6bd

EiLM.2.beta_generator.weight f4 [32, 32]
-0.014316316 -0.11435863 -0.07657582 -0.16954507 -0.1810374 0.14280151 0.14730689 0.10403616
0.020306615 -0.0036456478 -0.027844232 0.0033525203 -0.15183914 0.12045522 -0.0682297 0.03990785
0.1055146 -0.07005826 -0.054303683 -0.016234385 -0.14846458 -0.14157821 -0.17152011 -0.038803507
0.095721655 -0.17366263 -0.09777885 -0.16026059 -0.15671764 -0.19168472 0.031916637 0.06161953
0.13931806 0.042827494 -0.15088794 -0.055486046 0.046285942 -0.108555585 0.09622134 0.10767474
0.015915431 0.12115397 -0.08681839 -0.13295572 0.14892305 0.07332313 -0.03196435 0.047868673
-0.037612 -0.119307905 0.09977176 0.008005576 -0.12527488 -0.07082222 -0.036812317 0.013293026
0.012507084 -0.15777083 -0.13218983 0.060301904 0.09755665 -0.012386184 -0.08762773 0.05216845
-0.06085446 -0.10218159 0.16648342 0.12669502 -0.14360175 0.11836221 -0.066373944 0.0037043493
0.1313243 -0.12613411 -0.17480128 0.035832953 -0.14829654 -0.049558196 -0.03706328 0.034002688
0.085337 0.16042106 0.103480496 0.16971213 0.14426664 -0.14179577 0.07429005 0.16544402
0.12354638 0.12145726 -0.08203624 0.054221343 0.08250325 0.045915335 0.115965314 -0.05567455
0.046588227 -0.1562798 0.14037418 -0.02387858 -0.033635255 -0.08344152 -0.1445318 -0.0056265392
-0.16694368 -0.11549904 0.049790226 0.033818457 0.03165222 -0.08953835 0.10650587 -0.06937992
0.16357931 -0.1356723 -0.04572745 0.015293645 -0.03776502 0.13871944 -0.10377502 0.0869634
0.13501973 0.073336475 0.046232034 -0.1441752 -0.09283497 -0.107132226 0.11793353 -0.037031088
-0.022823034 0.062446628 -0.039342865 -0.17886683 0.1376446 0.04797056 0.052744694 0.17484161
0.17164727 -0.04516088 -0.11233884 -0.18587932 0.18757443 0.09246148 -0.103510715 -0.041005466
-0.14999144 0.07120712 -0.082174264 0.08011132 0.047427896 -0.07368897 -0.067843646 0.00676025
0.022076758 -0.0002612502 -0.16221845 -0.15939188 0.017789181 -0.15413883 0.11299665 0.18299066
0.02064282 -0.12825425 -0.044527713 0.113070436 -0.15458615 0.012200086 0.10873062 -0.16286653
-0.08883716 0.10285162 0.16059718 0.100971736 -0.07481076 -0.11927637 -0.10626917 0.15965185
-0.05355825 -0.0661723 0.12964816 0.11630417 -0.11854462 0.16124232 0.04365993 0.0518045
-0.13567743 -0.04413671 0.1568159 -0.16463499 -0.08754302 0.06578464 -0.032825083 0.13926284
-0.050394878 0.042051654 -0.1258768 -0.11153514 0.014681371 -0.027890772 -0.085561454 0.09006467
-0.1602999 0.0056702103 -0.15948038 0.14338228 -0.06826102 -0.11680524 0.0928488 0.059885316
0.065620326 0.17928226 -0.09333112 -0.18007717 0.106598705 0.10078859 0.053330954 -0.120412484
-0.12170401 0.17185137 -0.043102704 0.16742782 -0.09779815 0.027343215 0.067401566 0.05605702
0.121592976 0.15621705 -0.05537061 0.07569893 -0.026176866 0.108789556 0.05736107 0.14416552
-0.16384706 -0.04012543 0.08575364 0.18443711 -0.13173206 0.09900527 0.1505925 -0.03778186
0.095908016 -0.036952503 0.10210409 0.052792568 -0.074682 0.10367488 -0.040101502 -0.010381792
-0.035922788 -0.10021627 0.09844352 0.1559143 -0.12243606 -0.16625322 -0.14217854 -0.06856082
00000000: fb8e 6abc db34 eabd c9d3 9cbd 399d 2dbe
00000010: de61 39be 8f3a 123e 9ed7 163e e910 d53d
00000020: 0f5a a63c d2eb 6ebb 9619 e4bc f5b5 5b3b
00000030: b87b 1bbe 3ab1 f63d 03bc 8bbd 6a76 233d
00000040: 0a18 d83d b47a 8fbd 8a6d 5ebd f9fd 84bc
00000050: 1907 18be e1f9 10be f8a2 2fbe 6df0 1ebd
00000060: b709 c43d 9ed4 31be 4740 c8bd 5a1b 24be
00000070: 977a 20be 0049 44be 05bb 023d c364 7c3d
00000080: 65a9 0e3e e26b 2f3d 5e82 1abe 5645 63bd
00000090: 5496 3d3d 6452 debd b20f c53d 9384 dc3d
000000a0: 1461 823c 931f f83d d7cd b1bd 8b25 08be
000000b0: 497f 183e 702a 963d 0ded 02bd f111 443d
000000c0: 0a0f 1abd b457 f4bd 2355 cc3d d229 033c
000000d0: 0f48 00be 3d0b 91bd 83c8 16bd feca 593c
000000e0: 83ea 4c3c ad8e 21be c55c 07be 21ff 763d
000000f0: c8cb c73d 6cef 4abc 2b76 b3bd 96ae 553d
00000100: 8742 79bd 9544 d1bd a17a 2a3e 57bc 013e
00000110: 560c 13be e367 f23d 10ef 87bd abc4 723b
00000120: e179 063e 4d29 01be 1bff 32be 93c5 123d
00000130: 0cdb 17be 89fd 4abd aacf 17bd 6746 0b3d
00000140: 2ac5 ae3d 6b45 243e 95ed d33d 04c9 2d3e
00000150: a2ba 133e e932 11be 6225 983d 286a 293e
00000160: e205 fd3d 95be f83d 9e02 a8bd 3317 5e3d
00000170: 77f7 a83d b811 3c3d 397f ed3d ff0a 64bd
00000180: 4cd3 3e3d d007 20be 40be 0f3e 039d c3bc
00000190: 1fc5 09bd 63e3 aabd 2500 14be d55e b8bb
000001a0: 49f3 2abe c38a ecbd d6f0 4b3d 3985 0a3d
000001b0: c2a5 013d e25f b7bd c01f da3d 0f17 8ebd
000001c0: 5681 273e aeed 0abe b54c 3bbd 3292 7a3c
000001d0: 7eaf 1abd 780c 0e3e ff87 d4bd de19 b23d
000001e0: 9d42 0a3e 6f31 963d cd5d 3d3d aaa2 13be
000001f0: 4320 bebd 2468 dbbd 2287 f13d e9ad 17bd
00000200: 5ff7 babc 09c8 7f3d fc25 21bd de28 37be
00000210: b5f2 0c3e c77c 443d d20a 583d ae09 333e
00000220: 4dc4 2f3e 9dfa 38bd e811 e6bd 2657 3ebe
00000230: 8313 403e 725c bd3d 6dfd d3bd 59f5 27bd
00000240: 5b97 19be 0ad5 913d fb4a a8bd 6711 a43d
00000250: c143 423d 3eea 96bd 9cf1 8abd 1685 dd3b
00000260: 51da b43c 69f8 88b9 981c 26be a037 23be
00000270: 9eba 913c 92d6 1dbe ca6a e73d e761 3b3e
00000280: 221b a93c 1555 03be b162 36bd 7991 e73d
00000290: d54b 1ebe dfe2 473c 29ae de3d 7cc6 26be
000002a0: 42f0 b5bd dfa3 d23d 9673 243e 45ca ce3d
000002b0: 6236 99bd 2b47 f4bd a7a3 d9bd c67b 233e
000002c0: e55f 5bbd 5885 87bd 7dc2 043e e130 ee3d
000002d0: 86c7 f2bd b51c 253e c1d4 323d f530 543d
000002e0: 06ef 0abe b2c8 34bd 5994 203e 1396 28be
000002f0: c149 b3bd 19ba 863d 9873 06bd eb9a 0e3e
00000300: dc6a 4ebd 5b3e 2c3d d9e5 00be 896c e4bd
00000310: 228a 703c 307b e4bc d83a afbd d373 b83d
00000320: a825 24be 2ccd b93b d34e 23be ced2 123e
00000330: 6fcc 8bbd 9637 efbd 8327 be3d 4e4a 753d
00000340: f363 863d c595 373e 6324 bfbd 2666 38be
00000350: 6c50 da3d 406a ce3d 8f71 5a3d d29a f6bd
00000360: f43f f9bd cef9 2f3e 768c 30bd 3372 2b3e
00000370: 654a c8bd e1fe df3c d509 8a3d 0c9c 653d
00000380: bd05 f93d 5df7 1f3e 4bcc 62bd 0a08 9b3d
00000390: de70 d6bc 0fcd de3d 71f3 6a3d 20a0 133e
000003a0: 86c7 27be 905a 24bd 9b9f af3d 15dd 3c3e
000003b0: c5e4 06be 46c3 ca3d ec34 1a3e 27c1 1abd
000003c0: 6c6b c43d 825b 17bd f31b d13d 053d 583d
000003d0: e0f2 98bd 7f53 d43d 7941 24bd 6418 2abc
000003e0: c623 13bd 303e cdbd c29c c93d 00a8 1f3e
000003f0: c2bf fabd 493e 2abe 4097 11be 9d69 8cbd

EiLM.3.gamma_generator.weight f4 [1, 32]
-0.04689859 -0.028776072 -0.02108701 0.16368316 -0.04648029 -0.12814353 0.10698739 0.15420139
-0.15374288 0.12319136 -0.12959221 0.07931598 -0.031911794 -0.08212694 0.10187998 -0.09502451
-0.1718159 -0.09336722 -0.11028996 0.10909258 -0.14554954 -0.028290287 0.0873656 0.15078191
0.06256311 0.048041828 -0.07517609 0.117029905 -0.15469404 -0.11850541 -0.12593181 -0.15394855
00000000: bc18 40bd ccbb ebbc aabe acbc 8f9c 273e
00000010: 1e62 3ebd 0f38 03be 341c db3d f8e6 1d3e
00000020: c66e 1dbe c04b fc3d d2b3 04be 6b70 a23d
00000030: f1b5 02bd 2b32 a8bd 73a6 d03d 369c c2bd
00000040: 82f0 2fbe 5037 bfbd b4df e1bd ee6b df3d
00000050: f00a 15be 08c1 e7bc bcec b23d 9366 1a3e
00000060: 1621 803d 82c7 443d ecf5 99bd 60ad ef3d
00000070: 1d68 1ebe f7b2 f2bd 45f4 00be b0a4 1dbe

EiLM.3.beta_generator.weight f4 [32, 32]
-0.08518598 0.19737118 -0.11644863 -0.038322844 -0.06650342 -0.024566064 -0.097155824 0.01536748
-0.09749826 -0.15600882 0.082042575 -0.038003225 0.0762235 -0.051219363 -0.17381881 0.051057544
0.1573873 -0.1689771 -0.033076663 -0.041438017 0.16289355 -0.07761608 -0.019347575 0.1042059
0.07563531 -0.025669374 -0.15048778 -0.1078081 -0.0012863646 -0.19795896 0.011060809 0.043255173
-0.07734214 -0.1699419 0.084341675 0.12038259 -0.17474127 -0.011804614 0.07836139 0.016626965
-0.14332005 0.16091862 -0.061770227 -0.049092688 0.1655343 -0.124733865 0.12031176 -0.13466722
0.024930501 0.16666166 0.10067842 0.044154685 0.0336344 -0.050092008 0.09417767 -0.0962898
0.10699447 0.03212652 -0.024909806 -0.043825086 0.15918615 0.10310153 0.12522237 -0.07570616
0.03460919 0.17053726 0.17116505 0.027907975 0.11226504 -0.0716287 0.038645875 0.011225735
0.011528953 0.08109979 -0.08668516 0.014967691 -0.071011774 -0.004561071 -0.16553853 -0.013099615
-0.001138897 0.11980968 -0.13238989 -0.07253111 0.012143296 0.116288684 -0.08316907 -0.09711969
-0.15221111 0.045453608 -0.106707074 -0.040846985 0.007153991 -0.16843748 0.14997818 -0.12833574
0.08906612 -0.09412577 -0.103917435 0.09513848 -0.05535211 -0.12417562 -0.12831281 0.014169289
-0.052299835 -0.044601645 -0.16577049 -0.091540955 -0.03840817 -0.14591733 0.02152878 0.114698686
-0.031395596 0.029858138 -0.04620496 -0.18195319 -0.13945898 0.095685184 0.022887584 0.14222308
-0.14004192 0.16705236 0.099896625 -0.038698427 -0.09527184 0.16006075 0.04971331 0.11288549
0.10861351 -0.0670008 0.056443863 -0.06306226 -0.12512416 0.15082575 -0.12209985 0.1632615
-0.023728646 0.08436357 0.16967286 -0.047504935 0.12947173 -0.13772757 -0.14592884 0.10693772
0.105313145 -0.025265368 0.082956605 0.15428725 0.15954712 -0.17525977 0.049211722 -0.06400824
0.14999941 -0.037766583 -0.16716641 -0.04931839 0.08607232 0.00940932 0.14066844 0.03908647
-0.119578384 0.16588862 0.10637309 -0.11121737 0.07742784 0.13228475 0.022566115 0.021476228
0.005709841 0.059757825 0.036726773 0.14703575 -0.10605115 -0.040816363 0.110126 0.050471343
-0.03195385 -0.1647904 0.15723716 -0.16522928 -0.16382565 -0.1006495 0.17122851 0.11225879
0.044602334 -0.09787134 0.040475465 -0.12497152 0.045384046 0.070559 -0.06601383 0.049420632
-0.07432142 0.15829217 0.05451284 -0.07930324 -0.018528799 0.10560672 0.10321692 -0.035379875
-0.1549056 0.12363336 0.16484654 -0.14467543 -0.074373506 -0.061499987 0.023939487 0.10807132
0.05633733 0.12681851 0.075556085 0.084081836 -0.10888091 0.15274836 0.13635002 0.047665756
0.0015458881 -0.044301968 0.051018856 0.1349329 0.14325061 0.059453335 -0.0055639427 -0.030493129
0.045471538 0.17056109 0.046859723 -0.104156636 -0.030740725 0.11420232 -0.10962903 0.044025086
0.09811315 0.073729895 -0.101073846 0.030343242 0.07947774 0.11563745 -0.020486668 -0.12668326
-0.14251839 -0.13851826 0.12593403 0.07574531 -0.14533296 -0.11817745 -0.071807146 -0.04208936
-0.10379283 0.12849239 0.093337275 -0.107914105 -0.09718293 -0.18272434 -0.1696012 -0.076783925
00000000: fd75 aebd ac1b 4a3e 9f7c eebd 6af8 1cbd
00000010: f232 88bd c53e c9bc a2f9 c6bd e2c7 7b3c
00000020: 2bad c7bd c7c0 1fbe f005 a83d 45a9 1bbd
00000030: 111b 9c3d 65cb 51bd 8ffd 31be b721 513d
00000040: 232a 213e 5508 2dbe 657b 07bd e9ba 29bd
00000050: 91cd 263e 2ef5 9ebd ce7e 9ebc e769 d53d
00000060: afe6 9a3d 9448 d2bc 7819 1abe 7eca dcbd
00000070: 3c9b a8ba c1b5 4abe 6538 353c 562c 313d
00000080: 8e65 9ebd 4005 2ebe 54bb ac3d 268b f63d
00000090: 60ef 32be 2468 41bc f07b a03d 4635 883c
000000a0: 7ec2 12be dac7 243e c702 7dbd 6a15 49bd
000000b0: d381 293e 7874 ffbd 0366 f63d 34e6 09be
000000c0: 0d3b cc3c 5ba9 2a3e 7d30 ce3d 8bdb 343d
000000d0: 3ac4 093d 472d 4dbd 39e0 c03d 9633 c5bd
000000e0: eb1f db3d 1997 033d a60f ccbc ef81 33bd
000000f0: b201 233e e526 d33d 4b3a 003e d50b 9bbd
00000100: 5ec2 0d3d 52a1 2e3e e445 2f3e 449f e43c
00000110: 37eb e53d 11b2 92bd 234b 1e3d 25ec 373c
00000120: efe3 3c3c a617 a63d fd87 b1bd 0c3b 753c
00000130: 9f6e 91bd 0975 95bb ef82 29be c59f 56bc
00000140: 0b47 95ba c75e f53d 3791 07be 318b 94bd
00000150: adf4 463c c328 ee3d 8c54 aabd b0e6 c6bd
00000160: 3bdd 1bbe 902d 3a3d 3d89 dabd 2b4f 27bd
00000170: 076c ea3b e07a 2cbe e193 193e 726a 03be
00000180: 4c68 b63d 03c5 c0bd aad2 d4bd f7d7 c23d
00000190: e5b8 62bd ca4f febd 6f64 03be 4e26 683c
000001a0: 5a38 56bd 37b0 36bd bdbf 29be d379 bbbd
000001b0: e351 1dbd 5a6b 15be 205d b03c 25e7 ea3d
000001c0: ab98 00bd 0e99 f43c 6a41 3dbd f051 3abe
000001d0: 56ce 0ebe 98f6 c33d be7e bb3c eda2 113e
000001e0: 2667 0fbe c60f 2b3e 9a96 cc3d 3e82 1ebd
000001f0: e21d c3bd f7e6 233e 2fa0 4b3d 8230 e73d
00000200: c370 de3d b737 89bd ae31 673d c926 81bd
00000210: 8c20 00be 1172 1a3e 7c0f fabd 062e 273e
00000220: 9462 c2bc cfc6 ac3d b9be 2d3e 8994 42bd
00000230: 3d94 043e 7508 0dbe 5f6e 15be 2a02 db3d
00000240: 6bae d73d 51f9 cebc 27e5 a93d 7afd 1d3e
00000250: 5260 233e 4c77 33be 3b92 493d c116 83bd
00000260: 7299 193e 22b1 1abd ac2d 2bbe 1502 4abd
00000270: af46 b03d 8c29 1a3c 630b 103e 2219 203d
00000280: 83e5 f4bd b5de 293e 22da d93d efc5 e3bd
00000290: 7d92 9e3d a775 073e 93dc b83c eaee af3c
000002a0: 9e19 bb3b 9fc4 743d d06e 163d 8a90 163e
000002b0: 5831 d9bd 0f2f 27bd be89 e13d 0abb 4e3d
000002c0: 0ae2 02bd d1be 28be c702 213e dd31 29be
000002d0: e9c1 27be 5321 cebd 8756 2f3e f0e7 e53d
000002e0: f0b0 363d c570 c8bd 9ac9 253d 11f1 ffbd
000002f0: 9fe4 393d 3d81 903d 4232 87bd 4a6d 4a3d
00000300: d435 98bd 5817 223e db48 5f3d bd69 a2bd
00000310: b5c9 97bc 5648 d83d 6463 d33d 7dea 10bd
00000320: 939f 1ebe 7d33 fd3d 88cd 283e cc25 14be
00000330: 2351 98bd 69e7 7bbd be1c c43c 7f54 dd3d
00000340: f9c1 663d b6dc 013e 26bd 9a3d 1933 ac3d
00000350: f4fc debd 116a 1c3e 579f 0b3e 2b3d 433d
00000360: 669f ca3a fb75 35bd 26f9 503d da2b 0a3e
00000370: 4ab0 123e 5785 733d bc51 b6bb bacc f9bc
00000380: 5d40 3a3d 91a7 2e3e fbef 3f3d 1350 d5bd
00000390: f9d3 fbbc e8e2 e93d 2f85 e0bd a653 343d
000003a0: 8cef c83d b3ff 963d ceff cebd 6492 f83c
000003b0: 3ac5 a23d 54d3 ec3d a8d3 a7bc 42b9 01be
000003c0: 57f0 11be bbd7 0dbe daf4 003e 5b20 9b3d
000003d0: 2ad2 14be 0507 f2bd a00f 93bd e565 2cbd
000003e0: 5691 d4bd 8293 033e 9d27 bf3d 1202 ddbd
000003f0: d807 c7bd 171c 3bbe f0ab 2dbe e440 9dbd

Gate.weight f4 [4, 32]
0.15209022 0.025007257 -0.020208929 0.13535166 0.06132259 -0.10904352 0.14714646 -0.16198003
0.07612568 0.15838486 0.14166188 0.017023819 0.000508897 -0.112934284 -0.1066525 -0.052918896
0.109068744 -0.08369851 -0.04678571 -0.13573952 -0.13084054 -0.022916842 -0.06601388 -0.036140382
0.08320855 0.14794163 -0.13645363 -0.058534287 -0.18407214 0.17413825 -0.06117222 -0.1547255
0.13375904 -0.11336717 0.16837597 -0.13620403 -0.11811662 0.02527927 0.030457228 -0.033122625
0.10850486 0.103972375 0.14559878 -0.092952766 -0.038595635 -0.1984576 0.066877455 0.13655479
-0.09459907 0.04393012 0.06694242 0.14968853 -0.002503231 0.057521217 0.017041698 -0.018720292
-0.15115887 0.085457504 -0.14478447 -0.031135852 0.02260753 0.11929222 -0.11204197 0.009163004
0.09335791 -0.15993866 0.063890085 0.13816242 -0.024415825 -0.18251418 0.032666665 0.14723977
0.13134748 0.07884035 -0.14037848 0.019993773 -0.124737665 0.00045057517 0.18076862 -0.083192535
0.07836065 0.18229997 -0.14303562 0.016328609 0.09812686 0.10752162 0.08316273 0.001716929
-0.0713133 -0.078021646 -0.04823143 0.1502873 0.00062932493 0.020259574 -0.0057882974 -0.12506737
-0.09692442 0.10323937 -0.020389961 0.15606497 0.09911713 -0.07187814 -0.10476243 -0.07401287
-0.06416604 -0.043129385 -0.09377572 0.14122775 0.15286922 0.13677074 -0.06511239 -0.18334989
-0.076544866 0.14156878 -0.13164495 -0.14735936 -0.075805336 -0.1753677 -0.044805367 0.057573922
0.11828847 0.079735175 -0.14624424 -0.039536003 -0.1188074 0.052109346 0.16777429 -0.16079414
00000000: 8abd 1b3e 05dc cc3c 328d a5bc a099 0a3e
00000010: 652d 7b3d 3652 dfbd 90ad 163e 18de 25be
00000020: c8e7 9b3d a42f 223e d00f 113e 8975 8b3c
00000030: 8067 053a 174a e7bd a06c dabd 7cc1 58bd
00000040: 6f5f df3d 206a abbd 5fa2 3fbd 4dff 0abe
00000050: 10fb 05be 1abc bbbc 4932 87bd f007 14bd
00000060: 3f69 aa3d 037e 173e 80ba 0bbe a6c1 6fbd
00000070: 687d 3cbe 4c51 323e b98f 7abd 5d70 1ebe
00000080: 21f8 083e 0c2d e8bd c06a 2c3e 1279 0bbe
00000090: 20e7 f1bd 7916 cf3c 7081 f93c 97ab 07bd
000000a0: cc37 de3d 78ef d43d d917 153e 055e bebd
000000b0: 7516 1ebd 7838 4bbe 0cf7 883d 05d5 0b3e
000000c0: 28bd c1bd 12f0 333d 1c19 893d f347 193e
000000d0: 3f0d 24bb 5e9b 6b3d 089b 8b3c 4c5b 99bc
000000e0: 64c9 1abe 5804 af3d 6142 14be 9d10 ffbc
000000f0: 6d33 b93c 7b4f f43d 4376 e5bd 6d20 163c
00000100: 6f32 bf3d f6c6 23be ced8 823d 737a 0d3e
00000110: b203 c8bc ffe4 3abe 7bcd 053d 06c6 163e
00000120: f47f 063e 0d77 a13d 60bf 0fbe fbc9 a33c
00000130: 7676 ffbd 2d3b ec39 691b 393e d960 aabd
00000140: 8c7b a03d d8ac 3a3e ee77 12be 93c3 853c
00000150: bcf6 c83d 4c34 dc3d 3951 aa3d 940a e13a
00000160: b50c 92bd d0c9 9fbd 528e 45bd eae4 193e
00000170: 48f9 243a 68f7 a53c c2ab bdbb a911 00be
00000180: 4f80 c6bd 2a6f d33d d908 a7bc 7fcf 1f3e
00000190: ecfd ca3d d934 93bd af8d d6bd 0f94 97bd
000001a0: 7c69 83bd 70a8 30bd 7c0d c0bd 029e 103e
000001b0: c089 1c3e a10d 0c3e a559 85bd 13c0 3bbe
000001c0: 8ec3 9cbd 68f7 103e efcd 06be 5fe5 16be
000001d0: d43f 9bbd 9793 33be d585 37bd a2d2 6b3d
000001e0: 3a41 f23d 324c a33d 0dc1 15be 81f0 21bd
000001f0: 4b51 f3bd 9c70 553d 06cd 2b3e 38a7 24be

experts.0.gate_proj.weight f4 [32, 32]
-0.15430318 0.13496311 0.03217917 -0.017515214 0.114362255 0.013199484 0.017835043 -0.047584582
0.06501199 -0.18025918 -0.14020078 0.17811818 0.023199616 -0.033784598 -0.058810856 0.12931919
0.15557776 -0.15657607 -0.04217973 -0.036090463 -0.098053284 0.103134245 0.15612587 -0.1273689
-0.10402203 0.112753995 -0.15422691 -0.14530423 0.1608602 -0.07878566 0.05759068 -0.024434667
0.14248133 0.103750326 0.12628168 -0.039294768 -0.18019345 0.16234767 0.15198132 0.013745033
0.16621567 0.11036241 -0.096637696 -0.022932354 -0.0002477449 0.09307062 0.0508112 -0.1562032
0.14321879 0.096350536 0.028450651 0.1116625 0.1399055 0.14518128 -0.09909796 -0.023077626
-0.1000259 0.020093082 0.15753062 -0.031043045 0.16566123 0.15663293 -0.11285263 -0.06729686
-0.07043979 0.008055655 -0.103955515 -0.015349341 0.16251852 -0.13397753 0.03270183 0.05243079
-0.13588288 -0.049453348 -0.082051404 -0.053010352 -0.15166822 0.09357761 0.048861936 0.043976087
-0.06628287 -0.08220361 0.16257252 -0.011811948 -0.086067975 0.040448416 0.07259936 -0.083968066
-0.022039978 0.045788687 -0.04426363 -0.10050843 0.11849643 0.10740744 0.050261192 0.11840655
0.050713412 -0.05979094 -0.044531193 -0.066306576 0.14644979 -0.14235005 -0.05080903 0.00546292
-0.044636056 -0.07718501 -0.10969483 0.035463214 0.13404538 0.0046929466 -0.09281417 -0.11196687
0.16920258 0.05842678 0.17721394 0.026672369 -0.13448636 -0.027498178 -0.044344626 -0.1349291
-0.11175422 0.109770626 0.07390296 0.010287695 -0.17309181 -0.16341162 -0.01145011 0.03447524
0.088714115 0.05740544 0.021718074 -0.12863177 0.13005877 -0.14184451 0.15901794 0.000467248
0.032010697 -0.05901917 -0.073164865 0.14649709 -0.03421421 -0.10469027 -0.07391175 0.018523311
-0.0943099 0.1301918 -0.039176084 0.06223577 0.16345121 -0.11968716 -0.06920107 -0.16887155
0.13685276 0.059672616 0.11803481 -0.040625017 -0.13719895 -0.006696124 -0.14417475 -0.037727214
0.1446855 -0.14699793 0.06914807 -0.009203109 -0.1314902 0.07730501 -0.031426728 -0.0075447825
0.023149163 0.079670005 0.09994944 0.035786726 0.15188374 0.087029256 -0.06170994 0.06195224
0.14988212 0.0926004 -0.05504746 0.16061373 -0.06373889 0.07119191 0.1647559 -0.14025275
0.17059064 0.057387352 0.08286213 0.15970139 -0.002145899 -0.09476552 -0.12744914 -0.048457507
0.10395619 -0.03596086 0.13330358 -0.13739228 0.10241431 0.1253912 0.063792706 0.14708304
0.1360156 -0.06183507 0.06409682 -0.05360238 0.1646956 0.031365104 0.12047228 -0.11499392
0.18520552 0.0597181 0.17996861 0.045928698 0.015217967 0.0526457 0.12501445 0.113634154
-0.13555668 0.11201231 0.15552193 -0.04830457 0.035458025 0.17089921 0.050879225 0.15314245
0.09468776 -0.088113666 0.16929322 -0.07521187 -0.03613296 -0.0069768163 0.13249528 0.10272225
0.018659059 0.06669071 -0.15933058 -0.12605286 -0.029370967 0.06770232 0.12637848 -0.028730152
0.14176568 -0.086560436 0.010017443 -0.082114026 0.13964146 0.059391864 -0.03186783 -0.006332601
-0.1617065 -0.0046745813 -0.062534526 -0.07722451 0.14466555 -0.13037968 0.06426831 -0.12207167
00000000: a701 1ebe c533 0a3e 4ece 033d 117c 8fbc
00000010: c236 ea3d a642 583c cc1a 923c 0de8 42bd
00000020: 0225 853d dd95 38be cb90 0fbe 9d64 363e
00000030: 1f0d be3c b861 0abd a7e3 70bd 406c 043e
00000040: c74f 1f3e 7a55 20be a7c4 2cbd 98d3 13bd
00000050: 29d0 c8bd 0c38 d33d 76df 1f3e fe6c 02be
00000060: 8109 d5bd 91eb e63d a9ed 1dbe a2ca 14be
00000070: 89b8 243e 605a a1bd 34e4 6b3d 362b c8bc
00000080: a0e6 113e 0d7b d43d fc4f 013e 8df3 20bd
00000090: a284 38be 783e 263e fea0 1b3e d932 613c
000000a0: 7134 2a3e b005 e23d fce9 c5bd a2dc bbbc
000000b0: c2e3 81b9 cf9b be3d 681f 503d bbf3 1fbe
000000c0: f2a7 123e 6e53 c53d 5711 e93c 4faf e43d
000000d0: 6343 0f3e 67aa 143e dff3 cabd 4a0d bdbc
000000e0: 61da ccbd 3f9a a43c b54f 213e fc4d febc
000000f0: 19a3 293e 6264 203e 481f e7bd f0d2 89bd
00000100: bd42 90bd defb 033c a1e6 d4bd cd7b 7bbc
00000110: 416b 263e 6831 09be 5bf2 053d abc1 563d
00000120: e224 0bbe 988f 4abd 910a a8bd 6221 59bd
00000130: ea4e 1bbe 9ea5 bf3d 7423 483d 4520 343d
00000140: 50bf 87bd 5e5a a8bd 6979 263e e786 41bc
00000150: 6844 b0bd 3dad 253d f9ae 943d 73f7 abbd
00000160: 2f8d b4bc eb8c 3b3d c84d 35bd 5dd7 cdbd
00000170: 42ae f23d 6ff8 db3d aede 4d3d 227f f23d
00000180: deb8 4f3d 58e7 74bd 5766 36bd becb 87bd
00000190: eff6 153e 36c4 11be 211d 50bd 4b02 b33b
000001a0: 4cd4 36bd 2d13 9ebd afa7 e0bd e041 113d
000001b0: 3143 093e 4ac7 993b 5b15 bebd e34e e5bd
000001c0: 7143 2d3e eb50 6f3d 9277 353e 0380 da3c
000001d0: cbb6 09be dc43 e1bc b6a2 35bd db2a 0abe
000001e0: 66df e4bd 6ccf e03d 6f5a 973d b88d 283c
000001f0: fb3e 31be 6055 27be 3e99 3bbc e935 0d3d
00000200: bfaf b53d f721 6b3d 1aea b13c 0cb8 03be
00000210: 202e 053e b03f 11be 99d5 223e f7f8 f439
00000220: a61d 033d 16be 71bd 76d7 95bd 5503 163e
00000230: 3324 0cbd da67 d6bd 0b5f 97bd 33be 973c
00000240: 8d25 c1bd 0051 053e 1a77 20bd efea 7e3d
00000250: c15f 273e 8b1e f5bd 4ab9 8dbd aaec 2cbe
00000260: 2123 0c3e 466b 743d 3cbc f13d 6b66 26bd
00000270: e27d 0cbe 296b dbbb 8ca2 13be da87 1abd
00000280: 7028 143e a086 16be 819d 8d3d a3c8 16bc
00000290: 5ea5 06be 1752 9e3d 50b9 00bd 393a f7bb
000002a0: 50a3 bd3c 072a a33d 4bb2 cc3d 1a95 123d
000002b0: 6987 1b3e 653c b23d 90c3 7cbd a2c1 7d3d
000002c0: b37a 193e 47a5 bd3d 7279 61bd ed77 243e
000002d0: 8989 82bd 10cd 913d c5b5 283e 6b9e 0fbe
000002e0: 50af 2e3e 000f 6b3d 9fb3 a93d c388 233e
000002f0: 36a2 0cbb 6d14 c2bd 0782 02be 617b 46bd
00000300: fce6 d43d b24b 13bd bc80 083e 90b0 0cbe
00000310: 98be d13d 8d66 003e c0a5 823d f09c 163e
00000320: ac47 0b3e c546 7dbd 3245 833d 2b8e 5bbd
00000330: f7a5 283e b278 003d 2cba f63d ef81 ebbd
00000340: 84a6 3d3e f79a 743d b149 383e bb1f 3c3d
00000350: c854 793c 04a3 573d ca03 003e 06b9 e83d
00000360: 5fcf 0abe b666 e53d 2441 1f3e 03db 45bd
00000370: 6f3c 113d 3400 2f3e bc66 503d 60d1 1c3e
00000380: a8eb c13d f074 b4bd 345b 2d3e ae08 9abd
00000390: 2800 14bd c79d e4bb d8ac 073e 0b60 d23d
000003a0: e2da 983c 2495 883d 8e27 23be 0014 01be
000003b0: 629b f0bc 84a7 8a3d 5c69 013e 7f5b ebbc
000003c0: 062b 113e 9946 b1bd 3420 243c 662b a8bd
000003d0: 2cfe 0e3e e244 733d d787 02bd b581 cfbb
000003e0: 6496 25be 3b2d 99bb 1a12 80bd e227 9ebd
000003f0: 3523 143e 4082 05be 1b9f 833d b600 fabd
