output/FT-S-MoME/ts_encoder_epoch0.pt (torch, 376236 bytes, 34 tensors)

proj.weight f4 [32, 8]
00000000: 8fe2 50be a342 52be 62f3 083e b024 83be
00000010: 1840 923e 11ba b03e 9964 abbd 2668 853e
00000020: 93f6 7bbe 8bb3 533e 5b8a 1ebe e547 893d
00000030: 7cdb b93d 10d6 8a3e 8a13 8dbe f0df 9dbd
00000040: 1bf0 a1be 06e7 c73c 0c55 34be 6099 a73e
00000050: b330 3a3d 6a68 953e c6b1 313e 4f86 72be
00000060: bb27 af3e 933a 723e b338 a5be 37b3 a6be
00000070: 1f88 2f3e 1720 743e 8a66 0cbe 2f9c 9abe
00000080: 06b0 b33e 2fd1 77bd c116 0a3e adcb 8abe
00000090: 8fa3 94be fc73 e53d c07d 75be 35d6 9ebe
000000a0: 2cbf 183e 5f27 61be 5484 9a3b 6f5f 5b3c
000000b0: 9f6a 3e3e 274e d73c 2326 983d e18e 3cbe
000000c0: 27c6 77be 3d37 843e b314 763e c8b3 a3bd
000000d0: f98d 8f3e 2ce0 69be 8a79 333c f91b 26be
000000e0: 5607 593d 1169 bcbd 20b7 0fbd c4c4 17bd
000000f0: 581e 03be d0c3 89bd 8bb5 9a3d 4f50 493e
00000100: c573 fdbd 44c9 883e b486 bbbd e901 bb3d
00000110: e836 833e 4d66 aebe cf93 423d c2ad 42be
00000120: e3d5 2e3e a740 e5bd a726 40be 3449 2b3e
00000130: e45e 8c3e 3094 913e 7971 99bd 70b9 943e
00000140: 8f06 8a3b da93 81be a9ad 84bd faa8 a73c
00000150: ee20 61bd c73f 903d d515 f1bb 34a4 39be
00000160: 521f a1be 6dfa a53d 508c c13d 2b93 9e3b
00000170: f3cd 7c3b 8a9e 81be e625 33be b99f cc3d
00000180: 7953 74be 43f5 e6bd a81a 713e 81f6 bbbd
00000190: c811 a93e e79e 323e 204a 9cbe 8a5f 06be
000001a0: 9f3e 503e c9a9 353e 7ec2 a13e 923e a83e
000001b0: ab4e 953e 9e31 c23d 61bb 85bc b937 163e
000001c0: 05f7 963d 9043 6d3e 2f55 18be b74b 77be
000001d0: c6cc aebe 0ed2 b13e 5c5f ac3e 25ad 1a3e
000001e0: 1143 803e 1172 aabd ad9c 54bd fba4 a5be
000001f0: 696a a13e 1d98 8bbe dde1 843e da23 f4bd
00000200: 52dc d73c 66c1 b0be de72 92bd 7d70 ad3e
00000210: 7095 c73d 57e1 2cbe 4525 03be f147 ed3c
00000220: aa0c 213e 4852 7b3e e35c 66be 2d61 9e3e
00000230: 2f14 973e 37bb 33be b889 aabe 786c 4a3e
00000240: 9426 abbe 41fe 3ebe 65f1 413e 1cd1 973e
00000250: 55c9 a6be 5ede 76be ae64 873d 4cc6 b53d
00000260: 43ed 933e 7846 22be a737 19be 0880 9abe
00000270: 36b0 b4bd fb9f c3bd 3001 6b3e f74e 3fbe
00000280: 5a5b 073e 0e5c b43e 3e44 593d eb6d 1fbe
00000290: 07e9 333e 93b2 563e cc4a b23e 35b6 75bd
000002a0: 1027 be3d 30a1 733d ffff abbe 922c 26be
000002b0: 7401 9f3d e77c c23d e44d 803e 5ed1 7abe
000002c0: 73d8 ae3d 27c2 433d 6eea 1dbe 4af4 02be
000002d0: 227c a7be 8eac 813e 38df 823c a7d7 d4bd
000002e0: d4f6 22be 9639 8c3e 8771 283e 37f0 36bd
000002f0: 694d 81be a67d 8b3d 25ff 443e 9033 49bd
00000300: 3a9b 9fbd cbd2 833e 0a13 8e3e 4e63 973e
00000310: a69d 953e 463d 7dbe e415 ecbd 4704 3bbd
00000320: 7157 57bd aec8 033e e92e adbe 1de1 233b
00000330: 09c4 af3e 3926 913e 90bf 953d 0e6a a9be
00000340: 3258 a13d 0a9d 4ebe 4a85 853d efdd af3e
00000350: 2f44 7bbd acf4 253c 668c 0c3d aa42 13be
00000360: db71 e6bd 2ece ae3e ad22 5bbd 48d9 9dbe
00000370: 968a 353d 096a 463e 1553 90be 2561 da3d
00000380: f1ff a6be 7444 95bd 25ed bebb 890c 08bc
00000390: 5abe 403d 3440 d5bc fa34 373e 309c a83e
000003a0: 16ac 1dbe 8079 00bd 431a c4bc b279 75be
000003b0: 2683 b1be d1e1 72be ec87 f43d b14f 813e
000003c0: 8cec 5e3e 9b71 18be e9d6 30bc fd74 fe3d
000003d0: eadc f1bd 34ca 0d3e 45f8 82be e51e 713e
000003e0: a9dd a8bd 7e81 28be 737d 92bc 4b4a 3e3e
000003f0: eb9b 653e 2779 ecbd ecdc 12be 1f22 afbe
-0.20398925 -0.20533232 0.13374093 -0.25613928 0.28564525 0.34516957 -0.08368797 0.2605602
-0.2460578 0.20673959 -0.15482466 0.06703166 0.090750664 0.27116442 -0.2755397 -0.07708728
-0.31628498 0.024402153 -0.17610568 0.32734203 0.0454566 0.29181224 0.17352971 -0.23684047
0.3421 0.23655157 -0.3226982 -0.32558605 0.1714177 0.23840366 -0.1371099 -0.30197284
0.35095233 -0.060502227 0.13485242 -0.27108517 -0.29031035 0.11203763 -0.23973751 -0.31022802
0.14916676 -0.21987675 0.004715482 0.013389452 0.1859536 0.026282383 0.07429149 -0.18413879
-0.24196683 0.25823393 0.24031334 -0.07993275 0.28038004 -0.22839421 0.01095427 -0.16221608
0.05298551 -0.09199727 -0.03508675 -0.037052885 -0.12804544 -0.067268014 0.07554158 0.19659542
-0.12375597 0.26716053 -0.09156552 0.09131224 0.25627828 -0.34062424 0.047504243 -0.19011596
0.17073779 -0.11193972 -0.18764745 0.16727144 0.27416146 0.2843337 -0.07492346 0.29047728
0.0042122076 -0.25308114 -0.064784355 0.020466316 -0.054963045 0.070434146 -0.007357339 -0.18129045
-0.31469208 0.081044056 0.094505906 0.004839321 0.0038574904 -0.25316268 -0.17494926 0.09991402
-0.23859967 -0.11277249 0.23545325 -0.09177876 0.3302138 0.17443429 -0.30525303 -0.13122383
0.20336388 0.17740549 0.31593698 0.32860237 0.2916158 0.0948212 -0.0163247 0.14669694
0.07371334 0.23170304 -0.14876245 -0.24149977 -0.34140605 0.34730572 0.33666503 0.15105112
0.25051168 -0.08322538 -0.05190723 -0.32352433 0.31526497 -0.2726449 0.2595357 -0.11920901
0.026350174 -0.3452255 -0.071508154 0.33874884 0.097453 -0.16882835 -0.12807186 0.028964968
0.15727487 0.24543107 -0.22496371 0.30933514 0.29507586 -0.17551886 -0.33308196 0.1976794
-0.3342787 -0.18651678 0.18939741 0.29651725 -0.3257548 -0.24108264 0.06611 0.08875713
0.28891954 -0.15847194 -0.14962636 -0.30175805 -0.08822672 -0.09551998 0.22949672 -0.18682466
0.13218442 0.35226482 0.053043596 -0.15569274 0.17569362 0.20966558 0.3482269 -0.05998822
0.09284794 0.059479892 -0.33593747 -0.1622794 0.07763949 0.094964795 0.25059426 -0.2449393
0.08537378 0.04779258 -0.15421459 -0.12788501 -0.32711893 0.2532696 0.01597558 -0.10392695
-0.1591447 0.27387685 0.16449557 -0.04466268 -0.25254372 0.06811075 0.19237955 -0.04912144
-0.07793279 0.2574676 0.277489 0.2956795 0.2922184 -0.24730405 -0.11527613 -0.045658376
-0.052573625 0.12869522 -0.33824852 0.0025006004 0.3432925 0.28349474 0.07311928 -0.33088726
0.0787815 -0.20177093 0.065195635 0.3434901 -0.06134432 0.010129135 0.034313582 -0.14380899
-0.11252185 0.34141678 -0.053499866 -0.30829835 0.04432162 0.19376387 -0.28188387 0.1066306
-0.32617143 -0.07288447 -0.0058266097 -0.00830377 0.047056533 -0.026031591 0.17891303 0.32931662
-0.15397677 -0.03136587 -0.023938304 -0.23972204 -0.3467037 -0.23718955 0.119399875 0.25256112
0.21769923 -0.14887087 -0.010793426 0.124246575 -0.11809714 0.13846666 -0.2558004 0.23546942
-0.08245403 -0.16455647 -0.017882084 0.18583028 0.22422759 -0.115465455 -0.14342088 -0.3420572

proj.bias f4 [32]
00000000: 8795 9cbd 9225 a0be c7f3 5d3e 015b e83d
00000010: bfbb efbd f1ed 143e 3536 aabe 3a3a c03c
00000020: e3d2 a73e 4011 d6bc 5e54 ff3d 1d46 acbe
00000030: d2e5 a1bd d371 9a3e 7d91 49bd b9ea 2c3d
00000040: 8900 a4bd 1fb3 283d 07fe b63e 94b5 c33c
00000050: 8523 5cbe 74b6 20bd 5242 b2be 05a2 ae3c
00000060: 3a66 a43e 019d 213e 3d64 b43e 9acf 363e
00000070: 813c 623d d693 263e 3414 6a3e dd0c 8d3d
-0.076457076 -0.31278664 0.21675025 0.113454826 -0.117057316 0.14543892 -0.33244482 0.023465265
0.3277808 -0.026131272 0.12467264 -0.33647242 -0.07905163 0.30164966 -0.049211014 0.042216036
-0.080079146 0.04118645 0.35740682 0.023890294 -0.21497925 -0.0392365 -0.34816223 0.021317491
0.32109243 0.15782548 0.35232726 0.17852631 0.055233482 0.16267332 0.2285927 0.06887219

EiLM.0.gamma_generator.weight f4 [1, 32]
00000000: 0302 003e 617c 0ebe fa86 2dbe 3e75 153d
00000010: bb5c e6bd 3167 2e3e 9f1b 1dbe 1766 b9bc
00000020: 73d3 e03d 24e5 7fbd 02ae 803d 64b6 61bd
00000030: cfb6 fabd 3457 0e3e 9f78 10be 31f5 b4bd
00000040: e05b b13d 6540 04bd 61aa 303d 33e4 f4bd
00000050: 1674 2dbe 8541 9c3d d384 2d3e 1cda 39bc
00000060: fc13 0fbe 7631 1b3d da43 743d b091 ad3d
00000070: 0b6b 32be 7dd7 bf3d 8edc 2b3e 5858 6ebd
0.12500767 -0.13914634 -0.1694602 0.036488764 -0.11248156 0.17031552 -0.15342568 -0.022631688
0.10977831 -0.062474385 0.06283189 -0.055105582 -0.12241899 0.13900453 -0.14108513 -0.08835829
0.08660102 -0.032287974 0.043131236 -0.11957588 -0.16938815 0.07629684 0.169452 -0.011343505
-0.13972467 0.037888967 0.05963502 0.08475053 -0.17423646 0.09367273 0.16783354 -0.05818972

EiLM.0.beta_generator.weight f4 [32, 32]
00000000: 8e77 593d fa1f 083d 736a e0bd 1a10 b5bd
00000010: 8a50 b63d 951b 6abd 59cd 153e ecd9 16be
00000020: 8b64 253d b8fe 3bbd 1f53 08be 6a69 adbb
00000030: 4645 d5bd 925b 15bd 8a16 43bb 9bca 773d
00000040: 6831 f23d 2254 343c 40d9 9f3d 9f42 133e
00000050: 4bba adbd 455a 32be 3ee4 2ebd 3a7a 05bb
00000060: de4c 023e a321 a9bd 1753 343e 87dc 723d
00000070: dd2d 24bd 504e 18be 4cb1 24be da0b e2bd
00000080: c477 51bd cba9 ccbd 37f0 32be 9481 2bbc
00000090: 52d6 1fbe 5467 18be 1a84 1bbe 5bed db3d
000000a0: c010 80ba cf01 2fbe 719f a43d 3e03 d9bb
000000b0: 74e3 be3d b39e 1fbe c7ff abbd 8425 6c3d
000000c0: 92a2 01be 142b c33d 7921 113b cbb9 c8bd
000000d0: ef20 d13d 66a0 1c3d a796 e53d b440 4cbd
000000e0: 8918 4cbc 6f68 59bd a0cd 31be 7de3 28be
000000f0: 65fe 26be fba3 243e 5e12 383c 379e ab3c
00000100: b47a 18be 7d70 79bd f7fc cebc a1d2 003d
00000110: dbc6 36be 55ff da3d 4fe7 bb3d a084 0bbe
00000120: 53f3 813d f637 9fbd 0c7b 2cbd 410f 7f3c
00000130: a286 8f3d 33e7 02bd 1478 23be 40bc c5bb
00000140: d9ee 19be b9a0 23be 0b36 ccbd f2d7 a83c
00000150: 4e95 17bd 6eb7 f1bd a07d 223e 2385 2bbe
00000160: fcd1 833d c560 593d 6387 f13b 3834 8abd
00000170: a162 de3d dad4 02be bce4 0dbd 6164 453c
00000180: 35f7 b53d e25f acbd 4ad9 14be f20a 28be
00000190: a1ad 5bbd 751a 003d ee42 be3c 83bc 1b3e
000001a0: 3d0a 92bd 9315 ccbd 6529 c0bb 06ba 29be
000001b0: 358e 94bc b949 ee3d 1181 f8bb de19 f33d
000001c0: 8fb4 11be 4463 2ebe 7dfd f13d 24cd eebb
000001d0: c5b8 b4bd de36 f63d 083d 9a3d 0961 953d
000001e0: 160e eb3c 4980 70bd 995c b2bd ea7a ecbc
000001f0: eba7 003d a160 723d a13f 05be 5edd abbd
00000200: 31cd cc3d 1fa8 15be 16eb 8ebd 65c2 263e
00000210: ae0e febc f1e2 e5bc 8ecc 833a ef52 eabd
00000220: 04ba 473d ff52 a53c 8c62 2bbe bcb3 e5bd
00000230: 9826 88bd 8532 af3d 31df 24be a336 e9bd
00000240: 0430 26be 17eb dabd 7692 6ebd c309 c1bc
00000250: 2593 2abe 8307 f6bd 4145 8b3d d09f ee3d
00000260: a839 0dbe def5 953b ea59 993d 69c0 023e
00000270: b20a 143e a810 ca3d 01c8 103e 4089 333c
00000280: e7b6 bebd 6745 1f3e 6d2f f8bd ba0d 303d
00000290: cd95 b53d 8587 a53d 9637 21be dd2d fdbd
000002a0: 4fc3 02bd ab53 0abe 5aeb 9d3c e508 23be
000002b0: 43ed 45bd bb02 d0bd c6db dcbd bd66 68bd
000002c0: bfab a8bd 35e8 253e eee6 12be 243a 193c
000002d0: 1184 c33d b787 01ba 63e6 2ebc 8378 54bd
000002e0: aefd 4fbd 61c8 5e3d eaff 4ebd 816b 15be
000002f0: 4a0d 203d b2e9 30be d04a 23bd d563 ccbd
00000300: 221b 2dbc 8ac6 0c3b f6a7 15be 9a9a e9bd
00000310: 45de 82bd ad3f eabd d5cf 9c3d b608 073e
00000320: c21d 463d b1be 043e 479d cbbd 4253 923d
00000330: 0173 813c af91 2ebe baa6 063e 25b2 bc3b
00000340: 7f96 053e 58d8 223e dfb2 233d 98c4 de3d
00000350: 4b26 12bd 6ffc ddbc 4144 203e 6983 893d
00000360: 6322 ab3d 7a34 1a3e 1e51 ebbb 4209 76bd
00000370: 3ca0 713d 24e9 ff3d e9f5 24be 7005 1abd
00000380: 776e 333e dbe7 33bd 7c05 d83b 0964 bdbd
00000390: 2ab0 e5bd 2fbf 943d fd6d 06be ae74 61bd
000003a0: f173 dd3c 04d5 193e 4052 c13d 605a 193e
000003b0: 1e7e bbbd 89cf 853d a3c0 6c3d aa11 17be
000003c0: 1da4 00be 8933 b03d bf31 ce3d 2c1c 21be
000003d0: e2ac e83d 351d 9d3b 6f72 e8bd d317 fa3c
000003e0: 48bb f3bc 4473 03bd 1282 d93d 7434 223d
000003f0: 90cf b23b 5217 183d 3ac1 063e ee08 26be
0.05309253 0.03323362 -0.109578036 -0.08840962 0.0890208 -0.05715521 0.14629115 -0.14731568
0.04037909 -0.045897216 -0.13312958 -0.0052921074 -0.104136035 -0.03646428 -0.0029768073 0.060495954
0.1182583 0.011006387 0.07805109 0.14380883 -0.08482798 -0.17417248 -0.042698137 -0.0020367042
0.12724635 -0.08258369 0.17609821 0.059292343 -0.0400828 -0.14873624 -0.16083258 -0.11037417
-0.051139608 -0.09993323 -0.17474447 -0.010467906 -0.156091 -0.14883167 -0.15187111 0.10738631
-0.0009770617 -0.17090534 0.080382235 -0.006622701 0.09320727 -0.15587883 -0.08398395 0.057652965
-0.12659672 0.09529701 0.0022145195 -0.09801062 0.1021136 0.038238905 0.11210375 -0.049866393
-0.0124570215 -0.05307811 -0.17363596 -0.1649303 -0.16307981 0.16078179 0.011234848 0.020949466
-0.14890558 -0.060898293 -0.025267107 0.03145087 -0.17849295 0.10693232 0.09174978 -0.13624811
0.063452385 -0.077743456 -0.042109534 0.015567602 0.07008101 -0.03195877 -0.15963775 -0.006034404
-0.1503252 -0.1597928 -0.099712454 0.020610783 -0.037007622 -0.118025646 0.15868235 -0.16750006
0.06436536 0.053070802 0.0073708757 -0.06748241 0.10858656 -0.12776509 -0.034641966 0.012047858
0.088850416 -0.08416726 -0.14536014 -0.16410425 -0.053632382 0.03127523 0.023225274 0.1520863
-0.07130859 -0.099650525 -0.0058643096 -0.16574869 -0.018134216 0.11635155 -0.0075837453 0.11870168
-0.14229034 -0.17030054 0.11815927 -0.0072876383 -0.088243045 0.12022184 0.07531172 0.072938986
0.02869324 -0.058716092 -0.08709068 -0.028867204 0.03141014 0.059174184 -0.13012554 -0.08391832
0.10000075 -0.14614914 -0.06978433 0.16285093 -0.03101286 -0.028062316 0.0010055469 -0.114415996
0.048761383 0.020181177 -0.16736811 -0.11215922 -0.06647986 0.08554558 -0.16100766 -0.11387374
-0.16229254 -0.10689371 -0.058245145 -0.023564225 -0.16657694 -0.120131515 0.068003185 0.116515756
-0.13791525 0.004576429 0.07487853 0.12768711 0.14457205 0.09866458 0.14138795 0.010958016
-0.093122296 0.15553819 -0.12118421 0.04298184 0.08866463 0.08082489 -0.1574386 -0.12362263
-0.031924542 -0.1350848 0.019277263 -0.15921362 -0.048321974 -0.10156771 -0.10784106 -0.056738604
-0.08235883 0.16201861 -0.14345905 0.009352241 0.09546674 -0.00049411826 -0.010675046 -0.05187274
-0.050779037 0.054390315 -0.050537027 -0.1459179 0.039075173 -0.17276648 -0.03986627 -0.09979979
-0.010565551 0.0021480643 -0.14614853 -0.11406441 -0.06390051 -0.114379264 0.07656828 0.13186917
0.048368223 0.12963368 -0.09942108 0.071447864 0.015801908 -0.17047761 0.13149539 0.005758541
0.13045691 0.15902841 0.039965507 0.10877341 -0.03568105 -0.027097909 0.15651037 0.067145176
0.08356168 0.1505908 -0.007181301 -0.060067423 0.058990702 0.1249564 -0.16109432 -0.03760284
0.17522608 -0.043922286 0.0065924507 -0.09247596 -0.11215241 0.07263028 -0.13127895 -0.055042915
0.027032824 0.15022665 0.09439516 0.14975882 -0.09154914 0.06533725 0.0578009 -0.14752832
-0.12562604 0.086035796 0.10068082 -0.15733403 0.113611 0.0047947415 -0.113499515 0.030528938
-0.029752389 -0.032092348 0.10620512 0.039600804 0.0054568723 0.037131615 0.13159648 -0.16214344

EiLM.1.gamma_generator.weight f4 [1, 32]
00000000: 4ced 8dbc 14ba 11be e1f8 29be fe83 083e
00000010: 5877 d93c 2170 c7bc b9ad bb3d 2ca9 ebbd
00000020: c172 06be cf7f 473c de28 b43c 47a1 90bb
00000030: 2ca4 303e ba39 193e e081 39bd 03e1 3bbd
00000040: 07cf a53d e5b8 15be 1a43 8abd e8de f93d
00000050: 3e93 db3d 7692 103d 2763 1a3e 63b8 70bd
00000060: d6f4 9f3d 0b59 243d e87c f9bc 040f 5f3d
00000070: ed73 febd 126d 2a3e 76e5 d23d 6ce9 283d
-0.017325066 -0.1423114 -0.16598846 0.13331601 0.026546165 -0.02434546 0.09163994 -0.11506876
-0.13129713 0.012176468 0.021992143 -0.004413757 0.17250127 0.14963427 -0.045289874 -0.045868885
0.08096128 -0.14621313 -0.0675108 0.12200719 0.107214436 0.035295926 0.15076886 -0.058769595
0.078103706 0.04012398 -0.030455068 0.05445768 -0.12424455 0.1664317 0.102976725 0.041238233

EiLM.1.beta_generator.weight f4 [32, 32]
00000000: b143 953c 0417 b43d a008 aa3b 4c4a 30be
00000010: 67f5 2ebe 35e7 013e 1491 9c3a 9e03 203e
00000020: cb47 02be a9e3 2d3e 5bfe 5d3d 46ce 0a3e
00000030: e47b f0bd 2d06 2a3d 5975 ebbc b7de 06be
00000040: e98c 893c 6438 1f3e 9ad6 f33d 8bf2 273e
00000050: 6da0 8bbd 8dc2 d83d b781 26be cbdd 0a3e
00000060: 3e52 1dbe 0c80 273d 0f37 b13d f2ef bbbd
00000070: 02a0 023e 980f d6bd 42fc d9bd 3f9f 96bc
00000080: 0fe7 3cbd 4812 01bc b968 1cbe 1b15 af3a
00000090: 25c4 153e 175f c2bd 7258 ef3d 1a92 1e3e
000000a0: 6f3b ba3a 811d ddbd 4aeb 11be 481c 8c3d
000000b0: 807e 15be 285a f7bd 235b 363e 5046 ed3d
000000c0: f972 0d3d 7996 15be abe7 11be 52cf edbd
000000d0: 2623 6abd ffc2 e83d 91f5 8ebd 9074 35bd
000000e0: 7a18 123e 7e38 81bd 0525 9bbd 2676 a83d
000000f0: a941 303e cb9a d2bd 91f1 a1bc 8ac9 333d
00000100: 1a02 e3bc bc7c 723d e4b0 223b 5512 0cbe
00000110: c32f 213d 7509 263e 28c7 803d 07c4 85bd
00000120: 7189 aebc bb77 bebd e6fe d3bd 8f31 27be
00000130: 10b0 d6bc 1a0a 07be c5e3 183e e53f 0abe
00000140: 8f9d 0a3e 05b2 d2bd c8fa 143e 3d48 2a3e
00000150: 1db9 0a3d 6792 c73b 6862 c13d 9083 14be
00000160: 74b7 db3d dd00 a6bd 7da9 a83a a448 58bd
00000170: 87b8 a2bb bee6 a33d fe03 8abd 9e50 33be
00000180: e327 1d3c 9072 0fbe e7ba 39bd be9d 313e
00000190: 04e7 27be 10f7 7dbd 6f15 343d 9d55 2e3e
000001a0: ae2e 56bd 2e35 f73d 5c27 113e 107d 053e
000001b0: 7db8 d63d 256a a7bd ae3b 58bd af9a 7dbc
000001c0: e187 41bd 1b9d 55bd 2a01 2fbe 7798 ae3d
000001d0: 8a5c 763c 5217 573d 94b1 303e aadf 74bd
000001e0: 09ed 92bd 3530 213e 57f9 31be 3686 8ebd
000001f0: 4080 5c3d 1821 9fbd 7f2f 26be 4744 d9bd
00000200: 2a18 553d a239 17bd bc89 8dbd b9f9 b33d
00000210: fdfc 50bd 033e c2bd 2993 f43d 5dab 193d
00000220: 605b 29be c6e0 1cbe 1ed4 27be 4fa5 c43d
00000230: 9bab 9ebd 5091 d23d 557a 1abe 866b 343e
00000240: 25b8 9f3c 10a4 843c 1988 973b 70ec 07be
00000250: 4961 12bd b82c 03be 8891 d13d 33c9 15bd
00000260: 433f a2bd 4829 fbbd 7dc2 1a3e 563b be3d
00000270: 7673 133d b9f1 5f3d 6d25 b7bd 5553 f83b
00000280: 7eac 2ebe b2a3 993c 636e 1c3e 392e 073e
00000290: ff2b 01be 4c0f ba3c 212f 243e 66bb c33d
000002a0: ac6a 2dbe 11f6 1ebe b28e 9a3d ed70 9c3c
000002b0: ff4b 9bbd 8bd9 353d 361c 23be 5b33 92bd
000002c0: a232 1bbe 6a33 253e 648f 283d cf87 31be
000002d0: ac7f 153e 41fe 0abd 740c 60bd 8177 fc3d
000002e0: a9b9 0fbe 7a40 7cbd 8e47 1bbe 79f4 d23d
000002f0: b586 52bd 7f6e 0e3d 6836 ac3d 4056 ae3d
00000300: 37e4 0d3e d99a 94bd df12 52bd 307d 23be
00000310: 2dd7 9bbd 152a babd 01ed 87bd 31c2 203e
00000320: 7305 07be 6cc9 983d 4881 ed3d f25f 46bb
00000330: ba71 dcbd 0719 283e f85a 373e e992 153c
00000340: 72f8 16be 93bb 95bd e038 b63d 944a ab3d
00000350: 3541 84bb b208 edbd 7a82 00be 889b 85bd
00000360: c9d4 bbbd 7a1e 653c caef 69bd 5b18 113e
00000370: d1ba 49b9 d511 313d 8094 02be fc7a 153e
00000380: 697f 1cbe 62f8 a4bc 858f eebc 491e 08be
00000390: 97e8 a73b b307 53bd dbcd f63d 0c3f 5ebd
000003a0: 9284 60bd a4e9 9a3d 0e46 a8bd ebf7 f0bc
000003b0: 1a07 28be 2af4 1dbe b6e6 e9b9 5669 e4bd
000003c0: 1f40 0dbe 4434 83bd 253d 1abe b931 7ebd
000003d0: 8177 8cbd 80e6 20be 206b 19be 463d 1e3e
000003e0: 6c1f f4bd f703 05be de25 1bbe 6f8b 143d
000003f0: 301f a53d be99 9f3c ffbb ebbd b5fd c839
0.018220754 0.087934524 0.0051890165 -0.17215842 -0.17085801 0.12685855 0.0011945092 0.1562638
-0.127227 0.16981377 0.05419765 0.1355525 -0.1174238 0.041509796 -0.02874248 -0.13170896
0.016790824 0.15548855 0.119061664 0.16401117 -0.06817708 0.105839826 -0.1626042 0.1356117
-0.15363404 0.0408936 0.0865308 -0.09176625 0.1275635 -0.10452193 -0.106438175 -0.018386481
-0.046118792 -0.007877894 -0.15274324 0.001335773 0.14625604 -0.09490793 0.116867915 0.15485421
0.0014208386 -0.10796643 -0.14249912 0.06841332 -0.14599037 -0.12077743 0.17808203 0.11585677
0.034533475 -0.14608182 -0.1424853 -0.11611809 -0.057162426 0.113653176 -0.06980432 -0.044300616
0.1426715 -0.06309603 -0.0757542 0.0822566 0.17212547 -0.10283431 -0.019768508 0.043893375
-0.027710963 0.059200987 0.0024824673 -0.13678868 0.03935219 0.16214545 0.06287986 -0.0653153
-0.021305772 -0.093001805 -0.103513524 -0.16327499 -0.026207 -0.13187447 0.14930637 -0.13500936
0.13536666 -0.10287861 0.1454879 0.16629119 0.033867944 0.0060904506 0.09442598 -0.14503312
0.1072835 -0.081056334 0.0012867894 -0.05280365 -0.004965845 0.08002995 -0.06739043 -0.17511222
0.009592029 -0.14008546 -0.04534426 0.1734533 -0.16396719 -0.062003195 0.043965753 0.17024846
-0.05229061 0.1207069 0.1417517 0.13035989 0.10484407 -0.08174542 -0.05279129 -0.015478774
-0.047248725 -0.05215178 -0.17090288 0.08525174 0.0150367115 0.052512474 0.1725524 -0.059783615
-0.07174117 0.15741046 -0.17380272 -0.069591925 0.053833246 -0.07769984 -0.16229056 -0.10608726
0.052024998 -0.036920197 -0.06911036 0.08787865 -0.05102252 -0.09484484 0.11942131 0.03751694
-0.16538763 -0.1532012 -0.1638951 0.096018426 -0.07747575 0.102816224 -0.15085728 0.17619142
0.019496987 0.016191512 0.0046243784 -0.13273787 -0.03573731 -0.12810028 0.10232836 -0.03656883
-0.079222225 -0.12263733 0.15113254 0.09288661 0.035998784 0.054673884 -0.08942685 0.0075782933
-0.17057988 0.018754814 0.15276484 0.13201226 -0.1261444 0.022712372 0.16033603 0.09557228
-0.16935223 -0.15523554 0.07546748 0.019096816 -0.075828545 0.04439692 -0.1592873 -0.071387015
-0.15156034 0.16132894 0.041152373 -0.17336963 0.14599484 -0.03393388 -0.054699376 0.12327481
-0.14035667 -0.061584927 -0.15164015 0.10300536 -0.051397998 0.034773346 0.08408815 0.08512545
0.13856588 -0.07256097 -0.051287528 -0.15965724 -0.07609401 -0.09090058 -0.06637002 0.15699078
-0.13185672 0.07460293 0.11596924 -0.003026959 -0.10763879 0.16415797 0.17905796 0.009129264
-0.14743212 -0.073111676 0.08897567 0.08363834 -0.0040360936 -0.11573924 -0.12549773 -0.06523806
-0.09171445 0.013984317 -0.057113446 0.14169447 -0.00019238448 0.043229897 -0.12751961 0.14597696
-0.15282978 -0.02013797 -0.02912117 -0.13292803 0.0051241624 -0.051521014 0.120509826 -0.054259345
-0.05481393 0.07564095 -0.08216487 -0.029415091 -0.16408959 -0.15425172 -0.00044613116 -0.11152904
-0.13793992 -0.06406453 -0.15062387 -0.062059138 -0.06858731 -0.15712929 -0.14982271 0.15453061
-0.11920056 -0.12989794 -0.15151164 0.036265787 0.08062589 0.01948249 -0.11510467 0.00038336

EiLM.2.gamma_generator.weight f4 [1, 32]
00000000: a838 d63d 3a31 bbbd 2797 c53d 001d 1abe
00000010: 9971 ddbd b454 16bd 3aef ce3c e69b e2bd
00000020: 6d80 2f3e da6c e4bd 0d1a ec3d 02be 283e
00000030: 4b61 dbbd ff48 c6bd 87d9 88bc 484e 90bc
00000040: 632c 46bb 3f19 94bd c3f8 4b3d 6172 b8bd
00000050: c2bf 0cbe 72a2 bfbc f9db d13d d3f3 04be
00000060: 6e1d 11be 6d02 91bd fa51 66bd 159e dc3c
00000070: bcf7 31be 6781 f73d 2a68 e03d ed08 e1bd
0.10460025 -0.091402486 0.09647971 -0.15050125 -0.10812683 -0.036701873 0.025260556 -0.110648915
0.17138834 -0.11153574 0.11528406 0.16478732 -0.107119165 -0.09681892 -0.016705288 -0.017615452
-0.003023886 -0.07231378 0.049797785 -0.09006191 -0.13745025 -0.02339289 0.102470346 -0.12983637
-0.14171383 -0.07080541 -0.056230523 0.026930848 -0.1737966 0.120852284 0.10957368 -0.109880306

EiLM.2.beta_generator.weight f4 [32, 32]
00000000: 7c5c bdbc d2cb 0bbe 3b68 a7bd 97b8 32be
00000010: 1a06 36be 9ca6 0d3e d52c 253e 1da6 dd3d
00000020: 1c85 913c c28d 3cbc be54 2cbd 6bc8 b7bb
00000030: 8cb4 19be b919 ed3d 644c 45bd 771b 183d
00000040: 5dec b43d a1fc 7cbd 4893 10bd b8a6 0cbd
00000050: f93c 25be edfb 0cbe 37df 20be 0a46 25bd
00000060: b883 bb3d 284a 20be ee45 dbbd 64f0 1bbe
00000070: 4d5c 24be 7a4b 2fbe 65d2 1b3d a372 903d
00000080: 9cb0 093e 14b3 643d 0afb 0abe 8b73 14bd
00000090: e7b9 583d ae4c d7bd 71e9 ba3d 0c3b bd3d
000000a0: 74d4 143c 3892 093e 5a3b b7bd 84d0 edbd
000000b0: e1cc 0d3e 7617 b33d 8c04 20bd ef12 2b3d
000000c0: f4bb f9bc 9eb9 f4bd f56f bb3d eea4 793c
000000d0: 83fc e5bd 4271 8abd 591f 45bd 4024 d33c
000000e0: f978 563b 6f18 2cbe ac58 f8bd 05bf 403d
000000f0: a5b1 cd3d 9320 07bd 8ba1 b9bd d2da 053d
00000100: fe14 79bd 132f cfbd 4bdc 2a3e 29af 013e
00000110: f7da 16be e48d f53d 0460 84bd d5b9 4e3b
00000120: fd0a 063e 0006 fabd ce3b 32be 6bc3 153d
00000130: a32f 18be fa24 52bd 0bc1 1ebd 5964 133d
00000140: 4254 b43d 22b3 213e 8bf1 cb3d 881e 2d3e
00000150: 9f63 163e 2a38 12be 85f6 953d 656f 2b3e
00000160: e594 fd3d c17e f73d cfc0 a4bd 793a 5c3d
00000170: 6994 ad3d 043a 3a3d b036 e93d e87c 68bd
00000180: 21b1 513d c120 10be ed5c 0c3e 8c30 ddbc
00000190: 72cb 0bbd 2cbb a0bd 979e 1ebe dbd3 c53a
000001a0: 9e4e 29be 5594 efbd e6bf 823d 976f 043d
000001b0: 0089 f83c 3578 bcbd 6863 c03d bb84 8fbd
000001c0: e9cf 2e3e 9cc2 0cbe 3e70 5fbd 444e 073d
000001d0: 2f52 0fbd df32 0e3e 4587 e1bd b8b3 ac3d
000001e0: 7004 0f3e 1e41 833d 27b4 393d f386 13be
000001f0: 468c b5bd f539 edbd 3f0d f23d 1d47 19bd
00000200: ca09 0dbd b167 753d 1305 b7bc 7782 22be
00000210: 9cc5 133e 0ae1 343d ee4c 7c3d 3143 223e
00000220: a332 273e bce1 06bd 8d35 04be 9aa3 2bbe
00000230: 3098 333e 2d7f e33d a3f8 c4bd 9dce 41bd
00000240: dec2 1dbe c834 973d 2cd3 a2bd 06cc 8b3d
00000250: fc2a 6b3d 6883 8cbd 2f6c 8ebd 19cb a13c
00000260: 34c4 033c 74b2 fa3a 531b 1cbe 7ce6 2bbe
00000270: 0f35 923c 95da 2abe 651b e53d 8da8 293e
00000280: ae9a fc3c 18d8 f4bd 98eb 65bd 6ca7 ce3d
00000290: 57b0 20be 9de3 7d3c 34f1 c93d c9e9 16be
000002a0: c15a abbd 863e bf3d 8da8 333e 8e6f b73d
000002b0: 1810 8ebd f6d1 05be 72a6 efbd d345 263e
000002c0: 5225 41bd 41f8 8abd db32 ff3d f0cf 073e
000002d0: e5ec fcbd f761 233e 8bd0 2b3d 5684 2a3d
000002e0: 595b 01be 001a 4dbd b979 173e 77c6 23be
000002f0: fb5d b1bd a805 8d3d c712 00bd 6fbf 173e
00000300: 7edc 46bd e83d 7a3d d4ef eebd 1934 d0bd
00000310: 7ae6 733c 4b63 9fbc b778 c3bd d5b6 a03d
00000320: f3a6 25be ca0b a33c 9366 1cbe 32bc 203e
00000330: 3e05 98bd 54ea e0bd 36a8 a13d 0ec5 6b3d
00000340: 916c 9d3d fe4e 343e 5d79 dbbd 438b 29be
00000350: 5e6e f13d ee9f cc3d 6188 243d f0aa e0bd
00000360: ea2a 00be 8a82 213e 6fde f3bc fbc0 1d3e
00000370: e0cf c0bd 1102 913b 7c64 803d cb8e 2f3d
00000380: 35a5 043e ed6b 143e c7fc 91bd fc75 633d
00000390: 7e61 08bd d007 d43d 588b 763d a042 253e
000003a0: f6d9 1ebe 0a2a 60bd e70a bb3d da0b 2a3e
000003b0: 498c f4bd 3741 ac3d b227 1f3e d809 f4bc
000003c0: 8b6f bb3d 0dcd 1bbd 7c61 df3d c777 3f3d
000003d0: f5a8 b3bd ce38 ca3d 7d96 f6bc 8e93 cfbc
000003e0: 853f c8bc 1f86 b9bd 95ca b03d c7da 2d3e
000003f0: a2d4 02be dea6 13be b4cd 0fbe 46e1 43bd
-0.023115389 -0.1365197 -0.08174177 -0.17453228 -0.17775765 0.13833088 0.16130383 0.10822699
0.017763667 -0.011508407 -0.042073004 -0.0056086085 -0.1501028 0.11577172 -0.048168555 0.037135568
0.08834145 -0.061764363 -0.03529671 -0.034338683 -0.1613654 -0.13767977 -0.1571015 -0.040349998
0.09155983 -0.15653288 -0.107066974 -0.1522842 -0.16050835 -0.17118636 0.038042445 0.07053115
0.13446277 0.055834845 -0.13572326 -0.036243003 0.052911665 -0.10512672 0.09126557 0.09239778
0.009083856 0.13434684 -0.08946867 -0.11612037 0.13847686 0.08744709 -0.039066836 0.041766103
-0.03048513 -0.11949466 0.091522135 0.015237076 -0.112298034 -0.067598835 -0.0481256 0.025774121
0.0032725914 -0.16806196 -0.12126288 0.04705717 0.10043649 -0.03299005 -0.09064015 0.032679386
-0.060811035 -0.101164006 0.16685598 0.12664475 -0.14731966 0.11989954 -0.06463626 0.003154387
0.13090129 -0.12208176 -0.17405626 0.03656332 -0.14861922 -0.051304795 -0.03875832 0.03598437
0.088051334 0.1579099 0.0995818 0.16906178 0.1468644 -0.14279237 0.073224105 0.16741712
0.12381915 0.12084723 -0.08044588 0.0537667 0.084755726 0.045465484 0.11387384 -0.056759745
0.051194314 -0.14074995 0.13707323 -0.027000688 -0.034129567 -0.078482 -0.15490185 0.0015093045
-0.16533896 -0.11698214 0.06384258 0.032332983 0.030338764 -0.09202615 0.0939396 -0.07007738
0.17071499 -0.13746113 -0.054550402 0.033033624 -0.034990486 0.13886593 -0.11012129 0.08432716
0.13966537 0.064089045 0.045337822 -0.14406948 -0.08864646 -0.1158332 0.11818933 -0.037421335
-0.034433164 0.05991334 -0.022341287 -0.15870081 0.1443085 0.044159926 0.061596803 0.15845944
0.1632791 -0.03293012 -0.12911053 -0.16761628 0.17538524 0.11108241 -0.09617736 -0.047316182
-0.15406367 0.07383114 -0.07950434 0.06826024 0.05741404 -0.06861001 -0.06954228 0.019750165
0.008042384 0.001912667 -0.15244798 -0.16787142 0.017847566 -0.16684945 0.11186866 0.16568203
0.030835476 -0.11955279 -0.056132883 0.10090527 -0.15692268 0.015496162 0.09860459 -0.1473762
-0.08366919 0.09338097 0.17544766 0.08956824 -0.069366634 -0.13068375 -0.11701669 0.16237573
-0.047154732 -0.06785632 0.12460872 0.13262916 -0.123498715 0.1595534 0.04194693 0.04163011
-0.12632503 -0.050073624 0.14792527 -0.15993677 -0.086605035 0.068858445 -0.031267907 0.1481912
-0.04855012 0.061094195 -0.11666837 -0.10166187 0.014886493 -0.019456526 -0.09544509 0.078473724
-0.16176967 0.019903082 -0.15273504 0.15696791 -0.07422875 -0.109821945 0.07893412 0.057560973
0.07686723 0.17608258 -0.107165076 -0.1655703 0.11788629 0.09991442 0.040169124 -0.10970104
-0.1251637 0.15772453 -0.02976915 0.15405647 -0.09414649 0.004425295 0.06269166 0.042860787
0.12953646 0.14494295 -0.071282916 0.05553244 -0.0332961 0.103530526 0.060191482 0.16138697
-0.15512833 -0.05472759 0.09132939 0.16606084 -0.1194082 0.08410876 0.15542486 -0.02978985
0.091521345 -0.03803735 0.109072655 0.046745088 -0.0877246 0.09874116 -0.030101055 -0.025338914
-0.024444351 -0.09058785 0.086323895 0.16977988 -0.12776425 -0.14419124 -0.14043313 -0.04782226

EiLM.3.gamma_generator.weight f4 [1, 32]
00000000: 9b10 03bd 1519 d7bc 20b3 04bd d6b5 173e
00000010: 7720 64bd 2092 06be 5a9c c43d faf1 2e3e
00000020: 88db 12be d263 e73d a86d eabd b5b2 8b3d
00000030: 3686 a2bc 1ccb bebd 5c56 b83d 4587 adbd
00000040: d0c9 26be 7b18 cebd 4ada f4bd 5ce2 f43d
00000050: 7f39 16be 9b53 14bd bdc0 b23d 5ba6 093e
00000060: c86a 9c3d 9978 333d 000e a4bd 46c3 f83d
00000070: 8248 1ebe 626b e6bd 7e54 06be eb7b 10be
-0.031998258 -0.026257077 -0.03239739 0.14815459 -0.055695023 -0.1314168 0.09600134 0.17084494
-0.14341557 0.11298336 -0.114466965 0.06821195 -0.019839387 -0.09316084 0.09000847 -0.08473066
-0.16287923 -0.10063263 -0.11955698 0.11957237 -0.1467037 -0.036212545 0.08728168 0.13442366
0.076375544 0.043816183 -0.08010483 0.121466205 -0.15457347 -0.112509504 -0.13118169 -0.14109771

EiLM.3.beta_generator.weight f4 [32, 32]
00000000: 6a3e c2bd 223d 323e 23e0 fbbd cd6a 35bd
00000010: 0726 7ebd 3e02 eabc f0ac a8bd aad8 a63c
00000020: 333d cebd 534f 28be ffa0 883d 1771 44bd
00000030: 5c93 a03d 15e4 68bd bd56 1cbe e98c 423d
00000040: 5588 0e3e 856d 23be 93dc 45bc 6b21 75bd
00000050: c973 193e 777d 95bd 33a7 8bbb 4a69 d43d
00000060: 49a4 913d 7aba f2bb 43ae 24be eac0 ccbd
00000070: a5a3 afbb 186d 34be 0af7 913c 087e 573d
00000080: b380 a7bd b180 22be afa3 c93d c7da 0d3e
00000090: 798d 2dbe d320 17bc 91b9 953d 54e4 383b
000000a0: 44c5 17be d516 313e 478e 84bd d257 06bd
000000b0: 9803 1f3e a965 e2bd 4746 e73d 304e 0ebe
000000c0: f7d6 033d c89d 283e 46f0 bc3d 738c 4c3d
000000d0: 2b51 413d 9f1a 44bd 4aa0 ab3d 94f5 acbd
000000e0: d5d2 c93d 4e5b b23c fa94 63bc 1bd5 62bd
000000f0: c3e2 243e 16c6 aa3d 7598 f83d 82eb bfbd
00000100: 64a1 103d f617 2c3e 5aaa 2b3e 69dc bd3c
00000110: c2d1 da3d 3037 8abd d432 223d be56 583c
00000120: ce36 583c ac29 a73d aaa0 aebd a97d 2b3c
00000130: 4827 8cbd 5f4b 35bc 3c8a 2abe 5258 1dbc
00000140: 5535 8a39 0b44 ed3d 730c 0abe a615 98bd
00000150: d89d 603c 9d67 ea3d c6b1 a3bd 1e07 c8bd
00000160: 1809 18be c731 363d 43ec dcbd 5f80 13bd
00000170: 2c03 f53b e9ca 27be 10bc 183e d43c ffbd
00000180: 137b c13d ffb1 9ebd a268 d9bd a3ae bc3d
00000190: d959 6bbd f5bc f3bd 36ba 0ebe b15a b03c
000001a0: bd34 4abd 3d26 30bd 03e8 18be 8aca bbbd
000001b0: 5e53 1ebd 2ff1 17be 7b5b b53b ed0a eb3d
000001c0: 9659 b0bc 6076 df3c b10d 6abd 1930 25be
000001d0: 25c0 09be d194 c13d bee0 583c 4416 0f3e
000001e0: d4fb 09be d20b 1f3e dc7f cd3d 13f8 1fbd
000001f0: 3133 bbbd 63a0 173e a0ea 433d 5ab4 e43d
00000200: 8ef2 c83d 8038 91bd 5f75 953d d89a 32bd
00000210: 35a6 f5bd f8d0 143e 015e e5bd b002 163e
00000220: a440 fbbc fce6 c43d 1b02 1c3e b23f f1bc
00000230: 3b7d f33d 6265 f4bd e69f 0dbe af74 d13d
00000240: 15b6 d03d 1e57 c7bc 60c5 ad3d 9a37 0f3e
00000250: c785 2e3e 05f4 2fbe a03c 443d 0a01 55bd
00000260: 4158 0c3e 5f54 10bd cd54 20be 7dca 69bd
00000270: 5bcf ac3d f353 08bb c552 0d3e f387 bf3c
00000280: 0cb6 debd 2587 323e 2ca9 c03d 9196 fdbd
00000290: 1c38 973d 19b7 093e b116 463c a3b9 1f3d
000002a0: be8d 403c 0678 493d f19c 5b3d 89e2 093e
000002b0: 7468 cdbd f606 55bd 8a58 c93d 8a51 603d
000002c0: ab9d c5bc 07e0 2bbe 5930 1b3e b33f 18be
000002d0: 3ef6 2bbe cb54 d3bd 2e30 2d3e 88a8 ce3d
000002e0: 1949 633d 89c6 d4bd 4306 f63c a38d edbd
000002f0: dcd3 3b3d 7b13 983d d208 86bd cac2 723d
00000300: 0454 92bd a865 343e bc27 823d 1901 90bd
00000310: c6c2 9bbc e34c e83d 4ffb be3d 0c96 3ebd
00000320: 24b5 1ebe 9f6f 0b3e 164f 2f3e 42a6 06be
00000330: 2d70 a3bd 6f3d 60bd 9654 273c 0e73 da3d
00000340: f2b1 893d 4891 fa3d 9c4d 7b3d 41b0 c73d
00000350: e348 c8bd 99bb 1a3e 901d ff3d e1ae 6a3d
00000360: d47f 96ba 72b8 6fbd 7ac7 833d 2705 fb3d
00000370: d563 163e 3d54 1b3d 316f 2cbc 86c4 2ebd
00000380: 9785 583d fb33 223e 77a1 f43c d551 ffbd
00000390: 531a 1abd 3c8b e03d e6dd d8bd 5cae 7f3d
000003a0: 558d da3d 897b 713d bdc2 c3bd 5186 2f3c
000003b0: 726b bd3d 4a8f cc3d 38d4 86bc 5ea4 f3bd
000003c0: 714b 15be edd6 0ebe 79aa 083e db34 8f3d
000003d0: eaa4 21be ef52 fcbd 0013 80bd ecde 68bd
000003e0: 294a bcbd 1820 0d3e fe6e a33d e576 bfbd
000003f0: d1e7 d4bd 89cb 22be 604f 2cbe f78a 66bd
-0.09484561 0.17406133 -0.1229861 -0.044291306 -0.062047984 -0.028565522 -0.0823611 0.020366985
-0.100702666 -0.1643651 0.066713326 -0.047959413 0.078406066 -0.05685814 -0.15267463 0.047497664
0.13919194 -0.15959747 -0.012076515 -0.059846323 0.14985575 -0.07299321 -0.004261875 0.10371645
0.07111413 -0.0074074836 -0.160821 -0.09997733 -0.005360084 -0.17619741 0.017817993 0.052610427
-0.08178844 -0.15869404 0.09845673 0.13852988 -0.16948499 -0.0092241345 0.073107846 0.0028212266
-0.14821345 0.17293866 -0.0647245 -0.032798596 0.15528715 -0.110545464 0.11292701 -0.13897014
0.03218743 0.16466439 0.09225516 0.04993863 0.04719655 -0.04787695 0.08380182 -0.08445278
0.09854666 0.021772053 -0.013890499 -0.055379014 0.16102128 0.08338563 0.12138454 -0.093710914
0.035310164 0.16806015 0.16764203 0.023176389 0.106845394 -0.067488074 0.039599255 0.013204275
0.01319666 0.08162245 -0.08526738 0.010466971 -0.0684343 -0.011065333 -0.16654295 -0.009603577
0.00026361147 0.11585244 -0.13481312 -0.07426004 0.013709508 0.11445544 -0.07992892 -0.097669825
-0.14847219 0.044481065 -0.10787251 -0.036011096 0.0074771848 -0.16385998 0.1491549 -0.12462774
0.09447303 -0.07748794 -0.1061566 0.09212997 -0.057458732 -0.11901275 -0.13938221 0.02152762
-0.0493667 -0.043005217 -0.14932255 -0.09169491 -0.038653724 -0.14838098 0.005534587 0.11476693
-0.021527093 0.027278125 -0.057141963 -0.16131629 -0.13452204 0.094522126 0.013237176 0.13973337
-0.13474971 0.15531853 0.10034153 -0.03905494 -0.09140623 0.14807276 0.047831178 0.11167212
0.09811889 -0.07090855 0.072977774 -0.0436047 -0.11994592 0.1453284 -0.111995704 0.14649463
-0.030670471 0.09614369 0.15235178 -0.029449318 0.1188912 -0.119334 -0.13830528 0.10227334
0.101909794 -0.024333533 0.08484912 0.13986054 0.1704322 -0.1718293 0.04790938 -0.052002944
0.13705541 -0.035236713 -0.15657349 -0.057077873 0.084379874 -0.002080199 0.13801105 0.023380255
-0.108745664 0.17434366 0.09407267 -0.12382234 0.07383749 0.13448752 0.012090371 0.038995396
0.011752544 0.04918673 0.053616468 0.13465323 -0.100296885 -0.05200859 0.098313406 0.05476526
-0.024123034 -0.16784678 0.15155162 -0.1486805 -0.16793153 -0.10318907 0.1691291 0.100907385
0.055489633 -0.1038943 0.030032283 -0.11599281 0.04585634 0.074255906 -0.06544651 0.059267797
-0.07144931 0.17616904 0.06355235 -0.07031459 -0.019013774 0.1134279 0.09325277 -0.046529815
-0.15498787 0.13616799 0.17120013 -0.1314936 -0.0798038 -0.054746088 0.010213038 0.10666476
0.067233935 0.122347414 0.06135331 0.09750415 -0.09779527 0.15110625 0.124568105 0.057295684
-0.0011482188 -0.05852551 0.064345315 0.12256842 0.1468652 0.037922133 -0.010524557 -0.042667888
0.052861776 0.15840141 0.029862149 -0.1246678 -0.03762276 0.10964057 -0.10589199 0.06242214
0.10671488 0.058955703 -0.09558628 0.010713176 0.09249009 0.09988268 -0.016458616 -0.11896585
-0.1457956 -0.13949175 0.1334628 0.06992503 -0.15785566 -0.12320506 -0.06253624 -0.05685322
-0.091938324 0.13781774 0.079801545 -0.09348849 -0.10395778 -0.15897955 -0.16827154 -0.05628487

Gate.weight f4 [4, 32]
00000000: 7873 213e e3f2 1d3c aa50 16bc 146d 103e
00000010: cdf7 3b3d 8f13 dbbd 9c0e 0f3e 947d 19be
00000020: ce4b 993d caea 303e ae3e 013e 2e6d 27bb
00000030: ac61 a5bc 9733 c2bd 309d b9bd 1654 8abd
00000040: 54c7 b83d f7ee 84bd a08c 6cbd a9fc 1abe
00000050: b4ff edbd ddb3 27bd de4a adbd c0f8 84bc
00000060: b84f d33d f803 223e 5ce5 f6bd 4920 52bd
00000070: 7c31 2fbe 908b 233e e573 1ebd fbf3 2ebe
00000080: 0594 183e b44a d9bd b90f 243e 45a9 0cbe
00000090: e9ef 0cbe c5c5 c43b 7e52 363d 344a f6bc
000000a0: dc00 b43d 0983 003e ae9e f73d f83d dfbd
000000b0: aeab 28bd 5aef 32be b249 b83d 8b7d e33d
000000c0: f5bd ecbd 0fdf 8b3d 73b9 303d 3084 003e
000000d0: 2f52 ae3c 40d7 073d 07c2 9d3b e59b 053c
000000e0: efe3 02be 5379 9e3d 6408 0bbe 3a23 1fbd
000000f0: 597e ee3c 20db c23d 1c9a b9bd 3b59 74bc
00000100: de66 a13d d0b4 1ebe 2fd8 823d f935 103e
00000110: 76c9 03bc e5a1 2bbe a207 df3c e6cf 093e
00000120: f314 1c3e 2b7a 793d 1478 f3bd 1233 083d
00000130: 5995 e3bd 9917 94bc 7db8 233e 2286 79bd
00000140: ec68 c33d 3f63 263e 44f0 f6bd 99a3 123d
00000150: ba78 9f3d 1ac7 003e faf2 bf3d ea11 a6bc
00000160: 656e b4bd 33e8 9cbd 100c 69bd e9b3 1c3e
00000170: 401e 63bc 3266 253d c31f b7bc 1985 d4bd
00000180: 375d dabd ef46 df3d 2e2e bfbc d4c4 193e
00000190: 3513 f63d ed54 82bd d608 debd a79e 9fbd
000001a0: d1a1 5bbd f671 86bd b036 8cbd eb6e 243e
000001b0: d40b 283e fd42 e43d 7674 b5bd 6d1f 21be
000001c0: d8c5 5dbd 501b ec3d d670 dfbd 67e1 f9bd
000001d0: 741b cdbd e33f 19be 8343 e7bc e521 f23c
000001e0: 95b1 bf3d 9de1 9d3d 8a6d 24be 368f 29bd
000001f0: b741 00be 3927 9e3d f3fc 143e 4987 0bbe
0.15766704 0.009640428 -0.009174505 0.1410411 0.045890618 -0.1069709 0.13970417 -0.1498931
0.07485162 0.17277065 0.12621567 -0.0025547254 -0.020188175 -0.09482496 -0.09063184 -0.06754319
0.09022394 -0.064908914 -0.057751298 -0.15135445 -0.11621037 -0.040943015 -0.084615454 -0.016231894
0.103179395 0.15821826 -0.120554656 -0.05130032 -0.1710872 0.15971208 -0.038684744 -0.17085259
0.14900215 -0.106099516 0.16021623 -0.13736446 -0.13763393 0.0060050213 0.044512264 -0.03006468
0.087892264 0.12549986 0.120908126 -0.109004915 -0.04117935 -0.17474118 0.08998431 0.1110793
-0.11559669 0.068296544 0.04314561 0.12550426 0.021279423 0.033164263 0.0048143896 0.008154844
-0.12782262 0.077379845 -0.1357742 -0.038851954 0.029112982 0.09514451 -0.09062597 -0.014913852
0.078809485 -0.15498662 0.0638889 0.14083089 -0.0080436375 -0.16760977 0.02722532 0.13458213
0.15242366 0.060907524 -0.118881375 0.03325183 -0.1111247 -0.018077658 0.15988345 -0.060918935
0.09541497 0.16248797 -0.12057546 0.03580055 0.07786699 0.12575951 0.09372516 -0.020272214
-0.088101186 -0.07661476 -0.05689627 0.15303005 -0.013862193 0.040380664 -0.022354012 -0.10376949
-0.106623106 0.109022014 -0.02333745 0.1501649 0.12015382 -0.063638546 -0.10841529 -0.077939324
-0.053621117 -0.06564705 -0.06846368 0.16057937 0.16410762 0.111455895 -0.08860104 -0.15734644
-0.054143757 0.11528647 -0.109101936 -0.12201195 -0.10015002 -0.14965777 -0.028230434 0.029557178
0.09360043 0.07709048 -0.16057411 -0.041396342 -0.12525068 0.07722325 0.14549617 -0.13625826

experts.0.gate_proj.weight f4 [32, 32]
00000000: 405b 15be b173 133e 0e94 f63c a005 e0bc
00000010: f0f3 d73d 5236 82ba f49d d03c 60b6 2abd
00000020: 11ea 593d 29d2 2fbe f1d3 19be 961c 313e
00000030: f396 af3c 920f cabc d6e2 48bd 3d52 ed3d
00000040: 14ab 193e 2464 17be 2c9c 54bd f7d5 3bbd
00000050: 2855 b5bd d8b6 bf3d 17d2 1c3e b870 edbd
00000060: 38db c4bd ff41 d63d 347c 21be 0353 20be
00000070: 1692 2e3e 6e0f b5bd 8275 873d b52d 0dbd
00000080: c2a7 0c3e 6030 ca3d 0ce8 053e 8c13 15bd
00000090: 4925 34be d881 2b3e dabf 183e c0b1 1f3c
000000a0: 249b 303e 3b40 d63d 7009 babd f060 cabc
000000b0: 9f06 bb39 2978 b63d 33be 363d 4fbf 1cbe
000000c0: fcbe 133e b8ab bd3d 66d8 0d3d 52da ed3d
000000d0: d483 093e 1a7b 133e 1390 d4bd 73a1 ddbc
000000e0: 2404 c8bd e8be bc3c 6eb9 253e e3c3 d9bc
000000f0: fcf2 253e 92e5 253e 02e4 e4bd 7388 79bd
00000100: 64d7 9dbd 5813 8b3b 6a57 dcbd 80b9 3abc
00000110: 5184 2c3e fb7a 03be 0937 ff3c 8780 4a3d
00000120: bdbc 02be c145 64bd f32f 9bbd 778e 4bbd
00000130: 3b96 1bbe c67c b33d 0d6e 2a3d 1463 4f3d
00000140: 75bd 81bd d278 b2bd d684 2c3e 6d54 bdbb
00000150: 7804 bdbd 7691 373d 3cc2 983d ad10 b9bd
00000160: ee96 d7bc 0078 3f3d e205 36bd 17e8 c0bd
00000170: b763 e93d d349 e83d 1dbd 323d a03c 003e
00000180: dafd 693d 7c77 71bd 7a9d 46bd e6e3 8bbd
00000190: a570 113e cdb7 19be bc6c 54bd 945d 7e3c
000001a0: 2a8e 63bd d354 92bd a8b0 edbd bce8 fb3c
000001b0: 170f 003e c04e 0b3c 0004 a7bd 8a0a e3bd
000001c0: 9339 233e 8325 713d aefe 2c3e edc5 c93c
000001d0: 2736 02be 1ec0 c2bc f544 11bd aabb 01be
000001e0: 4551 ebbd c98c da3d 1557 853d 2ba9 9e3b
000001f0: 41fc 2abe cb67 2bbe bc6d 32bc 1846 cd3c
00000200: 94b6 b73d 98d1 793d d5cf b53c a518 04be
00000210: 671b 013e 551b 14be 075f 243e fc4e 9b3a
00000220: 777f fb3c 7797 63bd dd9f 9ebd 4f52 143e
00000230: bdbe 03bd b0fb ccbd 3c8b 91bd 3d65 713c
00000240: 9658 c3bd fc7c 0b3e 8649 2dbd d3ce 6b3d
00000250: b33c 2b3e 8eb1 fcbd 7f3c 93bd f22a 29be
00000260: aa53 113e b29e 743d 525a f73d be38 27bd
00000270: 1eeb 0abe fd0d 32bc 2015 0fbe 6dd5 27bd
00000280: 8ff5 0d3e 24bf 18be 2b91 823d 6730 f9bb
00000290: 96f8 01be fbd4 993d b280 06bd add1 01bc
000002a0: 43c1 e23c 8254 9a3d 472b d23d 506c 2a3d
000002b0: b01e 1b3e d8b0 ac3d 3250 89bd 09e5 733d
000002c0: 497c 1e3e f116 be3d 63b5 4fbd 1c4f 263e
000002d0: cb28 8bbd 8de2 883d 9640 283e c48d 12be
000002e0: 6d85 2f3e 9e4a 523d eed5 af3d 3c48 273e
000002f0: c7fd e4bb ec31 bbbd ecba fdbd 4d6f 37bd
00000300: 1220 f33d fd3a b6bc e337 003e c8a6 19be
00000310: 5fba b03d bd16 da3d dbf7 9b3d 49c0 233e
00000320: c672 f03d 3dbf 3abd 8739 3c3d 9663 73bd
00000330: 16c0 2c3e f529 463d 0121 0e3e 3a08 0abe
00000340: 3488 313e cb35 9c3d 6e77 263e fa60 e63c
00000350: 69bd 053d 5f6b 133d 5b78 023e c1b3 083e
00000360: 1efd f7bd b8b4 cc3d 94a3 183e 9988 7dbd
00000370: 78a8 4e3d 077f 1d3e 5a51 873d e4af 093e
00000380: e40f b33d 05f3 c3bd 6863 313e e20c 8abd
00000390: e6fb 08bd f967 8aba e3ec ff3d 07d7 cf3d
000003a0: bcb7 d63c 3457 803d 98c7 1cbe 9585 07be
000003b0: b85e 13bd fe97 893d b57a f63d 27f1 c6bc
000003c0: aaa4 0d3e 6a35 b0bd 105a 853c ca65 9fbd
000003d0: 4a21 093e 71d5 783d ba51 19bd 064a 10bc
000003e0: d4ef 21be 255b 193a 9faf 63bd 0818 8fbd
000003f0: 56b5 0f3e 931b 01be 395a 913d 9315 ecbd
-0.1458559 0.14399602 0.030099895 -0.027346432 0.10544574 -0.0009934402 0.025465943 -0.041677833
0.05320174 -0.17170013 -0.15022255 0.17296061 0.021434283 -0.024665628 -0.049044453 0.11587951
0.15006667 -0.14784294 -0.05190675 -0.04585835 -0.08854133 0.093610466 0.15314518 -0.11593765
-0.09612125 0.104618065 -0.15770036 -0.15656666 0.17047915 -0.088408336 0.0661421 -0.034467418
0.1373587 0.09872508 0.130768 -0.036395594 -0.17592348 0.1674875 0.14916936 0.009746969
0.17246681 0.1046147 -0.09083831 -0.024704427 0.00035672353 0.089096375 0.04461498 -0.15307353
0.14428324 0.092612684 0.0346302 0.11613907 0.13429195 0.14402428 -0.103790425 -0.027054524
-0.09766415 0.02304025 0.16184017 -0.026582664 0.16205972 0.16200855 -0.111763015 -0.060921144
-0.07707098 0.0042442493 -0.107588604 -0.011396766 0.1684735 -0.12839882 0.031154172 0.04943898
-0.1276731 -0.055730585 -0.07577505 -0.049696412 -0.15194027 0.08764033 0.04160886 0.050631598
-0.06334964 -0.08714451 0.16847548 -0.0057778866 -0.09229368 0.044816457 0.07458922 -0.09036384
-0.026317086 0.0467453 -0.044439204 -0.094192676 0.11395972 0.11342206 0.043637384 0.12523127
0.057126857 -0.05895184 -0.048490025 -0.068305776 0.14203127 -0.1501152 -0.05186151 0.01552524
-0.0555555 -0.07145085 -0.1160596 0.030750625 0.12505756 0.008502662 -0.0815506 -0.110859945
0.15939932 0.058873665 0.16894028 0.024630511 -0.1271597 -0.02377325 -0.035466153 -0.12669244
-0.1149011 0.10671384 0.0651075 0.0048419437 -0.1669779 -0.16738813 -0.0108904205 0.025057837
0.08970371 0.0609909 0.022193829 -0.12900026 0.1260811 -0.14463551 0.16051875 0.0011849101
0.030700428 -0.05556437 -0.07745335 0.14484523 -0.032164324 -0.10008943 -0.07106635 0.01473361
-0.09538381 0.13621897 -0.042306446 0.05757029 0.16722374 -0.12338553 -0.07189273 -0.16520289
0.14192072 0.059721656 0.12077774 -0.040825598 -0.13566253 -0.010867593 -0.13972902 -0.040975023
0.13863204 -0.14916664 0.06375345 -0.007604647 -0.12692484 0.07511326 -0.032837577 -0.007923526
0.027680045 0.0753565 0.10262161 0.0416072 0.15148425 0.08432168 -0.06704749 0.059544597
0.15477099 0.092817195 -0.050710093 0.16241115 -0.0679489 0.06683836 0.16430888 -0.14311892
0.17140742 0.05134069 0.08585726 0.16336149 -0.0069882604 -0.09140381 -0.12389168 -0.04478388
0.11871351 -0.022244925 0.12521319 -0.15005028 0.086292975 0.10648868 0.07615634 0.1599132
0.11740641 -0.045592535 0.0459533 -0.059421144 0.1687015 0.048379857 0.13879777 -0.134797
0.17337114 0.07627448 0.16256496 0.028122414 0.03265134 0.03599107 0.12741224 0.1334982
-0.12108825 0.09995407 0.1490615 -0.061897848 0.050453633 0.15380488 0.066073135 0.13446003
0.08743265 -0.09567837 0.17323077 -0.067407385 -0.033443354 -0.0010559551 0.124963544 0.10148435
0.026210658 0.06266633 -0.15310514 -0.13234551 -0.035979003 0.06718443 0.12035123 -0.024284912
0.13832346 -0.08603938 0.016278297 -0.077830866 0.13391605 0.06075043 -0.037431456 -0.008806711
-0.15814143 0.00058500684 -0.055587407 -0.069870055 0.14034018 -0.12608175 0.07097287 -0.115275525
