output/FT-S-MoME/ts_encoder_epoch3.pt (torch, 376236 bytes, 34 tensors)

proj.weight f4 [32, 8]
0	0xbe637a67	-0.22214662
1	0xbe64f22f	-0.2235801
2	0x3dec8505	0.11548809
3	0xbe8c6ed7	-0.27428314
4	0x3e88ea72	0.26741368
5	0x3ea77892	0.32709175
6	0xbdd06707	-0.10175901
7	0x3e7886d4	0.24270183
8	0xbe738999	-0.23782958
9	0x3e5c489b	0.21512072
10	0xbe15174f	-0.14559673
11	0x3d9aa951	0.07551826
12	0x3dc82c14	0.09774032
13	0x3e8d83c9	0.27639607
14	0xbe8b4e70	-0.2720828
15	0xbd97c7be	-0.07411145
16	0xbea9cd11	-0.33164266
17	0x3c0fdd63	0.00878081
18	0xbe44ca4e	-0.19217798
19	0x3e9f997a	0.3117178
20	0x3cf82204	0.030289657
21	0x3e8e1b36	0.27755135
22	0x3e23db07	0.16001521
23	0xbe7fd587	-0.24983798
24	0x3eb7f7f7	0.3593137
25	0x3e81fd97	0.25388786
26	0xbe9c3d8f	-0.30515715
27	0xbe9dde62	-0.30833727
28	0x3e411c1a	0.18858376
29	0x3e82aac5	0.25520912
30	0xbdf66b56	-0.120321915
31	0xbe923406	-0.28555316
32	0x3ebc3324	0.36757767
33	0xbd33162d	-0.04372232
34	0x3e1b9663	0.15194087
35	0xbe8233d3	-0.25430164
36	0xbe8c2605	-0.27372757
37	0x3e03207a	0.12805358
38	0xbe658d07	-0.22417079
39	0xbe971f84	-0.29516232
40	0x3e08024a	0.13282123
41	0xbe720a22	-0.23636678
42	0xbc4129c6	-0.011789745
43	0xbb3d903f	-0.0028925089
44	0x3e2dc7ae	0.16970703
45	0x3c277b18	0.010222219
46	0x3d6dbc8f	0.05804115
47	0xbe4cf476	-0.2001513
48	0xbe84a01f	-0.25903413
49	0x3e76eaad	0.24112959
50	0x3e64a51b	0.22328608
51	0xbdc65643	-0.09684422
52	0x3e86ed84	0.26353085
53	0xbe7afd64	-0.24510723
54	0xbbbb739f	-0.00572057
55	0xbe370a04	-0.17874914
56	0x3d8a5f99	0.06756515
57	0xbd9e60ef	-0.07733332
58	0xbcaad447	-0.020853175
59	0xbcbad789	-0.022807853
60	0xbde90c87	-0.113793425
61	0xbd58d952	-0.052941628
62	0x3db8841b	0.09009572
63	0x3e583920	0.21115541
64	0xbe0e0aa4	-0.13871247
65	0x3e80eedf	0.25182244
66	0xbddbdcfd	-0.107355095
67	0x3d9b2789	0.075759
68	0x3e77510d	0.24152012
69	0xbeb588d0	-0.35455942
70	0x3d0ca61f	0.034338113
71	0xbe4fd21a	-0.20294991
72	0x3e1d4c2d	0.1536109
73	0xbe044eb1	-0.12920643
74	0xbe51c2e2	-0.20484498
75	0x3e19cad5	0.1501878
76	0x3e839f4f	0.2570748
77	0x3e88e6f2	0.26738697
78	0xbdbbfba8	-0.09178859
79	0x3e8c3038	0.27380538
80	0xbc7156fb	-0.01473021
81	0xbe8b5991	-0.2721677
82	0xbdab7c7a	-0.083733514
83	0x3ad48f41	0.0016217009
84	0xbd973a7a	-0.073842004
85	0x3d539054	0.051651314
86	0xbcd70263	-0.026246255
87	0xbe4ccaa1	-0.19999172
88	0xbe97dd34	-0.29660952
89	0x3dcb5780	0.09928799
90	0x3de72d87	0.112879805
91	0x3cbcb776	0.0230367
92	0x3cb4e43f	0.022081492
93	0xbe70cb6f	-0.23515104
94	0xbe20c70d	-0.15700932
95	0x3df0b13b	0.11752554
96	0xbe664a12	-0.22489193
97	0xbdca60ec	-0.09881768
98	0x3e7ff157	0.24994408
99	0xbd9eb19d	-0.07748721
100	0x3eb0078d	0.3438076
101	0x3e3fabd3	0.1871789
102	0xbe96471e	-0.29351133
103	0xbdf59a10	-0.11992276
104	0x3e6502ad	0.22364302
105	0x3e4a9275	0.19782431
106	0x3eac3ed8	0.33641696
107	0x3eb2a7d1	0.3489366
108	0x3e9fbf9f	0.31200883
109	0x3deb9ff9	0.11505122
110	0x3b825651	0.003977575
111	0x3e2aa98a	0.16666237
112	0x3da9dc0c	0.08293924
113	0x3e76c507	0.24098597
114	0xbe0f94b9	-0.14021577
115	0xbe6e2c0a	-0.23258987
116	0xbeaa0c87	-0.33212683
117	0x3eb6de04	0.3571626
118	0x3eb1b605	0.34709182
119	0x3e259312	0.16169384
120	0x3e6c97c5	0.2310477
121	0xbdd2a5d8	-0.102855384
122	0xbd92f04d	-0.0717474
123	0xbeafaefb	-0.34313187
124	0x3e97616a	0.2956651
125	0xbe95799d	-0.29194346
126	0x3e760713	0.24026136
127	0xbe0d6507	-0.1380807
128	0x3d03bec5	0.032164354
129	0xbeadbc3c	-0.33932674
130	0xbd85d4e8	-0.06534749
131	0x3eb06543	0.34452257
132	0x3dd30bfe	0.10305022
133	0xbe278b5d	-0.16361757
134	0xbdfbc343	-0.122931026
135	0x3d0a2bc7	0.033733156
136	0x3e33c4f6	0.17555603
137	0x3e8712c7	0.26381513
138	0xbe53d344	-0.2068606
139	0x3ea79fcc	0.32739103
140	0x3ea04c02	0.3130799
141	0xbe2165dc	-0.15761513
142	0xbea1558d	-0.31510583
143	0x3e5cc6b6	0.21560177
144	0xbeb52138	-0.35376906
145	0xbe531085	-0.2061177
146	0x3e2dcbea	0.16972318
147	0x3e8dd2f4	0.27700007
148	0xbeb0d040	-0.34533882
149	0xbe856279	-0.2605169
150	0x3d3eb220	0.046556592
151	0x3d8e5cc5	0.06951288
152	0x3e8d10d6	0.27551907
153	0xbe302bbe	-0.17204186
154	0xbe27ae04	-0.16374975
155	0xbea1749f	-0.31534287
156	0xbdcf1811	-0.10112012
157	0xbddbbee0	-0.10729766
158	0x3e5fe525	0.21864755
159	0xbe49e71b	-0.19717066
160	0x3e15319b	0.14569704
161	0x3ebb501b	0.36584553
162	0x3d8744da	0.06604929
163	0xbe11df0f	-0.14245246
164	0x3e418d8b	0.1890165
165	0x3e648901	0.22317888
166	0x3eb95b21	0.36202338
167	0xbd3cd326	-0.046099804
168	0x3daa9f25	0.08331136
169	0x3d4ba1c1	0.049714807
170	0xbeb15e76	-0.3464238
171	0xbe306c52	-0.17228821
172	0x3d8d443f	0.068977825
173	0x3db3ff99	0.08788986
174	0x3e7ae514	0.24501449
175	0xbe8023a6	-0.25027198
176	0x3dc6e746	0.09712081
177	0x3d73ff52	0.059569664
178	0xbe126c08	-0.14299023
179	0xbdeedb23	-0.11662891
180	0xbea1aff2	-0.31579548
181	0x3e87918e	0.26478237
182	0x3ce2e19a	0.027695466
183	0xbdbcd339	-0.09219975
184	0xbe0c822e	-0.13721535
185	0x3e976681	0.29570392
186	0x3e3ed760	0.18636847
187	0xbcbbd265	-0.022927472
188	0xbe6c685a	-0.23086682
189	0x3db74bc1	0.08949996
190	0x3e5aacba	0.21354952
191	0xbce5da1c	-0.028058104
192	0xbd897cd6	-0.06713264
193	0x3e8964f9	0.2683485
194	0x3e93feed	0.2890543
195	0x3e9cfac0	0.30660057
196	0x3e9ab1da	0.30213815
197	0xbe74793a	-0.2387437
198	0xbddd437c	-0.10803887
199	0xbd1f3931	-0.0388729
200	0xbd8be1d1	-0.068301804
201	0x3de71ffd	0.11285398
202	0xbeb51ce7	-0.35373613
203	0xbc544cec	-0.012957793
204	0x3ea7dceb	0.32785735
205	0x3e893ab0	0.26802588
206	0x3d6badef	0.057538923
207	0xbeb15cdd	-0.34641162
208	0x3dbb115d	0.09134171
209	0xbe41b798	-0.18917692
210	0x3d9ece85	0.07754234
211	0x3eb64767	0.3560135
212	0xbd477392	-0.0486942
213	0x3cbb5abe	0.022870418
214	0x3d43193d	0.04763149
215	0xbe05a384	-0.13050658
216	0xbdc7915c	-0.09744522
217	0x3eb698ad	0.35663357
218	0xbd1dfbb7	-0.038570132
219	0xbe963831	-0.29339746
220	0x3d72ba34	0.05925961
221	0x3e55bb6f	0.20872281
222	0xbe8887e7	-0.26666185
223	0x3df9729f	0.12180065
224	0xbea6bf8d	-0.32568017
225	0xbd9473f4	-0.07248679
226	0xbbc73c9d	-0.0060802237
227	0xbc000e0c	-0.007815849
228	0x3d468ba3	0.04847301
229	0xbcbef08b	-0.02330806
230	0x3e3b1cee	0.18272755
231	0x3eaac4d0	0.3335328
232	0xbe30755c	-0.17232269
233	0xbd4c1795	-0.049827177
234	0xbd2c88d2	-0.04212267
235	0xbe840564	-0.25785363
236	0xbebac576	-0.36478776
237	0xbe82a399	-0.2551544
238	0x3dcfb008	0.10140997
239	0x3e704de7	0.23467217
240	0x3e73a855	0.23794682
241	0xbe0395ef	-0.12850164
242	0x3c1f78ec	0.00973342
243	0x3e1425e2	0.14467576
244	0xbdc7df79	-0.09759421
245	0x3e228cc0	0.15874004
246	0xbe713dac	-0.23558682
247	0x3e82bc78	0.25534415
248	0xbdcaed19	-0.09908504
249	0xbe399e1f	-0.18126725
250	0xbd0f6570	-0.035008848
251	0x3e2d5b41	0.16929342
252	0x3e552979	0.20816602
253	0xbe05f993	-0.13083486
254	0xbe222255	-0.15833409
255	0xbeb684b4	-0.3564812

proj.bias f4 [32]
0	0xbd93778c	-0.07200536
1	0xbea35fcd	-0.31909028
2	0x3e680960	0.22659826
3	0x3dd4e770	0.10395706
4	0xbe00d5ef	-0.12581609
5	0x3e20a988	0.15689671
6	0xbea99dd9	-0.3312824
7	0x3cbfc257	0.023408098
8	0x3eab7b17	0.33492348
9	0xbcab13a7	-0.020883394
10	0x3e067c29	0.13133301
11	0xbeb03f54	-0.34423316
12	0xbdabb873	-0.0838479
13	0x3e960358	0.29299426
14	0xbd3bc27f	-0.045839783
15	0x3d55fd99	0.052243803
16	0xbdb3b069	-0.08773882
17	0x3d22735c	0.039660797
18	0x3ebc6de3	0.36802587
19	0x3d002c8f	0.031292494
20	0xbe5a0674	-0.21291524
21	0xbd14a2d7	-0.03628811
22	0xbeb31fc0	-0.3498516
23	0x3cabd8ec	0.02097746
24	0x3ea0e961	0.31428054
25	0x3e2549b5	0.16141398
26	0x3eb46c64	0.35238945
27	0x3e327693	0.17428045
28	0x3d7bf779	0.061515305
29	0x3e27ef6b	0.16399924
30	0x3e62c825	0.22146662
31	0x3da10da9	0.078639336

EiLM.0.gamma_generator.weight f4 [1, 32]
0	0x3dfbbbe7	0.12291699
1	0xbe15721a	-0.14594308
2	0xbe37a32b	-0.17933337
3	0x3ce1390d	0.027493024
4	0xbde31e14	-0.11089721
5	0x3e3054a9	0.17219795
6	0xbe1b97f9	-0.15194692
7	0xbc5cb4ee	-0.013470871
8	0x3dddae07	0.10824209
9	0xbd98ea0d	-0.07466517
10	0x3d7e2331	0.06204528
11	0xbd8a91fd	-0.06766126
12	0xbdf8c964	-0.12147787
13	0x3e04ccd2	0.12968758
14	0xbe07a6c8	-0.13247216
15	0xbdb8247c	-0.08991334
16	0x3d9df391	0.07712472
17	0xbcddc0b9	-0.027069436
18	0x3d5f7164	0.054551497
19	0xbdfad9d3	-0.12248578
20	0xbe39b54a	-0.18135563
21	0x3da4cd95	0.08047024
22	0x3e3980e4	0.18115574
23	0xbc83b691	-0.016078265
24	0xbe0ae547	-0.13564025
25	0x3d3a24cc	0.04544525
26	0x3d40c6c1	0.047064546
27	0x3dc32a07	0.095295005
28	0xbe329609	-0.17440046
29	0x3ddc6594	0.10761562
30	0x3e3523be	0.17689416
31	0xbd51f776	-0.051261388

EiLM.0.beta_generator.weight f4 [32, 32]
0	0x3d5f7b27	0.054560807
1	0x3d2cfa8a	0.04223112
2	0xbdce697d	-0.10078714
3	0xbda15fa6	-0.078795716
4	0x3db98336	0.090582296
5	0xbd66f229	-0.056383286
6	0x3e130a8d	0.14359494
7	0xbe200537	-0.1562699
8	0x3d23f149	0.04002503
9	0xbd1270f9	-0.03575227
10	0xbe067814	-0.13131744
11	0x3bba71f7	0.005689855
12	0xbdd9d232	-0.10635795
13	0xbcf2a0dd	-0.029617721
14	0xbc2993ae	-0.010350151
15	0x3d74e12a	0.059785046
16	0x3e00b2da	0.12568226
17	0x3c0e709e	0.008693842
18	0x3d8e0f09	0.069364615
19	0x3e1a49bf	0.15067194
20	0xbd9dcbf6	-0.07704918
21	0xbe340b2b	-0.17582385
22	0xbd534058	-0.051575035
23	0x3b732906	0.003710331
24	0x3dfc65a1	0.12324072
25	0xbdb5a031	-0.08868445
26	0x3e3e78ae	0.18600723
27	0x3d43eed5	0.04783519
28	0xbd202a69	-0.039102945
29	0xbe26752c	-0.16255635
30	0xbe2af16b	-0.16693656
31	0xbdf69a9f	-0.120412104
32	0xbd41287b	-0.047157746
33	0xbddf95e6	-0.10917263
34	0xbe443eb5	-0.19164546
35	0xbcfa7b55	-0.030576387
36	0xbe252537	-0.16127478
37	0xbe184da9	-0.14873375
38	0xbe1c1516	-0.15242419
39	0x3dfade96	0.12249486
40	0x3b813325	0.0039428645
41	0xbe3f3dfa	-0.18675986
42	0x3dae0b4f	0.08498251
43	0xbcd6ef34	-0.026237108
44	0x3dd3e026	0.10345487
45	0xbe30644d	-0.17225762
46	0xbda02287	-0.078190856
47	0x3d7e41c6	0.062074445
48	0xbe08fc14	-0.1337741
49	0x3dc48cd1	0.09597171
50	0x3c1f4272	0.009720432
51	0xbdceabae	-0.10091339
52	0x3dbabe5d	0.0911834
53	0x3d17f20a	0.03709606
54	0x3dfff961	0.12498737
55	0xbd803d82	-0.06261732
56	0xb99eff4e	-0.00030326325
57	0xbd3e8605	-0.04651453
58	0xbe3fdfad	-0.1873767
59	0xbe1995f2	-0.14998606
60	0xbe2796b7	-0.16366087
61	0x3e38e7ff	0.1805725
62	0x3c907d08	0.017637745
63	0x3d1eebf1	0.03879923
64	0xbe16979e	-0.14706275
65	0xbd75c02c	-0.059997723
66	0xbcd5eba7	-0.026113344
67	0x3cee7334	0.029107668
68	0xbe38c8f5	-0.18045409
69	0x3ddd3f09	0.108030386
70	0x3db9f0f2	0.0907916
71	0xbe0a3c6b	-0.1349961
72	0x3d8766e6	0.06611423
73	0xbd9c27c8	-0.07624775
74	0xbd2010e0	-0.039078593
75	0x3c81b95b	0.015835455
76	0x3d942ffd	0.072357155
77	0xbd083fbc	-0.033263907
78	0xbe263e66	-0.1623474
79	0xbb85b0f4	-0.0040799323
80	0xbe17ec6c	-0.14836282
81	0xbe258782	-0.16164973
82	0xbdd0e761	-0.10200382
83	0x3cbb13eb	0.022836646
84	0xbd139fd1	-0.036041085
85	0xbdf5f7f9	-0.12010188
86	0x3e20e9c8	0.1571418
87	0xbe2c8bde	-0.1685023
88	0x3d8841e6	0.06653194
89	0x3d511cd0	0.05105287
90	0x3c168234	0.009186316
91	0xbd8b07b3	-0.06788578
92	0x3ddc3492	0.107522145
93	0xbe043cb0	-0.12913775
94	0xbd15b20d	-0.036546756
95	0x3c71dd04	0.014762167
96	0x3dadedb0	0.08492601
97	0xbdb0d1b5	-0.086337484
98	0xbe1355cd	-0.14388199
99	0xbe23776f	-0.15963529
100	0xbd4acce3	-0.0495118
101	0x3d0330c2	0.03202892
102	0x3cc5f233	0.024163341
103	0x3e1a2e08	0.15056622
104	0xbd9ae726	-0.07563619
105	0xbdd0a3ad	-0.10187469
106	0xbc2df274	-0.010616887
107	0xbe29838a	-0.16554084
108	0xbcbfc107	-0.023407472
109	0x3df45f05	0.11932186
110	0xbb689703	-0.00354904
111	0x3deb05ef	0.11475741
112	0xbe155402	-0.14582828
113	0xbe2a5571	-0.16634156
114	0x3dfeed75	0.12447635
115	0xbc2e14b0	-0.0106250495
116	0xbdbb87d3	-0.09156766
117	0x3dfe1e71	0.1240815
118	0x3d9fc8f8	0.078020036
119	0x3d9bdaee	0.07610117
120	0x3cce1370	0.025155753
121	0xbd667575	-0.05626436
122	0xbdba7efa	-0.0910625
123	0xbcdf4d36	-0.027258497
124	0x3cfb64b4	0.030687667
125	0x3d7ac1d4	0.061220005
126	0xbe00f917	-0.1259502
127	0xbdb71de3	-0.08941247
128	0x3ddbfff5	0.10742179
129	0xbe17be67	-0.14818726
130	0xbdaccce3	-0.084375165
131	0x3e14b65a	0.14522687
132	0xbd1fe9ed	-0.03904145
133	0xbce7af39	-0.028281795
134	0xbb04843d	-0.0020220422
135	0xbdcd6b8b	-0.10030278
136	0x3d673f7e	0.056457035
137	0x3c0d20d0	0.00861378
138	0xbe213439	-0.15742578
139	0xbe03de70	-0.12877822
140	0xbd65c53d	-0.056096304
141	0x3d908a52	0.070576325
142	0xbe2792ca	-0.1636459
143	0xbddaa244	-0.10675481
144	0xbe252b76	-0.1612986
145	0xbde45125	-0.111482896
146	0xbd7aa9d6	-0.061197124
147	0xbc9bd43c	-0.0190221
148	0xbe2eb811	-0.17062403
149	0xbe001436	-0.1250771
150	0x3d977f41	0.07397319
151	0x3dd87633	0.1056942
152	0xbe01cdcb	-0.1267616
153	0x3ba904be	0.005158036
154	0x3d8a1d85	0.06743912
155	0x3e0d797d	0.13815875
156	0x3e142aa6	0.14469394
157	0x3de61c69	0.112358876
158	0x3e103d9a	0.14085999
159	0x3cd77fb7	0.026306016
160	0xbdcde46c	-0.10053334
161	0x3e1d3cc1	0.15355207
162	0xbde5f34d	-0.112280466
163	0x3d66e969	0.05637494
164	0x3dc58edd	0.0964639
165	0x3da546a6	0.08070116
166	0xbe1d101a	-0.15338174
167	0xbe067f4f	-0.13134502
168	0xbd21f06b	-0.03953592
169	0xbe05cf5b	-0.13067381
170	0x3c0f0c13	0.008730906
171	0xbe196c2c	-0.1498267
172	0xbd6f2545	-0.058385152
173	0xbdb8206d	-0.0899056
174	0xbdd2599c	-0.10270998
175	0xbd833995	-0.06407467
176	0xbdb05800	-0.08610535
177	0x3e2bb5f3	0.16768627
178	0xbe0c6e80	-0.13714027
179	0x3b912e11	0.0044305404
180	0x3dc494ce	0.09598695
181	0x3bacf430	0.005278133
182	0xbc3d3325	-0.011547838
183	0xbd31364b	-0.04326467
184	0xbd79be3c	-0.060972437
185	0x3d68c300	0.05682659
186	0xbd4cb718	-0.0499793
187	0xbe1a45d6	-0.15065703
188	0x3d18a1f9	0.037263844
189	0xbe3638ab	-0.17795055
190	0xbd15be77	-0.036558595
191	0xbde67386	-0.11252503
192	0xbc258286	-0.01010192
193	0xbbd3198c	-0.0064422544
194	0xbe216c92	-0.15764073
195	0xbe041db5	-0.12901957
196	0xbd8aa165	-0.06769065
197	0xbde6916e	-0.11258207
198	0x3d9e89ca	0.07741125
199	0x3e1135bf	0.14180659
200	0x3d532838	0.051552027
201	0x3df43a4c	0.11925182
202	0xbdc8162f	-0.09769856
203	0x3d6bc9a6	0.057565354
204	0x3cb1cb73	0.021703457
205	0xbe3b2ab0	-0.18278003
206	0x3e0cfab0	0.13767505
207	0x3c094fb0	0.008380815
208	0x3dfba1da	0.1228673
209	0x3e2490bd	0.16070838
210	0x3d461829	0.048362885
211	0x3dd4cb24	0.103903085
212	0xbd3c379c	-0.04595147
213	0xbcdebdb4	-0.027190067
214	0x3e2ac4d5	0.16676648
215	0x3d76fdc3	0.0603006
216	0x3dba01f9	0.090824075
217	0x3e1fb578	0.15596569
218	0xbc89dab0	-0.016827911
219	0xbd454c6c	-0.048168585
220	0x3d6fd644	0.05855395
221	0x3e0f9cb7	0.14024626
222	0xbe1efd0d	-0.15526219
223	0xbcc5584f	-0.02408996
224	0x3e2e0b79	0.16996564
225	0xbd173d26	-0.03692355
226	0x3cbe53de	0.02323335
227	0xbd92619b	-0.07147523
228	0xbdd971ff	-0.10617446
229	0x3d92603b	0.07147261
230	0xbe047c64	-0.12938076
231	0xbd8c2635	-0.06843225
232	0x3cabd0e4	0.02097363
233	0x3e28e754	0.16494495
234	0x3db4b48e	0.088235006
235	0x3e2d35de	0.1691508
236	0xbdd27cde	-0.10277723
237	0x3da75d23	0.08172061
238	0x3d5e6b00	0.054301262
239	0xbe1cc144	-0.153081
240	0xbdf5fdce	-0.120113
241	0x3db1b635	0.08677331
242	0x3dc25797	0.09489363
243	0xbe1fb32a	-0.1559569
244	0x3dfddd59	0.12395734
245	0x3bee9430	0.007280849
246	0xbe008751	-0.12551619
247	0x3d2c450c	0.042058036
248	0xbd2e3f14	-0.042540625
249	0xbd16d24a	-0.03682164
250	0x3df313f6	0.118690416
251	0x3ccfb9b2	0.025357101
252	0x3ba1e144	0.004940184
253	0x3c97f2a0	0.01854831
254	0x3e016707	0.12636958
255	0xbe3857e2	-0.18002275

EiLM.1.gamma_generator.weight f4 [1, 32]
0	0xbc98079f	-0.018558322
1	0xbe172bf6	-0.14762864
2	0xbe36fbe4	-0.17869526
3	0x3df38400	0.118904114
4	0x3ccd6492	0.02507237
5	0xbca055bb	-0.01957213
6	0x3dba77f4	0.091049105
7	0xbdd4998f	-0.103808515
8	0xbe0706ec	-0.13186234
9	0xba309aa6	-0.00067369116
10	0x3cd3f889	0.025875347
11	0xbca81edb	-0.020522526
12	0x3e339cf5	0.17540343
13	0x3e0b5652	0.13607147
14	0xbd1a6c06	-0.037700675
15	0xbd3bc743	-0.045844328
16	0x3d935535	0.07193986
17	0xbe1060ff	-0.14099501
18	0xbd650832	-0.05591602
19	0x3df8becb	0.12145766
20	0x3dbe221f	0.09283852
21	0x3d1fafa5	0.038985867
22	0x3e265916	0.16244921
23	0xbd845501	-0.06461526
24	0x3daddd7a	0.08489509
25	0x3d41733e	0.047229044
26	0xbd33cd41	-0.043896917
27	0x3d898710	0.06715214
28	0xbdfa2c19	-0.12215442
29	0x3e3af869	0.18258823
30	0x3de7910d	0.11306963
31	0x3d586e17	0.052839365

EiLM.1.beta_generator.weight f4 [32, 32]
0	0x3c9eafbf	0.019370912
1	0x3dc93c46	0.09825949
2	0x3c5e1311	0.0135543505
3	0xbe260c40	-0.1621561
4	0xbe2cae56	-0.16863379
5	0x3e039926	0.1285139
6	0xbaee4dd5	-0.0018181155
7	0x3e1672c6	0.1469222
8	0xbe03f4f4	-0.12886411
9	0x3e3837a2	0.17989972
10	0x3d659e60	0.05605924
11	0x3e15af49	0.14617647
12	0xbdf64b83	-0.120261215
13	0x3d441cd2	0.047879048
14	0xbd152769	-0.036414538
15	0xbe0855a0	-0.13313913
16	0x3cca2aea	0.024678666
17	0x3e1d7792	0.15377644
18	0x3de23280	0.11044788
19	0x3e2f99ef	0.17148565
20	0xbd778d7f	-0.060437676
21	0x3dd701bf	0.1049838
22	0xbe300feb	-0.17193572
23	0x3e121c82	0.14268687
24	0xbe21d6f6	-0.15804657
25	0x3d0de854	0.034645393
26	0x3dc482ac	0.09595236
27	0xbdd4b589	-0.103861876
28	0x3e04cd73	0.12968998
29	0xbdf2a3e3	-0.11847665
30	0xbde5680a	-0.112014845
31	0xbcefd124	-0.02927453
32	0xbd2935dd	-0.041311134
33	0xbc90f85c	-0.017696552
34	0xbe2f9a2f	-0.1714866
35	0xbcaa5e56	-0.020796936
36	0x3e0f4ca2	0.13994077
37	0xbdc5257b	-0.096262895
38	0x3dedd62b	0.11613115
39	0x3e2ff3d4	0.17182857
40	0x3bf8f01f	0.007596984
41	0xbe013272	-0.126169
42	0xbe0c2ed3	-0.13689737
43	0x3d41d7c2	0.047324903
44	0xbe0a50a7	-0.13507329
45	0xbe0ce798	-0.13760221
46	0x3e3c9946	0.18417844
47	0x3df939ef	0.12169253
48	0x3cdaf45d	0.02672785
49	0xbe15da9b	-0.14634173
50	0xbe0a1e61	-0.13488151
51	0xbdf53953	-0.11973824
52	0xbd8d6ae8	-0.069051564
53	0x3de54a23	0.11195781
54	0xbd636373	-0.055514764
55	0xbd6f7fc7	-0.058471467
56	0x3e1fe13a	0.15613261
57	0xbd62e187	-0.05539086
58	0xbdba03ee	-0.09082781
59	0x3dcb5a87	0.09929376
60	0x3e2f16a5	0.17098482
61	0xbda68608	-0.08131033
62	0xbc55976b	-0.013036589
63	0x3d834a30	0.064106345
64	0xbcdb2257	-0.026749773
65	0x3d73622a	0.05941979
66	0x39926aba	0.00027926808
67	0xbe101109	-0.14068998
68	0x3d17f963	0.037103068
69	0x3e28d7a0	0.16488504
70	0x3d808506	0.06275372
71	0xbd828b2c	-0.06374201
72	0xbca0bd3f	-0.01962149
73	0xbdbcd4b9	-0.09220261
74	0xbdce6623	-0.10078075
75	0xbe2975f7	-0.16548906
76	0xbcbf7b60	-0.02337426
77	0xbe0b1d58	-0.13585413
78	0x3e17982c	0.14804143
79	0xbe090bb0	-0.13383365
80	0x3e0b149b	0.13582079
81	0xbdd439ba	-0.10362573
82	0x3e14469b	0.14480059
83	0x3e2c9fee	0.16857883
84	0x3d08b360	0.03337419
85	0x3b9a2e11	0.0047051986
86	0x3dc1685f	0.09443735
87	0xbe1532c6	-0.1457015
88	0x3de06206	0.109561965
89	0xbda892ed	-0.08231149
90	0x3a91b30d	0.0011115983
91	0xbd51bf43	-0.051207792
92	0xbb969c5a	-0.0045962753
93	0x3da58d5f	0.08083605
94	0xbd8ae078	-0.06781095
95	0xbe2f508b	-0.17120568
96	0x3bc133e6	0.0058960794
97	0xbe12934e	-0.14314005
98	0xbd31d456	-0.04341539
99	0x3e36be43	0.17846017
100	0xbe23b84c	-0.15988272
101	0xbd7b0854	-0.06128724
102	0x3d389e5d	0.045072902
103	0x3e2cd8f7	0.1687964
104	0xbd64dd49	-0.055875096
105	0x3df483b8	0.11939186
106	0x3e0bcb25	0.13651712
107	0x3e06d238	0.1316613
108	0x3dcbf1bc	0.099582165
109	0xbda04168	-0.07824975
110	0xbd4a264f	-0.04935294
111	0xbc9d38ab	-0.01919206
112	0xbd4ed113	-0.050492357
113	0xbd469f3e	-0.04849171
114	0xbe28ad58	-0.16472375
115	0x3da82c51	0.08211578
116	0x3c4b7646	0.012418335
117	0x3d653ca7	0.055966046
118	0x3e32eceb	0.1747319
119	0xbd670f36	-0.05641099
120	0xbd9aaf30	-0.075529456
121	0x3e23436e	0.15943691
122	0xbe3590ef	-0.17731069
123	0xbd8bd249	-0.06827218
124	0x3d551a99	0.05202732
125	0xbd9ce000	-0.07659912
126	0xbe228f7f	-0.15875052
127	0xbde4ed12	-0.1117803
128	0x3d76b09b	0.060227018
129	0xbd1d8541	-0.03845716
130	0xbdab950f	-0.0837804
131	0x3d8ff4c2	0.07029106
132	0xbd7370b8	-0.05943367
133	0xbdc399ac	-0.09550795
134	0x3dee4dd5	0.11635939
135	0x3d52f196	0.051499926
136	0xbe20d25a	-0.15705243
137	0xbe289ba3	-0.1646562
138	0xbe1d5311	-0.15363719
139	0x3da390d2	0.07986607
140	0xbd87f50d	-0.066385366
141	0x3db43a48	0.08800179
142	0xbe1d8c09	-0.1538545
143	0x3e3c5803	0.18392949
144	0x3cabd894	0.020977296
145	0x3c34e6db	0.011041368
146	0x3a80842a	0.0009805013
147	0xbe036393	-0.12830953
148	0xbd21e785	-0.039527435
149	0xbe08def5	-0.13366301
150	0x3ddd5379	0.10806937
151	0xbd44801a	-0.04797373
152	0xbd89e8bb	-0.06733843
153	0xbdfa998a	-0.122363165
154	0x3e137afc	0.14402384
155	0x3dd3ba8c	0.10338315
156	0x3d123c5e	0.035702102
157	0x3d8a6fbc	0.06759593
158	0xbdb93084	-0.09042457
159	0x3cc1138d	0.023568893
160	0xbe34ddd7	-0.1766275
161	0x3c816803	0.015796667
162	0x3e235892	0.15951756
163	0x3e13e357	0.14442192
164	0xbdf53f77	-0.119749956
165	0x3cab0273	0.020875191
166	0x3e288670	0.16457534
167	0x3db9a338	0.09064335
168	0xbe33a05e	-0.17541644
169	0xbe1d03a9	-0.15333427
170	0x3d87d658	0.0663268
171	0x3cd9c151	0.026581438
172	0xbdadceb1	-0.08486689
173	0x3d62bf53	0.055358242
174	0xbe1e9b64	-0.15488964
175	0xbd9d3a2f	-0.07677113
176	0xbe1e6d51	-0.15471388
177	0x3e29324a	0.1652309
178	0x3d3f61ef	0.046724256
179	0xbe373471	-0.17891099
180	0x3e166259	0.14685954
181	0xbcefbad0	-0.029263884
182	0xbd600cc2	-0.054699667
183	0x3e04c6f7	0.12966524
184	0xbe181fc3	-0.14855866
185	0xbd7225ce	-0.059118085
186	0xbe1c663c	-0.15273374
187	0x3dd155f7	0.102214746
188	0xbd5cc68c	-0.053900287
189	0x3d0126f7	0.0315313
190	0x3db185ad	0.08668075
191	0x3d994069	0.074829884
192	0x3e0e4ed6	0.13897261
193	0xbdaa4a96	-0.083150074
194	0xbd8034b3	-0.062600516
195	0xbe3374b5	-0.17524989
196	0xbda47024	-0.080292016
197	0xbdb90804	-0.09034732
198	0xbd841c65	-0.06450728
199	0x3e2ba0f1	0.16760613
200	0xbe0341ec	-0.12818116
201	0x3d81d4cd	0.06339417
202	0x3dedad89	0.11605365
203	0xbc88caad	-0.016698206
204	0xbdcfac7a	-0.10140319
205	0x3e1c9d3d	0.15294357
206	0x3e3ef140	0.18646717
207	0x3c4647bf	0.012102067
208	0xbe1feccf	-0.15617679
209	0xbd9256f8	-0.07145494
210	0x3dc9a65a	0.09846182
211	0x3d9ce824	0.07661465
212	0xbc6dd132	-0.014515208
213	0xbded98f8	-0.11601442
214	0xbde94b11	-0.11391271
215	0xbd954495	-0.072884716
216	0xbdac698b	-0.08418568
217	0x3ca76bbe	0.020437118
218	0xbd8a0a15	-0.06740204
219	0x3e1e88fe	0.15481946
220	0xbab2e8ba	-0.001364968
221	0x3d73ffcc	0.05957012
222	0xbdf91180	-0.12161541
223	0x3e23d4c5	0.15999134
224	0xbe21bc5f	-0.15794514
225	0xbc4f8294	-0.01266541
226	0xbc4df33d	-0.0125702
227	0xbde5b5f9	-0.11216349
228	0x3c378799	0.011201763
229	0xbd567618	-0.052358717
230	0x3dfa874a	0.122328356
231	0xbd8a89b2	-0.067645445
232	0xbd781ed1	-0.060576264
233	0x3db91c75	0.09038631
234	0xbdb3ae80	-0.087735176
235	0xbc218928	-0.009859361
236	0xbe334b53	-0.17509203
237	0xbe0d1a53	-0.13779573
238	0xbb997e68	-0.0046842583
239	0xbdefe77f	-0.11714076
240	0xbe06f65b	-0.13179915
241	0xbd82220d	-0.06354151
242	0xbe206dc6	-0.15666875
243	0xbd73df97	-0.059539404
244	0xbd6cde56	-0.057829224
245	0xbe1e7f93	-0.15478353
246	0xbe260327	-0.1621214
247	0x3e2a487a	0.1662921
248	0xbe06d3c1	-0.13166715
249	0xbe0a2056	-0.13488898
250	0xbe0e3999	-0.1388916
251	0x3cae9658	0.021311924
252	0x3da13235	0.07870904
253	0x3a68b4cf	0.000887704
254	0xbdf6d746	-0.12052779
255	0xbc94b173	-0.01815102

EiLM.2.gamma_generator.weight f4 [1, 32]
0	0x3de23a4f	0.11046278
1	0xbdc48a0b	-0.09596642
2	0x3da04702	0.07826044
3	0xbe3043b9	-0.17213334
4	0xbde993a2	-0.11405112
5	0xbd07969e	-0.033102624
6	0x3cb09276	0.021554213
7	0xbdc2da97	-0.09514349
8	0x3e35d6b1	0.1775768
9	0xbe02995c	-0.12753814
10	0x3dfcbf88	0.12341219
11	0x3e130ef1	0.14361168
12	0xbdc55ca9	-0.09636814
13	0xbdef75f2	-0.11692418
14	0xbc6793f1	-0.014134393
15	0xbc48023e	-0.012207566
16	0xbc0de0e4	-0.008659575
17	0xbd949e42	-0.07256748
18	0x3d61c330	0.055117786
19	0xbdb2d33c	-0.08731696
20	0xbe19be82	-0.15014079
21	0xbcd04dcf	-0.025427727
22	0x3dee17c5	0.116256274
23	0xbe109b53	-0.14121751
24	0xbe03f097	-0.12884746
25	0xbd885ca3	-0.06658294
26	0xbd8fd9d5	-0.0702397
27	0x3d27068e	0.040777735
28	0xbe2f84df	-0.1714053
29	0x3e0f16a4	0.1397348
30	0x3dec0ce4	0.11525896
31	0xbdbde121	-0.092714556

EiLM.2.beta_generator.weight f4 [32, 32]
0	0xbc9b49af	-0.018956034
1	0xbdffeb7d	-0.12496088
2	0xbd9ddd94	-0.07708278
3	0xbe2ba1a9	-0.16760887
4	0xbe3546a8	-0.17702734
5	0x3e0e2ad9	0.13883533
6	0x3e20358e	0.1564543
7	0x3dd44095	0.103638805
8	0x3c977e85	0.018492946
9	0xbb9d03c1	-0.0047917073
10	0xbd141f4c	-0.03616266
11	0x3b235eef	0.002492841
12	0xbe1b71f9	-0.15180196
13	0x3df8e595	0.12153164
14	0xbd6e10c2	-0.05812145
15	0x3d1b3a72	0.037897535
16	0x3dc937ae	0.09825073
17	0xbd86ee96	-0.065884754
18	0xbd3cc961	-0.046090487
19	0xbccb5e17	-0.024825139
20	0xbe1ca33e	-0.15296647
21	0xbe0efba5	-0.13963182
22	0xbe2a81ce	-0.16651079
23	0xbd1bebbd	-0.038066614
24	0x3dba6aaf	0.091023795
25	0xbe27a944	-0.16373163
26	0xbdcb28f9	-0.09919924
27	0xbe24c7b6	-0.16091809
28	0xbe24fe2e	-0.16112587
29	0xbe3c54e0	-0.18391752
30	0x3d050869	0.032478724
31	0x3d81e2c0	0.06342077
32	0x3e0ec7e7	0.13943444
33	0x3d469f62	0.048491843
34	0xbe194670	-0.14968276
35	0xbd6284ed	-0.05530255
36	0x3d382d1e	0.044964902
37	0xbdd8be2e	-0.10583149
38	0x3dbbba87	0.09166437
39	0x3dd7bf16	0.105344936
40	0x3c86a1a2	0.016434494
41	0x3dfb97c6	0.12284808
42	0xbdabe507	-0.08393293
43	0xbe071d1d	-0.131947
44	0x3e185c71	0.14879014
45	0x3d94dd17	0.07268732
46	0xbd11d933	-0.035607528
47	0x3d47567c	0.048666462
48	0xbd111456	-0.035419784
49	0xbdf99e5a	-0.12188406
50	0x3dc23736	0.09483187
51	0x3c413b39	0.011793905
52	0xbdf75549	-0.12076814
53	0xbd926d5c	-0.07149765
54	0xbd1ca50c	-0.03824334
55	0x3c71bc60	0.014754385
56	0x3c68dfd9	0.014213526
57	0xbe276ac4	-0.16349322
58	0xbe0511bc	-0.12995046
59	0x3d79e2de	0.061007373
60	0x3dceb7fa	0.100936845
61	0xbc903e5e	-0.017607864
62	0xbdb46ca9	-0.08809788
63	0x3d50a8a7	0.05094209
64	0xbd79122a	-0.06080834
65	0xbdd37cc7	-0.10326534
66	0x3e28afbe	0.1647329
67	0x3e00300d	0.1251833
68	0xbe168840	-0.14700413
69	0x3df1e362	0.11810948
70	0xbd838b0e	-0.06423007
71	0x3bbe94d5	0.005816082
72	0x3e064594	0.1311248
73	0xbe00926b	-0.12555854
74	0xbe32fba6	-0.17478809
75	0x3d0aa47c	0.03384827
76	0xbe184126	-0.14868602
77	0xbd5204bc	-0.051274046
78	0xbd18df54	-0.037322357
79	0x3d131660	0.03591001
80	0x3db1a66a	0.08674319
81	0x3e21f12b	0.15814655
82	0x3dce3996	0.100695774
83	0x3e2c0573	0.16798954
84	0x3e157387	0.14594851
85	0xbe11c460	-0.14235067
86	0x3d997ab8	0.0749411
87	0x3e294035	0.165284
88	0x3dfe2466	0.12409286
89	0x3dfad629	0.12247879
90	0xbda9f2e9	-0.082982846
91	0x3d68f766	0.056876563
92	0x3dab5f7f	0.08367824
93	0x3d48a375	0.04898401
94	0x3deb9843	0.11503651
95	0xbd5e2e0f	-0.054243144
96	0x3d479ef0	0.04873556
97	0xbe14e354	-0.14539844
98	0x3e10ac9e	0.14128348
99	0xbcb97395	-0.022638122
100	0xbd090be2	-0.033458598
101	0xbda5f326	-0.081030175
102	0xbe1aab59	-0.15104426
103	0xbb34d303	-0.0027591593
104	0xbe2af8fa	-0.1669654
105	0xbdeae3bb	-0.114692174
106	0x3d6977f4	0.05699916
107	0x3d139abc	0.036036238
108	0x3ceb78ee	0.028744187
109	0xbdb5ab9f	-0.08870625
110	0x3dc8a2e9	0.09796698
111	0xbd9099a1	-0.070605524
112	0x3e2bc7c1	0.16775419
113	0xbe0baa56	-0.13639197
114	0xbd523b8c	-0.05132632
115	0x3ccec205	0.025239
116	0xbd10f5d5	-0.035390694
117	0x3e0ef073	0.13958912
118	0xbdde31bc	-0.1084933
119	0x3db15acc	0.08659896
120	0x3e0bc56d	0.1364953
121	0x3d87d8c5	0.066331424
122	0x3d3be78e	0.045875125
123	0xbe144166	-0.14478073
124	0xbdb5be51	-0.088741906
125	0xbded4588	-0.11585528
126	0x3df24ca2	0.11831023
127	0xbd25386a	-0.040337004
128	0xbcdef2d0	-0.027215391
129	0x3d725f3c	0.059172854
130	0xbd118a46	-0.03553226
131	0xbe33d45f	-0.17561482
132	0x3e0c5820	0.13705492
133	0x3d387a2a	0.04503838
134	0x3d693a3c	0.056940302
135	0x3e2dd1a4	0.16974503
136	0x3e2f141e	0.17097518
137	0xbd2fd9ff	-0.042932507
138	0xbdf1b2b9	-0.11801667
139	0xbe3bc09e	-0.18335196
140	0x3e3eb4bc	0.18623632
141	0x3dc35624	0.095379144
142	0xbdcb3200	-0.09921646
143	0xbd260733	-0.04053421
144	0xbe1cc181	-0.15308191
145	0x3d8ede0b	0.06975945
146	0xbda87f41	-0.08227397
147	0x3d95921c	0.07303259
148	0x3d566fdc	0.05235277
149	0xbd96bb12	-0.073598996
150	0xbd84a389	-0.06476504
151	0x3c16eb1b	0.009211327
152	0x3ca36c5f	0.019949136
153	0x3ab70c95	0.0013965542
154	0xbe228136	-0.15869603
155	0xbe21faea	-0.15818372
156	0x3c9c0238	0.019044027
157	0xbe1ea43a	-0.15492335
158	0x3de4b4f6	0.11167328
159	0x3e39b647	0.1813594
160	0x3ccb55fc	0.024821274
161	0xbdfb760a	-0.122783735
162	0xbd3e4376	-0.046451055
163	0x3de52e73	0.111905
164	0xbe1dbd4a	-0.1540424
165	0x3c5d03d8	0.013489686
166	0x3dd48827	0.103775315
167	0xbe200ae1	-0.1562915
168	0xbdb4646a	-0.08808215
169	0x3dcdead8	0.100545585
170	0x3e2aa429	0.16664185
171	0x3dcceacb	0.10005721
172	0xbd9b266a	-0.07575686
173	0xbdf66f08	-0.12032896
174	0xbde6e7c0	-0.112746716
175	0x3e22e186	0.15906343
176	0xbd4d05f0	-0.05005449
177	0xbd86a0ed	-0.06573663
178	0x3e029b28	0.127545
179	0x3dff35f4	0.124614626
180	0xbdf731dc	-0.12070057
181	0x3e25ba85	0.16184433
182	0x3d25bb3f	0.040461775
183	0x3d476b09	0.04868606
184	0xbe093c19	-0.13401832
185	0xbd451f56	-0.048125587
186	0x3e1c1332	0.15241697
187	0xbe2815fa	-0.16414633
188	0xbdb23a04	-0.08702472
189	0x3d8152d0	0.06314623
190	0xbd01d53e	-0.031697504
191	0x3e0eb1b2	0.13934973
192	0xbd41d188	-0.047318965
193	0x3d4fe8f1	0.05075926
194	0xbe01515f	-0.12628697
195	0xbde8e7a2	-0.113723055
196	0x3c4c1f31	0.0124586085
197	0xbcb9bc87	-0.022672905
198	0xbdbdbff3	-0.09265127
199	0x3db614d1	0.08890689
200	0xbe238a10	-0.15970635
201	0x3bf30aac	0.0074170437
202	0xbe1e2e96	-0.15447459
203	0x3e139d65	0.1441551
204	0xbd8c33a1	-0.06845785
205	0xbdf26469	-0.11835558
206	0x3db23f59	0.08703489
207	0x3d761cb3	0.060085963
208	0x3d8d6a03	0.06904986
209	0x3e35c15f	0.17749546
210	0xbdcaef4b	-0.09908923
211	0xbe31447e	-0.17311284
212	0x3ddff27c	0.10934922
213	0x3dcd0ab7	0.10011809
214	0x3d5011bd	0.050798167
215	0xbdf37e4a	-0.11889322
216	0xbdf428f4	-0.11921874
217	0x3e28ea0d	0.16495533
218	0xbd265b13	-0.0406142
219	0x3e2a1d46	0.1661273
220	0xbdc00fa3	-0.093779825
221	0x3cac76d1	0.02105275
222	0x3d8af829	0.06785614
223	0x3d6156e6	0.055014513
224	0x3dfae24b	0.12250193
225	0x3e1a80f6	0.15088257
226	0xbd694b81	-0.05695677
227	0x3d9849a1	0.074359186
228	0xbcd1b263	-0.025597757
229	0x3dda2a6c	0.106526226
230	0x3d785536	0.06062814
231	0x3e17725d	0.1478972
232	0xbe26ee2f	-0.16301797
233	0xbd2a6707	-0.04160216
234	0x3dad4ba9	0.08461697
235	0x3e3b1bad	0.18272276
236	0xbe05b257	-0.13056313
237	0x3dc966dc	0.09834072
238	0x3e1c119a	0.1524109
239	0xbd19ce4c	-0.037550256
240	0x3dc379c0	0.09544706
241	0xbd0fc2f1	-0.03509802
242	0x3ddb0d39	0.106958814
243	0x3d4b5c19	0.049648378
244	0xbda259cf	-0.07927286
245	0x3dd3898d	0.1032897
246	0xbd23b070	-0.039963186
247	0xbc48401d	-0.012222317
248	0xbd153707	-0.03642943
249	0xbdc3c9ff	-0.09560012
250	0x3dc47375	0.09592334
251	0x3e1f8cbc	0.1558103
252	0xbe01c06b	-0.12671058
253	0xbe248d22	-0.16069463
254	0xbe121823	-0.1426702
255	0xbd889b7c	-0.06670281

EiLM.3.gamma_generator.weight f4 [1, 32]
0	0xbd2d2d71	-0.042279664
1	0xbcdac7a8	-0.026706532
2	0xbcaff9d9	-0.021481441
3	0x3e26145d	0.16218705
4	0xbd44b5aa	-0.04802481
5	0xbe044293	-0.12916021
6	0x3dcff14b	0.10153445
7	0x3e23629d	0.15955587
8	0xbe1c7067	-0.15277253
9	0x3df92984	0.121661216
10	0xbdffab1a	-0.12483807
11	0x3da2091c	0.07911894
12	0xbd00b158	-0.03141913
13	0xbda8499d	-0.082171656
14	0x3dc5459f	0.0963242
15	0xbdbf9783	-0.093550704
16	0xbe2c3337	-0.16816412
17	0xbdc16cc4	-0.094445735
18	0xbde794d1	-0.11307681
19	0x3de9dff2	0.11419667
20	0xbe14852f	-0.1450393
21	0xbcee492b	-0.029087624
22	0x3dad98d9	0.08476419
23	0x3e15c5e7	0.14626275
24	0x3d84bfbc	0.06481883
25	0x3d3a3a87	0.045465972
26	0xbd9ce67d	-0.0766115
27	0x3dedf4d5	0.11618964
28	0xbe1d021a	-0.15332833
29	0xbdf5cd45	-0.12002043
30	0xbe023462	-0.12715295
31	0xbe1d5084	-0.15362746

EiLM.3.beta_generator.weight f4 [32, 32]
0	0xbdb97286	-0.09055047
1	0x3e3ea935	0.18619235
2	0xbdeef4fa	-0.11667819
3	0xbd138ecd	-0.036024857
4	0xbd7d1437	-0.061786857
5	0xbcecee43	-0.028922206
6	0xbdb2d406	-0.087318465
7	0x3c758143	0.014984432
8	0xbdcc1717	-0.099653415
9	0xbe20bf47	-0.15697967
10	0x3d955074	0.07290736
11	0xbd1e8b49	-0.03870705
12	0x3d9bed34	0.07613602
13	0xbd4c56c4	-0.049887434
14	0xbe26f589	-0.16304602
15	0x3d46c739	0.048529837
16	0x3e193a4b	0.14963643
17	0xbe2841a1	-0.16431285
18	0xbcc43e34	-0.023955442
19	0xbd4f79a4	-0.050653115
20	0x3e22958a	0.15877357
21	0xbd9a5bbc	-0.07537028
22	0xbc6b9407	-0.014378554
23	0x3dd7d513	0.105386876
24	0x3d90183f	0.070358746
25	0xbc7749b6	-0.015093258
26	0xbe1bd5fe	-0.1521835
27	0xbddd7150	-0.10812628
28	0xbbc8ea36	-0.0061314357
29	0xbe425df6	-0.18981156
30	0x3c3e5f46	0.011619395
31	0x3d373438	0.044727534
32	0xbd9d762e	-0.076885566
33	0xbe296daa	-0.1654574
34	0x3dadd627	0.08488112
35	0x3df4cf8a	0.119536474
36	0xbe3527ff	-0.17691039
37	0xbc0dbdf9	-0.00865125
38	0x3d965c94	0.073418766
39	0x3c6a8a8a	0.014315257
40	0xbe114e3a	-0.14189997
41	0x3e25c7b9	0.1618947
42	0xbd71a6d1	-0.05899698
43	0xbd482b04	-0.048869148
44	0x3e2a4c8c	0.16630763
45	0xbe01399c	-0.12619632
46	0x3def4608	0.11683279
47	0xbe0818e2	-0.13290742
48	0x3cdc3aa1	0.026883425
49	0x3e273b70	0.16331267
50	0x3dc4a367	0.09601479
51	0x3d419490	0.04726082
52	0x3d1c24cc	0.03812103
53	0xbd5281e1	-0.051393393
54	0x3dc07bd1	0.09398616
55	0xbdc33155	-0.09530894
56	0x3de04f68	0.109526455
57	0x3cd6c70d	0.026217962
58	0xbcba779a	-0.022762109
59	0xbd2d551a	-0.042317487
60	0x3e268796	0.1626266
61	0x3dc9d10e	0.09854327
62	0x3dff287d	0.124588944
63	0xbd9ba021	-0.075989015
64	0x3d111a37	0.03542539
65	0x3e2aedd0	0.16692281
66	0x3e2badfd	0.1676559
67	0x3cc21a9c	0.023694329
68	0x3ddc5dd0	0.10760081
69	0xbd8f46e8	-0.06995946
70	0x3d21e930	0.039529026
71	0x3c65ca63	0.014025304
72	0x3c5c098c	0.0134300105
73	0x3da3b3af	0.07993256
74	0xbdb10ccc	-0.08645019
75	0x3c2b47b6	0.010454109
76	0xbd8d8fc9	-0.069121905
77	0xbc14e8a6	-0.009088671
78	0xbe29f081	-0.16595651
79	0xbc1b00ad	-0.00946061
80	0xb8e27f72	-0.00010800258
81	0x3decb3bb	0.11557718
82	0xbe0a2315	-0.13489945
83	0xbd9b0c45	-0.075706996
84	0x3c65ba44	0.01402146
85	0x3dea8662	0.11451413
86	0xbda31e42	-0.079647556
87	0xbdcac26c	-0.09900364
88	0xbe189c66	-0.14903411
89	0x3d3928e8	0.045205027
90	0xbddd3b5b	-0.10802337
91	0xbd109cf1	-0.03530592
92	0x3bf84b08	0.007577304
93	0xbe26f01c	-0.16302532
94	0x3e18a8bb	0.14908116
95	0xbdfdefcb	-0.123992525
96	0x3dba5fc4	0.09100297
97	0xbda9727b	-0.082737885
98	0xbdd12164	-0.10211447
99	0x3dc5711a	0.09640713
100	0xbd663e4a	-0.056211747
101	0xbdf95a7d	-0.121754624
102	0xbe0a59d0	-0.13510823
103	0x3c8e62ae	0.017381039
104	0xbd55e81a	-0.052223302
105	0xbd2c751b	-0.042103868
106	0xbe20e8a3	-0.15713744
107	0xbdb601be	-0.08887051
108	0xbd287b91	-0.041133467
109	0xbe14ca83	-0.14530377
110	0x3c3ab589	0.01139582
111	0x3de8859b	0.11353608
112	0xbcd5e7f2	-0.026111577
113	0x3cef93f4	0.029245354
114	0xbd56ac23	-0.052410256
115	0xbe2eae01	-0.17058565
116	0xbe0ba975	-0.13638861
117	0x3dc50148	0.09619385
118	0x3c86c3d7	0.016450806
119	0x3e113da9	0.14183678
120	0xbe0da55c	-0.13832611
121	0x3e22d51a	0.15901604
122	0x3dcc0625	0.099621095
123	0xbd21584f	-0.03939086
124	0xbdb9da2e	-0.090748176
125	0x3e19bba1	0.15012981
126	0x3d4a0ee7	0.04933062
127	0x3ddea27a	0.10870834
128	0x3dd5dc5f	0.10442423
129	0xbd920ea6	-0.071317
130	0x3d750a4c	0.059824273
131	0xbd77a7f4	-0.060462907
132	0xbe013fb7	-0.12621962
133	0x3e1752e2	0.14777711
134	0xbdf03f88	-0.117308676
135	0x3e216bb3	0.1576374
136	0xbcc30b29	-0.023809033
137	0x3db09722	0.08622576
138	0x3e2765b1	0.16347386
139	0xbd3a70fd	-0.04551791
140	0x3e03d652	0.12874725
141	0xbe0a98a0	-0.13534784
142	0xbe1086ed	-0.1411397
143	0x3ddd402f	0.10803258
144	0x3dd16b6a	0.10225566
145	0xbce0201c	-0.027359061
146	0x3daa2d0c	0.08309373
147	0x3e155a81	0.14585306
148	0x3e288c14	0.16459686
149	0xbe340367	-0.17579423
150	0x3d598d46	0.053113244
151	0xbd7c1ebe	-0.061552756
152	0x3e17cca9	0.14824165
153	0xbd129da7	-0.03579488
154	0xbe276308	-0.16346371
155	0xbd428ebd	-0.047499407
156	0x3db16f9e	0.086638674
157	0x3c1cab82	0.009562375
158	0x3e0e500c	0.13897723
159	0x3d1c442e	0.03815096
160	0xbdebe797	-0.11518782
161	0x3e2fb14d	0.17157479
162	0x3dd5ca3c	0.10438964
163	0xbde6de1b	-0.11272832
164	0x3d9df29d	0.077122904
165	0x3e0895c9	0.13338389
166	0x3c8c2cf2	0.017111275
167	0x3ceb24d4	0.028704084
168	0x3bd42993	0.0064746826
169	0x3d6b4895	0.057442266
170	0x3d3434f2	0.043995805
171	0x3e14f3d1	0.14546134
172	0xbdda289f	-0.10652279
173	0xbd2dbf8d	-0.042419005
174	0x3dd31a98	0.10307807
175	0x3d4edf1a	0.050505735
176	0xbce0daf0	-0.027448148
177	0xbe28b235	-0.1647423
178	0x3e1e9ee7	0.15490304
179	0xbe204f8c	-0.15655345
180	0xbe297e73	-0.16552143
181	0xbdcdbaaf	-0.10045373
182	0x3e2b98f4	0.16757566
183	0x3dde9086	0.108674094
184	0x3d40b15e	0.04704415
185	0xbdd0e4b7	-0.10199874
186	0x3d1069ff	0.035257336
187	0xbdfc48b0	-0.123185515
188	0x3d3cfb4b	0.04613809
189	0x3d8bfb24	0.06835011
190	0xbd85e65a	-0.06538077
191	0x3d4a55ff	0.04939842
192	0xbd90b479	-0.070656724
193	0x3e2a50d6	0.16632399
194	0x3d5af821	0.05345929
195	0xbda8813b	-0.08227774
196	0xbcac486e	-0.02103063
197	0x3de3d94a	0.11125429
198	0x3dc4aeeb	0.096036755
199	0xbd15bebe	-0.03655886
200	0xbe1d5663	-0.15364985
201	0x3dfefc2e	0.12450443
202	0x3e2d9e0d	0.16954823
203	0xbe13d6bb	-0.14437382
204	0xbd978cdd	-0.073999144
205	0xbd8224f5	-0.06354705
206	0x3c978216	0.018494647
207	0x3ddeac3c	0.10872695
208	0x3d7223d5	0.059116203
209	0x3dfeee42	0.12447788
210	0x3d8f61cf	0.070010774
211	0x3db961d6	0.09051864
212	0xbdda36c1	-0.10654975
213	0x3e1b7870	0.15182662
214	0x3e0a3829	0.13497986
215	0x3d47d28b	0.048784774
216	0x3b959e8b	0.004566019
217	0xbd51c8e2	-0.051216967
218	0x3d5b2755	0.053504307
219	0x3e08d169	0.13361134
220	0x3e166969	0.14688648
221	0x3d5cc076	0.053894483
222	0xbb9a3c7c	-0.0047069173
223	0xbcf99fb8	-0.030471668
224	0x3d3ce06f	0.046112474
225	0x3e28eb12	0.16495922
226	0x3d3b7ec4	0.04577519
227	0xbdd730e8	-0.10507375
228	0xbcfa382f	-0.030544369
229	0x3de45d14	0.11150566
230	0xbdd8e639	-0.105907865
231	0x3d43f761	0.04784334
232	0x3dcae3f9	0.099067636
233	0x3d95c4fa	0.07312961
234	0xbdd0ef31	-0.10201872
235	0x3cec7c0b	0.028867742
236	0x3da5dc79	0.080986924
237	0x3debbf21	0.11511064
238	0xbc9df892	-0.019283567
239	0xbe011b70	-0.12608123
240	0xbe113980	-0.14182091
241	0xbe0c5046	-0.13702497
242	0x3e05a819	0.13052405
243	0x3d940a95	0.07228581
244	0xbe1889f0	-0.14896369
245	0xbdf3e596	-0.119090244
246	0xbd94f61f	-0.072735064
247	0xbd33493b	-0.04377101
248	0xbdd54006	-0.10412602
249	0x3e07db2d	0.13267203
250	0x3db9d66d	0.090741016
251	0xbddbf096	-0.107392475
252	0xbdd0fa3d	-0.10203979
253	0xbe357c24	-0.17723137
254	0xbe2f14de	-0.17097804
255	0xbd9a6b03	-0.07539942

Gate.weight f4 [4, 32]
0	0x3e18768d	0.14888974
1	0x3c967f9b	0.018371394
2	0xbc8b8f2c	-0.017036043
3	0x3e1189c1	0.14212705
4	0x3d72819e	0.059205644
5	0xbdd843e5	-0.10559825
6	0x3e107fc4	0.14111239
7	0xbe21a9ce	-0.15787432
8	0x3da44ec6	0.08022837
9	0x3e23c4d5	0.15993054
10	0x3e0f9665	0.14022215
11	0x3c462793	0.012094396
12	0xbbf78815	-0.007554064
13	0xbde17272	-0.11008157
14	0xbdd69c32	-0.10479011
15	0xbd5a4623	-0.053289544
16	0x3dd6fa7c	0.10496995
17	0xbda514c0	-0.080605984
18	0xbd3df5fa	-0.04637716
19	0xbe0c9276	-0.13727745
20	0xbe04ab49	-0.12955965
21	0xbcd4467e	-0.02591252
22	0xbd91af94	-0.07113567
23	0xbd08e0d3	-0.033417534
24	0x3db26b5a	0.08711882
25	0x3e1b4f2c	0.1516692
26	0xbe06307a	-0.1310443
27	0xbd57996a	-0.05263654
28	0xbe3b55cd	-0.18294449
29	0x3e313770	0.17306304
30	0xbd6672f9	-0.05626199
31	0xbe2057d2	-0.15658501
32	0x3e0ccdf2	0.13750437
33	0xbddf8fe2	-0.10916115
34	0x3e274d9d	0.16338201
35	0xbe08499e	-0.13309333
36	0xbdfba54b	-0.122873865
37	0x3c956011	0.018234285
38	0x3d09b663	0.033621203
39	0xbce980bf	-0.028503774
40	0x3dd1955f	0.102335684
41	0x3ddfd154	0.10928598
42	0x3e0ed250	0.13947415
43	0xbdc52378	-0.09625906
44	0xbd11101e	-0.03541576
45	0xbe455669	-0.19271244
46	0x3d955787	0.07292085
47	0x3e04ce59	0.1296934
48	0xbdcd3f57	-0.10021847
49	0x3d4bfda0	0.049802423
50	0x3d78f1ad	0.060777355
51	0x3e130c0b	0.14360063
52	0x3b633c7a	0.0034673498
53	0x3d521556	0.05128988
54	0x3c74f9cc	0.014952134
55	0xbc45b47e	-0.0120669585
56	0xbe14f9ee	-0.14548466
57	0x3da54d30	0.08071363
58	0xbe114fc8	-0.1419059
59	0xbcfc3b13	-0.030789888
60	0x3ccd2996	0.025044244
61	0x3de80989	0.11329944
62	0xbdda689f	-0.10664486
63	0x3b43ebba	0.0029895143
64	0x3dbb2c1e	0.09139274
65	0xbe244ea2	-0.16045621
66	0x3d8c0500	0.06836891
67	0x3e0b7cfc	0.13621897
68	0xbcb48587	-0.022036327
69	0xbe339a22	-0.17539266
70	0x3d036a06	0.032083534
71	0x3e121318	0.14265096
72	0x3e0c5046	0.13702497
73	0x3d9b4b84	0.07582763
74	0xbe0bad49	-0.13640322
75	0x3cb00563	0.021486944
76	0xbdf987e3	-0.121841215
77	0xbb273998	-0.0025516506
78	0x3e350552	0.17677811
79	0xbda2a452	-0.07941498
80	0x3da6de66	0.08147888
81	0x3e373049	0.17889513
82	0xbe0dc5d7	-0.13845001
83	0x3ca0921a	0.019600917
84	0x3dc16a4a	0.09444101
85	0x3de2b873	0.11070337
86	0x3dabb8d1	0.0838486
87	0xbb0a23fe	-0.0021078582
88	0xbd9742e0	-0.07385802
89	0xbd9670bf	-0.07345723
90	0xbd48914b	-0.048966687
91	0x3e1901b5	0.14942057
92	0xbac8da42	-0.0015323835
93	0x3cc2211f	0.023697434
94	0xbc09f9b3	-0.008421349
95	0xbdf7b527	-0.12095099
96	0xbdc2c533	-0.09510269
97	0x3ddc0b0a	0.10744293
98	0xbcba19c9	-0.022717373
99	0x3e17f882	0.14840892
100	0x3dd4af38	0.10384983
101	0xbd90cfa6	-0.07070856
102	0xbdce7cb8	-0.10082382
103	0xbda057d0	-0.07829249
104	0xbd8319ef	-0.06401431
105	0xbd4462e4	-0.047945872
106	0xbdb54161	-0.08850361
107	0x3e16f7bf	0.14742945
108	0x3e1fcff4	0.15606672
109	0x3e05ce5b	0.13067
110	0xbd8f7ae5	-0.07005862
111	0xbe35a925	-0.17740305
112	0xbd9004e5	-0.070321836
113	0x3e0a7c77	0.13524042
114	0xbe0295b6	-0.12752423
115	0xbe111251	-0.14167143
116	0xbda5bc25	-0.08092526
117	0xbe2cc27f	-0.1687107
118	0xbd1e54f2	-0.03865523
119	0x3d51845b	0.051151615
120	0x3de445c7	0.111461215
121	0x3d9e7328	0.07736808
122	0xbe1cd40d	-0.15315266
123	0xbd39a3ca	-0.045322217
124	0xbdf5a7ad	-0.11994872
125	0x3d6bbbc7	0.057552125
126	0x3e24a3f7	0.16078173
127	0xbe1f56f5	-0.15560515

experts.0.gate_proj.weight f4 [32, 32]
0	0xbe1cdfcc	-0.15319747
1	0x3e0aef4b	0.13567846
2	0x3d0fe121	0.03512681
3	0xbca89478	-0.020578608
4	0x3de716cd	0.11283646
5	0x3c511749	0.012761899
6	0x3c974549	0.018465655
7	0xbd3ee7fc	-0.046607956
8	0x3d82ef7d	0.06393335
9	0xbe37d804	-0.17953497
10	0xbe1038ee	-0.14084217
11	0x3e35ef1e	0.17766997
12	0x3cd045e4	0.025423951
13	0xbd070acf	-0.032969292
14	0xbd6e8638	-0.05823347
15	0x3e02c13d	0.12769027
16	0x3e209dc1	0.15685178
17	0xbe200ff9	-0.15631093
18	0xbd2e6eec	-0.042586252
19	0xbd1836c7	-0.037161615
20	0xbdc736a0	-0.09727216
21	0x3dd17ced	0.10228906
22	0x3e1e44ec	0.15455979
23	0xbe013b5c	-0.126203
24	0xbdd35ffa	-0.103210405
25	0x3de71ad1	0.11284412
26	0xbe1ae963	-0.15128092
27	0xbe19405f	-0.14965962
28	0x3e26ef46	0.16302213
29	0xbda357e6	-0.0797575
30	0x3d6cc21a	0.057802297
31	0xbcccb882	-0.024990324
32	0x3e105bce	0.1409752
33	0x3dd435c3	0.10361817
34	0x3dfda075	0.123841204
35	0xbd2307be	-0.039802305
36	0xbe367b6d	-0.1782052
37	0x3e25818f	0.16162704
38	0x3e1d89d4	0.15384609
39	0x3c52a7a2	0.01285735
40	0x3e2a9e8a	0.1666204
41	0x3ddee4ab	0.10883459
42	0xbdc5af0d	-0.09652529
43	0xbcaa2b4a	-0.020772595
44	0xbaab1d2f	-0.0013054962
45	0x3dbca7bf	0.092116825
46	0x3d4d006a	0.050049223
47	0xbe1f1913	-0.15536909
48	0x3e1190b9	0.14215364
49	0x3dc3d736	0.095625326
50	0x3cebe397	0.028795047
51	0x3de64748	0.112440646
52	0x3e0edc42	0.13951209
53	0x3e137ce1	0.14403106
54	0xbdc9a68e	-0.09846221
55	0xbcba3de3	-0.022734588
56	0xbdccdb38	-0.1000275
57	0x3c8dd91c	0.01731544
58	0x3e206efd	0.15667339
59	0xbd00b7dd	-0.031425346
60	0x3e27e42b	0.16395633
61	0x3e212514	0.157368
62	0xbdeb9e42	-0.11504795
63	0xbd88e1eb	-0.066837154
64	0xbd98e0c9	-0.07464749
65	0x3c12b7ad	0.0089549245
66	0xbde10ee3	-0.109891675
67	0xbc36f2c9	-0.011166283
68	0x3e29b731	0.16573788
69	0xbe08042d	-0.13282843
70	0x3d0ca5c9	0.034337793
71	0x3d48a618	0.048986524
72	0xbe08e587	-0.13368808
73	0xbd513972	-0.051080175
74	0xbda69095	-0.081330456
75	0xbd5bb00a	-0.05363468
76	0xbe1db2fb	-0.15400307
77	0x3dbe23ec	0.09284195
78	0x3d4020fc	0.046906456
79	0x3d3c916f	0.046037134
80	0xbd89f496	-0.06736104
81	0xbda5d8cb	-0.080979906
82	0x3e25a80f	0.1617739
83	0xbc28d3e6	-0.010304427
84	0xbdb1f3d0	-0.08689082
85	0x3d29e481	0.041477684
86	0x3d999dcf	0.07500803
87	0xbdae9652	-0.08524765
88	0xbcb275c3	-0.021784669
89	0x3d3dcd47	0.046338346
90	0xbd39e3ca	-0.045383252
91	0xbdc71bfd	-0.09722135
92	0x3de96901	0.11396981
93	0x3ddbe03a	0.10736127
94	0x3d4cdf51	0.05001766
95	0x3df5a99e	0.119952425
96	0x3d5d15c5	0.05397584
97	0xbd747ce5	-0.05968942
98	0xbd40c2bb	-0.04706071
99	0xbd8a80f3	-0.06762876
100	0x3e144ae6	0.14481696
101	0xbe168e3b	-0.14702694
102	0xbd595b10	-0.05306536
103	0x3c42bb87	0.01188553
104	0xbd4e64e7	-0.050389197
105	0xbd99de2f	-0.07513081
106	0xbde52875	-0.11189357
107	0x3d0ca213	0.034334254
108	0x3e042dcd	0.12908097
109	0x3bac4bf2	0.005258077
110	0xbdb1ecb1	-0.086877234
111	0xbde558e1	-0.11198593
112	0x3e280808	0.16409314
113	0x3d68d172	0.056840368
114	0x3e327142	0.17426017
115	0x3cda98e9	0.026684241
116	0xbe06df10	-0.13171029
117	0xbcd024cd	-0.025408173
118	0xbd1c191c	-0.038109884
119	0xbe067635	-0.1313103
120	0xbdeb6617	-0.114940815
121	0x3dda8f37	0.10671847
122	0x3d8cd438	0.06876415
123	0x3c0750f0	0.008259043
124	0xbe2da753	-0.1695836
125	0xbe27a960	-0.16373205
126	0xbc421c51	-0.0118475715
127	0x3cf47c91	0.029844554
128	0x3dbc03ee	0.09180437
129	0x3d73057e	0.05933141
130	0x3cb52cc1	0.022116067
131	0xbe03d675	-0.12874778
132	0x3e015bfc	0.12632746
133	0xbe123375	-0.14277442
134	0x3e2290f9	0.15875615
135	0x3b21cc30	0.0024688356
136	0x3ced6413	0.028978383
137	0xbd5f1293	-0.054461073
138	0xbd9ca532	-0.07648696
139	0x3e12914e	0.14313242
140	0xbcfcc40c	-0.030855201
141	0xbdcd8563	-0.10035207
142	0xbd91049d	-0.07080958
143	0x3c82a592	0.01594809
144	0xbdc01fe3	-0.09381082
145	0x3e09e7fe	0.13467404
146	0xbd2fb305	-0.042895336
147	0x3d70145d	0.05861317
148	0x3e2b1c50	0.16710019
149	0xbdfaa2d5	-0.12238089
150	0xbd923e23	-0.07140758
151	0xbe2ac47f	-0.1667652
152	0x3e0fbf77	0.14037882
153	0x3d76ee0b	0.06028561
154	0x3df89d2f	0.121393554
155	0xbd2e3afc	-0.04253672
156	0xbe0a6c89	-0.13517965
157	0xbc36126d	-0.0111127915
158	0xbe0d5d98	-0.13805234
159	0xbd27c941	-0.040963415
160	0x3e12fff5	0.14355452
161	0xbe15134c	-0.14558142
162	0x3d870f2f	0.06594693
163	0xbc35e9f8	-0.011103146
164	0xbe06ebb6	-0.13175854
165	0x3d9572e7	0.072973065
166	0xbcef3eab	-0.029204687
167	0xbbe35365	-0.0069374316
168	0x3cb611c8	0.022225276
169	0x3da45cbe	0.08025502
170	0x3dc77587	0.097392134
171	0x3d1c78c0	0.038201094
172	0x3e1b1685	0.1514531
173	0x3db69857	0.08915775
174	0xbd7bf05a	-0.061508514
175	0x3d686079	0.05673263
176	0x3e1a09a5	0.15042742
177	0x3dc4c05c	0.09607002
178	0xbd65ab32	-0.056071468
179	0x3e217124	0.15765816
180	0xbd7fd234	-0.062456325
181	0x3d85fc8b	0.065423094
182	0x3e2801ef	0.16406988
183	0xbe0c95e0	-0.13729048
184	0x3e320045	0.17382915
185	0x3d573632	0.05254192
186	0x3daacf25	0.08340291
187	0x3e22c2c9	0.15894617
188	0xbb38ef20	-0.0028218701
189	0xbdc59ed3	-0.09649434
190	0xbdfdb00f	-0.12387096
191	0xbd4cf37d	-0.050036896
192	0x3ddafe18	0.10692996
193	0xbd062a21	-0.03275502
194	0x3e06feba	0.13183108
195	0xbe1012b1	-0.1406963
196	0x3dc99597	0.09842985
197	0x3dfa250b	0.12214097
198	0x3d893a4b	0.067005716
199	0x3e19745d	0.14985795
200	0x3e07ce83	0.13262372
201	0xbd6ecc61	-0.05830038
202	0x3d776576	0.060399495
203	0xbd60ee29	-0.054914627
204	0x3e2cffcc	0.16894454
205	0x3d10a687	0.035315063
206	0x3dfdad9c	0.12386629
207	0xbdf3e1cb	-0.11908301
208	0x3e3bdfc7	0.18347083
209	0x3d81d9fa	0.06340404
210	0x3e34b2d0	0.17646337
211	0x3d2b96c8	0.041891843
212	0x3c9b77ce	0.018978026
213	0x3d46ff24	0.048583165
214	0x3dfff341	0.12497569
215	0x3df14bfe	0.117820725
216	0xbe0657f2	-0.13119486
217	0x3de0882e	0.10963474
218	0x3e204c86	0.15654191
219	0xbd58971b	-0.05287848
220	0x3d1e6791	0.038672987
221	0x3e2aeceb	0.1669194
222	0x3d5e842f	0.05432528
223	0x3e193a14	0.14963561
224	0x3dbbd84c	0.09172115
225	0xbdb8f244	-0.090305835
226	0x3e2fda92	0.17173222
227	0xbd92dbce	-0.07170831
228	0xbd125cdc	-0.03573309
229	0xbba05a49	-0.0048935753
230	0x3e05473d	0.13015456
231	0x3dcec89b	0.10096856
232	0x3cb0e038	0.02159129
233	0x3d864354	0.065558106
234	0xbe21dda4	-0.15807205
235	0xbe044420	-0.12916613
236	0xbd009e81	-0.03140116
237	0x3d8b9bb9	0.06816811
238	0x3dff9937	0.12480395
239	0xbce412c5	-0.027840981
240	0x3e0e7fa3	0.13915877
241	0xbdaef3c2	-0.08542587
242	0x3c3ee3bd	0.011650977
243	0xbda6a254	-0.081364304
244	0x3e0db985	0.13840301
245	0x3d74cbcb	0.059764665
246	0xbd0d8318	-0.03454885
247	0xbbd517d3	-0.006503084
248	0xbe22fbf4	-0.15916425
249	0xbad4ea96	-0.0016244228
250	0xbd73440f	-0.059391078
251	0xbd971315	-0.073766865
252	0x3e121a52	0.14267853
253	0xbe04afd9	-0.12957706
254	0x3d8a25b5	0.06745473
255	0xbdf65f71	-0.12029923
