output/FT-S-MoME/ts_encoder_epoch5.pt (torch, 376236 bytes, 34 tensors)

proj.weight f4 [32, 8]
000000 b6 ae 65 be c0 27 67 be ec 59 e8 3d 59 83 8d be
       -0.22429928 -0.22573757 0.11345276 -0.27639273
000010 7b dd 87 3e 06 6d a6 3e 80 97 d4 bd f8 64 76 3e
       0.26536164 0.32505053 -0.10380459 0.24061954
000020 d0 61 71 be a6 8e 5e 3e 0b 9c 12 be 76 ac 9f 3d
       -0.23572469 0.21734104 -0.14317338 0.07796566
000030 0e e0 cc 3d 96 a8 8e 3e 51 61 8a be 72 53 94 bd
       0.100036725 0.27862996 -0.27027372 -0.072424784
000040 6b 22 ab be ed 4d c3 3b 78 b5 47 be 8a 30 9e 3e
       -0.33424696 0.005960217 -0.19502819 0.30896407
000050 b6 fb e0 3c a3 a0 8c 3e cb 1d 21 3e 10 3a 81 be
       0.027463775 0.27466306 0.15734021 -0.2523961
000060 57 25 b9 3e 94 31 83 3e 97 0a 9b be 47 a9 9c be
       0.361613 0.25623763 -0.30281517 -0.30597898
000070 c4 9c 43 3e 83 f0 83 3e 31 41 f1 bd ce ef 90 be
       0.1910277 0.25769433 -0.117800124 -0.28307956
000080 78 5b bd 3e 26 6e 29 bd ed 00 1e 3e 69 ff 80 be
       0.36983848 -0.04136481 0.1543004 -0.25194862
000090 15 eb 8a be f1 a9 05 3e 76 17 63 be a1 ef 95 be
       -0.27132478 0.13053109 -0.22176918 -0.29284385
0000a0 5c af 05 3e d6 79 74 be f2 8b 66 bc 47 fc a6 bb
       0.13055176 -0.23874602 -0.0140714515 -0.005095992
0000b0 19 66 2b 3e cc 0d 01 3c 49 2e 64 3d 15 5d 4f be
       0.16738166 0.007876825 0.055708203 -0.20250352
0000c0 57 bb 85 be a9 d1 74 3e ef b8 62 3e 2a 62 ca bd
       -0.2611949 0.23908104 0.22140859 -0.098820046
0000d0 91 f8 85 3e 26 e1 7c be 89 1a fa bb 14 fe 38 be
       0.26166204 -0.24695262 -0.007632558 -0.18065673
0000e0 b0 0f 8d 3d c5 d6 9b bd a0 8c a2 bc 11 60 b2 bc
       0.06887758 -0.076093234 -0.019842446 -0.021774324
0000f0 af f5 e6 bd f4 af 54 bd 6b e5 ba 3d e5 82 59 3e
       -0.11277329 -0.051925614 0.09125789 0.21241339
000100 1c 6f 10 be 20 5f 7f 3e 4c b3 e0 bd 45 4a 96 3d
       -0.14104885 0.24938631 -0.10971698 0.073383845
000110 22 0e 75 3e 37 a7 b6 be 1c 9c 04 3d 1e c6 51 be
       0.23931172 -0.3567445 0.03237544 -0.20485732
000120 d2 4f 1b 3e d3 4e 06 be e9 92 53 be 91 fa 17 3e
       0.15167168 -0.13116007 -0.2066151 0.14841677
000130 c2 c3 82 3e 1a 0e 88 3e 7f 2b bf bd 30 60 8b 3e
       0.25539976 0.2657326 -0.09334468 0.27221823
000140 c4 64 8a bc b2 72 8c be 99 91 af bd b8 9b d4 b9
       -0.016893752 -0.27431256 -0.085726924 -0.0004055181
000150 ca 53 9b bd 2b 69 4b 3d f9 b9 e7 bc c1 e7 4e be
       -0.07584341 0.049660843 -0.02828692 -0.20205595
000160 35 d0 96 be d6 a1 cf 3d e3 50 eb 3d 98 5a cd 3c
       -0.29455724 0.1013829 0.11490037 0.025067613
000170 27 6a c5 3c 09 ad 6e be cb b5 1e be 2c d6 f4 3d
       0.024098469 -0.23308195 -0.15499036 0.119549125
000180 6e 2b 64 be db f0 c5 bd 54 19 81 3e 20 15 9a bd
       -0.22282192 -0.0966508 0.25214636 -0.075235605
000190 5d 19 b1 3e 34 c6 41 3e c9 59 95 be 66 11 f2 bd
       0.34589663 0.18923265 -0.29170063 -0.11819725
0001a0 b2 81 67 3e d1 10 4d 3e 19 6f ad 3e 1c dc b3 3e
       0.22608069 0.20025946 0.33873823 0.35128868
0001b0 58 ef a0 3e 4c 67 f0 3d 72 b7 cf 3b 16 0c 2d 3e
       0.31432605 0.11738452 0.006339007 0.16899142
0001c0 c4 e5 ab 3d 06 ab 77 3e ce 18 0f be a2 a2 6d be
       0.08393434 0.24186334 -0.13974306 -0.2320657
0001d0 5d c6 a9 be 5a 1d b7 3e b3 14 b2 3e f4 6b 26 3e
       -0.33159152 0.3576458 0.34781417 0.16252118
0001e0 05 f6 69 3e 82 0d d8 bd 35 3a 98 bd a9 03 b1 be
       0.22847755 -0.105494514 -0.07432977 -0.34573105
0001f0 0a 09 96 3e 60 d7 96 be 0e 47 73 3e ae 23 10 be
       0.2930377 -0.29461193 0.23757574 -0.1407611
000200 41 41 05 3d 87 73 ad be 5e 5c 84 bd f5 ab b0 3e
       0.032532934 -0.33877203 -0.0646293 0.34506193
000210 aa 8b d4 3d 3f b1 26 be ce 26 fa bd e2 3e 0d 3d
       0.10378201 -0.16278552 -0.12214433 0.034483798
000220 99 f4 35 3e 66 22 88 3e 15 e8 51 be ba 9f a8 3e
       0.17769088 0.26588744 -0.20498689 0.32934362
000230 c8 42 a1 3e f3 85 1f be 36 59 a0 be c2 c0 5e 3e
       0.31496263 -0.15578441 -0.31318063 0.21753219
000240 66 6c b6 be 9c ad 55 be 7d 4c 2b 3e ae 90 8c 3e
       -0.35629576 -0.20867008 0.16728397 0.27454132
000250 98 15 b2 be 11 ac 86 be dd 58 34 3d 32 3a 89 3d
       -0.347821 -0.2630315 0.04403006 0.06700553
000260 9d a0 8b 3e 42 25 33 be ef bb 2a be 57 fe a2 be
       0.27270976 -0.17494681 -0.16673253 -0.3183467
000270 e4 6c d5 bd 1c 20 e2 bd 1e b6 5c 3e d0 ee 4c be
       -0.1042116 -0.110412806 0.21553847 -0.20012975
000280 3e dd 16 3e e4 16 bc 3e ac dd 89 3d 7f 7e 10 be
       0.14732835 0.36736214 0.06731734 -0.14110754
000290 75 eb 42 3e 77 d4 65 3e 06 19 ba 3e f5 d1 36 bd
       0.19035132 0.2244433 0.36347216 -0.044633824
0002a0 a4 ce a3 3d ec c6 3d 3d 58 21 b3 be 7b 21 34 be
       0.07998398 0.046332285 -0.34986377 -0.17590897
0002b0 a1 09 86 3d 05 e4 ac 3d 27 84 77 3e 61 c5 81 be
       0.06544805 0.08441929 0.24171506 -0.253459
0002c0 a7 3c c7 3d 63 3c 74 3d cc ba 12 be 54 a3 ef bd
       0.097283654 0.0596279 -0.1432907 -0.11701074
0002d0 ef de a1 be fd 69 87 3e 18 1f e1 3c d2 07 bd bd
       -0.31615397 0.2644805 0.027480647 -0.09230007
0002e0 45 b1 09 be 5e c6 98 3e cf 64 41 3e f1 bb a6 bc
       -0.13446529 0.29838842 0.18886112 -0.02035329
0002f0 2a dd 69 be f5 4f bc 3d de 38 5d 3e 13 8c d1 bc
       -0.22838274 0.09194938 0.21603724 -0.025579488
000300 48 77 83 bd 2b f3 8a 3e 95 9f 95 3e d0 9f 9e 3e
       -0.064192355 0.27138647 0.29223314 0.30981302
000310 27 5c 9c 3e 36 0e 71 be 7c ac d6 bd 88 87 12 bd
       0.30539057 -0.23540577 -0.104821175 -0.035773784
000320 d6 f3 8e bd 65 20 e4 3d b2 c1 b5 be 96 04 69 bc
       -0.06980102 0.11138991 -0.3549934 -0.014222285
000330 bb 39 a7 3e a5 96 88 3e 21 49 66 3d d2 0f b2 be
       0.32661232 0.26677433 0.056222085 -0.34777695
000340 d4 2e bf 3d 97 bb 3f be d2 76 a2 3d 52 37 b7 3e
       0.09335104 -0.18723904 0.079328194 0.35784394
000350 6b cf 3f bd e2 67 ca 3c 7f 4d 4b 3d fe a2 03 be
       -0.04682867 0.024707738 0.049634453 -0.12855145
000360 75 28 c4 bd 07 6f b7 3e d4 07 18 bd 39 79 95 be
       -0.09578029 0.35826895 -0.03711684 -0.29194048
000370 f5 c6 78 3d 5a 3c 57 3e 50 b7 87 be e8 ca fc 3d
       0.060736615 0.21019116 -0.26507044 0.12343389
000380 8a 20 a7 be 10 78 96 bd b0 f3 f3 bb 6d c5 12 bc
       -0.32642013 -0.07347119 -0.0074448213 -0.008958203
000390 ed d3 41 3d c4 e7 c7 bc 85 62 3a 3e f1 77 aa 3e
       0.04732125 -0.024402507 0.18201645 0.33294633
0003a0 0e cd 32 be c9 28 55 bd 00 dd 34 bd b9 1d 85 be
       -0.17461035 -0.05204085 -0.044156075 -0.2599924
0003b0 43 d9 bb be 08 b0 83 be 15 53 cb 3d 51 24 6e 3e
       -0.36689195 -0.2572024 0.09927956 0.23256041
0003c0 4b 47 76 3e d5 f8 00 be 76 b5 47 3c ad ba 16 3e
       0.24050634 -0.12594922 0.01218926 0.14719649
0003d0 63 c7 c2 bd eb 17 25 3e 17 ac 6e be 3d 02 84 3e
       -0.09510686 0.16122405 -0.23307835 0.25782958
0003e0 ea 7e d0 bd fe 7a 3c be 2b d5 1a bd 54 85 2a 3e
       -0.10180457 -0.18406293 -0.03780095 0.16652423
0003f0 77 48 52 3e be ed 08 be bd 18 25 be 69 f6 b7 be
       0.20535456 -0.13371941 -0.16122718 -0.35930184

proj.bias f4 [32]
000000 67 1e 94 bd c2 d0 a3 be 0c 04 6a 3e 01 18 d0 3d
       -0.07232361 -0.31995207 0.22853106 0.101608284
000010 b5 57 02 be 32 fb 23 3e a5 34 aa be a2 18 c0 3c
       -0.1272877 0.16013792 -0.3324329 0.023449246
000020 90 cd ab 3e bf 9c ac bc 75 51 07 3e ca e2 b0 be
       0.3355527 -0.021070836 0.13214667 -0.34548026
000030 a4 18 ab bd 4a 75 95 3e f9 65 39 bd b4 37 5d 3d
       -0.08354309 0.29191047 -0.045263264 0.0540082
000040 5a 24 ba bd 16 6b 24 3d af 8d bd 3e ce 89 08 3d
       -0.09088965 0.040141188 0.37022159 0.033334546
000050 17 a4 59 be c4 51 16 bd f0 7c b3 be 29 27 ae 3c
       -0.21254002 -0.03669907 -0.35056257 0.021258907
000060 d3 2a a0 3e 1f 28 26 3e 5f e9 b3 3e e6 98 31 3e
       0.31282672 0.16226242 0.35138986 0.17343482
000070 c2 4f 81 3d ce 87 27 3e 83 20 62 3e 9c 6f a6 3d
       0.06314041 0.16360399 0.22082715 0.081267565

EiLM.0.gamma_generator.weight f4 [1, 32]
000000 7a a7 f9 3d d0 73 18 be f4 f7 37 be 04 6c e8 3c
       0.12190147 -0.14887929 -0.1796568 0.028371818
000010 43 50 df bd 65 8b 2f 3e 83 84 19 be 84 61 47 bc
       -0.109039806 0.17143019 -0.14991955 -0.012169246
000020 6b b4 dc 3d d9 1b 9a bd 5a 09 7a 3d cf 44 8b bd
       0.107765995 -0.07524843 0.061044075 -0.068002336
000030 aa d3 f8 bd 9f 20 05 3e 4c fe 05 be 82 2b ba bd
       -0.12149747 0.13000725 -0.13085288 -0.0909033
000040 be 03 9a 3d 59 de cb bc 2f 03 6e 3d 7b 79 fd bd
       0.07520245 -0.024886297 0.058108505 -0.12376686
000050 65 d8 3c be cc 49 a6 3d 2e ab 3a 3e cb 19 8c bc
       -0.18441923 0.081195444 0.18229362 -0.017102143
000060 4f 8f 0b be dc 36 43 3d f1 fc 3a 3d 78 ef c2 3d
       -0.13628887 0.04765974 0.04565138 0.09518331
000070 79 ad 34 be ab d0 e0 3d e1 cb 35 3e 92 5e 50 bd
       -0.176443 0.109773 0.17753555 -0.05087144

EiLM.0.beta_generator.weight f4 [32, 32]
000000 cb f8 61 3d 04 ed 3c 3d ca 5d cd bd c0 38 a1 bd
       0.055168908 0.046124473 -0.100276545 -0.07872152
000010 34 c3 ba 3d a4 dd 60 bd 34 df 10 3e 72 b5 20 be
       0.09119263 -0.054898873 0.14147645 -0.15694216
000020 59 7d 1e 3d d1 55 0f bd cc b4 04 be c5 52 c6 3b
       0.03869376 -0.03499395 -0.12959594 0.0060523474
000030 c1 0e dc bd ba f8 f2 bc 6c a3 46 bc 9a 55 70 3d
       -0.107450016 -0.029659618 -0.012123924 0.058675386
000040 f9 56 02 3e 66 f9 16 3c 30 4e 89 3d 64 9d 1d 3e
       0.1272849 0.009214735 0.06704366 0.15392071
000050 b3 4f 9c bd f1 21 33 be b9 ca 5b bd 23 de 95 3b
       -0.07632389 -0.17493416 -0.05366013 0.0045736
000060 dc 65 fb 3d 2c 63 b8 bd 9f 57 3f 3e 35 73 3e 3d
       0.122752875 -0.090032905 0.18685769 0.04649659
000070 c9 e1 15 bd 41 a9 28 be 3f 64 2a be bb f4 f8 bd
       -0.03659228 -0.16470815 -0.16639803 -0.12156054
000080 2a 2b 3f bd b1 e9 e4 bd b7 a6 45 be a6 df 01 bd
       -0.046672024 -0.111773856 -0.19301878 -0.03170743
000090 04 62 25 be 78 83 18 be 17 67 1b be 91 af fe 3d
       -0.16150671 -0.14893901 -0.15176044 0.124358304
0000a0 5e c2 a6 3b bc 75 40 be 53 64 ae 3d 92 78 e1 bc
       0.0050890883 -0.18794912 0.08515229 -0.027523313
0000b0 f3 bd d6 3d 16 99 31 be 0d 9c 9f bd 93 c2 80 3d
       0.10485449 -0.17343554 -0.07793436 0.06287112
0000c0 7c ef 09 be ad a0 c4 3d aa 00 3b 3c ca 8f d0 bd
       -0.13470262 0.09600959 0.011413733 -0.101836756
0000d0 68 49 b7 3d f0 a1 15 3d e0 bc 01 3e 39 4a 84 bd
       0.08949548 0.03653139 0.12669706 -0.06459469
0000e0 62 74 95 3a 4b 21 3c bd 53 56 41 be cb 93 18 be
       0.0011402483 -0.04593019 -0.18880586 -0.14900129
0000f0 20 47 29 be 58 29 3b 3e df 8f 90 3c 38 68 26 3d
       -0.16531038 0.1827749 0.017646728 0.040626734
000100 9d df 15 be a4 22 6f bd c7 4e de bc 67 3f e3 3c
       -0.14636083 -0.058382645 -0.027137173 0.027740194
000110 58 2d 3a be 40 81 df 3d ec d8 b8 3d b6 c3 08 be
       -0.1818136 0.10913324 0.090257496 -0.13355908
000120 f0 92 87 3d 27 c7 9b bd a8 73 16 bd fb 66 75 3c
       0.06619823 -0.07606345 -0.036731392 0.014978166
000130 75 4f 94 3d a6 b5 0c bd 2f d1 27 be c1 78 69 bb
       0.07241718 -0.03435292 -0.16388391 -0.0035624953
000140 78 c0 16 be d7 1f 26 be 12 9c d3 bd 99 d0 cb 3c
       -0.14721859 -0.16223083 -0.103325024 0.02487974
000150 c6 c9 13 bd c3 a6 f6 bd db 3c 20 3e 7a 41 2d be
       -0.036081098 -0.12043526 0.15648215 -0.16919509
000160 87 a2 8a 3d e3 73 4e 3d 73 e8 0e 3c 40 d4 89 bd
       0.06769281 0.050403487 0.008722412 -0.067299366
000170 89 bd dc 3d 07 11 04 be fa f7 15 bd da 1a 7a 3c
       0.107783385 -0.1289712 -0.036613442 0.015265191
000180 de 56 ab 3d 7e ba b4 bd 8e 98 12 be 68 e0 21 be
       0.08366178 -0.08824633 -0.14316007 -0.1580826
000190 9f 9a 48 bd b5 5e 00 3d 60 8e ce 3c 88 18 1a 3e
       -0.048975583 0.03134032 0.025214374 0.1504842
0001a0 e5 e4 9a bd 1c b9 cf bd a3 c7 42 bc 49 94 28 be
       -0.075631894 -0.10142729 -0.011888417 -0.16462816
0001b0 bc f8 c3 bc e8 ee f6 3d 42 06 37 bb 30 4c ea 3d
       -0.023922317 0.120572865 -0.0027927314 0.11440313
0001c0 4e 3d 16 be bc e6 29 be 52 18 01 3e 14 a8 47 bc
       -0.14671823 -0.16591924 0.12606934 -0.012186069
0001d0 aa 2a bc bd be 3a fe 3d 2e b3 a0 3d 3d fd 9c 3d
       -0.09187825 0.12413548 0.07846676 0.07665489
0001e0 27 56 c8 3c 81 1e 65 bd ad c4 ba bd d1 36 dc bc
       0.024455143 -0.055937294 -0.09119544 -0.026881607
0001f0 52 3c f1 3c bf d2 7b 3d f2 38 01 be 6c ca b8 bd
       0.029447708 0.06148028 -0.12619379 -0.09022984
000200 e7 e2 dd 3d 88 65 18 be fe e5 ae bd 9b a2 13 3e
       0.10834294 -0.14882481 -0.08539961 0.14417498
000210 1a 9c 22 bd 8b fd e5 bc 78 79 2a bb 12 f9 c9 bd
       -0.03969965 -0.028075 -0.0026012342 -0.098619595
000220 9b fe 69 3d 2f 2b ea 3b 46 4d 20 be 80 30 05 be
       0.057127576 0.007146261 -0.15654477 -0.13006783
000230 8a 7e 63 bd c8 9d 8e 3d 3d 6a 28 be e3 34 d9 bd
       -0.0555406 0.06963688 -0.16446777 -0.106057905
000240 6b 05 25 be 54 66 e5 bd 49 e5 7a bd f2 be 97 bc
       -0.16115348 -0.11201158 -0.06125382 -0.018523667
000250 b2 6a 2f be 44 5a 00 be 77 da 99 3d 07 25 d5 3d
       -0.17130545 -0.12534434 0.07512372 0.10407453
000260 5f a8 00 be 40 b2 9d 3b 3f 2b 87 3d 73 86 0e 3e
       -0.12564228 0.004812509 0.066000454 0.13918476
000270 a6 f8 13 3e 04 5a e8 3d 50 5d 10 3e b7 cb e0 3c
       0.1445032 0.11345294 0.14098096 0.027440889
000280 dd 9e d0 bd bf 11 1c 3e 29 6b e3 bd 58 3e 6d 3d
       -0.10186551 0.15241145 -0.111044236 0.057920784
000290 33 b9 c6 3d d6 7a a2 3d 64 6c 1b be 6e 5d 07 be
       0.09703293 0.07933585 -0.15178066 -0.13219234
0002a0 9d 60 22 bd 12 11 05 be 2c 30 dc 3b 5f f6 17 be
       -0.03964292 -0.12994793 0.0067196097 -0.14840077
0002b0 f9 a5 73 bd 62 d9 b4 bd 66 92 cf bd 18 d3 83 bd
       -0.059484456 -0.08830525 -0.10135345 -0.06436747
0002c0 b0 50 b2 bd 38 ca 2b 3e 05 5e 0b be cf 51 1b 3b
       -0.08706796 0.16776359 -0.13610084 0.0023699885
0002d0 fb c1 c5 3d fa fc b2 3b 4b 35 37 bc c4 22 2c bd
       0.096561395 0.005462286 -0.01118214 -0.042025343
0002e0 97 4d 7f bd 9b a5 6c 3d 63 59 4a bd f9 e1 19 be
       -0.062329855 0.05777512 -0.049401652 -0.15027608
0002f0 18 16 17 3d 04 90 36 be 87 86 17 bd fd d5 e8 bd
       0.036886305 -0.17828375 -0.03699353 -0.1136894
000300 0b 30 21 bc e8 58 1c bc cf ce 22 be ec 27 05 be
       -0.0098381145 -0.009542681 -0.15899204 -0.1300351
000310 2c 01 8b bd 8e f9 e6 bd 38 e2 a0 3d a3 a4 12 3e
       -0.06787333 -0.112780675 0.07855648 0.14320616
000320 00 90 56 3d 88 96 f2 3d e1 7c c9 bd 27 c5 67 3d
       0.052383423 0.11845118 -0.09838272 0.056584504
000330 0d 67 bd 3c 7d 0b 3c be 82 26 0e 3e e6 21 0f 3c
       0.023120428 -0.18363757 0.13881877 0.008736109
000340 ce 76 f8 3d 14 61 25 3e 21 a2 4f 3d 43 a7 d1 3d
       0.12132035 0.16150314 0.050691728 0.10236981
000350 b5 90 44 bd d7 05 e2 bc 3d b2 2c 3e 48 dc 70 3d
       -0.047989566 -0.027590675 0.16864868 0.058803827
000360 d0 c5 bb 3d 36 ec 20 3e 84 7c 92 bc c8 e0 43 bd
       0.09168589 0.15715107 -0.01788164 -0.04782179
000370 20 7c 67 3d f2 dc 11 3e df c6 1e be 4b 4d b7 bc
       0.05651486 0.1424444 -0.15505551 -0.022375723
000380 ef 28 2d 3e 85 6d 10 bd 26 42 cb 3c b5 df 8f bd
       0.16910146 -0.035260696 0.024811815 -0.070250906
000390 11 2c d9 bd 32 2d 91 3d a0 22 04 be a9 da 8f bd
       -0.10604108 0.070886984 -0.12903833 -0.07024128
0003a0 34 d6 a5 3c a4 59 2a 3e 94 4e b3 3d c0 98 2e 3e
       0.020243742 0.16635758 0.08755222 0.17050457
0003b0 f8 e5 d4 bd 32 a3 a9 3d da 17 5f 3d bb 3d 1d be
       -0.103954256 0.0828308 0.054466106 -0.1535558
0003c0 d1 4d f4 bd c5 35 b1 3d 89 7c bf 3d 65 dd 1f be
       -0.11928905 0.08652834 0.09349925 -0.15611799
0003d0 8f ea 00 3e 52 5e f7 3b f6 68 02 be 06 f5 34 3d
       0.12589477 0.0075490857 -0.12735352 0.044178985
0003e0 9f a6 34 bd d6 e4 16 bd f0 07 f6 3d 8c 1a cb 3c
       -0.044104215 -0.03683933 0.12013233 0.024792932
0003f0 87 bd c6 3b 25 ae 89 3c 1c ea 00 3e 50 1a 3a be
       0.006065074 0.016806671 0.12589306 -0.181741

EiLM.1.gamma_generator.weight f4 [1, 32]
000000 98 5f a3 bc 05 7b 1a be a1 08 37 be d8 4b f6 3d
       -0.019943044 -0.1508599 -0.17874385 0.12026185
000010 46 b6 d9 3c 30 9e ae bc 77 3c c1 3d 33 49 d3 bd
       0.026576173 -0.021315664 0.09435361 -0.10316696
000020 7a 0f 08 be da 03 9d ba 66 0b c3 3c d4 7d aa bc
       -0.13287154 -0.0011979297 0.023809146 -0.020811953
000030 af 1a 33 3e 14 1e 0c 3e 31 83 0f bd 2d 56 3f bd
       0.17490648 0.13683349 -0.035037223 -0.046713043
000040 73 ca 8e 3d 9f 92 0e be e1 d4 58 bd 72 9a f3 3d
       0.06972208 -0.13923119 -0.052937392 0.118946925
000050 2b 3b b9 3d 8f 91 23 3d 1e bd 27 3e ca 55 85 bd
       0.090444885 0.039933737 0.16380736 -0.065105036
000060 8e c6 aa 3d b1 a7 4f 3d 00 e0 38 bd 4a 50 89 3d
       0.083386526 0.050697032 -0.045135498 0.06704767
000070 30 1f fe bd e4 97 3d 3e 1a e8 e8 3d 2d fb 59 3d
       -0.12408292 0.18514973 0.11372395 0.053218056

EiLM.1.beta_generator.weight f4 [32, 32]
000000 94 2d a4 3c c2 c8 d1 3d 62 7a 67 3c 2f c3 25 be
       0.020041265 0.1024337 0.014128299 -0.16187738
000010 3e f3 2b be 88 0c 05 3e 9f 0e 88 bb 45 e0 15 3e
       -0.16792008 0.12993062 -0.0041521336 0.14636333
000020 7f a6 05 be 27 f7 38 3e 0c b2 6c 3d 39 19 16 3e
       -0.13051794 0.18063031 0.057786986 0.14658059
000030 f3 e6 f8 bd f9 8d 44 3d e3 fd 1c bd 35 a9 09 be
       -0.12153425 0.04798696 -0.038328063 -0.13443454
000040 fa 00 d9 3c 51 2d 1e 3e 2a 1e dd 3d d0 e4 32 3e
       0.026489723 0.15446974 0.10796769 0.17470098
000050 91 04 74 bd 32 58 d9 3d 63 89 32 be a9 02 13 3e
       -0.059574667 0.10612525 -0.17435221 0.14356484
000060 8d 6f 22 be 4a ac 07 3d c7 ea c5 3d d1 05 d7 bd
       -0.15862866 0.033123292 0.09663921 -0.10499156
000070 b9 af 07 3e c0 4a f7 bd a9 fc e3 bd 7a af fa bc
       0.13250627 -0.12074804 -0.111321755 -0.030601252
000080 a9 a4 26 bd 27 5b a8 bc 2b 4f 31 be fb 2d b5 bc
       -0.040684376 -0.020551277 -0.17315356 -0.022116652
000090 20 40 0f 3e f4 8c c5 bd 3c 0b ef 3d c7 16 32 3e
       0.13989305 -0.09646025 0.11672065 0.17391501
0000a0 02 56 0f 3c 08 d3 02 be 7c 10 0c be cb 37 3b 3d
       0.008748533 -0.12775815 -0.13678163 0.045707505
0000b0 74 c0 08 be fb 55 0e be 2d 16 3d 3e 44 db fa 3d
       -0.13354665 -0.13899986 0.1846549 0.12248853
0000c0 07 53 d1 3c 67 ad 15 be b4 03 08 be e4 25 f7 bd
       0.025552286 -0.14616929 -0.13282663 -0.12067774
0000d0 02 8a 91 bd dc 55 e4 3d cf b0 5a bd 85 94 78 bd
       -0.07106401 0.11149189 -0.053391274 -0.060688514
0000e0 a7 7a 21 3e dc 69 5f bd b6 a5 bd bd 6f c3 cd 3d
       0.15769444 -0.054544315 -0.092601225 0.100470416
0000f0 37 5c 2d 3e 12 47 a1 bd 59 46 52 bc 65 82 87 3d
       0.16929708 -0.07874884 -0.012834155 0.06616668
000100 34 99 d1 bc 2e 35 7b 3d a4 fc af ba f6 2a 12 be
       -0.025585748 0.061330013 -0.0013426733 -0.14274201
000110 cc 51 11 3d 6e 03 2a 3e 63 fc 7e 3d 22 c8 7b bd
       0.0354784 0.16602871 0.062252413 -0.06147016
000120 78 fe a0 bc eb 88 bd bd c3 fa c8 bd e2 3a 2b be
       -0.01965259 -0.09254631 -0.09813454 -0.16721681
000130 0a 2a bf bc 28 05 0d be c0 18 16 3e b4 7f 08 be
       -0.023335475 -0.13771498 0.14657879 -0.13329965
000140 00 46 0c 3e ce 5e d5 bd e7 ad 12 3e 93 e4 2e 3e
       0.13698578 -0.10418473 0.14324151 0.17079382
000150 b3 ee 06 3d a2 95 95 3b b2 87 c0 3d ff 8f 16 be
       0.032942485 0.0045649568 0.09400882 -0.14703368
000160 82 27 e3 3d 9a 69 a9 bd 06 c5 dc b7 51 4e 4d bd
       0.1109152 -0.08272095 -2.631779e-05 -0.050123516
000170 33 41 83 bb bc 8e a7 3d cb 32 8a bd a3 1d 2e be
       -0.004005575 0.08181521 -0.06747969 -0.17003493
000180 65 47 8b 3b ef d9 14 be 14 20 2e bd 59 41 38 3e
       0.0042504543 -0.1453626 -0.04251106 0.17993678
000190 1c 34 23 be 7e d9 7c bd 73 aa 3d 3d af e9 2c 3e
       -0.15937847 -0.061730854 0.04630513 0.16886018
0001a0 8b 9a 63 bd 27 2b f6 3d 59 a0 0a 3e 2e e5 07 3e
       -0.055567306 0.120199494 0.1353773 0.13271019
0001b0 85 cc ca 3d a3 d4 9d bd 97 dc 47 bd 39 30 a0 bc
       0.0990229 -0.07706573 -0.048794355 -0.019554244
0001c0 15 f7 52 bd bb f1 44 bd 1e dc 26 be fd 8e a5 3d
       -0.051505167 -0.048082095 -0.16294906 0.080839135
0001d0 1a 76 45 3c db d5 64 3d 29 53 33 3e 19 4d 64 bd
       0.012052083 0.05586801 0.17512192 -0.05573759
0001e0 56 30 9c bd f2 89 23 3e 9a 83 35 be a7 80 8b bd
       -0.07626407 0.1597059 -0.17725983 -0.06811648
0001f0 18 62 4e 3d 4f 6f 9c bd 6d 0b 23 be 3e c4 e6 bd
       0.05038652 -0.07638418 -0.15922327 -0.11267899
000200 fd 4e 7b 3d d8 18 21 bd 1e d4 ad bd bf e0 8d 3d
       0.061354626 -0.039330333 -0.08487724 0.069276325
000210 36 05 76 bd ca 5c c3 bd f4 3d ed 3d 5f 52 5a 3d
       -0.060063563 -0.095391825 0.11584082 0.05330121
000220 fc 01 20 be 5c 31 2a be 18 90 1c be 67 f0 a0 3d
       -0.15625757 -0.16620392 -0.15289342 0.07858353
000230 04 a0 86 bd f3 5d b2 3d ee 6e 1e be 8d 22 3d 3e
       -0.06573489 0.08709326 -0.15472004 0.18470211
000240 ab ae ad 3c 53 b0 2a 3c bf cb 7c 3a 8a 13 03 be
       0.021201452 0.0104180155 0.00096433976 -0.12800422
000250 a7 91 24 bd 44 40 09 be 5e ef df 3d 9b c3 4b bd
       -0.040177967 -0.13403422 0.109343275 -0.04974709
000260 90 80 87 bd 6a 5e fb bd e9 f4 11 3e 48 f5 d5 3d
       -0.06616318 -0.122738674 0.14253582 0.10447174
000270 68 5b 10 3d 7a db 8c 3d 36 35 b9 bd 06 48 cb 3c
       0.03524342 0.06877799 -0.09043352 0.024814617
000280 22 34 36 be 3e c6 69 3c 79 36 24 3e 8b 2d 15 3e
       -0.17793325 0.014268456 0.16036405 0.14568155
000290 21 58 f4 bd 4d ef 9d 3c f3 78 2a 3e 20 f1 b7 3d
       -0.11930872 0.019279147 0.16647701 0.08981538
0002a0 6f 6a 33 be 9d d6 1c be 02 6b 83 3d b3 9a e2 3c
       -0.1752107 -0.15316243 0.064168945 0.027661657
0002b0 b9 40 af bd eb c4 67 3d 0a f9 1c be ca 13 9d bd
       -0.08557267 0.05658428 -0.15329376 -0.0766979
0002c0 24 8b 1f be c1 be 28 3e fd b1 43 3d 94 e3 39 be
       -0.15580422 0.16479017 0.047777165 -0.1815322
0002d0 5d 43 17 3e cf 14 f0 bc c7 ce 5b bd 11 f0 05 3e
       0.14771791 -0.029306797 -0.053663995 0.1307986
0002e0 57 1e 19 be 61 02 6e bd e3 04 1c be 88 5e d3 3d
       -0.1495298 -0.058107737 -0.15236239 0.10320765
0002f0 18 93 5f bd 4e 1d 02 3d a7 59 b0 3d f1 d3 97 3d
       -0.05458364 0.03176623 0.0861085 0.074134715
000300 79 21 0e 3e a3 1b b1 bd a5 96 82 bd 9e f9 33 be
       0.13879956 -0.086478494 -0.063763894 -0.1757569
000310 d1 b0 a3 bd 67 be b9 bd e9 79 80 bd 73 ad 2c 3e
       -0.079927094 -0.090695195 -0.062732525 0.1686304
000320 03 f0 02 be c3 3c 80 3d dc 0c eb 3d 8f 2a 8f bc
       -0.1278687 0.062615894 0.11477062 -0.017476348
000330 eb 52 cd bd 31 23 1c 3e fc d6 40 3e 00 2f 43 3c
       -0.10025581 0.152478 0.1883201 0.011913061
000340 6d 23 22 be 73 a2 8f bd 29 33 cf 3d f1 30 99 3d
       -0.15833826 -0.070134066 0.1011718 0.07480038
000350 79 a4 88 bc c0 9b ed bd 21 f0 e4 bd b1 a1 97 bd
       -0.01667999 -0.116019726 -0.111786135 -0.07403887
000360 9b df ab bd a4 5e b6 3c 75 2e 8c bd 3c 83 1e 3e
       -0.08392259 0.022261925 -0.068447985 0.1547975
000370 12 6a 68 bb 93 5f 7d 3d 12 20 f8 bd 20 57 25 3e
       -0.0035463613 0.061858725 -0.12115492 0.16146517
000380 ed 7b 22 be 4a f5 32 bc 1d d8 34 bc c5 cb e3 bd
       -0.15867586 -0.010922739 -0.011037854 -0.1112285
000390 f3 ec 31 3c 10 0d 59 bd 87 e4 fa 3d 3b 3a 8e bd
       0.010859716 -0.052990973 0.122506194 -0.069447
0003a0 f1 39 79 bd 94 2c bc 3d b9 88 b4 bd 63 c5 0b bc
       -0.060846273 0.0918819 -0.0881514 -0.008530947
0003b0 35 33 34 be 49 19 0c be 6a 81 a1 bb f3 cb ef bd
       -0.17597659 -0.1368152 -0.0049287574 -0.11708822
0003c0 61 97 05 be ca c2 83 bd ec 26 22 be 04 e5 74 bd
       -0.13046028 -0.064336374 -0.1583516 -0.05978872
0003d0 37 47 63 bd cf b2 1e be f6 10 28 be 78 6b 2c 3e
       -0.055487838 -0.15497898 -0.1641272 0.16837871
0003e0 be fe 07 be 51 81 0a be b4 9b 0c be a1 1c ac 3c
       -0.1328077 -0.13525893 -0.13731271 0.021009745
0003f0 23 f7 a2 3d 41 d8 6b ba d0 aa f8 bd 5c 30 a2 bc
       0.07957294 -0.0008996763 -0.12141955 -0.01979845

EiLM.2.gamma_generator.weight f4 [1, 32]
000000 ae a2 e5 3d 18 cc c9 bd 05 7c 9a 3d e6 2d 32 be
       0.11212669 -0.09853381 0.07543186 -0.17400321
000010 55 85 ea bd 49 a5 04 bd 50 17 aa 3c db 13 ba bd
       -0.11451212 -0.03238419 0.02076307 -0.090858184
000020 80 e0 36 3e 65 9c 05 be d7 c9 fe 3d c2 89 10 3e
       0.17859077 -0.13047941 0.12440842 0.1411505
000030 c9 1c c3 bd e8 ce f2 bd 80 9b 6c bc 51 b8 39 bc
       -0.09526975 -0.118558705 -0.014441371 -0.011335448
000040 d2 71 26 bc 7f 5d 94 bd 29 84 6b 3d ad 03 b2 bd
       -0.010158973 -0.072443955 0.057499085 -0.08692107
000050 29 63 1d be 13 31 d1 bc 86 5a f5 3d 6f 92 14 be
       -0.15369858 -0.025536096 0.119801566 -0.14508985
000060 b9 c2 01 be 18 5d 87 bd 5e 55 96 bd 3b a0 2c 3d
       -0.12671937 -0.06609553 -0.07340501 0.042144995
000070 9b d4 30 be 70 80 12 3e 2b 08 ee 3d 1a 6e b8 bd
       -0.17268603 0.14306808 0.11622652 -0.09005375

EiLM.2.beta_generator.weight f4 [32, 32]
000000 35 74 91 bc 5e b2 f8 bd c1 67 9d bd 15 6d 2c be
       -0.017755607 -0.12143396 -0.07685805 -0.16838486
000010 2e 45 36 be ab f2 0f 3e ea 01 1d 3e 69 a5 d4 3d
       -0.17799827 0.14057414 0.15332761 0.10383112
000020 57 7d 9c 3c bc d9 88 bb 27 ab 07 bd bf 1b 25 3b
       0.019102735 -0.0041763466 -0.033122208 0.002519354
000030 52 6c 1b be 09 b0 f7 3d e2 e9 7c bd 4e 34 1d 3d
       -0.1517804 0.12094123 -0.061746486 0.03837996
000040 29 cc cf 3d 7f 1b 89 bd 68 b9 46 bd 60 78 b2 bc
       0.10146362 -0.066946976 -0.04851666 -0.021785915
000050 80 26 1b be 94 9d 0f be e7 0b 2d be 64 46 1b bd
       -0.15151405 -0.14024955 -0.16899072 -0.037908927
000060 e0 5e bd 3d af f0 2a be 43 36 ca bd c1 4b 24 be
       0.092466116 -0.16693376 -0.09873631 -0.16044523
000070 eb bc 23 be 90 a0 3e be 34 6c 03 3d fd 15 80 3d
       -0.15990035 -0.18615937 0.032085612 0.06254194
000080 a2 05 0f 3e 47 65 3c 3d 7c 46 1a be b8 e9 63 bd
       0.13966992 0.045995023 -0.1506595 -0.055642813
000090 4d f2 39 3d d4 b8 d9 bd 9e 89 bf 3d 80 ad d9 3d
       0.04539709 -0.10630956 0.0935242 0.106287956
0000a0 c8 7a 85 3c 08 8d f9 3d 3a 09 ae bd e3 ed 07 be
       0.016293898 0.12185103 -0.084978536 -0.1327434
0000b0 2a f6 18 3e 40 2d 94 3d 93 f2 0a bd 8a e4 45 3d
       0.14937654 0.07235193 -0.033922743 0.048313655
0000c0 1d 7b 18 bd 4b 3b f7 bd 80 f9 c5 3d 1b 94 2b 3c
       -0.037226785 -0.12071856 0.09666729 0.010472323
0000d0 3a de fb bd 03 c4 91 bd c3 00 15 bd fb 7a 5d 3c
       -0.12298246 -0.071174644 -0.03637768 0.01351809
0000e0 52 92 66 3c 46 60 25 be 6f 28 06 be ed 83 78 3d
       0.014072971 -0.16150007 -0.13101362 0.06067269
0000f0 56 fd cb 3d a4 79 7e bc e8 08 b3 bd d2 05 56 3d
       0.09960429 -0.015531931 -0.08741933 0.052251644
000100 58 b2 7a bd 31 aa d4 bd 2d c3 29 3e 48 41 01 3e
       -0.061205238 -0.10384024 0.1657836 0.12622559
000110 a2 2b 15 be d5 c7 f1 3d 54 74 84 bd e1 96 8f 3b
       -0.14567426 0.11805693 -0.064675 0.004382
000120 55 6f 06 3e 05 4e 00 be 9e f7 33 be 6c 6d 0e 3d
       0.13128407 -0.12529762 -0.17574927 0.03477232
000130 0b 0e 18 be 75 b8 4e bd 04 d3 17 bd 36 fd 10 3d
       -0.14849107 -0.05046888 -0.037066475 0.03539773
000140 84 31 b1 3d 33 7b 22 3e b6 8b cf 3d 6c c0 2b 3e
       0.086520225 0.1586731 0.101340696 0.16772622
000150 15 af 15 3e bc b2 11 be 06 f4 98 3d 95 fc 29 3e
       0.1461757 -0.14228338 0.07468419 0.16600259
000160 2a cb fc 3d 99 32 fa 3d 87 4a a8 bd 70 a9 65 3d
       0.12343438 0.12216682 -0.0821734 0.05606979
000170 23 e0 aa 3d 41 06 44 3d 13 58 eb 3d 73 65 61 bd
       0.08343532 0.047857527 0.11491408 -0.05502839
000180 23 67 47 3d 4a 7f 18 be d2 e7 0f 3e 5a 0c bf bc
       0.048682343 -0.14892307 0.14053276 -0.02332132
000190 c0 dc 0b bd e7 78 a9 bd b6 05 18 be 7a fb 45 bb
       -0.03414607 -0.082750134 -0.14845929 -0.0030209706
0001a0 46 89 2a be 1c d4 ec bd a9 ad 5f 3d d8 79 10 3d
       -0.16653928 -0.11563894 0.054608975 0.03527245
0001b0 36 60 f5 3c e1 92 b6 bd e6 51 ce 3d 8c d7 8e bd
       0.029953104 -0.08914734 0.10074215 -0.06974706
0001c0 5f d5 29 3e 98 05 0c be ea 1f 4c bd 7f b4 b3 3c
       0.16585301 -0.13674009 -0.049835123 0.021936653
0001d0 6b b9 13 bd 58 7f 0e 3e 98 40 d9 bd da 01 b0 3d
       -0.0360655 0.13915765 -0.106080234 0.08594103
0001e0 b1 ac 0b 3e 7c 98 8c 3d 26 ef 39 3d 16 dd 13 be
       0.13640095 0.068650216 0.045394085 -0.14439806
0001f0 49 80 b8 bd 0b 6f e7 bd 18 f8 f1 3d 61 57 1e bd
       -0.090088435 -0.11300477 0.11814898 -0.03865755
000200 f9 68 d5 bc 42 45 75 3d f4 71 17 bd e7 26 35 be
       -0.026051031 0.059880503 -0.03697391 -0.17690621
000210 89 de 0c 3e 05 8c 3f 3d 45 21 63 3d ff 54 2f 3e
       0.13756765 0.046764392 0.05545165 0.17122267
000220 59 07 2f 3e c4 1f 32 bd 75 8d ed bd a9 3b 3d be
       0.17092647 -0.043487325 -0.115992464 -0.1847979
000230 e8 8b 3f 3e 92 03 c0 3d b6 ea cd bd 8d 3f 28 bd
       0.18705714 0.09375681 -0.10054533 -0.04107623
000240 eb f6 1b be 83 62 91 3d 1d df a7 bd b2 cb 9a 3d
       -0.1523091 0.07098868 -0.08196852 0.07558383
000250 6e c3 4c 3d 94 6e 96 bd a4 98 86 bd c3 2c 06 3c
       0.049991064 -0.0734531 -0.06572083 0.008189383
000260 02 eb aa 3c 43 89 40 3a 6e e5 23 be 7e 81 22 be
       0.020864014 0.00073446723 -0.16005489 -0.1586971
000270 18 4e 97 3c 6f cd 1d be b8 71 e6 3d 3d af 3a 3e
       0.018469855 -0.15410398 0.11252159 0.1823091
000280 56 17 c3 3c a4 50 fe bd 60 5f 3b bd 90 27 e6 3d
       0.023814838 -0.12417725 -0.045745254 0.11238015
000290 37 6c 1e be cc 78 45 3c 74 f7 d8 3d 86 05 22 be
       -0.15470968 0.012052726 0.10594073 -0.1582242
0002a0 42 a4 b4 bd ad 66 cf 3d e9 c0 28 3e b6 87 ce 3d
       -0.08820392 0.10127006 0.1647984 0.100844786
0002b0 ee 71 9a bd c1 20 f5 bd ca 6a e2 bd 62 69 23 3e
       -0.075412616 -0.11969138 -0.11055525 0.15958169
0002c0 3f 05 52 bd 18 fe 87 bd 93 d1 02 3e a9 9e f9 3d
       -0.051274534 -0.066402614 0.12775259 0.12188465
0002d0 d9 54 f4 bd b5 48 25 3e 1c fd 29 3d 44 69 4b 3d
       -0.11930246 0.16141017 0.04150115 0.049660936
0002e0 6b d1 09 be cb 4d 3e bd e4 71 1d 3e 31 67 28 be
       -0.13458793 -0.046460908 0.15375477 -0.16445614
0002f0 42 79 b2 bd 68 3a 82 3d ae ea 04 bd 15 7d 0e 3e
       -0.08714534 0.06358796 -0.03245037 0.13914903
000300 46 4b 44 bd cc 88 41 3d 45 b0 01 be 64 e2 e7 bd
       -0.04792335 0.0472496 -0.12664898 -0.113224775
000310 29 e1 55 3c ea f1 c7 bc 3e 7a b8 bd 84 44 b7 3d
       0.013054171 -0.024407346 -0.09007691 0.08948615
000320 53 4d 23 be a5 df cc 3b 3a 48 20 be cf 37 13 3e
       -0.15947466 0.0062522464 -0.15652552 0.14376758
000330 d8 59 8b bd d7 b9 f1 bd cf 2c b7 3d 5d 31 77 3d
       -0.06804246 -0.11803024 0.089440934 0.06034981
000340 bf b3 88 3d e8 02 36 3e 7a a3 c6 bd 27 ff 33 be
       0.06674909 0.17774546 -0.096991494 -0.17577802
000350 34 23 dd 3d df 48 cd 3d 57 ac 59 3d f7 e2 f5 bd
       0.1079773 0.10023665 0.05314287 -0.12006181
000360 53 15 f5 bd c1 58 2b 3e a3 20 2a bd 68 63 2a 3e
       -0.11966958 0.16733076 -0.04153503 0.16639483
000370 14 1b c3 bd 35 2e bf 3c c4 35 8b 3d cb 4e 66 3d
       -0.09526649 0.023337463 0.06797364 0.056227487
000380 66 d2 f9 3d d2 bb 1c 3e da fe 64 bd d2 a6 99 3d
       0.121983334 0.15306023 -0.055907108 0.075025216
000390 b2 31 d5 bc 3c 08 db 3d ff 5d 72 3d 9e 17 16 3e
       -0.026024673 0.1069493 0.059171673 0.14657447
0003a0 17 35 27 be 0f a5 26 bd c0 16 ae 3d e8 2c 3c 3e
       -0.16328846 -0.040684756 0.08500433 0.18376505
0003b0 cf 80 06 be 02 fc ca 3d 78 03 1b 3e a9 54 19 bd
       -0.13135074 0.09911348 0.15138042 -0.037434254
0003c0 73 a7 c5 3d 8d f0 13 bd ba 97 d7 3d 09 17 4f 3d
       0.09651079 -0.03611808 0.105269864 0.050559077
0003d0 e5 aa 9d bd fb 62 d3 3d d8 37 28 bd 2a a5 33 bc
       -0.07698611 0.103216134 -0.04106888 -0.010964671
0003e0 24 c4 15 bd 5c 59 c7 bd 6c e4 c6 3d fe b0 1f 3e
       -0.036564007 -0.09733841 0.09711537 0.15594861
0003f0 57 1f 00 be 7d d0 26 be 78 89 12 be 25 8d 8b bd
       -0.12511955 -0.1629047 -0.14310253 -0.068140306

EiLM.3.gamma_generator.weight f4 [1, 32]
000000 7b 52 34 bd 69 3c d9 bc 8a 2b a9 bc a3 04 27 3e
       -0.044023972 -0.026518064 -0.020650644 0.16310363
000010 02 48 43 bd 4d ba 04 be c2 ca d3 3d dd ce 20 3e
       -0.047676094 -0.12961693 0.10341407 0.15703912
000020 05 07 1d be 51 12 fc 3d ea 94 01 be c5 35 a4 3d
       -0.15334709 0.12308181 -0.12654462 0.08018068
000030 6c 5e 03 bd 3f a8 a6 bd 56 a6 c9 3d 06 eb c0 bd
       -0.03207247 -0.08137559 0.09846179 -0.09419827
000040 96 35 2d be 55 ae c0 bd fb 31 e6 bd cf ee e5 3d
       -0.16914973 -0.09408251 -0.11240002 0.1122719
000050 82 a4 13 be dd 44 ec bc 30 c0 ad 3d bd 54 18 3e
       -0.14418224 -0.02884143 0.084839225 0.14876075
000060 d2 17 82 3d 49 42 3f 3d 50 f0 99 bd c8 e0 ed 3d
       0.063521996 0.046694074 -0.07516539 0.11615139
000070 47 34 1d be f6 ab f6 bd e1 26 02 be 3c 68 1e be
       -0.15351973 -0.12044518 -0.12710144 -0.1546945

EiLM.3.beta_generator.weight f4 [32, 32]
000000 9b 4b b6 bd 2d 98 42 3e 80 87 ee bd 42 38 17 bd
       -0.08901139 0.19003363 -0.11646938 -0.036918886
000010 07 e6 80 bd 06 3a de bc a6 9d b9 bd 55 92 78 3c
       -0.06293874 -0.027127277 -0.09063272 0.015171607
000020 2d 93 ca bd 4c 1f 20 be f6 16 9c 3d c9 7c 1e bd
       -0.09891353 -0.15636939 0.07621567 -0.038693223
000030 d7 e6 9b 3d 87 ec 4e bd 37 f4 2a be 8d 61 49 3d
       0.076123886 -0.05051854 -0.16694723 0.049165297
000040 74 e5 1c 3e d4 86 29 be 23 46 db bc 3e 2e 42 bd
       0.15321904 -0.16555339 -0.026766842 -0.04740738
000050 91 05 24 3e 1d de 9b bd 80 65 8b bc f3 cc d7 3d
       0.16017748 -0.07610724 -0.017016172 0.10537138
000060 f6 5d 93 3d 46 a5 97 bc 7c 36 1b be 07 c5 dc bd
       0.07195656 -0.018511426 -0.15157503 -0.107797675
000070 5e 09 9d bb 82 d4 44 be fe c2 36 3c bf d8 33 3d
       -0.0047923764 -0.1922169 0.011154888 0.043907877
000080 13 71 9d bd 04 bc 2b be 8e 4e ac 3d 2e 26 f5 3d
       -0.07687583 -0.16770941 0.084134206 0.11970173
000090 11 61 34 be 93 d1 16 bc 36 bd 9a 3d 11 0a 79 3c
       -0.17615153 -0.00920524 0.0755562 0.015200154
0000a0 ae d1 11 be 60 03 25 3e f6 2a 76 bd 04 3a 4a bd
       -0.14240143 0.16114569 -0.060099564 -0.049371734
0000b0 cd 80 2a 3e 19 32 01 be 84 bd f2 3d 58 d4 08 be
       0.16650696 -0.12616767 0.118525535 -0.13362253
0000c0 b3 fc cc 3c a5 b7 28 3e 01 46 c8 3d eb 96 3c 3d
       0.02502284 0.16476305 0.09778977 0.046042364
0000d0 c8 b0 12 3d 61 2d 50 bd 0c b7 c3 3d 9e 71 c5 bd
       0.035813123 -0.050824527 0.09556398 -0.096408114
0000e0 4d 42 df 3d 41 fa e7 3c c7 87 c2 bc ce f4 2f bd
       0.10901318 0.028317573 -0.023746384 -0.042958073
0000f0 61 14 25 3e 94 bc cd 3d 60 5c 00 3e 8e 81 99 bd
       0.16121055 0.10045734 0.12535238 -0.07495414
000100 16 d9 0d 3d 26 a2 2a 3e f4 74 2d 3e 63 d3 d2 3c
       0.034630857 0.16663417 0.16939145 0.025735563
000110 5a b1 df 3d fa ad 8f bd 7d 75 21 3d b1 1d 43 3c
       0.10922499 -0.07015605 0.039418686 0.011908934
000120 a0 a1 56 3c 38 74 a5 3d c5 fc b3 bd 61 48 49 3c
       0.013100058 0.080788076 -0.08788446 0.012285323
000130 59 62 8e bd 38 bf ef bb e9 8a 29 be bb c2 29 bc
       -0.06952352 -0.007316496 -0.16556896 -0.010361369
000140 44 ad e4 b9 40 74 ee 3d fe 7b 09 be 67 a0 9b bd
       -0.00043616642 0.11643267 -0.13426206 -0.07598954
000150 df 7b 6b 3c 01 1b eb 3d cf 5c a4 bd cc 14 c8 bd
       0.014372795 0.1147976 -0.08025514 -0.09769592
000160 5e 12 1a be 5b 0e 38 3d 88 9c da bd 8a c5 17 bd
       -0.15046069 0.044935565 -0.10674387 -0.037053622
000170 f6 0b fa 3b b2 f3 28 be d5 78 18 3e 99 9e 00 be
       0.0076308204 -0.16499212 0.14889844 -0.125605
000180 7a 57 ba 3d c7 39 b1 bd 66 14 d3 bd 6c 6f c4 3d
       0.09098716 -0.08653598 -0.10306625 0.095915645
000190 4b ac 67 bd 38 9f fd bd 71 63 07 be 68 41 8c 3c
       -0.056560796 -0.12383884 -0.13221528 0.017121032
0001a0 e8 80 54 bd 90 c4 32 bd 19 ec 23 be 8d 95 b7 bd
       -0.051880747 -0.043644488 -0.16008033 -0.089640714
0001b0 99 09 24 bd a8 e8 14 be 79 db 71 3c 47 37 ea 3d
       -0.040048216 -0.14541876 0.014761799 0.114363246
0001c0 c8 b8 e8 bc 85 24 ed 3c 1f 72 4f bd d7 aa 32 be
       -0.028408423 0.028948078 -0.050645944 -0.17447983
0001d0 c4 93 0c be 11 49 c4 3d cd fe 9e 3c 52 91 10 3e
       -0.13728243 0.09584249 0.019408608 0.14117935
0001e0 51 fb 0d be 37 c3 25 3e 48 ad ca 3d f4 85 1f bd
       -0.13865401 0.1618775 0.09896332 -0.038946107
0001f0 73 6e bd bd 87 2d 1d 3e 99 db 49 3d dd 7e e2 3d
       -0.09249582 0.15349399 0.04928169 0.110593535
000200 52 c5 d7 3d 27 7b 8f bd e3 b1 6f 3d b0 68 7b bd
       0.10535683 -0.07005911 0.058519255 -0.061379135
000210 87 5e 00 be 41 78 19 3e 72 33 f4 bd a8 01 23 3e
       -0.1253606 0.1498728 -0.11923875 0.159186
000220 aa 87 c6 bc ed ad af 3d f8 aa 29 3e 38 a0 3f bd
       -0.024234612 0.085780956 0.16569126 -0.046783656
000230 f7 43 04 3e fd ff 0b be 57 11 12 be 4e 55 db 3d
       0.12916552 -0.1367187 -0.14264427 0.1070963
000240 a7 e5 d2 3d 85 cb d2 bc 9a dd aa 3d fa 9a 18 3e
       0.10297709 -0.025731811 0.083430484 0.14902869
000250 5c d6 25 3e 4d 71 33 be 46 61 54 3d cd b7 7f bd
       0.16195053 -0.1752369 0.05185058 -0.062431145
000260 69 83 18 3e c1 53 16 bd a2 de 28 be 65 a1 45 bd
       0.14893879 -0.036700968 -0.16491178 -0.04824962
000270 fa 03 b1 3d 72 48 23 3c a9 8e 0f 3e ac bd 1e 3d
       0.086433366 0.009966003 0.14019264 0.038755104
000280 c2 3c ee bd 61 47 2e 3e f6 0b d8 3d da 06 e5 bd
       -0.116326824 0.17019416 0.10549156 -0.111829475
000290 9a 6f 9d 3d 6d fc 06 3e dc bb 9e 3c ab 1a d8 3c
       0.07687302 0.1318223 0.019376688 0.026379904
0002a0 36 ec cc 3b 71 50 6f 3d a9 60 2a 3d 71 65 16 3e
       0.0062537445 0.058426324 0.04159609 0.14687134
0002b0 e9 41 da bd d3 9a 28 bd 78 e4 d7 3d e5 97 4f 3d
       -0.106571026 -0.041163277 0.10541624 0.050681967
0002c0 8e d2 ec bc 7b 20 29 be b4 cf 1e 3e 62 4b 23 be
       -0.028908994 -0.16516297 0.1550892 -0.15946725
0002d0 b1 0f 28 be 27 38 ce bd 3e 97 2c 3e ee 26 e1 3d
       -0.16412236 -0.10069304 0.1685457 0.109937534
0002e0 52 33 3c 3d 3d 7a cd bd fb 3e 18 3d 5a 85 fe bd
       0.04594738 -0.10033081 0.037169438 -0.124277785
0002f0 ae 0f 3c 3d ae e0 8b 3d 1e 4f 87 bd 89 7e 48 3d
       0.04591339 0.068299636 -0.06606887 0.0489488
000300 a0 78 92 bd b9 d9 26 3e 2f 3c 5a 3d df bb a6 bd
       -0.07151914 0.16293992 0.05328005 -0.08141302
000310 92 b7 a6 bc 0a 57 e0 3d 7e e5 c9 3d 0c 88 13 bd
       -0.020351205 0.109541014 0.09858225 -0.036018416
000320 a7 55 1d be f4 2d fd 3d 57 a9 2b 3e ac 10 14 be
       -0.15364705 0.123622805 0.16763817 -0.14459485
000330 0f 26 97 bd dd 17 81 bd 13 ad a9 3c 91 fa de 3d
       -0.07380306 -0.0630338 0.020712411 0.108876355
000340 1b 40 69 3d 79 aa ff 3d d6 82 93 3d ad 45 b4 3d
       0.0569459 0.12483687 0.07202689 0.08802352
000350 cb d6 dc bd 67 a5 1b 3e da 54 0c 3e 7e 5d 43 3d
       -0.10783156 0.15199815 0.13704243 0.047696583
000360 97 23 83 3b c7 ad 48 bd 20 8f 57 3d 81 25 09 3e
       0.0040020454 -0.048993852 0.05262673 0.13393213
000370 f8 fa 14 3e ab 0c 65 3d 05 a1 99 bb eb 52 f2 bc
       0.14548862 0.055920284 -0.0046883845 -0.029580554
000380 8d be 3a 3d ff 73 2b 3e f0 d5 3f 3d 47 e9 d5 bd
       0.04559188 0.16743468 0.046834886 -0.10444885
000390 45 60 fb bc 8d 99 e5 3d cd 63 dc bd 6d a1 3d 3d
       -0.030685553 0.11210928 -0.10761223 0.046296526
0003a0 28 ba c9 3d 47 71 97 3d df 57 d0 bd a5 1c f5 3c
       0.098499596 0.07394653 -0.1017301 0.029920885
0003b0 05 cf a3 3d 3a 6c ed 3d 86 c9 a3 bc 3c 5a 01 be
       0.0799847 0.11592908 -0.019993555 -0.12632078
0003c0 f6 7d 10 be 41 fa 0c be 17 05 04 3e 25 39 96 3d
       -0.1411055 -0.1376734 0.12892567 0.07335118
0003d0 cc 80 16 be c6 59 f3 bd b3 ee 96 bd 0e 9e 2d bd
       -0.1469757 -0.11882357 -0.07369747 -0.04238706
0003e0 df fa d5 bd de 45 06 3e e3 84 bc 3d 33 6c dc bd
       -0.104482405 0.1311259 0.09205034 -0.10762825
0003f0 7e f5 cc bd c8 db 37 be d3 1c 2f be ed 71 9d bd
       -0.100077614 -0.17954934 -0.1710084 -0.07687745

Gate.weight f4 [4, 32]
000000 15 21 19 3e cb fd a5 3c 7a 86 90 bc dd 66 0f 3e
       0.14954026 0.02026262 -0.017642248 0.14004083
000010 5f ff 75 3d 22 1f d9 bd 4d 41 12 3e bb 91 23 be
       0.060057994 -0.10601641 0.14282723 -0.1597356
000020 41 fc a2 3d b9 ef 22 3e 52 8b 10 3e 21 44 60 3c
       0.0795827 0.1591176 0.14115646 0.013688118
000030 06 af a6 bb 40 f4 e3 bd 72 a7 d8 bd 83 8f 57 bd
       -0.0050867824 -0.11130571 -0.10578813 -0.052627098
000040 b2 ce d9 3d 86 03 a8 bd d8 f1 3b bd d5 aa 0b be
       0.10635127 -0.08203797 -0.045884937 -0.13639386
000050 79 85 05 be 2b 9b c9 bc 1d 76 8e bd 8b 4d 0e bd
       -0.13039197 -0.024610123 -0.06956122 -0.03474192
000060 23 4f af 3d 3d 89 1a 3e 7a 11 08 be a2 4c 5e bd
       0.08560016 0.15091415 -0.13287917 -0.0542723
000070 eb ca 3b be e9 09 32 3e f0 56 6e bd 2e 47 1f be
       -0.18339126 0.17386593 -0.05818838 -0.15554497
000080 f8 ae 0a 3e 99 3c e4 bd f4 9b 29 3e 81 6d 08 be
       0.13543308 -0.111443706 0.16563398 -0.13323022
000090 4c 6f f7 bd 74 65 b2 3c 18 a9 02 3d fc d0 fb bc
       -0.12081775 0.021776892 0.03189954 -0.0307393
0000a0 ee 1a d8 3d 69 16 db 3d 4f 9a 11 3e 04 2a c3 bd
       0.105520114 0.10697634 0.1421902 -0.09529498
0000b0 cd 4d 16 bd 88 c7 47 be 1a c5 8f 3d 61 18 08 3e
       -0.03669529 -0.19509709 0.07020016 0.1329055
0000c0 a1 27 c9 bd 3d ca 41 3d 36 3d 82 3d 6a c6 15 3e
       -0.09822012 0.04731201 0.06359331 0.1462647
0000d0 0a 04 60 3a 46 ce 5c 3d b3 7c 79 3c 53 89 75 bc
       0.0008545524 0.053907655 0.0152274845 -0.014986354
0000e0 d7 37 17 be b9 40 aa 3d 7e de 11 be 0f d4 f5 bc
       -0.14767395 0.08313126 -0.1424503 -0.030008344
0000f0 70 67 c0 3c 9e 63 ed 3d d6 d7 de bd 5d 4e bd 3b
       0.023486823 0.11591266 -0.10881011 0.005777164
000100 5f 59 bd 3d 18 d3 23 be cd cd 88 3d 4d 20 0c 3e
       0.09245562 -0.15998495 0.066798784 0.13684197
000110 9f e4 bd bc 6c 11 37 be 26 67 05 3d 95 7f 14 3e
       -0.023180304 -0.1787774 0.032569073 0.14501794
000120 fb 59 09 3e 43 41 9e 3d 46 a7 0d be cc c5 aa 3c
       0.13413231 0.077272914 -0.13833341 0.02084627
000130 02 40 fb bd 87 c3 91 ba 70 f5 36 3e 78 e1 a6 bd
       -0.12268068 -0.0011120894 0.17867064 -0.081484735
000140 27 42 a4 3d 10 e6 38 3e 60 17 10 be 58 2c 93 3c
       0.0802043 0.18056512 -0.14071417 0.01796548
000150 05 0d c5 3d 85 8c df 3d 0b 3f ab 3d 7a a0 5e b9
       0.09621624 0.10915474 0.08361634 -0.00021231352
000160 1e cc 94 bd 83 e3 99 bd 56 35 47 bd 1b 18 19 3e
       -0.07265495 -0.075140975 -0.04863485 0.14950602
000170 c1 22 cd b9 a3 f6 b3 3c af a8 e9 bb 86 c0 fb bd
       -0.0003912654 0.021968191 -0.0071307044 -0.1229258
000180 cd 11 c2 bd 39 ae da 3d 02 06 ba bc 51 f1 19 3e
       -0.094760515 0.106777616 -0.022707943 0.15033461
000190 0c df d0 3d f1 18 94 bd 98 80 cf bd 19 4b 9c bd
       0.10198793 -0.0723132 -0.10131949 -0.07631511
0001a0 21 b4 85 bd d5 09 3c bd 53 1a ba bd c3 14 15 3e
       -0.065284975 -0.045907814 -0.09087052 0.14558701
0001b0 30 f1 1e 3e e3 35 08 3e ef e2 8a bd d6 87 38 be
       0.15521693 0.13301806 -0.067815654 -0.18020567
0001c0 c2 2f 94 bd a4 14 0d 3e b8 d4 04 be 14 87 13 be
       -0.072356716 0.13777405 -0.12971771 -0.14406997
0001d0 44 1f a1 bd db 66 2f be ec 32 25 bd dd 72 5c 3d
       -0.078672916 -0.1712908 -0.040331766 0.05382048
0001e0 2e 39 e9 3d 7f 1a 9e 3d 98 bd 1a be f7 d1 34 bd
       0.11387859 0.077198975 -0.15111387 -0.04414555
0001f0 99 08 f4 bd ba 16 62 3d 09 38 27 3e bc c1 21 be
       -0.119157024 0.055197455 0.1632997 -0.1579656

experts.0.gate_proj.weight f4 [32, 32]
000000 15 12 1e be bb fc 09 3e d9 1a 0e 3d fe 7b 9b bc
       -0.15436585 0.13475315 0.034693573 -0.018980023
000010 b3 54 e9 3d 75 f5 66 3c c4 08 96 3c 5c 98 46 bd
       0.11393108 0.014096607 0.018314727 -0.048485145
000020 09 a9 85 3d 90 aa 38 be eb 58 0f be 55 41 36 3e
       0.065263815 -0.18033814 -0.13998763 0.1779836
000030 d1 67 ce 3c 8e 22 0a bd 55 b3 72 bd a8 52 04 3e
       0.025195988 -0.03372436 -0.059253056 0.12922156
000040 ea bc 20 3e e9 ab 20 be f5 4e 2b bd a9 56 14 bd
       0.15697065 -0.15690579 -0.041823346 -0.036215458
000050 f0 e5 c8 bd f7 48 d3 3d aa 56 1e 3e c6 61 02 be
       -0.09809482 0.10316651 0.15462747 -0.1273261
000060 dc 63 d4 bd 25 1a e9 3d f8 01 1b be 40 f0 17 be
       -0.10370609 0.1138194 -0.1513747 -0.14837742
000070 24 df 24 3e bf b9 a1 bd 6c 04 69 3d 0f 9b c4 bc
       0.16100746 -0.078967564 0.056888983 -0.023999719
000080 55 5f 11 3e 48 d7 d5 3d 0d 81 fb 3d 44 99 23 bd
       0.14196523 0.10441452 0.12280474 -0.039941087
000090 fa 96 37 be 12 3c 24 3e e7 e5 1d 3e 2d 78 6d 3c
       -0.17928687 0.1603854 0.15419732 0.014493984
0000a0 4a 44 29 3e 3b b3 e1 3d d2 d5 c8 bd 6e 3f aa bc
       0.16529956 0.110205136 -0.09806408 -0.020782199
0000b0 ea 43 d4 ba 2f c7 bf 3d af d4 53 3d 25 37 20 be
       -0.0016194556 0.09364163 0.051716503 -0.15646036
0000c0 ba 3f 10 3e 09 9d c6 3d 87 02 e0 3c 81 88 e3 3d
       0.1408681 0.09697921 0.027344955 0.111100204
0000d0 aa 62 10 3e 70 1a 13 3e 87 ff c7 bd 11 6b ab bc
       0.14100137 0.14365554 -0.09765535 -0.020925077
0000e0 75 a9 cc bd 7f 81 87 3c 23 c3 1f 3e aa bd 02 bd
       -0.09993259 0.01654124 0.15601783 -0.03191916
0000f0 37 e5 28 3e 93 b8 1f 3e 39 6c ea bd 2b 67 8c bd
       0.16493689 0.15597753 -0.11446423 -0.06855615
000100 71 5a 98 bd c0 8d 1b 3c 81 9e e0 bd 3c b4 33 bc
       -0.07439125 0.009494245 -0.10967732 -0.010968264
000110 55 7f 29 3e d5 49 08 be 60 b9 0b 3d 7c 08 4a 3d
       0.1655248 -0.13309415 0.034112334 0.049324498
000120 17 8c 09 be 1a 79 4f bd d0 51 a7 bd 68 c1 5d bd
       -0.13432346 -0.0506526 -0.08169901 -0.054139525
000130 01 be 1d be e7 ee be 3d 0c 4c 42 3d 93 46 3a 3d
       -0.15404512 0.09322911 0.047435805 0.04547746
000140 0a 55 8a bd 80 f6 a4 bd 62 18 25 3e dc 5e 2e bc
       -0.06754501 -0.08054829 0.16122583 -0.010642733
000150 0a 1a b1 bd 00 8e 29 3d 38 33 9a 3d 0b cd ad bd
       -0.08647545 0.041395187 0.075293005 -0.084863745
000160 08 a1 b0 bc 04 8f 3f 3d 67 42 38 bd 93 76 c7 bd
       -0.02156116 0.04676725 -0.0449852 -0.09739413
000170 f2 9a e9 3d 45 db da 3d c9 54 50 3d 24 c6 f4 3d
       0.114065066 0.106863536 0.050862107 0.11951855
000180 2a 29 5a 3d ce 3c 74 bd a1 34 3d bd cb 38 8a bd
       0.053261913 -0.0596283 -0.04619277 -0.06749114
000190 89 a0 14 3e 8d 50 15 be 13 5e 58 bd f3 18 25 3c
       0.14514364 -0.14581509 -0.05282409 0.010076749
0001a0 cd cf 46 bd 9d f4 9a bd 97 c1 e3 bd 71 6d 0e 3d
       -0.048538018 -0.075661875 -0.11120909 0.03477234
0001b0 ea 04 06 3e 49 27 a8 3b d8 89 b5 bd f1 d1 e6 bd
       0.13087812 0.0051316363 -0.08864182 -0.11270512
0001c0 64 6a 29 3e da a6 6b 3d d2 a8 33 3e d0 4e d8 3c
       0.16544491 0.05753217 0.17544869 0.026404768
0001d0 50 e2 07 be 60 58 db bc 32 c0 25 bd fa bb 07 be
       -0.13269925 -0.026775539 -0.040466495 -0.13255301
0001e0 c5 e3 e8 bd fa e2 db 3d 5f 45 90 3d 4e d0 20 3c
       -0.113715686 0.10736652 0.070444815 0.009815289
0001f0 f5 78 2e be 91 62 27 be d6 5f 33 bc 02 78 ff 3c
       -0.17038329 -0.16346194 -0.010948142 0.031185154
000200 e6 a7 bb 3d 08 86 6e 3d 8a 33 bf 3c aa a1 04 be
       0.091628835 0.05823329 0.023340005 -0.12952295
000210 98 c1 01 3e ca 8c 11 be aa f3 21 3e 49 ab 10 3b
       0.12671506 -0.14213863 0.15815607 0.002207475
000220 c1 7c f6 3c 3e 43 64 bd 99 dd 99 bd 38 00 13 3e
       0.030088784 -0.05572819 -0.075129695 0.14355552
000230 54 16 fe bc b7 50 d0 bd e7 49 93 bd f9 08 86 3c
       -0.031016506 -0.10171645 -0.0719183 0.0163617
000240 61 a5 bf bd aa 01 08 3e 35 35 28 bd 44 fc 73 3d
       -0.093577154 0.13281885 -0.041066367 0.05956675
000250 0f a8 29 3e 1a 91 f9 bd 88 cd 93 bd ed 76 2b be
       0.16568016 -0.12185879 -0.07216936 -0.16744585
000260 9c c9 0e 3e 8d 38 78 3d 4c 4a f9 3d 7f f0 2b bd
       0.13944095 0.060600806 0.12172374 -0.0419774
000270 24 f1 09 be 9c 95 1a bc 66 ba 0e be 3a db 22 bd
       -0.13470894 -0.009435084 -0.13938293 -0.039759852
000280 fe 60 13 3e df 58 15 be 04 7b 88 3d 3c 37 2c bc
       0.14392468 -0.14584683 0.06664088 -0.010511216
000290 c4 f8 06 be 19 fa 96 3d de ea f1 bc 97 88 df bb
       -0.13180834 0.07371921 -0.029530939 -0.0068217027
0002a0 cb ec b4 3c 32 6d a4 3d b1 e7 c7 3d e3 5f 19 3d
       0.022085568 0.0802864 0.097609885 0.03744496
0002b0 7d ea 1a 3e 5b 2a b6 3d c9 e7 79 bd 97 27 6e 3d
       0.15128513 0.088947974 -0.061012063 0.058143225
0002c0 eb 2b 19 3e 69 1b c3 3d 26 8a 66 bd 4e 00 22 3e
       0.1495816 0.095267124 -0.056284092 0.15820429
0002d0 3d 34 7f bd 79 6d 89 3d 4f 8d 28 3e 88 87 0c be
       -0.062305678 0.067103334 0.16460155 -0.13723576
0002e0 6a 49 31 3e e1 27 5c 3d 1b 27 aa 3d 06 c5 22 3e
       0.17313161 0.05374897 0.0830824 0.15895471
0002f0 db 4a 26 bb c0 6b c5 bd 83 03 00 be 48 48 4d bd
       -0.0025374207 -0.09639692 -0.1250134 -0.05011776
000300 41 f9 d5 3d 00 f1 11 bd 1f 01 0a 3e 78 57 0e be
       0.10447932 -0.035630226 0.1347699 -0.13900554
000310 ad d0 cf 3d ab b2 00 3e df bf 83 3d 24 ef 15 3e
       0.101472236 0.12568156 0.06433081 0.14642006
000320 2a 0d 0b 3e b2 6b 7b bd 0a b5 82 3d 6e 96 5f bd
       0.1357924 -0.061382003 0.06382187 -0.05458682
000330 fc 0a 2b 3e 2f e4 02 3d ef ef f6 3d 8f a8 ec bd
       0.16703409 0.031955894 0.120574825 -0.115555875
000340 65 b2 3e 3e a7 85 75 3d 93 0e 38 3e 90 ad 39 3d
       0.1862274 0.059941914 0.1797431 0.045331538
000350 e5 59 80 3c d8 f1 55 3d 46 83 fd 3d 1a c8 e9 3d
       0.015667865 0.052232593 0.12378554 0.114151195
000360 04 e5 09 be b3 01 e7 3d 6c 8c 21 3e 87 e0 4f bd
       -0.13466269 0.11279621 0.15776223 -0.050751235
000370 85 9e 13 3d c5 50 2e 3e a5 66 50 3d c2 b9 1c 3e
       0.036039848 0.17022999 0.05087914 0.15305236
000380 fa b9 be 3d 77 d9 b7 bd a4 e7 2f 3e 73 a1 95 bd
       0.09312816 -0.08977025 0.17178208 -0.073061846
000390 72 2a 14 bd d6 78 a3 bb 2d 90 05 3e 3e a3 cf 3d
       -0.03617329 -0.00498877 0.1304328 0.10138558
0003a0 af 0c ab 3c 72 9c 86 3d 3b a1 21 be c3 7e 03 be
       0.020880071 0.06572808 -0.15784161 -0.12841325
0003b0 8e ff f8 bc 41 fb 89 3d 7c 93 ff 3d 2e 84 e3 bc
       -0.030395295 0.06737376 0.12479302 -0.02777299
0003c0 40 08 10 3e 86 42 b1 bd 0a a0 3e 3c 53 45 a6 bd
       0.14065647 -0.086552665 0.011634836 -0.08118691
0003d0 92 88 0d 3e 26 ce 76 3d 5b 91 0b bd d9 6c f3 bb
       0.13821629 0.060255192 -0.03407417 -0.007428747
0003e0 56 31 24 be 91 2b f8 ba 94 5e 76 bd 7c 05 99 bd
       -0.16034445 -0.0018933882 -0.06014879 -0.07471749
0003f0 1a 80 13 3e fe 68 04 be 52 04 88 3d 74 66 f6 bd
       0.14404336 -0.12930676 0.06641449 -0.1203126
