output/FT-S-MoME/ts_encoder_epoch9.pt (torch, 376236 bytes, 34 tensors)

proj.weight f4 [32, 8]
000000 ec 01 6c be 10 91 6d be 48 24 dc 3d ed 7e 90 be
       -0.23047608 -0.23199868 0.107491076 -0.28221837
000010 8b 00 85 3e 06 a4 a3 3e 71 85 df bd 79 06 71 3e
       0.25976977 0.31961077 -0.10914124 0.23537625
000020 a1 af 6b be 00 93 64 3e 86 4a 0c be 56 1d ac 3d
       -0.23016216 0.22321701 -0.13700303 0.08404033
000030 d8 90 d8 3d 5f 89 91 3e ca 15 88 be 77 14 8c bd
       0.10574502 0.28425118 -0.26579124 -0.06839841
000040 88 92 af be c5 82 5c bb 5b 1d 51 be 10 c6 99 3e
       -0.34291482 -0.003364728 -0.20421354 0.30033922
000050 a5 b2 9a 3c e0 28 88 3e e9 fe 18 3e 96 12 85 be
       0.018884012 0.26593685 0.1494099 -0.25990742
000060 50 db bb 3e 10 f7 85 3e 19 4c 98 be f3 01 9a be
       0.3669076 0.26165056 -0.29745558 -0.30079612
000070 4c fc 48 3e 16 a4 86 3e 3a 78 e6 bd ca 56 8e be
       0.19627494 0.26297063 -0.112534 -0.2780059
000080 21 d4 c0 3e 53 52 0c bd de 41 25 3e 7a 0e 7b be
       0.37661842 -0.034258198 0.16138408 -0.24517241
000090 78 72 87 be bf bd 0c 3e 22 76 5c be 46 cf 92 be
       -0.2645452 0.13744257 -0.21529439 -0.28673762
0000a0 e6 0e ff 3d ee 0e 7b be 11 e2 a5 bc 08 92 32 bc
       0.124540135 -0.24517414 -0.020249398 -0.010899074
0000b0 11 6f 25 3e 26 f1 00 3b 59 74 4c 3d a6 4a 55 be
       0.1615565 0.0019674986 0.049915645 -0.20829257
0000c0 b9 54 88 be 1c d2 6f 3e 44 06 5e 3e 14 a6 d3 bd
       -0.26627138 0.23419994 0.21682078 -0.10334411
0000d0 b7 c1 83 3e ae 96 80 be e9 07 44 bc be 55 3d be
       0.2573373 -0.2511496 -0.011964777 -0.1848974
0000e0 28 4b 92 3d 07 e6 96 bd 8e c4 91 bc d2 69 a2 bc
       0.07143241 -0.07368093 -0.01779392 -0.01982585
0000f0 09 08 e3 bd 2a ef 4c bd 47 8e bf 3d 85 20 5c 3e
       -0.11085517 -0.050032772 0.09353309 0.2149678
000100 b1 e7 16 be 5a 8a 78 3e 4e 23 ee bd fa 60 89 3d
       -0.14736821 0.24271527 -0.116278276 0.0670795
000110 e3 3f 6f 3e 36 8b b9 be 7a a9 e1 3c c3 5b 56 be
       0.23364215 -0.36239022 0.027546633 -0.20933442
000120 8a 55 15 3e a2 80 0c be f7 54 59 be 71 94 12 3e
       0.14583412 -0.13720945 -0.21223818 0.14314438
000130 a3 41 80 3e 52 97 85 3e 0c 27 c8 bd 47 2b 89 3e
       0.25050077 0.2609201 -0.097730726 0.2679083
000140 80 55 b2 bc 81 f0 8e be 03 0f b9 bd 35 f7 9f bb
       -0.021769285 -0.27917865 -0.090360664 -0.0048817643
000150 0b 38 a4 bd de f3 39 3d f3 89 05 bd cb 61 53 be
       -0.08018502 0.045398585 -0.03260226 -0.20642774
000160 6f cd 93 be 15 fe db 3d bc 4a f7 3d 6d 81 fb 3c
       -0.2886767 0.10741822 0.12074801 0.030701363
000170 a6 3d f2 3c 06 f7 68 be 62 5a 19 be 57 77 ff 3d
       0.029570412 -0.22750482 -0.14975885 0.12473934
000180 9d e5 5e be 11 e3 ba bd 0d de 83 3e 03 3e 8f bd
       -0.21767278 -0.09125341 0.2575535 -0.0699425
000190 bf 76 b3 3e 25 3c 46 3e cd 9d 93 be eb 34 ec bd
       0.35051534 0.19358881 -0.2883133 -0.11533531
0001a0 b6 58 6d 3e 9e f6 52 3e 08 45 b0 3e f4 96 b6 3e
       0.23178372 0.2060189 0.34427667 0.35662043
0001b0 2f 8f a3 3e d8 dd fa 3d 9e d7 3a 3c 43 26 32 3e
       0.31945178 0.122493446 0.011403946 0.17397408
0001c0 f8 3a b0 3d fd 9b 79 3e 0d cd 0d be 1e 63 6c be
       0.086049974 0.24375911 -0.13847752 -0.23084685
0001d0 8b 22 a9 be 07 b5 b7 3e 1b fd b2 3e 86 9f 28 3e
       -0.33034167 0.358803 0.3495873 0.16467103
0001e0 b7 4d 63 3e d0 d0 e5 bd ea c0 a5 bd 32 47 b4 be
       0.22197615 -0.112214684 -0.08093436 -0.35210568
0001f0 52 d7 92 3e a2 0a 9a be 6e fe 6c 3e ff 55 16 be
       0.286799 -0.30086237 0.23143932 -0.14681242
000200 e1 3a 02 3d 87 98 ad be a3 72 84 bd 06 93 b0 3e
       0.031794433 -0.33905432 -0.06467178 0.3448717
000210 24 d1 d4 3d 88 3a 26 be 8b a3 f9 bd 2d d6 0d 3d
       0.10391453 -0.16233265 -0.121893965 0.034628082
000220 bd ed 3a 3e 5e 92 8a 3e 45 5c 4d be 24 d7 aa 3e
       0.18254752 0.27064794 -0.2005473 0.33367264
000230 fd 5f a3 3e 49 69 1b be 6a 33 9e be e0 1d 63 3e
       0.3190917 -0.15176882 -0.308986 0.22179365
000240 b1 79 b9 be c1 e6 5b be 41 4a 25 3e 37 a8 89 3e
       -0.36225656 -0.21474744 0.16141607 0.2688615
000250 52 f5 b4 be 01 8f 89 be 1d a1 1d 3d f2 f4 7b 3d
       -0.35343415 -0.26866916 0.038483728 0.061512895
000260 02 a5 88 3e b1 55 39 be 8b 01 31 be 99 0f a6 be
       0.2668839 -0.18099095 -0.17285745 -0.32433775
000270 2a ab e1 bd d0 60 ee bd 27 af 56 3e 99 7d 52 be
       -0.11018975 -0.11639559 0.20965253 -0.20555724
000280 aa 1b 1a 3e d5 9c bd 3e 8d 4c 8f 3d 20 d0 0d be
       0.15049616 0.37033716 0.06997023 -0.13848925
000290 60 98 45 3e 13 61 68 3e ba 99 bb 3e c8 1e 2a bd
       0.19296408 0.22693281 0.36640722 -0.04153326
0002a0 ee a4 93 3d 50 c5 1c 3d 9d 49 b7 be d5 6a 3c be
       0.07209192 0.03827411 -0.3579835 -0.18400128
0002b0 8b bb 6b 3d 39 11 9d 3d aa f9 6f 3e d7 55 85 be
       0.0575519 0.076693006 0.23435083 -0.26042053
0002c0 b0 d2 c3 3d 14 7a 6c 3d a8 57 15 be 18 4b f5 bd
       0.0956167 0.05773361 -0.1458422 -0.119772136
0002d0 bb 2c a3 be bd 47 86 3e 80 5d d1 3c 6f 7a bf bd
       -0.31870064 0.26226607 0.02555728 -0.09349524
0002e0 b2 f3 03 be 98 8c 9b 3e b7 a5 46 3e 7f b0 7c bc
       -0.12885931 0.30380702 0.19399153 -0.015422939
0002f0 b4 ff 64 be c1 f3 c5 3d 39 16 62 3e 93 c6 aa bc
       -0.22363168 0.09665633 0.2207879 -0.02084664
000300 fe d0 6a bd 3a 95 8e 3e 9a 64 99 3e dc 4f a2 3e
       -0.057328217 0.27848226 0.29959565 0.31701553
000310 2b fd 9f 3e f5 a6 69 be 33 63 c8 bd f5 fb ee bc
       0.3124784 -0.22817595 -0.09784546 -0.029172877
000320 cf f6 94 bd ff 43 de 3d af 10 b7 be 81 57 88 bc
       -0.072736375 0.10852813 -0.35754916 -0.016643288
000330 e1 07 a6 3e 06 62 87 3e c8 f9 5b 3d 2f 76 b3 be
       0.32427886 0.26441973 0.053705007 -0.35051104
000340 15 a0 c7 3d e3 8e 3b be e8 7a aa 3d 0b 33 b9 3e
       0.0974733 -0.18316226 0.08324224 0.36171755
000350 69 9d 2f bd 9b 82 ea 3c 63 12 5d 3d 8a 6a fe bd
       -0.042874727 0.02862673 0.053972613 -0.124226645
000360 46 ac bb bd da 82 b9 3e 97 a4 08 bd 39 a6 93 be
       -0.09163718 0.36232644 -0.03336009 -0.28837755
000370 88 a2 83 3d 7d c1 5a 3e 81 ce 85 be 67 71 02 3e
       0.06427485 0.21362872 -0.26134112 0.12738572
000380 ce c8 a8 be 87 6d 9e bd 31 3e 42 bc d7 a8 53 bc
       -0.32965702 -0.077357344 -0.011855648 -0.0129186725
000390 b1 7c 32 3d 4d af e4 bc 61 c0 37 3e a8 75 a9 3e
       0.043575946 -0.027915621 0.1794448 0.33097577
0003a0 56 a7 37 be 46 07 68 bd d9 cb 46 bd 1a 56 87 be
       -0.17934927 -0.05664756 -0.048534248 -0.26432878
0003b0 e1 07 be be e6 cd 85 be 14 85 c2 3d d2 c3 69 3e
       -0.37115386 -0.2613365 0.09498039 0.22828606
0003c0 e1 4d 7c 3e 45 dd f5 bd 2c a2 92 3c 20 6f 1c 3e
       0.24639083 -0.120050944 0.017899595 0.15276766
0003d0 0d c0 b7 bd 62 8a 2a 3e c9 40 69 be 43 a8 86 3e
       -0.08972178 0.16654351 -0.2277862 0.26300249
0003e0 d2 57 dc bd 9d 91 42 be f3 fc 32 bd 3c ba 24 3e
       -0.10758938 -0.1900086 -0.043698262 0.16086668
0003f0 01 99 4c 3e eb b6 0e be af bc 2a be b4 b0 ba be
       0.19980241 -0.13936965 -0.1667354 -0.3646294

proj.bias f4 [32]
000000 1d ab 9f bd c0 ad a3 be f4 bc 6c 3e ed b1 ca 3d
       -0.07796309 -0.31968498 0.23118955 0.09897218
000010 41 c5 03 be 15 16 29 3e 89 b8 ad be 1a 24 d4 3c
       -0.12868215 0.1651233 -0.33929852 0.02589612
000020 69 42 aa 3e 7f be d7 bc 55 13 04 3e 20 d4 b0 be
       0.33253792 -0.026335953 0.12898 -0.3453684
000030 4e 17 a3 bd a3 e3 96 3e 45 3d 30 bd 83 10 5f 3d
       -0.079634294 0.29470548 -0.04302718 0.054459106
000040 10 c4 cb bd 57 96 39 3d c5 3b be 3e 3c 21 12 3d
       -0.09949505 0.04530939 0.37154976 0.035676226
000050 a5 82 57 be 87 16 2c bd 3b 0f b4 be 8c c7 d6 3c
       -0.2104593 -0.04201367 -0.3516787 0.026218198
000060 50 a5 9f 3e 9c 2f 25 3e 2c af b3 3e cf d1 31 3e
       0.3118081 0.16131443 0.35094583 0.17365192
000070 be 2a 89 3d 94 7e 23 3e eb 5f 66 3e 1c cc ad 3d
       0.066976056 0.15966254 0.22497527 0.084861964

EiLM.0.gamma_generator.weight f4 [1, 32]
000000 17 68 f6 3d 6b bb 1d be 13 79 37 be 30 94 ed 3c
       0.12031572 -0.15403526 -0.1791728 0.029001325
000010 cd 29 db bd 45 ee 2b 3e 78 38 16 be fd 76 15 bc
       -0.10701332 0.16790111 -0.14669979 -0.009122607
000020 fa 20 dc 3d ee a6 9c bd 7c ea 71 3d 14 36 8d bd
       0.10748477 -0.07649027 0.059061512 -0.0689508
000030 40 00 fa bd 5d 3d 06 3e ac ad 03 be a2 b1 bb bd
       -0.12207079 0.13109346 -0.1285922 -0.0916474
000040 38 2a 9a 3d d2 7b b9 bc 8a 45 82 3d 26 fb 01 be
       0.07527584 -0.02264205 0.0636092 -0.12693462
000050 38 9b 3f be d0 82 a7 3d 70 9c 39 3e ea e3 95 bc
       -0.18711555 0.081792474 0.18126082 -0.018297154
000060 5d 7a 0d be 51 a9 56 3d db 55 30 3d bb 57 c5 3d
       -0.13816209 0.052407566 0.04305063 0.09635874
000070 aa 29 38 be fc b5 ea 3d b2 35 35 3e 3e 78 53 bd
       -0.17984644 0.11460492 0.17696264 -0.051628344

EiLM.0.beta_generator.weight f4 [32, 32]
000000 07 66 6d 3d aa 3d 5b 3d bc 81 ce bd b8 31 a2 bd
       0.05795863 0.053525604 -0.100833386 -0.07919639
000010 d5 bb ba 3d ca 30 56 bd 4d ef 0b 3e 8c 0a 21 be
       0.09117857 -0.052292623 0.13665505 -0.1572668
000020 f2 1d 1a 3d 73 38 08 bd 73 22 00 be de ed f6 3b
       0.037626214 -0.03325696 -0.12513141 0.00753568
000030 bb ab dd bd 5d 84 f4 bc 5f ef 8b bc 3e 45 6b 3d
       -0.108237706 -0.029848272 -0.017081914 0.05743908
000040 9b a8 04 3e 4b 62 20 3c bb 8a 7b 3d f4 a4 25 3e
       0.12954943 0.00978906 0.0614116 0.16176206
000050 39 33 9b bd e6 18 32 be ec 9a 69 bd fb 66 ba 3b
       -0.07578129 -0.1739231 -0.05703251 0.0056885458
000060 8a 40 fc 3d 93 b5 bf bd d0 9f 41 3e 9b af 2a 3d
       0.12316997 -0.093608044 0.1890862 0.041671377
000070 80 40 07 bd 19 3b 2e be 96 45 29 be f5 04 fb bd
       -0.033020496 -0.17014731 -0.16530451 -0.12256805
000080 b5 91 3b bd ea 83 ed bd 1c 2c 47 be 9a 0f 0a bd
       -0.045793254 -0.11597426 -0.1945042 -0.033706285
000090 e2 4f 26 be fd 39 19 be 9e 83 1b be 7a 61 03 3e
       -0.1624141 -0.14963527 -0.15186927 0.12830153
0000a0 4f ac f1 3b 69 d6 42 be 79 66 ae 3d f8 c7 f3 bc
       0.007375277 -0.19027103 0.08515639 -0.029758438
0000b0 b5 e2 d9 3d af df 32 be fb e1 a0 bd c6 01 85 3d
       0.10638944 -0.17468141 -0.07855602 0.06494479
0000c0 28 ea 08 be a7 9c c1 3d 64 31 62 3c 4d 25 d5 bd
       -0.13370574 0.09453707 0.013805721 -0.10407505
0000d0 ac 09 b6 3d 31 e6 0f 3d 4e 15 03 3e 73 4f 8a bd
       0.088885635 0.035131637 0.12801096 -0.06753435
0000e0 c6 54 44 3b 62 d1 39 bd 5a b0 43 be 2e 70 15 be
       0.0029957755 -0.0453657 -0.19110242 -0.14593574
0000f0 59 cf 2b be a4 4c 3f 3e 0c 1e 87 3c af af 2c 3d
       -0.16778316 0.1868158 0.01649382 0.042159732
000100 1a 09 15 be 7c c8 5f bd 61 68 dd bc 44 97 de 3c
       -0.14554253 -0.054634556 -0.02702731 0.027171738
000110 7b fc 3d be f3 23 e3 3d 1c 74 b4 3d 18 5b 08 be
       -0.18553345 0.11090841 0.088112086 -0.13316
000120 e5 47 88 3d 11 f0 94 bd 3a 5a 09 bd c9 14 85 3c
       0.06654338 -0.072723515 -0.033533312 0.016245263
000130 ac 14 93 3d d4 48 0d bd fc 0b 2d be 1f 96 cd ba
       0.07181677 -0.034493282 -0.16899103 -0.0015684998
000140 9c 98 12 be 8f 66 29 be 64 e4 e0 bd 8c 93 e9 3c
       -0.14316028 -0.16543029 -0.10981062 0.028512739
000150 db fa 02 bd a1 39 f9 bd fc 50 1d 3e 31 db 2b be
       -0.031977516 -0.12169195 0.15362924 -0.16782834
000160 45 09 8d 3d 43 f7 41 3d f8 f8 3a 3c 29 14 8c bd
       0.06886534 0.047354948 0.011411898 -0.06839783
000170 06 48 e2 3d 4b a3 07 be bb d8 1e bd f2 f3 68 3c
       0.11048894 -0.13245885 -0.03878091 0.014218317
000180 90 9f a5 3d e7 15 bd bd 02 fd 11 be dd 48 1f be
       0.08087075 -0.09232693 -0.14256671 -0.15555139
000190 a9 b6 41 bd 87 3e e4 3c 96 6a f6 3c 38 45 1c 3e
       -0.04729334 0.027861847 0.030080121 0.1526078
0001a0 31 31 9b bd 7d fb d3 bd fc 7c 71 bc c2 0c 29 be
       -0.07577742 -0.10350702 -0.014739271 -0.16508773
0001b0 94 57 cb bc 33 d1 f8 3d f8 d1 8a 39 f1 b9 e8 3d
       -0.024822034 0.121492766 0.0002647785 0.113635905
0001c0 92 c9 18 be c3 09 29 be 84 1c 05 3e ef 4c 82 bc
       -0.14920643 -0.1650763 0.12999159 -0.015905825
0001d0 44 d3 bd bd 0f d9 ff 3d 09 93 a5 3d 12 5f 9a 3d
       -0.09268811 0.124925725 0.08084685 0.075376645
0001e0 91 5b bd 3c 96 4f 5b bd 11 bd c2 bd eb 43 ba bc
       0.023114951 -0.053542696 -0.09508718 -0.022737464
0001f0 3f 67 de 3c f0 ae 83 3d d5 93 01 be 72 ab b9 bd
       0.027148841 0.06429851 -0.1265405 -0.09065904
000200 26 b3 e2 3d 2a 39 17 be a8 40 ae bd 9f 2f 12 3e
       0.11069326 -0.147679 -0.08508426 0.14275979
000210 8f e5 2c bd 89 af e8 bc 45 11 d7 bb 0f 06 c3 bd
       -0.04221111 -0.028404014 -0.006563338 -0.0952264
000220 06 68 6f 3d 8a 57 e3 3b 71 c9 1c be 16 55 05 be
       0.058448814 0.0069379257 -0.15311219 -0.13020739
000230 cf 5d 62 bd 32 7d 8e 3d 66 c9 2c be 83 4d d5 bd
       -0.055265244 0.06957473 -0.16873702 -0.10415175
000240 1f b8 21 be e4 df e9 bd 72 7d 82 bd da d5 81 bc
       -0.15792893 -0.11419657 -0.06371583 -0.015849043
000250 7d 91 2c be c1 bc 01 be a9 6a 96 3d 16 43 d0 3d
       -0.16852374 -0.1266966 0.073445626 0.101690456
000260 e0 50 fd bd 58 97 21 3b ce a1 86 3d 2f 90 0f 3e
       -0.12368941 0.0024656858 0.065738305 0.14019845
000270 4d f9 14 3e 17 2d e6 3d 91 b9 0e 3e 72 c8 dd 3c
       0.14548226 0.11239069 0.13937975 0.027073119
000280 95 10 d6 bd f7 e2 19 3e 54 19 e3 bd 42 41 77 3d
       -0.104523815 0.15027986 -0.11088815 0.06036497
000290 6f 52 cc 3d f8 32 9d 3d 07 4d 15 be db 48 08 be
       0.099766605 0.07675737 -0.14580165 -0.13309042
0002a0 16 82 27 bd f9 bd 06 be 3c f1 40 3b 14 1e 18 be
       -0.040895544 -0.13158406 0.0029440662 -0.14855224
0002b0 fe 0c 78 bd 3a f2 b3 bd 15 79 c5 bd cc bd 87 bd
       -0.060559265 -0.087864354 -0.09642235 -0.06627998
0002c0 bb 4a bb bd 6c e9 2d 3e b3 3d 08 be a5 a0 8c ba
       -0.09145113 0.16983575 -0.13304786 -0.0010729028
0002d0 a4 66 c0 3d 11 47 ea 3b 63 44 08 bc 2b 9d 2a bd
       0.09394577 0.007149585 -0.008317086 -0.041653793
0002e0 37 0e 84 bd 32 1c 7a 3d 78 85 56 bd d7 e5 17 be
       -0.06448024 0.061062045 -0.05237338 -0.1483377
0002f0 09 e9 11 3d b4 ae 34 be 9e ae 11 bd bd 61 e8 bd
       0.03562263 -0.17644769 -0.03556692 -0.11346767
000300 52 b5 2a bc 4e 75 88 bc fd 16 24 be ea 32 07 be
       -0.010419207 -0.016657498 -0.16024394 -0.13203016
000310 25 5b 8b bd f1 15 e8 bd 5e b4 a5 3d ca 34 15 3e
       -0.06804494 -0.1133231 0.08091043 0.14570919
000320 bb 35 60 3d 90 43 ef 3d c4 20 d1 bd 0e 72 61 3d
       0.05473874 0.116828084 -0.10211328 0.05504041
000330 b5 60 c6 3c 83 9d 3c be c4 b5 10 3e b7 27 27 3c
       0.024216035 -0.18419461 0.14131838 0.01020234
000340 06 ae f5 3d fb 35 25 3e be 0c 65 3d 0d c6 c5 3d
       0.11996083 0.16133873 0.055920355 0.09656916
000350 a5 87 4e bd 08 ab eb bc e3 0c 30 3e 86 ef 6b 3d
       -0.05042233 -0.028768077 0.17192416 0.057601474
000360 80 d1 bb 3d 8c 0c 24 3e c6 dd 9a bc 7e 1c 3d bd
       0.09170818 0.16020411 -0.018904578 -0.04616975
000370 21 1b 58 3d 08 5f 17 3e c5 e5 1f be 75 a9 a7 bc
       0.052760247 0.14782345 -0.15614994 -0.020466546
000380 8b 1b 2b 3e 85 6a 0b bd 81 88 d8 3c 11 2a 8c bd
       0.16709726 -0.03403713 0.026432278 -0.06843961
000390 c5 86 d7 bd 68 02 91 3d cb d2 01 be eb 3d 97 bd
       -0.10523752 0.07080537 -0.12678067 -0.07384857
0003a0 3a 5b 99 3c b3 15 2d 3e dc c9 b0 3d 31 33 30 3e
       0.018720258 0.16902809 0.086322516 0.17207028
0003b0 cc 47 d6 bd 62 ec aa 3d 92 49 66 3d 06 d3 1e be
       -0.10462913 0.08345868 0.056222506 -0.15510187
0003c0 25 a3 f6 bd f1 78 b4 3d 0f f6 bd 3d f1 83 20 be
       -0.12042836 0.0881213 0.092754476 -0.15675332
0003d0 38 2b 01 3e 41 8e 06 3c ce 7a 03 be d0 f2 41 3d
       0.12614143 0.008212627 -0.12839815 0.047350705
0003e0 34 a7 3c bd 0b 41 14 bd 56 ae f9 3d 4a 1d be 3c
       -0.046057895 -0.036194842 0.12191455 0.023207325
0003f0 9d 1e db 3b 86 eb 74 3c 73 29 01 3e 88 14 3b be
       0.006686999 0.014948731 0.12613468 -0.18269551

EiLM.1.gamma_generator.weight f4 [1, 32]
000000 bb 83 d5 bc 34 fa 25 be 1b 75 34 be 6f 59 fb 3d
       -0.02606379 -0.16208726 -0.17622797 0.122729175
000010 96 00 f2 3c ef 9c d8 bc c1 00 d2 3d 73 4f d4 bd
       0.029541295 -0.02644202 0.1025405 -0.10366716
000020 40 c1 09 be 34 a7 90 ba 74 53 86 3c 83 2c b0 bc
       -0.13452625 -0.0011036159 0.016397215 -0.0215056
000030 80 cf 31 3e 11 b9 0e 3e de f7 e2 bc d2 6b 43 bd
       0.17364311 0.13937785 -0.027706083 -0.047710247
000040 33 e7 89 3d 39 d4 0b be 40 f6 39 bd 29 56 df 3d
       0.06733551 -0.13655175 -0.045400858 0.109051056
000050 02 bc b5 3d c8 c6 27 3d 9c 6f 28 3e b3 7a 82 bd
       0.0887375 0.040961057 0.16448826 -0.06371059
000060 0b fb a0 3d f3 b5 74 3d f6 4c 3d bd d6 4d 8c 3d
       0.07860383 0.059743833 -0.046215974 0.068507835
000070 ec 2b 04 be ca 60 46 3e 5e c5 e6 3d d0 04 58 3d
       -0.1290738 0.1937286 0.112681136 0.052738965

EiLM.1.beta_generator.weight f4 [32, 32]
000000 e9 dc c4 3c f8 9a e3 3d 9d 0d 62 3c 4d 59 26 be
       0.02403112 0.11113542 0.013797191 -0.16245003
000010 99 5c 2c be 69 19 07 3e 2d 9b 1f bc cc 4d 16 3e
       -0.16832198 0.13193287 -0.009741587 0.14678115
000020 de a5 06 be 35 e8 3a 3e 57 68 81 3d 9f eb 17 3e
       -0.13149211 0.18252642 0.06318729 0.14835976
000030 d4 57 fa bd ed 46 44 3d 51 50 36 bd f0 c6 0a be
       -0.12223783 0.047919203 -0.04451019 -0.13552451
000040 c3 3c f6 3c 39 af 1e 3e 71 3f cf 3d e3 a7 3b 3e
       0.03005827 0.1549653 0.10119522 0.18325762
000050 8a e4 6e bd e6 b8 da 3d 6a 38 37 be a6 b6 13 3e
       -0.05832342 0.10679798 -0.17892614 0.14425144
000060 0f a6 21 be ac 66 eb 3c 95 ad c9 3d d0 d8 df bd
       -0.15786003 0.028735481 0.09847561 -0.109300256
000070 2a b0 0b 3e 11 19 02 be 4d d0 e2 bd 47 07 03 bd
       0.1364142 -0.12704875 -0.110748865 -0.031989362
000080 a5 30 24 bd 5d 34 d3 bc 58 26 33 be ae e9 c3 bc
       -0.040085454 -0.025781805 -0.17495096 -0.023915138
000090 02 f2 0e 3e 5c 8d c8 bd 8f 8c f0 3d 5c 80 36 3e
       0.13959506 -0.09792587 0.117455594 0.17822403
0000a0 56 37 30 3c d9 f2 05 be 7a ff 0c be 89 73 30 3d
       0.010755381 -0.1308092 -0.13769332 0.043078933
0000b0 6a 71 07 be 05 87 0f be 41 84 3d 3e 87 83 fe 3d
       -0.13226858 -0.1401635 0.18507482 0.124274306
0000c0 59 99 d3 3c 62 ad 16 be aa 71 04 be 70 a3 fd bd
       0.025829958 -0.14714578 -0.12933984 -0.12384689
0000d0 90 3c 94 bd 29 73 e2 3d 95 6e 52 bd 64 c3 82 bd
       -0.07238114 0.11057121 -0.05137499 -0.06384924
0000e0 c1 ca 22 3e d9 ad 57 bd d9 99 c3 bd 06 5f d4 3d
       0.15897657 -0.05265603 -0.095508285 0.10369687
0000f0 aa a5 2a 3e fd b4 96 bd 6a 02 61 bc 20 0f 8b 3d
       0.16664758 -0.073587395 -0.013733486 0.06789994
000100 f4 2c b9 bc 10 61 84 3d 3a df 36 bb 04 38 15 be
       -0.022604443 0.06463826 -0.002790405 -0.1457215
000110 05 ad f3 3c dd 20 2d 3e 19 11 71 3d 70 2e 71 bd
       0.029745588 0.16907068 0.058854196 -0.058882177
000120 48 07 94 bc 97 ae b9 bd 3b 86 be bd 44 aa 2c be
       -0.018069878 -0.090665035 -0.09302946 -0.16861826
000130 bb ee b9 bc 53 b5 0f be ce 58 0f 3e 42 d3 04 be
       -0.022696843 -0.14034013 0.1399872 -0.12971213
000140 cd ff 11 3e 7a cf df bd 4b 12 0a 3e 4a 37 33 3e
       0.14257737 -0.10928245 0.1348354 0.1750156
000150 18 51 19 3d d7 fd 10 3b d7 7f bc 3d a6 ca 17 be
       0.037430853 0.0022123957 0.09204071 -0.14823398
000160 5b 30 ea 3d 7f 80 b2 bd 0e ed 99 3a 5b 4e 46 bd
       0.11435004 -0.08715915 0.0011743621 -0.04841457
000170 1d 2a ae ba bb 9b a4 3d 93 76 8e bd 37 22 2d be
       -0.0013287697 0.08037516 -0.0695621 -0.16907583
000180 ce 76 e8 39 64 9b 19 be 82 9d 2a bd e7 17 3b 3e
       0.00044339005 -0.15000683 -0.041654117 0.18270837
000190 25 3d 21 be 0d 16 85 bd 28 8d 55 3d 1d 73 2f 3e
       -0.15745981 -0.064983465 0.05213657 0.17133756
0001a0 13 ee 62 bd 7b 7b f2 3d 90 89 07 3e 1b ab 07 3e
       -0.055402827 0.11839958 0.1323607 0.13248865
0001b0 2f 72 c8 3d 32 c3 9b bd 21 96 3b bd db e7 a7 bc
       0.09787404 -0.0760559 -0.04579747 -0.0204963
0001c0 96 06 60 bd 5a 7e 41 bd cb 3c 22 be 1e e9 9e 3d
       -0.05469378 -0.04723964 -0.15843503 0.07759307
0001d0 da 57 35 3c 9f 0c 68 3d f0 f2 35 3e 2a ea 68 bd
       0.011068309 0.05665266 0.17768455 -0.05686394
0001e0 28 6d 9f bd 34 34 26 3e 90 a9 39 be 45 90 83 bd
       -0.07784492 0.16230851 -0.18131089 -0.064240016
0001f0 15 6d 41 3d bc 9c 96 bd d7 9c 23 be 0f 09 e8 bd
       0.04722317 -0.073541135 -0.15977798 -0.11329853
000200 21 ff 83 3d 59 d4 1b bd 0f c9 ad bd fc 4a 8b 3d
       0.06445146 -0.038044307 -0.084856145 0.068014115
000210 79 1a 80 bd f8 3a c5 bd c1 7f e5 3d b6 80 6a 3d
       -0.06255049 -0.09630388 0.11206008 0.057251655
000220 d2 83 1e be 98 17 2b be fc 1c 19 be 57 9c a0 3d
       -0.15479973 -0.16708219 -0.14952463 0.078423195
000230 1e 75 86 bd 11 b9 b2 3d c2 bf 22 be 9a 2b 3f 3e
       -0.06565307 0.08726705 -0.15893462 0.18668976
000240 98 c8 c9 3c a0 57 05 3c 53 68 e1 ba 3c ab 00 be
       0.024631783 0.008138567 -0.0017197229 -0.1256532
000250 5b c5 19 bd ce a9 0a be 81 e4 dc 3d 40 1f 57 bd
       -0.03754173 -0.13541338 0.10785771 -0.052520037
000260 7c 93 83 bd 9e b8 ff bd 1d 21 11 3e 50 99 d8 3d
       -0.06424615 -0.12486385 0.14172788 0.10576117
000270 da f7 11 3d d3 12 8b 3d 20 aa bc bd d1 ba c9 3c
       0.03563676 0.067907 -0.09212136 0.024625214
000280 d2 d7 39 be 2c 6f 33 3c 94 1f 24 3e e6 83 17 3e
       -0.18148735 0.010951798 0.16027671 0.14796409
000290 56 e4 ee bd 82 16 8f 3c fa 8a 30 3e cf 2e b4 3d
       -0.116646454 0.017466787 0.17240515 0.087979905
0002a0 9c 69 34 be 45 cb 1e be 0a 1e 74 3d a7 2b de 3c
       -0.17618412 -0.15507229 0.05959896 0.027120424
0002b0 25 49 b0 bd 6c 32 68 3d a3 92 17 be 11 fb 9f bd
       -0.08607701 0.05668871 -0.14802031 -0.07811559
0002c0 ec 5a 24 be 6f 0d 2a 3e 7b 70 51 3d 6e c2 3e be
       -0.16050309 0.16606687 0.05113266 -0.18628857
0002d0 90 95 15 3e a0 ba e4 bc 95 1f 4c bd 7a a7 06 3e
       0.14607835 -0.027921021 -0.049834806 0.13149825
0002e0 64 cf 1a be 73 a6 62 bd f2 ab 1e be 27 be d8 3d
       -0.15118176 -0.05533452 -0.1549528 0.10583144
0002f0 01 ec 65 bd a1 95 0c 3d af 2d b3 3d bd 2b 99 3d
       -0.056133274 0.034322385 0.08748948 0.074790455
000300 45 31 0c 3e 06 53 c2 bd 7b 5d 84 bd d4 fd 34 be
       0.1369067 -0.09488492 -0.064631425 -0.17674953
000310 2f cd a1 bd bd db bb bd cc cf 71 bd 6f 79 2e 3e
       -0.07900464 -0.09172771 -0.05903606 0.1703851
000320 50 6e 01 be b7 f7 78 3d 55 7c e0 3d 95 7a 9a bc
       -0.12639737 0.060783114 0.109612145 -0.01885728
000330 f4 8f cc bd b6 6f 1c 3e 10 00 45 3e 17 9c 4c 3c
       -0.099883944 0.1527699 0.19238305 0.012488387
000340 27 c1 24 be d4 73 8e bd fd ab db 3d 1c 58 8b 3d
       -0.16089307 -0.06955686 0.107261635 0.06803915
000350 7d b9 9e bc 31 36 ee bd 67 29 dd bd de 3e 99 bd
       -0.019375557 -0.1163143 -0.107989125 -0.07482694
000360 7d 5a ae bd c8 04 dc 3c 99 3f 8e bd 83 ba 1f 3e
       -0.08513353 0.026857749 -0.06945724 0.15598492
000370 f3 68 fd bb b5 8a 8b 3d 3f 1a f9 bd 94 fb 26 3e
       -0.007733458 0.06813566 -0.12163209 0.16306907
000380 d2 97 24 be 45 c0 1d bc 1e d9 1a bc 49 fe e0 bd
       -0.1607354 -0.00962836 -0.009451179 -0.10986001
000390 f8 5d 35 3c 69 f5 54 bd 8b 8f fd 3d 01 08 97 bd
       0.011069767 -0.051991854 0.12380894 -0.073745735
0003a0 49 d7 7d bd b1 a1 c2 3d 59 6b b6 bd 0c 43 e7 bb
       -0.06197289 0.095034964 -0.08907194 -0.007057553
0003b0 b7 4e 34 be 52 c3 0b be a0 d3 79 bb 0d bd f1 bd
       -0.17608152 -0.13648728 -0.0038120523 -0.11803637
0003c0 7a f5 05 be af ef 81 bd 2a 58 23 be 9c f1 77 bd
       -0.13081923 -0.06344544 -0.159516 -0.06053315
0003d0 54 3e 5f bd 2b 93 1e be f5 2c 29 be 40 0e 30 3e
       -0.0545028 -0.15485828 -0.16521056 0.17192936
0003e0 71 3f 09 be aa f2 0a be fd 1c 0a be b0 e2 9f 3c
       -0.13403107 -0.13569131 -0.1348762 0.019517273
0003f0 f4 08 a4 3d be 5f 45 bb 68 ca f8 bd 19 c2 a9 bc
       0.0800952 -0.0030116881 -0.12147981 -0.020722436

EiLM.2.gamma_generator.weight f4 [1, 32]
000000 3f 79 eb 3d e6 24 d0 bd 43 ed 94 3d b3 dd 34 be
       0.11497735 -0.10163288 0.072718166 -0.17662697
000010 74 96 ed bd 4f a1 07 bd 30 f9 9d 3c cc bc ad bd
       -0.11600962 -0.03311282 0.01928386 -0.08483276
000020 ed 0e 39 3e 55 4b 09 be 94 ca ff 3d f0 f8 0d 3e
       0.180721 -0.13407643 0.124898106 0.13864493
000030 37 81 c1 bd 6a ed f4 bd f5 cc 80 bc d3 82 18 bc
       -0.09448474 -0.11959346 -0.015722731 -0.009308535
000040 2b 64 19 bc 7f a8 97 bd 3b 44 74 3d a7 65 b3 bd
       -0.009362261 -0.07405185 0.059635382 -0.08759623
000050 2b 77 1e be 98 c9 d8 bc 59 d8 f9 3d 8e 23 19 be
       -0.15475146 -0.026463315 0.12199468 -0.1495497
000060 dd 8b ff bd a4 fb 85 bd 76 ad 9c bd 75 d2 36 3d
       -0.12477849 -0.06542137 -0.076502725 0.0446343
000070 e4 57 32 be b7 88 16 3e 4f c7 ec 3d a5 d7 b4 bd
       -0.1741634 0.1470059 0.115614526 -0.088301934

EiLM.2.beta_generator.weight f4 [32, 32]
000000 b2 c9 4a bc ee e9 e5 bd 70 9d 9d bd 0b 94 2e be
       -0.0123771895 -0.11226259 -0.076960444 -0.17048661
000010 3c 05 3b be 52 3b 13 3e da 75 14 3e 7b bf d6 3d
       -0.18263716 0.14378098 0.14498082 0.10485741
000020 bf 80 ae 3c 45 d8 42 bb 46 72 ce bc 7a 0a 4a 3b
       0.021301625 -0.0029730957 -0.025200974 0.0030828998
000030 51 34 1a be 75 ca f4 3d 55 72 92 bd d2 47 28 3d
       -0.1505902 0.11952678 -0.07150713 0.04108412
000040 a1 ec dd 3d c2 24 92 bd 4f 3c 68 bd 5a 6a 69 bc
       0.10836149 -0.07135917 -0.05669814 -0.014246548
000050 f9 71 16 be d9 80 12 be 32 2f 31 be 67 09 21 bd
       -0.14691915 -0.14306964 -0.1730316 -0.039315607
000060 42 c5 c7 3d 9d 95 34 be 55 61 c8 bd ed c4 23 be
       0.09754421 -0.17635198 -0.097841896 -0.1599309
000070 73 b1 20 be 9e 7c 45 be 05 3c fc 3c 41 ef 7c 3d
       -0.15692692 -0.19285819 0.030790338 0.061751608
000080 89 44 0e 3e 5d 58 28 3d 12 a3 1a be 0b dc 64 bd
       0.13893332 0.041099895 -0.15101269 -0.05587391
000090 a8 46 3c 3d d6 2c de bd 9e d8 c5 3d 68 6f dd 3d
       0.04596582 -0.108483955 0.09660457 0.10812265
0000a0 28 d0 85 3c d0 7c f7 3d b0 74 b3 bd 76 87 08 be
       0.016334608 0.12084353 -0.08762491 -0.13332924
0000b0 de 62 18 3e 90 29 96 3d d3 f4 00 bd d7 1b 45 3d
       0.14881465 0.07332146 -0.031483483 0.048122253
0000c0 64 ba 1b bd ea 90 f4 bd f8 3d ce 3d 4a d7 e6 3b
       -0.038019553 -0.11941703 0.10070413 0.0070447074
0000d0 42 b1 00 be 8c 44 91 bd 0f 9c 13 bd 17 b9 55 3c
       -0.12567618 -0.070931524 -0.0360375 0.013044617
0000e0 70 a2 49 3c 60 ee 20 be 3b 69 07 be dc 55 78 3d
       0.0123067945 -0.15715933 -0.13223736 0.060628757
0000f0 09 c5 c6 3d 05 f7 39 bc 7c 8e b3 bd f0 f5 56 3d
       0.0970555 -0.011350398 -0.08767411 0.052480638
000100 d4 af 75 bd 20 60 cf bd b0 ed 29 3e 1a 1b 01 3e
       -0.059982136 -0.10125756 0.16594577 0.12607995
000110 7f a8 12 be 26 f2 f4 3d 1b 13 8b bd 39 49 7e 3b
       -0.14322089 0.11960249 -0.067907535 0.0038800968
000120 a5 19 07 3e 64 f4 01 be 32 f0 31 be 35 ff 10 3d
       0.13193376 -0.12690884 -0.17376783 0.035399634
000130 cb 64 17 be ff 0c 4d bd 55 8f 1b bd 51 0f 0b 3d
       -0.14784543 -0.050061222 -0.03797849 0.033950154
000140 f9 ce af 3d ef 28 24 3e 63 8a d4 3d 6f 2f 2f 3e
       0.08584399 0.1603124 0.10377958 0.17107938
000150 85 3f 13 3e 14 61 11 be 41 39 98 3d 40 1e 29 3e
       0.143797 -0.14197189 0.07432795 0.16515446
000160 7d d2 fe 3d 16 2c f6 3d 9e a5 a8 bd 75 b6 5e 3d
       0.12442491 0.120201275 -0.08234714 0.054373223
000170 29 a5 a7 3d d4 80 3a 3d 31 c4 ee 3d e2 21 63 bd
       0.08185799 0.045533016 0.11658514 -0.055452235
000180 aa eb 34 3d 6e ca 22 be 26 c8 10 3e 11 94 bc bc
       0.04417006 -0.15897533 0.1413885 -0.023019822
000190 b8 55 06 bd 10 5e ac bd 87 8f 11 be bd ff ed bb
       -0.03279659 -0.084163785 -0.14214908 -0.0072631524
0001a0 11 c4 2b be 37 91 eb bd 26 71 3f 3d 91 21 0d 3d
       -0.16774012 -0.11502307 0.046738766 0.03445584
0001b0 5a 2a fb 3c dd dc b4 bd 5c c8 e0 3d 33 a1 8f bd
       0.030659843 -0.08831189 0.109757155 -0.07013168
0001c0 41 34 25 3e 93 9f 09 be 34 c9 2e bd 49 22 4a 3c
       0.16133215 -0.13439779 -0.04267235 0.012337276
0001d0 a7 16 20 bd 39 ca 0e 3e 0c dd d2 bd 53 e9 b4 3d
       -0.039084103 0.1394433 -0.102960676 0.088335656
0001e0 aa 3c 08 3e 8a a6 9b 3d 9f 14 41 3d 37 54 14 be
       0.13304392 0.07600124 0.047138806 -0.1448525
0001f0 99 39 bf bd ac b6 d8 bd e5 51 f2 3d c3 64 19 bd
       -0.09337158 -0.10581717 0.118320264 -0.03744961
000200 a9 7c ab bc c9 dc 80 3d 37 25 27 bd 59 bc 38 be
       -0.020933466 0.062921114 -0.040806975 -0.18040599
000210 f7 26 0c 3e e2 a0 4a 3d 75 d8 50 3d c7 1b 35 3e
       0.13686739 0.049469836 0.05098768 0.17686377
000220 e7 ed 30 3e 8f b1 39 bd 45 06 e2 bd d1 7f 3f be
       0.17278253 -0.04533535 -0.11036352 -0.18701102
000230 77 3b 41 3e fd 99 ba 3d a6 58 d8 bd b2 cd 24 bd
       0.1887034 0.09111402 -0.10563783 -0.04023523
000240 b7 c1 17 be 0e 58 90 3d f1 41 aa bd 6f b6 a7 3d
       -0.1481999 0.07048045 -0.083133586 0.08189093
000250 7d 14 43 3d 15 ad 98 bd 84 08 8c bd 10 4c c4 3b
       0.04762696 -0.07454888 -0.06837562 0.0059905127
000260 71 da bf 3c 5c e6 d6 ba 9d 95 26 be 3a 1c 23 be
       0.02341959 -0.0016395557 -0.1626801 -0.15928736
000270 19 c6 88 3c 3c 64 1d be 6b a2 e6 3d 78 4f 3c 3e
       0.016696023 -0.15370268 0.112614475 0.1838969
000280 99 97 93 3c e5 a9 04 be f7 54 30 bd ee 89 ea 3d
       0.018016623 -0.12955435 -0.04304978 0.11452089
000290 93 76 1d be 04 dc 32 3c da 88 e3 3d a9 74 29 be
       -0.15377264 0.010916714 0.11110087 -0.16548409
0002a0 fd 59 b8 bd 20 58 d4 3d b9 91 21 3e 6f 5b d1 3d
       -0.09001539 0.10368371 0.15778245 0.10222518
0002b0 d1 60 9b bd 02 18 f1 bd 45 80 d3 bd aa 99 22 3e
       -0.07586826 -0.11772157 -0.103272 0.1587893
0002c0 3f d0 63 bd 07 2c 85 bd 7c 30 07 3e 97 a9 e8 3d
       -0.05561852 -0.06502538 0.13202089 0.11360472
0002d0 64 8d f4 bd f4 fa 25 3e 6e 2d 34 3d 9e c4 5a 3d
       -0.119410306 0.16209012 0.043988638 0.053410165
0002e0 65 c3 0c be ec a1 2b bd 34 d0 21 3e cb 6e 29 be
       -0.13746412 -0.041902468 0.1580208 -0.1654617
0002f0 56 ae b2 bd 55 19 87 3d fc 39 05 bd e1 a2 0d 3e
       -0.08724658 0.065966286 -0.032526 0.13831665
000300 b2 b9 52 bd 50 e3 25 3d db a7 00 be bb 95 e3 bd
       -0.051446624 0.040499985 -0.12564032 -0.11112543
000310 c9 49 78 3c 61 b5 e8 bc 86 45 ad bd 76 f5 b7 3d
       0.0151543105 -0.0284068 -0.08460526 0.08982365
000320 33 6d 24 be 2a d0 9d 3b 12 90 24 be a7 95 12 3e
       -0.16057281 0.004816075 -0.16070583 0.143149
000330 1e 37 8d bd 1f 54 ee bd b5 fd c0 3d 13 35 74 3d
       -0.068952784 -0.116371386 0.09423391 0.059620928
000340 12 0a 84 3d cd b7 37 3e b0 f5 bc bd 18 84 39 be
       0.06447233 0.17941208 -0.09226549 -0.18116796
000350 03 6c d9 3d c5 a8 cf 3d e7 27 5f 3d 49 02 f7 bd
       0.10616305 0.10139612 0.054481413 -0.12060983
000360 bf 96 fa bd 7b 0f 31 3e f7 03 32 bd 6d 1a 2c 3e
       -0.12235784 0.17291062 -0.043460812 0.16806956
000370 2e f3 c7 bd 65 2f e7 3c 35 59 8b 3d 93 8b 65 3d
       -0.0976318 0.028220842 0.06804124 0.05604131
000380 51 a0 f8 3d 1b 5b 21 3e 30 e9 60 bd 93 d5 9c 3d
       0.12139953 0.1575741 -0.054909885 0.076579235
000390 c2 02 d2 bc 0f e3 dd 3d 6b a4 6b 3d f7 7f 12 3e
       -0.02563608 0.108343236 0.057529848 0.14306627
0003a0 6f 99 28 be 5f 5f 23 bd 90 89 af 3d fe 92 3d 3e
       -0.1646478 -0.039885875 0.0857116 0.18513104
0003b0 b6 43 07 be b0 c9 cb 3d 51 77 1a 3e 1a db 1c bd
       -0.13209423 0.09950578 0.15084578 -0.03829489
0003c0 c2 e6 c3 3d 19 2c 16 bd 18 ed cf 3d 98 b1 59 3d
       0.09565498 -0.03666315 0.10152644 0.053147882
0003d0 99 4f 98 bd f0 54 d5 3d 9c 74 25 bd 1c 08 23 bc
       -0.07437057 0.10416591 -0.04039441 -0.009950664
0003e0 8d 78 14 bd d6 80 cd bd 48 ea c9 3d 7e 3f 1f 3e
       -0.03624778 -0.10034339 0.09859139 0.15551564
0003f0 d4 b7 f8 bd 79 66 2b be d0 4a 11 be 26 92 8d bd
       -0.121444374 -0.16738309 -0.14188695 -0.06912641

EiLM.3.gamma_generator.weight f4 [1, 32]
000000 aa 3b 49 bd 29 f5 ef bc fa 97 a4 bc 24 39 29 3e
       -0.049129166 -0.029291706 -0.020092 0.16525704
000010 e1 75 38 bd c9 8c 04 be 28 68 e0 3d 69 aa 1b 3e
       -0.045034293 -0.1294433 0.10957366 0.15201725
000020 a8 e5 1e be a9 9f fc 3d 30 31 07 be ca 1a a4 3d
       -0.15517294 0.1233514 -0.13202357 0.08012922
000030 f2 b9 06 bd 03 33 a6 bd e1 a7 d6 3d 7e 49 c5 bd
       -0.032892175 -0.081151985 0.10481239 -0.09633158
000040 2d 60 32 be 82 89 bc bd af a3 de bd 9b 5b db 3d
       -0.174195 -0.09205915 -0.10871064 0.10710832
000050 c5 15 16 be b2 e2 dc bc fc 52 b4 3d 06 71 1b 3e
       -0.14656742 -0.026963565 0.088048905 0.15179834
000060 35 a0 79 3d 5c 70 4c 3d ce f0 99 bd 7e 11 ef 3d
       0.0609438 0.04991184 -0.07516633 0.11673258
000070 28 8a 1d be d4 e8 f2 bd c4 cf ff bd 1f 44 1e be
       -0.15384734 -0.11860815 -0.124908 -0.15455674

EiLM.3.beta_generator.weight f4 [32, 32]
000000 97 0b aa bd cf 8b 4c 3e c5 56 ef bd 26 2a 21 bd
       -0.08302992 0.19975208 -0.11686472 -0.039346837
000010 e3 c3 8b bd 53 e2 c0 bc 6a 43 cc bd b1 8d 84 3c
       -0.06824472 -0.02354542 -0.09973796 0.016180845
000020 5d 94 c5 bd e9 08 1f be e3 07 ae 3d 0f aa 1c bd
       -0.09647439 -0.15530743 0.08497598 -0.038248118
000030 88 a1 9e 3d 82 af 55 bd 45 8e 35 be 2d 2f 56 3d
       0.077456534 -0.05216933 -0.17730053 0.052291084
000040 63 47 24 3e 0e 63 2e be 93 5f 12 bd 6a 55 20 bd
       0.16042857 -0.17029974 -0.035735678 -0.039143957
000050 40 3f 28 3e 09 2e a2 bd 7c 61 ac bc ac 5a d4 3d
       0.16430378 -0.07918937 -0.021042578 0.10368857
000060 9b d4 9e 3d 3b 2f e9 bc 41 15 1a be a2 70 dc bd
       0.07755395 -0.028464904 -0.1504717 -0.107636705
000070 f5 55 ba ba d0 11 4c be 09 58 22 3c d0 97 31 3d
       -0.0014216291 -0.1992867 0.0099086845 0.04335767
000080 d4 61 9f bd 2c 9a 2f be 22 b9 ac 3d ec 08 f6 3d
       -0.07782331 -0.17148656 0.08433749 0.120134205
000090 39 16 33 be c3 a3 3f bc 0a 59 a1 3d 74 29 8b 3c
       -0.17488946 -0.011696759 0.07878311 0.01698754
0000a0 cb 77 12 be 78 9b 24 3e ca 4c 80 bd c0 f1 49 bd
       -0.1430351 0.16074932 -0.06264646 -0.049302816
0000b0 d4 47 29 3e 87 2d ff bd b3 61 f7 3d ee d2 09 be
       0.16531307 -0.124598555 0.120791815 -0.1345937
0000c0 7a 14 c9 3c b2 a9 2a 3e 8f 14 d0 3d 35 2f 31 3d
       0.024545897 0.16666296 0.10160171 0.04325791
0000d0 0f 56 08 3d 64 39 4d bd 03 2a c2 3d 79 65 c5 bd
       0.033285197 -0.05010356 0.09480669 -0.09638495
0000e0 65 76 da 3d 95 f6 05 3d 15 bb cb bc d4 da 32 bd
       0.10667113 0.032705862 -0.024869481 -0.043665722
0000f0 dd 72 22 3e a6 e9 d4 3d d4 37 00 3e 8b c9 9a bd
       0.1586413 0.103961274 0.12521297 -0.075579725
000100 3b af 13 3d 70 1c 30 3e 93 9e 2e 3e c0 1f df 3c
       0.036055785 0.17198348 0.17052679 0.02723682
000110 c3 7e e6 3d 80 78 91 bd 07 ff 18 3d 1b 39 42 3c
       0.11254647 -0.07103062 0.037352588 0.011854435
000120 1d 05 45 3c bc c8 a4 3d 1c 9b ae bd 24 22 6f 3c
       0.012025145 0.080460995 -0.085256785 0.014595542
000130 dd bd 90 bd a0 ef a2 bb d9 93 2a be 1a 1e 58 bc
       -0.070674635 -0.004972413 -0.16657962 -0.0131907705
000140 16 f4 95 b8 bc ee f5 3d 67 66 07 be 14 c4 90 bd
       -7.150338e-05 0.120084256 -0.13222657 -0.07068649
000150 69 33 3a 3c eb 87 ed 3d 25 c9 ab bd 12 95 c7 bd
       0.011364796 0.1159819 -0.08387975 -0.0974523
000160 02 38 1b be 52 ed 36 3d a9 04 dc bd e5 93 26 bd
       -0.15158084 0.04465992 -0.10743076 -0.040668387
000170 95 03 d4 3b 90 ed 2c be a5 e5 19 3e 22 6e 03 be
       0.0064701536 -0.16887498 0.15029009 -0.12834981
000180 83 3d b1 3d 6b da c6 bd 37 12 d3 bd 59 65 c4 3d
       0.086543106 -0.09709629 -0.103062086 0.09589643
000190 ce 1a 5f bd 61 7f ff bd 34 e1 00 be 23 b9 4c 3c
       -0.054468922 -0.124754675 -0.12585908 0.012495312
0001a0 fe 19 59 bd c5 e7 35 bd 25 36 2d be b2 8c ba bd
       -0.053003304 -0.044410486 -0.16915186 -0.09108867
0001b0 9b 1f 21 bd 89 3d 14 be 0f 74 cd 3c 67 9a e9 3d
       -0.039336782 -0.14476599 0.025079755 0.11406403
0001c0 1e e0 0a bd 42 85 fd 3c 38 3f 2f bd c0 d2 3d be
       -0.03390514 0.030947331 -0.0427849 -0.18537426
0001d0 e8 29 10 be 12 7b c5 3d b8 6d c5 3c ef 06 13 3e
       -0.14078486 0.096426144 0.02410017 0.14358114
0001e0 be 58 11 be 81 df 2d 3e 47 56 ce 3d af 72 20 bd
       -0.14194009 0.16979791 0.1007505 -0.03917187
0001f0 97 6a c4 bd cf 89 25 3e 54 f5 4d 3d f0 ca e6 3d
       -0.09590643 0.16165851 0.05028279 0.11269176
000200 ce b7 e2 3d 2e cd 87 bd 8b 76 61 3d 5d 4e 84 bd
       0.11070214 -0.06630932 0.055044692 -0.06460259
000210 7f f9 00 be c3 f2 1b 3e cb 19 fe bd 0b 56 29 3e
       -0.12595175 0.15229325 -0.12407263 0.16536729
000220 02 ef b8 bc cd 86 ac 3d eb fc 2f 3e 21 c1 46 bd
       -0.022574905 0.08424149 0.17186324 -0.048524026
000230 06 ab 05 3e dd 53 0e be c7 d6 17 be 7b a1 dc 3d
       0.13053522 -0.13899179 -0.14828025 0.107729875
000240 28 a2 db 3d a5 4e d5 bc 13 4d a7 3d 60 23 20 3e
       0.10724288 -0.026038477 0.081689976 0.15638494
000250 07 bc 23 3e e7 5c 34 be c2 d1 46 3d e1 c5 84 bd
       0.15989695 -0.17613564 0.048539884 -0.06483055
000260 70 03 1b 3e bf cf 20 bd 5d 80 2b be c1 0d 4a bd
       0.1513803 -0.039260622 -0.16748185 -0.049329523
000270 8f 49 ae 3d 28 89 1d 3c 7a 92 0f 3e 62 5f 23 3d
       0.08510124 0.00961522 0.1402072 0.039885886
000280 c3 6f fa bd 51 79 28 3e b5 a2 dc 3d 24 db e0 bd
       -0.12228348 0.16452529 0.107732214 -0.10979298
000290 76 cd a0 3d 07 57 06 3e 86 3f cc 3c 18 c1 99 3c
       0.078516886 0.13119136 0.024932634 0.018768832
0002a0 67 00 93 3b 0d 62 77 3d 08 24 0a 3d 01 bf 17 3e
       0.004486132 0.060396243 0.03372577 0.14818956
0002b0 cc 5c db bd 23 50 21 bd a5 e7 e7 3d 05 93 4a 3d
       -0.10711059 -0.039383065 0.113234796 0.049456615
0002c0 81 77 0c bd 5b 88 27 be 38 62 23 3e e9 ee 2b be
       -0.034293655 -0.16360609 0.15955436 -0.16790356
0002d0 e7 b5 28 be ac 09 cc bd 6c ea 2f 3e 62 2c e9 3d
       -0.1647564 -0.09962782 0.17179269 0.113854185
0002e0 bc 43 2f 3d 8c f8 c3 bd 30 d6 2a 3d 5e e4 00 be
       0.042789206 -0.09568891 0.04170817 -0.12587115
0002f0 51 bf 3b 3d af f5 90 3d a3 f2 85 bd 4d 39 47 3d
       0.04583675 0.070781104 -0.0654042 0.04863863
000300 68 9e 9a bd 73 64 20 3e f2 89 60 3d 8e 96 a1 bd
       -0.07549745 0.15663318 0.054819055 -0.07890044
000310 11 f4 93 bc d4 5e d7 3d 71 5f d5 3d 0a d3 11 bd
       -0.018060716 0.10516134 0.10418595 -0.035601653
000320 ac ee 1e be b4 88 fb 3d 16 7f 27 3e 67 7c 14 be
       -0.15520734 0.122819334 0.16357073 -0.1450058
000330 ed a9 99 bd bc 79 7a bd 32 b6 cf 3c 4c cf dc 3d
       -0.07503114 -0.06115125 0.025355432 0.10781726
000340 00 1e 62 3d 74 f4 01 3e c3 ee 9c 3d 6e bc a9 3d
       0.05520439 0.12690908 0.07662728 0.08287893
000350 ad ac df bd 8b 07 1d 3e 5c e0 0c 3e 34 0d 42 3d
       -0.10921607 0.15334909 0.13757461 0.047375873
000360 f1 67 6e 3a 86 54 31 bd 0f 62 4f 3d 05 15 0b 3e
       0.0009094468 -0.0432935 0.050630625 0.13582237
000370 95 0c 13 3e 65 54 77 3d 2a c3 a2 bb 91 09 fa bc
       0.14360268 0.06038322 -0.004967113 -0.03052214
000380 d6 34 3a 3d 13 2e 30 3e a6 54 41 3d 33 98 d3 bd
       0.045460545 0.17205076 0.047199868 -0.10331764
000390 db 63 f6 bc 5e d8 e8 3d 19 3f e0 bd 2e e0 2f 3d
       -0.030076912 0.11369394 -0.10949535 0.042938404
0003a0 28 4e c7 3d 69 10 97 3d b8 16 cf bd 1e 4d fe 3c
       0.09731704 0.07376177 -0.10111755 0.031042632
0003b0 f0 e9 a1 3d 73 cd ed 3d ed 37 a5 bc 33 52 02 be
       0.07905948 0.11611452 -0.020168269 -0.12726669
0003c0 09 5b 12 be 52 7a 0d be f3 54 00 3e f2 0f 9c 3d
       -0.1429254 -0.13816193 0.12532406 0.07620229
0003d0 c3 b4 14 be ee d9 f0 bd c9 5e 93 bd 48 ec 2a bd
       -0.1452208 -0.11760317 -0.07195813 -0.04172924
0003e0 4e 42 d5 bd 43 80 03 3e 27 6f bf 3d 8d 05 de bd
       -0.10413037 0.12841897 0.093473725 -0.108409025
0003f0 ed d2 c4 bd 18 51 3c be 6d 38 2d be 8f 2c 9e bd
       -0.096105434 -0.1839031 -0.16916056 -0.077233426

Gate.weight f4 [4, 32]
000000 2b 1d 1d 3e 61 89 e3 3c da dd b2 bc 94 a1 07 3e
       0.15343158 0.027775468 -0.021834303 0.13245231
000010 c2 a4 80 3d bf 46 e2 bd 73 67 19 3e fd df 27 be
       0.06281425 -0.1104865 0.14980869 -0.16394038
000020 01 75 98 3d 0c 07 21 3e 04 18 12 3e df 18 9f 3c
       0.07444192 0.15725344 0.14266974 0.01942104
000030 c6 91 59 3b 39 d3 ea bd 9a bb dc bd 32 02 56 bd
       0.003319846 -0.11466069 -0.1077797 -0.052248187
000040 2c bf e3 3d c4 f3 ae bd ed c0 3f bd be c3 09 be
       0.111204475 -0.08542588 -0.046814848 -0.13453576
000050 86 f7 06 be 0b 34 ac bc dd ee 81 bd 0d 6a 1a bd
       -0.1318036 -0.02102091 -0.06344388 -0.037698794
000060 f7 04 a6 3d bb b1 15 3e 92 5c 0e be c8 9d 7a bd
       0.08106416 0.1461858 -0.139025 -0.06118563
000070 dd a4 3d be 1a 45 33 3e 7b 19 82 bd 5d 41 1d be
       -0.18519922 0.17506829 -0.06352516 -0.15356965
000080 38 53 07 3e 3f 2e eb bd 70 75 2e 3e 7e b2 0d be
       0.13215339 -0.1148343 0.17036986 -0.1383762
000090 bb 94 ed bd 73 33 e2 3c 1a ea f4 3c 83 bb 10 bd
       -0.11600634 0.027612424 0.029896785 -0.035335075
0000a0 0a aa e2 3d db 58 d0 3d d5 87 17 3e 87 07 bb bd
       0.110675886 0.10173198 0.1479791 -0.09132295
0000b0 b2 d8 26 bd af af 4d be f2 20 84 3d c0 69 0e 3e
       -0.040734 -0.20086549 0.06451596 0.13907528
0000c0 e0 bb bc bd 81 2a 2a 3d a7 db 8d 3d 74 c6 1b 3e
       -0.09215522 0.04154444 0.06926661 0.15212423
0000d0 bc 7a 9f bb 1c 29 76 3d 79 5f 98 3c bd 09 ae bc
       -0.004866926 0.0600978 0.018600212 -0.021244878
0000e0 36 52 1d be b7 65 b2 3d c9 3a 16 be 01 7d 03 bd
       -0.15363392 0.08710807 -0.14670862 -0.032101635
0000f0 a7 89 af 3c f4 2e f9 3d 95 71 ea bd c5 74 3d 3c
       0.021427942 0.12167159 -0.11447445 0.011563485
000100 1d ce c1 3d 8b 7f 23 be c1 a7 7d 3d ce 71 0e 3e
       0.09463141 -0.15966623 0.06192756 0.139106
000110 d3 59 d2 bc b2 52 3d be b3 e7 03 3d 75 86 18 3e
       -0.025677597 -0.18488577 0.032203387 0.14895041
000120 9e 49 04 3e df 80 a4 3d f5 74 11 be 11 d9 9c 3c
       0.12918708 0.08032393 -0.14204772 0.019146474
000130 30 44 ff bd d7 9e f7 3a f0 be 3a 3e 7f dd ad bd
       -0.124641776 0.0018891942 0.182369 -0.08489513
000140 98 f6 9d 3d a7 3f 3c 3e 63 56 14 be 62 e5 71 3c
       0.0771305 0.18383656 -0.14486079 0.014764162
000150 47 3c cc 3d 32 e4 d8 3d 8d 9b a8 3d 0c e6 54 3b
       0.099724345 0.105904 0.08232794 0.0032485751
000160 81 54 8f bd 20 ad a3 bd 55 f8 41 bd 7a 9f 1a 3e
       -0.0699854 -0.07992005 -0.04735597 0.15099898
000170 23 b0 e6 3a 49 06 99 3c 5e 85 91 bb 68 cb 01 be
       0.00176001 0.018679755 -0.0044409474 -0.1267525
000180 4e 3a c8 bd ee 95 cf 3d 0b fb a1 bc bc 37 23 3e
       -0.09776746 0.10136019 -0.019773027 0.1593923
000190 20 67 c6 3d 01 c9 94 bd 22 0c db bd 67 cb 92 bd
       0.09687638 -0.07264901 -0.106956735 -0.07167702
0001a0 e1 ff 83 bd 79 5b 27 bd 89 0e c5 bd 31 e7 0d 3e
       -0.064452894 -0.04085872 -0.09621913 0.13857724
0001b0 3c cf 1b 3e f6 d6 0e 3e 34 85 80 bd 6d 43 3e be
       0.15215772 0.13949189 -0.062754065 -0.18580408
0001c0 b9 c6 a2 bd f4 c2 13 3e c0 d2 08 be 4c 83 19 be
       -0.079480596 0.14429837 -0.13361645 -0.14991492
0001d0 fe 4d 96 bd 3f 8b 36 be b4 c2 42 bd 1d 40 77 3d
       -0.073390946 -0.17826556 -0.047548965 0.060363878
0001e0 10 42 f8 3d e9 58 a5 3d cd cf 12 be 32 7c 16 bd
       0.121219754 0.08073599 -0.14337082 -0.036739536
0001f0 67 4f f1 bd ca 4a 4b 3d d6 c0 2e 3e 04 25 27 be
       -0.11782723 0.04963187 0.17065749 -0.16322714

experts.0.gate_proj.weight f4 [32, 32]
000000 5d 6b 1d be cf cd 09 3e c8 ab 02 3d 9e ee 90 bc
       -0.15372987 0.13457416 0.031902105 -0.017691907
000010 34 e8 e9 3d e4 50 55 3c 0e ff 8b 3c 41 83 3f bd
       0.11421242 0.013019774 0.017089393 -0.046756033
000020 6b b6 84 3d 5e 84 38 be 2f 8d 0f be 75 35 36 3e
       0.06480106 -0.18019244 -0.14018701 0.1779383
000030 42 d8 b6 3c d8 c8 0a bd 14 9a 6f bd 6c 8d 04 3e
       0.022319917 -0.033882946 -0.05849655 0.12944573
000040 48 bb 1e 3e 95 8b 20 be 53 8e 2c bd 4e 59 13 bd
       0.1550113 -0.15678246 -0.04212792 -0.03597384
000050 af e0 c8 bd 4f 6f d3 3d 8c 22 20 3e bc 6f 02 be
       -0.0980848 0.10323965 0.15638179 -0.12737936
000060 d9 c7 d5 bd 64 2b e6 3d 0a e0 1e be 4d f5 13 be
       -0.104385085 0.11238745 -0.15515152 -0.14449044
000070 c1 63 25 3e 5f da a0 bd 76 8a 6c 3d 57 f0 c9 bc
       0.16151334 -0.07854151 0.057749234 -0.024650736
000080 39 81 12 3e 8f 6d d4 3d ac ae 02 3e 51 76 23 bd
       0.14307107 0.10372459 0.12761945 -0.039907757
000090 1d 29 39 be 3c de 26 3e 34 11 1b 3e a4 b8 5e 3c
       -0.1808209 0.16295713 0.15143281 0.013593826
0000a0 f3 67 2a 3e d4 0c e2 3d 5e 8c c4 bd 9b 3a bd bc
       0.16641216 0.11037603 -0.095970854 -0.023099234
0000b0 ed b5 3a 3a af 1d bd 3d ad 68 4e 3d d1 c6 1f be
       0.0007122446 0.09234177 0.050392795 -0.15603186
0000c0 bc ad 14 3e cc b1 c3 3d f6 32 ed 3c fa 56 e5 3d
       0.145194 0.095553964 0.028954964 0.1119823
0000d0 f0 b2 0e 3e 8d 8c 15 3e 0d 92 cb bd de 42 c6 bc
       0.13935447 0.14604397 -0.09939966 -0.024201807
0000e0 fc 3c ce bd 1d c3 ad 3c c9 82 21 3e 8e a3 ff bc
       -0.100702256 0.021211201 0.15772547 -0.031205919
0000f0 64 6d 2a 3e 8b df 20 3e 76 a9 e7 bd a7 af 88 bd
       0.16643292 0.15710275 -0.11311619 -0.06674128
000100 7b d2 8e bd b5 b3 fa 3b d2 0a d2 bd 25 e6 83 bc
       -0.0697374 0.0076508173 -0.1025597 -0.016100952
000110 c6 07 26 3e 10 fb 08 be 4a 6a 04 3d 68 3a 58 3d
       0.16213903 -0.13377023 0.032327928 0.052790076
000120 94 16 0b be 46 44 4b bd 4c 31 a7 bd 96 11 56 bd
       -0.13582832 -0.049625657 -0.081636995 -0.052262865
000130 4b 34 1b be e8 a6 be 3d bf ee 47 3d 2a f1 34 3d
       -0.15156667 0.093091786 0.04881167 0.044175304
000140 31 7e 86 bd a1 6c aa bd af 38 27 3e ae 90 3d bc
       -0.06567038 -0.083215006 0.16330217 -0.011570139
000150 59 09 b1 bd a2 53 27 3d eb 84 94 3d 98 81 ac bd
       -0.08644361 0.040851243 0.072519146 -0.084231555
000160 34 1a bb bc e5 90 3c 3d 2c 8b 38 bd 27 0a cf bd
       -0.022839643 0.04603662 -0.0450546 -0.10109358
000170 d3 38 f4 3d d5 57 dd 3d e8 11 4a 3d 87 e4 f2 3d
       0.11924901 0.10807768 0.049333483 0.118599944
000180 e1 c1 50 3d f2 80 73 bd b0 ca 36 bd 4e f5 88 bd
       0.050966147 -0.059449144 -0.04462689 -0.06687413
000190 f0 4c 15 3e 51 1f 12 be 87 90 4d bd 63 ea b7 3b
       0.1458013 -0.14269759 -0.05018666 0.005612658
0001a0 9d b6 37 bd c2 07 9d bd 30 c4 e1 bd b8 b9 12 3d
       -0.044851888 -0.07667495 -0.11023748 0.035821646
0001b0 bf e5 09 3e fb 0a ad 3b 27 03 be bd a9 29 e6 bd
       0.13466547 0.00528085 -0.09277945 -0.11238415
0001c0 d4 e8 2d 3e a5 0e 72 3d b3 10 35 3e 14 10 d5 3c
       0.16983348 0.059095997 0.17682151 0.026008643
0001d0 e4 3e 09 be af b6 e6 bc 45 78 39 bd e6 ce 09 be
       -0.13402897 -0.028163282 -0.045280714 -0.13457832
0001e0 0a 6e e3 bd ae 28 e0 3d 0b 48 98 3d 79 de 1d 3c
       -0.11104973 0.10945259 0.07435616 0.009635561
0001f0 53 ec 30 be 84 e8 27 be f7 c6 34 bc 3b de 0b 3d
       -0.1727765 -0.16397291 -0.011033765 0.034147482
000200 3a 2e b5 3d f9 8f 6b 3d a4 d5 ae 3c 37 3b 03 be
       0.08846708 0.05751035 0.021342106 -0.12815557
000210 dd dd 05 3e c6 4b 11 be 3d bd 22 3e 2b 3f 0f 3a
       0.13072915 -0.14189062 0.15892501 0.000546443
000220 b1 24 03 3d 70 9f 73 bd b9 15 95 bd d9 88 16 3e
       0.032017414 -0.059478223 -0.07279534 0.1470064
000230 3a 44 12 bd 01 e9 d7 bd 71 3c 97 bd bd 6e 9c 3c
       -0.035709597 -0.10542489 -0.07384575 0.019095773
000240 c4 cd c1 bd d2 a8 04 3e 43 f3 1f bd 0c e1 80 3d
       -0.09463075 0.12955025 -0.03905035 0.06292924
000250 36 05 27 3e ab 16 f3 bd d2 45 8a bd ce 57 2d be
       0.16310582 -0.11869558 -0.067515984 -0.16928026
000260 4e ef 0a 3e 2e 7c 74 3d 7a fe ed 3d 07 16 25 bd
       0.1356785 0.05968874 0.11620803 -0.04030421
000270 ec c2 0c be 88 02 c9 bb a3 ba 14 be cd d2 19 bd
       -0.13746232 -0.006134335 -0.14524321 -0.03755455
000280 ff f5 13 3e 3b b8 17 be b5 e3 8f 3d 58 ef 0a bc
       0.14449309 -0.14816372 0.070258535 -0.008479916
000290 fb ee 05 be bf 22 a2 3d d0 75 04 bd d5 c7 0c bc
       -0.13079445 0.079167835 -0.032338917 -0.008592566
0002a0 b7 b7 c8 3c 7d 18 a1 3d 15 0a d0 3d d4 8d 0f 3d
       0.024501665 0.07865999 0.10158173 0.035047367
0002b0 cd bd 1b 3e 6f 67 af 3d 20 b3 80 bd 44 52 82 3d
       0.15209122 0.0856465 -0.062841654 0.06363347
0002c0 32 c8 19 3e a1 c2 ba 3d 0c ca 5b bd 30 0f 26 3e
       0.15017775 0.09119154 -0.053659484 0.16216731
0002d0 24 68 85 bd e8 e6 94 3d d1 57 28 3e 7b 58 11 be
       -0.06514004 0.07270604 0.1643975 -0.14193909
0002e0 e4 95 2d 3e db f6 70 3d 52 78 aa 3d 75 9c 24 3e
       0.1695171 0.05882917 0.083237305 0.16075309
0002f0 8c 88 20 bb 4c 56 bf bd 4b c4 03 be d5 41 40 bd
       -0.002449545 -0.09342632 -0.12867849 -0.046937782
000300 41 a7 d4 3d 41 a2 16 bd 30 f0 08 3e e4 35 0c be
       0.10383464 -0.03677583 0.13372874 -0.13692433
000310 90 6c d2 3d d6 f8 00 3e 26 da 80 3d 90 99 16 3e
       0.10274613 0.12594923 0.062916085 0.14707017
000320 d8 d4 0b 3e 8e 17 7f bd bf 54 84 3d aa 40 5f bd
       0.13655412 -0.062278323 0.064614765 -0.054505028
000330 d0 bb 27 3e 40 c9 fc 3c e7 f5 f5 3d c2 12 ea bd
       0.16380239 0.030857682 0.12009793 -0.11429359
000340 26 5f 3d 3e 2c 6c 72 3d 9c d7 38 3e e6 7f 3e 3d
       0.18493327 0.059185192 0.18050998 0.046508692
000350 e7 b7 70 3c 9b f6 59 3d d6 b6 fe 3d 6a 9c e7 3d
       0.014692283 0.053213697 0.12437217 0.113091305
000360 2a 66 0b be 34 65 e6 3d da 5b 1f 3e 7d b3 40 bd
       -0.13613191 0.11249772 0.15562382 -0.047046173
000370 07 03 12 3d 10 a3 2f 3e 26 82 4f 3d 7e 40 1d 3e
       0.03564742 0.17152047 0.05066123 0.15356633
000380 a2 f5 c3 3d f6 14 b2 bd bc 1c 2c 3e 93 b3 9b bd
       0.09568335 -0.08695404 0.16807836 -0.076026104
000390 fd fc 14 bd 80 f2 05 bc e8 bd 08 3e e3 29 d4 3d
       -0.03637408 -0.008175492 0.13353693 0.10359552
0003a0 cf 51 8e 3c 10 75 8a 3d 60 29 24 be 87 b4 ff bd
       0.017372994 0.06760609 -0.16031408 -0.12485605
0003b0 bf 36 ec bc 0e 80 8b 3d 42 9b 02 3e 32 0c f2 bc
       -0.028834699 0.06811534 0.12754539 -0.02954683
0003c0 55 e8 11 3e cb 54 b0 bd da 86 11 3c fb a9 a9 bd
       0.14248784 -0.08609923 0.008882249 -0.08284374
0003d0 5a 02 10 3e a1 1c 72 3d f9 ea f9 bc 29 0b b9 bb
       0.14063397 0.059109334 -0.030507552 -0.0056470823
0003e0 f0 79 26 be a3 57 bf bb b3 d5 82 bd 44 b5 a0 bd
       -0.16257453 -0.0058393045 -0.06388416 -0.07847074
0003f0 07 82 14 3e 56 64 06 be e5 9d 81 3d b4 50 fc bd
       0.14502726 -0.13124213 0.06328944 -0.123200804
