output/FT-S-MoME/ts_encoder_epoch1.pt (torch, 376236 bytes, 34 tensors)

proj.weight f4 [32, 8]
-0.2126532 -0.21399269 0.12508994 -0.26462436 0.27717578 0.3369269 -0.09187128 0.25256282
-0.2435744 0.20905532 -0.1521175 0.06916015 0.09194934 0.27126932 -0.27630237 -0.07790184
-0.32312697 0.01763375 -0.18313901 0.32076833 0.039514415 0.28670147 0.16896729 -0.24113424
0.35032293 0.24469262 -0.31441164 -0.31763548 0.17904554 0.24560522 -0.13002059 -0.295191
0.3587858 -0.052758604 0.14278202 -0.26351142 -0.283134 0.11860111 -0.23357528 -0.3043867
0.14129 -0.22769104 -0.0031609465 0.005743256 0.17852046 0.019037455 0.06692263 -0.19123289
-0.24940522 0.25075713 0.23288074 -0.087218724 0.27311584 -0.23550507 0.003893931 -0.1691335
0.0598505 -0.08502666 -0.028323915 -0.030288473 -0.12122187 -0.060359113 0.082609735 0.20353161
-0.12854423 0.26225746 -0.09666694 0.086528584 0.25210482 -0.34407228 0.04466639 -0.19284685
0.16245748 -0.12029545 -0.19596201 0.15911525 0.26603025 0.27639115 -0.08280392 0.28276616
-0.004745154 -0.2620934 -0.07374131 0.011649427 -0.06375819 0.06175987 -0.01609211 -0.18981668
-0.3058233 0.089906864 0.103453785 0.013553563 0.012443591 -0.24489436 -0.16678303 0.10779869
-0.23299883 -0.10711372 0.24132662 -0.08620334 0.33520344 0.17869999 -0.30167598 -0.1277611
0.21278045 0.18683177 0.3254166 0.33787158 0.30081773 0.10377126 -0.00739361 0.15534168
0.077502795 0.23569632 -0.14509714 -0.2375639 -0.33711794 0.35204047 0.34175986 0.15612894
0.24163027 -0.09205064 -0.06088173 -0.33221215 0.3068024 -0.2806862 0.2516367 -0.12677409
0.029849827 -0.34188145 -0.067962416 0.34202838 0.10040375 -0.16613346 -0.12538117 0.0313893
0.16530956 0.2535433 -0.21700539 0.317221 0.30298832 -0.16765681 -0.3251514 0.20550501
-0.34340528 -0.19559717 0.18022859 0.28755838 -0.33462262 -0.24971628 0.057439376 0.08037297
0.2850207 -0.16219318 -0.15368031 -0.30531192 -0.09104654 -0.09746816 0.22814947 -0.18796676
0.13735938 0.35759208 0.058091093 -0.1504513 0.18117854 0.2154185 0.3542302 -0.05403234
0.09167931 0.058407575 -0.33734784 -0.16323262 0.07744195 0.09568852 0.25207034 -0.24355245
0.09151764 0.05404566 -0.14821489 -0.12187283 -0.3210332 0.2594531 0.022292217 -0.09772035
-0.1518176 0.28104213 0.17171702 -0.037557345 -0.24545771 0.07490716 0.1989806 -0.042491972
-0.075631306 0.2594874 0.27987948 0.29754606 0.29330721 -0.24710356 -0.115726754 -0.04621651
-0.060156517 0.121012986 -0.34576124 -0.0049649556 0.33581677 0.27599022 0.06550922 -0.33835652
0.083838716 -0.19670215 0.0701857 0.34856755 -0.056225907 0.015342447 0.03989976 -0.13835754
-0.10519401 0.34883595 -0.04619496 -0.30104557 0.051576186 0.20103967 -0.27443197 0.11392612
-0.32597563 -0.07245522 -0.005720912 -0.007770275 0.048249535 -0.024095235 0.18137228 0.33185953
-0.16174261 -0.039237525 -0.031656787 -0.24735439 -0.35435653 -0.24479397 0.1117409 0.24502483
0.22681548 -0.13977338 -0.0015997514 0.13324846 -0.10917652 0.14706531 -0.24734661 0.24365225
-0.0884689 -0.17035198 -0.023956198 0.18030967 0.21935357 -0.119627476 -0.1471167 -0.3454336
00000000: c3c1 59be e620 5bbe 9417 003e d87c 87be
00000010: fce9 8d3e af81 ac3e 0227 bcbd ea4f 813e
00000020: 916b 79be 9912 563e b1c4 1bbe d6a3 8d3d
00000030: f04f bc3d d0e3 8a3e 8177 8dbe 008b 9fbd
00000040: e670 a5be a774 903c cb88 3bbe bf3b a43e
00000050: ded9 213d 89ca 923e c305 2d3e e5eb 76be
00000060: 875d b33e b490 7a3e 90fa a0be 1ea1 a2be
00000070: b757 373e ef7f 7b3e 1e24 05be 4623 97be
00000080: c6b2 b73e 6819 58bd 7335 123e f8ea 86be
00000090: f1f6 90be 24e5 f23d 5c2e 6fbe 93d8 9bbe
000000a0: 53ae 103e d727 69be e227 4fbb ec31 bc3b
000000b0: 11ce 363e 70f4 9b3c bb0e 893d 8ed2 43be
000000c0: 1564 7fbe 3d63 803e 4a78 6e3e bb9f b2bd
000000d0: d7d5 8b3e 3e28 71be 5231 7f3b 5531 2dbe
000000e0: cc25 753d 7522 aebd 8e07 e8bc 881f f8bc
000000f0: 2c43 f8bd 1e3b 77bd 4b2f a93d 976a 503e
00000100: 19a1 03be 9c46 863e 51f9 c5bd e635 b13d
00000110: e213 813e 3e2a b0be 1bf4 363d a579 45be
00000120: 415b 263e 765d f6bd 44aa 48be 1cef 223e
00000130: 1e35 883e 2483 8d3e 1a95 a9bd bac6 903e
00000140: 3d7d 9bbb 1b31 86be af05 97bd 3ddd 3e3c
00000150: a793 82bd ebf7 7c3d 9ad3 83bc 4e5f 42be
00000160: df94 9cbe 1721 b83d 94df d33d c30f 5e3c
00000170: 34e0 4b3c 96c5 7abe 2cc9 2abe 8fc5 dc3d
00000180: 3f97 6ebe 705e dbbd 531e 773e 608b b0bd
00000190: c99f ab3e 21fd 363e 4675 9abe ced3 02be
000001a0: 1ee3 593e d450 3f3e 019d a63e 81fd ac3e
000001b0: c804 9a3e 0786 d43d 1946 f2bb e411 1f3e
000001c0: c9b9 9e3d 605a 713e 5894 14be f343 73be
000001d0: b99a acbe a63e b43e 26fb ae3e 44e0 1f3e
000001e0: ed6d 773e 0c85 bcbd 1f5f 79bd b617 aabe
000001f0: 3415 9d3e 1ab6 8fbe 87d6 803e 11d1 01be
00000200: a087 f43c 160b afbe e12f 8bbd 581e af3e
00000210: 7ba0 cd3d e41e 2abe ec63 00be 1192 003d
00000220: e946 293e 6dd0 813e a936 5ebe ca6a a23e
00000230: 4921 9b3e 3aae 2bbe 3f7a a6be e86f 523e
00000240: d1d2 afbe a04a 48be d88d 383e da3a 933e
00000250: a853 abbe a0b5 7fbe 8d45 6b3d 959a a43d
00000260: 3cee 913e f815 26be 5f5e 1dbe d851 9cbe
00000270: 9c76 babd 639d c7bd 04a0 693e 5c7a 40be
00000280: f0a7 0c3e 4f16 b73e edf0 6d3d e80f 1abe
00000290: de86 393e ab96 5c3e a95d b53e 0451 5dbd
000002a0: 5dc2 bb3d c83c 6f3d dbb8 acbe 7426 27be
000002b0: e399 9e3d 58f8 c33d 5d0f 813e d065 79be
000002c0: 9a6d bb3d fb5e 5d3d a5c5 17be 7698 f9bd
000002d0: 775e a4be 09d7 843e 2b9e b63c 9b21 c8bd
000002e0: 1376 1bbe c1e4 8f3e 96d6 2f3e bbd5 19bd
000002f0: 4459 7bbe ed68 993d 92c1 4b3e 100c 2ebd
00000300: 96e4 9abd 88db 843e 5d4c 8f3e f557 983e
00000310: 5d2c 963e b708 7dbe 2602 edbd 864d 3dbd
00000320: ae66 76bd a8d5 f73d 9e07 b1be 11b1 a2bb
00000330: 2df0 ab3e 974e 8d3e b329 863d 113d adbe
00000340: a2b3 ab3d 4a6c 49be 85bd 8f3d 7277 b23e
00000350: 234d 66bd e35e 7b3c ee6d 233d 99ad 0dbe
00000360: f56f d7bd a09a b23e ed36 3dbd a522 9abe
00000370: 8d41 533d 58dd 4d3e 5982 8cbe 1952 e93d
00000380: 47e6 a6be 6763 94bd 7d76 bbbb cb9d febb
00000390: 4ea1 453d 5f63 c5bc a8b9 393e 7ee9 a93e
000003a0: db9f 25be 87b7 20bd 8caa 01bd 784a 7dbe
000003b0: 386e b5be 45ab 7abe 6ad8 e43d cae7 7a3e
000003c0: 5142 683e c120 0fbe c0ae d1ba 4972 083e
000003d0: f097 dfbd 4a98 163e 6e48 7dbe fa7f 793e
000003e0: 2f2f b5bd c070 2ebe ca3f c4bc 19a3 383e
000003f0: 399e 603e 40ff f4bd c3a5 16be acdc b0be

proj.bias f4 [32]
-0.072704494 -0.31610695 0.22151926 0.10808708 -0.12188445 0.15082099 -0.33012733 0.02258397
0.33136985 -0.022392377 0.12909816 -0.34134504 -0.082348995 0.2962537 -0.04775208 0.047772326
-0.082869485 0.0392633 0.3632378 0.027222974 -0.21406926 -0.037077725 -0.34921703 0.020173097
0.31784192 0.16006932 0.3522498 0.17582174 0.057900213 0.164486 0.22405295 0.07326167
00000000: 18e6 94bd c5d8 a1be f2d5 623e c25c dd3d
00000010: 8e9e f9bd d170 1a3e 7306 a9be 0502 b93c
00000020: 4fa9 a93e 3870 b7bc 4f32 043e c7c4 aebe
00000030: 97a6 a8bd 91ae 973e af97 43bd eaac 433d
00000040: 7ab7 a9bd 8ed2 203d 4efa b93e b702 df3c
00000050: f934 5bbe d0de 17bd 93cc b2be 0d42 a53c
00000060: 2dbc a23e 36e9 233e 165a b43e 9d0a 343e
00000070: c628 6d3d 056f 283e 236e 653e 370a 963d

EiLM.0.gamma_generator.weight f4 [1, 32]
0.122558735 -0.13983017 -0.17172742 0.035406798 -0.11086393 0.1720458 -0.15318066 -0.020501388
0.10730583 -0.06621483 0.06230434 -0.05861893 -0.12478629 0.13724029 -0.13829115 -0.09063608
0.08380753 -0.029480616 0.047452148 -0.11911695 -0.17329021 0.07895084 0.17263646 -0.0106396675
-0.14017572 0.040217288 0.0551997 0.08763091 -0.17404793 0.09711869 0.17158261 -0.05933718
00000000: 1300 fb3d a42f 0fbe 50d9 2fbe b806 113d
00000010: a10c e3bd c62c 303e 64db 1cbe 87f2 a7bc
00000020: 29c3 db3d a49b 87bd d632 7f3d 671a 70bd
00000030: f48f ffbd b888 0c3e 329c 0dbe 699f b9bd
00000040: 48a3 ab3d 5581 f1bc 2f5d 423d 96f3 f3bd
00000050: fd72 31be fab0 a13d 9dc7 303e 0052 2ebc
00000060: 398a 0fbe e2ba 243d 1519 623d d677 b33d
00000070: 9f39 32be 2ae6 c63d 5ab3 2f3e 8b0b 73bd

EiLM.0.beta_generator.weight f4 [32, 32]
0.054127302 0.03612533 -0.10593804 -0.08354588 0.08970435 -0.05751463 0.14589201 -0.15093362
0.040516626 -0.04140203 -0.13326111 -0.00023042738 -0.104495384 -0.033425037 -0.0056994963 0.0607213
0.12091061 0.009809407 0.0745868 0.14585872 -0.08131613 -0.17492618 -0.045957953 -6.209373e-05
0.12563238 -0.084818654 0.1801374 0.053934842 -0.03995827 -0.15460189 -0.1636095 -0.114206865
-0.05000179 -0.104685515 -0.18246108 -0.020112291 -0.15867859 -0.14877465 -0.15231156 0.11469876
0.00088462105 -0.17799693 0.0828625 -0.016191235 0.09741772 -0.16337258 -0.08145365 0.059156366
-0.12951632 0.09556947 0.005464755 -0.09890705 0.097731315 0.03763218 0.117129974 -0.055866394
-0.0073620323 -0.0504851 -0.17952003 -0.15719959 -0.16290882 0.17004593 0.013967706 0.028957505
-0.14787091 -0.060041294 -0.02518956 0.03072908 -0.17970055 0.10727522 0.09134376 -0.13612379
0.065305494 -0.07633512 -0.040216032 0.016366271 0.071305856 -0.032326013 -0.16130209 -0.0046968474
-0.1488953 -0.16121396 -0.10163122 0.021904541 -0.036041867 -0.11958721 0.15730001 -0.16765158
0.06528525 0.051690437 0.009083347 -0.067408 0.10792464 -0.12924877 -0.036285385 0.013682985
0.0864556 -0.083555944 -0.14330173 -0.16091813 -0.05091434 0.0321465 0.023581797 0.14931734
-0.07459357 -0.09991115 -0.008407981 -0.1645729 -0.021487772 0.11811792 -0.00546345 0.11592575
-0.14378858 -0.16766313 0.121265 -0.008502984 -0.08987983 0.12279993 0.07633233 0.07573146
0.026283873 -0.0573812 -0.08849044 -0.030073432 0.03129008 0.05877733 -0.12779728 -0.08930954
0.10386239 -0.14746176 -0.078229636 0.15319876 -0.035636585 -0.02809638 -0.00071966357 -0.105398834
0.053370576 0.014568858 -0.16136545 -0.121021286 -0.061090373 0.0778015 -0.16300863 -0.10991084
-0.16142198 -0.10997699 -0.060543284 -0.019935884 -0.16765986 -0.12324454 0.06981034 0.11067139
-0.13224398 0.0040045986 0.07221611 0.13430993 0.14518736 0.105891176 0.14043279 0.020198205
-0.09703835 0.1551011 -0.117010444 0.04898184 0.09310302 0.08148706 -0.15557717 -0.12809636
-0.03661131 -0.13369584 0.013772979 -0.1554552 -0.05330488 -0.09697948 -0.10471721 -0.06108956
-0.08448989 0.16590159 -0.13934979 0.00685116 0.0943805 0.003213353 -0.010139296 -0.047098193
-0.055645425 0.056416105 -0.05137543 -0.14999455 0.03748724 -0.17454255 -0.037175313 -0.10743603
-0.0108154835 -0.00051433564 -0.14986359 -0.1201902 -0.06593221 -0.1131909 0.07627142 0.13506183
0.049729947 0.12617406 -0.09753435 0.06610002 0.017556017 -0.17520341 0.13316259 0.006685068
0.12846602 0.15922546 0.04226819 0.10761446 -0.039111637 -0.02765603 0.15930426 0.06523916
0.08607805 0.15188083 -0.009969347 -0.05450249 0.05897274 0.13059229 -0.15941793 -0.032669365
0.17318507 -0.04026015 0.013579202 -0.082864985 -0.109195225 0.07227033 -0.1303468 -0.060843334
0.024150772 0.15602212 0.09160754 0.15851478 -0.09638429 0.07226513 0.056771964 -0.14987865
-0.123983316 0.08691333 0.098707445 -0.15672095 0.11704474 0.0064809937 -0.117497906 0.03557086
-0.034909904 -0.033283107 0.1106564 0.03227646 0.0047449074 0.028986175 0.1301594 -0.17020725
00000000: 97b4 5d3d 27f8 133d 0bf6 d8bd 1a1a abbd
00000010: eab6 b73d 7694 6bbd b764 153e 588e 1abe
00000020: c3f4 253d 2d95 29bd 9a75 08be e19e 71b9
00000030: ad01 d6bd b1e8 08bd d7c2 babb e6b6 783d
00000040: fb9f f73d a3b7 203c f7c0 983d fd5b 153e
00000050: 1289 a6bd d91f 33be 683e 3cbd 5138 82b8
00000060: c6a5 003e 67b5 adbd f075 383e c8ea 5c3d
00000070: 48ab 23bd f54f 1ebe 4089 27be 4ae5 e9bd
00000080: adce 4cbd 5c65 d6bd 14d7 3abe 88c2 a4bc
00000090: a47c 22be 6258 18be 90f7 1bbe 2fe7 ea3d
000000a0: eae5 673a d444 36be d0b3 a93d 7ba3 84bc
000000b0: f182 c73d 244b 27be 2cd1 a6bd f24d 723d
000000c0: ed9f 04be edb9 c33d b011 b33b c88f cabd
000000d0: 5b27 c83d 3324 1a3d d7e1 ef3d 29d4 64bd
000000e0: 343d f1bb 77c9 4ebd 19d4 37be eef8 20be
000000f0: 92d1 26be 8520 2e3e ced8 643c 4a38 ed3c
00000100: 796b 17be dced 75bd 565a cebc 8dbb fb3c
00000110: 6c03 38be 1cb3 db3d 7012 bb3d 0964 0bbe
00000120: e3be 853d 9655 9cbd 91b9 24bd 8f12 863c
00000130: ce08 923d 4868 04bd 602c 25be 03e8 99bb
00000140: 0278 18be 4615 25be 0724 d0bd 2771 b33c
00000150: a3a0 13bd 24ea f4bd 4113 213e dbac 2bbe
00000160: 46b4 853d 5ab9 533d 52d2 143c 350d 8abd
00000170: 9807 dd3d ca59 04be fc9f 14bd 992e 603c
00000180: a20f b13d 611f abbd b0bd 12be b9c7 24be
00000190: 8e8b 50bd 0cac 033d 9d2e c13c a5e6 183e
000001a0: 83c4 98bd 389e ccbd a1c1 09bc cc85 28be
000001b0: 2007 b0bc cfe7 f13d be06 b3bb 7b6a ed3d
000001c0: 503d 13be e2af 2bbe c959 f83d 1a50 0bbc
000001d0: eb12 b8bd 887e fb3d 2054 9c3d 1819 9b3d
000001e0: 4751 d73c 8d08 6bbd 7a3a b5bd 8f5c f6bc
000001f0: 072a 003d 7fc0 703d 4add 02be ece7 b6bd
00000200: ceb5 d43d 3700 17be dc36 a0bd 23e0 1c3e
00000210: abf7 11bd 612a e6bc cea7 3cba 58db d7bd
00000220: 1b9b 5a3d 38b2 6e3c fc3c 25be 02da f7bd
00000230: e639 7abd 6556 9f3d bceb 26be ef18 e1bd
00000240: ce4b 25be 9e3b e1bd 3cfc 77bd 9450 a3bc
00000250: 07af 2bbe a267 fcbd b9f8 8e3d afa7 e23d
00000260: f76a 07be 0239 833b 0ae6 933d 8b88 093e
00000270: ffab 143e 79dd d83d 9dcd 0f3e b576 a53c
00000280: 0bbc c6bd d3d2 1e3e 2ca3 efbd 2fa1 483d
00000290: ccac be3d b0e2 a63d 9f4f 1fbe b12b 03be
000002a0: bef5 15bd 90e7 08be 10a8 613c a62f 1fbe
000002b0: 3856 5abd 2d9d c6bd fa75 d6bd 0c39 7abd
000002c0: 0909 adbd 1be2 293e b6b1 0ebe b27f e03b
000002d0: 904a c13d 1e97 523b 4a1f 26bc 09ea 40bd
000002e0: 75ec 63bd 9314 673d 0b6f 52bd 2c98 19be
000002f0: 388c 193d 48bb 32be 2445 18bd 6c07 dcbd
00000300: 6d33 31bc 7bd4 06ba d775 19be 4826 f6bd
00000310: 7707 87bd a1d0 e7bd 3134 9c3d a64d 0a3e
00000320: a1b1 4b3d c633 013e 17c0 c7bd 735f 873d
00000330: a3d1 8f3c 8668 33be c65b 083e 6a0e db3b
00000340: 998c 033e 000c 233e 6921 2d3d f864 dc3d
00000350: 8633 20bd e68e e2bc a820 233e 1c9c 853d
00000360: b049 b03d a686 1b3e 7956 23bc 013e 5fbd
00000370: 668d 713d fcb9 053e 743e 23be 50d0 05bd
00000380: 6d57 313e d4e7 24bd 4d7b 5e3c 1eb5 a9bd
00000390: bfa1 dfbd 7702 943d a279 05be dc36 79bd
000003a0: d7d7 c53c 43c4 1f3e bc9c bb3d b351 223e
000003b0: 2065 c5bd beff 933d b889 683d ca79 19be
000003c0: f7ea fdbd 9eff b13d 2127 ca3d 757b 20be
000003d0: 27b5 ef3d 845e d43b bea2 f0bd c0b2 113d
000003e0: b0fd 0ebd de53 08bd d39f e23d 5234 043d
000003f0: 2b7b 9b3b 6a74 ed3c 8148 053e cf4a 2ebe

EiLM.1.gamma_generator.weight f4 [1, 32]
-0.01947004 -0.14198752 -0.16925664 0.12909572 0.026133906 -0.021013472 0.09084286 -0.11251957
-0.13261054 0.008774265 0.02419929 -0.009610621 0.17136818 0.14537176 -0.04311973 -0.047058314
0.07857358 -0.14385095 -0.06374923 0.12361096 0.10234054 0.03704964 0.15360396 -0.058416527
0.078946546 0.041848075 -0.034385692 0.05881934 -0.12215946 0.17077465 0.106559135 0.04305461
00000000: a27f 9fbc 2d65 11be 9d51 2dbe ab31 043e
00000010: c616 d63c 7224 acbc d20b ba3d a970 e6bd
00000020: 0fcb 07be efc1 0f3c 973d c63c de75 1dbc
00000030: 247b 2f3e 56dc 143e 509e 30bd 38c0 40bd
00000040: 2feb a03d aa4d 13be f58e 82bd be27 fd3d
00000050: eb97 d13d 5dc1 173d 5b4a 1d3e 2b46 6fbd
00000060: baae a13d e368 2b3d 03d8 0cbd 8cec 703d
00000070: bd2e fabd 8ddf 2e3e ad3b da3d 085a 303d

EiLM.1.beta_generator.weight f4 [32, 32]
0.0186694 0.091468915 0.008240022 -0.16718978 -0.16972539 0.12740801 0.00079268985 0.15246736
-0.12794425 0.1741108 0.054101188 0.14002834 -0.11829927 0.043826256 -0.031336106 -0.13200404
0.019238506 0.15492244 0.116180986 0.16662814 -0.065143734 0.1058354 -0.16564977 0.13874091
-0.15558206 0.038925637 0.08996538 -0.09766683 0.12853515 -0.11013689 -0.108556464 -0.022717044
-0.04449061 -0.012887625 -0.16130482 -0.009116861 0.14294586 -0.0962778 0.116402954 0.16333614
0.004178403 -0.116315715 -0.1394255 0.05854531 -0.14178547 -0.12754849 0.1804164 0.11833114
0.031711124 -0.14674704 -0.13961613 -0.11764754 -0.06159702 0.11246671 -0.06457774 -0.051131368
0.14826958 -0.0601189 -0.08203391 0.09133555 0.17166257 -0.09286915 -0.017307695 0.053270265
-0.027301846 0.05977126 0.0011405416 -0.13910334 0.03778618 0.16393037 0.06289954 -0.06471494
-0.019884765 -0.092401445 -0.10134573 -0.16458035 -0.024426114 -0.1343937 0.14846845 -0.13411786
0.13573283 -0.10364877 0.1445758 0.16816634 0.03374137 0.0049356613 0.094217226 -0.14506176
0.108582444 -0.081945084 0.0015302002 -0.05116283 -0.0047882698 0.08022235 -0.06794232 -0.17214671
0.007656294 -0.13937536 -0.042774536 0.17736098 -0.16127475 -0.061344624 0.04423089 0.16719712
-0.05501262 0.12121547 0.13907495 0.13272876 0.10145296 -0.079355046 -0.051381234 -0.017957333
-0.04809977 -0.050012942 -0.16854647 0.08433721 0.014251802 0.05467139 0.17287488 -0.056835853
-0.074275464 0.15815051 -0.17442264 -0.07112539 0.053023726 -0.0794608 -0.16067562 -0.11176413
0.056297135 -0.037860267 -0.07721816 0.07873702 -0.0557411 -0.09535985 0.117776915 0.04616843
-0.1603637 -0.15841785 -0.15794164 0.08794316 -0.07185624 0.09561247 -0.15314981 0.18049721
0.020769745 0.012675094 0.0017717329 -0.12932922 -0.036311086 -0.13158447 0.103745505 -0.042593755
-0.07337616 -0.123469144 0.14897619 0.099357605 0.036252655 0.060916103 -0.090869434 0.016978359
-0.17350462 0.01801436 0.15576771 0.13739882 -0.1228118 0.0225142 0.16182655 0.092975944
-0.17268114 -0.1551728 0.07133649 0.02195931 -0.080320634 0.04878054 -0.15712504 -0.07431974
-0.15304722 0.16385955 0.04452594 -0.17591323 0.14509921 -0.031215468 -0.05398931 0.12654966
-0.14377302 -0.06016238 -0.15303995 0.10187898 -0.053240016 0.033650056 0.08612097 0.07909176
0.13826469 -0.07625645 -0.0546488 -0.16595228 -0.07829661 -0.090591796 -0.06650112 0.16059817
-0.1302556 0.07048386 0.117047206 -0.008156591 -0.1060814 0.16050318 0.18122263 0.010214318
-0.14980936 -0.07302025 0.09177236 0.08111697 -0.0075603463 -0.11643433 -0.12212364 -0.067809954
-0.08901267 0.015580197 -0.060322758 0.14853892 -0.0006687501 0.049400307 -0.12579522 0.15094887
-0.15485623 -0.016458053 -0.022587407 -0.12396647 0.008184702 -0.05121553 0.12135928 -0.059837796
-0.057486665 0.08121368 -0.084522665 -0.020993788 -0.16858348 -0.1478617 -0.0017635217 -0.114027
-0.13620876 -0.06303276 -0.15227088 -0.06054216 -0.06541674 -0.15543701 -0.15362363 0.15978079
-0.12401352 -0.13116668 -0.14733617 0.028554356 0.078943595 0.011717406 -0.116381854 -0.0079632895
00000000: 92f0 983c 0e54 bb3d 2801 073c cc33 2bbe
00000010: 7ecc 2dbe 3f77 023e 84cc 4f3a 6720 1c3e
00000020: d103 03be 1a4a 323e 3599 5d3d 9763 0f3e
00000030: e346 f2bd 2983 333d 4a5a 00bd 112c 07be
00000040: 129a 9d3c fda3 1e3e 4cf0 ed3d 91a0 2a3e
00000050: 146a 85bd 3bc0 d83d 18a0 29be 1912 0e3e
00000060: e750 1fbe 7d70 1f3d c53f b83d 8c05 c8bd
00000070: b89e 033e 738f e1bd da52 debd 1819 babc
00000080: c93b 36bd 9e26 53bc 172d 25be e35e 15bc
00000090: 6660 123e 4c2d c5bd ac64 ee3d 9741 273e
000000a0: fcea 883b ef36 eebd 8fc5 0ebe 35cd 6f3d
000000b0: 3630 11be 129c 02be 14bf 383e 9957 f23d
000000c0: 86e3 013d db44 16be 88f7 0ebe 32f1 f0bd
000000d0: 284d 7cbd f254 e63d 5641 84bd 206f 51bd
000000e0: fbd3 173e 3c3f 76bd 6501 a8bd 220e bb3d
000000f0: 50c8 2f3e 2e32 bebd dec8 8dbc ec31 5a3d
00000100: 1fa8 dfbc b5d2 743d 3a7e 953a 1b71 0ebe
00000110: aec5 1a3d 5ddd 273e 79d1 803d 4489 84bd
00000120: 60e5 a2bc f83c bdbd 5a8e cfbd c087 28be
00000130: 4619 c8bc 819e 09be 1d08 183e 3156 09be
00000140: 8cfd 0a3e ce45 d4bd ae0b 143e cc33 2c3e
00000150: 6434 0a3d 54bb a13b f6f4 c03d 128b 14be
00000160: 7960 de3d d3d2 a7bd 0091 c83a 1e90 51bd
00000170: ebe6 9cbb 9e4b a43d 5825 8bbd 3a47 30be
00000180: a6e1 fa3b 6ab8 0ebe 5a34 2fbd 1e9e 353e
00000190: 3525 25be 8044 7bbd 732b 353d b935 2b3e
000001a0: ea54 61bd d13f f83d aa69 0e3e 0cea 073e
000001b0: 92c6 cf3d e684 a2bd 2175 52bd 421b 93bc
000001c0: 4404 45bd 5fda 4cbd 7297 2cbe fdb8 ac3d
000001d0: 6480 693c 1cef 5f3d 1d06 313e b6cc 68bd
000001e0: bc1d 98bd 35f2 213e d99b 32be 30aa 91bd
000001f0: 682f 593d 58bc a2bd 2688 24be 98e4 e4bd
00000200: d397 663d 5e13 1bbd 8e24 9ebd e040 a13d
00000210: c850 64bd 064c c3bd 0635 f13d 1c1b 3d3d
00000220: 6236 24be 4a38 22be 74bb 21be 8b1b b43d
00000230: 5d29 93bd 78d0 c33d 4ed3 1cbe 43d4 383e
00000240: 5025 aa3c 33ab 4f3c 7e39 e83a e16e 04be
00000250: efba 14bd 14be 06be 8678 d43d ca76 2ebd
00000260: 3d46 96bd 64dd fcbd 378d 183e 007c cb3d
00000270: aa7d 143d 2a83 793d c119 babd 3316 8b3c
00000280: 32ab 31be da92 933c 9281 1f3e 47b2 0c3e
00000290: c184 fbbd b36f b83c dcb5 253e 2c6a be3d
000002a0: 53d3 30be 9ee5 1ebe de18 923d 03e4 b33c
000002b0: 257f a4bd 1ace 473d 63e5 20be f334 98bd
000002c0: 69b8 1cbe ccca 273e d560 363d 9922 34be
000002d0: e394 143e 95b7 ffbc e523 5dbd 3c96 013e
000002e0: 3c39 13be d46c 76bd 81b6 1cbe eda5 d03d
000002f0: 3412 5abd a4d4 093d 3160 b03d dcfa a13d
00000300: 4295 0d3e 572c 9cbd 6cd7 5fbd 65ef 29be
00000310: f959 a0bd 3188 b9bd bd31 88bd d973 243e
00000320: b961 05be d859 903d 72b6 ef3d 39a3 05bc
00000330: 3441 d9bd f25a 243e 6d92 393e f459 273c
00000340: a067 19be a48b 95bd 26f3 bb3d a720 a63d
00000350: c8bc f7bb 1f75 eebd f51b fabd f2df 8abd
00000360: 464c b6bd 1544 7f3c ff14 77bd 961a 183e
00000370: 0f4f 2fba fa57 4a3d 76d0 00be 5792 1a3e
00000380: a292 1ebe 0ad3 86bc 3a09 b9bc 22e2 fdbd
00000390: 2119 063c 60c7 51bd 378b f83d 7a18 75bd
000003a0: 2377 6bbd 5c53 a63d 381a adbd 2afb abbc
000003b0: 26a1 2cbe 0f69 17be f825 e7ba fd86 e9bd
000003c0: 4f7a 0bbe 5217 81bd e6ec 1bbe 0efb 77bd
000003d0: 36f9 85bd e12a 1fbe 834f 1dbe 939d 233e
000003e0: cdfa fdbd 8f50 06be 4bdf 16be d3ea e93c
000003f0: 2ead a13d 5dfa 3f3c 9c59 eebd 7578 02bc

EiLM.2.gamma_generator.weight f4 [1, 32]
0.1059867 -0.09224194 0.09070122 -0.15737185 -0.10984254 -0.03493688 0.023771163 -0.10580151
0.17291656 -0.11576367 0.118695125 0.15750149 -0.10403361 -0.1039398 -0.016475938 -0.01652145
-0.00395229 -0.07253596 0.0505908 -0.08729903 -0.14014252 -0.024058001 0.105243415 -0.13290668
-0.13827589 -0.070413 -0.059584796 0.031580046 -0.17206177 0.12638253 0.11076798 -0.10476342
00000000: 8e0f d93d 58e9 bcbd 90c1 b93d 1626 21be
00000010: 20f5 e0bd f919 0fbd bebb c23c 76ae d8bd
00000020: 0a11 313e 8115 edbd 6e16 f33d 1248 213e
00000030: 930f d5bd 64de d4bd 8cf8 86bc fe57 87bc
00000040: 3682 81bb bc8d 94bd 4c38 4f3d d5c9 b2bd
00000050: 8581 0fbe 4915 c5bc dc89 d73d b018 08be
00000060: 3298 0dbe b134 90bd 300f 74bd 145a 013d
00000070: f630 30be 6c6a 013e 53da e23d 348e d6bd

EiLM.2.beta_generator.weight f4 [32, 32]
-0.021124808 -0.13234992 -0.0811242 -0.17147964 -0.17674594 0.13810118 0.15995419 0.10793467
0.018162504 -0.009651713 -0.04053484 -0.0026821229 -0.1509764 0.11790232 -0.05166278 0.03760917
0.09146048 -0.06330188 -0.038844362 -0.030395787 -0.15838924 -0.13795313 -0.15989345 -0.03972977
0.09116883 -0.1587744 -0.1047732 -0.15582775 -0.16086431 -0.17596416 0.036169823 0.06847601
0.13737468 0.0534824 -0.14121185 -0.044815365 0.04811201 -0.10607431 0.0904261 0.09844515
0.013814056 0.13077018 -0.08535686 -0.12198381 0.14318085 0.081978574 -0.039659157 0.045857407
-0.03042878 -0.12243315 0.09022063 0.014730039 -0.11372914 -0.07102973 -0.04649216 0.02030847
0.008290638 -0.16816948 -0.12247519 0.054409895 0.10096179 -0.027905151 -0.09167755 0.041863304
-0.060407873 -0.10358099 0.16424593 0.12423012 -0.14759329 0.11873909 -0.064382605 0.006540861
0.13151889 -0.12510258 -0.17432888 0.033696488 -0.14785427 -0.051955346 -0.03804613 0.036347404
0.08702011 0.15785982 0.100652516 0.16828158 0.14612125 -0.14270076 0.074831836 0.16491799
0.12494247 0.121919654 -0.082916446 0.05645811 0.08374704 0.048973788 0.11479724 -0.05369168
0.0500176 -0.14063483 0.14240065 -0.021452796 -0.03300025 -0.07980645 -0.15396404 -0.0039920285
-0.16664997 -0.11310613 0.060446285 0.038103558 0.028191688 -0.08734184 0.09438269 -0.07081916
0.17112903 -0.13709645 -0.05461813 0.029791826 -0.033439875 0.1391674 -0.111716025 0.08706215
0.1369694 0.06378114 0.04819086 -0.14700525 -0.08920487 -0.12037547 0.117139466 -0.042632207
-0.030408217 0.058505576 -0.029197812 -0.1673836 0.13927434 0.043313686 0.059806235 0.1655119
0.16823407 -0.03737696 -0.1229488 -0.17538017 0.18139915 0.10395147 -0.098381534 -0.042717908
-0.15303478 0.07019829 -0.08244394 0.07045203 0.056932904 -0.0722437 -0.06833181 0.01313592
0.014319136 0.0010689009 -0.15427704 -0.16132592 0.01914678 -0.16072106 0.11031768 0.17543131
0.028092457 -0.12029372 -0.050342716 0.106591485 -0.15512607 0.015053562 0.10002383 -0.15336753
-0.08589341 0.09722248 0.17154898 0.095482334 -0.07254487 -0.12549876 -0.11547991 0.16050352
-0.047937866 -0.066418074 0.12583575 0.12879722 -0.12273002 0.16068655 0.04092514 0.04554915
-0.1298453 -0.049786005 0.15034947 -0.16262947 -0.087155536 0.06487299 -0.031340893 0.14279106
-0.04817044 0.057407808 -0.119321875 -0.10604363 0.013767033 -0.02137466 -0.09488346 0.081874736
-0.16127576 0.01551355 -0.1533498 0.15245658 -0.07241963 -0.111873314 0.08163652 0.058333416
0.07476142 0.17637724 -0.1047992 -0.16889332 0.11540707 0.09960656 0.043102965 -0.11351708
-0.123180866 0.15979753 -0.033020377 0.15905438 -0.09344787 0.010495116 0.0640984 0.04669616
0.12561356 0.14628977 -0.0659361 0.063191734 -0.028992705 0.10652308 0.06112557 0.15526162
-0.15950546 -0.05029431 0.08695352 0.17199448 -0.12399694 0.088292 0.15599035 -0.034193818
0.0910406 -0.0348108 0.11123184 0.04735112 -0.086637706 0.1022411 -0.031561177 -0.01856438
-0.02966998 -0.090946205 0.08789865 0.16271013 -0.12735629 -0.14966835 -0.13921857 -0.056862827
00000000: ef0d adbc bd86 07be 7224 a6bd 5c98 2fbe
00000010: e3fc 34be 656a 0d3e 08cb 233e da0c dd3d
00000020: 88c9 943c 3822 1ebc dc07 26bd 8ec6 2fbb
00000030: 8f99 1abe c676 f13d 5a9c 53bd 130c 1a3d
00000040: a24f bb3d 6ba4 81bd 441b 1fbd 9600 f9bc
00000050: ca30 22be 9643 0dbe 1cbb 23be afbb 22bd
00000060: b9b6 ba3d c295 22be 5593 d6bd 4f91 1fbe
00000070: 9db9 24be f32f 34be cf26 143d 263d 8c3d
00000080: f3ab 0c3e 5c10 5b3d d799 10be 5190 37bd
00000090: 1911 453d 7d3d d9bd 5231 b93d 9c9d c93d
000000a0: 5a54 623c 9ee8 053e 94cf aebd a6d2 f9bd
000000b0: 009e 123e 62e4 a73d a471 22bd fad4 3b3d
000000c0: c745 f9bc 3bbe fabd 98c5 b83d 4356 713c
000000d0: d3ea e8bd 0978 91bd 906e 3ebd f35d a63c
000000e0: 75d5 073c 9f34 2cbe 46d4 fabd e9dc 5e3d
000000f0: 0ec5 ce3d 5899 e4bc 70c1 bbbd db78 2b3d
00000100: 3f6e 77bd 4522 d4bd 1630 283e 5c6c fe3d
00000110: b222 17be 7b2d f33d 07db 83bd b854 d63b
00000120: e3ac 063e e41a 00be 4583 32be 5405 0a3d
00000130: 1c67 17be 21cf 54bd 42d6 1bbd 04e1 143d
00000140: 9937 b23d 01a6 213e e822 ce3d 0252 2c3e
00000150: cfa0 153e 2620 12be 6f41 993d 43e0 283e
00000160: d6e1 ff3d 03b1 f93d 19d0 a9bd 9f40 673d
00000170: 9183 ab3d bd98 483d d11a eb3d cfeb 5bbd
00000180: 41df 4c3d 9402 10be 7ad1 113e c6bd afbc
00000190: 452b 07bd 9071 a3bd c0a8 1dbe 90cf 82bb
000001a0: 4aa6 2abe 30a4 e7bd 8696 773d 7a12 1c3d
000001b0: 41f2 e63c 47e0 b2bd b64b c13d a309 91bd
000001c0: 733c 2f3e 0363 0cbe 43b7 5fbd fd0d f43c
000001d0: 40f8 08bd e681 0e3e 5fcb e4bd a44d b23d
000001e0: b541 0c3e b09f 823d c763 453d 8b88 16be
000001f0: 0bb1 b6bd 6a87 f6bd d1e6 ef3d 1c9f 2ebd
00000200: a71a f9bc 8ba3 6f3d 4030 efbc 9b66 2bbe
00000210: ef9d 0e3e b169 313d 62f7 743d f47b 293e
00000220: 8d45 2c3e 9518 19bd 95cc fbbd dc96 33be
00000230: b3c0 393e 82e4 d43d 427c c9bd f9f8 2ebd
00000240: 26b5 1cbe 1fc4 8f3d 5ed8 a8bd 2749 903d
00000250: 7a32 693d 81f4 93bd 8cf1 8bbd 0b38 573c
00000260: cf9a 6a3c 5d1a 8c3a cdfa 1dbe 9f32 25be
00000270: b5d9 9c3c 1094 24be 3cee e13d 44a4 333e
00000280: 2722 e63c 8e5c f6bd 2a34 4ebd a34c da3d
00000290: 5ed9 1ebe 37a3 763c 4bd9 cc3d 610c 1dbe
000002a0: e2e8 afbd 941c c73d 89aa 2f3e 3e8c c33d
000002b0: 6892 94bd bf82 00be bb80 ecbd 095b 243e
000002c0: 7f5a 44bd 3306 88bd 16db 003e 6be3 033e
000002d0: e059 fbbd 048b 243e 1fa1 273d bf91 3a3d
000002e0: 2bf6 04be 69ec 4bbd 36f5 193e 5788 26be
000002f0: 9a7e b2bd 21dc 843d 4f5f 00bd d237 123e
00000300: 5e4e 45bd 7324 6b3d 075f f4bd 672d d9bd
00000310: 1f8f 613c e919 afbc 4252 c2bd f1ad a73d
00000320: 7925 25be 8b2c 7e3c bb07 1dbe 941d 1c3e
00000330: be50 94bd d61d e5bd 0c31 a73d 05ef 6e3d
00000340: 841c 993d 3c9c 343e f7a0 d6bd 5ff2 2cbe
00000350: 8b5a ec3d 86fe cb3d bc8c 303d a57b e8bd
00000360: 4046 fcbd f7a1 233e 6040 07bd 27df 223e
00000370: 9961 bfbd b5f3 2b3c 0646 833d 7944 3f3d
00000380: d7a0 003e fccc 153e 8209 87bd ab6a 813d
00000390: 1c82 edbc c628 da3d ce5e 7a3d e7fc 1e3e
000003a0: 6655 23be 6801 4ebd b014 b23d 521f 303e
000003b0: 1cf2 fdbd 70d2 b43d efbb 1f3e d10e 0cbd
000003c0: 7e73 ba3d c595 0ebd 85cd e33d 3ff3 413d
000003d0: 1c6f b1bd c863 d13d 4b46 01bd 5414 98bc
000003e0: 750e f3bc 0142 babd 3504 b43d 7c9d 263e
000003f0: b069 02be a942 19be 508f 0ebe ffe8 68bd

EiLM.3.gamma_generator.weight f4 [1, 32]
-0.03665285 -0.026389984 -0.027667923 0.15296246 -0.052449822 -0.12882455 0.09799922 0.1648208
-0.14756212 0.116435654 -0.11884549 0.07228573 -0.024259243 -0.090194985 0.092974044 -0.08883117
-0.16539796 -0.097009525 -0.11585595 0.11712285 -0.14800602 -0.03303018 0.0874751 0.14032108
0.07187391 0.044945464 -0.07948048 0.117953 -0.15410526 -0.11519459 -0.12868883 -0.14700833
00000000: 4d21 16bd cf2f d8bc d7a7 e2bc 31a2 1c3e
00000010: a0d5 56bd 95ea 03be d1b3 c83d c9c6 283e
00000020: 861a 17be d175 ee3d 4465 f3bd 8a0a 943d
00000030: 52bb c6bc 26b8 b8bd 2d69 be3d 1eed b5bd
00000040: 155e 29be eeac c6bd e245 edbd 1bde ef3d
00000050: e48e 17be a74a 07bd 2526 b33d 54b0 0f3e
00000060: a132 933d bc18 383d a9c6 a2bd 5891 f13d
00000070: c5cd 1dbe 24eb ebbd 01c7 03be 5a89 16be

EiLM.3.beta_generator.weight f4 [32, 32]
-0.09264146 0.17810501 -0.12096485 -0.04014225 -0.061358865 -0.029828992 -0.08353286 0.019522306
-0.100019835 -0.16186407 0.06787964 -0.04384567 0.07727464 -0.05338436 -0.15625656 0.048230503
0.1425792 -0.16157967 -0.016305456 -0.056778476 0.15346423 -0.07371813 -0.007559326 0.103692114
0.07050188 -0.009943727 -0.15783833 -0.10310864 -0.0062092287 -0.181657 0.015328094 0.05008873
-0.079143465 -0.16039233 0.09338024 0.1299225 -0.17397766 -0.008852387 0.0721386 0.0072480245
-0.14448012 0.1699421 -0.060307436 -0.039013572 0.16061872 -0.11711845 0.1127763 -0.13563366
0.031855963 0.1626333 0.09132239 0.05023088 0.045289826 -0.050893746 0.08573497 -0.08952964
0.10359449 0.021565275 -0.015159385 -0.048949465 0.16282113 0.088173434 0.12092666 -0.085137844
0.035974935 0.16653122 0.16677192 0.022450885 0.10697067 -0.069366984 0.039339297 0.01483086
0.01361021 0.07996984 -0.08582342 0.009583893 -0.06803607 -0.010417664 -0.16629131 -0.009130391
3.0004432e-05 0.11551577 -0.13467339 -0.07550473 0.013821889 0.1143347 -0.07941809 -0.09960407
-0.14799999 0.044929497 -0.108495876 -0.03510973 0.007522074 -0.16238534 0.14918046 -0.123110205
0.09259601 -0.07803918 -0.10100221 0.09713507 -0.056109615 -0.12027294 -0.13814493 0.016268497
-0.05151953 -0.039878953 -0.1533372 -0.086730696 -0.041019063 -0.14439206 0.007211434 0.11350145
-0.02222486 0.028416106 -0.055976693 -0.16557063 -0.1340401 0.09549041 0.0127114775 0.14218354
-0.13751394 0.1559932 0.102289535 -0.042116977 -0.09140219 0.14504364 0.04780302 0.10646732
0.10138311 -0.072245084 0.06621381 -0.052180134 -0.12433969 0.14551808 -0.11380781 0.15326132
-0.02640009 0.09187405 0.15829185 -0.03732889 0.124235265 -0.12667517 -0.14016673 0.106145196
0.10240075 -0.027214045 0.08263474 0.14273992 0.16944002 -0.17475341 0.049515594 -0.05780781
0.14271414 -0.035882294 -0.15878397 -0.050901543 0.086439714 0.00388104 0.13719212 0.032402392
-0.11171461 0.17371371 0.099704705 -0.11845925 0.07592925 0.13452898 0.013620706 0.03248528
0.008591748 0.053155456 0.049256478 0.13997737 -0.10303353 -0.047764055 0.100559 0.052200478
-0.025420304 -0.16559058 0.1533792 -0.15244074 -0.16746788 -0.10152493 0.16835362 0.10490658
0.051662408 -0.103082724 0.03214592 -0.120564796 0.045793913 0.071107596 -0.06486386 0.0534358
-0.07143271 0.17303552 0.06054536 -0.074480236 -0.019642647 0.112336114 0.09410245 -0.043699592
-0.1551276 0.13243994 0.17045456 -0.13591538 -0.07804713 -0.057012737 0.0129575655 0.10687283
0.06505154 0.12314416 0.063963376 0.09475361 -0.10021231 0.15124555 0.12726977 0.05448536
0.0003670203 -0.05630216 0.061153404 0.12625201 0.14716838 0.043451004 -0.00876688 -0.039034802
0.049630783 0.1599728 0.03608968 -0.11663301 -0.033921435 0.11119826 -0.10522804 0.056105666
0.1029979 0.06381087 -0.09958189 0.017623087 0.087953195 0.10499995 -0.016226638 -0.1224498
-0.14579292 -0.1371512 0.13454263 0.06994582 -0.15604953 -0.12042815 -0.06451768 -0.05077969
-0.09690033 0.13719569 0.08224769 -0.10003009 -0.10342058 -0.16551991 -0.16781986 -0.064930245
00000000: ceba bdbd 2961 363e 6bbc f7bd 336c 24bd
00000010: 6f53 7bbd ee5b f4bc 4713 abbd 3eed 9f3c
00000020: 33d7 ccbd b2bf 25be 7b04 8b3d 8497 33bd
00000030: 2b42 9e3d 8fa9 5abd b801 20be 598d 453d
00000040: 4800 123e 2475 25be 0593 85bc 8c90 68bd
00000050: ba25 1d3e 88f9 96bd 39b4 f7bb 885c d43d
00000060: 4a63 903d 04eb 22bc 5fa0 21be 9f2a d3bd
00000070: c976 cbbb 4b04 3abe b022 7b3c d729 4d3d
00000080: f815 a2bd e33d 24be 243e bf3d 670a 053e
00000090: 3327 32be 9a09 11bc 67bd 933d d680 ed3b
000000a0: 99f2 13be 4d05 2e3e ee04 77bd b2cc 1fbd
000000b0: 3c79 243e ccdb efbd 43f7 e63d 8de3 0abe
000000c0: 667b 023d 5889 263e 3c07 bb3d e5be 4d3d
000000d0: d381 393d f675 50bd d195 af3d 515b b7bd
000000e0: 5929 d43d a9a9 b03c 125f 78bc 3c7f 48bd
000000f0: 95ba 263e 4694 b43d 66a8 f73d c05c aebd
00000100: 745a 133d 2987 2a3e 42c6 2a3e ebea b73c
00000110: 7013 db3d 4710 8ebd 3e22 213d 23fd 723c
00000120: 5cfd 5e3c 3ac7 a33d 30c4 afbd c305 1d3c
00000130: 7f56 8bbd daae 2abc 4548 2abe a397 15bc
00000140: 07b2 fb37 8893 ec3d d2e7 09be 39a2 9abd
00000150: 3475 623c 5028 ea3d f4a5 a2bd 38fd cbbd
00000160: 4f8d 17be fe07 383d 1633 debd 38cf 0fbd
00000170: bb7b f63b 5848 26be c3c2 183e 3421 fcbd
00000180: faa2 bd3d 01d3 9fbd 3fda cebd c0ee c63d
00000190: 32d3 65bd a951 f6bd dd75 0dbe 8345 853c
000001a0: 2506 53bd 1d58 23bd 6d04 1dbe dd9f b1bd
000001b0: 9b03 28bd 83db 13be e54d ec3b 7373 e83d
000001c0: e910 b6bc e5c8 e83c d147 65bd 598b 29be
000001d0: cf41 09be 7a90 c33d cd43 503c 9098 113e
000001e0: 74d0 0cbe aebc 1f3e 2d7d d13d da82 2cbd
000001f0: 1231 bbbd 5286 143e 19cd 433d 8a0b da3d
00000200: f3a1 cf3d 3bf5 93bd 1b9b 873d d6ba 55bd
00000210: cfa5 febd b102 153e 1214 e9bd 89f0 1c3e
00000220: 0045 d8bc 7628 bc3d 4217 223e 2ee6 18bd
00000230: 0f6f fe3d 23b7 01be de87 0fbe a762 d93d
00000240: 7cb7 d13d fdef debc 673c a93d 6a2a 123e
00000250: af81 2d3e 8ff2 32be ddd0 4a3d e2c7 6cbd
00000260: a823 123e 50f9 12bd 4498 22be 237e 50bd
00000270: 4e07 b13d 0c59 7e3b 177c 0c3e 5fb8 043d
00000280: a1ca e4bd 02e2 313e fb31 cc3d c39a f2bd
00000290: cb80 9b3d f7c1 093e 6229 5f3c 490f 053d
000002a0: 67c4 0c3c 89b9 593d 29c1 493d 3a56 0f3e
000002b0: 3e03 d3bd 3ea4 43bd e1f1 cd3d 2bd0 553d
000002c0: 3e3e d0bc 9490 29be 700f 1d3e 6d19 1cbe
000002d0: b37c 2bbe 4dec cfbd e464 2c3e 43d9 d63d
000002e0: f69b 533d 091d d3bd 71ab 033d adea f6bd
000002f0: 6692 3b3d dca0 913d 58d7 84bd 7fdf 5a3d
00000300: 504b 92bd 3930 313e 69fe 773d 1889 98bd
00000310: 9ee9 a0bc 7a10 e63d c9b8 c03d 58fe 32bd
00000320: c5d9 1ebe 569e 073e a48b 2e3e 672d 0bbe
00000330: 2cd7 9fbd 3086 69bd f84b 543c 24e0 da3d
00000340: be39 853d 0133 fc3d 3bff 823d 2e0e c23d
00000350: 1d3c cdbd 1de0 1a3e 0253 023e 0a2c 5f3d
00000360: a16c c039 189d 66bd fe7b 7a3d 3548 013e
00000370: 4fb3 163e aef9 313d f6a2 0fbc f5e2 1fbd
00000380: a649 4b3d e9cf 233e c6d2 133d 4add eebd
00000390: 34f1 0abd eabb e33d cc81 d7bd 0ecf 653d
000003a0: 90f0 d23d 46af 823d 97f1 cbbd 4b5e 903c
000003b0: ce20 b43d 370a d73d baed 84bc f6c6 fabd
000003c0: bd4a 15be 5d71 0cbe 8bc5 093e c13f 8f3d
000003d0: 73cb 1fbe 09a3 f6bd d821 84bd 5dfe 4fbd
000003e0: ae73 c6bd 077d 0c3e 7a71 a83d 93dc ccbd
000003f0: 2bce d3bd 0d7e 29be f8d8 2bbe 26fa 84bd

Gate.weight f4 [4, 32]
0.15289932 0.012712427 -0.013209854 0.14346686 0.052135706 -0.10745453 0.13836089 -0.14966722
0.07740044 0.16689162 0.13222846 0.004265296 -0.013931003 -0.10151043 -0.09693743 -0.06329962
0.097223 -0.071536236 -0.05279937 -0.14535953 -0.12211379 -0.035092734 -0.07860203 -0.023343274
0.09626203 0.15422401 -0.123305336 -0.049839526 -0.1764671 0.16543657 -0.04559118 -0.1647058
0.14469752 -0.107744575 0.16212286 -0.13434403 -0.13193397 0.0092515545 0.03782154 -0.024836907
0.09374848 0.1183627 0.12933372 -0.103829265 -0.0377242 -0.182726 0.08312743 0.117446594
-0.10893477 0.0598907 0.051319774 0.13334599 0.013193251 0.041007143 0.008480865 -0.00024766664
-0.13557273 0.07839472 -0.13607089 -0.03295694 0.03050001 0.1035721 -0.095483266 -0.0074400413
0.08530695 -0.15773496 0.06697517 0.13656011 -0.015069773 -0.16807991 0.031550054 0.13329384
0.14609578 0.06833185 -0.1273007 0.02719873 -0.11730796 -0.010511338 0.16806746 -0.06744802
0.08826813 0.17028388 -0.12903556 0.028161826 0.085972734 0.11908274 0.0888115 -0.01185137
-0.081302166 -0.07367276 -0.05424951 0.14860098 -0.008499931 0.032325387 -0.01649142 -0.11190647
-0.101839826 0.10967659 -0.024190428 0.14774175 0.11386742 -0.065414965 -0.10240361 -0.08310234
-0.057880785 -0.058069628 -0.07721276 0.15574712 0.16050157 0.11943892 -0.08130124 -0.16389051
-0.06080048 0.123784974 -0.117511414 -0.13021393 -0.09173986 -0.15723738 -0.0316015 0.037973635
0.100652926 0.07718363 -0.15990086 -0.045732237 -0.12612261 0.06848885 0.14957179 -0.14408503
00000000: a491 1c3e c947 503c 256e 58bc fae8 123e
00000010: 408c 553d 1f11 dcbd 7aae 0d3e 5d42 19be
00000020: 1f84 9e3d a3e5 2a3e e666 073e e5c3 8b3b
00000030: dd3e 64bc b3e4 cfbd 2287 c6bd 3ba3 81bd
00000040: da1c c73d 9781 92bd 2744 58bd 21d9 14be
00000050: cb16 fabd 66bd 0fbd 1afa a0bd 653a bfbc
00000060: 0725 c53d e6ec 1d3e 8287 fcbd 8824 4cbd
00000070: cbb3 34be 3468 293e d1bd 3abd a3a8 28be
00000080: 962b 143e 30a9 dcbd 8903 263e 7b91 09be
00000090: b319 07be d593 173c c2ea 1a3d c576 cbbc
000000a0: 34ff bf3d 2568 f23d 0f70 043e 70a4 d4bd
000000b0: b184 1abd 861c 3bbe b73e aa3d d787 f03d
000000c0: 3119 dfbd f34f 753d af34 523d da8b 083e
000000d0: 8128 583c 1bf7 273d 53f3 0a3c 41d9 81b9
000000e0: 94d3 0abe 698d a03d 2b56 0bbe dbfd 06bd
000000f0: 28db f93c 9c1d d43d bb8c c3bd 97cb f3bb
00000100: 69b5 ae3d 4685 21be 472a 893d 6ad6 0b3e
00000110: 36e7 76bc 241d 2cbe a13a 013d 2e7e 083e
00000120: 229a 153e 92f1 8b3d 1d5b 02be dfcf de3c
00000130: 283f f0bd bf37 2cbc e019 2c3e 3022 8abd
00000140: ecc5 b43d e65e 2e3e e621 04be a1b3 e63c
00000150: 7912 b03d a7e1 f33d cee2 b53d 402c 42bc
00000160: c081 a6bd bee1 96bd bc34 5ebd db2a 183e
00000170: 4b43 0bbc a067 043d 0419 87bc 382f e5bd
00000180: 6691 d0bd 1f9e e03d 012b c6bc 9d49 173e
00000190: 5233 e93d 48f8 85bd fcb8 d1bd 8f31 aabd
000001a0: 6714 6dbd 6bda 6dbd b921 9ebd 2c7c 1f3e
000001b0: 865a 243e 649c f43d 4481 a6bd ead2 27be
000001c0: ed09 79bd fa82 fd3d d3a9 f0bd cd56 05be
000001d0: 1ce2 bbbd d602 21be 9370 01bd 3e8a 1b3d
000001e0: 1f23 ce3d 7312 9e3d 0dbd 23be ba51 3bbd
000001f0: 4926 01be e243 8c3d 5929 193e 078b 13be

experts.0.gate_proj.weight f4 [32, 32]
-0.14978111 0.14063075 0.030094689 -0.023512427 0.109231055 0.004083779 0.021834468 -0.04150284
0.057913065 -0.17556699 -0.14599848 0.17592591 0.02415917 -0.028546594 -0.053290665 0.12063635
0.1536936 -0.15159436 -0.047703713 -0.04188257 -0.092612356 0.09732907 0.15495858 -0.12026925
-0.09937666 0.10582947 -0.15402523 -0.15285029 0.16688259 -0.08443189 0.06326819 -0.030216286
0.1384583 0.10065203 0.12791312 -0.037847005 -0.1764412 0.16570272 0.15156718 0.009288506
0.17038344 0.10621906 -0.09306032 -0.023340382 0.00039514972 0.09050039 0.046151027 -0.15365717
0.14389595 0.09413494 0.032331064 0.11453342 0.13633816 0.14314543 -0.10205369 -0.025805682
-0.0979398 0.020844594 0.160002 -0.028954044 0.16170777 0.15984544 -0.113242544 -0.06283374
-0.0758173 0.005102643 -0.10823824 -0.0118639115 0.1670811 -0.12964408 0.032498967 0.04910422
-0.13010152 -0.05369117 -0.07800459 -0.05166933 -0.15421575 0.089779265 0.043891124 0.049445428
-0.06513461 -0.08480209 0.16592498 -0.0075245644 -0.0900871 0.043490782 0.07424246 -0.08851785
-0.024579914 0.046501618 -0.045172676 -0.09605387 0.11418849 0.11110966 0.045859456 0.12299716
0.054769214 -0.058953367 -0.04859127 -0.067183614 0.14408717 -0.14848872 -0.052564748 0.013175855
-0.052492473 -0.07367769 -0.113765486 0.03296151 0.12773015 0.006769236 -0.084898084 -0.11199224
0.16251317 0.058255833 0.17172061 0.025731886 -0.1297716 -0.025010852 -0.03674138 -0.12935773
-0.11456663 0.10645977 0.06765484 0.007031425 -0.16920508 -0.16563126 -0.010487788 0.027925069
0.090550885 0.05995619 0.02113128 -0.1281643 0.12654775 -0.14373296 0.15928182 0.0022327392
0.029657427 -0.054828998 -0.07702682 0.14380647 -0.03248632 -0.10028906 -0.07081479 0.015712582
-0.09451586 0.13599665 -0.043072216 0.05838166 0.16713993 -0.12268898 -0.071200356 -0.16635188
0.14095493 0.05976944 0.12059453 -0.0414675 -0.1357924 -0.010971256 -0.13808481 -0.04119849
0.14142488 -0.14701359 0.06502302 -0.009802909 -0.1297551 0.074269705 -0.030075723 -0.008307914
0.024728233 0.07828038 0.09953643 0.039443914 0.15102759 0.087206066 -0.06394484 0.05846241
0.15191512 0.094861805 -0.053854756 0.15961206 -0.064686015 0.06585071 0.16385728 -0.13992202
0.17305216 0.052209914 0.08416136 0.16050002 -0.0049023204 -0.09444361 -0.12473297 -0.047742445
0.11528202 -0.02358839 0.12519923 -0.14687063 0.0895039 0.109416515 0.074448094 0.15826817
0.121120214 -0.04871266 0.049179662 -0.057487186 0.170092 0.04546573 0.1350602 -0.13156189
0.17595454 0.073857546 0.1654876 0.03116949 0.029560266 0.038686957 0.12801987 0.13015932
-0.12283455 0.10136412 0.15090522 -0.059529517 0.046877265 0.15650736 0.06383407 0.1381306
0.08846619 -0.09339809 0.17236218 -0.068997994 -0.033837736 -0.0029296842 0.12741455 0.10117647
0.024543567 0.06320489 -0.15496407 -0.13088077 -0.03530882 0.06703596 0.12234699 -0.025289357
0.13808013 -0.086153574 0.014517167 -0.078666866 0.1354826 0.06098987 -0.03596544 -0.007771182
-0.15881708 -0.00040611316 -0.057495218 -0.07140316 0.14083095 -0.1269367 0.068914436 -0.11725273
00000000: 3860 19be 8201 103e 2389 f63c 229d c0bc
00000010: 88b4 df3d 39d1 853b 33de b23c e2fe 29bd
00000020: 4036 6d3d d5c7 33be a080 15be ec25 343e
00000030: 74e9 c53c 8cda e9bc 5047 5abd 3110 f73d
00000040: db61 1d3e 8d3b 1bbe f864 43bd 0f8d 2bbd
00000050: 8cab bdbd 7754 c73d 76ad 1e3e b94f f6bd
00000060: fe85 cbbd 1fbd d83d cab8 1dbe c984 1cbe
00000070: 45e3 2a3e a0ea acbd c192 813d 2588 f7bc
00000080: 03c8 0d3e a722 ce3d a8fb 023e 7605 1bbd
00000090: 00ad 34be f9ad 293e 6d34 1b3e d12e 183c
000000a0: ff78 2e3e 6189 d93d 6996 bebd 5434 bfbc
000000b0: 192c cf39 4558 b93d dc08 3d3d 4e58 1dbe
000000c0: 7659 133e d2c9 c03d 946d 043d 7f90 ea3d
000000d0: 3b9c 0b3e b794 123e 8601 d1bd 7066 d3bc
000000e0: a994 c8bd 48c2 aa3c 90d7 233e 0831 edbc
000000f0: b996 253e 86ae 233e b5eb e7bd faae 80bd
00000100: 1a46 9bbd 1234 a73b 03ac ddbd da60 42bc
00000110: 4f17 2b3e 6bc1 04be a31d 053d 8221 493d
00000120: 5539 05be 46eb 5bbd dfc0 9fbd 38a3 53bd
00000130: bcea 1dbe 31de b73d 2ec7 333d 4a87 4a3d
00000140: 4b65 85bd b8ac adbd 3de8 293e 9f90 f6bb
00000150: 967f b8bd 6423 323d 6e0c 983d d948 b5bd
00000160: d15b c9bc 7b78 3e3d fc06 39bd e4b7 c4bd
00000170: a8db e93d 768d e33d 20d7 3b3d efe5 fb3d
00000180: af55 603d 1679 71bd a407 47bd 9097 89bd
00000190: 968b 133e 6d0d 18be 224e 57bd 8bdf 573c
000001a0: 5902 57bd 54e4 96bd e1fd e8bd a602 073d
000001b0: b1cb 023e 78d0 dd3b 0cdf adbd 305c e5bd
000001c0: da69 263e ab9d 6e3d 87d7 2f3e adcb d23c
000001d0: d9e2 04be 8fe3 ccbc 217e 16bd 5a76 04be
000001e0: e9a1 eabd 9407 da3d 9f8e 8a3d de67 e63b
000001f0: 1944 2dbe 3e9b 29be f9d4 2bbc 1dc3 e43c
00000200: be72 b93d 9f94 753d 821b ad3c 813d 03be
00000210: bc95 013e bc2e 13be c61a 233e 2653 123b
00000220: 22f4 f23c 5f94 60bd 3dc0 9dbd 0142 133e
00000230: 6010 05bd 5a64 cdbd 5807 91bd acb7 803c
00000240: 8891 c1bd b542 0b3e 7e6c 30bd 9c21 6f3d
00000250: bb26 2b3e 5c44 fbbd 7ed1 91bd 2658 2abe
00000260: 7d56 103e cdd0 743d 44fa f63d d3d9 29bd
00000270: 2a0d 0bbe c8c0 33bc 1b66 0dbe bfbf 28bd
00000280: afd1 103e bb8a 16be ca2a 853d 619c 20bc
00000290: 85de 04be b71a 983d 5d61 f6bc eb1d 08bc
000002a0: dd92 ca3c 7751 a03d c1d9 cb3d f18f 213d
000002b0: faa6 1a3e 1899 b23d 83f5 82bd 4876 6f3d
000002c0: a38f 1b3e e846 c23d ce96 5cbd 5871 233e
000002d0: 1a7a 84bd bddc 863d 34ca 273e b847 0fbe
000002e0: 9634 313e 10da 553d cb5c ac3d 1e5a 243e
000002f0: a5a3 a0bb a76b c1bd 0074 ffbd 958d 43bd
00000300: fb18 ec3d 703c c1bc 3a34 003e 4165 16be
00000310: d24d b73d c415 e03d 3e78 983d 0d11 223e
00000320: e00d f83d ed86 47bd 9d70 493d af77 6bbd
00000330: 992c 2e3e 463a 3a3d 394d 0a3e 29b8 06be
00000340: 6d2d 343e a042 973d 9575 293e 2957 ff3c
00000350: 5f28 f23c 3776 1e3d a417 033e 7c48 053e
00000360: ae90 fbbd fe97 cf3d e686 1a3e 39d5 73bd
00000370: 6002 403d 7743 203e 70bb 823d 1c72 0d3e
00000380: c32d b53d 7f47 bfbd b67f 303e d24e 8dbd
00000390: 7099 0abd f2ff 3fbb f678 023e 9c35 cf3d
000003a0: 970f c93c 9171 813d e7ae 1ebe 9c05 06be
000003b0: fb9f 10bd 264a 893d 0f91 fa3d a02b cfbc
000003c0: e164 0d3e 4971 b0bd 69d9 6d3c 181c a1bd
000003d0: f3bb 0a3e 84d0 793d 7f50 13bd 66a5 febb
000003e0: f2a0 22be 96eb d4b9 1b80 6bbd d23b 92bd
000003f0: fd35 103e b2fb 01be 0323 8d3d 3322 f0bd
