output/FT-S-MoME/ts_encoder_epoch6.pt (torch, 376236 bytes, 34 tensors)

proj.weight f4 [32, 8]
0	0xbe66e417	-0.22547947
1	0xbe6868da	-0.22696248
2	0x3de60157	0.11230724
3	0xbe8e1990	-0.27753878
4	0x3e874d75	0.26426283
5	0x3ea5e0ed	0.32398167
6	0xbdd6bdbd	-0.104854085
7	0x3e75569a	0.23958817
8	0xbe7072ad	-0.23481245
9	0x3e5f84f8	0.21828067
10	0xbe117892	-0.1420615
11	0x3da21fd2	0.079162255
12	0x3dcf2e3c	0.101162404
13	0x3e8f389d	0.2797288
14	0xbe89fda8	-0.26951337
15	0xbd931b43	-0.07182934
16	0xbeac06f2	-0.3359905
17	0x3b85c8cb	0.0040827743
18	0xbe49a308	-0.19691098
19	0x3e9d41f3	0.30714378
20	0x3cd21672	0.025645468
21	0x3e8bb39f	0.27285478
22	0x3e1f790f	0.15573524
23	0xbe81fac5	-0.25386634
24	0x3eb9bc9e	0.36276716
25	0x3e83ce4f	0.25743338
26	0xbe9a70c8	-0.3016417
27	0xbe9c11eb	-0.3048242
28	0x3e44d085	0.19220169
29	0x3e8489c7	0.25886366
30	0xbdeed6a7	-0.116620354
31	0xbe905acf	-0.2819428
32	0x3ebe0df5	0.37120023
33	0xbd2389a3	-0.039926182
34	0x3e1f7e8f	0.15575622
35	0xbe80403b	-0.25049004
36	0xbe8a2a96	-0.26985615
37	0x3e072ab1	0.13199879
38	0xbe61aef2	-0.22039393
39	0xbe954817	-0.29156563
40	0x3e047765	0.1293617
41	0xbe75cc05	-0.24003609
42	0xbc7a5dca	-0.01528115
43	0xbbcbe2d8	-0.0062221102
44	0x3e2a3f48	0.16625702
45	0x3bddcd92	0.0067688907
46	0x3d5fb1fc	0.0546131
47	0xbe507e79	-0.20360745
48	0xbe864ce1	-0.2623053
49	0x3e73b358	0.23798883
50	0x3e61b36b	0.22041099
51	0xbdcc6b6f	-0.09981429
52	0x3e857add	0.260703
53	0xbe7ddaf4	-0.24790555
54	0xbc0d427e	-0.00862181
55	0xbe39fcc3	-0.18162827
56	0x3d8e5fbc	0.06951854
57	0xbd9a850f	-0.0754491
58	0xbc9e6e0c	-0.019339584
59	0xbcaeb6f5	-0.021327475
60	0xbde61cd7	-0.112359695
61	0xbd530076	-0.05151411
62	0x3dbbf5c7	0.09177738
63	0x3e5a1d68	0.2130028
64	0xbe1154a6	-0.14192447
65	0x3e7e65c6	0.24843511
66	0xbde2b9d8	-0.11070603
67	0x3d94494c	0.07240543
68	0x3e743e17	0.2385181
69	0xbeb70e67	-0.35753176
70	0x3d024cfe	0.031811707
71	0xbe5234e5	-0.2052799
72	0x3e1a4396	0.15064844
73	0xbe076fb3	-0.13226204
74	0xbe549bf0	-0.2076261
75	0x3e170126	0.14746532
76	0x3e825061	0.2545195
77	0x3e879d36	0.2648713
78	0xbdc0c0c6	-0.094117686
79	0x3e8afd15	0.2714621
80	0xbc9301c8	-0.017945185
81	0xbe8cffe1	-0.2753897
82	0xbdb19a94	-0.086720616
83	0xbab27e1f	-0.0013617909
84	0xbd9d3856	-0.07676761
85	0x3d47b62e	0.048757724
86	0xbcef60b0	-0.029220909
87	0xbe4fe0ce	-0.203006
88	0xbe9634c2	-0.29337126
89	0x3dd222a4	0.102605134
90	0x3dedbbc0	0.11608076
91	0x3cd6e2a0	0.02623111
92	0x3cceb443	0.02523244
93	0xbe6d8157	-0.2319387
94	0xbe1d9dce	-0.15392229
95	0x3df6fb79	0.12059683
96	0xbe637681	-0.22213174
97	0xbdc47aac	-0.0959371
98	0x3e817faf	0.25292727
99	0xbd986475	-0.07441036
100	0x3eb17581	0.3465996
101	0x3e42729f	0.18989037
102	0xbe95257c	-0.2913016
103	0xbdf17e9f	-0.11791729
104	0x3e68b74e	0.22726175
105	0x3e4e502f	0.20147775
106	0x3eae0682	0.3398934
107	0x3eb46ee6	0.3524086
108	0x3ea17c72	0.31540257
109	0x3df29a78	0.11845869
110	0x3bf2e1c3	0.007412167
111	0x3e2e1f0d	0.17004032
112	0x3dad49bb	0.084613286
113	0x3e7860cb	0.24255674
114	0xbe0ea22b	-0.1392905
115	0xbe6d4163	-0.23169474
116	0xbea998c1	-0.33124354
117	0x3eb7472c	0.35796487
118	0x3eb254e2	0.34830385
119	0x3e27045f	0.16310261
120	0x3e6892af	0.22712205
121	0xbddaf30f	-0.10690891
122	0xbd9b0e1f	-0.07571053
123	0xbeb1b4e0	-0.3470831
124	0x3e955c15	0.29171816
125	0xbe97837b	-0.295925
126	0x3e71f5df	0.23628949
127	0xbe116cbe	-0.14201638
128	0x3d06438e	0.03277927
129	0xbead4a40	-0.3384571
130	0xbd83a0ac	-0.0642713
131	0x3eb0d5f7	0.34538242
132	0x3dd552ac	0.10416159
133	0xbe264989	-0.16238989
134	0xbdf9694b	-0.12178286
135	0x3d0ea9b0	0.034829795
136	0x3e370683	0.17873578
137	0x3e88adc3	0.2669507
138	0xbe50ef46	-0.20403776
139	0x3ea91871	0.3302646
140	0x3ea1b514	0.31583464
141	0xbe1ea768	-0.15493548
142	0xbe9fe1bf	-0.31226918
143	0x3e5fb46d	0.2184617
144	0xbeb71996	-0.35761708
145	0xbe5711f2	-0.2100294
146	0x3e29f908	0.16598904
147	0x3e8bebff	0.27328488
148	0xbeb2b891	-0.34906438
149	0xbe874f1e	-0.2642755
150	0x3d2f4b4a	0.04279641
151	0x3d86c05c	0.065796584
152	0x3e8b0051	0.2714868
153	0xbe346fa6	-0.17620715
154	0xbe2c0ed3	-0.1680253
155	0xbea3a7a0	-0.31963825
156	0xbdd818eb	-0.10551628
157	0xbde4c6dd	-0.11170743
158	0x3e5b6be7	0.2142788
159	0xbe4e18b2	-0.20126608
160	0x3e17acd8	0.14812028
161	0x3ebc7d6e	0.36814445
162	0x3d8b313e	0.067965016
163	0xbe0fdff4	-0.14050275
164	0x3e43891e	0.19095275
165	0x3e666b65	0.22501905
166	0x3eba7535	0.36417547
167	0xbd33c6c3	-0.043890726
168	0x3da09daf	0.07842576
169	0x3d374a0a	0.044748344
170	0xbeb3f888	-0.35150552
171	0xbe35e1e3	-0.1776195
172	0x3d8294fc	0.06376073
173	0x3da98400	0.0827713
174	0x3e75f4e8	0.24019206
175	0xbe827d1d	-0.2548608
176	0x3dc71dc0	0.09722471
177	0x3d73f9fb	0.05956457
178	0xbe12ffb5	-0.14355357
179	0xbdf06168	-0.11737329
180	0xbea20c92	-0.31650215
181	0x3e87429f	0.26418015
182	0x3cdf321c	0.027245574
183	0xbdbd42f4	-0.09241286
184	0xbe087d5b	-0.1332907
185	0x3e9960d6	0.29956692
186	0x3e4280be	0.18994424
187	0xbc9e1311	-0.019296201
188	0xbe68d92f	-0.22739099
189	0x3dbe495f	0.09291338
190	0x3e5e3b59	0.21702327
191	0xbcc981ae	-0.024597969
192	0xbd80a63a	-0.06281705
193	0x3e8bab7f	0.2727928
194	0x3e9666ad	0.2937521
195	0x3e9f686b	0.31134352
196	0x3e9d23d1	0.30691388
197	0xbe6f78fc	-0.23385996
198	0xbdd3aaa3	-0.10335281
199	0xbd0cecad	-0.0344054
200	0xbd90583d	-0.0704808
201	0x3de2b0f6	0.11068909
202	0xbeb60e64	-0.35557854
203	0xbc71a4ae	-0.014748735
204	0x3ea6fb76	0.32613724
205	0x3e8858a5	0.2663013
206	0x3d64238b	0.05569796
207	0xbeb259d9	-0.34834173
208	0x3dc137c6	0.09434466
209	0xbe3eb9d1	-0.18625571
210	0x3da44946	0.08021788
211	0x3eb7a721	0.35869697
212	0xbd3c2ef1	-0.045943204
213	0x3cd18f63	0.025581067
214	0x3d4f6bff	0.050640102
215	0xbe0297f5	-0.1275328
216	0xbdc24677	-0.09486096
217	0x3eb7e850	0.35919428
218	0xbd14b77d	-0.0363078
219	0xbe9517a0	-0.29119587
220	0x3d7bc407	0.061466243
221	0x3e57f5e9	0.21089901
222	0xbe874dc1	-0.2642651
223	0x3dfe9166	0.12430076
224	0xbea75b49	-0.32686833
225	0xbd978c9b	-0.07399865
226	0xbc0624bc	-0.008187469
227	0xbc1ebef8	-0.009689085
228	0x3d3ef10d	0.046616603
229	0xbccce829	-0.025013046
230	0x3e3a028a	0.18165031
231	0x3eaa59e5	0.3327171
232	0xbe33ee16	-0.17571291
233	0xbd59ab91	-0.053142134
234	0xbd38fe48	-0.045164376
235	0xbe859ed1	-0.2609773
236	0xbebc58cb	-0.36786494
237	0xbe842c23	-0.25814924
238	0x3dc94341	0.09827281
239	0x3e6d1c96	0.23155436
240	0x3e778e07	0.24175273
241	0xbdff580b	-0.12467965
242	0x3c5ba0cf	0.013405039
243	0x3e17f4d9	0.14839496
244	0xbdc069e0	-0.09395194
245	0x3e264421	0.16236927
246	0xbe6d8088	-0.23193562
247	0x3e8492ee	0.25893348
248	0xbdd2e45a	-0.10297461
249	0xbe3db964	-0.18527752
250	0xbd1fc5b2	-0.039006896
251	0x3e295375	0.16535743
252	0x3e511bc1	0.20420744
253	0xbe0a1de7	-0.1348797
254	0xbe26426d	-0.16236277
255	0xbeb88504	-0.36038983

proj.bias f4 [32]
0	0xbd94cb19	-0.072653
1	0xbea3dc3f	-0.32003972
2	0x3e6af7e6	0.22946128
3	0x3dcd9e60	0.10039973
4	0xbe031aa5	-0.12803133
5	0x3e25b59b	0.16182558
6	0xbeaaa4b0	-0.33328772
7	0x3cbfa236	0.023392778
8	0x3eababd2	0.33529526
9	0xbcafd21b	-0.02146249
10	0x3e078c50	0.13237119
11	0xbeb1324d	-0.3460869
12	0xbda9f2f2	-0.08298291
13	0x3e955bba	0.29171544
14	0xbd386a6f	-0.045023378
15	0x3d609edb	0.054838996
16	0xbdbe3e4e	-0.092892274
17	0x3d262c7b	0.040569764
18	0x3ebe13c0	0.37124443
19	0x3d0bf09a	0.034165002
20	0xbe5973f6	-0.21235642
21	0xbd18f19b	-0.037339788
22	0xbeb3b9d4	-0.35102713
23	0x3cb23ed7	0.02175848
24	0x3e9fdb4a	0.31221992
25	0x3e26899b	0.1626343
26	0x3eb393d8	0.35073733
27	0x3e30e5f2	0.17275217
28	0x3d830a43	0.06398442
29	0x3e273f35	0.16332705
30	0x3e62460d	0.22097035
31	0x3da8dfa7	0.08245783

EiLM.0.gamma_generator.weight f4 [1, 32]
0	0x3dfab813	0.122421406
1	0xbe190f27	-0.14947186
2	0xbe37acc4	-0.17936999
3	0x3ce661bc	0.028122775
4	0xbdde77ef	-0.10862719
5	0x3e2e0f01	0.16997911
6	0xbe1973b6	-0.14985546
7	0xbc315336	-0.010823062
8	0x3ddc6a12	0.10762419
9	0xbd9b0f36	-0.07571261
10	0x3d7af105	0.06126501
11	0xbd8c2196	-0.068423435
12	0xbdf92814	-0.121658474
13	0x3e052a61	0.13004448
14	0xbe05dfb9	-0.13073625
15	0xbdba2b7d	-0.09090326
16	0x3d9bad3e	0.07601403
17	0xbcc8c6a8	-0.02450879
18	0x3d70b68b	0.058767837
19	0xbdfe4952	-0.124163285
20	0xbe3d2c98	-0.18474042
21	0x3da63cba	0.081170514
22	0x3e398c7e	0.1812
23	0xbc93654b	-0.017992636
24	0xbe0b94ed	-0.1363103
25	0x3d48168a	0.04884962
26	0x3d36f480	0.044666767
27	0x3dc4d986	0.09611802
28	0xbe34f01a	-0.17669716
29	0x3de360c6	0.111024424
30	0x3e3584d3	0.1772645
31	0xbd51b50a	-0.051198043

EiLM.0.beta_generator.weight f4 [32, 32]
0	0x3d60f481	0.054920677
1	0x3d40bdc4	0.047055975
2	0xbdccaead	-0.09994254
3	0xbda0ddf0	-0.07854831
4	0x3dba63cd	0.09101067
5	0xbd5ca2b7	-0.053866114
6	0x3e106877	0.1410235
7	0xbe21791d	-0.15768857
8	0x3d1da372	0.03848595
9	0xbd0baced	-0.03410046
10	0xbe048054	-0.12939578
11	0x3bdbdb47	0.0067094895
12	0xbddc6539	-0.10761494
13	0xbcf17c5b	-0.029478243
14	0xbc4ef24d	-0.012631011
15	0x3d6ebd14	0.058285788
16	0x3e01bfd8	0.12670839
17	0x3c19e277	0.009392372
18	0x3d8889cb	0.06666907
19	0x3e1ebe94	0.15502387
20	0xbd9bfdcf	-0.076167695
21	0xbe32d183	-0.17462735
22	0xbd5c0a88	-0.05372098
23	0x3ba3b2eb	0.004995694
24	0x3dfaf9fd	0.12254713
25	0xbdba1a36	-0.090870306
26	0x3e4061cd	0.18787308
27	0x3d37dfbf	0.044891115
28	0xbd1282e2	-0.03576935
29	0xbe2a2cd5	-0.16618665
30	0xbe2a15f5	-0.16609938
31	0xbdf9a205	-0.12189106
32	0xbd3b5cf4	-0.045742944
33	0xbde69f13	-0.1126081
34	0xbe460de7	-0.19341241
35	0xbd062825	-0.03275313
36	0xbe25e0c0	-0.16199017
37	0xbe193c9b	-0.14964525
38	0xbe1c0702	-0.15237048
39	0x3e00ae7f	0.12566565
40	0x3bb9ec90	0.0056739524
41	0xbe4132b8	-0.18867004
42	0x3daf0cd5	0.085473694
43	0xbce836bf	-0.028346417
44	0x3dd80bd0	0.10549128
45	0xbe3241fb	-0.17407982
46	0xbda0035a	-0.07813139
47	0x3d826691	0.06367219
48	0xbe09401a	-0.13403359
49	0x3dc3c2c1	0.09558631
50	0x3c40c9c8	0.011766858
51	0xbdd1f102	-0.10251047
52	0x3db70732	0.08936919
53	0x3d132431	0.035923187
54	0x3e01bd7b	0.12669937
55	0xbd86d721	-0.06584001
56	0x3b06ca77	0.0020567456
57	0xbd3b1437	-0.045673575
58	0xbe4232ab	-0.18964641
59	0xbe1709ec	-0.14749879
60	0xbe2960c4	-0.1654082
61	0x3e3c7277	0.1840304
62	0x3c8cf0c7	0.017204655
63	0x3d287bdc	0.041133747
64	0xbe15ee12	-0.14641598
65	0xbd6e3544	-0.058156267
66	0xbcdd4b43	-0.027013427
67	0x3ce196be	0.0275377
68	0xbe3b717a	-0.18305007
69	0x3de12dfb	0.10995098
70	0x3db85311	0.09000219
71	0xbe08afa8	-0.13348258
72	0x3d889bb0	0.0667032
73	0xbd99324a	-0.07480295
74	0xbd135336	-0.035968028
75	0x3c7c1a4b	0.015387128
76	0x3d94e467	0.07270127
77	0xbd0ce5d6	-0.034398876
78	0xbe294495	-0.16530068
79	0xbb386a6a	-0.00281396
80	0xbe15a30b	-0.14612977
81	0xbe270554	-0.16310626
82	0xbdd5699c	-0.10420534
83	0x3cd04f79	0.02542852
84	0xbd104bf4	-0.035228685
85	0xbdf81e8d	-0.12115202
86	0x3e1f7aea	0.15574232
87	0xbe2cddd7	-0.168815
88	0x3d8b959f	0.06815647
89	0x3d4a8028	0.049438626
90	0x3c1ab6ce	0.009442998
91	0xbd8a5289	-0.067540236
92	0x3ddcaf0b	0.10775574
93	0xbe04d4f8	-0.12971866
94	0xbd1954b9	-0.037434313
95	0x3c751179	0.014957779
96	0x3daaa670	0.08332527
97	0xbdb521ea	-0.08844359
98	0xbe128c89	-0.14311422
99	0xbe212bc7	-0.15739356
100	0xbd44e889	-0.048073325
101	0x3cf8169d	0.03028422
102	0x3cd3fdf8	0.025877938
103	0x3e1ae4f9	0.15126409
104	0xbd9bd019	-0.07608051
105	0xbdd10981	-0.10206891
106	0xbc46f415	-0.012143155
107	0xbe28c9d7	-0.16483246
108	0xbcc8a9ec	-0.024495088
109	0x3df771f4	0.12082282
110	0xbb15eea0	-0.0022877827
111	0x3de93ae3	0.11388185
112	0xbe16388f	-0.14670013
113	0xbe2950ff	-0.16534804
114	0x3e017066	0.12640533
115	0xbc4d35e7	-0.012525058
116	0xbdbcb1aa	-0.09213574
117	0x3dff0f11	0.124540456
118	0x3da06101	0.07831002
119	0x3d9ce74e	0.07661305
120	0x3cc45106	0.023964416
121	0xbd6206d1	-0.055182282
122	0xbdbd1ee1	-0.09234405
123	0xbcd2ba72	-0.02572367
124	0x3cee3b4c	0.02908101
125	0x3d7f1b62	0.062281974
126	0xbe0126be	-0.12612435
127	0xbdb97238	-0.090549886
128	0x3ddf4563	0.10901906
129	0xbe1864ef	-0.14882253
130	0xbdae6d78	-0.08516973
131	0x3e12f5ce	0.1435158
132	0xbd267a54	-0.040644005
133	0xbce8a43a	-0.028398622
134	0xbb7d1e70	-0.0038622878
135	0xbdc8f719	-0.09812755
136	0x3d6b44ff	0.057438847
137	0x3bea5f4d	0.007152474
138	0xbe1fcfaf	-0.15606569
139	0xbe056a43	-0.13028817
140	0xbd6285fd	-0.055303562
141	0x3d8e4517	0.069467716
142	0xbe2903bb	-0.1650533
143	0xbdd7d9bf	-0.10539579
144	0xbe246514	-0.16054183
145	0xbde6ac93	-0.11263385
146	0xbd7c04cf	-0.061528023
147	0xbc989ba5	-0.018628905
148	0xbe2ea550	-0.17055249
149	0xbe00cd64	-0.1257835
150	0x3d99913c	0.074984044
151	0x3dd35adc	0.103200644
152	0xbdffdc8f	-0.1249324
153	0x3b8c52ba	0.0042823227
154	0x3d872bd9	0.0660016
155	0x3e0f4f72	0.1399515
156	0x3e14d551	0.14534499
157	0x3de81fa3	0.11334159
158	0x3e0ffb5d	0.14060731
159	0x3ce0324a	0.02736773
160	0xbdd1e648	-0.10249001
161	0x3e1c27d5	0.1524957
162	0xbde3c030	-0.11120641
163	0x3d70fb4a	0.058833398
164	0x3dc92d67	0.09823113
165	0x3da1082f	0.07862889
166	0xbe19db5a	-0.15025082
167	0xbe071b1f	-0.1319394
168	0xbd24d72f	-0.040244278
169	0xbe05be2d	-0.13060828
170	0x3bcacc18	0.0061888807
171	0xbe1801c5	-0.14844425
172	0xbd768c36	-0.06019231
173	0xbdb44bd0	-0.088035226
174	0xbdcda920	-0.10042024
175	0xbd859c4e	-0.065239534
176	0xbdb3e96b	-0.08784755
177	0x3e2ca9c9	0.16861643
178	0xbe0b19da	-0.1358408
179	0x3b18c9e2	0.002331369
180	0x3dc40c23	0.095726274
181	0x3bcd550d	0.0062662424
182	0xbc32d52c	-0.010915082
183	0xbd2a53f4	-0.04158397
184	0xbd817853	-0.06321778
185	0x3d715d3c	0.058926806
186	0xbd4ef3e0	-0.050525546
187	0xbe19b498	-0.15010297
188	0x3d146e09	0.03623775
189	0xbe35fe9d	-0.17772909
190	0xbd151004	-0.036392227
191	0xbde8ec90	-0.11373246
192	0xbc15b8d9	-0.009138309
193	0xbc33275d	-0.010934678
194	0xbe237112	-0.15961102
195	0xbe063d97	-0.13109432
196	0xbd8b624c	-0.06805858
197	0xbde810a1	-0.11331297
198	0x3da0fc40	0.07860613
199	0x3e13e33e	0.14442155
200	0x3d5991cc	0.05311756
201	0x3df120a4	0.11773804
202	0xbdca0176	-0.0986356
203	0x3d64b365	0.055835146
204	0x3cc2c8c4	0.023777373
205	0xbe3ca33d	-0.18421645
206	0x3e0e62aa	0.13904825
207	0x3c1a7b4e	0.009428812
208	0x3df94838	0.12171978
209	0x3e253b0c	0.16135806
210	0x3d537486	0.051624797
211	0x3dcf80b7	0.10131972
212	0xbd472bf0	-0.048625886
213	0xbce6d43b	-0.028177371
214	0x3e2cff50	0.16894269
215	0x3d6de200	0.05807686
216	0x3dbcd3a2	0.09220053
217	0x3e21b6b0	0.15792346
218	0xbc985d3d	-0.018599147
219	0xbd3fa476	-0.0467877
220	0x3d645f40	0.0557549
221	0x3e137b11	0.14402415
222	0xbe1f3587	-0.15547763
223	0xbcb1adb5	-0.021689275
224	0x3e2c0468	0.16798556
225	0xbd0f20f6	-0.034943543
226	0x3ccf31da	0.025292326
227	0xbd8d9bb7	-0.06914466
228	0xbdd7f848	-0.10545403
229	0x3d91d741	0.071211345
230	0xbe02f8bb	-0.12790196
231	0xbd925a97	-0.07146185
232	0x3ca1f4c3	0.019770032
233	0x3e2b2261	0.16712333
234	0x3db21dd1	0.08697093
235	0x3e2f5fcc	0.17126387
236	0xbdd5fbde	-0.104484305
237	0x3daac6c1	0.083386905
238	0x3d60c9b5	0.054879863
239	0xbe1dfcb4	-0.1542843
240	0xbdf59fb1	-0.11993349
241	0x3db21a1d	0.08696387
242	0x3dbef0dd	0.09323285
243	0xbe1fc8df	-0.1560397
244	0x3e010e37	0.12603079
245	0x3c03fcfc	0.008055922
246	0xbe02766a	-0.12740484
247	0x3d3a461a	0.04547701
248	0xbd389ade	-0.045069568
249	0xbd169f3b	-0.036772948
250	0x3df79ea7	0.120908074
251	0x3cc16f19	0.023612546
252	0x3bbcc07f	0.005760252
253	0x3c82e087	0.015976204
254	0x3e012ba0	0.12614298
255	0xbe3a78e6	-0.18210182

EiLM.1.gamma_generator.weight f4 [1, 32]
0	0xbca35af7	-0.019940836
1	0xbe1c1b28	-0.15244734
2	0xbe36ca94	-0.17850715
3	0x3df64d23	0.120264314
4	0x3cdbcc91	0.026830943
5	0xbcbd7933	-0.023129081
6	0x3dc3cd59	0.09560651
7	0xbdd1a2ff	-0.10236167
8	0xbe083c47	-0.13304244
9	0xbacc7b22	-0.0015600661
10	0x3cbda935	0.023151973
11	0xbcae82d6	-0.021302622
12	0x3e33013c	0.1748094
13	0x3e0c3e48	0.13695633
14	0xbd0c38f9	-0.03423402
15	0xbd3e07a9	-0.046394024
16	0x3d905c19	0.07048816
17	0xbe0e861d	-0.13918348
18	0xbd55a99f	-0.052163716
19	0x3df0166e	0.11723028
20	0x3db90cc3	0.09035637
21	0x3d22bb3b	0.03972934
22	0x3e26eddf	0.16301678
23	0xbd85c332	-0.06531371
24	0x3da9f289	0.08298213
25	0x3d57b6bc	0.052664503
26	0xbd3c2362	-0.04593218
27	0x3d8b6f3a	0.06808324
28	0xbdffbe03	-0.12487414
29	0x3e3f9fc4	0.1871329
30	0x3de7c5c4	0.11317018
31	0x3d59e08d	0.053192664

EiLM.1.beta_generator.weight f4 [32, 32]
0	0x3ca3320a	0.019921321
1	0x3dd499f6	0.10380928
2	0x3c701b59	0.014654958
3	0xbe258151	-0.16162612
4	0xbe2c07de	-0.16799876
5	0x3e05f07f	0.13080023
6	0xbb9f5c49	-0.004863296
7	0x3e152813	0.14566068
8	0xbe060e3f	-0.13091372
9	0x3e39eafe	0.18156049
10	0x3d6dfcff	0.058102604
11	0x3e16e16a	0.14734426
12	0xbdf9985e	-0.12187265
13	0x3d45c3d7	0.04828247
14	0xbd1f87f2	-0.038948007
15	0xbe0a3b7b	-0.13499252
16	0x3cd58e41	0.026068809
17	0x3e1e83d2	0.15479973
18	0x3ddc004d	0.10742245
19	0x3e343028	0.17596495
20	0xbd72e299	-0.05929813
21	0x3dda40e9	0.10656912
22	0xbe32f7e3	-0.17477374
23	0x3e136bc1	0.14396574
24	0xbe22b304	-0.15888602
25	0x3d03b7c5	0.03215768
26	0x3dc7e09d	0.097596385
27	0xbdda1183	-0.10647871
28	0x3e08de4f	0.13366054
29	0xbdfad1be	-0.122470364
30	0xbde339e1	-0.11095024
31	0xbcff4c53	-0.031164324
32	0xbd2251f6	-0.039628945
33	0xbcafff9a	-0.021484185
34	0xbe31c7a9	-0.1736132
35	0xbcbde7fc	-0.023181908
36	0x3e0ede26	0.1395193
37	0xbdc75675	-0.09733287
38	0x3dedbec4	0.11608651
39	0x3e33983a	0.17538539
40	0x3c181609	0.009282597
41	0xbe03c4c6	-0.12868032
42	0xbe0bd7d6	-0.13656554
43	0x3d37596f	0.044763025
44	0xbe082bec	-0.13298005
45	0xbe0f023f	-0.139657
46	0x3e3d01c3	0.18457703
47	0x3dfc6f1f	0.12325882
48	0x3cd66b46	0.026174199
49	0xbe161341	-0.14655782
50	0xbe078a22	-0.13236287
51	0xbdf8a97a	-0.121417
52	0xbd91e3e0	-0.07123542
53	0x3de34caf	0.110986106
54	0xbd5a2f3d	-0.053267706
55	0xbd7e39b4	-0.06206675
56	0x3e225c69	0.15855564
57	0xbd5d7ca9	-0.054073963
58	0xbdbfa8e8	-0.09358388
59	0x3dd0f7df	0.10203528
60	0x3e2d562a	0.169274
61	0xbd9e5a2e	-0.07732044
62	0xbc5894d4	-0.013219077
63	0x3d889795	0.06669537
64	0xbccfdad8	-0.025372908
65	0x3d7a63ee	0.061130457
66	0xbac8d018	-0.0015320806
67	0xbe12eaf9	-0.14347447
68	0x3d0a5537	0.033772673
69	0x3e2b1d1f	0.16710328
70	0x3d7df6f3	0.062003087
71	0xbd7a289b	-0.06107388
72	0xbc98b93e	-0.018643018
73	0xbdbb5336	-0.091467306
74	0xbdc74ea0	-0.097317934
75	0xbe2b3298	-0.16718519
76	0xbcb9fcf0	-0.022703618
77	0xbe0d8f63	-0.13824229
78	0x3e1464e5	0.14491613
79	0xbe073a7d	-0.13205905
80	0x3e0d9cc1	0.13829328
81	0xbdd84897	-0.105607204
82	0x3e11ae83	0.14226727
83	0x3e2f113f	0.17096423
84	0x3d0a888e	0.033821635
85	0x3b6158e9	0.003438527
86	0x3dbfce46	0.093655154
87	0xbe1687e2	-0.14700273
88	0x3de513e3	0.11185434
89	0xbdabfea3	-0.083981775
90	0x3a2afe68	0.0006522895
91	0xbd4c6176	-0.049897633
92	0xbb8f7ef3	-0.004379147
93	0x3da6f9e9	0.08153135
94	0xbd8c5f65	-0.068541326
95	0xbe2dd75a	-0.16976681
96	0x3b78ebd8	0.003798237
97	0xbe15425a	-0.14576092
98	0xbd2e20aa	-0.04251162
99	0x3e38d197	0.18048702
100	0xbe2255ed	-0.1585309
101	0xbd8053c6	-0.062659785
102	0x3d40eaf9	0.047099087
103	0x3e2e04ae	0.16993973
104	0xbd648080	-0.05578661
105	0x3df51884	0.119675666
106	0x3e0a88bd	0.13528724
107	0x3e07a1ed	0.13245364
108	0x3dc9ba84	0.09850028
109	0xbd9d8aff	-0.07692527
110	0xbd46c9e6	-0.04853239
111	0xbca3d4aa	-0.019998867
112	0xbd5245bd	-0.05133604
113	0xbd42cf44	-0.047560945
114	0xbe26726c	-0.16254586
115	0x3da54e71	0.08071602
116	0x3c40ce04	0.011767868
117	0x3d66035c	0.056155547
118	0x3e33111b	0.17486994
119	0xbd645459	-0.055744503
120	0xbd9d1291	-0.07669557
121	0x3e2459d4	0.16049892
122	0xbe36c9b8	-0.17850387
123	0xbd8929be	-0.06697415
124	0x3d4b3e09	0.04961971
125	0xbd9a8802	-0.07545473
126	0xbe232428	-0.15931761
127	0xbde75f82	-0.112975135
128	0x3d7eea21	0.062235
129	0xbd20dc0f	-0.039272364
130	0xbdad7acc	-0.08470687
131	0x3d8c834a	0.06860979
132	0xbd79c12f	-0.06097525
133	0xbdc436da	-0.095807746
134	0x3dea8ee7	0.11453038
135	0x3d5cb49a	0.053883173
136	0xbe1fa8a2	-0.15591672
137	0xbe2a594e	-0.1663563
138	0xbe1c0f3f	-0.15240191
139	0x3da0707f	0.07833957
140	0xbd863497	-0.065529995
141	0x3db21615	0.08695618
142	0xbe1f0d4b	-0.15532415
143	0x3e3dd51c	0.18538326
144	0x3cb3a4d4	0.021929182
145	0x3c1fcf67	0.009754038
146	0x3a2a94af	0.0006507141
147	0xbe033b95	-0.12815697
148	0xbd219e43	-0.03945757
149	0xbe09b9d5	-0.13449796
150	0x3ddfad40	0.10921717
151	0xbd4fbb51	-0.05071575
152	0xbd85ffbf	-0.0654292
153	0xbdfc755c	-0.12327072
154	0x3e11e350	0.14246869
155	0x3dd7a71f	0.10529923
156	0x3d1381e3	0.03601254
157	0x3d8cbee5	0.06872348
158	0xbdb9ffbb	-0.0908198
159	0x3ccb0a23	0.024785107
160	0xbe36e8bb	-0.17862217
161	0x3c65cec1	0.014026345
162	0x3e23cea3	0.15996794
163	0x3e15f4d2	0.14644173
164	0xbdf226c3	-0.118237995
165	0x3c99cb3b	0.018773666
166	0x3e2c117b	0.16803543
167	0x3db80614	0.08985534
168	0xbe33d6ee	-0.17562458
169	0xbe1da198	-0.15393674
170	0x3d81f886	0.0634623
171	0x3ce102a8	0.027467087
172	0xbdb0202d	-0.08599887
173	0x3d68191f	0.056664582
174	0xbe1bf7c3	-0.15231232
175	0xbd9e5bbc	-0.07732341
176	0xbe20512c	-0.15655965
177	0x3e295439	0.16536035
178	0x3d44f87c	0.048088536
179	0xbe3a5b21	-0.18198825
180	0x3e169328	0.14704573
181	0xbceb37b2	-0.028713081
182	0xbd592dc5	-0.053022165
183	0x3e067f88	0.13134587
184	0xbe19c98e	-0.15018293
185	0xbd6a0eed	-0.05714314
186	0xbe1d0f64	-0.15337902
187	0x3dd441b6	0.10364096
188	0xbd630ac9	-0.055430207
189	0x3d0547fd	0.032539356
190	0x3db14c7c	0.08657166
191	0x3d982feb	0.074310146
192	0x3e0e976f	0.13924955
193	0xbdb41e82	-0.087948814
194	0xbd8377c1	-0.064193256
195	0xbe34b66e	-0.17647716
196	0xbda36e75	-0.079800524
197	0xbdbb4cf8	-0.0914554
198	0xbd7f116e	-0.06227248
199	0x3e2dc363	0.16969065
200	0xbe027cfa	-0.12742987
201	0x3d7dab86	0.061931156
202	0x3de9ef0a	0.11422546
203	0xbc9414f3	-0.018076396
204	0xbdcc916e	-0.09988676
205	0x3e1bdec3	0.15221696
206	0x3e416ead	0.18889876
207	0x3c4994d6	0.012303552
208	0xbe21f290	-0.15815187
209	0xbd8f7190	-0.07004082
210	0x3dd156cf	0.102216356
211	0x3d96ced1	0.07363666
212	0xbc8ddbcd	-0.017316723
213	0xbdee5942	-0.11638118
214	0xbde480b0	-0.11157358
215	0xbd98cedb	-0.074613295
216	0xbdaba391	-0.08380807
217	0x3cc05e35	0.023482421
218	0xbd8daa4c	-0.06917247
219	0x3e1f5e30	0.15563273
220	0xbb908f96	-0.004411648
221	0x3d8217f9	0.06352229
222	0xbdf8c2a7	-0.12146502
223	0x3e25d150	0.16193128
224	0xbe23aad5	-0.15983136
225	0xbc2d9515	-0.010594626
226	0xbc2e4025	-0.01063541
227	0xbde1b75c	-0.11021301
228	0x3c38f92f	0.011289879
229	0xbd56d9c7	-0.052453782
230	0x3dfd022c	0.1235393
231	0xbd912b72	-0.07088365
232	0xbd7acccd	-0.06123047
233	0x3dbde645	0.09272436
234	0xbdb5add5	-0.088710465
235	0xbc000743	-0.007814231
236	0xbe348d95	-0.17632134
237	0xbe0ba334	-0.13636476
238	0xbb95ea21	-0.0045750295
239	0xbdf0f6b3	-0.11765804
240	0xbe061980	-0.13095665
241	0xbd832392	-0.06403269
242	0xbe2274c4	-0.15864855
243	0xbd751214	-0.059831694
244	0xbd6274bc	-0.055287108
245	0xbe1e51f6	-0.15460953
246	0xbe2807c1	-0.16409208
247	0x3e2ddc16	0.16978487
248	0xbe08cea8	-0.13360083
249	0xbe0aa817	-0.13540684
250	0xbe0bb497	-0.13643108
251	0x3ca32c64	0.019918628
252	0x3da24a82	0.079243675
253	0xbae838aa	-0.0017717083
254	0xbdf85173	-0.1212491
255	0xbca4b458	-0.020105526

EiLM.2.gamma_generator.weight f4 [1, 32]
0	0x3de8e012	0.11370863
1	0xbdcb7aad	-0.09935508
2	0x3d9943e2	0.07483651
3	0xbe3389fc	-0.17533106
4	0xbdec46f6	-0.11536972
5	0xbd06f5a2	-0.032949097
6	0x3c9f7136	0.019463163
7	0xbdb65484	-0.08902839
8	0x3e37939d	0.17927404
9	0xbe068122	-0.13135198
10	0x3dffaaf9	0.12483782
11	0x3e0f9330	0.14020991
12	0xbdc1e140	-0.09466791
13	0xbdf41d36	-0.11919634
14	0xbc747992	-0.014921563
15	0xbc2a24e4	-0.010384772
16	0xbc19d480	-0.009389043
17	0xbd95a9ee	-0.07307802
18	0x3d6dc487	0.05804875
19	0xbdb2f75b	-0.087385856
20	0xbe1d622e	-0.15369484
21	0xbcd6d9a6	-0.02622683
22	0x3df5ec12	0.120079175
23	0xbe1660f1	-0.14685418
24	0xbe00a84e	-0.12564203
25	0xbd873fe9	-0.06603987
26	0xbd98545c	-0.07437965
27	0x3d32bad6	0.043635212
28	0xbe308e4f	-0.17241786
29	0x3e13c803	0.14431767
30	0x3decfab5	0.11571256
31	0xbdb77200	-0.08957291

EiLM.2.beta_generator.weight f4 [32, 32]
0	0xbc8d71c1	-0.017266156
1	0xbdf4da70	-0.11955726
2	0xbd9c60a1	-0.07635618
3	0xbe2c8702	-0.16848376
4	0xbe375382	-0.1790295
5	0x3e10f502	0.14155963
6	0x3e1b2627	0.15151273
7	0x3dd33706	0.10313229
8	0x3c9eacdc	0.019369535
9	0xbb69a984	-0.0035654018
10	0xbd02aee7	-0.03190508
11	0x3b43c39d	0.0029871233
12	0xbe1b5f81	-0.1517315
13	0x3df79ee6	0.12090854
14	0xbd81c7ea	-0.06336959
15	0x3d1eb4c6	0.038746618
16	0x3dd143ac	0.102179855
17	0xbd8b1346	-0.067907855
18	0xbd4c70c1	-0.049912218
19	0xbca7e0d6	-0.020492952
20	0xbe1a15e2	-0.1504741
21	0xbe0ff3cf	-0.1405785
22	0xbe2d7a4f	-0.16941188
23	0xbd1c0032	-0.038086124
24	0x3dbf6685	0.09345726
25	0xbe2d6de6	-0.16936454
26	0xbdc880c6	-0.097901866
27	0xbe246ee7	-0.16057931
28	0xbe227007	-0.15863048
29	0xbe40a4d4	-0.18812877
30	0x3d037b0b	0.032099765
31	0x3d7e6a9b	0.062113386
32	0x3e0f84e4	0.14015538
33	0x3d3951ba	0.045243956
34	0xbe1a48b7	-0.15066801
35	0xbd665606	-0.056234382
36	0x3d395646	0.045248292
37	0xbddb39de	-0.10704397
38	0x3dbfd73b	0.09367224
39	0x3ddb5e38	0.1071133
40	0x3c86e5ac	0.016466938
41	0x3df9127f	0.12161731
42	0xbdae186a	-0.0850075
43	0xbe0834f9	-0.13301457
44	0x3e190397	0.14942776
45	0x3d943138	0.0723595
46	0xbd0a857a	-0.0338187
47	0x3d4733aa	0.048633255
48	0xbd15ca42	-0.03656984
49	0xbdf7359f	-0.12070774
50	0x3dc73474	0.097268015
51	0x3c221c84	0.009894494
52	0xbdfc8b1d	-0.12331221
53	0xbd927b00	-0.07152367
54	0xbd17eec2	-0.03709293
55	0x3c57c62f	0.013169809
56	0x3c66f55e	0.014096586
57	0xbe246cbd	-0.16057105
58	0xbe06a790	-0.13149858
59	0x3d7a8f02	0.06117154
60	0x3dcb5246	0.09927802
61	0xbc6d1928	-0.01447133
62	0xbdb3c9ac	-0.087787
63	0x3d55992d	0.052148033
64	0xbd78fb81	-0.060786728
65	0xbdd3996a	-0.10331996
66	0x3e29dd29	0.16588272
67	0x3e0106b3	0.12600212
68	0xbe1475b5	-0.14498027
69	0x3df1dc3b	0.11809584
70	0xbd864f17	-0.06558054
71	0x3b89a2f4	0.0042003337
72	0x3e065388	0.13117802
73	0xbe011acd	-0.1260788
74	0xbe33ddce	-0.1756508
75	0x3d0de639	0.034643386
76	0xbe180d6a	-0.14848867
77	0xbd4edfbc	-0.05050634
78	0xbd165847	-0.03670528
79	0x3d0f1b68	0.034938246
80	0x3dafb851	0.085800774
81	0x3e22ee28	0.15911162
82	0x3dd045a6	0.101695344
83	0x3e2c4f5d	0.1682715
84	0x3e153a00	0.14572906
85	0xbe114c58	-0.14189279
86	0x3d99f7d6	0.07517974
87	0x3e2932e8	0.16523325
88	0x3dfd65f4	0.12372962
89	0x3df9df20	0.12200761
90	0xbda8810d	-0.082277395
91	0x3d654f37	0.05598375
92	0x3dabeff1	0.083953746
93	0x3d42607a	0.04745529
94	0x3decc2c8	0.11560589
95	0xbd60f227	-0.054918434
96	0x3d46f4e0	0.048573375
97	0xbe1a8ec4	-0.15093523
98	0x3e0f4fae	0.13995239
99	0xbcc235ef	-0.023707358
100	0xbd0c05e1	-0.034185294
101	0xbdaa72a2	-0.08322646
102	0xbe16b9d8	-0.14719331
103	0xbb42ad8f	-0.00297055
104	0xbe2a3747	-0.16622649
105	0xbdedba92	-0.11607851
106	0x3d5bda86	0.053675197
107	0x3d0e1c77	0.034695115
108	0x3cfa6cdd	0.030569488
109	0xbdb6f8d9	-0.08934183
110	0x3dd08c25	0.101829804
111	0xbd8de208	-0.06927878
112	0x3e29b41a	0.1657261
113	0xbe0c08e4	-0.13675267
114	0xbd48ddd0	-0.049039662
115	0x3ca72184	0.020401724
116	0xbd16135d	-0.03663956
117	0x3e0e12ed	0.13874407
118	0xbdd86465	-0.10566024
119	0x3db04bb0	0.08608186
120	0x3e0b70a8	0.13617194
121	0x3d8f81a2	0.07007147
122	0x3d38d830	0.045128047
123	0xbe13aab2	-0.14420584
124	0xbdbb9d58	-0.0916087
125	0xbde37763	-0.111067556
126	0x3df14684	0.11781028
127	0xbd1b2704	-0.037879005
128	0xbccc74d4	-0.024958052
129	0x3d76dac8	0.06026724
130	0xbd18e45a	-0.037327148
131	0xbe364db1	-0.17803074
132	0x3e0c6dbd	0.13713737
133	0x3d4228f1	0.047402326
134	0x3d5cf9f7	0.053949323
135	0x3e305e96	0.17223582
136	0x3e2f8a14	0.17142516
137	0xbd322671	-0.04349369
138	0xbdeb17f5	-0.11479179
139	0xbe3dad5a	-0.1852316
140	0x3e40079c	0.18752903
141	0x3dbe9054	0.09304872
142	0xbdd051e3	-0.10171869
143	0xbd26af22	-0.040694363
144	0xbe1af702	-0.15133289
145	0x3d90d47f	0.070717804
146	0xbda7ec5b	-0.08199378
147	0x3d9cf1b4	0.07663289
148	0x3d4baf42	0.049727686
149	0xbd9775b6	-0.073954985
150	0xbd884eaa	-0.06655629
151	0x3bf2d7bc	0.0074109714
152	0x3cb1ca04	0.021702774
153	0xb832909d	-4.257319e-05
154	0xbe2420e8	-0.16028178
155	0xbe2250cd	-0.15851136
156	0x3c992ae9	0.018697219
157	0xbe1dc7df	-0.15408276
158	0x3de5fa6a	0.11229403
159	0x3e3adec4	0.18249041
160	0x3cbae8f1	0.022816153
161	0xbe00631e	-0.1253781
162	0xbd3c027b	-0.045900803
163	0x3de73a15	0.11290375
164	0xbe1e36af	-0.15450548
165	0x3c432a10	0.011911884
166	0x3ddc4adc	0.10756466
167	0xbe230ff7	-0.15924059
168	0xbdb4ee76	-0.08834545
169	0x3dcf7934	0.101305395
170	0x3e278652	0.16359833
171	0x3dcea4ed	0.10090051
172	0xbd9a04e1	-0.07520462
173	0xbdf4926e	-0.11941992
174	0xbddfcedb	-0.109281264
175	0x3e23647d	0.15956302
176	0xbd54f92c	-0.05199544
177	0xbd87a701	-0.0662365
178	0x3e036717	0.12832294
179	0x3df6b664	0.12046507
180	0xbdf4b8a4	-0.1194928
181	0x3e254e3a	0.16143122
182	0x3d2d4db4	0.04231043
183	0x3d4efdef	0.05053514
184	0xbe0a6903	-0.13516621
185	0xbd39deef	-0.04537862
186	0x3e1dd32d	0.15412588
187	0xbe28c700	-0.16482162
188	0xbdb46f41	-0.088102825
189	0x3d83e80b	0.06440743
190	0xbd056de4	-0.032575503
191	0x3e0eb8ba	0.13937655
192	0xbd4437e9	-0.047904883
193	0x3d3d592d	0.046227623
194	0xbe01918e	-0.12653181
195	0xbde7e640	-0.113232136
196	0x3c5ad1d3	0.01335569
197	0xbcd24f3b	-0.025672546
198	0xbdb70222	-0.08935954
199	0x3db8aad2	0.090169564
200	0xbe236438	-0.15956199
201	0x3bbda2d7	0.0057872343
202	0xbe209a1c	-0.15683788
203	0x3e12e669	0.14345707
204	0xbd8b81f5	-0.06811897
205	0xbdf15f32	-0.11785735
206	0x3db842fe	0.08997153
207	0x3d780286	0.06054928
208	0x3d899937	0.067186765
209	0x3e361f5a	0.17785397
210	0xbdc5c2ab	-0.096562706
211	0xbe34f031	-0.17669751
212	0x3ddccca5	0.1078122
213	0x3dcd0109	0.10009963
214	0x3d579f07	0.052641895
215	0xbdf6a758	-0.12043637
216	0xbdf5813e	-0.119875416
217	0x3e2cac84	0.16862684
218	0xbd2d0a6d	-0.04224627
219	0x3e2b48f6	0.16727051
220	0xbdc41617	-0.09574526
221	0x3cc9e575	0.024645546
222	0x3d8a84d9	0.0676362
223	0x3d661775	0.056174714
224	0x3df88870	0.121353984
225	0x3e1d7fd5	0.15380795
226	0xbd659e87	-0.056059387
227	0x3d9b1312	0.07571997
228	0xbcd2c39f	-0.025728045
229	0x3ddc68d1	0.1076218
230	0x3d7337a1	0.059379224
231	0x3e15251e	0.1456494
232	0xbe279039	-0.1636361
233	0xbd2699ef	-0.040674146
234	0x3dadaa8b	0.08479794
235	0x3e3c75fe	0.18404385
236	0xbe06b7ac	-0.13156003
237	0x3dcb4b42	0.09926464
238	0x3e1b3b2e	0.15159294
239	0xbd1b32aa	-0.037890114
240	0x3dc3cb40	0.09560251
241	0xbd1368a9	-0.035988484
242	0x3dd6a723	0.104810975
243	0x3d519539	0.0511677
244	0xbd9d4ae3	-0.07680299
245	0x3dd47190	0.10373223
246	0xbd247833	-0.040153693
247	0xbc2b997d	-0.010473606
248	0xbd16c177	-0.036805596
249	0xbdc894dd	-0.097940184
250	0x3dc7886c	0.09742817
251	0x3e1f22fc	0.15540689
252	0xbdff8968	-0.1247738
253	0xbe27d1c9	-0.1638862
254	0xbe11f431	-0.14253308
255	0xbd8b7f9e	-0.068114504

EiLM.3.gamma_generator.weight f4 [1, 32]
0	0xbd3943c0	-0.045230627
1	0xbcd9518a	-0.026528139
2	0xbcabb304	-0.020959385
3	0x3e27cd64	0.16386944
4	0xbd3ed041	-0.046585325
5	0xbe0453b5	-0.12922557
6	0x3dd78c62	0.10524823
7	0x3e20289d	0.15640493
8	0xbe1d62fa	-0.15369788
9	0x3dfbbaa1	0.12291456
10	0xbe0253fc	-0.1272735
11	0x3da48dee	0.080348834
12	0xbd052fb1	-0.032516185
13	0xbda64665	-0.081188954
14	0x3dcb5fdf	0.09930395
15	0xbdc273e8	-0.094947636
16	0xbe2deedf	-0.16985653
17	0xbdbf6a94	-0.093465
18	0xbde5987c	-0.11210725
19	0x3de5cb9c	0.11220476
20	0xbe14aaaf	-0.14518236
21	0xbce7a1fb	-0.02827548
22	0x3dae70d5	0.08517615
23	0x3e19c209	0.15015425
24	0x3d804e78	0.06264967
25	0x3d4291fb	0.0475025
26	0xbd9a6fcf	-0.07540857
27	0x3dece7a7	0.11567622
28	0xbe1e70c9	-0.15472712
29	0xbdf5f8c7	-0.12010341
30	0xbe019d09	-0.1265756
31	0xbe1e5e5f	-0.15465687

EiLM.3.beta_generator.weight f4 [32, 32]
0	0xbdb53df9	-0.08849711
1	0x3e44748b	0.19185083
2	0xbdedbde1	-0.11608482
3	0xbd17dc3a	-0.03707526
4	0xbd83793a	-0.064196065
5	0xbcd4dcad	-0.025984133
6	0xbdbd6716	-0.09248178
7	0x3c6c1ef8	0.01441168
8	0xbdc9d41a	-0.09854908
9	0xbe1f86ea	-0.1557881
10	0x3d9ed5e3	0.077556394
11	0xbd1cdefd	-0.038298596
12	0x3d9c5749	0.07633836
13	0xbd4f80d6	-0.050659977
14	0xbe2cae66	-0.16863403
15	0x3d4b8613	0.04968841
16	0x3e1d84e1	0.1538272
17	0xbe2aab8a	-0.16667
18	0xbce7842d	-0.028261269
19	0xbd3cac30	-0.04606265
20	0x3e2503e3	0.16114764
21	0xbd9cacf5	-0.076501764
22	0xbc8d2816	-0.017231029
23	0x3dd72fd9	0.10507173
24	0x3d95c481	0.07312871
25	0xbcace79a	-0.02110653
26	0xbe1a4826	-0.15066585
27	0xbddd463f	-0.10804414
28	0xbb664f51	-0.003514249
29	0xbe46e270	-0.19422317
30	0x3c378967	0.011202193
31	0x3d32d998	0.043664545
32	0xbd9c52ec	-0.076330036
33	0xbe2c44ba	-0.16823092
34	0x3dac8a33	0.08424797
35	0x3df42126	0.11920385
36	0xbe3468e2	-0.17618135
37	0xbc24bd35	-0.010054876
38	0x3d9af1c9	0.07565648
39	0x3c83ab97	0.016073031
40	0xbe11cb28	-0.14237654
41	0x3e24e6ef	0.16103719
42	0xbd75fa97	-0.060053434
43	0xbd4b1139	-0.04957697
44	0x3e2a6d9d	0.16643377
45	0xbe011ada	-0.126079
46	0x3df2d75c	0.11857483
47	0xbe08a367	-0.13343583
48	0x3cd3d06c	0.02585622
49	0x3e28dd1a	0.16490594
50	0x3dc95082	0.09829809
51	0x3d3ab715	0.045584757
52	0x3d118ceb	0.03553478
53	0xbd514c3f	-0.051098105
54	0x3dc18de5	0.09450892
55	0xbdc60fab	-0.09670957
56	0x3ddf175c	0.10893127
57	0x3cefeb03	0.029286867
58	0xbcc6a422	-0.024248186
59	0xbd2e28ec	-0.042519495
60	0x3e24ce3b	0.16094296
61	0x3dcfc999	0.101458736
62	0x3dfff892	0.12498583
63	0xbd9a0f9a	-0.07522507
64	0x3d0de3b0	0.034640968
65	0x3e2bd091	0.1677878
66	0x3e2e4792	0.1701949
67	0x3cd808d1	0.026371391
68	0x3de1bc63	0.1102226
69	0xbd90d81f	-0.07072472
70	0x3d1f14d2	0.038838215
71	0x3c3a7b58	0.0113819465
72	0x3c4a8955	0.012361844
73	0x3da4da0d	0.080494024
74	0xbdb43962	-0.088000074
75	0x3c528c94	0.012850899
76	0xbd8ffbde	-0.07030462
77	0xbbd51c26	-0.0065035997
78	0xbe28f6ab	-0.16500346
79	0xbc396b8f	-0.011317148
80	0xbaa1805c	-0.0012321579
81	0x3df04b45	0.117331065
82	0xbe094e9f	-0.13408898
83	0xbd99f898	-0.075181186
84	0x3c67adb0	0.014140531
85	0x3decc301	0.115606315
86	0xbda4ce16	-0.0804712
87	0xbdc8b80f	-0.098007314
88	0xbe1a99f0	-0.15097785
89	0x3d390024	0.04516615
90	0xbdda7af7	-0.10667985
91	0xbd1a9588	-0.03774026
92	0x3c0ccb27	0.008593357
93	0xbe2a0daf	-0.16606782
94	0x3e19451b	0.14967768
95	0xbe0180d0	-0.12646794
96	0x3dba836f	0.091071
97	0xbdb545fd	-0.0885124
98	0xbdd4c469	-0.10389025
99	0x3dc385b9	0.0954699
100	0xbd66ced4	-0.05634959
101	0xbdfec7bf	-0.12440442
102	0xbe061744	-0.13094813
103	0x3c8cb7a6	0.017177414
104	0xbd535b76	-0.051600896
105	0xbd3684ea	-0.04456035
106	0xbe2516ff	-0.16122054
107	0xbdb90900	-0.0903492
108	0xbd21c0da	-0.03949056
109	0xbe1519c9	-0.14560618
110	0x3c8439cf	0.016140847
111	0x3deb2197	0.11481016
112	0xbceb13f1	-0.028696032
113	0x3ced09d6	0.028935354
114	0xbd4be67a	-0.049780346
115	0xbe3473ee	-0.17622349
116	0xbe0d67d8	-0.13809144
117	0x3dc398bc	0.09550616
118	0x3ca52fea	0.020164449
119	0x3e10a3dd	0.14125009
120	0xbe0e3cec	-0.13890427
121	0x3e2778b6	0.16354641
122	0x3dc9eb0a	0.09859283
123	0xbd1e83f1	-0.038700048
124	0xbdc09c5e	-0.09404825
125	0x3e1f6b6c	0.15568322
126	0x3d491cfe	0.049099915
127	0x3de488bd	0.11158893
128	0x3dd9d1dc	0.106357306
129	0xbd8e7442	-0.06955768
130	0x3d6ee9ee	0.05832856
131	0xbd7f71f5	-0.062364537
132	0xbe00b6a6	-0.12569675
133	0x3e1a095b	0.15042631
134	0xbdf74969	-0.12074549
135	0x3e242925	0.1603132
136	0xbcc35267	-0.023843003
137	0x3db00972	0.085955516
138	0x3e2aef1f	0.1669278
139	0xbd40cf4f	-0.047072705
140	0x3e04a7ea	0.12954679
141	0xbe0c9b87	-0.13731204
142	0xbe13505c	-0.14386123
143	0x3ddbd9f9	0.10734934
144	0x3dd4d028	0.10391265
145	0xbcd3bc00	-0.025846481
146	0x3daadad4	0.083425194
147	0x3e19d970	0.15024352
148	0x3e25a18c	0.16174906
149	0xbe33d73a	-0.17562571
150	0x3d50124e	0.050798707
151	0xbd816dd1	-0.06319774
152	0x3e19407d	0.14966007
153	0xbd19671d	-0.037451852
154	0xbe292300	-0.16517258
155	0xbd4580dc	-0.048218593
156	0x3db1c1d6	0.086795494
157	0x3c20e743	0.009820762
158	0x3e0f55c9	0.13997568
159	0x3d1ed2ee	0.038775377
160	0xbdf07fab	-0.11743101
161	0x3e2d1590	0.16902757
162	0x3dd7f536	0.10544817
163	0xbde3a3de	-0.111152396
164	0x3d9e6c58	0.07735509
165	0x3e06e2c1	0.13172437
166	0x3cad4f06	0.021155845
167	0x3cce264d	0.025164748
168	0x3bc76d77	0.0060860473
169	0x3d6fce39	0.05854628
170	0x3d244e04	0.040113464
171	0x3e16bfca	0.14721599
172	0xbdda347f	-0.10654544
173	0xbd26a9e2	-0.040689357
174	0x3ddab399	0.10678787
175	0x3d4ea972	0.050454564
176	0xbcf491fd	-0.029854769
177	0xbe28d20b	-0.16486375
178	0x3e1f80b6	0.15576443
179	0xbe24ba9a	-0.16086808
180	0xbe286384	-0.16444212
181	0xbdcdf427	-0.10056334
182	0x3e2d6746	0.16933927
183	0x3de37070	0.1110543
184	0x3d38d58f	0.04512554
185	0xbdcb40b4	-0.099244505
186	0x3d1ae469	0.037815485
187	0xbe000038	-0.12500083
188	0x3d37cec7	0.044874933
189	0x3d8d1680	0.06889057
190	0xbd876368	-0.06610757
191	0x3d491ae0	0.049097896
192	0xbd924e29	-0.07143814
193	0x3e260b21	0.16215183
194	0x3d5b3e1d	0.053526033
195	0xbda68d47	-0.08132415
196	0xbca439d0	-0.020047098
197	0x3ddd4267	0.10803681
198	0x3dcb22c4	0.099187404
199	0xbd104505	-0.035222072
200	0xbe1d9e8c	-0.15392512
201	0x3dfc623d	0.12323425
202	0x3e2b6c10	0.16740441
203	0xbe145d68	-0.14488757
204	0xbd97aec2	-0.07406379
205	0xbd808e6c	-0.06277165
206	0x3cada1d2	0.021195326
207	0x3ddf3c43	0.10900166
208	0x3d6bed7d	0.057599533
209	0x3e001251	0.12506987
210	0x3d94212d	0.0723289
211	0x3db29758	0.08720273
212	0xbddce4b4	-0.10785809
213	0x3e1b9b95	0.15196069
214	0x3e0b8e45	0.1362849
215	0x3d41c0e9	0.047303114
216	0x3b72a7a1	0.0037026184
217	0xbd430e22	-0.0476209
218	0x3d54355c	0.0518087
219	0x3e0a30f3	0.13495235
220	0x3e14c25b	0.14527266
221	0x3d69f636	0.05711957
222	0xbba5a2ce	-0.005054808
223	0xbcf4d675	-0.029887417
224	0x3d380df3	0.044935178
225	0x3e2c52c4	0.16828448
226	0x3d3f05ff	0.046636578
227	0xbdd47cfe	-0.10375403
228	0xbcf7d427	-0.03025253
229	0x3de71b9d	0.11284564
230	0xbddc0a74	-0.10744181
231	0x3d39f81a	0.045402624
232	0x3dc8f76a	0.098128155
233	0x3d9725c1	0.07380248
234	0xbdd0c31f	-0.101934664
235	0x3cf7e62a	0.030261118
236	0x3da308d7	0.079606704
237	0x3dede1e5	0.116153516
238	0xbca19f9a	-0.019729424
239	0xbe01f265	-0.12690122
240	0xbe11b913	-0.14230756
241	0xbe0cc4bd	-0.13746925
242	0x3e038e5e	0.12847278
243	0x3d97e1ea	0.074161366
244	0xbe16863e	-0.14699647
245	0xbdf2034f	-0.11817037
246	0xbd94ba40	-0.07262087
247	0xbd2bab66	-0.041911505
248	0xbdd6aade	-0.10481809
249	0x3e05c128	0.13061965
250	0x3dbd3f9e	0.0924065
251	0xbdde10dc	-0.108430594
252	0xbdcc2c98	-0.09969443
253	0xbe38ef64	-0.1806007
254	0xbe2e5a7b	-0.17026703
255	0xbd9d49c2	-0.07680084

Gate.weight f4 [4, 32]
0	0x3e19ac83	0.15007214
1	0x3cafa54b	0.021441123
2	0xbc937960	-0.018002212
3	0x3e0e133e	0.13874528
4	0x3d77cab4	0.060496047
5	0xbdd9b985	-0.10631088
6	0x3e1349d6	0.14383635
7	0xbe2463d4	-0.16053706
8	0x3da1c53c	0.078989476
9	0x3e228fe5	0.15875204
10	0x3e10fb89	0.14158453
11	0x3c6f14e6	0.014592385
12	0xbb670288	-0.0035249311
13	0xbde5378a	-0.11192234
14	0xbdd9a6a4	-0.10627487
15	0xbd56b9cb	-0.05242328
16	0x3ddbb339	0.107275434
17	0xbda96523	-0.082712434
18	0xbd3b827e	-0.045778744
19	0xbe0b4190	-0.13599229
20	0xbe05e8d6	-0.13077101
21	0xbcc410b4	-0.023933746
22	0xbd8c8cf5	-0.06862823
23	0xbd10fc8d	-0.0353971
24	0x3dadacbb	0.08480211
25	0x3e1a197f	0.15048788
26	0xbe0908d7	-0.13382278
27	0xbd631888	-0.055443317
28	0xbe3c0178	-0.18359935
29	0x3e325c14	0.17417938
30	0xbd721b61	-0.05910814
31	0xbe1ec4a3	-0.15504698
32	0x3e09c8e5	0.13455541
33	0xbde6d3c5	-0.112708606
34	0x3e2b01ed	0.16699953
35	0xbe08ec38	-0.1337136
36	0xbdf576b5	-0.11985532
37	0x3cbf8a89	0.023381488
38	0x3cfc7a0b	0.030819913
39	0xbd014283	-0.03155757
40	0x3ddb01e5	0.10693721
41	0x3dd8be66	0.105831906
42	0x3e12f80f	0.1435244
43	0xbdc2403d	-0.09484909
44	0xbd1a8654	-0.03772576
45	0xbe49014b	-0.196294
46	0x3d8d2ffd	0.06893919
47	0x3e099436	0.13435444
48	0xbdc6fc4e	-0.09716092
49	0x3d3ca7b1	0.04605836
50	0x3d851a43	0.0649915
51	0x3e171cf9	0.14757146
52	0xb9ea8cae	-0.00044736773
53	0x3d62244c	0.055210397
54	0x3c7be8f3	0.015375364
55	0xbc85f1bd	-0.016350621
56	0xbe1864e1	-0.14882232
57	0x3dacd2b1	0.08438624
58	0xbe123819	-0.14279212
59	0xbcf360a4	-0.029709168
60	0x3cbd3dd3	0.02310077
61	0x3df0198e	0.11723624
62	0xbde0db1b	-0.10979291
63	0x3be7fc07	0.0070796045
64	0x3dbe2ef7	0.092863016
65	0xbe237121	-0.15961124
66	0x3d85bf1d	0.065305926
67	0x3e0c802d	0.1372077
68	0xbcc20f4c	-0.023688935
69	0xbe392313	-0.18079786
70	0x3d076460	0.03305471
71	0x3e156e16	0.14592776
72	0x3e07d822	0.13266042
73	0x3d9fb27b	0.07797714
74	0xbe0ea976	-0.13931832
75	0x3ca8f2b6	0.020623546
76	0xbdfc5d39	-0.12322468
77	0xb9d8ad72	-0.00041327957
78	0x3e37ea83	0.17960553
79	0xbda8b69a	-0.082379535
80	0x3da2c3f2	0.0794753
81	0x3e39bc14	0.18138152
82	0xbe114984	-0.141882
83	0x3c8cb394	0.017175473
84	0x3dc6e6a4	0.0971196
85	0x3dddf455	0.10837618
86	0x3dab2c07	0.08358007
87	0x3a332622	0.00068339903
88	0xbd939ad1	-0.07207263
89	0xbd9d257a	-0.07673164
90	0xbd471d95	-0.048612196
91	0x3e192c8a	0.14958397
92	0xb8357250	-4.3260225e-05
93	0x3cad0e14	0.021124877
94	0xbbd87308	-0.0066055097
95	0xbdfdc4bc	-0.1239104
96	0xbdc237c4	-0.09483293
97	0x3dd9a082	0.106263176
98	0xbcb78ddf	-0.022406517
99	0x3e1b5dad	0.15172453
100	0x3dcef70b	0.101057135
101	0xbd950d3e	-0.07277916
102	0xbdd07a00	-0.1017952
103	0xbd9af7f8	-0.075668275
104	0xbd86405d	-0.06555245
105	0xbd37f620	-0.044912457
106	0xbdbc5d6d	-0.09197507
107	0x3e13f9ca	0.14450756
108	0x3e1ec214	0.15503722
109	0x3e0970c6	0.13421926
110	0xbd88d866	-0.066819
111	0xbe39cc40	-0.18144321
112	0xbd968d76	-0.073512
113	0x3e0e5d77	0.13902842
114	0xbe05d133	-0.13068084
115	0xbe14bb4e	-0.14524576
116	0xbd9ee743	-0.077589534
117	0xbe30bcd2	-0.17259529
118	0xbd299148	-0.041398317
119	0x3d61a2a4	0.055086747
120	0x3debea43	0.11519291
121	0x3d9ebb88	0.077506125
122	0xbe197ee7	-0.14989816
123	0xbd30fbfc	-0.04320906
124	0xbdf3a29e	-0.11896251
125	0x3d5d5448	0.054035455
126	0x3e287fe6	0.1645504
127	0xbe22d459	-0.15901317

experts.0.gate_proj.weight f4 [32, 32]
0	0xbe1db38d	-0.15400524
1	0x3e0a34c8	0.13496697
2	0x3d0b32e3	0.033984076
3	0xbc9954c5	-0.01871718
4	0x3de91a44	0.11381963
5	0x3c60180b	0.013677607
6	0x3c961ec2	0.018325213
7	0xbd449ee8	-0.048003107
8	0x3d8541f5	0.06506721
9	0xbe3881cf	-0.18018268
10	0xbe0f88dc	-0.14017051
11	0x3e36546e	0.17805645
12	0x3ccd511f	0.025063096
13	0xbd09c5b1	-0.0336358
14	0xbd7196a9	-0.05898157
15	0x3e0444f4	0.12916929
16	0x3e203194	0.15643913
17	0xbe208214	-0.15674621
18	0xbd2c2214	-0.042024687
19	0xbd14c605	-0.03632166
20	0xbdc89f3f	-0.09795999
21	0x3dd31017	0.10305803
22	0x3e1e9f3c	0.1549043
23	0xbe02442a	-0.12721315
24	0xbdd462ab	-0.10370382
25	0x3de8745c	0.11350319
26	0xbe1c069d	-0.15236898
27	0xbe17081e	-0.1474919
28	0x3e25413d	0.16138168
29	0xbda1cd05	-0.079004325
30	0x3d69f30c	0.057116553
31	0xbcc6c629	-0.024264412
32	0x3e10f10b	0.1415445
33	0x3dd59a90	0.10429871
34	0x3dfcd019	0.12344379
35	0xbd2071bc	-0.039170966
36	0xbe371ef9	-0.17882909
37	0x3e24edce	0.1610634
38	0x3e1d9f70	0.15392852
39	0x3c5bee58	0.013423525
40	0x3e29cf2b	0.16582935
41	0x3de11477	0.109902315
42	0xbdc7c9a8	-0.0975526
43	0xbcad8d31	-0.02118549
44	0xba77bd75	-0.00094505335
45	0x3dbf2020	0.09332299
46	0x3d50e8f6	0.05100342
47	0xbe1fd8a0	-0.1560998
48	0x3e11256b	0.1417443
49	0x3dc6b719	0.09702892
50	0x3ce2c574	0.027682044
51	0x3de4382c	0.111435264
52	0x3e0fe6ed	0.14052935
53	0x3e137c62	0.14402917
54	0xbdc8dfc4	-0.09808305
55	0xbcb2bfba	-0.021819938
56	0xbdcc27b4	-0.0996851
57	0x3c8fca58	0.01755254
58	0x3e20389c	0.15646595
59	0xbd014184	-0.03155662
60	0x3e28202f	0.16418527
61	0x3e1fe506	0.1561471
62	0xbdea016b	-0.11426052
63	0xbd8af7b3	-0.06785526
64	0xbd95e232	-0.07318534
65	0x3c1188d6	0.008882722
66	0xbddb8ba0	-0.10719991
67	0xbc4e11ac	-0.0125774555
68	0x3e28a150	0.16467786
69	0xbe08213f	-0.13293932
70	0x3d09f808	0.033683807
71	0x3d4cbdb0	0.049985588
72	0xbe0982f1	-0.13428856
73	0xbd4f5543	-0.05061842
74	0xbda6ab90	-0.08138192
75	0xbd5bd031	-0.053665344
76	0xbe1cdbf9	-0.15318288
77	0x3dbe5996	0.09294431
78	0x3d426a9f	0.047464963
79	0x3d39c11f	0.04535019
80	0xbd894ac0	-0.067037106
81	0xbda6d2ab	-0.081456505
82	0x3e25f9fa	0.1620864
83	0xbc2ee0ec	-0.010673743
84	0xbdb1a941	-0.08674861
85	0x3d2a1ecc	0.041533276
86	0x3d983083	0.07431128
87	0xbdae1afe	-0.08501242
88	0xbcb4ab2d	-0.02205428
89	0x3d40e740	0.047095537
90	0xbd38032f	-0.04492491
91	0xbdc8d460	-0.09806132
92	0x3decdd1b	0.1156561
93	0x3ddc0983	0.10744002
94	0x3d4cd53f	0.050008055
95	0x3df4fbeb	0.11962112
96	0x3d563031	0.052292053
97	0xbd732186	-0.059358142
98	0xbd3d0378	-0.046145886
99	0xbd89166e	-0.06693731
100	0x3e15310c	0.14569491
101	0xbe143dc1	-0.14476682
102	0xbd53ca18	-0.051706403
103	0x3c06e1aa	0.008232513
104	0xbd41d9df	-0.04732692
105	0xbd9bbcff	-0.076044075
106	0xbde34f39	-0.11099095
107	0x3d0f6197	0.03500518
108	0x3e078a7b	0.1323642
109	0x3bae7377	0.005323823
110	0xbdb863fd	-0.09003446
111	0xbde716b7	-0.112836294
112	0x3e2a973f	0.16659258
113	0x3d6eae63	0.058271777
114	0x3e33f13b	0.17572491
115	0x3cd638dc	0.02615016
116	0xbe0840a4	-0.13305908
117	0xbce1b1c9	-0.027550595
118	0xbd2b588f	-0.041832503
119	0xbe084f08	-0.13311398
120	0xbde68c9c	-0.11257288
121	0x3ddce0c4	0.10785058
122	0x3d930894	0.071793705
123	0x3c22ff57	0.009948573
124	0xbe2fc14e	-0.17163584
125	0xbe27cee0	-0.1638751
126	0xbc2f73a3	-0.010708722
127	0x3d03d3d4	0.032184437
128	0x3db99038	0.09060711
129	0x3d6d5a0d	0.057947207
130	0x3cbad865	0.022808263
131	0xbe040f9d	-0.12896581
132	0x3e02e560	0.12782812
133	0xbe115e33	-0.1419609
134	0x3e222d21	0.15837528
135	0x3ac63c01	0.0015124084
136	0x3cfc2cce	0.030783083
137	0xbd68430b	-0.056704562
138	0xbd989e88	-0.074521124
139	0x3e13a533	0.14418487
140	0xbd021729	-0.03176037
141	0xbdd203d7	-0.10254639
142	0xbd94c856	-0.072647735
143	0x3c8b4761	0.01700181
144	0xbdbfff35	-0.09374849
145	0x3e0752be	0.13215157
146	0xbd25e66c	-0.04050295
147	0x3d7733e7	0.060352232
148	0x3e28f3cf	0.16499256
149	0xbdf86440	-0.12128496
150	0xbd926faf	-0.07150208
151	0xbe2be9cf	-0.1678841
152	0x3e0e371c	0.1388821
153	0x3d77aa5e	0.06046521
154	0x3df7cab2	0.12099208
155	0xbd29d64b	-0.04146413
156	0xbe0b056f	-0.13576292
157	0xbc0df98e	-0.0086654555
158	0xbe0ff1f5	-0.14057143
159	0xbd2003fa	-0.039066292
160	0x3e13fa6f	0.14451002
161	0xbe1557c3	-0.1458426
162	0x3d8a1620	0.06742501
163	0xbc2e69dd	-0.010645357
164	0xbe073ca9	-0.13206734
165	0x3d985746	0.07438521
166	0xbcf56313	-0.029954469
167	0xbbd916d1	-0.0066250344
168	0x3cb3fc20	0.021970809
169	0x3da49d6a	0.08037837
170	0x3dc8b14d	0.097994424
171	0x3d18949f	0.03725111
172	0x3e1b5ab4	0.15171319
173	0x3db5759d	0.088603236
174	0xbd79b218	-0.06096086
175	0x3d7104c7	0.058842447
176	0x3e196d00	0.14982986
177	0x3dc1b79d	0.094588496
178	0xbd65f082	-0.05613757
179	0x3e2256ec	0.1585347
180	0xbd7fe479	-0.062473748
181	0x3d8b4c93	0.06801715
182	0x3e289cc8	0.16466057
183	0xbe0d34f0	-0.13789725
184	0x3e308979	0.17239942
185	0x3d5f7ce2	0.054562457
186	0x3da99a00	0.08281326
187	0x3e22a747	0.15884124
188	0xbb00f511	-0.001967732
189	0xbdc4dda5	-0.09612588
190	0xbe00a964	-0.12564617
191	0xbd4ca68f	-0.04996353
192	0x3dd6f00f	0.10495006
193	0xbd10c40f	-0.035343226
194	0x3e0944e3	0.13405184
195	0xbe0e121f	-0.138741
196	0x3dcf1df1	0.10113133
197	0x3e0024ef	0.12514089
198	0x3d83c1bc	0.06433436
199	0x3e16dc9c	0.14732593
200	0x3e0aa534	0.13539582
201	0xbd79c5a4	-0.0609795
202	0x3d81ea64	0.063435346
203	0xbd5f5cf6	-0.054532014
204	0x3e2aa3e1	0.16664077
205	0x3d0431b6	0.03227397
206	0x3df7f0bd	0.12106464
207	0xbded54fc	-0.11588475
208	0x3e3e0845	0.18557842
209	0x3d7743e4	0.06036748
210	0x3e37a984	0.17935759
211	0x3d385d28	0.045010716
212	0x3c8315ea	0.01600166
213	0x3d548667	0.05188599
214	0x3dfe44fc	0.124155015
215	0x3dea6548	0.11445099
216	0xbe09aef7	-0.1344565
217	0x3de5f931	0.1122917
218	0x3e20daf0	0.15708518
219	0xbd4dbc15	-0.050228197
220	0x3d161846	0.036644243
221	0x3e2e0dad	0.16997404
222	0x3d5316ed	0.051535536
223	0x3e1c3b63	0.15257029
224	0x3dbff766	0.093733594
225	0xbdb760a7	-0.08953982
226	0x3e2f876c	0.17141503
227	0xbd9732a1	-0.073827036
228	0xbd155768	-0.03646031
229	0xbbadae7b	-0.0053003407
230	0x3e05f001	0.13079835
231	0x3dd0ac7a	0.10189147
232	0x3ca71049	0.020393508
233	0x3d870a0f	0.065937154
234	0xbe21dd64	-0.1580711
235	0xbe030575	-0.1279505
236	0xbcf6d9d3	-0.030133164
237	0x3d89e80e	0.06733714
238	0x3e002183	0.12512784
239	0xbce3ae99	-0.027793216
240	0x3e106058	0.14099252
241	0xbdb1d366	-0.08682899
242	0x3c3ac62a	0.011399785
243	0xbda683dd	-0.0813062
244	0x3e0dc715	0.13845475
245	0x3d768c0a	0.060192145
246	0xbd0a233f	-0.03372502
247	0xbbefb3db	-0.0073151416
248	0xbe249c8b	-0.16075341
249	0xbb1fca27	-0.0024381967
250	0xbd786123	-0.06063951
251	0xbd9a5dff	-0.075374596
252	0x3e142a72	0.14469317
253	0xbe048373	-0.12940769
254	0x3d86e030	0.06585729
255	0xbdf72081	-0.120667465
