output/SocialGood-MoME/ts_encoder_epoch2.pt (torch, 362284 bytes, 34 tensors)

proj.weight f4 [32, 4]
00000000: 0cfd bfbe 98bd df3e 4bfc 573e 32b0 0dbe
00000010: 4098 903e d23e 70be 0c57 70be 2533 e03d
00000020: 1e99 30bc d763 c1be 6b51 a63d 6cb3 19be
00000030: 0544 9c3e 79c8 ffbe 0bff ca3d a8ed c63e
00000040: 83af 7bbe f957 643d 7886 a0be 3d2e 1c3e
00000050: 0ba6 b3be dc3a 31be 5add a1be 313b e83e
00000060: 8890 f73e 03a6 babd a926 c6be fd51 16be
00000070: 8d6b 25be e64f 733d 316a 39be 1cd4 fe3e
00000080: dc51 9fbe 2dea 093e 2855 063e b7f5 8cbb
00000090: 23d4 223e 06e2 dc3d a7ab b13e bc5f 8fbd
000000a0: d9ce 373e 47a3 403e 1892 e63d 8a0c 54bd
000000b0: 1700 113e 232c b63e 083c d33e a1d9 ad3e
000000c0: 358e 33be 70c1 e6be b44c 16be 74f2 483e
000000d0: 118c 8cbe 7241 92be 65df 8bbe 1f9c 9abe
000000e0: b857 f63e 5c59 6d3d 80a8 06be 038e 2b3e
000000f0: 5262 abbd 023f cf3d 5d03 b43e 8e16 b3be
00000100: 22bc 0e3e 7d1c d73e 4fbd e2bd cf43 583e
00000110: 5459 d1be 3ccc 03bf 24df f9be 1ee2 d13d
00000120: 4e2f 75be bdf1 4d3d 06b7 9d3e 0f2e db3d
00000130: 483e 843e 8c0e 02be dfc5 dfbd bf67 78be
00000140: e255 f7be 9eb8 4e3b ab3b 95be a66a adbe
00000150: ea0c 303e 27d0 f13e 2c72 783e 6a42 5bbd
00000160: f982 d83e a25d c9be ab14 acbc 8604 ba3d
00000170: 83d7 dabe 47f1 1cbe b72e b63e 0b23 38be
00000180: e40d d0be 8c12 01be 88c9 1b3d 0d46 5e3e
00000190: 7b29 afbe d033 d0be d4c0 923b 1496 bdbe
000001a0: d976 45be d53d eb3e 59f4 13be 6c7b 6b3e
000001b0: 54b9 98be 38ce 82be 11e7 613e a2b8 c43e
000001c0: f4c8 023f 850f 8dbe 6e96 f53e 2c9b d53e
000001d0: 373c a5bd 7d94 bc3e 67d0 d3be 6d40 78be
000001e0: 77e8 56be ad1a aabe 9090 92be 07d8 4ebe
000001f0: ba60 033f 06fd 7dbb be54 9ebe 06a5 a3be
-0.37497747 0.43699336 0.21092336 -0.13836744 0.28241158 -0.23461464 -0.23470706 0.10947255
-0.0107786935 -0.37771484 0.08120998 -0.1500985 0.30520645 -0.49957636 0.09911927 0.38853192
-0.24578671 0.05574796 -0.31352592 0.15252014 -0.35087618 -0.1730761 -0.3161419 0.4535766
0.48352456 -0.091136955 -0.3870137 -0.14679714 -0.16154309 0.05940237 -0.18106915 0.49771202
-0.3111714 0.13468237 0.13118422 -0.0043017524 0.15901236 0.10785298 0.34701273 -0.07000682
0.1795 0.18812285 0.11258334 -0.05176977 0.1416019 0.3558055 0.41256738 0.339551
-0.17534716 -0.45069456 -0.14677697 0.19623739 -0.27450612 -0.28565556 -0.27318874 -0.30197236
0.481138 0.057946548 -0.13150215 0.16753392 -0.083683625 0.1011944 0.35158816 -0.34978145
0.13938954 0.42013922 -0.11071264 0.21119617 -0.40888464 -0.5148351 -0.48803055 0.102482066
-0.23943827 0.050279368 0.30803698 0.10702144 0.25828767 -0.12700862 -0.10926413 -0.24258326
-0.4830771 0.0031543146 -0.29147086 -0.3387043 0.17192426 0.4722912 0.24262303 -0.053530134
0.42287424 -0.3932925 -0.021005949 0.09082894 -0.42742547 -0.15326415 0.35582516 -0.17982118
-0.40635598 -0.12604731 0.038033992 0.2170641 -0.34211335 -0.4066453 0.0044785533 -0.37028563
-0.19283618 0.45945612 -0.1444868 0.229963 -0.29828894 -0.25547957 0.22060801 0.38422114
0.5108788 -0.27550903 0.4796633 0.4171995 -0.08068126 0.36832038 -0.41369936 -0.24243326
-0.20987116 -0.33223477 -0.28625917 -0.20199595 0.5131947 -0.003875555 -0.30924028 -0.3196184

proj.bias f4 [32]
00000000: a5cd fe3e 22a1 a1be 0581 ce3e f080 013f
00000010: afd1 e9be 397f 213e 37fe c23e 71e3 dfbe
00000020: 4835 76be f025 e1bd a6d3 423e 7ed9 aebe
00000030: a567 213e 894c fc3d b382 cd3e d7e5 d9be
00000040: a38b f43e 468c 8bbe 8c6a 8cbd 1a80 443e
00000050: 816b febe 388c df3d d801 01bf 95ee ebbd
00000060: f87d 83be 0404 82be df42 35be 2c73 3d3e
00000070: 98aa 64be b5f8 8d3e a5b4 e03d d1ab f7be
0.4976627 -0.31568247 0.4033281 0.5058737 -0.45667788 0.15771188 0.38084576 -0.43728212
-0.24043763 -0.10993564 0.1902605 -0.34150308 0.15762194 0.123192854 0.40138778 -0.42558166
0.47762784 -0.27255458 -0.0685626 0.19189492 -0.49691394 0.109154165 -0.5039344 -0.11520115
-0.25682044 -0.2539369 -0.1770129 0.18500966 -0.22330701 0.2772881 0.10971955 -0.48373273

EiLM.0.gamma_generator.weight f4 [1, 32]
00000000: 013d 46be 3bd7 f83c 2183 0f3e 058d 3fbd
00000010: e7ee eebd 44c1 df3d 7411 44bd 350c f4bc
00000020: 6ca2 803d 8ed1 b83d c873 133e 824c b13c
00000030: 21a5 1a3e e4c7 fe3c db70 df3d 4968 0dbe
00000040: debf 373e 2249 c13d fd30 373e 97ff 1f3e
00000050: 6b23 e23c f8ba 173c 6db7 8dbd ba11 553d
00000060: a7c8 a53d d59e 313e bc4f 863c 4ab8 413e
00000070: d6c6 923b 0749 093e b071 4bbe 2363 b7bd
-0.19359209 0.030376067 0.14014865 -0.046765346 -0.11666661 0.10925534 -0.047868207 -0.029790977
0.062809795 0.090243444 0.14399636 0.021642927 0.15102054 0.031101175 0.10910197 -0.13809313
0.17944285 0.09437777 0.17889781 0.15624844 0.02760478 0.009260885 -0.06919751 0.05201886
0.08094912 0.17345746 0.016395442 0.18917957 0.0044792695 0.13406764 -0.19867587 -0.08954456

EiLM.0.beta_generator.weight f4 [32, 32]
00000000: d626 06be 3bee ba3d 2e12 253e 854c 603c
00000010: f303 943d f555 b9bd 6c4a f3bd 5f38 2b3d
00000020: cf1d 63bc b8ef 7a3d 4013 183d 3c62 fdbc
00000030: d4c2 c23d 2721 bf3d 0c7b bbbd 141e 55bd
00000040: c276 2b3c 6ede dc3d b533 103d e859 0fbd
00000050: 0285 bfbd 83b4 083e 0bb7 8dbd 2636 473d
00000060: 47db f5bd 5aa3 023d 9137 01be 81bc bd3b
00000070: 50ad b33c 03ac 133e 6478 eb39 6423 4c3a
00000080: 1cd4 d13d f796 083e e375 93bd a2ea aebc
00000090: 4d70 9f3a 42a2 9d3c 46e7 9a3d 86eb 6abc
000000a0: 12a3 643d 9b56 57bb aeec 133e 362c 1e3e
000000b0: 95f9 c8bd 290c aebd d443 313d 2c81 2bbe
000000c0: a220 80bc 3af4 f03c e1fb a7bd eff0 123e
000000d0: 2e1f 5d3d 7083 133e 9910 c83d 8737 eebd
000000e0: 78d1 22be d685 25be 3df4 f33d 5ed0 18be
000000f0: 991c a6bd d2d5 c3bd 24ad a6bd 1f92 6b3d
00000100: 77c8 873d e818 29be 9dfe e03d 340b 883c
00000110: 3b7c 073d e702 d93c bb02 493d 7ede 243d
00000120: 04dd b7bd 7c14 2e3e 71d4 1b3e 15a4 0abc
00000130: a402 1e3e bbd5 1fbe 049e 2a3d 9379 1ebe
00000140: 32fe 303e acc4 03be eed5 1e3e a2fb c9bc
00000150: 67f6 fabc df5c f13d 18c7 d13d 4ce9 b3bb
00000160: f58f f8bd 68c8 023e bc65 07be 8c37 043e
00000170: 277b b23d ed06 283e 24b8 6ebc 49ad 023d
00000180: c36e 4c3d 0adf abbd 91ac 20be 3660 a0bd
00000190: 8511 96bd c1ba 4cbd 67a5 85bd 4614 17be
000001a0: da52 2ebe b2e3 153d f717 113e 8752 d2bd
000001b0: ba0c afbd b20c 1dbe a4ed 30be ec2d 32be
000001c0: 6ff1 3cbd 867c 35bd baa7 c4bd 84a2 09bc
000001d0: 9758 d5bd 2ad4 22be a2d0 33be 0f4e acbd
000001e0: b3f4 8f3d cb0a 723d 1a81 cf3d 2a00 e0bd
000001f0: 4c08 e73d a51a 8bbc 8cf1 d53d 1f1e adbc
00000200: f291 0f3e 8cd5 853d 50d2 18bc 3736 0dbe
00000210: bff8 0e3c b985 163e 27e0 cb3c 2cd8 9dbd
00000220: b9b3 253e d9b0 8cbd 936a 5c3d a12e 83bc
00000230: 657f 68bd a0d9 dc3d 90ce 13be a3e8 c53a
00000240: fd39 15be ae4d 51bd cb37 cdbc 6fc3 333c
00000250: 145d 0d3e 89a2 21be a1c0 5abd 1e98 f6bd
00000260: 2eff 04be 1f90 d8bd 3bce 9dbd 7176 9f3d
00000270: db6a 623d 5090 64bd bdf0 e7bd d331 7f3d
00000280: fe80 1e3e 1fbe 223e 1c1b 0bbe 5cd5 013c
00000290: 007f ad3c 645e 783c b914 d63d 6dc6 8dbc
000002a0: 02d5 233e 67dd 803d 00d8 063e eb82 21be
000002b0: 6894 26be 9d47 b2bc 31a3 7bbd 0ce3 29be
000002c0: d17f ba3d 472c f13d eb41 543d ede7 283e
000002d0: 7531 4b3d b1a2 11bd edb9 7fbc 74ff df3d
000002e0: 4f78 2ebd dcea 23be bb0f af3d eaf5 6abd
000002f0: 4c1e 3c3e cfea acbc 2a59 ec3d 0ab5 5e39
00000300: 5247 e1bd 2b68 eabd fd94 733d 585b 54bc
00000310: 5cc0 1b3e c3fe 293e 85ee 1d3e 1e96 beba
00000320: b629 b43d 54f5 23be da6f 043e 9ba9 153e
00000330: a337 32bd 60cd 8e3d 8547 28bd 5c06 23be
00000340: 2402 a0bd 84de 6b3d 63fa b13d ec2f cd3d
00000350: 1a4f 12be 87b2 603d 0e84 783c d39a 90bd
00000360: fb1a df3d e4fb 873d a75c 1e3e f5ef b4bd
00000370: 005a 213c 9b8e 483d 75c6 cabd f849 d73c
00000380: c34e de3d 936b 25bd 8cea 92bd 64a9 033d
00000390: c3a3 89bd dd23 123e 2d29 1e3e 29db 0a3e
000003a0: a508 18be 8a32 ff3c 70bd 06be ca25 b13d
000003b0: 58df 183e a8a0 b6bd e57b e23d 23fe acbd
000003c0: 7c47 453e 6ffb 9ebd abdb e2bd f800 183e
000003d0: 325e 3b3e d214 a2bd 843c ce3d 76a3 f43d
000003e0: 21aa f4bc 968b d43d a723 30be 1c55 9fbd
000003f0: 3e78 0f3e 0cea a13c 1e58 20be 3cea 763d
-0.13100752 0.0912747 0.16120216 0.013690119 0.07227316 -0.09049598 -0.11879429 0.041801807
-0.013862087 0.06126377 0.037127733 -0.03093063 0.09509817 0.09332495 -0.09154329 -0.052030638
0.010465326 0.107846126 0.03520556 -0.03499785 -0.09351541 0.1335011 -0.06919678 0.048635624
-0.120047145 0.031894065 -0.12618853 0.0057902937 0.021933228 0.14421086 0.0004491239 0.0007787256
0.10245535 0.13338839 -0.072002195 -0.021352116 0.0012164206 0.01924241 0.07563643 -0.01433838
0.05581958 -0.0032858017 0.14445755 0.15446553 -0.09813229 -0.08498413 0.043277577 -0.16748494
-0.01564056 0.029413331 -0.08202339 0.14349721 0.053984813 0.14405608 0.09768791 -0.11631685
-0.15900218 -0.16164336 0.11911819 -0.14923236 -0.08110923 -0.09562267 -0.08138493 0.0575124
0.066300325 -0.16513407 0.10986064 0.016606905 0.03307746 0.026490642 0.04907487 0.040251248
-0.08977702 0.17000002 0.15217759 -0.008461972 0.15430695 -0.15608875 0.0416546 -0.15476064
0.17284468 -0.12867993 0.15511295 -0.02465612 -0.030635072 0.11785292 0.10243052 -0.0054904576
-0.121368326 0.12771761 -0.13222402 0.12911814 0.08714896 0.16408892 -0.01457027 0.03190354
0.049910318 -0.08392151 -0.15690829 -0.07830851 -0.0732756 -0.04998279 -0.065256886 -0.14753827
-0.17023793 0.0365941 0.14169298 -0.10269647 -0.08547349 -0.15336874 -0.17278153 -0.1740033
-0.046128687 -0.044308208 -0.09602304 -0.008400563 -0.10417288 -0.15901247 -0.17560056 -0.08413326
0.070290945 0.059092324 0.10132046 -0.10937531 0.112808794 -0.016980479 0.10446462 -0.021132527
0.14020517 0.065348715 -0.009327486 -0.13790213 0.008726298 0.14699449 0.024887158 -0.07707247
0.1618184 -0.068696685 0.053812575 -0.016013445 -0.056762118 0.10783696 -0.14434266 0.0015099238
-0.14572902 -0.05109947 -0.025051018 0.010971888 0.13805038 -0.15784658 -0.05340636 -0.12040733
-0.12987968 -0.10574364 -0.07705351 0.07786263 0.055277687 -0.05580169 -0.11325214 0.062303375
0.15478894 0.15892838 -0.1358456 0.007924404 0.021178722 0.015159223 0.10453171 -0.01730653
0.15999225 0.06292229 0.13168335 -0.15772597 -0.1626755 -0.021762663 -0.06143493 -0.16590518
0.0910641 0.11776023 0.051820677 0.16494723 0.049607713 -0.035555545 -0.015608293 0.10937396
-0.042595204 -0.1600756 0.08547922 -0.05736343 0.18370932 -0.02110806 0.11540444 0.00021239012
-0.109999314 -0.1144565 0.05946826 -0.012961231 0.15210098 0.1660109 0.15423019 -0.0014540588
0.08797018 -0.16011554 0.12933293 0.1461548 -0.04351009 0.06972766 -0.04108383 -0.15920395
-0.07812908 0.057585254 0.086903356 0.10018906 -0.14287987 0.054857757 0.015168203 -0.070607804
0.10893818 0.06639841 0.15465032 -0.08834831 0.009848118 0.048964124 -0.09901134 0.026280388
0.10854866 -0.040385794 -0.071736425 0.032143965 -0.06720688 0.14271493 0.15445395 0.13560165
-0.14847048 0.031152029 -0.13158202 0.08649786 0.14928949 -0.089173615 0.11058787 -0.0844691
0.1926555 -0.07762801 -0.110770546 0.1484412 0.18297651 -0.079141274 0.10070136 0.1194524
-0.02986628 0.103781864 -0.172011 -0.07779905 0.14010713 0.019764923 -0.15658614 0.060281977

EiLM.1.gamma_generator.weight f4 [1, 32]
00000000: f6b4 acbc e911 b6bd 826c 113e b6eb 0fbb
00000010: 5c60 c5bd c5c5 ef3d 4072 06be e2ef 5fbd
00000020: 6025 a73d adfc 00be 41e7 db3d eda4 293d
00000030: fb23 fe3d 45a4 023e 7ddc ffbd bd34 1d3d
00000040: f0c8 823d 0f82 0ebe bddc 47be 826e 963d
00000050: 948e 45be 9e0f c4bc 05f5 243e 528a 923d
00000060: d08b 803d fe09 8fbd 1e27 053e 084d 7a3d
00000070: 3d7e 0b3c 42d1 523e 530d e8bd 5c84 193e
-0.021082383 -0.08890135 0.14201549 -0.0021960563 -0.0963752 0.117076434 -0.1312952 -0.05467213
0.081614256 -0.12596388 0.107374676 0.04141705 0.124092065 0.12757976 -0.12493227 0.038380373
0.06385982 -0.13916801 -0.19517799 0.073452964 -0.1929267 -0.023933228 0.16109093 0.07155289
0.06276667 -0.06984328 0.13003203 0.06110862 0.008513984 0.20587638 -0.113306664 0.14991897

EiLM.1.beta_generator.weight f4 [32, 32]
00000000: 1848 36be c683 0fbe 85ee 083e 7567 363e
00000010: c1f9 10be b6a8 41be 43f7 9cbd b097 93bd
00000020: 4be3 123c bbc8 0dbc 1820 ac3d a285 46be
00000030: d7d8 7ebd 1850 233d 392b 12be 18a6 073c
00000040: 0908 1dbe f664 0e3e 33fa 39bc c197 263e
00000050: beec 403e a8a4 91bd 8512 7dbc 67da 07be
00000060: 6da4 ae3d c679 093e 6a64 a4bc 60da edbd
00000070: 63ce 12be 13fa 0bbd 51d4 83bd 41ac 39be
00000080: 9faf f4bd c4aa e8bd a02c b43d 62d9 093e
00000090: 2310 b33c 4346 ba3c fd5b 183e 6d3b a23d
000000a0: d4de c63d 7586 fabd e569 c4bd 03f3 5c3d
000000b0: 5d78 bcbd d564 15be a6a6 0cbe 698c c83d
000000c0: be6f b2bc 0a1d bebc 7a9b ee3d 80f8 cdbd
000000d0: cd75 343d ccb6 353e 5ae1 833d c1e2 d5bd
000000e0: b73c d53d 7b01 eebd d902 c1bd b7e4 983d
000000f0: 20f8 9fbd 7872 e23d fee8 9a3d f917 77bd
00000100: 1c00 9f3d 9b6f c53d c500 e0bd 6d00 073d
00000110: 62e7 ce3c 8ec7 9cbd dc4d 42bd 6b1d d03d
00000120: 6424 b6bd 5772 a73d 5d83 d6bc 1a59 6a3d
00000130: 1737 b6bd b92f fb3a 7431 313e 1557 c23d
00000140: a6b7 1dbc 4d08 e0bd 4b24 ec3d 8457 15be
00000150: 0b29 423d c3e3 c53c 313a d63d c0e6 7fbd
00000160: 251f 093e d0c8 2b3e 44d6 06be acd2 c13d
00000170: 5e7a 1abe 1b36 3bbd 3c65 053e b01f ad3c
00000180: f1ca 4dbd d21d 1abb 88e8 d6bd 5fca 103e
00000190: aeb2 b73d 18fa 163e 86cd 0ebe c27f 213e
000001a0: 5a24 a13d 9538 df3c f666 1b3e 7c30 313e
000001b0: 63d8 1cbe fd58 e7bd ad81 a5bd fe3e 3a3c
000001c0: fb1e cdbd 3499 d13d d567 91bc 93ca be3d
000001d0: e2a7 253d 4dc0 bc3d 89ac 81bd 44d9 1bbe
000001e0: f2c3 d43b ccaf a6bd 70e8 aabd 21e9 603d
000001f0: 07bd 02be d6f5 133e c86d bf3d 0469 2d3e
00000200: 8740 d5bd 6527 8cbd e0eb a23d 9893 d83d
00000210: 2a49 febd 3a0c 413d 5008 343e 24cb 993d
00000220: 5bd3 42bd aea7 b83d ea7b 02be 51bc c53c
00000230: d194 273e d904 983d 964b 113e 377c 3fbd
00000240: 1a47 993d b422 103e 49ac 2a3e 9341 e7bd
00000250: 52ff 4ebc 004c f2bc 3d04 a23d 1208 763d
00000260: 241f dd3d 3943 bc3d 0a1b fcbd 1b31 343e
00000270: 899e 0d3e 4984 803c bc97 34be a4a7 ef3c
00000280: 8133 02be 5b3a b03c e041 e9bd 1186 333d
00000290: 2379 19be 56f1 4bbc b138 ca3d a3da 903d
000002a0: 637a fe3d 264c d13d b8ea 14be 394b d9bd
000002b0: 8841 2bbe 6836 b73d ca60 29bc 6f49 37be
000002c0: bda6 5ebd d284 bfbd ccfe 1f3d 0669 953d
000002d0: 7908 293c 30cf 8cbd 1492 3dbd 67d7 fe3d
000002e0: e2c2 d53d 755f 543d 1371 1fbe 0f07 563c
000002f0: df57 a63c 10bb debc 36f3 21be 8e4e 31be
00000300: cb29 95bd 2d6c b13d 9a6c 703d 53fd dfbc
00000310: ad45 98bd 87ff 953d 7e2d a33d afab eebd
00000320: 5bbe 97bd d069 8d3d 094b 2cbe 5525 1cbe
00000330: 5cfb 0d3a 8c0e 8f3d eb77 13be ddc6 79bd
00000340: 8ddd 8cbc e5a8 2fbe 9fb4 cbbd 53a4 edbd
00000350: b4cc f43d ccb4 fbbd d770 8a3b f06d 933d
00000360: 721f 233e b18b d93c bdfb 12bd 49b9 eabc
00000370: c0d5 c1bd 1d7f febd 3537 97bd 6565 17bd
00000380: 3018 15be 5c05 0cbc 4331 503d 847d c63d
00000390: 2e88 1f3e b4a9 e53d eb33 0a3e de36 323e
000003a0: 9eaf e33d 9ec8 f53d 7755 15be 429a 233e
000003b0: 130b a1bc cffd b43d 8a38 f0bd 5abe 29be
000003c0: 8b7d 7cbd 8559 26be 8276 9a3d 45e7 eabd
000003d0: c1a6 34bc e208 2a3e f065 973c 070c eb3c
000003e0: 2160 a33b 868a a1bd a98a 1c3d d531 f3bd
000003f0: e374 96bd 5160 f23d 670c 373e 6307 fd3d
-0.17800939 -0.14015111 0.13372238 0.17812903 -0.14157774 -0.18912014 -0.07664349 -0.072066665
0.008965324 -0.008653815 0.08404559 -0.19386914 -0.062218513 0.039871305 -0.142743 0.008279346
-0.15335096 0.13905701 -0.011351156 0.16268827 0.1884031 -0.07111484 -0.01544631 -0.13266908
0.085274555 0.13425359 -0.020067412 -0.11613917 -0.14336543 -0.034174036 -0.064369805 -0.18132116
-0.119475596 -0.11360696 0.08797574 0.13461831 0.02185828 0.022738582 0.1487884 0.07921491
0.0971047 -0.12232677 -0.0959051 0.05394269 -0.09202645 -0.14589246 -0.13735446 0.09792406
-0.021781798 -0.023207206 0.116507486 -0.10057163 0.044057656 0.17745513 0.06439467 -0.104436405
0.10411971 -0.11621376 -0.09424371 0.07465499 -0.07810998 0.110569894 0.07563971 -0.060325596
0.07763693 0.09640428 -0.10937647 0.03295939 0.025256816 -0.076552495 -0.047437534 0.10161861
-0.0889366 0.081761055 -0.026185686 0.05721388 -0.08897226 0.0019164003 0.17304021 0.09489266
-0.009626305 -0.10939083 0.1153036 -0.14584166 0.047402423 0.024156457 0.10460318 -0.06247592
0.13390787 0.16775823 -0.13167673 0.094640106 -0.15085742 -0.045705896 0.13026899 0.021133274
-0.050242368 -0.002351631 -0.104935706 0.14139698 0.08969627 0.1474384 -0.13945588 0.15771392
0.07868262 0.02724866 0.15175995 0.17303652 -0.1531692 -0.1129627 -0.08081374 0.011367558
-0.10015675 0.10234299 -0.017749706 0.09315982 0.04044331 0.09216366 -0.063317366 -0.15219599
0.006493085 -0.08138999 -0.08345115 0.05490983 -0.1276742 0.14449248 0.09347111 0.16934592
-0.10412698 -0.068434514 0.07955146 0.10575026 -0.12416299 0.0471308 0.17581296 0.07509449
-0.047564846 0.09016357 -0.12742582 0.024137648 0.16365363 0.074227996 0.1418899 -0.04674932
0.07484265 0.14075738 0.16667284 -0.11291804 -0.012634115 -0.029577255 0.07910965 0.06006629
0.10796955 0.09192509 -0.12309845 0.17596857 0.13830008 0.015688078 -0.17636007 0.029254742
-0.1271496 0.021512201 -0.11389518 0.043829028 -0.14987616 -0.012447676 0.09874094 0.07072952
0.12425687 0.10219602 -0.14542663 -0.10610051 -0.16724217 0.08945924 -0.010338018 -0.17899106
-0.054358233 -0.09351505 0.039061353 0.07295422 0.010316961 -0.068754554 -0.04628189 0.124434285
0.104375616 0.051848847 -0.15570478 0.013063206 0.020305572 -0.027188808 -0.15815434 -0.17315122
-0.07283362 0.08663211 0.05869732 -0.027342474 -0.074351646 0.073241286 0.07967661 -0.1165384
-0.07409354 0.06904948 -0.16825499 -0.15248616 0.00054161786 0.069851965 -0.14401214 -0.060980666
-0.017195487 -0.17154272 -0.0994656 -0.11603608 0.119531065 -0.12290344 0.0042248773 0.07198703
0.15929964 0.026555868 -0.035884608 -0.028652804 -0.09464598 -0.12426589 -0.07383577 -0.03696193
-0.14560008 -0.0085462 0.05082823 0.09691909 0.15579292 0.11214009 0.13496368 0.17403743
0.11117481 0.12001155 -0.14583384 0.15976813 -0.0196586 0.08837473 -0.11729534 -0.1657652
-0.061643165 -0.16245086 0.07542135 -0.114698924 -0.011026085 0.16604951 0.018481225 0.028692259
0.0049858247 -0.078877494 0.038218174 -0.11874739 -0.07346513 0.11834777 0.17875825 0.123549245

EiLM.2.gamma_generator.weight f4 [1, 32]
00000000: 70ae 113e 4eff de3d d01b f1bd 5fc2 a0bd
00000010: 7ac3 1e3e 514f 3d3e be36 2ebc d084 423c
00000020: 4cee 87bd 5e94 11be 40bc 86bd 4bac 353e
00000030: 8b71 e23d 9cd8 413e 9acc 083e 25fa 193e
00000040: 8ac1 62bd bf88 013e 7b17 8cb9 241a 99bd
00000050: 8498 4ebe d3c4 ebbd 3e83 ddbc e28e 16be
00000060: 7801 183e 2950 a53d c723 6dbc 6e6e 80bd
00000070: 0f06 aa3d cf5a 8a3d c5a5 553e aca2 94bb
0.14226699 0.10888539 -0.11772883 -0.07849573 0.15504256 0.18487288 -0.010633169 0.011872485
-0.066372484 -0.14216754 -0.065788746 0.17741506 0.11056813 0.18930286 0.133593 0.15036829
-0.055360354 0.1264982 -0.00026720375 -0.07475689 -0.20175368 -0.115121506 -0.02704012 -0.14702943
0.1484431 0.0807193 -0.014473862 -0.06271063 0.08301937 0.067556016 0.20864017 -0.0045359936

EiLM.2.beta_generator.weight f4 [32, 32]
00000000: ca7d b4bd 721c dbbd 9cbe 7cbd 4884 863d
00000010: dfeb 043c d16e 383e 712e 023e 8ae4 adbd
00000020: cfd5 2b3d 5967 f0bd e076 263e 934d 933c
00000030: 533f 33b9 d950 1c3e 78bc 263c f0aa a9bd
00000040: 71b4 f0bd ce99 b53d 22a4 9f3d 9d83 0cbb
00000050: 44a1 37be e13a 43bb f186 30be 235e 1abe
00000060: 1e2a 1c3d 69f5 b8bd 021a 32bd 8e8f 9bbd
00000070: e9e8 07bd 0065 09be 7e2a 0d3e 0de5 3d3d
00000080: e004 b7bb 39aa 9c3d 92d1 983d 9e16 02be
00000090: e618 2fbe 8e71 99bd e4af 8b3c c97c 813d
000000a0: e9f5 e6bc fdea 203e e77d 803d ce2c 28be
000000b0: 055e 3dbd eea8 62bd ded5 943b 4930 cdbd
000000c0: 5f7e 9e3d ffd2 313e 6d36 263e dcfc d13a
000000d0: 9895 1e3e 8c84 1b3e 4cfb a4bd 91ef 1abe
000000e0: 1182 64bc e344 1fbe 0d80 bfbd 5824 263e
000000f0: 578b e5bd 88c5 0e3e 5ff4 e7bd 7d89 31be
00000100: 06fd 3bbd be21 e83d 8317 103e a6d9 c33d
00000110: bec6 14be f14c 1a3e 512d 653d a2c6 d23d
00000120: 65e8 ba3d ba34 8bbd 8de2 3c3d 6c0f eb3d
00000130: 4724 9cbb 884a fd3d 7a4b 2e3e 5a78 0cbe
00000140: 86c5 0fbe 7102 8e3d 924f d73d cd21 03bd
00000150: 2c24 24bc 39d7 e7bd a2fb 783d 3e35 88bd
00000160: e96e 2bbe d91c 283e 4b1d 14bd c442 0ebe
00000170: 2594 8d3d e6d8 673c 7c4a 013e 6847 5f3c
00000180: 9f78 cb3c 527e e7bc e8cb 083e 8526 703d
00000190: 8674 0d3e be80 dd3c 6106 333e 4b4a ee3d
000001a0: 3820 c5bd 241d c0bd 4171 2b3d 842a e43d
000001b0: 3758 04be 47ba fc3d 5034 16bc 24e0 d83c
000001c0: b49e 8fbd 8b57 b3bd 8947 f23d 8af1 ab3c
000001d0: f739 ab3d 6761 9ebd 349a 0a3e a00b 263e
000001e0: c849 a23d bc22 1e3e 3ab1 78bd 409a 9c3c
000001f0: 2987 15be 2403 403d e36a 4abd b8f9 a93d
00000200: e73a d13d 3ab3 c73d 9837 84bd 9db1 01be
00000210: 7d4a 623d 0ee0 b6bd 7f8b 373e 3861 0f3d
00000220: 7138 a03d d6fb a33d bcec 31be 6d00 db3d
00000230: 2a14 053e 29cc 19bd b8a1 5a3d 6edd c43d
00000240: abb9 cdbd 99ab be3d 3698 03be 187a eabb
00000250: 9fd6 1b3e 5a7c 10bd 7585 103e bede aabd
00000260: c575 143e ec39 27be 1f94 03be 176b 29be
00000270: 10e0 9e3d 2876 a43d e9be 98bd 30f6 13be
00000280: b467 cdbd dd95 b63d ea4b 98bd e92c 06be
00000290: 0dfd fbbd 1825 b1bc 7e39 143c 422c 2d3e
000002a0: e2f0 023e 50b3 d0ba dada a33d 2c9e 61bd
000002b0: c3ad 4f3d e5c4 163e 4fe1 86bc 22ad c7bc
000002c0: 0873 21be e42f 8ebd d600 19be 6048 313e
000002d0: 7ede b23d 625d 36be 34ae 1dbd 1b34 8a39
000002e0: 0161 083e 57c0 163e 7bd0 93bd 82bb b0bd
000002f0: 145c 2abe 33f2 ab3d b646 0fbe 9b41 2e3e
00000300: ec06 33be e8c6 913d a784 e73d 04dc e63d
00000310: c3cc 2f3e a803 2ebd c252 833d 0518 173d
00000320: 8e53 f0bd 30c5 87bc 1c7f 0dbe 946a 603c
00000330: 7444 d9bc 6d3e a13d c9f0 dd3d 0e6a 89bd
00000340: 07b5 8f3d e182 c13d 7090 3b3d 389a b4bd
00000350: 3ad4 1a3e ed89 04bc 8706 e53c 0328 8a3d
00000360: 0dc9 13be e90c 18bd 6b39 0cbe 2472 bd3d
00000370: 1f04 d9bd 54ed ad3d f98d f0bd 37cb 483d
00000380: 1a67 893d 61ca 183c cc08 a3bd 7720 43be
00000390: e0dd ad3c 7e11 083e e6bf 0cbe 1422 ab3d
000003a0: 58f5 d83d 6fef e9bc 5587 e8bd e18d bbbc
000003b0: 5fff 9cbc fdb9 40bd 353a 2bbe 1089 e1bc
000003c0: 7d5e 98bc 42c5 de3d fa19 dfbb 4c7e 0b3c
000003d0: 7a18 a43d dbae a43d 2b1a 92bd 1b29 8d3d
000003e0: b441 d43d c063 b7bd 00dd 243d 9c4a 8f3b
000003f0: ced6 dc3d 5d98 183d 4e89 e4bd d7b9 16bd
-0.08813055 -0.10698785 -0.061705217 0.065681994 0.008112877 0.18011023 0.12713028 -0.08490856
0.04195195 -0.11738462 0.16256285 0.017981326 -0.0001709436 0.15265216 0.01017677 -0.08284557
-0.117531665 0.088672265 0.07794978 -0.0021440752 -0.17932612 -0.0029789733 -0.17238976 -0.15074973
0.038126104 -0.09031183 -0.043481834 -0.0759574 -0.033181105 -0.13417435 0.1378574 0.046361018
-0.005585298 0.07649655 0.07461847 -0.1270394 -0.17099342 -0.07492362 0.017051645 0.06322629
-0.028193431 0.15714641 0.06274014 -0.16423342 -0.046232242 -0.055336885 0.0045420965 -0.10018975
0.07738947 0.17365645 0.162317 0.0016020793 0.15486753 0.15187281 -0.080557436 -0.1513045
-0.013947026 -0.15553622 -0.093505956 0.16224802 -0.112082176 0.1394254 -0.11325907 -0.17337604
-0.0458956 0.11334561 0.14071469 0.095629975 -0.14528939 0.15068413 0.05595142 0.102917925
0.09126357 -0.06797166 0.046114493 0.11477551 -0.004765067 0.12367731 0.1702098 -0.13717785
-0.14040193 0.069340594 0.10513224 -0.032014657 -0.01001839 -0.11320347 0.06078685 -0.0665078
-0.16741528 0.16417255 -0.03616075 -0.13892657 0.06913022 0.014150834 0.1262607 0.013627864
0.02483779 -0.028258476 0.13359034 0.058630485 0.13813981 0.027038928 0.17482902 0.11635264
-0.09625286 -0.09380558 0.041856054 0.11140922 -0.12924276 0.12340217 -0.009167746 0.026474066
-0.07012692 -0.08756932 0.118300505 0.020989198 0.08360665 -0.07733422 0.13535386 0.16215372
0.07924229 0.15442938 -0.06071589 0.01911652 -0.14602341 0.046877995 -0.04941834 0.08299583
0.10216313 0.09750982 -0.06455916 -0.1266541 0.05524682 -0.08929454 0.17924307 0.035004824
0.07823265 0.08007018 -0.17375463 0.106934406 0.12995973 -0.037548218 0.053376883 0.09612547
-0.10045179 0.093100734 -0.12851033 -0.007155668 0.1521859 -0.03527484 0.1411341 -0.08343266
0.1449805 -0.16330689 -0.12849472 -0.16544758 0.0775758 0.08030349 -0.07458288 -0.14449382
-0.100295454 0.08915303 -0.074363545 -0.1310307 -0.12304125 -0.021624133 0.00904691 0.16911414
0.12787202 -0.001592258 0.08000727 -0.055082485 0.05070282 0.14723547 -0.016464857 -0.024374548
-0.15766537 -0.06942728 -0.14941725 0.17312765 0.08733843 -0.1780906 -0.03849621 0.00026360233
0.13318254 0.1472181 -0.07217499 -0.08629514 -0.16636688 0.08395805 -0.13991818 0.17017214
-0.17483109 0.071180165 0.11304598 0.112724334 0.17167954 -0.042483956 0.06412269 0.03688814
-0.11734687 -0.016573519 -0.1381802 0.013697285 -0.026521899 0.07873235 0.10836942 -0.067096815
0.0701695 0.09448791 0.045792043 -0.088184774 0.1512002 -0.008089525 0.027957214 0.06745913
-0.14432164 -0.037121687 -0.13693778 0.09250286 -0.10596489 0.08492532 -0.11745829 0.049021926
0.06709118 0.009325595 -0.07960662 -0.19055353 0.021223962 0.13287923 -0.13745078 0.08356109
0.105936706 -0.028556554 -0.113539375 -0.022894802 -0.01916474 -0.047052372 -0.16721423 -0.027531177
-0.018599743 0.10877468 -0.0068085166 0.008513998 0.08012481 0.080411635 -0.071338974 0.06892606
0.103640944 -0.08954573 0.040249825 0.004372908 0.10783158 0.03725468 -0.11159001 -0.036798324

EiLM.3.gamma_generator.weight f4 [1, 32]
00000000: ec72 95bd a3e1 9cbd b5b2 3dbd 1d6c 20be
00000010: dc33 3ebe 2e48 333d de98 04be b5a9 3abe
00000020: 1b65 21be bf29 c6bc 32a6 68bc ac1f 15be
00000030: c27d f53d b124 f93b 3329 103b 071a 1fbe
00000040: 54f2 adbd a385 0ebe c185 ea3d b119 d8bd
00000050: 07c8 17be b757 13be d8ec 4c3d 085f f7bd
00000060: bd82 bebd 1fb2 e33c 0c39 883d 24ad 263e
00000070: 067e debd 843a bebd 450f 04be ee18 cebd
-0.0729731 -0.07660224 -0.046313006 -0.15666242 -0.1857447 0.043770008 -0.12948939 -0.182288
-0.15761225 -0.024189828 -0.01419978 -0.14562863 0.11986877 0.007603251 0.0021997213 -0.15537272
-0.08493486 -0.13918166 0.11451293 -0.10551775 -0.14822398 -0.1438893 0.05003056 -0.12078673
-0.0930228 0.027794896 0.06651506 0.16276985 -0.10863881 -0.09288505 -0.1289645 -0.10063349

EiLM.3.beta_generator.weight f4 [32, 32]
00000000: afe5 223e 197a 323c b8dd 07be 9166 a13d
00000010: 2575 10be bbde 293d f8b6 a63d d098 153d
00000020: 1467 70bd 1627 cdbd 7b45 b33c 69af ff3d
00000030: 31fa d7bd 6143 053e eace 013e 74fb 7abd
00000040: 9ffa 9b3c e4ed 1dbe 1557 f13d 4b9a d0bd
00000050: a0dc 17be ab81 aa3d 0970 9d3c b15f 2abe
00000060: d67f bbbc fca9 1ebe fe18 02be 24ba af3d
00000070: 8144 fe3d 7990 77bc 4a79 d13d 270f 8dbc
00000080: 3142 a3bd 79e0 fe3d 8f0a ea3d 27d7 043c
00000090: 2f5a e7bd 2f8b 783d ea26 333e 9362 8b3d
000000a0: d9a9 9a3d 3c37 e93d b82c b13d a3b0 2bbc
000000b0: 5214 153e e5d7 813d d8e4 903c 2976 dcbc
000000c0: 3b71 04be f747 2f3e 9e66 003e c0c5 b83c
000000d0: 1485 693d 944b 0a3e b045 173d 39e8 13bd
000000e0: b36c 83bd 9e02 dd3d 7608 263e a476 3cbd
000000f0: 0544 563d 8143 553d 0435 f13d 0316 0a3d
00000100: 7659 013e 5e6e ba3d 4e39 12be 263e 413c
00000110: a501 173c 1542 bc3d 8464 60bd 58b4 1f3e
00000120: 8699 16be 998b ecbd 5643 363e 2cb3 a5bb
00000130: 6a26 92bd 563e d73d a6e5 71bd 9774 25be
00000140: ecdf b9bd 4a84 743d 631b eabd adad e53d
00000150: 8229 943d 442a 2ebe a002 c23d d67d 2a3e
00000160: df7c 2fbe f2d8 a0bc 200d 1c3e d0f6 11be
00000170: 3fe4 093e 50cb 023e 3f22 11bd d664 4cbd
00000180: 89cb 0fbe ca8b 3fbc c03b ddbc 1759 b83c
00000190: c454 073e 678c d9bd 577d 713d 8fcd b63d
000001a0: cbff d43b d8fb 393e 305a 87bd f852 f53c
000001b0: ea08 d9bc 83d4 123e 0974 0a3e 69b4 f53d
000001c0: 69a6 ae3d bc23 323e 3e91 563d 7994 8bbd
000001d0: cf3b 84bd f48c 373e 7adf 61bc b478 cabc
000001e0: acf5 cfbc d47b ab3d 258a 33be e0db 8c3d
000001f0: 16ed f33d bc9b 903c 6f69 f0bc 90d0 e83d
00000200: e843 a13d 0b56 283d 3c89 1c3e 1e37 e6bd
00000210: 0491 58bb 0c8f 013e e00b ec3d 78af 1c3d
00000220: c540 793c 7388 92bd 52da b6bd d9c9 bbbd
00000230: 415c 583c 23a3 a9bd 9def 013e f872 043e
00000240: 2618 1939 c367 0bbe 439d fa3d f02d 66bc
00000250: b6c1 2fbe d6d7 f8bd 0b4a 95bd 8a19 ccbd
00000260: f504 083d 6024 e5bd a728 173d 5cb0 16be
00000270: ae66 0d3e 64ba 133e 1d53 5a3d 9a66 c13d
00000280: 15c3 343e 9f2d 1b3e 7b33 323e bfe1 4f3c
00000290: 3832 99bc 2a4f 293e 4084 1abe 9488 9c3a
000002a0: dba1 54bd ef33 24bd 07d6 95bd 6048 20be
000002b0: ae40 15bd 406d 11be 7adc fcbd bdc4 f9bd
000002c0: e444 09be 7b37 23be f0c5 89bd 2eba 02bd
000002d0: 6743 7b3d 5196 28be abca c0bd 754f ebbb
000002e0: 47e5 2a3d a9c8 e4bd c2e5 083e a50e 28bd
000002f0: 41a7 12be d636 323e 5c56 433d 3336 903d
00000300: 362f c6bd 17c2 a1bd 24cf 4ebd 7ae4 04bd
00000310: ae32 f4bd bcbc 1cbc 57ee 703d ae66 163d
00000320: 0606 e53c 30c2 abbd f233 32bd 9b13 043e
00000330: dfcb 1c3d 4389 07bd 0fe3 473d 9a97 a93d
00000340: e214 15bd 5695 21be 96ab 1ebe 9a46 713d
00000350: 6689 16be 5397 1a3e 6a8e dd3d 84ca 8bbd
00000360: a393 2abd 6b6c e23d b243 2dbc 896e ad3c
00000370: 0e6c 033e b20f f9bd eb25 3d3c 94fb 20be
00000380: d4b3 79bd f19b 0abe 67ba 1cbe 487c 22be
00000390: 9d26 52ba 7c7b 103e 86cb 45bd e5dd 97bd
000003a0: d1eb aabc c464 893d e1e1 56bd 8402 bdbd
000003b0: e522 90bc e103 0cbe 90ad 12be 0e32 ec3d
000003c0: 9d21 223e 53e5 e7bd 5f44 13be 6350 333d
000003d0: 39a3 2dbe 03d2 243e b7dc a9bd f964 26bd
000003e0: f020 2cbe 435a d33d 87f6 0cbe 330e 333e
000003f0: 7e92 64bc 9452 d6bd 158d ec3d 1e6f 19be
0.1590793 0.010893368 -0.13268173 0.07880891 -0.14107187 0.041472178 0.08140367 0.036522686
-0.058692053 -0.10017221 0.021883717 0.12484629 -0.10545767 0.13013984 0.12676588 -0.06127496
0.019040404 -0.1542278 0.11784188 -0.10185679 -0.14830256 0.083255135 0.019218462 -0.16638066
-0.022888105 -0.15494531 -0.12704846 0.085804254 0.1241541 -0.015110129 0.10228212 -0.01721914
-0.079716094 0.124451585 0.11427795 0.008107937 -0.11296498 0.06067961 0.17495313 0.06805911
0.07551927 0.11387488 0.086511075 -0.010479125 0.14558533 0.06340007 0.017687246 -0.026911812
-0.12933819 0.17117296 0.12539145 0.022555232 0.05701168 0.13505393 0.036931694 -0.036110137
-0.06417217 0.10791515 0.16214165 -0.046011582 0.052310962 0.05206633 0.1177769 0.0337124
0.12631783 0.09103082 -0.14279673 0.0117946025 0.009216701 0.09192292 -0.05478336 0.1559614
-0.14707002 -0.11550064 0.17799124 -0.0050567593 -0.07136233 0.105099365 -0.0590569 -0.16157757
-0.09075913 0.059696473 -0.11431005 0.11214767 0.072344795 -0.1700831 0.09473157 0.16649565
-0.17137478 -0.019634698 0.15239382 -0.14254308 0.13465975 0.1277287 -0.03543305 -0.049900852
-0.14042486 -0.011691043 -0.02700603 0.022503419 0.1321593 -0.10622483 0.058957424 0.08925926
0.0065002195 0.18162477 -0.06608999 0.02994679 -0.026493508 0.1433888 0.13520826 0.11997301
0.08527834 0.17396444 0.052384607 -0.06815428 -0.0645672 0.17924863 -0.013786191 -0.024715759
-0.0253857 0.08373228 -0.17533167 0.06877875 0.11910455 0.017652385 -0.02934715 0.11367905
0.0787428 0.041097682 0.15286726 -0.112409815 -0.003304542 0.12652224 0.115257025 0.038253278
0.015213196 -0.07154932 -0.0892836 -0.09169359 0.013205589 -0.08283069 0.12689061 0.12934482
0.00014600213 -0.136138 0.122370265 -0.014049038 -0.17163739 -0.121505424 -0.07289513 -0.09965809
0.033207852 -0.111885786 0.036904003 -0.14715713 0.138087 0.14426571 0.05330192 0.09443398
0.17652543 0.15154122 0.1740245 0.012688099 -0.018700704 0.16534105 -0.15089512 0.0011942559
-0.05191217 -0.04008859 -0.07316213 -0.15652609 -0.036438636 -0.14201832 -0.1234674 -0.12195728
-0.13405186 -0.15939133 -0.06727207 -0.031915836 0.061343577 -0.16463591 -0.09413656 -0.007181103
0.041722562 -0.111710854 0.13368896 -0.04102959 -0.14321615 0.17403731 0.04768978 0.07041588
-0.096769735 -0.07898348 -0.050490513 -0.032444455 -0.11923729 -0.009566482 0.05882105 0.036719017
0.027956974 -0.08386648 -0.04350657 0.12898104 0.038280364 -0.033089887 0.048800524 0.08280869
-0.03639687 -0.15779623 -0.15495142 0.05890522 -0.14700851 0.15096788 0.10818179 -0.06825736
-0.041644704 0.11055835 -0.010575222 0.021170871 0.12834188 -0.12161197 0.011544685 -0.1572097
-0.060962513 -0.1353605 -0.15305482 -0.15867722 -0.0008016618 0.14109606 -0.0482898 -0.0741537
-0.0208644 0.06708673 -0.05246151 -0.092289954 -0.017594764 -0.13673355 -0.14324021 0.11532985
0.15833135 -0.11323037 -0.1438155 0.043777835 -0.16956796 0.16095738 -0.08294051 -0.04062364
-0.1680944 0.103199504 -0.13765918 0.17485885 -0.013950942 -0.10464969 0.11550347 -0.14983794

Gate.weight f4 [4, 32]
00000000: 8158 2c3d fd94 133e fee9 3abe b3e6 ec3d
00000010: 412a bd3d 28c8 20be 5de6 373e ced7 5e3d
00000020: 7458 2abe 4e75 263e c7d3 cebc ead0 ea3c
00000030: fb7c 1ebe 1bf1 833d d3c0 1abe 2e51 eebd
00000040: 4d1c 0dbe 5342 bbbd a19d 1bbe a856 22be
00000050: 3043 923c b5d2 ad3d f369 2bbd 47da f9bd
00000060: 4e44 fbbd e9af 81bc 2403 f73d cf1b 54bd
00000070: 3009 9bbd 85fb c5bd e1f7 4abe 4a90 2e3e
00000080: 9c3b f6bd 29d2 01be 6981 1fbe 9a3e b83d
00000090: 2bcb 01be b229 973d 0b37 12be 9fe4 19bd
000000a0: 2675 1c3e e067 28bd 04ae c8bd f18a a9bd
000000b0: 428d 78bd 17c7 c63b e69a 4139 57c2 f23d
000000c0: de3c 073e b34b 4cbd 1ac4 2e3e 09b2 f4bd
000000d0: 1ef4 78bc c5ea a73c 1172 d53d aa6d 073e
000000e0: e15e f23d ba8d 12be 3df6 483e b7ed 073e
000000f0: ee81 0cbc 412d d53d 5d94 84bc 6da6 37bd
00000100: 7aa4 07be 45f8 16be a297 b83d c443 2c3e
00000110: af08 97bd 0859 423e 13a5 de3d 6e8c 98bd
00000120: 2111 b23c f189 093e 97c2 13bc 9bad 0d3c
00000130: 745f 8cbd bf8b b63d 7177 cc3c c06c bc3c
00000140: 98c7 d93b db3e 1e3e 6efe 01be 900f 03be
00000150: 9760 8f3b d8d4 8fbd 67f8 2abe 032f ad3d
00000160: ca21 0e3d 4e30 283e 08b9 81bd c1d8 383e
00000170: 4ac7 94bd b04f dabd 0cc2 843c 02db 31bd
00000180: 6842 dfbd 373c 8bbd 6f23 c93d ea54 803d
00000190: 2b23 413e b31b db3d 06ea 0e3d 0145 50bd
000001a0: 6fec 14be 8fc5 04be 2bfb 9e3c 68a3 42be
000001b0: 8822 363c d055 18bd d63c 04be 03e3 233e
000001c0: 07f2 3bbe a454 8c3d e4ce fbbd f356 de3d
000001d0: fddf 78bc 39f9 4e3d 04f9 4939 4c32 cabd
000001e0: 847f 86bd 0cbd 2ebd 6974 913d c0df dd3a
000001f0: c6b4 c7bd 9a90 1fbe 0944 263e 87c4 2d3e
0.04207659 0.14412303 -0.18253323 0.1156744 0.09236575 -0.15701354 0.1795897 0.054405026
-0.16635305 0.16255686 -0.025247468 0.028664071 -0.15477364 0.064424716 -0.15112619 -0.116365775
-0.13780327 -0.0914351 -0.1519685 -0.15853369 0.017854303 0.08487455 -0.041849088 -0.12199836
-0.122688875 -0.01583095 0.12061146 -0.051784333 -0.07570112 -0.09667114 -0.19821121 0.1704723
-0.12023088 -0.12677826 -0.1557671 0.08996315 -0.12675159 0.073809996 -0.1427881 -0.037571546
0.15279064 -0.041114688 -0.09798816 -0.08278454 -0.06068159 0.006066214 0.00018463618 0.11853474
0.13206813 -0.04987688 0.17066994 -0.1194802 -0.015194921 0.020497689 0.10422147 0.13225427
0.11834503 -0.14311877 0.19625182 0.13274275 -0.0085758995 0.10409022 -0.016184026 -0.04483645
-0.13246337 -0.14743145 0.09013297 0.16822726 -0.07374703 0.18979275 0.10871329 -0.0744866
0.021736683 0.13431527 -0.009018562 0.008647348 -0.06854144 0.08913373 0.024959298 0.023001075
0.006646108 0.15453665 -0.12694713 -0.12798905 0.004375528 -0.070230186 -0.1669632 0.084562324
0.034700193 0.16424677 -0.0633412 0.18051435 -0.07264574 -0.106597304 0.01620581 -0.043421753
-0.10901338 -0.067985944 0.098212115 0.06266196 0.18861072 0.106986426 0.03489115 -0.050847057
-0.14543317 -0.12965988 0.019406876 -0.19007647 0.011116631 -0.037191212 -0.12913832 0.16004567
-0.18354045 0.068520814 -0.12295321 0.10856428 -0.015190122 0.050530646 0.0001926162 -0.098728746
-0.065672904 -0.042660758 0.071022816 0.0016927645 -0.09751277 -0.15582505 0.16236891 0.169695

experts.0.gate_proj.weight f4 [32, 32]
00000000: 316d 69bd 022b 193e a005 123e a79c 24bd
00000010: 5378 da3d 5791 303e 3ecc f9bd 6d33 e4bd
00000020: aedc d83d dfd3 48bd 8893 fc3c f0be bdbd
00000030: 5c13 57bd e890 78bc 8617 24bd 43ca 853d
00000040: e372 d53d 0282 c23d 1ad1 f1bd 10d7 33be
00000050: e5cc 953b 3b8e 3bbe 5f9e e2bd 0d79 91bc
00000060: ad9e d0bd 0635 e9bd a86d f23d 0e33 aa3d
00000070: 4c5c b53d 597e a0bd a49c 1cbe 9af4 523d
00000080: e654 223e ce1e 97bd 8cfa 85bd 9d8e c73d
00000090: 22a1 45be ab4d 08be f777 09bc 6696 41be
000000a0: 8b22 86bd 884c 4dbd e4bb 923d f3cb b23d
000000b0: 17bd eabd 5ee2 38be 7f72 84bc 53ae b9bd
000000c0: 9a4a 1b3e f9c9 34bd 9542 c23c a01e 8fbd
000000d0: f377 92bd 3c6b d8bd a1bf 62bd eab8 30be
000000e0: c362 933b 932e 94bd 528f 93bd 6fb3 4ebd
000000f0: b094 d3bd 4005 8fbd 1667 c03d 7b87 a23d
00000100: 3898 1d3e e147 97bd 2d96 8f3d 38a9 6c3d
00000110: 5aa9 86bd 8de1 553d ff4c 4fbd 408e df3c
00000120: a8d4 2cbd e71c 19bd 2497 22bd 34a1 edbd
00000130: b9af 553d 5baa 29bc f3fb 2e3e a722 2b3e
00000140: 4ac5 50bd 98c3 3bbd 98ac df3d 87b6 933c
00000150: 54fd 7abd f177 2cbe fcb2 d4bd 9cf2 d93c
00000160: e075 0f3e 15e5 133e edab d4bb 97ee 1fbe
00000170: c54c 8abd 6ea5 2b3e f78e 1d3e 683a 2e3e
00000180: 12fa 9e3d 0df4 27be ebfb a83c d9dc c8bb
00000190: ca5b 6b3c 1db4 41be e3b0 c2bc 2d66 34be
000001a0: cbcd 033c d086 f7bd 8337 353e e79f 2abe
000001b0: 9a83 c43c 3e7a d13d e166 7d3d bf12 2bbe
000001c0: f126 983d 190c 053e 06e5 563a 841c 9b3d
000001d0: 169f b53d 303e d83d 4a9a 123e 511d 013e
000001e0: e7bc 48be 4989 58bd 9ed1 083d 2892 8bbd
000001f0: e793 0abe 8042 bcbd fb81 c43d 79e5 283d
00000200: a0a2 1a3e a2bf a0bd 950f 06be 7b6a 6ebd
00000210: 07f6 45bb c7c8 f3bd 1605 07be 1195 b2bd
00000220: e0c3 413e b7b0 47be c918 dbbd 1004 ffbc
00000230: 9203 9dbd 9937 733d 5653 03bd 26c1 25be
00000240: 9d86 c13d a178 ebba 78af 5bbd 95e1 6dbd
00000250: 2ed2 05be 7b27 0b3e 8fef 463e e6b0 073e
00000260: 0d83 d13d d636 f93c 798e 0a3e ad15 063e
00000270: fda8 0bbe 11f3 bd3d 80bc a43d 34ed 793d
00000280: 3069 053d a12f 083c f2d6 48bd 65c5 b1bd
00000290: 91d0 163d 2e88 eebd bad4 dabb 7885 f03d
000002a0: 5c1a 0e3e aab9 b4bd 7cc2 ef3d d482 8abd
000002b0: da99 f13d a274 d43d 22af 1cbe d2c0 013e
000002c0: 890a 243e cb2c 12be f98b 27bd b02d dabc
000002d0: 3a7b 973d 737a 813d 452d eabd 09f5 79bd
000002e0: f49f ff3d f46c 313e 9c42 ef3d d1f1 1dbe
000002f0: c516 13be cb19 8f3d d31a 73bd d63e 013e
00000300: 7385 ff3d b5e3 2b3e 81df 75bd 52dc 9e3c
00000310: 0d96 ed3d 57b7 1d3b 60d9 81bd 603c f7bc
00000320: a6b7 16bd ac0e 9e3c a155 18bc 13d2 a0bc
00000330: 13fd 1abd 3a2b 2dbe 107f d8bc 5b10 ae3c
00000340: 425a e43d 0379 9a3d ecc5 863c 5116 9c3d
00000350: 9b15 183e 6885 353e 389d 1dbe 7c8a 3aba
00000360: a663 183e d8b5 743d d201 ac3d 415f ddbd
00000370: de90 75bc 1f33 cd3d 212c 403d 42f2 25be
00000380: f3b5 29be 0f0a a43d 4421 0fbe 3586 18be
00000390: 4383 dbbd 99b9 54bd 6a07 73bc 8368 fbbd
000003a0: d5a4 db3c 1f8d 5dbd c036 183e 7ec2 03bd
000003b0: 837c c23d 1ae5 e83d dfe4 2cbe 5d66 0cbe
000003c0: 6761 813d ef13 ef3d 6b48 1d3d 74b1 2fbe
000003d0: e1eb 1bbd 107f a7bc ad91 a63d a5c9 433d
000003e0: 34ff 8a3d 02ee 3c3e f8aa d5bd aa8a bf3d
000003f0: 44f1 3bbe 3a8a 323e a854 c23d 17a0 eb3c
-0.0569889 0.14957812 0.14259958 -0.040188458 0.10667481 0.17242943 -0.12197159 -0.11142621
0.10588966 -0.04903018 0.030832067 -0.09264934 -0.052508697 -0.015171267 -0.040061496 0.06532719
0.104223035 0.09497453 -0.11807461 -0.17562509 0.0045715445 -0.18315975 -0.11065363 -0.017757917
-0.10186515 -0.113870665 0.118373215 0.08310519 0.08855495 -0.07836599 -0.15294129 0.0515028
0.15852699 -0.073789224 -0.06541929 0.09743998 -0.19299749 -0.13310878 -0.008390418 -0.18905029
-0.06549557 -0.050121814 0.071647435 0.087303065 -0.11461847 -0.18055102 -0.016167877 -0.09066453
0.15165177 -0.04413793 0.02371339 -0.06988263 -0.07151785 -0.10567328 -0.055358533 -0.17258039
0.0044978573 -0.07235446 -0.072050706 -0.05046409 -0.10331094 -0.06983423 0.09394662 0.07935997
0.15390098 -0.07386757 0.07011066 0.057778567 -0.0657527 0.052217055 -0.05061054 0.02728951
-0.042194992 -0.03738108 -0.03969492 -0.11603013 0.052169535 -0.010355557 0.17088298 0.16712438
-0.0509694 -0.04584083 0.109215915 0.018031372 -0.06127675 -0.16842629 -0.10385701 0.026604943
0.1400981 0.14442857 -0.0064902217 -0.15618359 -0.06752924 0.16762325 0.15386568 0.17014468
0.07762541 -0.16401692 0.020627936 -0.0061298427 0.014365146 -0.18916364 -0.023765987 -0.17617102
0.00804467 -0.1208626 0.17696957 -0.1666256 0.023988534 0.10228394 0.06186569 -0.1670637
0.074293025 0.12992896 0.00081975793 0.07573798 0.08868234 0.10558736 0.14316669 0.1260884
-0.1960331 -0.0528653 0.03340303 -0.068149865 -0.13532983 -0.09192371 0.09595104 0.041234467
0.15101099 -0.07849051 -0.13091882 -0.058207016 -0.0030206458 -0.119035296 -0.13185534 -0.087198384
0.18922377 -0.19501005 -0.10698087 -0.031129867 -0.076666966 0.059379194 -0.032061897 -0.16186962
0.094495036 -0.0017965027 -0.053634137 -0.05807646 -0.13068458 0.1358928 0.19427322 0.13251075
0.10230074 0.030421656 0.13530912 0.13094206 -0.13638683 0.09274877 0.08043766 0.06101723
0.032571018 0.008312137 -0.049033113 -0.08680228 0.03682 -0.11647068 -0.006678191 0.11744207
0.13877243 -0.08824475 0.11707017 -0.06763235 0.11796923 0.103738084 -0.15301183 0.12671211
0.16019644 -0.142749 -0.040904973 -0.026633114 0.073965505 0.063221835 -0.11434416 -0.0610247
0.124816805 0.17326719 0.116826266 -0.15424277 -0.14364155 0.069873415 -0.059351753 0.12621626
0.12476625 0.16786082 -0.060027603 0.019392166 0.116008855 0.0024065578 -0.06340289 -0.030180156
-0.036796235 0.019294105 -0.009297759 -0.019631421 -0.037839007 -0.16911021 -0.026427776 0.021248033
0.11150028 0.075426124 0.016451798 0.07621444 0.14851992 0.17726672 -0.15392005 -0.00071159727
0.14881763 0.059743732 0.08398785 -0.10809184 -0.014988152 0.10019516 0.046917085 -0.16205695
-0.16573314 0.08009731 -0.13977534 -0.14894946 -0.107183956 -0.051934812 -0.014833311 -0.122757934
0.026811996 -0.05408966 0.14864635 -0.032167904 0.09496405 0.11371823 -0.16884182 -0.13710923
0.06317406 0.11673724 0.03839914 -0.17157537 -0.03806675 -0.02044633 0.08133254 0.047799725
0.067869574 0.18450168 -0.10433 0.0935262 -0.18353754 0.17435542 0.09488803 0.02876286

experts.0.up_proj.weight f4 [32, 32]
00000000: 1939 84bc 896b b2bc 03fd 933d bfda afbc
00000010: 5408 0dbe b184 c43d dbb0 f53d e29d 3dbe
00000020: 8691 0d3d d5bf 1abe 31e8 013d e142 bcbd
00000030: 1c6f 2fbd 9e3b ddbd 39d9 25bd f1b2 083e
00000040: db36 cb3d aef9 fdbd 41d2 62bc 2c7f 3a3d
00000050: a59a 043e 4b62 99bd 7df4 27be b8f9 483d
00000060: 36cd 12be e823 48bd 18bb c4bd 16b2 33be
00000070: 1b46 ff3d c9a0 babd a912 e73d 206f 023e
00000080: b3a5 de3d 75a0 b83d df2d 053e cb37 08bc
00000090: 0101 2fbe d4c6 023e 3a72 04be 8c84 32bd
000000a0: 50d9 43be b6d4 87bd 3003 033e 7805 1a3e
000000b0: 67ae 8abd 3570 2c3b d5ce b93d 7c60 d3bc
000000c0: 251a 133e 5155 48be e3fe f53d 59d1 bf3d
000000d0: 35ca 38be 8d82 863d a1a6 e53d d322 59bc
000000e0: 57a8 aabc 3c04 0f3d 75e0 10be 61cf 1cbd
000000f0: a0cf 82bc 43b7 05bd 30db a5bd 5395 1fbe
00000100: 2bda 463d 3ade 283e 0f5e 963d 832f 3e3d
00000110: 961a 383e 853f 203e 539c 2fbe 8723 e4bd
00000120: bb0b eb3d 51c7 0dbe 5de7 ec3d 941d e9bc
00000130: 8af3 903d acbd 053d f44b 0a3e 5ae4 1c3d
00000140: 57a2 c1bc f1d3 24be ce1d cbbd 475f b2bc
00000150: 5647 683d 3a86 a0bd 2a0c 1dbe b3d8 5c3d
00000160: 7805 2cbc 97e9 343d 84e8 c83d 6c80 983d
00000170: 48e8 043e 054d 63bd 299a 103e d54f ffbd
00000180: b87b 33be c193 fa3d b93e a03d b679 efbd
00000190: e62c 1f3e 1006 453d 3102 ca3d da90 b13c
000001a0: e13b 8cbd 8c97 e73d 8f47 e43b c921 a0bd
000001b0: c9c8 cfbd b702 f2bd b396 c63d 81ec aebd
000001c0: 4c35 a03d 07b2 1c3e 41f7 2c3e 5c56 0cbc
000001d0: 3499 99bd f35c fd3d dbe0 6d3c dad2 babd
000001e0: 5f0c 7abd 4667 5abd 3ec8 0cbe 0b88 1c3e
000001f0: d709 c83d da99 e33c 7c99 613d a747 bfbb
00000200: 748f ed3d e2ea 223e 7378 95bd a9f4 d83d
00000210: 5170 f8bd c75a f0bd 77bd 883d dad6 7d3c
00000220: b359 9d3d 91ed c63d f565 fdbc a0ac 76bd
00000230: a595 393e 7003 313e 055f c33d dd6c ed3d
00000240: 994a 373d dd69 d43d 4a25 163e 37a3 4a3d
00000250: 858b 88bd 9864 e23d 16d3 20be 4c87 3cb9
00000260: 51e6 9ebd 3a10 79bd 3f4f 2abe 0b55 be3c
00000270: ac5e 0dbc 5a27 103e 6f61 ec3d d179 0cbd
00000280: 55c8 863c 66fe 893d c873 053e 4102 2fbe
00000290: 72b0 dabd e7f5 10be cd08 dbbd f25a 84bd
000002a0: faf5 4dbd ac13 2dbe 0521 31bd d2bd e63b
000002b0: e16d 9b3d def2 dbbd 53bb 57bd 8685 9bbd
000002c0: df81 f83d 4188 a43d 957b 203e d6ad 0cbe
000002d0: 86ef bbbb a0f8 013e f44f ffbc e7e6 a4bd
000002e0: 1949 d33d 2db6 7f3c 755b 103e 9f03 173e
000002f0: a108 4b3a 8395 aa3d 208b eb3c 60d1 153e
00000300: 53c7 0f3d ff14 10be 5778 14bd eafb ebbc
00000310: ad0d 3e3c 6780 2e3c af1c a23d d4a5 c6bd
00000320: cb88 0c3e 0e32 083e 32cc ee3b 38bb abbb
00000330: 2c19 3cbd 173e 093e fbf3 a8bd 68bd 193e
00000340: 2cde 763b 04fc 533d e567 1f3e 89f1 313e
00000350: 6234 ba3d 8249 25be af96 ad3d 8cb1 943d
00000360: 095f 05be 5321 f23b a99a 513d 454a ad3d
00000370: e000 27be d22f 223e 057f 27be 8dea 51bd
00000380: 4817 cb3d ac0e caba 095a cc3d 07ad c2bd
00000390: ecfe c8bc c57d 15be 9088 a83c 23ed cb3d
000003a0: af60 153d 5b1f 883d 3dfe 473c 5b47 1f3e
000003b0: 274e 0bbd f14b 15be f6fe 0a3d efca 473c
000003c0: abf0 babd 85a2 843d 4b5d bebd 3fd5 1f3e
000003d0: 0ef8 783d 8cfd 3bbd 10a4 023e f537 d53d
000003e0: 3539 12be 6679 003e 457f fe3c 78bc babb
000003f0: 70b7 b7bd b463 8cbc d6bc e6bd 3a50 fcbd
-0.016140508 -0.021779792 0.072259925 -0.021466611 -0.13772708 0.095956214 0.11996623 -0.18517259
0.03456261 -0.1511224 0.031715576 -0.09192444 -0.04283057 -0.10802387 -0.040490363 0.1334951
0.09922572 -0.12401138 -0.013844074 0.045531437 0.12949617 -0.07489451 -0.16401859 0.049066275
-0.14336094 -0.048862368 -0.09605998 -0.17548403 0.124645434 -0.091126986 0.11282856 0.12737703
0.10871448 0.0901498 0.1300578 -0.008314083 -0.17090227 0.1277116 -0.12934199 -0.043583438
-0.19125867 -0.06632368 0.12794185 0.15041149 -0.06771546 0.0026311998 0.09072653 -0.025802843
0.14365442 -0.19563796 0.120115064 0.09366102 -0.18045886 0.06567869 0.112134226 -0.013252932
-0.020832224 0.034916148 -0.14148124 -0.03828371 -0.015968144 -0.032645475 -0.08098447 -0.15584306
0.048547905 0.16491023 0.07342159 0.04643203 0.17978892 0.15649231 -0.17149477 -0.11139589
0.11476847 -0.13845564 0.115675665 -0.028456487 0.070777014 0.03265159 0.13505536 0.03830371
-0.02363698 -0.16096474 -0.09917794 -0.021773947 0.056708656 -0.07838102 -0.15336671 0.053917598
-0.010499351 0.04416808 0.09809974 0.074463695 0.12979233 -0.055493373 0.14121307 -0.124663986
-0.17527664 0.12235213 0.078244634 -0.116931364 0.15544471 0.048101485 0.09863699 0.021675516
-0.068473585 0.11308202 0.0069665383 -0.07818944 -0.101457186 -0.11816924 0.09696712 -0.08541203
0.078226656 0.15302287 0.16891195 -0.008565512 -0.07499924 0.12371244 0.014518942 -0.09122248
-0.061046954 -0.053321145 -0.13748261 0.15286271 0.09767502 0.027783323 0.055078015 -0.005837399
0.11599627 0.15909913 -0.072983645 0.1059354 -0.12130798 -0.117360644 0.066767626 0.015493119
0.076831244 0.09713281 -0.030932406 -0.06022322 0.18123491 0.17286468 0.09539608 0.1159303
0.044748876 0.10371754 0.14662662 0.04947206 -0.06667236 0.11054343 -0.15705523 -0.00017979479
-0.07758773 -0.06080649 -0.16631792 0.023233911 -0.008628529 0.14077511 0.115420215 -0.03429586
0.016452948 0.06737976 0.13032448 -0.17090704 -0.106781855 -0.14156304 -0.10695038 -0.06462659
-0.05028341 -0.16902035 -0.04324438 0.0070416713 0.07589317 -0.107396826 -0.05266888 -0.07593827
0.12134146 0.08033801 0.15672143 -0.13738188 -0.0057353405 0.12692499 -0.031166054 -0.080518536
0.10316677 0.015607399 0.14097388 0.14747475 0.0007745121 0.08329298 0.028752863 0.14630651
0.0351022 -0.1407051 -0.036247578 -0.028806645 0.01159994 0.010650731 0.07915627 -0.09699598
0.13724057 0.13300344 0.0072875256 -0.005240824 -0.045922443 0.13402592 -0.082496606 0.15013659
0.0037669046 0.051754013 0.15566976 0.17377295 0.090920225 -0.16141322 0.08476006 0.07260427
-0.13024534 0.0073892265 0.051172886 0.084614314 -0.16308928 0.15838555 -0.16357048 -0.051249076
0.0991655 -0.001541575 0.0997811 -0.095056586 -0.024535619 -0.14598759 0.02057293 0.099573396
0.036469158 0.066466056 0.012206611 0.15554564 -0.03401008 -0.1457975 0.033934556 0.012194379
-0.09127935 0.06476311 -0.09295138 0.1560869 0.06078344 -0.045896098 0.12757897 0.104110636
-0.14279635 0.1254631 0.031066546 -0.0056987368 -0.08970535 -0.017137386 -0.11266486 -0.123199895
