output/SocialGood-MoME/ts_encoder_epoch7.pt (torch, 362284 bytes, 34 tensors)

proj.weight f4 [32, 4]
000000 05 76 bd be 7b c8 e5 3e b6 52 5f 3e 16 f1 0f be
       -0.37004104 0.44879517 0.21808895 -0.1405681
000010 db 6a 95 3e 4e 05 5e be 10 53 82 be ac 6a bf 3d
       0.29183087 -0.21681711 -0.25453997 0.09346518
000020 0e 96 71 bc 88 72 ca be d9 3d c3 3d 01 49 0a be
       -0.0147452485 -0.39540505 0.09533281 -0.13504411
000030 46 71 98 3e a7 b7 04 bf 36 84 ff 3d 85 bc d3 3e
       0.2977392 -0.5184273 0.12476389 0.41354766
000040 9e a2 6f be b7 b4 91 3d d4 96 b0 be 21 a8 05 3e
       -0.23401877 0.07114547 -0.34490073 0.13052417
000050 08 1e b8 be 8c a9 44 be 1d 62 97 be 3c 7c f4 3e
       -0.35960412 -0.19205302 -0.29567042 0.47751033
000060 3b 0a fd 3e ac 76 a3 bd a1 f8 c7 be e9 76 1b be
       0.49421868 -0.07981619 -0.39056876 -0.1518208
000070 fb 5c 2b be d0 30 73 3d 0f 0a 34 be 25 3c 02 3f
       -0.16734688 0.059372723 -0.17581962 0.50873023
000080 90 bd a3 be ca b7 fc 3d e4 78 13 3e 60 3f 8f 3b
       -0.31980562 0.123397425 0.14401585 0.0043715686
000090 a2 71 23 3e b7 cf f4 3d 27 77 b4 3e 9d cb 9e bd
       0.15961316 0.11953681 0.35247156 -0.0775368
0000a0 3f 47 3e 3e 05 d7 50 3e 54 55 d1 3d b9 27 7c bd
       0.18581866 0.20394523 0.10221353 -0.06156132
0000b0 95 20 13 3e a4 c7 ba 3e 20 cd d9 3e 7c 84 b0 3e
       0.14367898 0.3648044 0.4253931 0.34476078
0000c0 14 1e 3a be ac dd ef be a2 fb 07 be 42 f7 5f 3e
       -0.18175536 -0.4684881 -0.13279584 0.21871665
0000d0 ce cf 8b be dc 39 97 be 4b 48 86 be fd 53 98 be
       -0.2730698 -0.2953633 -0.2622703 -0.29751578
0000e0 32 69 f8 3e 35 f8 5c 3d 83 aa f4 bd 37 38 33 3e
       0.48517758 0.053947646 -0.11946585 0.17501913
0000f0 a7 78 ae bd 16 e8 cc 3d 9b 64 ad 3e d9 6d b8 be
       -0.08519106 0.100052044 0.33865818 -0.36021307
000100 c8 2d 09 3e a2 c5 d9 3e 5b d9 d7 bd 7f 12 59 3e
       0.1339637 0.42533594 -0.10539504 0.21198462
000110 22 9c d4 be 10 c2 07 bf a8 93 f4 be 26 86 f2 3d
       -0.4152537 -0.5303049 -0.47768903 0.11841993
000120 58 87 78 be cc 28 4a 3d 51 b3 a1 3e da 51 e6 3d
       -0.2427038 0.049355313 0.3158212 0.11246081
000130 20 4d 8a 3e cb 82 ea bd b3 00 12 be 89 45 88 be
       0.27011967 -0.11450728 -0.14258079 -0.2661555
000140 35 4e f6 be fc 24 06 3b ca d7 a2 be ed c7 ba be
       -0.48106542 0.0020468822 -0.3180526 -0.36480656
000150 79 1e 3a 3e 9e aa fb 3e 1f 2f 61 3e 7d e0 9e bd
       0.18175687 0.49153608 0.21990632 -0.077576615
000160 06 e0 d9 3e 04 a6 c4 be 4c 2f 0a bd e8 a5 a2 3d
       0.4255373 -0.3840791 -0.033736512 0.079418
000170 0e 2f e1 be be 73 2d be c5 33 c1 3e 3d 9b 29 be
       -0.43981212 -0.16938683 0.3773481 -0.16563125
000180 aa 67 d6 be 73 7b 11 be 4d a1 51 3d 78 7e 6d 3e
       -0.41875964 -0.14207248 0.05117922 0.23192775
000190 c0 88 b2 be 6e 59 d8 be d7 16 90 3c b8 02 b7 be
       -0.34869957 -0.4225573 0.017589016 -0.35744262
0001a0 bf cb 40 be 1a 66 f3 3e 05 a1 24 be 92 a2 5a 3e
       -0.18827723 0.47538835 -0.16077049 0.21351078
0001b0 43 5a 9e be 3f 4e 8d be 3b 7f 7e 3e 50 a5 d2 3e
       -0.3092824 -0.2759876 0.24853222 0.41141748
0001c0 92 7f 01 3f bf 16 93 be 20 32 03 3f d9 be e2 3e
       0.5058528 -0.2872829 0.5124836 0.4428623
0001d0 e3 fb 9a bd a6 b8 c6 3e bd c4 d9 be 02 be 82 be
       -0.07567575 0.3881275 -0.42532912 -0.2553559
0001e0 7a 84 5c be 67 86 b2 be ce 55 92 be b2 ff 42 be
       -0.21534911 -0.34868166 -0.2858109 -0.19042853
0001f0 f1 a7 06 3f 5a 59 8e 3c 24 0a ae be 33 c7 b0 be
       0.5260001 0.01737659 -0.33992112 -0.34526977

proj.bias f4 [32]
000000 e6 fa 03 3f 07 26 a4 be 5f 77 d8 3e 30 37 07 3f
       0.51554716 -0.32060263 0.42278573 0.52818584
000010 5c 70 f2 be b0 32 2a 3e fe 94 c6 3e 19 9f df be
       -0.47351348 0.16620898 0.38785547 -0.4367607
000020 97 49 81 be d1 2e e6 bd eb 5d 44 3e d1 95 a8 be
       -0.25251457 -0.11239398 0.19176452 -0.329268
000030 69 7d 26 3e 8b 6e 07 3e 47 47 d2 3e d3 85 e1 be
       0.16258778 0.13225763 0.41070005 -0.44047412
000040 8b 1f f5 3e 7f 86 8f be 86 02 8f bd 2a f6 39 3e
       0.47875628 -0.280323 -0.06982903 0.1816031
000050 77 eb 05 bf 86 91 c3 3d 21 93 04 bf 9e 24 00 be
       -0.52312416 0.09549241 -0.51787 -0.12513968
000060 96 a4 8a be 4e a4 7d be 2a b1 46 be e2 67 4b 3e
       -0.27078694 -0.24769709 -0.1940352 0.19863847
000070 1a 91 44 be d4 4d 88 3e f4 53 dc 3d 90 c5 ff be
       -0.19195977 0.26621878 0.107582 -0.49955416

EiLM.0.gamma_generator.weight f4 [1, 32]
000000 3a 56 51 be ff 49 e2 3c f2 bb 1a 3e 3b da 04 bd
       -0.20443049 0.027623175 0.15110758 -0.032434683
000010 18 d5 03 be 40 9a c4 3d 65 96 26 bd 16 8a 2f bd
       -0.12874258 0.09599733 -0.04067077 -0.0428563
000020 e8 3e 83 3d 2f 12 d4 3d 5f 55 0e 3e 69 e7 38 3c
       0.06408483 0.10355031 0.13899754 0.011285641
000030 95 d2 22 3e 77 d2 89 3c 6a ac ec 3d eb a5 11 be
       0.15900643 0.01682399 0.11556323 -0.14223449
000040 53 ff 43 3e 22 c9 d3 3d 97 89 43 3e 40 0b 27 3e
       0.19140367 0.103410974 0.19095455 0.16312885
000050 fa ec 16 3d 7e 09 ca 3c ff 2b ac bd ba 36 7f 3d
       0.036847092 0.02466273 -0.08406829 0.06230805
000060 5e 2a 96 3d 99 dd 37 3e f7 80 e2 3b c9 2a 4f 3e
       0.073323 0.17955627 0.0069123465 0.20231165
000070 52 4a 87 3c c2 db f3 3d 60 f9 54 be 60 04 c3 bd
       0.01651493 0.1190715 -0.20798254 -0.09522319

EiLM.0.beta_generator.weight f4 [32, 32]
000000 ee 7c 05 be b9 15 ba 3d 9c 3c 23 3e 45 28 47 3c
       -0.13035938 0.090861745 0.1594109 0.012155597
000010 1b d7 90 3d c3 07 b9 bd b0 a8 f3 bd bd b4 2c 3d
       0.07072278 -0.090346836 -0.11897409 0.042164553
000020 d0 30 67 bc 31 23 79 3d 91 13 0c 3d bd 6b f1 bc
       -0.014110759 0.060824577 0.034198347 -0.029470319
000030 3b 3e c2 3d 38 b0 bf 3d 19 ad ba bd 39 c2 45 bd
       0.09484526 0.09359783 -0.09115047 -0.04828093
000040 1c ad 0c 3c f5 2f d9 3d 36 0d 11 3d bf 1d 11 bd
       0.008586194 0.1060485 0.03541299 -0.03542876
000050 95 91 bf bd 4e 65 0b 3e c4 1f 8a bd 2a 03 44 3d
       -0.093539394 0.13612863 -0.0674434 0.04785458
000060 62 61 f5 bd 53 88 e6 3c 8e cd ff bd 9a b2 b0 3b
       -0.11981465 0.028141176 -0.12490378 0.0053923847
000070 1d 43 a5 3c 9f cc 13 3e 2d f2 99 3a 93 87 2d 3b
       0.020173604 0.14433526 0.0011745148 0.0026478514
000080 65 04 e0 3d 00 65 0d 3e 62 46 a1 bd 99 2b fa bc
       0.10938338 0.1380806 -0.078747526 -0.030538367
000090 3c 97 e2 3b dd b6 e7 3c 40 e6 94 3d 49 5f e3 bb
       0.006915001 0.028285438 0.07270479 -0.006938849
0000a0 28 21 62 3d bd 9f 3a bc 34 5f 17 3e 7b 29 25 3e
       0.0552074 -0.011390624 0.14782411 0.16129105
0000b0 c4 26 dc bd af 9b 9a bd 07 cb 26 3d 0f 8d 29 be
       -0.107495815 -0.075492255 0.040720966 -0.16557716
0000c0 08 04 cc bc d0 d3 b3 3c 22 93 bc bd 29 a6 0f 3e
       -0.024904266 0.021951586 -0.09207751 0.14028229
0000d0 d8 e9 47 3d 4c f7 0c 3e 9e 40 e1 3d 74 11 ff bd
       0.048806995 0.13766211 0.10998653 -0.12454501
0000e0 55 b6 1d be 02 79 29 be 3f 0b 00 3e fa df 22 be
       -0.15401585 -0.16550067 0.1250429 -0.15905753
0000f0 e7 5d b6 bd 48 d5 ac bd 9f 11 96 bd b5 ea 77 3d
       -0.08904629 -0.08439118 -0.0732758 0.06052657
000100 a2 c2 7a 3d 7c 1f 21 be 3e 25 ec 3d 35 db 44 3c
       0.061220773 -0.15734667 0.11530541 0.012015154
000110 bc c3 0a 3d ea 8b c9 3c 58 ae 61 3d 79 8c 19 3d
       0.033878073 0.024602849 0.055097908 0.03748748
000120 ed f7 bf bd 1a 4c 34 3e 73 25 26 3e 55 68 5e bc
       -0.0937346 0.17607155 0.16225223 -0.013574679
000130 ba 31 17 3e d9 8e 23 be 42 85 3d 3d 0d e9 2a be
       0.14765063 -0.15972461 0.046269663 -0.16690464
000140 c3 95 33 3e ef 4b 01 be 40 c5 1f 3e e9 2d 93 bc
       0.17537598 -0.12626623 0.15602589 -0.017966228
000150 7b e3 cf bc 5b 8f eb 3d 30 26 db 3d 05 77 cc bb
       -0.025377026 0.11501952 0.10700643 -0.006239774
000160 23 3c 00 be 9a 3c 0b 3e ef f1 0b be a1 31 04 3e
       -0.1252294 0.13597336 -0.13666509 0.12909557
000170 20 4c bc 3d f3 eb 25 3e fd 73 78 bc 2d f0 d1 3c
       0.09194207 0.16203289 -0.0151643725 0.02562722
000180 51 7e 30 3d 25 64 b6 bd 5f 2e 19 be dc f0 85 bd
       0.043089215 -0.0890582 -0.14959095 -0.06540081
000190 aa 5c a1 bd 58 32 70 bd e6 64 81 bd d4 37 20 be
       -0.078790024 -0.05864176 -0.06318073 -0.15646297
0001a0 df b4 2a be 6f ed 37 3d b7 5a 0f 3e 14 05 e1 bd
       -0.1667056 0.04490417 0.13999449 -0.10987297
0001b0 bc 40 9d bd 17 20 26 be 73 b0 2f be 9e 8c 35 be
       -0.07678363 -0.16223179 -0.17157154 -0.17729422
0001c0 9b f1 13 bd 85 a7 1d bd 8f ac b2 bd c2 50 d2 bb
       -0.036119085 -0.038489837 -0.08724319 -0.0064183185
0001d0 86 47 cd bd e3 fd 1a be 5f 57 43 be c4 b6 9a bd
       -0.10023408 -0.15135913 -0.19076298 -0.07554391
0001e0 4e ef 88 3d 0d 2e 86 3d 4c 36 c1 3d e8 44 cc bd
       0.06686269 0.06551752 0.094341844 -0.0997408
0001f0 6c 2c fa 3d 07 f9 ed bc f5 44 c8 3d a7 76 cc bc
       0.12215504 -0.02904941 0.097787775 -0.024958922
000200 2b 24 0f 3e c1 a7 91 3d d1 a0 1a bc f4 75 16 be
       0.1397864 0.07112075 -0.009437756 -0.14693433
000210 94 cb 07 3c 20 cf 18 3e 4c 9a e1 3c 3e 25 99 bd
       0.008288283 0.14922762 0.027539395 -0.074778065
000220 f5 ac 20 3e 70 09 8d bd e6 be 66 3d c5 ad 80 bc
       0.15690978 -0.06886566 0.0563344 -0.01570786
000230 0c db 7d bd 13 ff df 3d e4 ee 0f be e5 f1 5f ba
       -0.061976478 0.109373234 -0.14055973 -0.000854282
000240 cf fd 18 be b2 9d 58 bd f0 49 e3 bc 6d 18 7a 3c
       -0.1494057 -0.052884765 -0.027745217 0.015264613
000250 b6 9f 0f 3e c2 93 21 be be 69 30 bd 44 e8 fd bd
       0.14025769 -0.15779021 -0.043069594 -0.12397817
000260 f3 ea 05 be d9 03 dc bd 61 03 9b bd 0e 15 97 3d
       -0.13077907 -0.107429214 -0.07569004 0.07377063
000270 32 ef 5c 3d 3b c5 51 bd 5c 1e e6 bd ec 7b 7b 3d
       0.053939052 -0.051213484 -0.11236259 0.061397478
000280 ce dd 1e 3e ab 42 28 3e aa 78 0b be d5 ca 13 b9
       0.155143 0.16431682 -0.13620248 -0.00014094573
000290 86 f9 bb 3c 41 75 94 3c 4a db d9 3d 26 02 81 bc
       0.02294613 0.018122317 0.10637529 -0.015748095
0002a0 62 88 21 3e 42 09 81 3d 53 03 0c 3e 35 fd 20 be
       0.15774682 0.06300594 0.13673143 -0.15721591
0002b0 eb 92 2e be 21 4d a3 bc 8b 9e 73 bd 73 8d 2d be
       -0.17048232 -0.019934239 -0.05947737 -0.1694849
0002c0 56 45 b2 3d 32 2f eb 3d b9 48 43 3d 25 7b 2b 3e
       0.08704631 0.11483611 0.047676776 0.16746195
0002d0 d0 7a 4d 3d 37 72 1b bd 20 5f d4 bb 4c c5 d5 3d
       0.05016595 -0.03795072 -0.0064810663 0.10438022
0002e0 d7 7f 2c bd 0e 66 23 be 6c 1b b1 3d 0b 68 7e bd
       -0.042114105 -0.159569 0.086478084 -0.06211094
0002f0 a7 80 3a 3e 6d b0 86 bc 12 a3 f4 3d 87 45 2e ba
       0.1821314 -0.016441548 0.11945166 -0.00066479336
000300 79 fe d8 bd a8 4b de bd b3 ca 63 3d e0 e7 b3 bc
       -0.10595412 -0.10854274 0.05561323 -0.021961153
000310 4d 2c 21 3e 70 00 31 3e 99 4e 1d 3e c8 24 69 3b
       0.15739556 0.17285323 0.15362014 0.0035574902
000320 f8 38 b2 3d 86 3b 28 be 82 ec 0a 3e e7 dd 19 3e
       0.08702272 -0.16428956 0.13566783 0.15026055
000330 1c e5 5a bd ca 3f 9b 3d 64 bf 2a bd a6 10 26 be
       -0.053441152 0.07580526 -0.04168643 -0.16217288
000340 d1 f5 ae bd 85 4c 54 3d e8 e0 a0 3d 85 2a cc 3d
       -0.085429795 0.051830787 0.078553975 0.099690475
000350 63 4a 15 be a4 a0 47 3d af 85 dc 3c dd ee 9f bd
       -0.14579158 0.048737183 0.026919214 -0.078092314
000360 6e c3 e5 3d 34 ab 87 3d ff 02 22 3e be 21 c6 bd
       0.11218916 0.06624451 0.15821455 -0.096744046
000370 c0 10 9e 3b d4 11 6c 3d bb cc bb bd bd f4 dc 3c
       0.004823774 0.05763419 -0.091699086 0.026972169
000380 47 13 ce 3d c6 60 1f bd 37 de 7a bd 22 7b 25 3d
       0.100622706 -0.03891065 -0.061247077 0.04040063
000390 12 d7 93 bd 62 cc 09 3e 84 2e 23 3e 01 d7 01 3e
       -0.07218756 0.13456872 0.15935713 0.12679674
0003a0 65 fa 15 be 46 fa 2a 3d 49 bb 04 be 10 c7 a0 3d
       -0.14646299 0.041742586 -0.12962069 0.07850468
0003b0 b1 07 19 3e 24 fb c9 bd 61 31 eb 3d 1b d4 be bd
       0.1494434 -0.098623544 0.11484028 -0.093178
0003c0 e9 4a 4e 3e b4 a9 97 bd f1 ab d5 bd b9 a2 1c 3e
       0.20145763 -0.07405415 -0.10433186 0.15296449
0003d0 23 74 41 3e 38 b0 94 bd d7 69 b8 3d f1 06 ff 3d
       0.18891959 -0.072601736 0.09004562 0.12452496
0003e0 d1 df 08 bd aa 2f e4 3d 46 a8 37 be e7 2f 92 bd
       -0.033416573 0.11141904 -0.17935285 -0.07138043
0003f0 d2 be 18 3e 6c 11 18 3c 0f 67 24 be a4 37 60 3d
       0.14916542 0.009281497 -0.16054939 0.054740563

EiLM.1.gamma_generator.weight f4 [1, 32]
000000 80 7b 4d 3b d1 72 b9 bd 3f 13 ee 3d 9e 70 e1 bc
       0.003135413 -0.090551026 0.11624765 -0.02751952
000010 10 f0 9d bd 2e 06 12 3e 9a f2 17 be 23 e5 d6 bc
       -0.07711804 0.1426017 -0.14838639 -0.026232308
000020 7d 71 9d 3d 08 ce 1f be 99 63 d3 3d 59 c6 85 3d
       0.07687662 -0.15605938 0.10321731 0.065319724
000030 16 66 ef 3d 6a b7 20 3e 24 23 0f be b0 2f 76 3d
       0.11689393 0.15694967 -0.13978249 0.060104072
000040 36 2f 1b 3d f4 0d 1d be c4 3a 5e be 1a 41 76 3d
       0.03788682 -0.15337354 -0.21702105 0.06012068
000050 cd 3b 5a be dc bd 47 bd fe fe 41 3e c5 b3 5c 3d
       -0.21311875 -0.04876505 0.18944928 0.05388238
000060 3a a5 9d 3d ec ea ba bd 40 61 1c 3e d3 1e 14 3d
       0.0769753 -0.09126839 0.15271473 0.03616221
000070 0f 02 9d bc bc 79 73 3e c9 a5 c8 bd 95 24 2a 3e
       -0.01916602 0.23776907 -0.09797246 0.16615517

EiLM.1.beta_generator.weight f4 [32, 32]
000000 92 6f 34 be 92 50 10 be 24 04 08 3e 7a 60 35 3e
       -0.17620686 -0.14093235 0.1328283 0.17712584
000010 94 62 11 be 7d 76 40 be 3b 43 9f bd b3 f5 90 bd
       -0.14197761 -0.187952 -0.07776495 -0.070781134
000020 33 ce 11 3c bb c9 2d bc 4e b3 a3 3d a5 94 44 be
       0.008899259 -0.010607178 0.07993184 -0.19197328
000030 91 02 78 bd 80 bf 29 3d 4f 93 12 be 25 f0 3b 3c
       -0.060549323 0.041442394 -0.14314006 0.011470829
000040 32 dd 1e be 4f 69 0d 3e ee d3 4b bc 53 f2 25 3e
       -0.15514067 0.13809703 -0.012440665 0.1620572
000050 f0 4f 3f 3e e5 42 94 bd d7 15 5d bc 8d 52 09 be
       0.18682837 -0.072393216 -0.013493977 -0.13410397
000060 ab d9 af 3d cb 62 06 3e f6 ee 93 bc cb 03 f0 bd
       0.08586439 0.13123624 -0.018058281 -0.117194735
000070 d6 1e 15 be a1 7e 00 bd dc 20 81 bd 31 cb 38 be
       -0.14562544 -0.031370763 -0.063050956 -0.18046261
000080 7b 9f 01 be 5a a6 e9 bd eb a2 cb 3d 68 b3 13 3e
       -0.12658493 -0.11408682 0.099431835 0.14423907
000090 d8 58 9c 3c 34 ba 7a 3c b8 e7 1b 3e e2 bf 8c 3d
       0.019085333 0.015303183 0.15225112 0.06872536
0000a0 4c 6e d3 3d f0 45 e2 bd cc 62 ba bd 31 d8 3e 3d
       0.10323772 -0.11048496 -0.09100875 0.046592895
0000b0 4f 01 c4 bd 98 03 20 be 7f b9 08 be 81 57 b2 3d
       -0.09570562 -0.15626371 -0.13352011 0.08708096
0000c0 04 a2 57 bc 0c 85 c1 bc 00 8c f5 3d f8 c0 cd bd
       -0.013161186 -0.023623012 0.119895935 -0.100465715
0000d0 ba a7 44 3d d5 29 3e 3e 9c 23 51 3d 81 eb d1 bd
       0.04801152 0.18570645 0.05105935 -0.10249997
0000e0 0b f3 d3 3d fd 97 d8 bd 94 93 d0 bd 41 ed a1 3d
       0.10349091 -0.105758645 -0.10184398 0.07906581
0000f0 2d d6 8a bd a7 bb ca 3d 80 1d 9c 3d d9 94 85 bd
       -0.06779132 0.09899073 0.07622814 -0.06522531
000100 a8 cb a0 3d 3a 0d d4 3d 5f 5b e0 bd a4 a5 c6 3c
       0.07851344 0.10354085 -0.10954928 0.024248905
000110 39 4c f9 3c 82 99 93 bd f0 01 3b bd 80 2e d7 3d
       0.030431854 -0.07207014 -0.045656145 0.10506916
000120 30 10 bb bd 8a 9b a4 3d 55 e9 94 bc 8c 19 6e 3d
       -0.09133947 0.08037479 -0.018177668 0.058129832
000130 af d4 c9 bd d5 78 97 3b 88 ab 32 3e 53 99 b1 3d
       -0.09855019 0.0046225586 0.17448246 0.086718224
000140 be a1 63 bc 17 1b e4 bd 12 0a e0 3d 25 24 13 be
       -0.013893543 -0.111379795 0.10939421 -0.14369257
000150 0e 2d 41 3d 97 3c 8d 3c 89 92 ec 3d 60 17 8c bd
       0.047162108 0.017240806 0.11551387 -0.06840396
000160 72 fe 09 3e 53 73 30 3e 47 67 05 be 53 9e b5 3d
       0.1347597 0.17231493 -0.13027678 0.088680886
000170 44 a7 1c be 0e 3d 20 bd cf 1f 0a 3e 79 36 99 3c
       -0.15298182 -0.039120726 0.13488697 0.018702732
000180 82 a9 3b bd 4d 01 38 bb 77 be e2 bd 84 a1 0e 3e
       -0.045815952 -0.0028076947 -0.110714845 0.13928801
000190 87 68 bc 3d 8b 7e 1b 3e 6d da 11 be f1 25 26 3e
       0.091996245 0.15184991 -0.14243479 0.16225411
0001a0 ae 91 a2 3d 84 f3 ae 3c d3 a6 1a 3e 75 71 35 3e
       0.079379424 0.021356352 0.15102701 0.17719062
0001b0 82 1f 1e be 31 37 dc bd e9 f9 ac bd 58 79 87 3c
       -0.15441707 -0.107527144 -0.08446104 0.016537353
0001c0 25 9b d5 bd ed 43 cd 3d a6 05 b1 bc 4b bd b8 3d
       -0.10429982 0.100227214 -0.021609139 0.0902048
0001d0 8d 06 17 3d 66 c1 b7 3d fb 56 76 bd c1 57 1d be
       0.03687148 0.08972435 -0.060141545 -0.15365507
0001e0 d9 cd 18 3c 86 7b ae bd e1 03 a5 bd 1e b9 51 3d
       0.009326422 -0.08519654 -0.080573805 0.051201932
0001f0 03 6f 07 be 15 06 19 3e 89 f8 c3 3d 73 82 30 3e
       -0.13225941 0.14943726 0.09568889 0.17237262
000200 ae 9f dc bd 3b 14 8c bd 3d e9 aa 3d ef 39 d8 3d
       -0.10772644 -0.06839796 0.08345268 0.10557925
000210 03 d8 02 be 1b 3e 33 3d 58 ca 36 3e 2b 27 94 3d
       -0.12777714 0.0437604 0.17850626 0.07234033
000220 96 a5 4c bd 8e 58 c1 3d 73 a4 03 be 25 af a9 3c
       -0.049962603 0.094407186 -0.12855701 0.020713398
000230 5c e1 2a 3e 36 71 90 3d af 58 15 3e fc 54 46 bd
       0.1668753 0.07052843 0.14584611 -0.04842089
000240 06 67 9e 3d b0 38 12 3e cc a7 2d 3e 63 e6 de bd
       0.07734494 0.14279437 0.1695854 -0.108837865
000250 ea 81 12 bc 5b c4 c9 bc b8 14 a0 3d a3 fc 7d 3d
       -0.008942107 -0.024629762 0.07816452 0.06200851
000260 1c 30 d7 3d 91 c2 bb 3d ef c9 fe bd 99 38 37 3e
       0.10507223 0.0916797 -0.124408595 0.17892684
000270 59 22 11 3e 2d e8 58 3c f6 90 38 be 44 57 e3 3c
       0.14173259 0.013238949 -0.18024048 0.027751572
000280 41 09 06 be 40 31 d0 3c dc 07 dd bd 10 60 38 3d
       -0.13089468 0.02541411 -0.10792515 0.045013487
000290 ef 88 18 be 4e 4c 6a bc 05 aa d0 3d ff cc 87 3d
       -0.14895986 -0.014300419 0.10188679 0.06630897
0002a0 46 54 01 3e b8 20 de 3d ff c3 0e be 00 c9 e0 bd
       0.12629804 0.10846084 -0.13941954 -0.10975838
0002b0 b0 36 32 be 03 64 ae 3d 6d d6 e4 bb a1 b8 41 be
       -0.17403674 0.085151695 -0.0069835694 -0.18918087
0002c0 40 81 54 bd d7 d8 c2 bd 41 25 1c 3d f4 54 98 3d
       -0.051881075 -0.09514015 0.038121466 0.074380785
0002d0 a4 ec 4f 3c c2 17 8c bd 43 e0 43 bd c6 3a fa 3d
       0.012690697 -0.06840469 -0.047821295 0.122182414
0002e0 6a c6 d5 3d b7 87 75 3d f0 64 23 be 08 99 4b 3c
       0.10438235 0.05994388 -0.15956473 0.012426622
0002f0 b7 6d c7 3c 86 1f f9 bc 7d c6 1e be d7 6f 35 be
       0.024344308 -0.03041054 -0.15505405 -0.17718445
000300 8f eb 9d bd 86 f9 b5 3d e4 e2 88 3d d9 74 bd bc
       -0.07710945 0.088854834 0.06683901 -0.023127006
000310 7a 73 95 bd 06 e2 8f 3d 06 84 a8 3d a2 78 fb bd
       -0.07297416 0.070255324 0.082283065 -0.12278868
000320 41 14 8e bd 0a a4 9d 3d 5f d2 24 be 84 a2 20 be
       -0.06937457 0.076973036 -0.16095875 -0.15686995
000330 3c bc e0 bb 8e 44 82 3d 9f c7 10 be c2 8f 95 bd
       -0.006858377 0.06360732 -0.1413865 -0.0730281
000340 5a b7 55 bc 26 3e 31 be 93 9d cd bd 39 41 ed bd
       -0.013044203 -0.17308864 -0.100398205 -0.11584706
000350 a9 3b f8 3d fd 23 f9 bd e1 58 9b ba cf 4f 8f 3d
       0.12120754 -0.12165067 -0.001185205 0.06997644
000360 6c 07 24 3e 9d 68 19 3d c4 ed 27 bd 94 24 ec bc
       0.16018456 0.037453283 -0.040998235 -0.028826036
000370 1b 30 b5 bd 10 a9 04 be 74 16 8f bd c2 3b 2a bd
       -0.08847066 -0.12955117 -0.069867045 -0.041560896
000380 cc 18 0c be b5 67 63 bb ae c6 1d 3d 03 7e ab 3d
       -0.13681334 -0.0034699265 0.038519554 0.08373644
000390 20 3d 25 3e 64 d7 fb 3d 7b 0c 07 3e d7 35 3e 3e
       0.16136599 0.12296942 0.13188355 0.18575226
0003a0 d7 89 da 3d c5 7f dc 3d 55 cb 16 be d7 1c 2d 3e
       0.10670822 0.107665576 -0.14726003 0.16905533
0003b0 07 12 cf bc f8 76 cd 3d 5d 92 f6 bd 6e 15 22 be
       -0.02527715 0.10032457 -0.12039635 -0.15828487
0003c0 af e8 97 bd 4f df 2b be d1 60 86 3d db 14 ef bd
       -0.07417428 -0.16784404 0.06561435 -0.116739
0003d0 83 fe 83 bc f7 d9 20 3e 05 25 14 3d fa d3 b3 3c
       -0.016112572 0.15708147 0.036168117 0.021951664
0003e0 3c 02 06 3c e2 dd b6 bd fd b6 41 3d 1f 87 03 be
       0.008179244 -0.089290395 0.04729365 -0.12844513
0003f0 eb fe af bd 7d 01 09 3e 14 75 3c 3e 66 07 04 3e
       -0.085935436 0.13379474 0.18404037 0.12893447

EiLM.2.gamma_generator.weight f4 [1, 32]
000000 fa e8 29 3e 63 c1 db 3d 9c cc 10 be 94 47 c7 bd
       0.1659278 0.10730245 -0.14140552 -0.09730449
000010 00 32 34 3e 0f bb 55 3e 0b 30 f2 bc 99 f4 0f 3d
       0.17597198 0.20872138 -0.029563924 0.035145376
000020 f5 1b 6f bd af 83 2c be a6 41 8b bd 6c 93 4d 3e
       -0.05837627 -0.16847108 -0.06799631 0.20075768
000030 66 98 c6 3d 7c 64 5b 3e 4c 8c f0 3d 33 15 2d 3e
       0.096970364 0.2142505 0.117455095 0.16902618
000040 55 ce a0 bd d9 ee db 3d fb a1 bc bc be 94 c0 bd
       -0.07851855 0.10738916 -0.023026457 -0.0940337
000050 b1 b1 65 be 2d c0 0c be 93 a7 b2 bb f5 e3 2a be
       -0.22431065 -0.13745184 -0.0054521053 -0.16688521
000060 58 79 2b 3e aa 6d 84 3d 95 e2 b8 3b 55 aa b1 bd
       0.16745508 0.06466229 0.005642245 -0.086750664
000070 e6 81 74 3d 00 1b bf 3d af 5c 6a 3e e4 83 3c 3c
       0.059694193 0.09331322 0.22886918 0.011506055

EiLM.2.beta_generator.weight f4 [32, 32]
000000 cf 70 b8 bd 3d b4 d2 bd 6a 62 70 bd 37 6c 8a 3d
       -0.090058915 -0.10288284 -0.058687605 0.067589216
000010 cc 17 22 3c e9 52 38 3e 77 f0 03 3e ed 00 b4 bd
       0.009893369 0.18000378 0.12884699 -0.08789239
000020 9d 58 36 3d 04 8b e9 bd b6 2f 2c 3e b2 fd 80 3c
       0.044518102 -0.11403468 0.16815075 0.015745971
000030 9a 76 f9 bb 9a 10 1b 3e 1b ff 3b 3c 12 af b8 bd
       -0.0076130154 0.15143052 0.011474396 -0.09017767
000040 ee e5 ed bd 16 e2 ae 3d 08 ad 9b 3d 4c d3 3c bb
       -0.11616121 0.08539216 0.076013625 -0.0028812466
000050 13 54 36 be 7e 58 70 bb 30 70 32 be 4a 08 1c be
       -0.1780551 -0.003667384 -0.17425609 -0.15237537
000060 8a b0 1f 3d a1 ad ac bd 27 8e 3f bd a7 cf 9d bd
       0.03898672 -0.084315546 -0.046766426 -0.07705622
000070 9e 53 ff bc 33 c1 0b be 8e 06 11 3e 28 7e 33 3d
       -0.031167801 -0.13647918 0.14162657 0.043821484
000080 3d b7 3b bc b4 3c a2 3d 4d aa a3 3d 56 15 02 be
       -0.011457262 0.079217345 0.07991467 -0.12703452
000090 8e ba 30 be 18 c6 a2 bd 5d 60 b1 3c 68 c7 71 3d
       -0.17258665 -0.0794794 0.021652395 0.05902806
0000a0 3d 42 fa bc 23 b3 27 3e fc 96 86 3d 45 e0 2d be
       -0.030549163 0.16376929 0.06571767 -0.16980083
0000b0 1e 5a 3e bd b6 bf 7a bd 99 e6 1c 3c bb b9 dd bd
       -0.04647266 -0.061217986 0.009576463 -0.10826441
0000c0 be 83 a7 3d 7a 67 36 3e dd b5 2a 3e e9 89 f0 3b
       0.08179425 0.1781291 0.16670938 0.007340659
0000d0 fe f9 23 3e 49 c5 1b 3e f3 af a3 bd 94 1f 18 be
       0.16013333 0.15211977 -0.07992544 -0.14855796
0000e0 95 a9 93 bc 93 d0 19 be a9 66 c8 bd be 17 2a 3e
       -0.018025199 -0.15020971 -0.09785206 0.1661062
0000f0 04 69 da bd 36 5d 0a 3e e3 21 f0 bd 2c fe 35 be
       -0.106645614 0.1351212 -0.117252134 -0.1777274
000100 83 d6 23 bd e7 a0 e4 3d ad 27 0b 3e d2 84 b9 3d
       -0.039999496 0.11163502 0.13589354 0.090585366
000110 32 e2 0d be c7 6c 20 3e ae a8 55 3d aa 21 de 3d
       -0.13855818 0.15666495 0.05216282 0.10846265
000120 ec f0 be 3d b8 8c 98 bd 2b c7 45 3d 0c 34 f6 3d
       0.09323296 -0.07448715 0.048285645 0.12021646
000130 0e 3a 18 bc 4a 11 04 3e 7b 78 2a 3e 0d 07 0b be
       -0.009291185 0.1289722 0.16647522 -0.13576908
000140 a0 a4 15 be 95 2d 8a 3d af 27 ca 3d c8 a3 14 bd
       -0.1461358 0.06746975 0.0987085 -0.036289006
000150 66 a3 81 bc 50 cb f8 bd a8 20 8a 3d 71 65 95 bd
       -0.015824985 -0.12148154 0.0674451 -0.07294739
000160 bb 0a 27 be f6 9e 27 3e 5c 99 01 bd 6c 74 14 be
       -0.16312687 0.16369233 -0.031640396 -0.14497536
000170 9e 7f 81 3d 98 41 bc 3c dd cd 07 3e 7d d8 85 3c
       0.06323169 0.022980496 0.13262124 0.016338581
000180 82 59 e3 3c b2 e9 ee bc fa 57 04 3e f0 b2 64 3d
       0.027752642 -0.029164169 0.12924185 0.05583471
000190 24 7d 0c 3e a2 3e f0 3c 1e 1a 31 3e b5 b4 f5 3d
       0.13719612 0.02932674 0.17295119 0.11997358
0001a0 17 80 c7 bd 85 0e c8 bd 13 86 1c 3d a4 13 eb 3d
       -0.09741228 -0.097683944 0.0382138 0.114783555
0001b0 97 16 03 be ca 12 02 3e a3 eb 2f bc 9b b6 09 3d
       -0.12801586 0.1270248 -0.0107373325 0.03362141
0001c0 52 1d 97 bd b4 cd b6 bd 3f 65 ee 3d 25 f1 a3 3c
       -0.07378639 -0.089259535 0.11640405 0.020012448
0001d0 0d 97 a7 3d f4 42 9b bd 5d 24 0e 3e 1c 39 25 3e
       0.081831075 -0.0758113 0.13881059 0.16135067
0001e0 b8 16 a5 3d 5c 6c 17 3e 22 49 6b bd 50 ab 88 3c
       0.08060974 0.1478743 -0.05744279 0.01668325
0001f0 a8 77 19 be 5c 78 4e 3d e0 ae 48 bd 06 3e b1 3d
       -0.14987051 0.050407752 -0.0489949 0.08654408
000200 91 a2 cf 3d 03 32 c3 3d ea 3f 82 bd 39 80 ff bd
       0.10138429 0.09531023 -0.06359847 -0.124756284
000210 35 58 62 3d 69 5c b9 bd dd d5 36 3e 7d 3b 0b 3d
       0.055259902 -0.09050829 0.1785502 0.03399228
000220 ed 16 a2 3d 18 87 a5 3d 8e 10 33 be df af d9 3d
       0.07914529 0.08082408 -0.17486784 0.10629248
000230 ae 51 07 3e 66 98 1f bd 81 28 5a 3d 08 28 c4 3d
       0.13214752 -0.038963698 0.053261284 0.09577948
000240 bb 2c cb bd 90 9c c2 3d 37 84 02 be 33 3c e3 bb
       -0.09920641 0.09502518 -0.12745748 -0.0069346665
000250 5a 67 1b 3e ed da 0f bd c0 b8 0f 3e ee 53 a8 bd
       0.15176144 -0.035120893 0.1403532 -0.08219133
000260 1d 4e 14 3e 7e 0d 26 be 17 f1 03 be 1f 18 28 be
       0.14482923 -0.16216084 -0.12884937 -0.16415451
000270 64 60 a2 3d 30 8a a3 3d 95 05 9b bd a8 35 14 be
       0.07928541 0.079853415 -0.07569424 -0.14473593
000280 42 fa ca bd f6 15 bf 3d b4 44 99 bd bf 7e 09 be
       -0.09911014 0.093303606 -0.07483807 -0.13427256
000290 63 9a f0 bd 22 da 94 bc 85 f5 19 3c cb 7f 2e 3e
       -0.11748197 -0.01817042 0.009396915 0.17040937
0002a0 c0 bc 04 3e 24 c4 18 bb de 03 b1 3d 1b 0f 5c bd
       0.12962627 -0.0023310268 0.08643316 -0.053725343
0002b0 db 37 2a 3d 76 9d 18 3e 62 de 85 bc 68 e9 02 bd
       0.041557174 0.14903817 -0.016341392 -0.031960875
0002c0 4e 4b 24 be e2 40 94 bd ea 61 1e be eb 5f 2f 3e
       -0.16044351 -0.07238938 -0.15467039 0.17126434
0002d0 ce 1b b0 3d a0 14 3d be 0f e9 06 bd 8b e7 a1 bb
       0.08599053 -0.18464899 -0.032937106 -0.004940932
0002e0 53 89 0a 3e 1a 5a 1c 3e 6f 0b 94 bd c0 46 ba bd
       0.13528948 0.15268746 -0.07228743 -0.09095526
0002f0 54 75 2c be 5b f3 b3 3d 50 cb 08 be fd eb 2c 3e
       -0.16841632 0.08786651 -0.13358808 0.16886897
000300 d2 9d 34 be ec f2 99 3d fb b7 eb 3d 31 f8 de 3d
       -0.17638329 0.07517037 0.11509701 0.108871825
000310 8b 05 33 3e 51 4e 2a bd 4c 3a 88 3d f5 d7 15 3d
       0.17482583 -0.041578595 0.06651744 0.036582906
000320 3c 54 f1 bd 85 df 6d bc 91 9e 07 be c2 aa 4a 3c
       -0.117836446 -0.014518623 -0.13244082 0.012369813
000330 d7 9d 07 bd 57 59 9f 3d 2a b0 e3 3d f8 18 9b bd
       -0.033109512 0.07780712 0.11117585 -0.07573122
000340 fd 03 8e 3d e4 6c c1 3d 71 60 32 3d 09 38 b0 bd
       0.069343545 0.09444597 0.043549005 -0.08604438
000350 ee 3f 1c 3e d5 22 54 bc 24 0f 0b 3d 36 60 83 3d
       0.15258762 -0.012947758 0.033949986 0.06414835
000360 8b 0e 14 be 4e 86 02 bd bb a6 0d be a5 c3 b8 3d
       -0.14458673 -0.031866364 -0.13833134 0.09021691
000370 ab 39 d8 bd 0c c9 b2 3d d1 48 ea bd 68 95 3d 3d
       -0.10557874 0.08729753 -0.1143967 0.046285063
000380 97 e9 99 3d 06 1a d5 3b 86 6e b5 bd dc 7d 44 be
       0.07515257 0.0065033464 -0.08858971 -0.19188637
000390 8b 6f dc 3c 3e 24 0f 3e 6c 09 13 be 0a 31 b7 3d
       0.026908657 0.13978669 -0.14359063 0.089449
0003a0 58 4d e1 3d 85 3b 19 bd 42 d0 eb bd 37 94 75 bc
       0.1100108 -0.037410278 -0.115143314 -0.01498895
0003b0 76 c6 b6 bc 13 7a 20 bd 5f 8d 31 be 55 ca 99 bc
       -0.02231143 -0.03917892 -0.17339085 -0.018773237
0003c0 25 26 d1 bc 60 06 d1 3d 86 a2 59 bc 55 33 b9 b9
       -0.025530884 0.10206294 -0.0132833775 -0.00035324195
0003d0 b7 34 95 3d 6a ac 9a 3d f5 58 8c bd 2d b5 82 3d
       0.07285445 0.075524166 -0.06852905 0.06382213
0003e0 b5 0f e0 3d 34 eb c1 bd d5 42 3a 3d 5b 4c ec ba
       0.10940496 -0.094686896 0.045473892 -0.0018028127
0003f0 da 32 cc 3d a4 88 33 3d 44 33 d5 bd c8 c9 fb bc
       0.09970637 0.043831483 -0.10410169 -0.030735865

EiLM.3.gamma_generator.weight f4 [1, 32]
000000 82 83 a0 bd 8d d3 98 bd b4 65 2d bd f6 f1 22 be
       -0.07837583 -0.07462225 -0.04233332 -0.15912613
000010 e7 30 46 be 95 b8 1e 3d b4 88 fc bd 67 a7 3c be
       -0.19354592 0.03875025 -0.123307616 -0.18423234
000020 c9 6b 2c be cc 9a a4 bc d8 09 8c bc 8c 2a 1a be
       -0.16837992 -0.020093344 -0.017094538 -0.15055293
000030 93 02 02 3e 4b d5 79 3b ba 1a 0b 3c 61 89 20 be
       0.12696294 0.0038121517 0.008490259 -0.15677406
000040 9d 48 a7 bd f9 a7 08 be c4 e5 f7 3d 40 f8 c4 bd
       -0.08168147 -0.13345326 0.12104371 -0.096176624
000050 a8 e8 0f be c9 82 0e be af 0b 55 3d d6 f2 eb bd
       -0.14053595 -0.13917078 0.052013095 -0.11520927
000060 9e a1 ce bd b9 1d ca 3c 95 bf 83 3d a9 a1 2c 3e
       -0.1008942 0.024672376 0.06433026 0.16858543
000070 5f bc d9 bd cc bb c2 bd ea 7b 0c be 8c 98 d4 bd
       -0.10631632 -0.09508476 -0.13719144 -0.103806585

EiLM.3.beta_generator.weight f4 [32, 32]
000000 24 92 21 3e 22 9e 35 3c d3 a7 05 be 38 7d ae 3d
       0.15778404 0.011085065 -0.13052301 0.08519977
000010 42 5d 0d be f9 8f 24 3d 9c a2 a6 3d 0a 3d 05 3d
       -0.13805106 0.040176366 0.08136484 0.032528915
000020 e2 59 57 bd 9e 62 c5 bd 6e 1b e6 3c 27 6e fb 3d
       -0.052575953 -0.0963795 0.028089251 0.12276869
000030 63 16 e4 bd 75 64 02 3e c1 65 00 3e 74 25 8b bd
       -0.111370824 0.12733634 0.12538816 -0.06794253
000040 18 c4 b7 3c dc fd 1f be 08 3a f0 3d e4 e7 d8 bd
       0.022432372 -0.15624183 0.117298186 -0.105911046
000050 8e 71 18 be 9a 10 a9 3d 64 6d 37 3c e9 e0 2a be
       -0.14887068 0.082551196 0.011195514 -0.16687359
000060 ec 1d a9 bc 7a 16 16 be a7 99 06 be ab 61 b0 3d
       -0.02064415 -0.14657012 -0.13144551 0.08612379
000070 16 1b 02 3e 4d b0 a9 bc f0 7f d9 3d 97 de 98 bc
       0.12705645 -0.02071395 0.10620105 -0.018660827
000080 58 cc a0 bd f8 fb 00 3e ec 80 e4 3d 53 98 15 3b
       -0.078514755 0.12596118 0.111574024 0.0022826388
000090 f6 8d e5 bd 15 98 80 3d f2 6e 33 3e e3 a3 92 3d
       -0.112087175 0.06279007 0.17522791 0.07160165
0000a0 54 d3 94 3d 61 c6 e3 3d 93 78 b3 3d e7 ab 10 bc
       0.0726687 0.11121822 0.08763232 -0.008830047
0000b0 88 24 14 3e 1f bb 86 3d db d0 91 3c a0 0e dc bc
       0.1446706 0.06578659 0.017799785 -0.026862442
0000c0 fb 0b 08 be 9b 82 30 3e d9 29 ff 3d 7e 4f cd 3c
       -0.1328582 0.17237322 0.12459154 0.025062319
0000d0 1d 63 68 3d a8 d7 06 3e 4a 49 37 3d 13 a2 1a bd
       0.056735147 0.13168204 0.04474763 -0.037752222
0000e0 92 d3 83 bd bb 83 d8 3d a2 23 28 3e 8e 0c 45 bd
       -0.06436838 0.105720006 0.16419843 -0.048107676
0000f0 55 f6 47 3d b0 f7 6a 3d 2a 31 f2 3d d4 22 0d 3d
       0.048818905 0.05736512 0.118257836 0.034457043
000100 80 2b 06 3e 9f 40 bd 3d 3a 1c 18 be f3 30 15 3b
       0.13102531 0.09240841 -0.14854518 0.0022764772
000110 1f 84 7c 3c 5b 94 c9 3d 04 61 68 bd 9f cb 26 3e
       0.0154123595 0.0984275 -0.056733146 0.16288613
000120 4c 0a 19 be 68 64 f9 bd 44 12 37 3e e1 fa 0b b9
       -0.14945334 -0.12177354 0.17878062 -0.00013349533
000130 41 50 96 bd cb e7 e2 3d d8 48 78 bd 39 71 24 be
       -0.07339526 0.11079367 -0.060616344 -0.16058816
000140 ec 92 c8 bd 69 74 72 3d f0 99 f5 bd eb c3 e5 3d
       -0.09793648 0.05919305 -0.11992252 0.11219009
000150 7d 25 8d 3d ac 1e 38 be 94 07 dd 3d ea eb 24 3e
       0.06891916 -0.1798045 0.10792461 0.16105619
000160 2a 29 2e be 5b 01 b8 bc 16 14 21 3e bd 5f 18 be
       -0.1700789 -0.022461584 0.15730318 -0.14880271
000170 5b 9d 03 3e 2a 78 0d 3e 86 9f 01 bd 27 6c 45 bd
       0.12852995 0.1381537 -0.031646274 -0.048198845
000180 33 5c 12 be 82 51 37 bc 66 db c9 bc ed 0b b2 3c
       -0.14292984 -0.011188867 -0.02464075 0.021734202
000190 49 3c 02 3e e1 d8 de bd a7 c7 79 3d 0f 49 b4 3d
       0.1271831 -0.1088121 0.06098142 0.08802997
0001a0 98 02 2c 3b ea d7 3b 3e da ab 91 bd e9 e5 e6 3c
       0.0026246663 0.18344083 -0.07112856 0.028185802
0001b0 3b 10 b5 bc db fb 10 3e f3 0c 0e 3e 28 a9 fa 3d
       -0.022102466 0.14158575 0.13872127 0.12239295
0001c0 a2 0d b1 3d 6c 7b 33 3e 83 6f 63 3d 99 4f 84 bd
       0.086451784 0.1752755 0.055526268 -0.064604945
0001d0 ec 3f 7a bd ee 18 3d 3e 97 d6 57 bc 0f ba b7 bc
       -0.061096117 0.18466541 -0.013173721 -0.022427587
0001e0 16 4c ea bc 00 3d a3 3d b8 0a 33 be 34 b5 92 3d
       -0.028600734 0.07970619 -0.17484558 0.07163468
0001f0 a4 fc f6 3d 64 55 86 3c c5 d3 0a bd ce 0b e8 3d
       0.12059906 0.01639814 -0.033893365 0.113303766
000200 9f 7a a3 3d 8d ed 24 3d 06 cc 1a 3e 4b eb e5 bd
       0.079823725 0.04026561 0.15116891 -0.11226519
000210 2e 1a c4 ba 2a 8f 02 3e a3 51 e9 3d 9f 3b 21 3d
       -0.0014961415 0.12749925 0.11392524 0.0393635
000220 ed 34 91 3c 6b be 94 bd cc 7d b4 bd 42 b8 b8 bd
       0.017725432 -0.07262882 -0.08813056 -0.090195194
000230 d1 09 42 3c cd cb a8 bd 29 e3 ff 3d ae 86 04 3e
       0.011843161 -0.08241997 0.12494499 0.12942001
000240 3f 68 86 ba 9d 5c 0b be 9f 05 f8 3d 6f 75 74 bc
       -0.0010254456 -0.13609548 0.12110447 -0.0149205765
000250 bd bf 31 be 0a a4 fb bd fc f6 92 bd 41 ea cd bd
       -0.17358299 -0.12287147 -0.07176015 -0.10054446
000260 be 55 0f 3d 2e eb e3 bd f2 e8 18 3d 61 85 18 be
       0.03499388 -0.11128841 0.03733153 -0.1489463
000270 3a cc 0c 3e 2a 15 15 3e de 9b 62 3d 52 09 c3 3d
       0.13749781 0.14558855 0.055324428 0.09523262
000280 90 52 37 3e 02 b4 1d 3e c8 81 2f 3e dd e0 0d 3c
       0.17902589 0.15400699 0.17139351 0.008659569
000290 24 96 49 bc 73 a1 2d 3e 13 58 1b be 20 a4 7f 3b
       -0.012303863 0.16956119 -0.15170316 0.0039007738
0002a0 ff 18 4d bd 96 dc 2d bd fa 6a 89 bd cc f0 1d be
       -0.050072666 -0.042446695 -0.06709857 -0.15423888
0002b0 96 28 32 bd 7c c7 0e be 06 e7 ff bd b2 64 02 be
       -0.043495737 -0.13943285 -0.12495236 -0.12733725
0002c0 af 1d 0d be c3 fc 24 be 55 ea 93 bd 68 a7 09 bd
       -0.13780855 -0.16112046 -0.0722243 -0.033606917
0002d0 24 56 70 3d d6 0b 31 be a3 9b b2 bd 1b b1 46 bc
       0.0586759 -0.17289671 -0.087210916 -0.012127186
0002e0 72 a8 34 3d 60 31 dc bd 1a af 09 3e 95 df 3b bd
       0.044105954 -0.10751605 0.13445702 -0.04586752
0002f0 bb a6 15 be 14 5e 37 3e 44 b5 5c 3d 36 59 8f 3d
       -0.14614384 0.17906982 0.053883806 0.069994375
000300 ce f1 c0 bd 1b af 9a bd b5 58 5e bd 2c d8 24 bd
       -0.094211206 -0.0755293 -0.054283816 -0.04024522
000310 5f 2a ea bd fe 1f 9a bb 91 d6 70 3d 24 18 29 3d
       -0.11433863 -0.004703521 0.058798376 0.041282788
000320 3c 8f d9 3c 79 0f b3 bd ca 4e 20 bd ca 06 07 3e
       0.026557557 -0.087431855 -0.03913764 0.13186184
000330 50 cf 04 3d c3 66 ef bc 1d 8d 47 3d f6 b5 a2 3d
       0.03242427 -0.029223805 0.04871856 0.079448625
000340 e3 7b 2c bd c6 b7 22 be 03 7b 23 be c5 b8 74 3d
       -0.042110335 -0.15890417 -0.15964894 0.059746522
000350 69 28 18 be 0c a7 12 3e 07 55 f5 3d 96 4d 96 bd
       -0.14859165 0.14321536 0.11979108 -0.07339017
000360 18 83 25 bd c1 0d e3 3d 26 15 05 bc 40 d2 81 3c
       -0.040408224 0.11086608 -0.008122718 0.015847325
000370 90 d7 fc 3d 78 70 e8 bd 68 b7 84 3c 06 a6 20 be
       0.12345803 -0.11349577 0.016200736 -0.15688333
000380 bb 04 8d bd 8d c1 0b be d3 f2 12 be 82 e6 17 be
       -0.06885668 -0.13648053 -0.14350443 -0.14834026
000390 e7 eb b8 bb 63 d4 07 3e 0f 3b 36 bd 5a 36 ad bd
       -0.005643356 0.13264613 -0.044489916 -0.08457632
0003a0 62 3a 8c bc 4d 40 9f 3d 14 36 4e bd 28 56 cd bd
       -0.017117683 0.07775936 -0.05034454 -0.100261986
0003b0 9a a7 84 bc da d1 15 be dd 9f 0e be 1d a4 dc 3d
       -0.0161932 -0.14630833 -0.1392817 0.107734896
0003c0 af f4 2b 3e 1c d1 e3 bd c2 85 0c be 82 df 3a 3d
       0.16792558 -0.11123869 -0.137229 0.04562331
0003d0 1e 38 28 be 9c 25 2d 3e 90 83 c4 bd a1 11 11 bd
       -0.16427657 0.16908878 -0.09595406 -0.035417203
0003e0 7a 9f 2e be 0e ac e4 3d de 72 15 be 8a c4 3a 3e
       -0.17053023 0.11165629 -0.145946 0.18239036
0003f0 07 4b 85 bb 4b ab f0 bd 79 b7 e6 3d 20 c4 1e be
       -0.004067782 -0.117514215 0.112654634 -0.15504503

Gate.weight f4 [4, 32]
000000 d1 46 63 3d 33 79 0a 3e 63 7a 4a be e9 cd cd 3d
       0.055487458 0.13522796 -0.1977325 0.1004904
000010 99 c5 b6 3d 31 4c 2a be 3c c3 40 3e f4 d8 3f 3d
       0.089244075 -0.16630627 0.18824476 0.046837762
000020 7d b2 2e be ca 34 2a 3e 61 f4 82 bc c5 57 00 3d
       -0.17060275 0.166217 -0.01598567 0.031333704
000030 a3 f0 2b be 6e b6 74 3d f6 3c 14 be 84 75 ef bd
       -0.16791014 0.05974429 -0.1447638 -0.11692336
000040 80 52 02 be 15 69 cc bd 1b 2f 26 be 27 bf 1a be
       -0.12726784 -0.0998098 -0.16228907 -0.15111981
000050 50 c0 81 3c ee 87 c3 3d a1 38 6b bd c8 16 07 be
       0.015838772 0.09547411 -0.057427052 -0.13192284
000060 7c b2 07 be d9 fd c4 bc d2 44 0c 3e 3b 7c 8b bd
       -0.1325168 -0.024046825 0.13698128 -0.068108045
000070 fc dc b5 bd b6 7c 99 bd 56 8e 51 be 05 83 39 3e
       -0.0888004 -0.0749449 -0.20464453 0.18116386
000080 ee eb f9 bd 76 be ff bd 85 6d 28 be 82 db a4 3d
       -0.12203203 -0.124874994 -0.16448028 0.0804968
000090 e6 03 f0 bd c8 25 94 3d ae a3 17 be 57 91 f5 bc
       -0.117194936 0.07233769 -0.14808533 -0.02997653
0000a0 15 62 27 3e 36 96 29 bd 5a 7a d1 bd 15 ff a6 bd
       0.16346009 -0.041403018 -0.10228415 -0.08154122
0000b0 5f 1b 83 bd 9c 84 e4 3b 9a fe 09 bc 1d bd 04 3e
       -0.06401705 0.006973816 -0.008422518 0.12962766
0000c0 16 1e 02 3e d3 57 40 bd 5b ae 2f 3e 5c 5e fd bd
       0.1270679 -0.046958756 0.17156355 -0.12371513
0000d0 d8 e0 fb bb 2f a6 a2 3c fe 5b d8 3d 5f 46 0a 3e
       -0.0076867156 0.019854633 0.10564421 0.13503407
0000e0 2e 25 fb 3d 8c c5 0e be 89 57 52 3e a2 d0 04 3e
       0.12262951 -0.13942546 0.20541205 0.12970212
0000f0 24 2e 49 bc ce 6a d8 3d 98 b3 81 bc 97 14 2b bd
       -0.012279067 0.105672464 -0.015832707 -0.041767683
000100 7b 9b 09 be cf 5b 1e be 97 9c d3 3d b1 96 44 3e
       -0.13438217 -0.1546471 0.103326015 0.19198109
000110 16 ad b3 bd 81 5b 4c 3e 09 cf bd 3d ff 20 91 bd
       -0.08773248 0.19956781 0.092680044 -0.07086372
000120 53 01 e4 3c df ea 0c 3e dc 8d 7f bc d5 b7 39 3c
       0.027832663 0.13761471 -0.015597787 0.011335333
000130 e3 18 64 bd 1b a1 b4 3d 90 2e a3 3c 6d 80 a0 3c
       -0.055687796 0.08819791 0.019919664 0.019592488
000140 61 e4 4c bb 80 53 21 3e 6d 46 e0 bd 7e 46 10 be
       -0.0031264054 0.15754509 -0.10950933 -0.1408939
000150 f7 db a8 bb 2e e2 9e bd 1f 92 25 be f3 74 cc 3d
       -0.005153175 -0.07757984 -0.16169022 0.09983244
000160 a9 9b 4a 3d 27 da 2c 3e 41 e9 a3 bd e2 40 4e 3e
       0.049464855 0.16880094 -0.08003474 0.20141938
000170 87 4c 6f bd 21 e8 06 be e5 f9 87 3c a5 55 77 bd
       -0.05842259 -0.13174488 0.016598651 -0.06038441
000180 df 2b fd bd af c6 46 bd 9e f3 c2 3d 84 07 65 3d
       -0.12361883 -0.048529323 0.095191225 0.05591537
000190 b1 13 4a 3e 49 c0 da 3d 0a 05 3f 3d 0f f3 4d bd
       0.19734074 0.10681207 0.046635665 -0.050280627
0001a0 8d fc 1c be 79 29 11 be 22 3c 81 3c b4 e0 4c be
       -0.15330715 -0.14175977 0.015775744 -0.20007592
0001b0 30 49 39 3c 9b 83 ee bc 6f ee 00 be 21 2d 1e 3e
       0.011308953 -0.029115489 -0.12590955 0.15446903
0001c0 07 94 3d be 9b f2 9b 3d 32 2d 12 be 32 4d f4 3d
       -0.18513499 0.07614633 -0.14275053 0.11928786
0001d0 e1 15 c5 bb 12 1f 36 3d 39 8a 29 3c 4e 8e e5 bd
       -0.006014571 0.044463225 0.010347896 -0.11208783
0001e0 de 1c 92 bd 96 3a 24 bd 8a 49 92 3d 71 1f 95 bc
       -0.07134412 -0.040094934 0.07142933 -0.018203469
0001f0 65 e8 df bd 26 84 10 be 07 4c 2f 3e cc 3a 47 3e
       -0.109329976 -0.1411291 0.17118846 0.19456023

experts.0.gate_proj.weight f4 [32, 32]
000000 13 31 8f bd 6f 51 24 3e 57 1f 12 3e 42 ad 1f bd
       -0.06991782 0.1604669 0.14269768 -0.03898359
000010 c9 6b f7 3d 81 28 43 3e a8 92 0a be f8 6f c4 bd
       0.12081105 0.1905842 -0.13532507 -0.09591669
000020 d4 95 f2 3d a6 74 85 bd b8 5a 82 3c 67 4f cc bd
       0.11844984 -0.065163895 0.015912399 -0.09976082
000030 43 7b 11 bd 1a a7 79 bb 50 83 57 bd dd 7f 78 3d
       -0.035517942 -0.0038093985 -0.052615464 0.060668815
000040 9a 68 bc 3d 13 5b e1 3d 2a f4 d7 bd 6e f5 42 be
       0.09199639 0.11003699 -0.105446175 -0.19038936
000050 d2 70 86 3c ab 0b 4b be b8 a8 ce bd 4c 3c ab bb
       0.016411219 -0.1982867 -0.10090774 -0.005225694
000060 2b 0f b1 bd f2 69 d0 bd ef 09 00 3e 0c 5d cf 3d
       -0.08645471 -0.101764575 0.1250379 0.10125169
000070 57 58 ad 3d 74 0f bd bd 5e 63 0f be cf 59 06 3d
       0.08464115 -0.09231463 -0.1400275 0.032800492
000080 a0 27 2f 3e 9a 92 af bd 82 14 9c bd 95 b6 b6 3d
       0.1710496 -0.08572884 -0.07621099 0.089215435
000090 f8 1a 4a be e9 98 0d be 12 f8 3d bb 1f a0 47 be
       -0.1973685 -0.13827862 -0.0028986973 -0.19494675
0000a0 d3 fb 8c bd 69 d4 3e bd f6 3d a1 3d 1a 2b bc 3d
       -0.06883969 -0.04658929 0.07873146 0.091879085
0000b0 03 cb fb bd 8f 12 3e be c6 3b 30 bc da d0 c3 bd
       -0.12294581 -0.18561767 -0.010756439 -0.0956132
0000c0 2f 06 24 3e f6 3e 50 bd 40 65 99 3c a1 1f 87 bd
       0.16017984 -0.050841294 0.018725038 -0.065978296
0000d0 82 d3 9a bd 01 3e c8 bd b7 67 90 bd c4 53 37 be
       -0.07559873 -0.09777451 -0.07051032 -0.17903048
0000e0 6a eb ff ba 6a 7f a2 bd 83 e3 6b bd fa 36 71 bd
       -0.0019525115 -0.079344586 -0.05759002 -0.05889032
0000f0 27 de e6 bd e2 1b 66 bd 34 06 b4 3d ad 3c a3 3d
       -0.11272841 -0.056178935 0.08790246 0.07970557
000100 23 e4 17 3e 07 f2 8d bd cd 7d ac 3d 71 cc 69 3d
       0.14833121 -0.06930929 0.08422432 0.057079736
000110 a9 c5 82 bd 42 7f 5b 3d c2 23 55 bd bf a8 d7 3c
       -0.06385357 0.05358816 -0.052036054 0.026325582
000120 9c ff 25 bd 40 56 29 bd 65 f2 34 bd 0a c1 01 be
       -0.04052697 -0.04134202 -0.044176478 -0.12671295
000130 13 3a 6a 3d 3f 4c ba ba ba 08 2a 3e 69 c9 32 3e
       0.05718429 -0.0014213397 0.16604891 0.17459644
000140 09 f1 6d bd 1d 01 28 bd b4 cc de 3d ac ec a0 3c
       -0.058091197 -0.041016687 0.10878888 0.019644104
000150 60 db 63 bd 61 46 32 be f0 58 c7 bd b9 3a 06 3d
       -0.055629134 -0.1740966 -0.0973376 0.032770846
000160 75 3d 12 3e c9 05 1c 3e 5d 23 aa bc 8b 2d 1e be
       0.14281256 0.15236582 -0.020768816 -0.15447061
000170 45 4a 96 bd 15 12 28 3e 1c fe 25 3e 4b 0f 30 3e
       -0.073383845 0.16413148 0.16210216 0.17193334
000180 8a ca 99 3d 08 bc 22 be 9f 67 b6 3c 7e 89 f1 ba
       0.075093344 -0.1589204 0.022266207 -0.0018427817
000190 1e bb 67 3c b2 61 3d be 4b 7e 95 bc 9d 8e 33 be
       0.014143733 -0.18494299 -0.018248698 -0.17534871
0001a0 76 20 42 3b ff 0e 03 be 9f 58 36 3e 4d 98 2f be
       0.00296214 -0.1279869 0.17807244 -0.17147942
0001b0 48 85 d7 3c 98 b1 d1 3d 68 63 87 3d 65 13 33 be
       0.02630867 0.102389514 0.06610757 -0.17487867
0001c0 5b e7 9f 3d de 8d 05 3e ea 1b ce bb 52 80 a3 3d
       0.078077994 0.130424 -0.0062899487 0.079834595
0001d0 72 8e b0 3d d2 e6 d6 3d 21 17 13 3e b4 b1 f6 3d
       0.08620919 0.10493244 0.14364292 0.12045613
0001e0 57 74 4b be 44 e0 65 bd e5 53 0d 3d 9f 1c 8f bd
       -0.19868599 -0.05612208 0.034503836 -0.06987881
0001f0 b7 90 0b be 4b d9 b0 bd fe fa c6 3d 5c 32 37 3d
       -0.13629423 -0.08635195 0.09715842 0.04472576
000200 1e b4 11 3e 59 09 90 bd 6b 30 fd bd ea 38 68 bd
       0.14228866 -0.07033033 -0.123627506 -0.056694902
000210 6e 47 b8 3a 6e b0 ec bd f6 1e 0a be b7 ea ac bd
       0.0014059374 -0.11557089 -0.13488373 -0.08443206
000220 ee 80 44 3e c7 03 4d be 4d fb e7 bd 9e cc 22 bd
       0.19189808 -0.20020972 -0.11327229 -0.03974592
000230 d3 6a 8f bd 21 8f 89 3d 43 29 19 bd 79 bb 20 be
       -0.07002797 0.06716753 -0.037392866 -0.15696515
000240 4d c9 b1 3d 97 42 9b 3b 81 b3 58 bd 66 08 71 bd
       0.08680973 0.0047381627 -0.052905563 -0.0588459
000250 fc 0a ff bd b7 ca 03 3e ba 0a 50 3e 20 63 0d 3e
       -0.12453267 0.12870298 0.20316592 0.13807344
000260 1b 22 db 3d c8 dd 1b 3d 98 6b 00 3e b4 d5 09 3e
       0.106998645 0.038053304 0.12541044 0.13460428
000270 58 63 0a be 22 b3 b0 3d 10 66 b5 3d e4 03 85 3d
       -0.13514459 0.08627917 0.088573575 0.06494883
000280 ef 37 cd 3c 30 d2 64 3c 1e b8 20 bd a1 49 b6 bd
       0.025051085 0.013966128 -0.039238088 -0.08900762
000290 99 c8 42 3d 11 4c d5 bd 48 9f 5d bc 16 57 ff 3d
       0.047554586 -0.10414899 -0.013526745 0.12467782
0002a0 14 8a 15 3e 91 3d d6 bd 15 05 d5 3d 3d 3e ab bd
       0.14603454 -0.104609616 0.1040136 -0.083614804
0002b0 74 b5 07 3e 7c 82 f9 3d 76 82 28 be d7 9a 03 3e
       0.13252813 0.12183091 -0.16456017 0.12852035
0002c0 5f 31 17 3e e2 b9 03 be 0d 5d 19 bd c1 93 01 bd
       0.14764927 -0.12863877 -0.037442256 -0.03163505
0002d0 e2 e1 b3 3d 25 d9 48 3d 3c d5 e0 bd 58 bd 4a bd
       0.08783318 0.04903521 -0.10978171 -0.04949698
0002e0 e0 da 0a 3e 74 df 40 3e 15 dc e5 3d d5 22 14 be
       0.13560057 0.1883524 0.11223618 -0.14466412
0002f0 2e 3d 1d be 79 19 82 3d 1b 07 2b bd 95 4a f9 3d
       -0.1535537 0.06352515 -0.041754823 0.121724285
000300 eb 45 f1 3d 57 02 33 3e 6e f1 51 bd f2 78 88 3c
       0.11780914 0.17481361 -0.051255636 0.016659234
000310 9c c5 00 3e 60 d5 6b 3c 3e e9 87 bd 61 10 b8 bc
       0.12575382 0.014394134 -0.06636284 -0.022468748
000320 c5 36 06 bd c4 8a 99 3b c4 e4 9c bc 98 ed 09 bd
       -0.032767076 0.0046857316 -0.019152053 -0.033673853
000330 e0 f1 d7 bc 2a 15 21 be f4 59 08 bd 8e 63 9c 3c
       -0.026360452 -0.1573073 -0.03328891 0.01909044
000340 40 30 d5 3d 96 07 b1 3d 87 76 59 3c 82 c8 96 3d
       0.104095936 0.08644025 0.013272888 0.073624626
000350 fa 3a 21 3e ea 72 2a 3e 8c bd 19 be 1b 81 8f 3b
       0.15745154 0.16645399 -0.15013713 0.0043794042
000360 b4 d9 20 3e 26 30 8c 3d ec dd a5 3d 5a 43 d2 bd
       0.15708047 0.06845121 0.08098969 -0.102667525
000370 54 84 cc bc 13 6d cd 3d 82 d2 72 3d ab fe 24 be
       -0.024965443 0.1003057 0.059282787 -0.16112773
000380 4c e8 22 be 15 43 91 3d ee be 11 be a7 f8 24 be
       -0.15908927 0.07092873 -0.1423299 -0.16110478
000390 ae 83 ce bd 4a 64 7f bd 86 64 b7 bc 81 20 02 be
       -0.1008371 -0.062351502 -0.0223868 -0.12707712
0003a0 9e a0 13 3d 30 d5 49 bd 8f 58 10 3e c2 06 1a bd
       0.03604185 -0.049275577 0.14096282 -0.0376041
0003b0 81 47 b4 3d a5 b6 05 3e 5e 29 38 be e9 64 00 be
       0.08802701 0.13057955 -0.1798453 -0.12538494
0003c0 c9 f1 52 3d f2 86 fc 3d 13 40 36 3d 87 a6 32 be
       0.051500116 0.12330426 0.0444947 -0.17446338
0003d0 5d c5 ce bc 3d 61 ca bc 80 e0 9a 3d 25 88 72 3d
       -0.025240595 -0.02470457 0.07562351 0.05921187
0003e0 14 36 97 3d be 25 4b 3e b9 19 d7 bd e9 a4 ad 3d
       0.073833615 0.19838616 -0.10502953 0.0847872
0003f0 7c c0 4c be 17 b7 33 3e ca b4 dd 3d 0f 4f 12 3d
       -0.19995302 0.17550312 0.108254984 0.035719927
