output/SocialGood-MoME/ts_encoder_epoch4.pt (torch, 362284 bytes, 34 tensors)

proj.weight f4 [32, 4]
00000000: d8e6 bdbe cbbe e33e 920b 5d3e 5ed8 10be
00000010: ec62 933e 9c02 67be 2534 7bbe 352d cd3d
00000020: 9ad3 54bc 5d2a c6be 65aa b33d 3240 10be
00000030: b3d2 993e a08f 02bf d0c2 e83d 8f0f cf3e
00000040: f12d 74be f098 813d 3f0d aabe 3236 0f3e
00000050: 6ea3 b6be 33a9 3cbe e1db 9cbe 0df0 ef3e
00000060: ad78 fa3e 3584 afbd d83f c6be 473d 18be
00000070: 77ac 28be 76e8 713d e068 38be 4ccb 003f
00000080: fb61 a2be d5da 023e 13f1 0b3e 6071 ae39
00000090: c28e 233e 52bb eb3d 2fe5 b33e 6020 9abd
000000a0: 7ba0 3d3e e2cc 4a3e 8a07 df3d 865e 6bbd
000000b0: 151f 133e cd42 b93e 73b9 d73e 18e6 ae3e
000000c0: c76e 38be 4334 ecbe 97ff 10be ac46 573e
000000d0: aa42 8cbe b8dc 94be 660c 88be 924c 98be
000000e0: e7ff f63e 9235 663d 8a0a fcbd e2f1 2f3e
000000f0: 24c6 adbd ce1b cb3d ff09 b03e c5b4 b5be
00000100: 6e1c 0c3e 57f3 d83e f204 dbbd 5ab7 563e
00000110: b1b0 d3be f943 06bf f8ae f7be 73d4 e73d
00000120: e7e3 76be c31f 4f3d a8a8 9e3e f5a9 dc3d
00000130: e44c 883e e8d3 f6bd 6893 03be b634 83be
00000140: 655f f7be e3f2 6739 40ac 9dbe 3e78 b5be
00000150: a7af 363e 2c42 f73e 9a70 6b3e e0b0 8cbd
00000160: 6046 d93e c20a c7be 6ebc e3bc dfae ac3d
00000170: 2cf6 debe 4884 26be 744c bb3e fe5a 30be
00000180: 1b43 d4be a699 0abe c644 2f3d 2614 663e
00000190: 015d b1be 37f5 d4be 6899 353c e544 b9be
000001a0: 67da 42be 6c75 ef3e cfac 1cbe dd6b 613e
000001b0: c883 9cbe e2d8 88be bbc1 713e 379c cd3e
000001c0: f82b 023f c115 8fbe a26c ff3e 4ecb dd3e
000001d0: 3550 a1bd 58af c13e 7eba d5be 934e 7fbe
000001e0: ad66 5abe 670d afbe ae20 93be ef34 46be
000001f0: 7879 053f 7779 f93b 7c64 a7be 51a1 abbe
-0.37090182 0.444815 0.21586445 -0.14145038 0.2878641 -0.22559589 -0.2453161 0.10018388
-0.012989903 -0.38704196 0.087727346 -0.14086989 0.30043563 -0.51000404 0.113652825 0.40441558
-0.2384565 0.06327999 -0.3321323 0.13985518 -0.35671562 -0.1842392 -0.30636504 0.46862832
0.48920193 -0.08570138 -0.38720584 -0.14867125 -0.1647204 0.059059583 -0.18008757 0.50310206
-0.31715378 0.1277879 0.13666181 0.00033272337 0.15972427 0.11510338 0.3513579 -0.07525706
0.1851825 0.19804719 0.1089011 -0.05746319 0.14367326 0.36183777 0.42133674 0.34159923
-0.18011008 -0.46133623 -0.1416 0.21023053 -0.2739461 -0.29074645 -0.2657196 -0.2974592
0.48242113 0.056203432 -0.12306698 0.17182115 -0.08485058 0.09917413 0.34382626 -0.3548948
0.1368272 0.42373154 -0.106943026 0.2096838 -0.41345742 -0.5244747 -0.48375678 0.11319818
-0.24110375 0.0505674 0.3098805 0.10774604 0.26621163 -0.12052137 -0.128492 -0.25626153
-0.48314968 0.00022120359 -0.3079548 -0.354433 0.17840444 0.48292673 0.22992173 -0.06869674
0.42436504 -0.38875395 -0.027799811 0.084317915 -0.4354719 -0.16261399 0.36581767 -0.17222211
-0.41457447 -0.13535175 0.042790197 0.22468624 -0.3464127 -0.41593334 0.011083938 -0.36185375
-0.19028626 0.46769273 -0.15300296 0.22013803 -0.3056929 -0.26727968 0.23609059 0.40158245
0.5084834 -0.27946284 0.49887568 0.43319172 -0.078766264 0.3782909 -0.41743845 -0.24932317
-0.2132823 -0.34189913 -0.2873587 -0.1935613 0.5213847 0.0076133567 -0.3269385 -0.33521512

proj.bias f4 [32]
00000000: 0a57 023f c380 a2be b207 d33e e1b4 043f
00000010: 6f77 eebe fe65 233e e169 c53e 3b8c dfbe
00000020: baff 7dbe d16e e2bd 37dd 443e a2cf aabe
00000030: fff6 203e 2b1f 043e 17d7 cf3e be22 debe
00000040: 140c f53e 38c3 8ebe 36c9 8fbd 0e7f 3f3e
00000050: 7c59 03bf bc12 d23d 43e9 02bf de90 fabd
00000060: 9394 88be 3aa2 80be 9a80 3ebe 3b51 433e
00000070: ccd4 51be e8c8 8b3e ca7b db3d 4850 fbbe
0.5091406 -0.31738862 0.4121681 0.518385 -0.46575496 0.15956876 0.38557342 -0.43661675
-0.24804583 -0.11056293 0.19225012 -0.33361536 0.15719222 0.12902515 0.40593788 -0.4338588
0.47860777 -0.27883315 -0.070208 0.18700811 -0.5130842 0.102574795 -0.5113718 -0.122346625
-0.26675853 -0.2512377 -0.18603745 0.19073956 -0.20491332 0.27301717 0.1071697 -0.49084687

EiLM.0.gamma_generator.weight f4 [1, 32]
00000000: 7532 4ebe 958d f93c 423b 183e df2f 21bd
00000010: 3058 00be f84d ce3d aa16 2bbd 96ec 1dbd
00000020: 8828 783d f50a cc3d aecb 103e 79dc 673c
00000030: 9ceb 1e3e 1d81 b23c cfb4 eb3d 1828 11be
00000040: d31d 403e b6dd cd3d 40f4 3e3e bcfc 253e
00000050: 83b4 0e3d b451 9d3c 285f 9fbd 08a5 6d3d
00000060: 5e65 993d 06c7 363e fb5b 203c 2733 4a3e
00000070: 72d7 583c 0205 ff3d 9159 52be f450 c2bd
-0.20136435 0.03046302 0.14866355 -0.039352294 -0.12533641 0.10073465 -0.04176966 -0.038555704
0.06058553 0.099630274 0.14140198 0.014151686 0.15519565 0.021790082 0.11509096 -0.14175451
0.18761377 0.10052054 0.18647861 0.16209692 0.03484012 0.019203998 -0.077818215 0.058018714
0.074900374 0.17849359 0.009787555 0.19746076 0.01323496 0.12452127 -0.2054198 -0.09488097

EiLM.0.beta_generator.weight f4 [32, 32]
00000000: 732b 04be 169e b73d 15df 223e 62e1 5b3c
00000010: d3a1 953d 049d b7bd 5f26 f6bd 1f15 303d
00000020: 0bf0 4abc f728 753d fd92 123d e7fa ecbc
00000030: 32b6 c23d 1836 c13d 050d bebd 0619 47bd
00000040: e936 133c 4d61 d93d 3993 0c3d 781d 19bd
00000050: f65f c2bd e438 093e 83a0 8dbd 4775 413d
00000060: 582b f3bd fd57 f13c 3120 ffbd eb8d 983b
00000070: cde7 a33c faee 133e a625 f83a f35c 4a3b
00000080: e022 db3d 0f51 093e 1d4a 9dbd 82d4 cdbc
00000090: 171d 9f3b 5779 c43c e4b1 953d edc5 25bc
000000a0: 00d0 683d f44e 09bc 4882 153e 7a95 223e
000000b0: 217c d0bd 9711 a3bd edad 253d 46c2 29be
000000c0: 6f4b abbc 5550 d33c 3112 b2bd a2f4 0f3e
000000d0: 02a8 4e3d 0bff 0f3e 8350 d43d f863 f6bd
000000e0: aba1 1fbe d383 28be d66e fb3d 42ae 1dbe
000000f0: 69f0 b0bd 62fc b7bd 9511 9dbd 12d3 773d
00000100: afdd 813d da22 26be 5bb8 e73d d892 7d3c
00000110: c08f 033d a6a1 cc3c 35bd 533d 90ee 1d3d
00000120: 656d bcbd 373e 313e 5daa 1f3e 8bca 37bc
00000130: 7a4a 1c3e e4cc 21be a841 343d 6ee6 24be
00000140: 64b4 323e 92ae 01be 39e8 1f3e e80b afbc
00000150: 3887 e6bc 6f16 f13d 99e7 d33d 0a3e 9bbb
00000160: cfff fbbd 2b62 063e 2943 09be 5425 053e
00000170: 292e b83d e9fc 263e f57e 84bc a4b0 ee3c
00000180: 1d39 373d c27c acbd 9244 1bbe 251a 97bd
00000190: 9787 9ebd f0ea 60bd 685b 7fbd 5aa9 1cbe
000001a0: af04 2fbe 0d22 2d3d 5198 0f3e b23e dcbd
000001b0: 0a5a a8bd 5aee 22be 7e7d 2dbe 8f3f 35be
000001c0: e6d5 26bd 7a12 26bd ec05 babd e118 99bb
000001d0: 7cd3 cdbd 53bd 1ebe 7fa7 39be 6d8a a3bd
000001e0: de24 893d aa98 813d ba17 c63d 906a d5bd
000001f0: 3246 f33d 167f bcbc 1bb9 cd3d a61a cfbc
00000200: 26dd 0f3e c91b 883d a39f 1ebc 21c4 0fbe
00000210: f3ff 093c d32b 173e ee83 cf3c adc4 9bbd
00000220: bc68 243e 416d 8dbd b0a2 5f3d a096 7fbc
00000230: 0fd7 6dbd 6582 de3d 7518 13be 8473 a03a
00000240: 8bb6 16be 9628 52bd b966 d0bc db0b 473c
00000250: bdc0 0d3e 5838 21be 8ca5 4bbd faad f8bd
00000260: 7bec 04be 3909 dbbd c423 9cbd cdd0 9c3d
00000270: 1844 5e3d 60af 5cbd 89c5 e7bd 0467 803d
00000280: 3311 1f3e 0166 243e 938b 0bbe 7247 a23b
00000290: bafd b83c 3342 873c ac7e d63d d327 87bc
000002a0: 09b9 233e 2770 803d 0499 093e d6ec 20be
000002b0: 27d9 29be a642 aabc b58a 7abd 73e8 2bbe
000002c0: 8f77 b63d 1885 ee3d 1e47 4c3d a70e 293e
000002d0: a9e2 493d 373e 16bd 09ed 42bc 7b37 db3d
000002e0: 2f24 2bbd 47a8 23be a9ff b03d 26b5 73bd
000002f0: 7d2e 3b3e 3d49 9bbc f7b1 f03d dccc 0f3a
00000300: 339d dbbd 850a e8bd 1934 693d 8e7a 86bc
00000310: b7c7 1e3e de66 2d3e 3895 1c3e 9814 9e3a
00000320: d797 b53d f1b4 26be 739b 073e 1b59 183e
00000330: 6da0 41bd 9997 953d b597 2ebd 4e62 24be
00000340: 6bf1 a7bd 2fd9 603d 30c2 a93d c91e ca3d
00000350: e1b6 14be a570 553d f507 a63c 7aa1 97bd
00000360: efee e33d 2b92 863d 89c6 203e 23de bcbd
00000370: f635 d83b 3649 5a3d 31a1 c2bd 336c e43c
00000380: 5e2c d13d c932 1bbd a43d 83bd 0b82 103d
00000390: 7f65 91bd 1db2 0c3e 5990 223e df02 053e
000003a0: 338f 19be cb43 1f3d a1e3 04be 25ce a43d
000003b0: 32d5 183e e406 c4bd 99b9 eb3d 02f8 bbbd
000003c0: 8b49 4b3e be14 98bd d8e7 d8bd d1f7 1c3e
000003d0: 6f71 403e 71d2 9abd 06ad c43d 8f6e fb3d
000003e0: 8b4a 09bd 4dbe e03d 9b32 35be eb83 96bd
000003f0: 2bbe 163e c5f2 5c3c 2980 24be ac4b 623d
-0.129072 0.089656994 0.15905412 0.013420435 0.07306256 -0.08965495 -0.120190375 0.042988893
-0.012386332 0.05985352 0.03578471 -0.028928233 0.09507407 0.09434146 -0.09279827 -0.04860785
0.00898526 0.10614262 0.03432009 -0.03738162 -0.09490959 0.13400608 -0.06915381 0.047230985
-0.118735015 0.029460901 -0.12457312 0.00465559 0.020007992 0.14446631 0.0018932119 0.0030878156
0.10700011 0.13409828 -0.076801516 -0.025125746 0.0048557627 0.02398364 0.073093206 -0.01011799
0.05683899 -0.00838064 0.1460048 0.15877333 -0.10179926 -0.07962339 0.04044907 -0.16578016
-0.020909993 0.025795141 -0.08694876 0.14058164 0.050453193 0.14062135 0.10366919 -0.12030786
-0.15589015 -0.16456537 0.12277 -0.15398505 -0.086396046 -0.08983685 -0.07669369 0.060504027
0.06341111 -0.16224232 0.1131446 0.015476905 0.032119513 0.024979424 0.051694114 0.03855759
-0.09200553 0.1730889 0.15592332 -0.011217724 0.15262786 -0.15800816 0.044007927 -0.16103527
0.17451626 -0.1266425 0.1561593 -0.021367982 -0.02814065 0.11771857 0.10346908 -0.0047376202
-0.12304651 0.13123386 -0.13404526 0.13002521 0.08993179 0.16307415 -0.01617382 0.029136963
0.0447322 -0.08422233 -0.15162876 -0.073780335 -0.077407055 -0.054911554 -0.06234303 -0.15298977
-0.1709163 0.0422688 0.14022948 -0.10754146 -0.082202986 -0.15911236 -0.16942403 -0.17700027
-0.040731333 -0.040544964 -0.09083161 -0.0046721552 -0.10050103 -0.15501909 -0.18130301 -0.07985387
0.06696485 0.063279465 0.09672494 -0.10420716 0.11878623 -0.023009818 0.10045072 -0.025281262
0.14049205 0.066459246 -0.009681615 -0.14039661 0.008422839 0.14762811 0.025331464 -0.07605872
0.16055578 -0.06905604 0.05459851 -0.015599877 -0.058066424 0.108647145 -0.14364798 0.0012241458
-0.14718072 -0.051308237 -0.025439607 0.012148823 0.13843055 -0.1574415 -0.049718425 -0.121425584
-0.12980835 -0.106951185 -0.07624009 0.07657013 0.054264158 -0.053878188 -0.11316974 0.06269649
0.15533905 0.16054536 -0.13627462 0.0049523646 0.022581924 0.016511058 0.104733795 -0.016498482
0.15988554 0.06271391 0.13437277 -0.15715346 -0.16586743 -0.020783734 -0.061167438 -0.16787891
0.08909523 0.11646479 0.04987251 0.16509496 0.049288426 -0.036680426 -0.011897334 0.107039414
-0.041782554 -0.15982161 0.08642513 -0.05949893 0.18279453 -0.018955821 0.11752694 0.00054855435
-0.10723343 -0.113301314 0.05693445 -0.01641586 0.15505873 0.16933772 0.15291297 0.0012060581
0.08866852 -0.16279961 0.13242893 0.14877741 -0.047272135 0.073043056 -0.042625148 -0.16053125
-0.08200344 0.054894622 0.082889915 0.09869153 -0.14522888 0.05210938 0.020267466 -0.07403846
0.11129557 0.06570848 0.15700735 -0.09222057 0.0065982295 0.053292476 -0.09503401 0.027883625
0.102135405 -0.03789023 -0.064082414 0.03528027 -0.07099437 0.1373982 0.15875377 0.12989376
-0.14996032 0.03888301 -0.12977459 0.080471314 0.14925078 -0.09571627 0.11510009 -0.09178163
0.19852273 -0.07425831 -0.10591096 0.1532891 0.18793271 -0.0755967 0.09603314 0.12276947
-0.033518355 0.10973797 -0.17695086 -0.0734938 0.14720981 0.013485615 -0.16064514 0.055247948

EiLM.1.gamma_generator.weight f4 [1, 32]
00000000: 6f55 d4bb 087c bbbd bb97 003e e3da 68bc
00000010: be59 aabd 3ac1 063e a8b4 11be 7a59 1bbd
00000020: 25a5 ab3d 2276 13be 8bf9 d73d 9930 643d
00000030: f15a f43d 9feb 133e 1cce 0abe 6d99 513d
00000040: 3303 483d be49 18be 8a4f 54be f243 813d
00000050: 9546 52be 08f0 1dbd 078b 343e fc39 7d3d
00000060: 645a 943d 8afb a7bd 156a 123e 17db 3f3d
00000070: ce3c 14bc 6b3c 653e aa0c d4bd 4210 253e
-0.006479911 -0.091545165 0.1255788 -0.014212343 -0.08317898 0.13159648 -0.14229071 -0.03792713
0.08381108 -0.14400533 0.105456434 0.05571041 0.11931408 0.14445351 -0.13555187 0.05117171
0.048831176 -0.1487188 -0.20733467 0.06311788 -0.20534737 -0.03855899 0.1763116 0.061822876
0.07243803 -0.08202274 0.1429828 0.0468398 -0.0090477 0.22386329 -0.10353978 0.16119483

EiLM.1.beta_generator.weight f4 [32, 32]
00000000: 568d 37be 44a0 0ebe 50b9 093e 2b5d 363e
00000010: 294b 11be 005d 42be f2ab 9bbd 2b10 95bd
00000020: 71c8 113c d23c f8bb c653 a93d 48fd 46be
00000030: d51e 80bd 3f1c 1d3d 28d1 10be 3a1e f63b
00000040: d4a0 1cbe beb0 0e3e a5a1 2cbc 5041 273e
00000050: bb9a 413e 114b 91bd ac3c 6ebc b4da 07be
00000060: b762 ad3d cd4b 0a3e 9ec1 a6bc 35f7 ecbd
00000070: 30c5 11be 1ae7 0dbd 2e9f 84bd 6c7c 3abe
00000080: 7c2e ffbd b1be e7bd 7bd6 c43d c06a 0e3e
00000090: 7f3c 9a3c 1adb 913c c257 1b3e c756 943d
000000a0: 6709 ca3d 1cff e9bd c647 bebd e0fd 473d
000000b0: 01c4 bebd 391c 1cbe d31d 09be aa65 b93d
000000c0: 8d3e 86bc 36f5 b7bc 34a2 f43d e96b c9bd
000000d0: fddd 403d 8b00 3b3e d5e5 6a3d 44f3 d1bd
000000e0: 7635 d23d 0122 e1bd aa4d cbbd 1f5d 9f3d
000000f0: 5fb0 91bd e75a d43d 690e 9a3d e212 84bd
00000100: c177 a13d aa11 c93d e8c0 e0bd 6c52 f03c
00000110: b1ad dd3c 8666 98bd 1651 42bd 6e7c d43d
00000120: 6357 b8bd cb17 a43d 6ff8 c0bc 8d78 6e3d
00000130: 501d bbbd 253f 833b c3fd 303e 16c6 bc3d
00000140: 3883 44bc bec3 e1bd 2271 e63d a8d4 14be
00000150: d572 3f3d c09e b03c aa7c df3d 0698 84bd
00000160: 6ceb 093e a3b9 2b3e a112 05be a5c7 bc3d
00000170: 4a66 1cbe 7bdf 2bbd c625 073e 3db8 ae3c
00000180: 854a 41bd 683a 47bb 4cce debd dc07 103e
00000190: 72cc ba3d d29a 193e 22c0 10be 4d87 243e
000001a0: 3d1e a23d b087 be3c d37d 1a3e 73f3 333e
000001b0: f449 1dbe 8005 e0bd 1ebf aabd 1444 773c
000001c0: 3835 d2bd af74 cf3d d967 a1bc 3241 ba3d
000001d0: fa45 1d3d 52a0 b83d 5838 7dbd 80c7 1cbe
000001e0: ef6f 023c a557 acbd 3aed a6bd e86e 593d
000001f0: 43ac 06be 8a07 173e b9f0 c13d 08af 2f3e
00000200: 8695 d9bd eb5c 8cbd b3cd a83d 3d1e d93d
00000210: 5930 01be 1845 383d 0ea8 353e 418f 953d
00000220: 3526 47bd 51b5 be3d f610 02be 5f53 b33c
00000230: 2f1c 293e 3302 933d 1a8b 133e c289 46bd
00000240: 4803 9d3d 145e 113e 43ba 2c3e 8844 e2bd
00000250: 83e6 30bc 2ac6 dcbc 29d8 9f3d c894 7a3d
00000260: c545 da3d 8d24 be3d 2af2 febd a0d8 353e
00000270: d82c 103e 034c 683c 457b 36be 3149 e43c
00000280: e70b 05be bcf3 be3c 2968 e1bd 131b 363d
00000290: c0cc 19be b969 67bc dfe4 cd3d a91e 8b3d
000002a0: e28d ff3d 37ac d93d 5131 12be d61e debd
000002b0: cb90 2dbe b3e2 b03d dc82 06bc aa7d 3dbe
000002c0: 3c73 57bd 4a8e bfbd 47ab 213d 5962 983d
000002d0: 717d 423c 49f0 8abd 590a 41bd aa5c fe3d
000002e0: 169d d43d 3cfe 653d ac9d 21be e27c 5d3c
000002f0: d0d4 bf3c e8d9 f1bc e831 21be 73ca 33be
00000300: c498 9dbd e161 b53d 7d75 843d d96f d2bc
00000310: 9fc7 9abd 9d5e 903d 413b a83d c68d f7bd
00000320: 6464 96bd 095c 993d 8143 29be bdbc 1fbe
00000330: 98e5 feba d18c 853d 8456 10be 06ca 8cbd
00000340: 3c6b 69bc 483b 2fbe e38f c9bd 19c1 e8bd
00000350: 836d f93d 0679 f7bd 2ac0 fb3a d63d 943d
00000360: 1c1f 223e d04c 043d 4b76 20bd f1d1 e0bc
00000370: 2f03 b8bd 30e4 02be 555b 96bd a249 26bd
00000380: ee92 0bbe 0cc0 20bc 6fb2 233d 4cf4 b93d
00000390: c13a 263e eb52 f63d c6cc 043e d3bc 3b3e
000003a0: b94d e53d aea7 df3d 4930 15be ad09 2c3e
000003b0: 6aad b0bc 3d4a c93d c78c fdbd fbf6 21be
000003c0: 585e 90bd 07d1 2abe 891b 8b3d f678 f7bd
000003d0: 4b2f 90bc 9265 223e b098 e03c 8113 c03c
000003e0: 8c9b 1e3c e057 b1bd 35da 3a3d 98df 00be
000003f0: 112c acbd d4f6 033e 0d6a 3c3e 5290 053e
-0.17925009 -0.13928324 0.13449597 0.17808978 -0.14188828 -0.18980789 -0.07601155 -0.072784744
0.008897887 -0.0075756097 0.08267932 -0.19432557 -0.06255881 0.038357016 -0.14142287 0.0075109275
-0.15295726 0.1393461 -0.010536586 0.16333508 0.18906681 -0.07094396 -0.0145408325 -0.13267022
0.08466094 0.13505478 -0.020355996 -0.115705885 -0.14235377 -0.034644224 -0.064756736 -0.18211526
-0.12460038 -0.113156684 0.096112214 0.1390791 0.018827675 0.017804671 0.15170196 0.07243114
0.098650746 -0.114256114 -0.092910334 0.0488261 -0.093147285 -0.15245141 -0.13390283 0.09052594
-0.016387248 -0.022455793 0.11945 -0.09835035 0.047086705 0.18261926 0.05734809 -0.10251477
0.10264103 -0.10992814 -0.099269226 0.07781433 -0.07113718 0.10368901 0.0752228 -0.06448914
0.07884169 0.09817822 -0.10974294 0.029336177 0.027060362 -0.0744143 -0.04744061 0.103752956
-0.09001043 0.08012351 -0.023555962 0.058220435 -0.0913645 0.00400533 0.17284302 0.092174694
-0.011994176 -0.11023663 0.11252047 -0.14534247 0.04674037 0.021560073 0.1091245 -0.06474309
0.13468713 0.16770034 -0.12995388 0.09217767 -0.15273395 -0.041961174 0.13198003 0.021328086
-0.047190208 -0.0030399803 -0.10879192 0.14065498 0.09121026 0.15000466 -0.14135793 0.16067238
0.07915924 0.02325806 0.1508706 0.17573337 -0.15360242 -0.10938549 -0.08337234 0.015091915
-0.10264057 0.101296775 -0.019702839 0.09094466 0.038396813 0.09014954 -0.06182131 -0.15310478
0.007961257 -0.08415154 -0.08150716 0.053084284 -0.1315165 0.1474897 0.09469742 0.17156613
-0.106242225 -0.0685366 0.08242359 0.106014706 -0.126161 0.044987768 0.17739889 0.07302714
-0.04862042 0.09311927 -0.12701783 0.02189034 0.16514657 0.07178154 0.14408532 -0.04847122
0.076666415 0.14196044 0.16867928 -0.110482275 -0.010797146 -0.02694996 0.07804901 0.061177045
0.10657839 0.09284315 -0.12448533 0.17758417 0.14079607 0.014178279 -0.17820461 0.027866932
-0.12992822 0.023309581 -0.11006195 0.044459414 -0.15019512 -0.014124327 0.10053419 0.06792957
0.12478234 0.106285505 -0.14276625 -0.10845725 -0.16949765 0.086369894 -0.00820991 -0.18504968
-0.05260013 -0.09353311 0.039469983 0.07440633 0.011870728 -0.06784112 -0.04712901 0.12420018
0.10381524 0.05615066 -0.15782803 0.013518544 0.023416907 -0.029522851 -0.15741694 -0.17557697
-0.07695153 0.088565595 0.064677216 -0.025688099 -0.07557606 0.07049296 0.08214427 -0.12087588
-0.07343367 0.074882574 -0.16529657 -0.15599342 -0.0019447086 0.06520999 -0.14095503 -0.068744704
-0.014246758 -0.17112458 -0.09841897 -0.113649555 0.12179091 -0.1208363 0.001920705 0.07238357
0.1583218 0.032299817 -0.039175313 -0.027443858 -0.08984982 -0.12782359 -0.07341639 -0.040597565
-0.13630268 -0.009811413 0.03996509 0.09079799 0.1623335 0.12027534 0.1296874 0.1833375
0.11196465 0.10920654 -0.145692 0.16800566 -0.021567065 0.09828613 -0.12380367 -0.15816872
-0.07049245 -0.166813 0.06792361 -0.12083618 -0.017600676 0.15859058 0.027416557 0.0234468
0.00968064 -0.08659339 0.045618255 -0.12585294 -0.084068425 0.12887126 0.1839983 0.13043335

EiLM.2.gamma_generator.weight f4 [1, 32]
00000000: c0cc 1f3e 44ea d93d a76d 07be df27 b1bd
00000010: 3abf 2b3e d693 4a3e 95b3 b5bc 5db4 d13c
00000020: 0f9a 73bd 8878 21be 5365 8cbd 4d96 433e
00000030: 20b4 d53d 5b0f 503e fc79 fb3d aa22 253e
00000040: 452e 8bbd debb ed3d 1f8d 4dbc ae0d b3bd
00000050: 1403 5cbe 23e9 02be e6d9 86bc a35c 20be
00000060: e520 233e ea64 913d 3d8b 41bb 196d 9abd
00000070: 9a49 8c3d 655f a63d b264 603e af21 c83b
0.1560545 0.10640386 -0.13225423 -0.08650183 0.16772166 0.19782957 -0.022180358 0.0255987
-0.059473094 -0.15768635 -0.068552636 0.19100304 0.10434747 0.20318358 0.12279126 0.16126505
-0.067959346 0.116080984 -0.012545853 -0.087428436 -0.21485549 -0.12784247 -0.016461324 -0.15660338
0.15930517 0.07099326 -0.0029532455 -0.0754034 0.06849976 0.08123664 0.21913412 0.006107531

EiLM.2.beta_generator.weight f4 [32, 32]
00000000: dc44 b5bd 6b5a d8bd fa58 79bd 2eff 863d
00000010: 5862 1e3c b0e1 383e 926c 023e 137c afbd
00000020: 8993 303d 5a74 eebd 5a32 293e d1d4 8f3c
00000030: 1e93 3fbb 8a42 1c3e cf13 263c b950 b1bd
00000040: e2a3 f0bd 1d4a b33d a01f 9d3d c29e 3ebb
00000050: 53b6 37be c328 99bb 73a0 30be de64 1bbe
00000060: 600a 1e3d fd5e b3bd 9190 35bd dbfb 9cbd
00000070: ba4e 06bd 9fed 09be 4b84 0f3e 3428 3a3d
00000080: cbc4 16bc 1cd8 9f3d e783 a03d 4c03 02be
00000090: c601 31be fe34 9fbd 9ae1 a13c 089b 773d
000000a0: b941 f4bc 9f36 253e 8d3f 843d 2dbd 2bbe
000000b0: 22ff 3dbd 9a11 71bd e8fd fc3b dbcb d7bd
000000c0: 3f32 a43d 9553 343e 8be7 283e 246a ab3b
000000d0: 0b91 213e 56a8 1c3e a506 a5bd 3441 19be
000000e0: 737e 83bc 22e7 1bbe d9e0 c4bd 5d4c 283e
000000f0: 4ebc ddbd 7171 0c3e b459 edbd ad65 34be
00000100: e0dd 32bd 077e e73d 0f59 0e3e 3ad3 be3d
00000110: 8279 12be 3af3 1c3e 1ece 5f3d 0c7b d73d
00000120: b518 bc3d 6fa1 90bd 6715 413d 5b75 ef3d
00000130: 5c0d c6bb 54e8 003e 08d2 2c3e 3c8d 0cbe
00000140: 8c6b 12be 20e5 8a3d b14e d03d 892f 08bd
00000150: 56da 45bc b9c9 ecbd 2fae 823d 7818 8dbd
00000160: 4aa7 29be 053e 273e a694 0bbd 4ceb 10be
00000170: cf9c 883d 7350 943c 81fb 033e e1b7 723c
00000180: 1dc0 db3c 8047 efbc e9be 053e 795a 6f3d
00000190: 08b1 0d3e b4f7 e63c 7492 313e 7256 f23d
000001a0: 4382 c4bd c7a4 c4bd 121f 263d e405 e83d
000001b0: 6fc4 03be 7e7e 003e 199b 34bc 7667 fe3c
000001c0: 37d3 92bd 1d35 b5bd c924 f13d 1821 9f3c
000001d0: 949f a83d 96fe 9cbd 6201 0b3e 0eb4 253e
000001e0: 8352 a43d 55e8 1a3e 204f 72bd 1f68 933c
000001f0: c9cc 17be 6fb4 443d 52fe 49bd b0e1 ae3d
00000200: ecac cc3d 2474 c93d d569 80bd ad75 01be
00000210: 273b 5d3d 1db3 b9bd fdf3 383e a92b 093d
00000220: c50b 9e3d 42f5 a73d 7851 32be 4d66 d73d
00000230: 4e3e 053e 94ec 21bd a27b 633d b1fb bf3d
00000240: 402c cbbd 9fff c13d 8fc8 01be c6ea 97bb
00000250: 3365 1d3e 9eb0 0dbd f86f 113e 8c6c a8bd
00000260: 6c23 133e 755c 25be 1026 05be f229 28be
00000270: f1d1 a23d 398f a33d 2610 9cbd 51e0 15be
00000280: 6223 cbbd 9293 b83d e887 99bd b3e0 07be
00000290: e1e0 f6bd 987e a1bc 10b5 0c3c 444d 2e3e
000002a0: dbe1 033e e6a8 23bb d6df a93d 3adc 5cbd
000002b0: 1c7d 433d 4728 183e eddb 8dbc 66d3 e6bc
000002c0: 324b 23be 5330 91bd fb0c 1cbe 6c02 303e
000002d0: 6744 b03d 205b 39be 69ce 12bd fce1 03bb
000002e0: 07c2 093e 3e91 183e b241 92bd 3d55 b5bd
000002f0: 4aef 2bbe 32ef b03d 7314 0cbe 275e 2e3e
00000300: 8bef 33be 89f6 943d ea54 ea3d c2fb e23d
00000310: 97bc 303e e5d2 2cbd c672 853d 5469 163d
00000320: 4839 f1bd 2e5e 7cbc 7192 0abe 8034 543c
00000330: ad8b ebbc ed45 a03d b26a e03d 39c5 93bd
00000340: cfda 8e3d 29a2 c13d e207 373d 10e9 b1bd
00000350: ab65 1b3e bb7f 1fbc dc70 fc3c c9b1 873d
00000360: e0d5 13be 8e63 0ebd 819b 0cbe 5a7d bb3d
00000370: 1129 d8bd aade b03d c657 eebd e5e0 433d
00000380: 91ec 953d c8b0 d93b d922 b1bd 7ad3 43be
00000390: 70b8 d43c 7000 0d3e 6b73 11be a25b b43d
000003a0: a363 e03d 5f05 10bd bcea eabd 862a 8bbc
000003b0: 7784 a7bc 228e 2abd 8063 30be 5e1f abbc
000003c0: acf3 c0bc 29ea d53d 0a1f 3ebc 8340 f13a
000003d0: 013b 993d 1fe5 9c3d 1dfa 8ebd 69fb 853d
000003e0: d281 dc3d d480 bfbd 725a 353d dca2 6a39
000003f0: ee21 d03d 3a3f 293d b51c d9bd 7b5a 03bd
-0.088510245 -0.10564121 -0.06087587 0.065916404 0.009667002 0.18054843 0.12736729 -0.08568587
0.04310945 -0.11643286 0.16523114 0.017557533 -0.0029231976 0.15259758 0.010136559 -0.08657975
-0.11750008 0.0875437 0.076720476 -0.0029086326 -0.17940645 -0.0046740486 -0.17248707 -0.15175197
0.038584113 -0.08758352 -0.044327322 -0.07665225 -0.032789923 -0.13469552 0.1401531 0.045448497
-0.009202193 0.078048915 0.078376584 -0.1269657 -0.17285833 -0.07773779 0.019760896 0.060450584
-0.029816495 0.16134118 0.06457434 -0.16771384 -0.04638589 -0.058854677 0.0077206977 -0.10536929
0.08017396 0.17610009 0.16494577 0.005231159 0.15777986 0.1529859 -0.08057908 -0.1496628
-0.016051507 -0.15224889 -0.09613199 0.1643538 -0.10826932 0.1371515 -0.11589375 -0.17616911
-0.043668628 0.11303335 0.1390116 0.09317632 -0.14304164 0.15327159 0.054639928 0.10521516
0.091844 -0.07062041 0.04713955 0.11692306 -0.006044073 0.12588626 0.16876996 -0.13725752
-0.14298838 0.067819834 0.10171259 -0.033248458 -0.012075981 -0.11561913 0.06380879 -0.06889433
-0.16567722 0.16332252 -0.03407731 -0.14152259 0.06670534 0.018104767 0.1288891 0.014814348
0.026825005 -0.029208899 0.13061108 0.05843589 0.13837063 0.028194286 0.17341024 0.118328944
-0.09595158 -0.09601741 0.040556975 0.113292485 -0.12867902 0.12548253 -0.011023306 0.031055193
-0.07169192 -0.08848021 0.11774594 0.01942496 0.08233562 -0.07665746 0.13574746 0.16181967
0.0802355 0.1512769 -0.05915749 0.017993985 -0.14824213 0.048023637 -0.049314804 0.0853914
0.0999392 0.09836605 -0.06270186 -0.12642546 0.05401149 -0.09067366 0.18061824 0.033488903
0.077170886 0.08201076 -0.1741389 0.10517559 0.13012049 -0.03953226 0.055537827 0.09374178
-0.099205494 0.09472584 -0.12674163 -0.0046361415 0.15370636 -0.034592263 0.14202869 -0.08223829
0.14368981 -0.16148551 -0.13002801 -0.16422251 0.079501994 0.07986302 -0.076202676 -0.14636351
-0.09918858 0.09012522 -0.07496625 -0.1326931 -0.12054611 -0.019713685 0.008588091 0.17021662
0.12879126 -0.0024972497 0.082946464 -0.053920962 0.047726735 0.14859115 -0.017316783 -0.028176975
-0.15946653 -0.07089295 -0.15239327 0.17188424 0.08606797 -0.18101168 -0.03584138 -0.002012371
0.13452922 0.14899155 -0.07141437 -0.088541485 -0.167905 0.08639373 -0.13679676 0.17028104
-0.17571847 0.07273585 0.11441977 0.11083175 0.17259441 -0.042193312 0.06516032 0.036721542
-0.11778504 -0.015403314 -0.13532425 0.01295197 -0.028753126 0.07825837 0.109578505 -0.072153516
0.06975328 0.09454758 0.044685252 -0.08687031 0.15175502 -0.009735043 0.030815534 0.06625707
-0.14437056 -0.03476291 -0.13731195 0.09154768 -0.10554708 0.0863622 -0.11637835 0.047821898
0.07320512 0.0066433884 -0.08649225 -0.1912364 0.025966853 0.13769698 -0.14204185 0.0880654
0.10956504 -0.035161372 -0.11470553 -0.01698805 -0.020448906 -0.041639455 -0.17225456 -0.02088898
-0.023553692 0.10445053 -0.01160408 0.0018406067 0.07481957 0.07660889 -0.06981299 0.06542093
0.10766949 -0.09350744 0.04427571 0.00022376649 0.101627216 0.041320063 -0.106011786 -0.03206871

EiLM.3.gamma_generator.weight f4 [1, 32]
00000000: 2f36 96bd a536 9ebd d595 40bd 8b52 22be
00000010: e159 3fbe 61c9 303d d1c2 03be 34dd 39be
00000020: 4e05 24be 74ae c8bc 5edb 77bc 437c 15be
00000030: b6ca fb3d a355 f63b ee9b 513b fedd 1dbe
00000040: 12dc adbd 0ffd 0cbe f2df ed3d 614e d4bd
00000050: a97c 16be 9e38 13be 153b 543d 579f f5bd
00000060: edc6 c1bd 191f d53c 8425 893d 56c7 273e
00000070: cda0 debd 3213 bdbd 963f 06be ddd7 cdbd
-0.073345535 -0.07725266 -0.04701789 -0.158518 -0.1868663 0.0431608 -0.12867285 -0.18150789
-0.16017649 -0.024497248 -0.015127985 -0.14598183 0.122945234 0.007517533 0.003198381 -0.15416715
-0.08489241 -0.13768409 0.1161498 -0.10366512 -0.14695992 -0.14377066 0.051814158 -0.11993282
-0.0946177 0.026015805 0.06696609 0.16384634 -0.10870514 -0.09232177 -0.13110194 -0.10050938

EiLM.3.beta_generator.weight f4 [32, 32]
00000000: d67d 233e 4c80 283c 00ab 07be 43f3 a53d
00000010: bba5 0ebe efef 2a3d 3f0d a53d fdf0 113d
00000020: b586 65bd 9f7b cbbd 1fdf cc3c 86a6 ff3d
00000030: aecf dbbd 6c2b 053e e5e7 ff3d 4e37 82bd
00000040: efcb a13c 3379 1fbe 1148 ee3d 9eae d5bd
00000050: 782e 19be 2f6e a83d 73ba 7d3c 4204 2bbe
00000060: a7de afbc 1bca 1bbe a735 03be da6f ae3d
00000070: 4121 ff3d 11f3 8bbc bdfc d63d 09df 8cbc
00000080: 6812 a1bd 673b 003e a5d8 e43d 2c66 a03b
00000090: a516 e5bd 54cf 7f3d e0c7 323e c2f3 903d
000000a0: a2f1 973d 6f4e e43d abda b03d 0ef9 12bc
000000b0: c09c 143e 5ea3 853d a488 8e3c 4e82 d7bc
000000c0: 4bfa 06be 3ab6 2f3e 7126 ff3d 02ae bd3c
000000d0: a465 673d 3ae6 073e 1257 2b3d b2c0 18bd
000000e0: 520b 83bd cda3 d93d eafd 273e 5574 42bd
000000f0: b6bd 4b3d f753 643d dc1d f13d f661 0e3d
00000100: 17df 023e 7a82 bc3d 1203 14be b82f 053c
00000110: 4219 383c f45f c13d ed0c 62bd 5066 223e
00000120: 0479 17be 1ad7 f0bd 74a1 373e 1d6b 68bb
00000130: 55ad 94bd 1aa8 db3d 7d53 74bd 21a4 26be
00000140: 8c94 bfbd c537 723d 8257 efbd 18e9 e63d
00000150: e511 923d 3e62 31be 816e cd3d 7e8f 283e
00000160: 44b2 2ebe f010 a6bc 21c1 1d3e 3ba7 14be
00000170: 4552 073e 81bd 073e 262b 0bbd 192c 4abd
00000180: 2626 11be 54a5 3cbc 5d2f d4bc 957a b63c
00000190: 9da0 053e e441 dcbd c4a5 753d 6adb b43d
000001a0: 7e9a a93b e32e 3b3e 46bf 8abd 57cd ec3c
000001b0: 670d ccbc 6f7d 113e 965e 0c3e 0d8b f73d
000001c0: a647 b03d 74f3 323e f83a 5e3d 8649 88bd
000001d0: 2b1e 81bd 4eb2 393e 3463 5bbc c781 c3bc
000001e0: 3d22 dbbc 35ca a93d 37d6 33be 5d92 8f3d
000001f0: d4ce f63d ba17 893c a899 ffbc f7b6 e73d
00000200: 3921 a13d 35bf 2a3d 9efe 1b3e 80d6 e6bd
00000210: 89fd 64bb 90e4 013e ac23 ec3d 75d1 1e3d
00000220: 5e91 753c 8c09 93bd 7db8 b6bd ce65 bbbd
00000230: 3cd4 4b3c 6ef3 a8bd f2cd 013e a246 043e
00000240: 5d42 c6b9 840e 0bbe 2c7b fa3d 63f5 5abc
00000250: 16c4 2fbe 79c2 f8bd bc9d 92bd 87e2 cbbd
00000260: ad72 083d ef78 e5bd 493a 173d 6633 17be
00000270: adec 0c3e 25bc 143e 333b 593d 0683 c13d
00000280: 3740 363e ae21 1c3e 80af 303e 6bd6 2c3c
00000290: aa85 82bc fcab 2b3e e035 1bbe 966a 483b
000002a0: a22d 52bd de7e 2abd 13c1 8fbd 76de 1ebe
000002b0: 5864 1fbd ed8c 0fbe 5d88 ffbd ef0b 00be
000002c0: 4c87 0bbe 2263 24be 4cdf 8fbd 9c42 06bd
000002d0: e132 753d 3b43 2cbe d4b9 b9bd 5304 18bc
000002e0: 5440 303d 5929 e2bd 64f3 093e ca2c 32bd
000002f0: a4b0 14be b237 353e 64ba 4e3d 2be4 903d
00000300: e30e c2bd 7792 9fbd 11da 59bd 4249 14bd
00000310: 5c7e eebd 4b7e d7bb 2aed 6d3d f72f 233d
00000320: 241e e23c 1a46 b1bd 4fdd 28bd a733 063e
00000330: bee5 133d 563c f8bc b455 433d 0614 a63d
00000340: 8334 23bd e587 22be d8bf 21be 6298 6f3d
00000350: 0709 18be 7082 163e 1a99 e93d 1f1e 91bd
00000360: ca95 25bd f072 e13d 4ef3 0abc e3d5 943c
00000370: 2dc4 ff3d 1bf2 eebd 01c0 633c 94db 1fbe
00000380: 0212 88bd 79d5 09be db52 16be 868f 1dbe
00000390: f8a0 8cbb 2659 0b3e 19ff 39bd 60db a4bd
000003a0: 5944 a3bc 4a91 973d dfc3 54bd 1cf4 c6bd
000003b0: 4a0c 8ebc 353e 12be 7b1c 0fbe 3b6e e23d
000003c0: e0c9 273e f2b8 e4bd 1b40 0fbe 1fdc 3d3d
000003d0: 57ef 29be 33be 293e a675 b7bd 68ec 19bd
000003e0: c470 2ebe 9c9a dd3d af0b 12be 765d 373e
000003f0: 2974 eebb ca0d e6bd 98d7 e83d 5195 1dbe
0.15965971 0.010284495 -0.13248825 0.08103039 -0.13930409 0.041732725 0.08059167 0.035630215
-0.05603667 -0.09935688 0.025008736 0.12482934 -0.10732971 0.13004845 0.12495402 -0.06358205
0.019750563 -0.15573578 0.11634839 -0.10433696 -0.14959133 0.08224141 0.0154863475 -0.16700843
-0.021468474 -0.15213816 -0.12813435 0.08517428 0.124575146 -0.017083677 0.10497425 -0.017196195
-0.07864839 0.1252266 0.11174134 0.0048949923 -0.1118596 0.062453583 0.17459059 0.07077743
0.07419135 0.111477725 0.086354576 -0.008970512 0.1451292 0.065253004 0.01739914 -0.026307251
-0.13181417 0.17159358 0.12458504 0.023154262 0.056493416 0.13271418 0.041831084 -0.037293144
-0.063986436 0.10626946 0.16405454 -0.047474224 0.04974147 0.055744138 0.11773273 0.03476139
0.12780415 0.09204574 -0.14454296 0.008129053 0.011236491 0.0944213 -0.05518811 0.15859342
-0.14792258 -0.11759777 0.17932683 -0.0035464235 -0.07259623 0.10725422 -0.059649933 -0.16273548
-0.09354505 0.059135217 -0.11686613 0.11274928 0.07132319 -0.17322633 0.100308426 0.16460988
-0.1706019 -0.020271748 0.15405704 -0.14516918 0.13214977 0.13255884 -0.033976696 -0.04935846
-0.14174709 -0.011514027 -0.02590149 0.022275249 0.1304955 -0.10754755 0.05997254 0.088309124
0.0051758876 0.18279605 -0.06774764 0.028906507 -0.024908734 0.14208005 0.13707957 0.12087069
0.08607416 0.17475682 0.054255456 -0.066546485 -0.06304582 0.18134424 -0.013390351 -0.023865594
-0.026749725 0.08290521 -0.17562185 0.070103385 0.12051168 0.016734947 -0.031201199 0.11314195
0.07867665 0.041686255 0.15233847 -0.112713814 -0.0034941158 0.12684846 0.11530241 0.038773973
0.0149882715 -0.07179555 -0.08921907 -0.09150277 0.012440737 -0.082495555 0.12676218 0.1291757
-0.00037814947 -0.13579756 0.122305244 -0.013364169 -0.17164645 -0.12146468 -0.07158992 -0.09955316
0.03331249 -0.11204707 0.03692082 -0.147657 0.1376216 0.14524896 0.053034972 0.09448819
0.17797934 0.15247223 0.17254448 0.010549168 -0.015932877 0.16764826 -0.1515727 0.0030581108
-0.05131305 -0.041624896 -0.07019248 -0.1551455 -0.038914055 -0.14018603 -0.12477181 -0.12504552
-0.1362583 -0.16053441 -0.070250124 -0.032778367 0.059862975 -0.16822521 -0.09068647 -0.009278375
0.043030098 -0.11043043 0.13471752 -0.043499745 -0.14520508 0.17697027 0.050470725 0.070747696
-0.09475496 -0.07791608 -0.05318648 -0.036202677 -0.11645195 -0.0065763346 0.058087505 0.039840665
0.027602263 -0.08655949 -0.04122668 0.13105641 0.03610777 -0.030302208 0.047689155 0.08109288
-0.039845 -0.15872152 -0.15795839 0.058494933 -0.14847194 0.14698195 0.11406155 -0.07085823
-0.040426053 0.11008251 -0.00848086 0.018168395 0.124885894 -0.11667272 0.013900758 -0.15611106
-0.0664406 -0.1346034 -0.14680044 -0.15386781 -0.00429165 0.13608226 -0.045409296 -0.08049655
-0.019930052 0.074007586 -0.05194461 -0.09714529 -0.017339844 -0.14281543 -0.13975708 0.11056181
0.16385603 -0.11168088 -0.13989298 0.046352502 -0.16595207 0.16576461 -0.089579865 -0.03757897
-0.17035204 0.10820505 -0.1426227 0.17906746 -0.007277031 -0.11233099 0.11369246 -0.15388991

Gate.weight f4 [4, 32]
00000000: c562 4f3d ba00 0d3e e24a 42be d124 dc3d
00000010: c4fd b63d 24f6 26be c20c 3d3e c46c 483d
00000020: d518 2dbe 7088 293e dac7 9fbc efcb f83c
00000030: 1761 26be 3a43 7c3d c3c8 16be 13d3 edbd
00000040: dad9 06be 9c32 c6bd 7345 21be f8a3 1dbe
00000050: cca3 833c dae4 ba3d 3544 52bd 4360 02be
00000060: 6fc4 03be ea5d a8bc c18c 033e 7770 79bd
00000070: 1309 a9bd 23a9 adbd bdfc 4ebe 8b4c 343e
00000080: f90e f7bd 6463 01be 49d8 23be 13d7 ac3d
00000090: 977f f9bd e4d5 943d c22c 15be 96c4 0dbd
000000a0: 2cc7 223e 8afd 28bd 2c67 cdbd 0011 a9bd
000000b0: 7b1e 80bd dc48 e73b eec4 a1bb c666 003e
000000c0: 5034 043e 81e8 45bd 1f57 2f3e eaf2 f8bd
000000d0: 23be 30bc 7bb7 a43c 0ad9 d53d fda2 093e
000000e0: 7af4 f63d 64f7 0fbe c575 4d3e 6325 063e
000000f0: 5734 35bc 7576 d73d f0ce 7fbc 9f48 31bd
00000100: 6b12 09be 5045 1abe aa24 c63d 317f 393e
00000110: 7bcf a2bd f0a8 483e 2881 cb3d c228 90bd
00000120: c606 d43c a9fe 0a3e b261 56bc 2977 283c
00000130: f40c 7bbd 1d4a b53d 866e b13c cdc0 aa3c
00000140: 19c7 ae3a 8962 203e f5e2 efbd c82e 0bbe
00000150: c67f b1b9 fb52 98bd 31d1 27be bf19 be3d
00000160: 639b 323d 81a1 2a3e 9ff0 91bd 7b12 453e
00000170: 7217 85bd 0aaf f6bd 8f21 863c e806 59bd
00000180: 33ae f3bd 4ea4 63bd 9d1d c63d 0213 773d
00000190: 1f15 463e 85e7 dc3d 3836 2b3d 832c 4cbd
000001a0: 3306 1abe b959 0cbe 93a4 893c 0dae 48be
000001b0: 96db 493c 115e 05bd c3f8 01be 63a4 1f3e
000001c0: e631 3dbe c23a 963d 90df 09be 4197 ea3d
000001d0: 59f6 2fbc 3b1d 3d3d fd91 f93b f13b dabd
000001e0: 213c 8cbd 6bdc 28bd ec5c 903d 0336 0fbc
000001f0: de43 d3bd 7a11 18be 35b8 2b3e eea0 3c3e
0.050631303 0.13769808 -0.18973878 0.1074921 0.08935121 -0.16304833 0.18461898 0.048931852
-0.16904004 0.16555953 -0.019504476 0.03037068 -0.16247974 0.06158755 -0.14725022 -0.11612525
-0.13169041 -0.09677622 -0.15749149 -0.1539458 0.016069315 0.09125681 -0.05133458 -0.12732033
-0.12867902 -0.020552594 0.12846662 -0.06089827 -0.08253684 -0.08479526 -0.202136 0.17607324
-0.12063403 -0.12635571 -0.16000475 0.0843946 -0.12182539 0.07267359 -0.14567855 -0.034611307
0.1589629 -0.04125742 -0.10029444 -0.082551956 -0.06255814 0.007058246 -0.004936806 0.12539205
0.1291058 -0.048317436 0.17123078 -0.12155707 -0.01078752 0.020107022 0.104417875 0.13441081
0.12058349 -0.14059216 0.20064457 0.131002 -0.011059842 0.10520641 -0.015613303 -0.043282147
-0.13385932 -0.15065503 0.09674962 0.18114926 -0.0794973 0.19595695 0.09936744 -0.07039024
0.025882136 0.13573708 -0.013084816 0.010282316 -0.06129165 0.088520266 0.021659147 0.020843888
0.0013334482 0.15662588 -0.117132105 -0.13592064 -0.0003385527 -0.07437702 -0.16388394 0.092822544
0.04360522 0.16663171 -0.07125973 0.19245331 -0.064986125 -0.12045105 0.016373424 -0.052985102
-0.1189846 -0.055576615 0.09673617 0.06032086 0.19343995 0.10786346 0.041799754 -0.049847137
-0.15041427 -0.13706101 0.016802108 -0.19597645 0.01232042 -0.03256041 -0.12692551 0.15590052
-0.18476066 0.07335426 -0.13464189 0.11454631 -0.010739886 0.046170454 0.00761628 -0.10655964
-0.06847406 -0.041225832 0.070489734 -0.008740905 -0.10315679 -0.14850417 0.16769488 0.18420765

experts.0.gate_proj.weight f4 [32, 32]
00000000: 2e7f 8abd 143d 233e ece7 103e 7d5e 1fbd
00000010: 8b78 ef3d 6d97 3d3e b7fc 05be 9716 cdbd
00000020: 48e1 e93d 74f0 77bd d853 a63c cb9b c7bd
00000030: 0027 26bd c5b0 f6bb d5a9 46bd 619f 793d
00000040: e2c6 c33d b863 d83d d995 e1bd a91f 3ebe
00000050: 761d 523c 5b8d 46be 86a7 d0bd f6d7 20bc
00000060: 61d7 babd 5660 d8bd 31ca fc3d 2d49 c33d
00000070: 524c b13d 6503 b5bd 0c7a 13be 065f 243d
00000080: 5e8c 2a3e 944b a7bd ebb4 91bd 028b c13d
00000090: fe0e 4abe 4405 0dbe ab40 8bbb f2b7 46be
000000a0: 7bb6 8cbd 9f09 3dbd 4dac 9d3d e54f bb3d
000000b0: 1ac2 f6bd dc4a 3dbe 1710 42bc 33d7 bfbd
000000c0: 2633 213e ba39 4abd c170 a73c 52f4 87bd
000000d0: 1389 9abd 0bbc ccbd e09f 83bd 0f52 35be
000000e0: 73d1 ebb9 dc8c 9ebd eb91 84bd 5241 65bd
000000f0: c18a d9bd 81d0 7ebd 497d b63d baeb a33d
00000100: e239 1b3e 5011 94bd daca 9a3d e1ec 673d
00000110: 1543 85bd d57e 563d bef7 53bd ef06 dc3c
00000120: f3ef 27bd 7da2 1cbd 5f09 2abd 7fe9 f4bd
00000130: ba0b 5d3d 52db e9bb 69a4 2c3e ce7a 303e
00000140: 60ec 5dbd 146a 34bd 6813 e13d a4a1 963c
00000150: 728c 71bd ebad 2ebe 6150 cebd 460f f33c
00000160: 2dbc 103e fc54 173e 5a2e 4fbc 0c1c 1fbe
00000170: 46fe 8cbd d75f 293e 1796 203e 9800 2f3e
00000180: 29cd 9a3d 7887 24be 7e04 b13c 5349 7abb
00000190: 474e 643c 6945 40be da95 a7bc bf70 34be
000001a0: e648 a33b a1f2 fdbd d1f7 353e 162b 2dbe
000001b0: f2da cb3c 7c4c d13d 08a5 833d f306 2fbe
000001c0: 72cc 9b3d 201c 053e 7e2b 67bb 97eb a03d
000001d0: 7cb4 b23d 2db7 d73d edf5 133e d1ba fb3d
000001e0: 8e8d 4abe f460 5fbd 5bc4 063d f7e7 8ebd
000001f0: 5681 0abe c00e b7bd f285 c53d 2edb 363d
00000200: 4788 143e 5865 95bd f2ec 01be 43d7 69bd
00000210: 8a1c 583a 0b40 ecbd 4f05 0abe 3d22 acbd
00000220: aa7f 443e cc17 4cbe 5bd2 e4bd b8a6 14bd
00000230: 38b2 92bd acc0 833d 17a8 13bd f00c 23be
00000240: 42fa b63d 0247 4a3b bb4a 55bd 69bd 75bd
00000250: 8c51 01be 60dc 053e cfe4 4c3e 09c8 0b3e
00000260: 17be d93d 213c 113d 4c3c 053e 52db 093e
00000270: c2bd 0abe 8626 b43d 1bb2 af3d 8241 7d3d
00000280: 8ba8 e83c 35ee 3e3c b543 33bd 9f51 b4bd
00000290: 4c4f 2f3d 2a07 e1bd 5cf3 25bc 8d96 f83d
000002a0: 60e1 113e 4caa c6bd d917 e13d 9336 9cbd
000002b0: f4be 003e 5930 e83d ab19 23be 492d 033e
000002c0: bf03 1d3e e74f 0abe 0548 22bd 7b6a edbc
000002d0: f020 a73d 1cbd 633d 3d6e e4bd ddf4 60bd
000002e0: 90cc 053e 84cc 393e 0a7b e93d 8afa 18be
000002f0: 07f9 17be eb14 883d 32b8 4cbd 48ef ff3d
00000300: 5a8f f83d f770 2f3e 2702 60bd 59fe 973c
00000310: ee62 f63d a479 043c 408d 83bd c3cd dcbc
00000320: 220c 11bd 8710 483c 3fce 62bc 813d dabc
00000330: e409 04bd 4c63 27be 3361 f0bc cf29 a23c
00000340: 307e dd3d 7e10 a53d 7213 6a3c 55cf 9a3d
00000350: fd2a 1c3e f73c 303e 2fb1 1bbe f74e ba3a
00000360: 511b 1c3e 1392 823d 9445 a73d f857 d8bd
00000370: 56ad a0bc 16d8 cd3d 48a2 583d 9b3a 25be
00000380: 569c 24be 596e 943d 17ff 13be ba22 23be
00000390: 7eed cdbd aadd 72bd 1666 babc f3fb fcbd
000003a0: 9a90 123d b1dd 47bd a0c7 103e 47d5 07bd
000003b0: b367 b63d 71d9 fe3d a3f3 36be 6af3 01be
000003c0: d4bc 593d ae84 fa3d e4f1 393d edb7 34be
000003d0: 2bb8 e0bc d6f7 c1bc 45db 9e3d 9234 6d3d
000003e0: 759b 983d 8948 483e 1fe9 d0bd 890f b63d
000003f0: a952 47be 18e9 303e 9064 d23d 1db3 033d
-0.06762539 0.15941268 0.14150971 -0.03890847 0.116929136 0.18514796 -0.13084684 -0.10014074
0.11419922 -0.06053205 0.020303652 -0.09746512 -0.040564537 -0.007528397 -0.04850181 0.06094301
0.09559418 0.10565895 -0.11014909 -0.18566765 0.012824407 -0.1938986 -0.101882026 -0.009817114
-0.091231115 -0.105652496 0.123432525 0.095354415 0.08657135 -0.08838538 -0.14402026 0.040129684
0.16655108 -0.08168712 -0.071145855 0.09450342 -0.19732282 -0.1377154 -0.0042496524 -0.19406107
-0.06870743 -0.046151754 0.076988794 0.09146098 -0.12048741 -0.18485588 -0.011844656 -0.09367218
0.15742168 -0.04937146 0.020439507 -0.06638397 -0.07545676 -0.09996804 -0.06426978 -0.17707084
-0.00044978745 -0.077417105 -0.06473144 -0.055970497 -0.10622168 -0.062210564 0.08910615 0.08003946
0.151588 -0.072298646 0.07558222 0.05662239 -0.065069355 0.05236705 -0.051749937 0.026858775
-0.041000318 -0.0382409 -0.041512843 -0.11958598 0.05396626 -0.0071367407 0.16859592 0.17234346
-0.054180503 -0.044046476 0.109900296 0.018387623 -0.05897183 -0.17058532 -0.10073925 0.029670369
0.14134283 0.14778513 -0.012645328 -0.15538043 -0.06884436 0.16540466 0.15682255 0.1709007
0.075586624 -0.16067302 0.021608587 -0.0038190677 0.013934678 -0.18776478 -0.020457197 -0.17621134
0.0049830554 -0.123997934 0.17770316 -0.16910967 0.024884675 0.10219666 0.064279616 -0.17092495
0.07607354 0.1299901 -0.0035273726 0.07857435 0.08725831 0.10532985 0.14449282 0.12291492
-0.19780561 -0.05453582 0.032902103 -0.069778375 -0.135259 -0.0893836 0.09644689 0.04464262
0.1450511 -0.072947204 -0.12688044 -0.057090055 0.0008243999 -0.11535653 -0.13478588 -0.08404968
0.19189325 -0.19930953 -0.111729346 -0.036291808 -0.07162899 0.064332336 -0.036048975 -0.15922904
0.08934452 0.0030865078 -0.05207322 -0.05999509 -0.12628764 0.13072348 0.20009159 0.13650526
0.1063196 0.035457734 0.13011283 0.1346257 -0.1354895 0.0879641 0.08578893 0.06183005
0.02840068 0.011653473 -0.043765742 -0.088046305 0.042800233 -0.109876946 -0.010128822 0.1213809
0.1424613 -0.0970045 0.10990877 -0.07627597 0.12572843 0.113373466 -0.1592776 0.12810244
0.1533346 -0.13507043 -0.039619464 -0.028981438 0.08160579 0.05560027 -0.11153839 -0.05492102
0.13066316 0.18144423 0.11400421 -0.14939323 -0.1484109 0.06644615 -0.04998035 0.12496811
0.12136717 0.17132936 -0.054689553 0.0185539 0.12030588 0.008085642 -0.06423426 -0.026953584
-0.03541196 0.012210972 -0.013843118 -0.026640655 -0.032235995 -0.16346473 -0.029343223 0.019795327
0.10815084 0.08059786 0.014286863 0.07559077 0.15250774 0.17210756 -0.15204309 0.0014214207
0.15244795 0.06375518 0.08167568 -0.10563654 -0.019613903 0.10050981 0.05288914 -0.16135637
-0.16075262 0.0724761 -0.14452778 -0.15931216 -0.10055064 -0.059293427 -0.022753756 -0.12352743
0.035782434 -0.048795406 0.14138651 -0.03316238 0.08906498 0.124438174 -0.17866378 -0.12690511
0.053158596 0.12232338 0.0453967 -0.17648287 -0.027431568 -0.023677748 0.07756666 0.057911463
0.07451526 0.1955892 -0.10200714 0.08889682 -0.19465126 0.17276418 0.10273087 0.032153238

experts.0.up_proj.weight f4 [32, 32]
00000000: 625f 7dbb ea08 06bd ad61 973d 1c1c 94bc
00000010: 4a93 1abe bbff a63d 6810 083e 77b0 4bbe
00000020: f7b9 b23c 8932 0dbe 7dac 383d 7510 adbd
00000030: 66f8 67bd 2e48 f3bd e25b e5bc aa23 0a3e
00000040: a224 e43d 578c 0cbe 0d47 d2bc 1450 713d
00000050: 626a f03d 3cf6 7cbd fc98 32be 74ca 163d
00000060: a6da 20be 0dab 78bd 0b51 d2bd 5372 42be
00000070: 1e7d 053e 6daa a0bd 982e cf3d 2b46 103e
00000080: 71ff ef3d d6ff a63d 94af fe3d 5517 43bc
00000090: 32fa 33be 2a25 fb3d 3e03 00be 8ddb 48bd
000000a0: 1e66 47be 2ac3 7cbd c9e5 083e 63d4 1e3e
000000b0: 246b 97bd ba15 0bbb 2f4f c33d 195d edbc
000000c0: f850 193e ae28 4ebe c131 ef3d bc67 c73d
000000d0: ea4e 3dbe 5006 933d daf6 d23d f8ef 92bc
000000e0: a8cf d5bc 8ac1 f13c ad85 09be d602 34bd
000000f0: ec2c 9ebc 9992 cdbc 3dbb b0bd 53d3 1ebe
00000100: 5f3b 3b3d 1e4c 2a3e 53f0 873d 8ade 1f3d
00000110: 2563 3c3e 2832 213e 7d8d 36be 0563 dabd
00000120: 200f f93d e536 0cbe 4625 e63d 440f c9bc
00000130: 2ef4 913d ef8a 043d abf0 043e 74c6 463d
00000140: 72ec e5bc 9e9a 22be cd7c bcbd af84 e5bc
00000150: 0f07 783d 8b0e a4bd 969e 18be eb48 733d
00000160: d145 c3bb e40b 423d 7c79 d23d 90a8 9e3d
00000170: 4914 073e f424 7cbd 2640 103e 244c 01be
00000180: 82ec 31be 1f6e f83d 6283 9a3d 4e46 efbd
00000190: 9e13 1f3e ef17 463d 9c95 ca3d 0e31 b63c
000001a0: 4ace 8cbd 178b e83d a816 043c 2a7d 9bbd
000001b0: ef59 d2bd 5312 f8bd 1838 c93d 8efc b4bd
000001c0: 09ed a43d af76 1b3e e9ef 2c3e ff09 15bc
000001d0: 0dd1 9cbd a354 003e 6d7f 4f3c e9a5 bebd
000001e0: f203 7cbd f7b1 65bd 0f50 09be 6c53 1c3e
000001f0: 20b9 c83d 9d39 ec3c 4851 563d 04d0 d7bb
00000200: 7660 e33d 73b5 273e 9b0f 8bbd db03 e33d
00000210: 97c2 f1bd ff2a e3bd 2866 853d 37b6 a43c
00000220: c8f0 9d3d ae75 bb3d 0add 10bd 29b8 83bd
00000230: 6ce8 3f3e 759e 343e 09f5 be3d d4ee e83d
00000240: a334 283d 5418 de3d e49a 163e 0112 443d
00000250: 9289 84bd ebfc d73d 573e 1cbe 95db 063b
00000260: d8c3 96bd 845a 6bbd 828c 2ebe bddf ef3c
00000270: 8dd1 acbb c3f1 0a3e ea64 f53d a90e 0fbd
00000280: b4d8 7d3c dae2 873d d3f1 073e 429e 32be
00000290: a663 cfbd 6480 0bbe 65c6 e8bd 5dec 75bd
000002a0: b877 34bd 99ac 31be b005 4cbd 944e 293b
000002b0: cc74 a73d e03a cfbd 8b6c 72bd a4dd 92bd
000002c0: 239b eb3d bf41 b13d 3427 273e 2033 13be
000002d0: 41b4 2239 358f f73d 400b 00bd 9e3e 96bd
000002e0: db11 e23d 9eea b53c 0b18 103e a3c6 1e3e
000002f0: c79e 62bb 9c5b a03d 4213 0f3d 6c6c 0f3e
00000300: f45c fa3c d96f 0bbe 5a5b 0bbd 03b3 e8bc
00000310: 128f 8a3c 8bcf 893c 8ece 9e3d 29f3 bcbd
00000320: 680a 0e3e 4297 003e 80f5 ea3a 1ed2 43bc
00000330: 9e1b 23bd 2a79 0f3e be0f b0bd 36c9 173e
00000340: 3448 26ba ab8b 6c3d 7a25 1e3e b010 303e
00000350: fdac c33d 5d4e 2bbe c2eb b43d a036 993d
00000360: edb2 00be de19 473c 8b91 4a3d 87e3 b43d
00000370: 3ac2 28be 4eba 1f3e b1cc 20be 07ac 4bbd
00000380: 41ee cb3d 0822 61bb 531f cb3d e9c3 d0bd
00000390: 87dc c5bc ce4a 18be cba9 8e3c 0141 c93d
000003a0: 3b4a 243d 241f 8d3d 9e30 3c3c c9a0 1f3e
000003b0: 2fa8 10bd 8c17 14be 6575 fc3c 93c2 bc3c
000003c0: eee2 c0bd 0ddd 843d 2c38 b6bd 7f04 1f3e
000003d0: 5699 813d 962b 3cbd 2090 033e 0eaf dd3d
000003e0: be4a 11be 8d4a 033e d1a2 e63c 074b e5bb
000003f0: 4dc9 babd fdcd 9cbc f8ba e5bd b173 f7bd
-0.003866159 -0.032723345 0.07391677 -0.01807981 -0.15095249 0.081542455 0.13287508 -0.19891535
0.02181719 -0.13788809 0.045086373 -0.084504046 -0.056633376 -0.118790016 -0.027997915 0.13490167
0.111398 -0.1372541 -0.025668645 0.05891426 0.11739041 -0.061758265 -0.17441171 0.036814168
-0.15708408 -0.06071 -0.10269364 -0.18988924 0.1303601 -0.07845006 0.10116309 0.14089267
0.117186435 0.081542656 0.124358326 -0.011907418 -0.1757591 0.12262948 -0.12501237 -0.049037505
-0.19472548 -0.06170956 0.13368906 0.15510707 -0.07393482 -0.0021222667 0.095365874 -0.028975056
0.14972293 -0.20132706 0.11679412 0.09736583 -0.18487135 0.071789384 0.103009894 -0.017936692
-0.026099995 0.029511232 -0.134299 -0.043948017 -0.01930853 -0.025094317 -0.08629463 -0.15510301
0.045710918 0.16630599 0.06637635 0.03903059 0.18397196 0.1574179 -0.17827411 -0.10663418
0.12161088 -0.13692816 0.11237578 -0.024543412 0.07126652 0.03235906 0.12982433 0.048529103
-0.028066847 -0.15879294 -0.09203491 -0.02801737 0.060553607 -0.08010586 -0.14904246 0.059395712
-0.0059592505 0.04737462 0.102770776 0.077469945 0.13191332 -0.06155868 0.1408697 -0.12626702
-0.17375377 0.12130379 0.075445905 -0.116833314 0.15534827 0.04836267 0.09891817 0.022240188
-0.06875284 0.11354654 0.008062042 -0.075922325 -0.1027106 -0.1211287 0.09825152 -0.088372335
0.08053023 0.15181993 0.16888393 -0.009096622 -0.07657061 0.12532286 0.012664658 -0.093089886
-0.0615272 -0.056077924 -0.13409446 0.15266198 0.09800935 0.028836066 0.05232361 -0.0065860767
0.11102383 0.16377811 -0.06790086 0.1108472 -0.11804693 -0.11092185 0.065136254 0.020106418
0.07711941 0.09153305 -0.03536705 -0.0643161 0.18741006 0.17638572 0.093240805 0.11373678
0.041065823 0.10844484 0.14707524 0.047868732 -0.06471552 0.10546287 -0.15258156 0.0020577658
-0.07361573 -0.05745937 -0.17045787 0.029281491 -0.005274004 0.13568787 0.119821385 -0.03492609
0.015493561 0.066350654 0.13275842 -0.17443183 -0.10126428 -0.13623196 -0.11365966 -0.060039867
-0.044059485 -0.17350997 -0.04981011 0.002583419 0.08176574 -0.101186514 -0.059185546 -0.07171181
0.11504199 0.08655118 0.16323549 -0.14374971 0.00015516674 0.120878614 -0.03126073 -0.07336162
0.11038562 0.0222066 0.14071672 0.15505461 -0.0034579502 0.07829973 0.034930475 0.14006203
0.030561902 -0.13616885 -0.034022667 -0.028405672 0.016913924 0.016822597 0.07754241 -0.092260666
0.13871157 0.125577 0.0017925948 -0.011951951 -0.03982126 0.14011064 -0.085967526 0.1482285
-0.00063431566 0.057750385 0.15443984 0.17193866 0.09554479 -0.16729112 0.0883403 0.07481122
-0.12568255 0.012152163 0.049455207 0.0883246 -0.16480342 0.15598413 -0.15703084 -0.049724605
0.09957553 -0.003435256 0.09918084 -0.10193617 -0.024153007 -0.14872286 0.017414948 0.09826852
0.040109854 0.06890705 0.011486201 0.15588678 -0.035316642 -0.14462107 0.030817697 0.023041999
-0.094182834 0.064874746 -0.08897433 0.15529059 0.06328075 -0.045940004 0.12847948 0.10824405
-0.14188668 0.12821408 0.028153809 -0.0069974693 -0.09120426 -0.019141192 -0.11217302 -0.12082613
