output/SocialGood-MoME/ts_encoder_epoch0.pt (torch, 362284 bytes, 34 tensors)

proj.weight f4 [32, 4]
00000000: b072 cabe 7bfb d33e 2d19 513e 7d02 0dbe
00000010: 7e80 883e 2b1d 82be 353b 6fbe 8e63 e73d
00000020: a486 633b 9e5a b4be 324d b93d 50a3 1bbe
00000030: 177f a23e 1e19 f5be 23ca ca3d 9743 c43e
00000040: f623 84be 6044 493d a477 97be 8fdf 203e
00000050: 82f1 a8be 4ade 14be 3239 9fbe b182 e43e
00000060: 62e6 f43e 52e0 b2bd e3b3 c2be c55c 13be
00000070: 0939 31be fbc7 2c3d 9915 44be 7024 fc3e
00000080: 67e8 96be 6801 133e f77f f53d 6acf 01bc
00000090: 0381 1d3e 9421 d23d 1a75 b03e 7da4 83bd
000000a0: cb84 303e c8ee 3f3e e550 f73d b668 46bd
000000b0: 66d0 033e a279 ae3e 3d1c cf3e b63f ae3e
000000c0: 4ba5 1ebe 4008 d9be 935d 0cbe 459f 413e
000000d0: 6432 8cbe 04dd 8dbe 1b86 8cbe b0d9 99be
000000e0: b223 fc3e 2704 913d 71fd 0cbe 4634 2a3e
000000f0: e83d 97bd 813c e43d 9276 b63e e927 b3be
00000100: 8d08 103e 50ae d13e 8840 01be cfd8 583e
00000110: 08d7 c6be 63bb f8be 7166 f5be 9083 ca3d
00000120: 6408 76be f4dc 1f3d 5c77 993e 8f7e d83d
00000130: de05 843e 242c f7bd 1b03 b9bd c9e3 74be
00000140: 7ce9 f1be 57ac a03c ea1d 8abe d977 a7be
00000150: 4c2d 1a3e 5381 e43e 983c 7b3e ebaa 41bd
00000160: 7479 d43e ef17 d2be 5df7 d5bc bdf6 b83d
00000170: 1e5c d1be 6b7b 0fbe 6671 b03e 0c64 3bbe
00000180: aa33 c7be c4d0 eebd e302 f33c 19c4 5a3e
00000190: a624 a8be 6928 c4be ee28 233c 5b10 bebe
000001a0: cd55 52be af2e df3e eee1 19be 8f28 6c3e
000001b0: f292 8cbe 1ed1 69be 0b04 5a3e 1881 bf3e
000001c0: ca2a 003f 3583 95be ff22 e73e a3d5 ce3e
000001d0: 7019 acbd decd b33e e19f d9be 7226 79be
000001e0: 3401 46be 89c6 9dbe 2b91 8abe 4705 54be
000001f0: ea47 fd3e 51ff b1bc 8e60 97be bf78 a0be
-0.39540625 0.41402802 0.2041976 -0.1377048 0.26660532 -0.25412878 -0.2336243 0.112982854
0.0034717703 -0.35225385 0.09047927 -0.15199018 0.31737587 -0.47870725 0.09901836 0.38332817
-0.25808686 0.049137473 -0.29583466 0.15710281 -0.32996756 -0.14537922 -0.31098324 0.4463096
0.47832018 -0.08734192 -0.38027868 -0.14390858 -0.17306913 0.042182904 -0.19148864 0.4924655
-0.29474184 0.14356005 0.11987298 -0.0079229865 0.15381245 0.10260311 0.3446434 -0.06427858
0.17238156 0.18743432 0.12075976 -0.048439704 0.12872466 0.34077173 0.40451232 0.34032983
-0.15492742 -0.42389107 -0.1370757 0.18908413 -0.27382195 -0.27707684 -0.27446064 -0.30048895
0.49245983 0.0708087 -0.13768555 0.16621503 -0.073848546 0.11144353 0.35637337 -0.34991387
0.14065762 0.40953302 -0.12622273 0.21176456 -0.3883593 -0.48580465 -0.4792972 0.09888375
-0.24026638 0.039029077 0.29973876 0.10571014 0.25785726 -0.12068966 -0.090337954 -0.23915018
-0.47248447 0.019613428 -0.26975948 -0.32708624 0.15056342 0.44629917 0.24534833 -0.04728214
0.4149891 -0.41033885 -0.026118929 0.090314366 -0.40890592 -0.14011924 0.34461516 -0.18299884
-0.38906604 -0.11660913 0.029664462 0.21363868 -0.3284046 -0.3831208 0.009958489 -0.37121853
-0.20540543 0.43590304 -0.15027592 0.23062347 -0.2745586 -0.22833678 0.21290605 0.37403178
0.5006529 -0.29201666 0.45143887 0.40397367 -0.08403289 0.35118002 -0.4250479 -0.24331072
-0.19336396 -0.30815533 -0.2706388 -0.20705138 0.4946893 -0.02172819 -0.29565853 -0.31342122

proj.bias f4 [32]
00000000: 4838 f63e 3ab7 9ebe 456d cd3e 6f6f fa3e
00000010: 82f5 e2be b7b0 263e 2390 c13e d9e7 e1be
00000020: f9dd 6ebe 78f9 e8bd bd0c 493e fa73 b5be
00000030: 58a8 273e b201 e23d 04b0 c93e 31ae d2be
00000040: 6384 f23e 98c5 83be f6dc 88bd 33ba 4f3e
00000050: e3c1 f7be 5239 ff3d bf3e febe 5dc3 e3bd
00000060: ad77 7dbe b244 83be 122d 2abe 8493 373e
00000070: ff50 78be 12e7 8c3e 4b7c f43d 23e2 f1be
0.48089814 -0.30999166 0.4012243 0.48913142 -0.44327933 0.16278349 0.3780528 -0.44122198
-0.23326863 -0.113757074 0.19633766 -0.35440046 0.16372812 0.110354796 0.39392102 -0.41148522
0.47366628 -0.2573669 -0.0668277 0.20285873 -0.4839011 0.12462105 -0.49657246 -0.11121247
-0.24752684 -0.25638348 -0.16618755 0.17927366 -0.24249648 0.27520043 0.119377695 -0.4724284

EiLM.0.gamma_generator.weight f4 [1, 32]
00000000: 23ef 2bbe 07ba 5c3c 25bc f23d 2361 91bd
00000010: 69e1 c0bd fa66 0e3e 6d40 97bd a9dc 8bbb
00000020: db4b ad3d deb5 823d 94b4 213e 1fd2 4b3d
00000030: b0e1 203e 5934 703d 4516 a03d e414 08be
00000040: 30a4 193e 0dd9 923d 2fc6 1c3e 0865 093e
00000050: 7130 133b 086f 27bc 3004 90bd 84f5 c33c
00000060: 08d7 d73d b056 153e 234b 3b3d e6d4 293e
00000070: 0443 abbc a732 233e df11 2fbe bd79 80bd
-0.16790442 0.013472087 0.11852292 -0.070986055 -0.094179936 0.1390647 -0.07385335 -0.004268248
0.08461734 0.06382345 0.15791541 0.049760934 0.15711093 0.058643673 0.078167476 -0.13289219
0.15004039 0.071703054 0.15309976 0.13417447 0.0022459293 -0.010219343 -0.07032049 0.023920782
0.10539061 0.1458385 0.045725953 0.1658512 -0.020905979 0.15937291 -0.17096661 -0.0627322

EiLM.0.beta_generator.weight f4 [32, 32]
00000000: 2ab2 05be 60dc ba3d 26a8 243e 2e58 383c
00000010: 88f7 973d d992 b3bd aa2c f7bd 3045 323d
00000020: 1bd2 42bc 4cc6 733d 0e92 1c3d f266 e7bc
00000030: b23b c13d 4f36 c33d 2085 c0bd 4a11 5dbd
00000040: 399c f73b 0f81 d93d 5b77 0a3d e868 17bd
00000050: d6c2 c2bd 2ab6 053e 6e96 8dbd f5af 393d
00000060: 7579 f2bd 5c17 f93c 0458 fdbd 671b 863b
00000070: b9d8 9c3c c9c0 163e 0b89 693b 6f31 263b
00000080: 3aeb bf3d a1ed 0d3e 0580 83bd 26a2 36bc
00000090: ccdd d4bb d6b3 cf3b d696 ae3d 568c bdbc
000000a0: 2680 483d 8221 c23b e470 0e3e d35a 123e
000000b0: c2c3 cdbd c384 c4bd 539e 663d fbd2 2abe
000000c0: 2d9d 2cbb ab49 193d 96b1 94bd a687 1a3e
000000d0: d77c 803d 2971 1a3e a900 c33d c142 d5bd
000000e0: 0d27 2bbe 83ea 19be f85a da3d 2bd0 10be
000000f0: 0508 92bd 210d dbbd cebc bebd 964a 423d
00000100: 59d3 8d3d b407 2cbe a357 d83d 453a 773c
00000110: 064f 0e3d dce7 f33c 402d 3b3d 4f4f 2d3d
00000120: e49a b2bd 7e9c 2a3e 0361 1a3e 794e 9ebb
00000130: 893b 203e f10f 1dbe 8e38 1a3d 232b 19be
00000140: e78e 2d3e 9228 06be c14c 1c3e 579b e2bc
00000150: 67b9 09bd d6aa ef3d 1cb6 cf3d 61b9 03bc
00000160: 9a87 f3bd 7ccf fb3d 7508 04be 84d8 023e
00000170: 84e1 ac3d 3739 2a3e 6cf3 3abc 6fe4 103d
00000180: 16cf 523d 401c adbd 0d98 22be 3bbb a2bd
00000190: 9ae3 92bd 5b8d 46bd 98c3 87bd f15f 15be
000001a0: 379c 2ebe 3880 113d a027 143e 113a d1bd
000001b0: 727b aebd 4064 1abe 76bf 33be 3234 34be
000001c0: 909b 41bd c76b 36bd 59c8 c6bd 827c 0fbc
000001d0: 4f4e d7bd c448 24be a074 33be 287d adbd
000001e0: 87a0 913d 2fcb 733d 7ee7 d13d 9b23 e2bd
000001f0: 773a e63d fecb 81bc 6412 d63d b7ec a1bc
00000200: e897 123e a639 823d 4072 40bc bff2 10be
00000210: 31aa 4b3c df8d 1b3e 3755 af3c b83b 96bd
00000220: c66f 283e a2b6 94bd e7d0 613d 3fb6 41bc
00000230: f257 62bd 14ce e33d c5bc 18be c8f9 e738
00000240: 3091 19be 1ac8 5cbd b65a edbc f78c f03b
00000250: 1841 0a3e 7ede 25be 6c7d 5abd f76a ffbd
00000260: 2621 02be 12dd debd 00c9 94bd 3e99 993d
00000270: d3ea 513d 7b18 52bd e7a4 dfbd 8664 863d
00000280: 5378 223e 72fe 1e3e 546a 0ebe 0c17 a23b
00000290: 2be1 c53c 2260 a73c eb4e cb3d 8dc8 61bc
000002a0: 92d4 283e a4e3 6e3d 2492 063e f6cc 1abe
000002b0: c2e9 24be b3b6 90bc 9b45 8bbd e3de 24be
000002c0: 15f1 af3d 10a5 e83d 6d94 493d 175d 223e
000002d0: d942 393d 981a 1dbd c0aa a4bc 7b1e d43d
000002e0: f86e 1ebd 3a3c 2bbe 64bc bb3d 51e6 75bd
000002f0: d604 373e 4ef0 93bc f682 f73d b5ec c43b
00000300: c4ff e2bd 7565 ecbd 8b15 783d 17a7 1cbc
00000310: e7be 193e e794 273e e25f 1e3e 599d 46bb
00000320: 6f84 b43d 2b09 23be fa1f 023e f095 143e
00000330: 19e9 2dbd a30f 8c3d 6eae 29bd c4ad 1dbe
00000340: 22a7 99bd c328 6f3d d7bc b63d dc07 ca3d
00000350: 6584 11be f338 6b3d 5bff 073c 40d3 8bbd
00000360: f4a3 dd3d 50f1 853d 96e5 1c3e 63ef b0bd
00000370: 7140 3f3c 7fe1 383d 535d d0bd 84d1 d73c
00000380: 4e6a f23d 62cc 40bd aec7 a5bd 109f ac3c
00000390: 1251 71bd 5878 203e 6712 133e 86f3 143e
000003a0: e1cc 0fbe 5d25 a83c f84e 02be c36e cc3d
000003b0: fb5e 1c3e d593 9fbd ead9 c53d 8f3e a9bd
000003c0: 1d9b 363e f0ba b0bd 303e f8bd edbc 0e3e
000003d0: 0946 313e e99e b2bd ce5d d23d ac98 d83d
000003e0: 1e3a aabc 5616 b93d 9bc1 21be 122d b0bd
000003f0: 02f2 023e 5640 063d e9f0 12be 8721 933d
-0.13056245 0.091240644 0.16079769 0.011251492 0.0742026 -0.08768243 -0.12069066 0.043523014
-0.011890913 0.059515283 0.038225226 -0.02824733 0.09435214 0.09531843 -0.094003916 -0.053971566
0.007556465 0.10620319 0.033805232 -0.03696528 -0.09509818 0.13057771 -0.06913458 0.04533382
-0.11839572 0.030406646 -0.12370303 0.004092622 0.01914631 0.14721979 0.0035634662 0.0025359055
0.09371038 0.1386018 -0.06420902 -0.011147058 -0.006496167 0.006338577 0.085248634 -0.023138206
0.048950337 0.0059244046 0.13910252 0.14292459 -0.100471035 -0.09595635 0.056303333 -0.16682045
-0.0026338801 0.03742377 -0.07260434 0.15090808 0.06273811 0.1508223 0.0952161 -0.10413123
-0.16714115 -0.15030865 0.10661882 -0.1414191 -0.07130436 -0.106958635 -0.093133554 0.047434412
0.06925077 -0.16799814 0.105635904 0.015089576 0.03474333 0.029773645 0.04569745 0.042311963
-0.08720949 0.1666126 0.1507607 -0.004831132 0.15647711 -0.15338112 0.03765159 -0.14957862
0.16949044 -0.13101414 0.15263654 -0.027661962 -0.03362408 0.11702506 0.101421565 -0.008039803
-0.11891098 0.12295434 -0.12893851 0.12777907 0.08441451 0.16623388 -0.011410575 0.0353741
0.051467024 -0.08452654 -0.15878315 -0.07945868 -0.07172318 -0.04847465 -0.066291034 -0.1458738
-0.17051779 0.03552267 0.1446824 -0.102161534 -0.08519639 -0.15077305 -0.17553505 -0.17598036
-0.047267497 -0.04453638 -0.09706182 -0.008757712 -0.10512983 -0.16043383 -0.17524958 -0.08471137
0.07110696 0.059519943 0.10249232 -0.110419475 0.1124162 -0.015844341 0.104527265 -0.019766195
0.1431576 0.06358652 -0.011745989 -0.141551 0.0124307135 0.15190838 0.021402938 -0.07335609
0.16448888 -0.07261397 0.055130865 -0.011823236 -0.055259652 0.11123291 -0.1491576 0.00011061464
-0.14996791 -0.05390177 -0.028973918 0.007341023 0.13501394 -0.16198155 -0.053342268 -0.12471574
-0.12707958 -0.108820096 -0.072649 0.07499932 0.051249336 -0.051292878 -0.109201245 0.06562142
0.15866213 0.1552675 -0.13907748 0.004946595 0.02415522 0.020431582 0.09927162 -0.013780725
0.16487339 0.058322564 0.13141686 -0.15117249 -0.16104797 -0.017665243 -0.068003856 -0.1610065
0.085909046 0.11359608 0.049213815 0.15855823 0.045229767 -0.03835544 -0.020100951 0.10357376
-0.038680047 -0.16722193 0.09166792 -0.0600341 0.17872939 -0.018058922 0.12085526 0.006009663
-0.1108394 -0.11542789 0.06056742 -0.009561322 0.1501423 0.16365395 0.15466264 -0.003030619
0.08814322 -0.15921466 0.1270751 0.14510322 -0.042458627 0.0683892 -0.041426115 -0.15398318
-0.07502581 0.058388483 0.08922737 0.0986478 -0.14210661 0.057427358 0.008300628 -0.06827402
0.10822287 0.06540167 0.15321955 -0.086394094 0.011673079 0.045136925 -0.1017405 0.026345022
0.11836682 -0.047069915 -0.080947265 0.02107194 -0.058915205 0.15670907 0.14362489 0.14546022
-0.14042999 0.020525629 -0.12725437 0.099820636 0.15270607 -0.077918686 0.096607044 -0.08263885
0.17832609 -0.086294055 -0.12121236 0.13939257 0.17311873 -0.08721716 0.10271798 0.10575995
-0.020779666 0.09037463 -0.15796511 -0.086023465 0.12787631 0.0327762 -0.14349712 0.07184129

EiLM.1.gamma_generator.weight f4 [1, 32]
00000000: 7ec0 44bd 6824 90bd 7820 283e f723 c73c
00000010: 58cd f8bd faee ad3d 4889 d4bd 042c a8bd
00000020: 4acf 713d 0fb5 c8bd 5d15 bc3d c0f5 3b3c
00000030: f81a ee3d 6774 c93d 26bf bdbd bb09 0a3d
00000040: 9bf0 c23d 790c ecbd 9eb1 2bbe eafb c53d
00000050: 3f80 2abe 675f f4ba 6ad4 273e 791a d13d
00000060: c92a 193d 37a1 28bd 98dc c93d 325a af3d
00000070: aec7 133d 6869 363e e500 12be 0325 f93d
-0.048035137 -0.07038194 0.16418636 0.024309142 -0.12148541 0.08492847 -0.10377747 -0.0821152
0.059035577 -0.09800159 0.09183762 0.011472166 0.11626238 0.09836655 -0.09264974 0.033700686
0.09518548 -0.115258165 -0.16766974 0.096671894 -0.16650485 -0.0018644155 0.16389623 0.102101274
0.03739432 -0.04116937 0.09856528 0.08562125 0.0360791 0.17813647 -0.14258154 0.121652626

EiLM.1.beta_generator.weight f4 [32, 32]
00000000: 923f 2ebe 5854 15be c493 023e 2b1d 2d3e
00000010: 6c33 09be b4d3 34be 7716 b1bd ee1b 82bd
00000020: 47f8 873c a771 8bbc 9e83 b43d df78 3abe
00000030: c3b1 73bd 3e62 4c3d dffb 1fbe dc01 143c
00000040: 7951 29be f81a 063e 8197 9bbc 645e 1c3e
00000050: ca79 383e a994 9fbd 1802 96bc 38c1 14be
00000060: d1b9 be3d 4c4a fd3d 9458 f8bb b246 fcbd
00000070: e3b6 1dbe 0b95 c3bc ccff 58bd 6ac8 2ebe
00000080: 1a19 efbd 23f4 ecbd e57f ac3d 403f 073e
00000090: f92d be3c 40db d23c 2501 163e 0630 a83d
000000a0: 8037 c93d 4d9b 01be 2b3e c3bd 717f 683d
000000b0: 971f b8bd 116e 12be fea8 10be 6dd6 ce3d
000000c0: 12a5 c8bc 6567 c6bc 311e e93d 0d6d d1bd
000000d0: 42cd 2b3d 8f9f 343e bea5 823d 88d6 d9bd
000000e0: 5319 d93d 114b f7bd 3439 babd e53b 963d
000000f0: 94a5 a3bd 5b14 e83d f51a 9d3d fa69 6abd
00000100: 4a45 a03d 322d c23d bca6 e5bd 93f9 0f3d
00000110: 9d95 c73c 936b 9ebd c790 45bd 49cc ce3d
00000120: 149a b5bd 70f6 a53d ecdd e4bc 5c2c 6b3d
00000130: cb59 b2bd 3855 413b 1e8f 2f3e 2b21 d03d
00000140: b3cb 0cbc 4ac2 dfbd f385 ef3d 3d6d 17be
00000150: 0b25 413d bf23 d33c 743f ce3d 9fda 78bd
00000160: 8f13 093e 6d5d 293e 182e 07be 3bbf c43d
00000170: f758 19be 7e44 48bd 8ab0 033e 9409 b93c
00000180: efc5 72bd fa60 873b e635 c7bd 339e 1a3e
00000190: 594c a83d 2469 093e 072c 04be 7356 183e
000001a0: c72c 913d 61e3 183d 11a3 173e e683 243e
000001b0: 0835 20be b82b febd 2ab5 87bd a5b8 e43b
000001c0: eb06 b3bd 697e e23d eac3 0bbc db1d d33d
000001d0: 63f9 4a3d f468 ca3d 112f 78bd a5e0 0ebe
000001e0: 8f18 01bb 0c96 8cbd 0ff6 c5bd ca3d 7e3d
000001f0: 59f0 f0bd 5d84 093e d22c a73d db15 223e
00000200: 70d3 c3bd 855a 97bd 4db2 933d 485a c73d
00000210: 783a efbd d442 723d 3b90 2a3e fe4a ab3d
00000220: 600d 28bd ab03 a53d 25b8 fbbd 9465 0f3d
00000230: 2a5c 2a3e f3b2 ad3d 7897 033e 0664 38bd
00000240: 0c9c 823d 4acd 083e 122f 213e 8d08 f9bd
00000250: 75f2 a9bc b1b0 15bd 7780 9e3d ca70 4a3d
00000260: 189a ec3d 289e a63d 7e74 e4bd 8a53 2d3e
00000270: 9dfb 043e a90f c83c 5b7b 2abe 7db4 1f3d
00000280: c76a fdbd ad55 923c 68f7 f0bd aed7 2b3d
00000290: d512 18be 634c 0dbc 031c c23d cd2d 963d
000002a0: 5746 023e 4a19 c93d 04c7 14be 3c79 d0bd
000002b0: 4e74 28be c68d bf3d 13d5 87bc d6c8 30be
000002c0: 9443 6cbd 75e3 c4bd af21 163d c8aa 8c3d
000002d0: 5ec4 e43b 5321 8dbd 8552 52bd f950 f83d
000002e0: 71ed db3d 17e9 383d b0dd 1abe 6ebc 3e3c
000002f0: 791c 933c 5065 cfbc d54a 1fbe 9454 2cbe
00000300: 68b1 8bbd 1896 a83d 52c0 5a3d 4efa ecbc
00000310: dbbd 94bd 3602 9f3d fe7f 993d 4c92 e7bd
00000320: 07f2 90bd 0eb5 823d fb16 2cbe 3e11 17be
00000330: 2abb 7f3b 71d5 993d d2d1 1bbe 8d28 57bd
00000340: b157 a9bc 20a3 32be 46dc d1bd dc73 f9bd
00000350: deb9 ec3d 84e1 fbbd 7380 21bb 28d8 8c3d
00000360: 82ce 263e caf6 963c ae25 fbbc b861 f8bc
00000370: 66e4 c7bd 8505 fbbd e295 92bd ef3b fcbc
00000380: fe96 1dbe e2b9 8ebb 43cf 6f3d 4ac9 d43d
00000390: e5ca 183e fa2e d13d 8720 123e e2ec 293e
000003a0: bda7 d83d 14de 033e 6817 1abe 3a05 1a3e
000003b0: 6a5c b1bc b715 a13d 5d56 d8bd 6c90 2abe
000003c0: 1c35 56bd 6602 20be 4e6e aa3d 4c05 d9bd
000003d0: 7795 89bb c028 303e 2837 a73c 2acc 1a3d
000003e0: 6aab d1ba 3a5d 8dbd 5392 e53c 37b1 e6bd
000003f0: 2dc0 84bd 4ee8 e13d 9532 2f3e 870f ea3d
-0.17016438 -0.14582956 0.1275168 0.16905658 -0.13398522 -0.17658883 -0.08646863 -0.063529834
0.01659788 -0.017021967 0.088141665 -0.18210171 -0.0594957 0.04989838 -0.15623425 0.009033646
-0.16534986 0.13096225 -0.018993141 0.15270382 0.18015209 -0.077920265 -0.018311545 -0.14526832
0.093127854 0.12367687 -0.0075789187 -0.123181716 -0.15401797 -0.02387478 -0.052978322 -0.1706864
-0.116747096 -0.11570003 0.084228314 0.13207722 0.02321528 0.025739312 0.14648874 0.08212285
0.09825039 -0.12656899 -0.09533342 0.056762163 -0.089904 -0.142998 -0.14126965 0.10099492
-0.024492774 -0.024219224 0.11382712 -0.10225878 0.041943796 0.17638992 0.06379269 -0.10636622
0.10600533 -0.12074865 -0.09092942 0.07335643 -0.07990566 0.113320075 0.07671157 -0.057229973
0.07825716 0.094812766 -0.11213443 0.035150122 0.024363333 -0.07735362 -0.048233774 0.10097558
-0.08867279 0.08103645 -0.027937852 0.05741535 -0.08708533 0.0029500257 0.17144439 0.10162576
-0.008593488 -0.109257296 0.11695471 -0.14787765 0.047154468 0.025773881 0.100706965 -0.06075537
0.13386367 0.16539545 -0.13201177 0.09606787 -0.14975344 -0.048893444 0.12860313 0.022587575
-0.059270795 0.0041314336 -0.09727077 0.1509941 0.08217687 0.13419014 -0.1290742 0.14876728
0.07088619 0.03732622 0.14808299 0.1606594 -0.1564523 -0.124106824 -0.06626351 0.006980019
-0.08741554 0.11059267 -0.008530596 0.10308429 0.04955424 0.098832995 -0.06059176 -0.13952883
-0.0019698476 -0.06864557 -0.096660726 0.062070645 -0.11764593 0.13429399 0.08162846 0.1582865
-0.09561813 -0.07390312 0.072117426 0.09734017 -0.11681074 0.059145764 0.16656582 0.08363913
-0.04102838 0.0805734 -0.12290982 0.03500898 0.1663672 0.084813975 0.1285075 -0.045017265
0.0637742 0.13359562 0.15740612 -0.12159834 -0.020745495 -0.03654546 0.077393465 0.04942397
0.115528286 0.08135635 -0.111550316 0.16926399 0.12986608 0.02442153 -0.16648619 0.038990486
-0.12373882 0.017863119 -0.11765939 0.041953735 -0.14850934 -0.008624169 0.09477999 0.073329546
0.12722145 0.09819277 -0.14529043 -0.101793736 -0.16450617 0.09353213 -0.016581094 -0.17264113
-0.057681635 -0.096136965 0.036653217 0.068685114 0.0069814166 -0.06891122 -0.051348228 0.12124819
0.10738648 0.045144167 -0.1512363 0.011641605 0.017957913 -0.025316864 -0.1555589 -0.16829139
-0.06820947 0.08231753 0.053406067 -0.028927948 -0.072627746 0.077640936 0.07495116 -0.11307201
-0.07077413 0.0638219 -0.16805641 -0.14752671 0.003902147 0.07511414 -0.15216759 -0.052528907
-0.020671697 -0.1744504 -0.10247092 -0.121803015 0.11558889 -0.12298873 -0.0024643212 0.06877166
0.16289714 0.018428225 -0.030657616 -0.030320033 -0.097603604 -0.12256912 -0.07157494 -0.030790297
-0.1538963 -0.004355655 0.05854727 0.10389955 0.14921148 0.10214038 0.1427022 0.1659427
0.105788685 0.12877685 -0.15047991 0.15041056 -0.021650512 0.0786547 -0.105633475 -0.16656655
-0.052296743 -0.15625915 0.0832182 -0.105967134 -0.004198726 0.17203045 0.020412043 0.037792362
-0.001599652 -0.06902547 0.028023874 -0.1126427 -0.06481967 0.11030637 0.1710914 0.11428743

EiLM.2.gamma_generator.weight f4 [1, 32]
00000000: 122c ee3d 6965 003e 97fd c1bd c714 5dbd
00000010: f501 063e ec90 1d3e 0903 863c 7bc4 67bc
00000020: f7e5 b7bd 3c12 ecbd bed1 a4bd 9e43 173e
00000030: cd44 d83d 3747 253e bd83 293e d313 1a3e
00000040: 8540 cfbc b510 1a3e 3444 d63c 0f93 4abd
00000050: 7b08 34be 798d bfbd 7b15 d8bc 938f f1bd
00000060: b840 fc3d 4f66 dc3d f100 36bd 2fd1 1ebd
00000070: 06e4 df3d d8bb 2b3d c01a 383e eb48 04bd
0.116294995 0.12538685 -0.094721965 -0.053974893 0.13086684 0.15387315 0.01635887 -0.014145966
-0.08979409 -0.115269154 -0.08047818 0.14771888 0.10559998 0.16140448 0.1655416 0.15046625
-0.02529932 0.15045436 0.026155569 -0.049456652 -0.1758136 -0.09353156 -0.02637743 -0.11794963
0.123170316 0.10761701 -0.04443449 -0.03877371 0.10932164 0.04192719 0.17978954 -0.032296102

EiLM.2.beta_generator.weight f4 [32, 32]
00000000: 06d3 bfbd 08be d6bd fd3b 69bd bbd2 913d
00000010: db74 0e3b 90f0 2f3e ca39 083e 585f babd
00000020: 1205 1a3d f22b e4bd b770 223e f02e 343c
00000030: a7af fdb9 8801 153e f3a3 9b3c 33cf a5bd
00000040: 80d4 e0bd d2e4 bf3d 54bb ac3d bef3 8e3b
00000050: 4b53 32be ff31 1b3b 8f4f 30be 008f 12be
00000060: 3b74 073d 314c aebd 6a65 50bd 4beb 90bd
00000070: 4d16 d5bc 4c43 10be ed90 053e b319 243d
00000080: 1fed 4e3b 0fad 8e3d 63e1 883d aa60 09be
00000090: 4ed3 28be d18f 81bd 745b ed3b 4362 913d
000000a0: 5288 acbc c8a4 173e 338c 873d 6cda 1cbe
000000b0: ed4c 2cbd a96b 37bd 7b11 23bc 2cd4 bdbd
000000c0: dbf0 873d 3427 2a3e 92ac 1d3e 2acc f9bb
000000d0: f1c7 153e ffee 173e 430d b1bd ae7c 25be
000000e0: 825f c8bb 400b 2cbe fc45 a7bd 05db 1f3e
000000f0: 5d71 f5bd efaa 163e 66b4 d3bd ccb7 26be
00000100: 35e4 3abd a40e e63d 74df 0f3e 3de5 c93d
00000110: 675d 16be 7ea8 183e c549 643d b1a6 d03d
00000120: d742 bb3d 09d3 8abd c723 363d 0af4 e93d
00000130: 0c93 63bb 8b52 fe3d e890 2d3e b089 05be
00000140: afa5 0dbe 9bb4 8d3d b07f da3d 6062 0dbd
00000150: 1d73 1fbc 3005 e2bd 7135 613d 088a 84bd
00000160: fc95 2bbe b0fc 253e 2493 16bd a2d4 0cbe
00000170: 2710 903d 8bb4 263c 8100 fe3d 03bc 713c
00000180: 66d3 dc3c c7c2 e7bc ab4d 083e 16e5 5c3d
00000190: e2ff 103e df6d 023d 389f 303e 7f4f f53d
000001a0: 1d11 c1bd a97e c5bd 7272 353d 5960 eb3d
000001b0: 8a19 05be 06ce 003e a3d2 46bc 8a5d a93c
000001c0: 156c 99bd c76e b8bd ae75 e93d ae46 a13c
000001d0: 3a46 a63d b103 a7bd a1af 0e3e 0507 213e
000001e0: 9d48 a73d 7ccd 1c3e c745 68bd 8e48 803c
000001f0: 13bb 19be 2ecc 573d ee5e 36bd 83a6 ad3d
00000200: 9537 da3d 735b c23d b4c0 8cbd e796 02be
00000210: 9888 693d af5b afbd 8907 343e da7a 1b3d
00000220: 9bda a43d f593 9b3d 7c0f 30be 9a88 e13d
00000230: 1aa0 063e f1dc 06bd 015f 3d3d debc ce3d
00000240: bc2a d3bd bb19 ba3d ea63 07be 3b04 3bbc
00000250: d097 183e 38c4 10bd 7e39 0b3e df24 afbd
00000260: f984 173e 1be3 2cbe 7c92 ffbd 3355 2bbe
00000270: 2aee 9a3d 1ad1 a63d bd2a 95bd d050 0fbe
00000280: 784a d2bd 5f11 b63d 4d0e 95bd 7aec 00be
00000290: 215d 02be 0419 dcbc c48e 3f3c 6920 293e
000002a0: 7cf4 003e 158d a43a f84a 9d3d a3a9 72bd
000002b0: f069 553d 435c 133e 281a 55bc 569d 8dbc
000002c0: 1fd1 1bbe 8bf2 88bd f9f2 14be 2d8f 333e
000002d0: 32ed b73d 5683 30be 7e64 33bd e4c1 c33b
000002e0: bbdc 053e af9d 173e 4318 9dbd ce31 a9bd
000002f0: 79cd 24be 823c 9f3d f8c8 14be 34c5 2b3e
00000300: 0d08 31be 6211 8c3d 83a6 e23d 3e62 e93d
00000310: 0c39 2f3e 0652 2abd a1e2 7d3d 971b 183d
00000320: 9821 edbd 5c2c 96bc 42ab 0ebe 1e51 7b3c
00000330: 2cda c4bc b344 a53d 85fc d53d ed2d 6fbd
00000340: d9fc 8e3d c107 bf3d 22d2 393d 4950 babd
00000350: fc20 193e 0eb0 b2bb 563a b13c e556 8a3d
00000360: 4d6d 12be ce08 2cbd 34a5 0abe a11d be3d
00000370: 3dc5 d7bd 0e79 aa3d 7497 f0bd 9e4a 543d
00000380: f77f 663d 862d 843c f4ed 8ebd 9d12 38be
00000390: 230a 423c e250 f13d 8bd4 00be 1807 953d
000003a0: f1a3 c73d 67de 8bbc d31f f2bd 1c53 17bd
000003b0: a98e bcbc 8fe4 73bd 1a8b 1bbe eeee f9bc
000003c0: 1664 74bb 3171 f23d a2bd 723b f8ef a03c
000003d0: 9ece b83d bfe1 b43d 9580 90bd 55de a93d
000003e0: 573a c13d 7a10 9bbd 7348 cf3c 603d 563c
000003f0: cf71 f63d 265c c93c 9033 00be 8095 49bd
-0.093664214 -0.10485464 -0.056941975 0.07120272 0.0021737132 0.17181611 0.13303295 -0.091002166
0.03760249 -0.111411944 0.1586331 0.010997519 -0.00048386792 0.14551365 0.018999076 -0.08096161
-0.10978031 0.09369816 0.084341675 0.0043625524 -0.17414586 0.0023680923 -0.17217849 -0.14312363
0.03306983 -0.08510626 -0.050877966 -0.070761286 -0.02601161 -0.14088172 0.13043566 0.04006357
0.003157444 0.06966602 0.06683614 -0.1341578 -0.16486856 -0.06326259 0.007243568 0.0709882
-0.021061096 0.14808953 0.06618538 -0.15317696 -0.04206555 -0.044780407 -0.009952898 -0.09268984
0.066377364 0.16616517 0.15397862 -0.007623215 0.14627053 0.14837264 -0.086451076 -0.16160843
-0.006114901 -0.16801167 -0.08167645 0.15610893 -0.11984513 0.14713643 -0.10337143 -0.1628105
-0.04562779 0.11233261 0.14050084 0.09858177 -0.14684068 0.14908025 0.055734415 0.10188044
0.09143608 -0.06778533 0.044467714 0.114235 -0.0034725098 0.124180876 0.16949809 -0.13040805
-0.13832735 0.069192134 0.10668886 -0.034517646 -0.009732035 -0.11036146 0.054982606 -0.0647164
-0.16756433 0.16209674 -0.036761418 -0.13752988 0.07034331 0.010174881 0.1240244 0.014754298
0.026956271 -0.02829112 0.13310878 0.05392941 0.14160112 0.031843062 0.17248237 0.11978053
-0.09427092 -0.09643299 0.044298597 0.11492986 -0.12998024 0.12578592 -0.012135181 0.020674486
-0.07491318 -0.09005504 0.11399399 0.019687023 0.081188634 -0.08155001 0.13934185 0.15725334
0.08168147 0.15312761 -0.05670717 0.015659597 -0.1501277 0.052684955 -0.044524126 0.08479025
0.10655133 0.09490099 -0.06872693 -0.12752877 0.05701503 -0.08562409 0.17581 0.037958957
0.08049508 0.0759658 -0.17193407 0.11012383 0.13147011 -0.03292555 0.04623318 0.10094617
-0.10310885 0.09086939 -0.13221708 -0.011414583 0.14901662 -0.03534338 0.1359615 -0.085519545
0.14796819 -0.16883509 -0.124791116 -0.1673172 0.075649574 0.08145352 -0.07283542 -0.13995671
-0.1026811 0.08890032 -0.07278118 -0.12590209 -0.12730838 -0.026867397 0.011691753 0.1651627
0.12593263 0.0012554253 0.07680315 -0.05924381 0.052102983 0.14390664 -0.013006724 -0.017286938
-0.15216492 -0.066868864 -0.14545812 0.17535086 0.08980788 -0.172376 -0.04379701 0.0059740413
0.13072483 0.14806245 -0.07670643 -0.082614526 -0.16094007 0.07775213 -0.14529788 0.16774446
-0.17288227 0.06839253 0.11066916 0.11395691 0.17111605 -0.04158213 0.06198371 0.037135687
-0.11578673 -0.0183317 -0.13932517 0.015339164 -0.024029814 0.08069744 0.10448555 -0.058393408
0.069818206 0.09327651 0.045366414 -0.090973444 0.14953989 -0.0054531163 0.021634262 0.06754855
-0.14299507 -0.042000584 -0.13539582 0.09282995 -0.10535667 0.083238706 -0.117476374 0.051828973
0.05627438 0.016134989 -0.0697898 -0.1797585 0.011843237 0.11783005 -0.12581079 0.07276744
0.09748066 -0.017073823 -0.11822476 -0.036944494 -0.023017244 -0.059544142 -0.15189782 -0.030509438
-0.0037291101 0.11837996 0.00370393 0.019645676 0.09023784 0.0883212 -0.07055775 0.082943596
0.094349556 -0.07571502 0.025303101 0.013076156 0.12033426 0.024580073 -0.1251967 -0.04921484

EiLM.3.gamma_generator.weight f4 [1, 32]
00000000: f999 89bd 6378 a5bd 3982 4fbd 792b 25be
00000010: de21 39be 4151 543d 37e5 0bbe 012c 35be
00000020: 27c3 1abe ed85 f7bc 8b41 42bc 77ac 0cbe
00000030: 128d f73d ce5f 6a3c 129b eabb e2ee 1bbe
00000040: 62f2 bdbd 49d0 14be 55c0 dc3d 860b e6bd
00000050: d877 1ebe 3a5d 16be be16 3c3d 6e83 03be
00000060: 83b8 b1bd 7bb0 9f3c 318a 983d 2433 213e
00000070: 77f0 eabd 2e42 b3bd 290a f7bd 2093 bfbd
-0.06718821 -0.080796026 -0.0506613 -0.16129865 -0.18079326 0.051835302 -0.13661657 -0.17692567
-0.15113507 -0.030215228 -0.011856447 -0.13737665 0.12087454 0.014305068 -0.007159599 -0.15227845
-0.092747465 -0.1453258 0.10778872 -0.11232667 -0.15475404 -0.14684 0.045920126 -0.12843105
-0.08677771 0.019493332 0.07448233 0.15742165 -0.11471646 -0.08752857 -0.12062485 -0.09354234

EiLM.3.beta_generator.weight f4 [32, 32]
00000000: e65e 1a3e ce23 813c 8535 00be 943a b23d
00000010: 4c0f 19be c193 e83c 444d bb3d f8be e13c
00000020: b1b9 87bd 6206 babd 2941 8e3c 760a e73d
00000030: d3ea dbbd b01e f43d 7425 103e 846b 7cbd
00000040: c64b fe3c 6972 15be 2ce2 013e 7615 babd
00000050: 9d3c 0fbe e901 ba3d 9d5d b63c 3dc0 1dbe
00000060: 7c94 fdbc 6f2c 14be 4dcc 0ebe cfe8 be3d
00000070: 0718 0a3e b334 ccbc e416 ba3d f22e e3bc
00000080: 4ffd 9cbd ae7c f83d 3ee7 e53d 44ef ea3b
00000090: 6c1f e3bd a70c 843d 630d 2f3e 02a8 8f3d
000000a0: b905 a13d 2fad e43d 2669 b43d b3e3 dbbb
000000b0: b38f 173e f258 8a3d 4337 363c cb39 c1bc
000000c0: 317c 07be 0828 2c3e fd32 fd3d 9893 953c
000000d0: e848 5c3d 87e0 093e a417 013d 38f0 1fbd
000000e0: cd64 7bbd cefa d33d cd08 2a3e 72ef 43bd
000000f0: 1c54 4e3d 6b31 5a3d 394d f73d 98b4 1a3d
00000100: 79f8 023e f2dd b63d b552 13be 7265 5c3c
00000110: 7c3c 143c f1ff bd3d 3d71 68bd 4000 203e
00000120: 2f94 14be 2627 efbd cb6b 343e 6f59 4cbb
00000130: c211 90bd 3155 da3d d2d0 7abd 9640 1ebe
00000140: 6142 babd a6ce 6b3d ed4e ebbd 4063 dc3d
00000150: 1da0 913d 1a24 2cbe 3d75 b53d f765 293e
00000160: 7802 2ebe ff78 c0bc 81aa 1d3e ff27 12be
00000170: 97e7 083e a2b5 003e 60bf 0dbd 1d54 41bd
00000180: c2c3 07be 7d6e 81bc 76f1 08bd 0156 5b3c
00000190: fb17 0f3e 6ba8 c0bd 241e 4e3d 43f5 c73d
000001a0: a09c 5b3c 7ac9 303e 382b 7cbd 7cd9 263d
000001b0: a04e d2bc ea5b 1c3e b927 fd3d 6967 f33d
000001c0: f7c9 963d 0285 2a3e 407f 2f3d 4609 9cbd
000001d0: 3862 94bd c9a7 2f3e 565e 52bc 90af 15bd
000001e0: ed73 91bc 7bcd 973d 510f 28be d58e 7b3d
000001f0: 5f04 e03d fe36 e63c 9723 94bc f007 fb3d
00000200: e8e8 9f3d 6dc4 2a3d 848d 1d3e 5912 dfbd
00000210: 8cf0 a3bb acda fc3d 5ac2 ef3d 891b 163d
00000220: 726c 5f3c 6ecc 8ebd f389 b6bd c01a c2bd
00000230: 797c 5b3c c707 acbd a969 023e a78d 053e
00000240: c9f3 813b 50a6 09be 65ba fd3d 333d 58bc
00000250: 9d3d 2ebe 3bd6 f3bd 2107 9cbd 6873 c4bd
00000260: 057f 023d d757 e0bd ac10 0b3d 940c 15be
00000270: ef1d 103e b211 103e 600a 4b3d e358 be3d
00000280: d228 333e 0430 1a3e 6742 333e 49f4 893c
00000290: 361f b3bc de71 253e c725 19be ef0e f4ba
000002a0: 8757 58bd 2a99 1bbd ee8d 9bbd d8d8 22be
000002b0: 59bd 0dbd 4daf 13be a16d f9bd eda4 ebbd
000002c0: 291e 05be 5eaf 21be 7ac7 82bd 9c26 00bd
000002d0: 09b4 803d 94dd 23be 02b2 cbbd 023e 50bb
000002e0: 904d 243d 5184 e5bd 4bf9 053e 453c 1cbd
000002f0: 4e96 0ebe b52b 2d3e 9686 333d 30eb 8d3d
00000300: 796f c6bd 1a4b a5bd 335b 4fbd 09d8 f1bc
00000310: 0bd3 f7bd c91d 36bc ca92 6f3d 8785 0f3d
00000320: 1ce9 e73c 5ca8 aabd 3cfd 39bd e771 033e
00000330: a477 253d f49e 08bd 9ada 433d c52b b83d
00000340: a7a2 0cbd 9167 21be dddb 1cbe 955d 6d3d
00000350: 0083 16be 821e 1e3e 608e d13d 0254 87bd
00000360: 00b1 2bbd 1b99 de3d 79eb 3bbc b63f bb3c
00000370: ef0c 063e 562c 00be bf0d 1d3c 7c7d 20be
00000380: cd53 71bd beca 0bbe e426 1ebe 73f8 23be
00000390: be63 8239 76b6 123e a90a 4dbd ebef 93bd
000003a0: a916 a0bc 1615 853d a695 51bd 8380 b8bd
000003b0: 3bd8 8dbc dc62 09be 28d8 15be 62e0 ee3d
000003c0: be4d 203e 9707 ebbd d9c6 14be 580d 293d
000003d0: dc28 2fbe 941b 243e 5be3 aebd b209 30bd
000003e0: 6c8a 2abe dd2e cd3d 693e 0abe 29c1 313e
000003f0: e659 80bc c4f5 d3bd 6a5c ef3d 93a6 16be
0.15075263 0.015764143 -0.12520416 0.08702579 -0.14947242 0.028390767 0.091455966 0.027556881
-0.06627215 -0.09083249 0.017365055 0.11281292 -0.107381485 0.11919916 0.14076787 -0.061625972
0.031041991 -0.14594425 0.12683934 -0.090861246 -0.13987966 0.090823956 0.022261435 -0.15405364
-0.030954592 -0.14470075 -0.13945122 0.093217485 0.13485728 -0.024927473 0.09086397 -0.027732346
-0.07665502 0.12133156 0.112257466 0.007169636 -0.110899776 0.06447726 0.1709495 0.07014467
0.0786242 0.11165845 0.08809118 -0.0067104935 0.1480091 0.06755246 0.011121574 -0.023587128
-0.13230969 0.16812146 0.12363241 0.018258855 0.053780466 0.13464557 0.031516686 -0.03904745
-0.061375428 0.103505716 0.1660492 -0.047835775 0.05037318 0.053269785 0.12075276 0.037769884
0.12790097 0.089290515 -0.14387019 0.013451921 0.009047624 0.092773326 -0.056748617 0.15625095
-0.14509653 -0.11677389 0.17619245 -0.0031181236 -0.07034637 0.1066078 -0.061234303 -0.15454325
-0.09094692 0.057570122 -0.11489663 0.10761118 0.07110617 -0.16810647 0.08860252 0.16542803
-0.16993129 -0.023495195 0.15397073 -0.1427307 0.13369595 0.12569287 -0.034606338 -0.047199357
-0.1325827 -0.015799755 -0.0334334 0.013387204 0.13973992 -0.09407123 0.050321713 0.09763577
0.0134040415 0.17264357 -0.061564654 0.040734753 -0.025672257 0.15269437 0.12361092 0.11884958
0.073627405 0.16652301 0.042845964 -0.07618956 -0.07245296 0.17153849 -0.012839874 -0.036544383
-0.017755473 0.07412239 -0.16412093 0.061415512 0.10938334 0.028102394 -0.018083377 0.12257373
0.07808095 0.041691232 0.15386015 -0.108921714 -0.0050030407 0.12346396 0.117069915 0.036647353
0.013636695 -0.069725856 -0.089130305 -0.094777584 0.013396376 -0.08399921 0.12735619 0.13042317
0.003965829 -0.1344235 0.123890676 -0.013198185 -0.17015691 -0.119060956 -0.07618547 -0.095923245
0.031859417 -0.10954254 0.033951446 -0.1455558 0.14073919 0.1406925 0.04957044 0.092942975
0.1749604 0.15057379 0.17505799 0.016840117 -0.021865468 0.16156718 -0.14955817 -0.0018620173
-0.052817848 -0.037987866 -0.0759543 -0.15903032 -0.034604404 -0.1442234 -0.12179113 -0.115060665
-0.12999786 -0.15789554 -0.063857034 -0.03128682 0.06284339 -0.16002494 -0.09946062 -0.003177524
0.040113032 -0.11206878 0.13083379 -0.038143415 -0.13924524 0.16911204 0.043829523 0.06929624
-0.096892305 -0.08070965 -0.050624084 -0.029521959 -0.121008 -0.0111155 0.0584896 0.03503945
0.028309397 -0.08332893 -0.04540752 0.12836419 0.0403973 -0.033354715 0.047815897 0.089927234
-0.034334805 -0.15762164 -0.15318246 0.057950575 -0.1469841 0.15441325 0.10232234 -0.0660782
-0.041916847 0.10869046 -0.011469715 0.022857528 0.13090871 -0.12516913 0.009585797 -0.15672868
-0.05891781 -0.13651559 -0.15444523 -0.16012745 0.00024869846 0.14327416 -0.050058994 -0.07223495
-0.019542055 0.064981624 -0.051168106 -0.09008887 -0.01731502 -0.13416618 -0.14633238 0.116638914
0.15654656 -0.11476057 -0.1452898 0.04127249 -0.1710543 0.16026145 -0.08539458 -0.042977996
-0.16654366 0.10018704 -0.1350037 0.17358841 -0.015667867 -0.103496104 0.116875485 -0.1471198

Gate.weight f4 [4, 32]
00000000: faad ef3c 6e26 1d3e edd1 25be 300b fc3d
00000010: 1a32 d53d c448 0fbe b2c3 2a3e 9843 853d
00000020: 01fd 1fbe 8be9 163e 40da 29bd a705 633c
00000030: b509 0abe 3010 a43d de5b 29be 636b efbd
00000040: c9c9 1dbe 08d2 98bd e46f 0fbe 7c5d 2cbe
00000050: 5a8c f53c ac2b 893d df4e ffbc 6b08 d8bd
00000060: 1533 dabd 5042 fa39 a443 d53d f04b 05bd
00000070: e127 a4bd eda8 e9bd 15a8 39be df3c 1f3e
00000080: 6887 04be b32f f0bd c35a 13be 3be1 c63d
00000090: 22f1 fbbd aa84 aa3d 27c7 08be 4507 19bd
000000a0: 9d6e 0e3e 908e 5cbd e4a5 d9bd 84b9 c1bd
000000b0: 4cec 44bd 2cf3 803c f1d1 993a 84f6 d13d
000000c0: 752b 013e d09f 20bd 8058 263e 28d5 e2bd
000000d0: 063f 46bc 38e8 093c c3e4 e33d afb6 043e
000000e0: f6ec f53d 7283 0bbe 03f7 393e b804 093e
000000f0: a91b 3cbc 20db d63d e473 9fbb 04ad 2cbd
00000100: 784e ffbd 879f 1bbe c5fd 943d fc84 1f3e
00000110: 13ff a2bd b55c 303e d84e ea3d e953 9ebd
00000120: beec a73c 5832 163e 29d4 063c e767 a63c
00000130: 8428 b6bd c17a 9c3d 359a 1a3d aa42 043d
00000140: 6ad1 c33c 6b2c 0d3e ffee 05be 3040 02be
00000150: 1d20 37bb 154a 53bd f00e 30be bec3 8e3d
00000160: 554a 903c 7b73 183e cdd4 34bd bf1b 2a3e
00000170: f633 8fbd ef3c c6bd 179f 0c3b 0e5c 0dbd
00000180: f9f7 b1bd d59b b9bd 238f c93d 5cc1 823d
00000190: 0beb 323e 5190 c43d 0c4c 093d c2a4 79bd
000001a0: 9559 14be f057 ecbd b0af 093d e911 39be
000001b0: 60ed 22ba da08 45bd 0754 fcbd 89e5 283e
000001c0: c20d 2fbe cd9d 573d fc89 e9bd 1000 de3d
000001d0: 36f8 ddbc 7c6a 883d 35bd 95bc 0bfe c8bd
000001e0: ca3c 96bd 5210 5cbd a930 983d 4850 153b
000001f0: 2958 bebd c133 1dbe 1e9c 193e 1b1a 213e
0.029257763 0.15346691 -0.16193362 0.12306821 0.10409947 -0.13992602 0.16676214 0.06507033
-0.15623857 0.14737527 -0.041467905 0.013856328 -0.13480265 0.080109 -0.16538951 -0.11690404
-0.15409006 -0.07461935 -0.14007527 -0.16832536 0.029974151 0.06697783 -0.031165538 -0.105484806
-0.106542744 0.00047733122 0.10413292 -0.032543123 -0.08015419 -0.11409173 -0.18130524 0.15550564
-0.12942278 -0.11727848 -0.14390092 0.09710928 -0.12301852 0.08326085 -0.1335722 -0.03736045
0.13909383 -0.053846896 -0.10627344 -0.094592124 -0.048076913 0.015740953 0.0011735541 0.10252097
0.12614234 -0.03921491 0.16244698 -0.110758126 -0.012099987 0.008417182 0.11127617 0.12960313
0.12008087 -0.13624361 0.18160634 0.13380706 -0.011481204 0.104910135 -0.00486611 -0.042157188
-0.124661386 -0.15197574 0.07274965 0.15578073 -0.07958808 0.17222865 0.114408195 -0.07730848
0.02049863 0.14667642 0.008229294 0.020313216 -0.088944465 0.07640601 0.03774472 0.03229014
0.023903567 0.13786475 -0.13079451 -0.12719798 -0.0027942725 -0.051584322 -0.17193198 0.069709286
0.01761357 0.14887802 -0.044148255 0.16612147 -0.06992333 -0.09679591 0.002145713 -0.03451162
-0.08689875 -0.09062926 0.09841754 0.063845366 0.17472474 0.09597839 0.03351979 -0.06094814
-0.14487298 -0.1154021 0.033614814 -0.18073238 -0.0006215181 -0.048104145 -0.123207144 0.1649381
-0.17095092 0.052640725 -0.114032716 0.10839856 -0.027095895 0.06660935 -0.018278698 -0.0981408
-0.07335813 -0.0537265 0.07431156 0.0022783447 -0.09294159 -0.15351774 0.1500096 0.15732615

experts.0.gate_proj.weight f4 [32, 32]
00000000: db7b 41bd 9c5d 0f3e 6a3b 193e aeca 2abd
00000010: f37e c63d 145d 243e e548 e8bd 0bff fbbd
00000020: 0efa c83d eb7d 22bd 8da1 223d 171f bdbd
00000030: 1203 80bd 82d6 9fbc fa7c 07bd 4ba3 963d
00000040: 25db e23d 6c31 b03d c719 01be 4429 29be
00000050: 6c1a f4ba dba8 32be f8a3 f3bd 125d c0bc
00000060: 8880 e4bd 7381 f4bd 1144 de3d b46a 923d
00000070: 78f6 b23d 979f 8cbd ec45 22be d517 803d
00000080: 81a5 0a3e 685a 55bd a469 4dbd 1915 b63d
00000090: 4a0a 2fbe 1085 e4bd 91b1 eabc 7341 2bbe
000000a0: 5806 3cbd dab7 91bd ee6c 4a3d c58d 893d
000000b0: 843d bdbd d12e 23be 557e 18bd 4609 9cbd
000000c0: 65a4 043e be1a b1bc c296 273d 2d2c b7bd
000000d0: 7ff9 4dbd 8853 03be 90c7 08bd 85c1 1bbe
000000e0: ed94 d83c 8141 4fbd 8501 b4bd 4530 f4bc
000000f0: 0700 e7bd 9dae babd 8b41 ed3d 0cd7 8c3d
00000100: 250b 213e 5c38 9bbd e1c6 7d3d bc5d 6c3d
00000110: 26f3 88bd 82f1 523d 6798 45bd 2ac0 de3c
00000120: ea53 35bd c62e 15bd 1c75 17bd a275 e6bd
00000130: 2d99 493d 4dd9 67bc ec7c 323e e416 233e
00000140: 02a2 3dbd 465e 46bd 12d3 da3d 9282 963c
00000150: 8d70 83bd 3140 29be ee0e debd e932 b13c
00000160: ad28 0d3e a91d 0f3e 3f22 0a3b 4f4b 22be
00000170: d066 8bbd 0b64 303e 15c2 193e 5ccf 2e3e
00000180: d91e a43d 2078 2dbe 25fd 863c cb40 88bc
00000190: 0da5 d53c 41d7 37be 5f71 1ebd 10ec 29be
000001a0: 04f0 b93c 627e 02be 42e3 293e 6af2 2cbe
000001b0: dff3 013d 9e3d e53d 2a65 473d b198 20be
000001c0: 0ea9 823d 2e88 0f3e cfcd 893c 4a1e 783d
000001d0: a80a ce3d 3638 c63d a925 0f3e 7264 0f3e
000001e0: 03b7 3abe 5aa3 2abd b971 273d 66e0 60bd
000001f0: 4dae 14be d9d6 cdbd 357a d63d dcda c13c
00000200: 625d 293e 68b1 bbbd 8da5 0ebe b67a 64bd
00000210: 6ac0 86bc d0df 07be c5f1 f4bd f688 ccbd
00000220: fba0 353e 0342 3abe e508 bfbd aa83 9bbc
00000230: 1e40 babd 97f6 3c3d 5a21 9cbc 66cf 2dbe
00000240: 55da dd3d 2541 83bc d1aa 82bd f7e8 3fbd
00000250: a97d 13be 68c5 193e 147c 393e d939 f53d
00000260: e6ae b53d 796c 883c 1292 133e ef71 f03d
00000270: 2bfe 09be 43ab d93d 7501 883d 7cec 8a3d
00000280: bef9 213d 4bf5 c43a 6b54 66bd 7eab b5bd
00000290: a509 063d e860 f3bd 76ba ecbb 4b6d ec3d
000002a0: a44a 0f3e dc5b aabd a05a fa3d 1a08 76bd
000002b0: 88a3 e63d d798 c63d 4a98 18be 8a20 ff3d
000002c0: 499b 2a3e c9f0 17be 63b2 14bd deeb f0bc
000002d0: a356 8c3d d4dd 8d3d e054 f8bd f580 83bd
000002e0: bf7d f93d cec4 2a3e 6905 003e 4d22 1ebe
000002f0: cf82 13be e9e5 973d 60b8 87bd 97ce f23d
00000300: adff 003e 728c 293e 2deb 88bd f648 5e3c
00000310: ace4 f93d 1a6e f33b 3fa8 95bd 59be c2bc
00000320: 759f e3bc 4598 893c 6487 6cbc d71a 9dbc
00000330: e2e9 0dbd 27e6 29be bf4c 08bd 2eff d93c
00000340: 71bb da3d e285 a33d ac7c e23c 075a 863d
00000350: eaa1 1d3e acd9 313e 9c81 1fbe 9bbe df3b
00000360: f736 203e 770c 843d 9a90 bd3d 51e3 cdbd
00000370: e101 9cbc 0039 c33d 1965 4b3d 091f 2fbe
00000380: d62e 2abe 02c2 a73d 31ee 11be 2599 12be
00000390: b49e e2bd b395 48bd 49cd 3ebc 60e8 f6bd
000003a0: acbe b93c 1597 55bd c388 1d3e e45a c7bc
000003b0: 9c57 c03d 9f15 d13d 8ac8 26be 2429 12be
000003c0: bd08 903d 9e4d e33d b992 153d 0853 2fbe
000003d0: 16de 39bd 521e 70bc 2afa a73d 2ff7 293d
000003e0: 912e 843d 5705 343e 80ed cbbd 48f4 c53d
000003f0: 88bd 31be 4921 323e bcaa ab3d 891f ca3c
-0.04723726 0.14000553 0.14964071 -0.041697197 0.096921824 0.16051131 -0.113420285 -0.12304505
0.09813319 -0.039670866 0.039704848 -0.092344455 -0.062505856 -0.019511465 -0.03307817 0.073553644
0.11076955 0.086031765 -0.1260749 -0.16519648 -0.0018623597 -0.17447226 -0.11896509 -0.02348188
-0.11157328 -0.11938753 0.108528264 0.07149258 0.087384164 -0.06866377 -0.15846986 0.062545456
0.13539697 -0.05208817 -0.050149575 0.08890743 -0.17093769 -0.11158192 -0.028649123 -0.16724186
-0.045904487 -0.07115145 0.04942029 0.067164935 -0.09240249 -0.15935828 -0.037229855 -0.07618956
0.12953337 -0.021619197 0.04091526 -0.08943973 -0.050286766 -0.12824833 -0.033393443 -0.1521054
0.0264382 -0.05059958 -0.08789352 -0.029808173 -0.11279302 -0.09115336 0.11584767 0.068769544
0.15726908 -0.07579109 0.061957244 0.05770658 -0.06687002 0.05149985 -0.048241045 0.02719124
-0.04426948 -0.03642156 -0.03697692 -0.112529054 0.049218345 -0.01415093 0.17430466 0.15926701
-0.04629708 -0.04842975 0.1068479 0.018372808 -0.06417952 -0.16528393 -0.10842691 0.021630721
0.13785048 0.13976158 0.0021077541 -0.1584904 -0.06806719 0.17225663 0.15015443 0.17071289
0.08013696 -0.16940355 0.01647813 -0.016632458 0.026079679 -0.17953207 -0.038682338 -0.16593957
0.022697456 -0.12743524 0.16590598 -0.16889349 0.031726714 0.11193393 0.048680462 -0.15683247
0.06379901 0.14016792 0.01682177 0.06057576 0.10060626 0.0967869 0.1397921 0.1400316
-0.18233876 -0.04165969 0.04087994 -0.054901503 -0.14519615 -0.100507446 0.10472528 0.02366393
0.16539529 -0.09164697 -0.1393034 -0.05578109 -0.016449172 -0.13268971 -0.119601764 -0.09987061
0.1773719 -0.18189244 -0.09327868 -0.01898368 -0.09094261 0.046133604 -0.019058872 -0.16973647
0.10832659 -0.016022274 -0.06380237 -0.046853032 -0.14403404 0.15016711 0.18113738 0.11973924
0.0887125 0.016653286 0.1441119 0.11740481 -0.13475864 0.10628369 0.06640903 0.06783387
0.039544813 0.0015026716 -0.05623285 -0.088706 0.03272404 -0.11883718 -0.0072243763 0.115442835
0.13993317 -0.08318302 0.122243166 -0.06006632 0.1126166 0.09697121 -0.14901844 0.12457378
0.16660799 -0.14837946 -0.036302935 -0.029409345 0.06852462 0.06927076 -0.121255636 -0.06421081
0.12182187 0.16676638 0.12502064 -0.15442772 -0.14405368 0.07416899 -0.066269636 0.1185581
0.12597533 0.16557482 -0.06685481 0.0135672 0.12201819 0.0074288966 -0.07307481 -0.023772405
-0.027785996 0.01679624 -0.0144365765 -0.019177837 -0.034646876 -0.16591702 -0.033276316 0.026610937
0.10680283 0.079845205 0.027647339 0.0656014 0.15393797 0.17368191 -0.15576786 0.006828142
0.15645967 0.0644769 0.09256096 -0.10053123 -0.019043865 0.09532356 0.04965696 -0.17101683
-0.16619429 0.08191301 -0.14251019 -0.14316233 -0.110654265 -0.04897089 -0.0116456235 -0.12056041
0.022673927 -0.052146036 0.15384202 -0.024335332 0.0939171 0.10209202 -0.16287437 -0.14273506
0.07032917 0.11098789 0.03651688 -0.17121518 -0.045377813 -0.014655666 0.08202012 0.0414955
0.06454194 0.17580162 -0.09957409 0.096657336 -0.17357457 0.1739551 0.083821744 0.02467324

experts.0.up_proj.weight f4 [32, 32]
00000000: 429b d9bc dd56 43bc eeff 823d edb1 c1bc
00000010: c2e5 00be 3a81 df3d 05ac dd3d edf5 2fbe
00000020: 1180 3b3d 67a1 25be 5dd1 a93c 7fa9 c0bd
00000030: 5e7e 00bd a46c cfbd feeb 4ebd b40f 023e
00000040: 7170 b83d 0ac1 e7bd 6580 2dbb 2808 053d
00000050: c716 0e3e 3de0 aebd 77c8 1ebe ea56 6e3d
00000060: 8e68 06be ad43 26bd 10fb acbd f3ce 25be
00000070: 644a fb3d 2ee1 d2bd 4ccb f63d bf5a e93d
00000080: c9fd b03d 5442 e43d 7d0d 143e 5eeb 86bc
00000090: e983 18be 5e9c 183e afbc 18be 358d b3bc
000000a0: 6de5 2fbe 9810 b3bd 71c1 d93d 44b4 053e
000000b0: 5ace 3dbd 72b2 bf3c 1a93 8f3d fd42 29bc
000000c0: ec76 fa3d 77d8 31be a27b 0c3e 9d63 983d
000000d0: 2213 23be ed90 333d f02b 083e 5a49 d93b
000000e0: c184 fa39 fc9f 653d 8b3b 20be bd7c 95bc
000000f0: 9d32 c6bc 2334 59bd c12d 74bd 6012 2bbe
00000100: cdc6 543d 1133 273e 83f7 a43d 69e1 563d
00000110: cd7e 333e 8fb5 1e3e 1aa8 27be d6be eebd
00000120: 5358 db3d 88f0 0fbe e109 f53d d53e 09bd
00000130: 2080 8e3d b467 083d fd6b 103e ba04 dd3c
00000140: 5044 95bc 9f7f 27be 27f1 dbbd 078c 76bc
00000150: 830c 583d a9d0 9bbd c08a 22be 6992 403d
00000160: 61d6 82bc 6074 253d 1021 c03d 3907 8f3d
00000170: 82a4 003e 251e 42bd a86e 113e 609a f8bd
00000180: 00bd 34be d591 fb3d 3c6e a73d 62cd f2bd
00000190: 3512 203e 07f0 473d 48bb c73d d7e1 af3c
000001a0: 3195 89bd 5589 e33d e697 9c3b 1bd0 a6bd
000001b0: c059 cabd f763 e8bd 4110 c13d db85 a7bd
000001c0: 1618 993d d137 1f3e f2cc 2d3e f79b 0cbc
000001d0: 9445 93bd 9c78 f73d 3c4d 7f3c 7b0e b3bd
000001e0: 982e 74bd 5cb3 47bd 672c 10be b29c 1d3e
000001f0: feca c33d 2d26 da3c 9a72 743d aae2 cfbb
00000200: 9feb 013e 13fc 173e b938 a9bd db58 c83d
00000210: ebf8 04be 8561 02be 80e7 933d 2e81 da3b
00000220: 886e 973d a22c db3d a8be b1bc d6a5 4dbd
00000230: cae1 2e3e 85d4 273e 4e34 d23d 62e8 e83d
00000240: cbed 5c3d 4c32 c03d 73f7 133e 5cc4 583d
00000250: 2300 98bd 731e f73d 6540 2bbe 49ec e7bb
00000260: a827 b0bd ecc3 8ebd e16d 20be 6bba 683c
00000270: bb8d 7cbc abee 193e d41f d83d 4b7a 1cbd
00000280: fcc1 903c ad06 8b3d 1554 043e 56a0 2abe
00000290: c0a3 e3bd d934 12be c530 cdbd 2709 8abd
000002a0: df20 67bd c976 2cbe 498a 1bbd df50 103c
000002b0: cfb4 943d 9d89 e5bd ab40 3dbd bdbc a8bd
000002c0: 3513 033e cb27 9b3d aa7d 193e 614e 07be
000002d0: 264e 37bc a59a 063e fcb2 06bd f2f4 b3bd
000002e0: 4eea c63d 7118 173c 3d63 123e 37fb 113e
000002f0: 7188 4a3b 3c62 b83d 12ed c73c e92d 193e
00000300: 138c 3b3d d053 1bbe 7fdf 22bd d51c 16bd
00000310: 1063 1e3c 8460 d53b 168c 9b3d 055d cebd
00000320: d068 113e baa2 0c3e 293a 273c 1077 12bb
00000330: c13f 55bd fd5b 083e afbe acbd e33d 213e
00000340: 6271 c53b a8e5 443d 5968 253e 4afc 2f3e
00000350: 5f6f bc3d 4344 20be 702b 973d 6693 9c3d
00000360: 6241 06be a6c1 e13b 6a85 6b3d 0d3b a83d
00000370: 7500 2fbe 34ac 283e cb56 2abe c2cd 6dbd
00000380: a179 c43d 196b 633b ec84 c13d 6edd c5bd
00000390: 1b72 a5bc dd00 10be f872 b03c bf15 d53d
000003a0: 3274 153d 76cc 743d 9df6 1b3c 5925 1a3e
000003b0: 5ad6 fcbc 1516 12be 6f6e 083d 09a8 143b
000003c0: 607a bbbd f2df 8b3d 1560 c8bd f734 1e3e
000003d0: 9007 823d 3367 48bd ba54 033e 4432 d13d
000003e0: c036 10be fa62 013e e9f6 1f3d e01e a9bb
000003f0: 1c19 c7bd 6fe6 54bc ed84 dfbd a3c0 f8bd
-0.02656329 -0.011922565 0.06396471 -0.023644412 -0.12587646 0.1091332 0.10823826 -0.17183657
0.04577643 -0.16174851 0.020729715 -0.09407329 -0.031370513 -0.101281434 -0.05051803 0.12701303
0.090058215 -0.11316116 -0.0026474234 0.03247848 0.13875876 -0.08538864 -0.15506159 0.058188356
-0.13125822 -0.040591884 -0.08446324 -0.16192226 0.12270048 -0.10296856 0.120504946 0.113942616
0.08642156 0.111454636 0.1445827 -0.016469654 -0.1489407 0.149034 -0.14915727 -0.021917919
-0.17177363 -0.087433994 0.10632599 0.13057047 -0.04633937 0.023400519 0.07010479 -0.010330913
0.12229714 -0.17367731 0.13719037 0.07440875 -0.15925267 0.043839384 0.13298011 0.0066310586
0.00047782625 0.056060776 -0.15647714 -0.018247956 -0.024194056 -0.053028237 -0.059613947 -0.16706228
0.051947404 0.16328074 0.080550216 0.05246106 0.1752884 0.15498947 -0.1637272 -0.11657493
0.10710206 -0.14056599 0.11964775 -0.033507187 0.06958032 0.033302024 0.14103694 0.026979793
-0.01822105 -0.16357277 -0.107393555 -0.015048034 0.052746307 -0.07608158 -0.15873241 0.047014628
-0.015971364 0.040394187 0.09381306 0.069837995 0.12562755 -0.04739203 0.14202368 -0.1213882
-0.17650223 0.12283675 0.081753224 -0.1185558 0.15631945 0.048812892 0.09752518 0.021469994
-0.06717909 0.111101784 0.00477885 -0.08145162 -0.098804 -0.11347192 0.09426928 -0.08179828
0.07475297 0.15548636 0.16972712 -0.008582107 -0.07191005 0.12083551 0.015582379 -0.08742996
-0.059614748 -0.048755035 -0.14079438 0.15391806 0.09560202 0.026629532 0.059679605 -0.006344159
0.12687539 0.14842252 -0.08262772 0.09782573 -0.1298558 -0.12732513 0.072218895 0.0066682315
0.07394129 0.107018724 -0.021697357 -0.05020698 0.17078319 0.16389664 0.102638826 0.113724485
0.053937715 0.09384593 0.14449863 0.052921638 -0.07421901 0.120663546 -0.16723783 -0.007077728
-0.08601314 -0.06970963 -0.15666915 0.014204602 -0.015414651 0.15032451 0.10552946 -0.038202565
0.017670624 0.06788383 0.129227 -0.16662726 -0.11115217 -0.14277972 -0.10019068 -0.06740027
-0.056427833 -0.16842188 -0.037973676 0.008808344 0.07261049 -0.11207888 -0.04620425 -0.08239124
0.12800296 0.07575949 0.14989343 -0.13213493 -0.011188066 0.1314493 -0.032885537 -0.08786954
0.09712659 0.009222136 0.14295669 0.14255987 0.003090408 0.09003112 0.024405036 0.1495892
0.045787882 -0.1516869 -0.039763924 -0.03664859 0.009667173 0.0065117497 0.07595079 -0.10076336
0.14200139 0.1373395 0.010206738 -0.0022348799 -0.052062754 0.1331634 -0.084348075 0.15746264
0.006025479 0.04807058 0.16153087 0.17186084 0.0920093 -0.1565104 0.07381332 0.076453015
-0.13110879 0.00688954 0.05750028 0.08214388 -0.17090018 0.1647194 -0.16634671 -0.058057554
0.095935114 0.0034701286 0.09449181 -0.09661375 -0.020196011 -0.1406283 0.021539196 0.10404538
0.036487766 0.0597653 0.009519246 0.1505331 -0.03086393 -0.14266236 0.033308443 0.0022683165
-0.091542006 0.068298236 -0.09783951 0.15449892 0.06349099 -0.048926543 0.1282529 0.102146655
-0.14083385 0.12635413 0.03905383 -0.0051611513 -0.09721586 -0.012994393 -0.109140255 -0.121461175
