output/SocialGood-MoME/ts_encoder_epoch5.pt (torch, 362284 bytes, 34 tensors)

proj.weight f4 [32, 4]
000000 5b c1 bd be d0 a1 e4 3e 74 28 5e 3e 7d b3 10 be
       -0.3706158 0.44654703 0.21695119 -0.1413097
000010 ef 4e 94 3e 73 4d 63 be b9 23 80 be 71 fc c4 3d
       0.28966472 -0.22197513 -0.25027254 0.09618462
000020 3d 26 63 bc fb ee c7 be 21 ee ba 3d 5f cc 0c be
       -0.013864097 -0.39049515 0.09127451 -0.13749836
000030 f2 d8 98 3e b2 8f 03 bf 04 17 f4 3d 86 a9 d1 3e
       0.29853016 -0.51391137 0.119184524 0.4094965
000040 92 b4 71 be e7 d4 88 3d 86 6f ad be dc ff 09 3e
       -0.23604038 0.06681233 -0.33874148 0.13476509
000050 e3 78 b7 be 6d 5d 40 be b9 52 9a be a3 6d f2 3e
       -0.35834417 -0.18785639 -0.30141237 0.4734927
000060 dd 97 fb 3e 0c b7 a9 bd 5e fa c6 be cd e6 19 be
       0.491393 -0.082868665 -0.3886289 -0.1502945
000070 3c 5a 2a be ee b7 6f 3d 7f 26 37 be 63 61 01 3f
       -0.16635984 0.05852502 -0.17885779 0.50539225
000080 25 0d a3 be 3f a0 00 3e be 27 0f 3e cd 1f 02 3b
       -0.31845966 0.12561129 0.13980004 0.001985538
000090 1b 71 23 3e df 7a f0 3d 72 2a b4 3e 54 0f 9e bd
       0.15961115 0.11742186 0.35188633 -0.07717767
0000a0 62 2e 3e 3e 2a 83 4d 3e 75 21 d9 3d e9 c1 75 bd
       0.18572381 0.20069566 0.106020845 -0.05999938
0000b0 b6 ea 12 3e 66 da b9 3e f8 c5 d8 3e 1d 88 af 3e
       0.14347348 0.36299437 0.42338538 0.34283534
0000c0 34 62 39 be 17 d8 ed be ed c0 0c be 4b 7b 5c 3e
       -0.18103868 -0.46453926 -0.1374547 0.21531408
0000d0 6f ff 8b be 44 8a 95 be 64 de 86 be aa e7 97 be
       -0.27343318 -0.2920705 -0.26341546 -0.29668933
0000e0 8c a7 f7 3e f2 e5 62 3d d1 bc f7 bd 40 8c 31 3e
       0.48370016 0.055395074 -0.12096561 0.17338657
0000f0 56 4d ad bd 8d 88 cb 3d ec a1 ae 3e 05 25 b7 be
       -0.08462016 0.09938154 0.34107912 -0.3577043
000100 f1 55 0b 3e c0 4a d9 3e f8 eb d8 bd 6c 35 57 3e
       0.13607003 0.42439842 -0.105918825 0.21016473
000110 2b 34 d4 be e3 f2 06 bf 7e 66 f6 be 4d 91 ed 3d
       -0.4144605 -0.52714366 -0.4812507 0.115999795
000120 4f 8d 77 be ab 0b 4c 3d 67 d5 9f 3e b8 49 e0 3d
       -0.24174999 0.049815815 0.312175 0.10951561
000130 cf 9e 89 3e 17 11 f1 bd d3 07 0b be 69 e7 85 be
       0.26878974 -0.11770838 -0.13577203 -0.26153114
000140 69 a9 f6 be fe e7 99 3a 9d 53 a0 be f6 67 b8 be
       -0.48176125 0.0011742113 -0.31313792 -0.36016816
000150 54 94 38 3e 64 1a f9 3e e5 12 66 3e e2 5e 97 bd
       0.18025333 0.48652947 0.22468145 -0.07391144
000160 a5 a4 d9 3e 98 36 c6 be 56 0e fd bc e4 3d a7 3d
       0.42508426 -0.38713527 -0.030890625 0.081661016
000170 8e 26 e0 be d7 e1 29 be 2e f0 bd 3e ef 09 2d be
       -0.43779415 -0.16590057 0.37097305 -0.1689832
000180 f6 51 d5 be da c7 0d be 8d 27 3e 3d bf 88 69 3e
       -0.41664094 -0.13845769 0.046424437 0.2280607
000190 98 0b b2 be 76 71 d6 be ab 26 66 3c cd 03 b8 be
       -0.3477447 -0.4188344 0.014047305 -0.359404
0001a0 c6 a9 41 be ce 0c f1 3e 2d 9a 20 be 8e a3 5d 3e
       -0.1891242 0.47080082 -0.15683813 0.21644422
0001b0 1a 96 9d be 35 e0 8a be c3 1d 78 3e b2 70 d0 3e
       -0.3077858 -0.2712418 0.24230103 0.4071098
0001c0 cd ac 01 3f ab 1e 91 be ed 78 01 3f a2 b4 e0 3e
       0.506543 -0.2834371 0.50575143 0.43887812
0001d0 35 a4 9d bd d3 dc c3 3e b0 64 d7 be 09 4e 81 be
       -0.07697336 0.38254413 -0.42069006 -0.2525485
0001e0 7c 6e 5b be 69 af b0 be 6d d0 92 be 88 cd 43 be
       -0.21428865 -0.34508827 -0.2867464 -0.19121373
0001f0 65 1c 06 3f 52 dc 43 3c 41 d4 aa be ec 80 ae be
       0.52387077 0.011954384 -0.33365062 -0.34082735

proj.bias f4 [32]
000000 d1 24 03 3f 48 4a a3 be fd 6c d5 3e 83 eb 05 3f
       0.5122805 -0.3189261 0.41684714 0.5231249
000010 94 43 f0 be a8 4c 26 3e d8 eb c5 3e 9c 2e df be
       -0.46926558 0.1624018 0.38656497 -0.43590248
000020 5d f3 7f be d3 bf e3 bd 62 5b 45 3e 6c b1 a9 be
       -0.2499518 -0.11120572 0.19273141 -0.33143175
000030 4f fa 22 3e d8 84 05 3e 51 ab d0 3e 0d a0 df be
       0.15915798 0.13038957 0.40755704 -0.43676797
000040 f6 09 f5 3e 9d 2c 8f be a2 9c 8f bd a8 88 3c 3e
       0.47859162 -0.27963725 -0.07012297 0.18411505
000050 b9 b2 04 bf 85 51 cb 3d 01 bc 03 bf 8f 68 fd bd
       -0.5183521 0.09927658 -0.51458746 -0.123734586
000060 51 99 89 be ff 70 7f be 24 35 42 be 54 57 47 3e
       -0.26874784 -0.24945448 -0.18965584 0.19466907
000070 1a 15 4b be 1a 16 8a 3e 60 57 db 3d ea 75 fd be
       -0.19832268 0.26969987 0.10710025 -0.49504024

EiLM.0.gamma_generator.weight f4 [1, 32]
000000 7c c0 4f be ab 08 f6 3c 76 d8 19 3e a0 72 17 bd
       -0.2028827 0.03003343 0.1502398 -0.03697455
000010 fc ab 01 be 06 52 ca 3d 71 96 26 bd 24 30 26 bd
       -0.12663263 0.09878926 -0.040670816 -0.040573254
000020 f9 a5 7c 3d 0d 9a d0 3d 4e cc 10 3e 6d 4b 4c 3c
       0.06168172 0.10185633 0.14140436 0.012469155
000030 3c 8c 1f 3e 3b 98 a0 3c 86 52 ed 3d c5 26 12 be
       0.15580839 0.01960384 0.11588006 -0.14272602
000040 35 df 41 3e f9 2b cf 3d c6 7e 40 3e f9 d0 26 3e
       0.18932803 0.10115809 0.1879836 0.16290654
000050 24 47 14 3d bf 72 b1 3c 1e 29 a4 bd e1 dc 72 3d
       0.036200657 0.02166116 -0.08015655 0.059292678
000060 33 55 97 3d 10 ef 37 3e 43 58 07 3c bd f3 4b 3e
       0.07389297 0.17962289 0.008260789 0.19917198
000070 cc 81 75 3c e1 ca f9 3d b0 43 53 be 3e b0 c3 bd
       0.014984559 0.12196899 -0.2063129 -0.095551

EiLM.0.beta_generator.weight f4 [32, 32]
000000 09 10 04 be 61 cb b6 3d 7c 5f 22 3e 32 53 56 3c
       -0.12896742 0.0892551 0.15856737 0.013081359
000010 48 5a 95 3d 0a 5f b7 bd f2 d6 f6 bd 8e 58 2f 3d
       0.072926104 -0.08953674 -0.12052716 0.04280906
000020 54 77 41 bc df 9b 74 3d 13 2e 10 3d 3f 7c e8 bc
       -0.011808235 0.059718963 0.03520019 -0.028379558
000030 8b 50 c1 3d fd 3d c1 3d ed 37 be bd 77 22 44 bd
       0.094391905 0.094356515 -0.09288011 -0.04788443
000040 09 94 08 3c a1 ed d8 3d 92 ee 0d 3d 7e 40 1a bd
       0.008336076 0.10592199 0.034651347 -0.03765916
000050 ed 5f c3 bd dc 4c 09 3e 82 8d 8c bd d6 81 3e 3d
       -0.09539781 0.13408226 -0.06862928 0.04651054
000060 e7 47 f2 bd 71 33 ee 3c b5 69 fe bd b3 0c 96 3b
       -0.118301205 0.029077264 -0.12422506 0.0045791506
000070 cf f0 a0 3c 5b 5d 14 3e 09 70 37 3b 0f 84 63 3b
       0.019646076 0.14488737 0.0027990362 0.0034716164
000080 c1 c7 dd 3d d4 16 0a 3e f8 10 a0 bd 68 e2 da bc
       0.10829116 0.1348527 -0.078157365 -0.026719287
000090 00 db c4 3b cb 3c d2 3c a2 13 94 3d 36 ec 0b bc
       0.006007552 0.025663754 0.07230307 -0.008540204
0000a0 23 76 67 3d 8a c0 26 bc 18 ad 15 3e 05 09 24 3e
       0.05650915 -0.010177741 0.14616811 0.16019066
0000b0 a3 7f d3 bd e8 95 9f bd d4 23 23 3d 5b 31 29 be
       -0.10327079 -0.07792264 0.03982909 -0.16522734
0000c0 5f cb b7 bc d4 bb cc 3c c6 30 b5 bd f1 2f 0f 3e
       -0.022435842 0.024991907 -0.088471934 0.13983132
0000d0 f3 ab 49 3d be 27 0e 3e 15 df d8 3d f2 1b f9 bd
       0.04923625 0.13882348 0.105894245 -0.12163533
0000e0 ed b9 1e be 8e f7 28 be 6a e6 fd 3d ef 5e 1f be
       -0.15500613 -0.16500685 0.123974636 -0.15563558
0000f0 9e b5 b3 bd 84 36 b3 bd 49 f0 9a bd 7e ac 79 3d
       -0.08774875 -0.087506324 -0.07565362 0.060955517
000100 37 31 7c 3d 80 72 23 be 5e f2 eb 3d f6 3f 63 3c
       0.061570372 -0.15961647 0.11520837 0.01387023
000110 bc 5c 01 3d 61 fa c3 3c e7 61 5d 3d b5 e1 17 3d
       0.03158258 0.0239231 0.054048445 0.037080485
000120 15 95 bf bd 49 ae 33 3e 9d d8 22 3e 61 8d 57 bc
       -0.09354607 0.17546953 0.15902944 -0.013156266
000130 84 44 1a 3e fe 53 23 be 50 2c 3c 3d 11 70 28 be
       0.15065199 -0.15950009 0.045940697 -0.16449
000140 d6 aa 33 3e fb 22 01 be b8 c9 20 3e 5b d3 98 bc
       0.17545637 -0.12611 0.1570195 -0.01865547
000150 be 8b d4 bc 4b fc f0 3d 9c b4 d6 3d 3f 31 9c bb
       -0.02594554 0.11766871 0.10483667 -0.004766613
000160 25 98 ff bd dd 9c 08 3e fb f5 0a be 37 b5 05 3e
       -0.12480191 0.13341089 -0.13570397 0.13057409
000170 7d 9a bb 3d 6d c9 25 3e e7 06 86 bc e9 fd dc 3c
       0.09160326 0.16190119 -0.016360713 0.026976543
000180 ce e4 33 3d bf 3a af bd d8 37 1a be 97 1c 91 bd
       0.043919377 -0.08556127 -0.15060365 -0.07085531
000190 74 1b a0 bd 7f 73 66 bd 8d d4 7e bd 6a 13 1e be
       -0.07817736 -0.05626249 -0.062214423 -0.15437093
0001a0 c0 20 2e be 69 57 32 3d f0 dc 0f 3e d2 ea de bd
       -0.1700468 0.043540392 0.14049125 -0.10884632
0001b0 dd 39 a4 bd b9 fd 23 be fb ea 2d be 59 a6 35 be
       -0.08018849 -0.16014756 -0.16984169 -0.17739238
0001c0 32 3f 1f bd e0 a7 23 bd b9 e3 b7 bd f7 3d a0 bb
       -0.038878627 -0.03995502 -0.089789815 -0.0048901993
0001d0 f9 af cc bd 99 f9 1c be 2c 51 3d be 97 f2 9f bd
       -0.099945016 -0.15329589 -0.18487996 -0.07809942
0001e0 e6 76 88 3d b0 86 83 3d 52 8f c3 3d 6d 31 d2 bd
       0.06663303 0.06422174 0.095488206 -0.102633335
0001f0 ab 42 f6 3d 58 1c d0 bc b3 18 cb 3d 07 10 d1 bc
       0.12024435 -0.02540414 0.099168204 -0.025520338
000200 f3 50 0f 3e 05 a4 8b 3d 85 4d 1b bc 74 ed 11 be
       0.13995723 0.068183936 -0.009478931 -0.14250737
000210 66 e7 08 3c ac 70 17 3e c7 f0 d6 3c f6 e9 9a bd
       0.008355951 0.14789075 0.026237858 -0.07564156
000220 5b fa 22 3e cc 00 8d bd 38 da 60 3d 91 b6 81 bc
       0.15915816 -0.068849176 0.05489561 -0.015834125
000230 59 55 71 bd b1 64 de 3d f1 d1 11 be 1d 73 68 39
       -0.058919284 0.10859049 -0.14240243 0.00022168127
000240 e1 44 17 be 8e 77 52 bd 74 83 d4 bc c4 8d 5d 3c
       -0.14772369 -0.051383547 -0.025941588 0.013522569
000250 19 b5 0e 3e 40 60 21 be f2 8a 41 bd 5a 7c f9 bd
       0.13936271 -0.15759373 -0.04725165 -0.12181921
000260 17 9c 05 be 68 42 db bd ab db 9b bd 0d 9f 9b 3d
       -0.13047825 -0.10706025 -0.07610258 0.07598696
000270 bf b1 5e 3d 4b 58 5a bd 4d 15 e8 bd af 75 7e 3d
       0.05436873 -0.05330686 -0.11332188 0.06212395
000280 d2 fb 1e 3e 1e a7 25 3e 12 35 0b be 86 34 3a 3b
       0.1552575 0.16177031 -0.13594463 0.0028412654
000290 f6 be b9 3c d7 2f 8a 3c e7 ce d7 3d 1b 9e 87 bc
       0.022674065 0.016868515 0.1053751 -0.016554883
0002a0 13 f9 22 3e 1e 34 81 3d 9c 31 0b 3e a5 f6 20 be
       0.15915327 0.06308769 0.13593143 -0.15719087
0002b0 e5 27 2c be f6 e0 a8 bc d7 af 77 bd e7 e4 2c be
       -0.16812094 -0.020615082 -0.06047043 -0.16884194
0002c0 c8 f8 b4 3d 86 94 ed 3d 88 69 4b 3d 35 f7 29 3e
       0.08836514 0.11600594 0.04966119 0.16598208
0002d0 50 1e 4b 3d 4a e7 18 bd 08 ae 21 bc 30 4f d8 3d
       0.049589455 -0.03732995 -0.009868152 0.10561979
0002e0 34 d2 2b bd 45 49 23 be 40 33 b1 3d f3 bc 76 bd
       -0.041948512 -0.15945919 0.08652353 -0.06023879
0002f0 6d 04 3b 3e 38 76 93 bc 77 bb f2 3d 4c 90 12 39
       0.18263407 -0.018000707 0.11852162 0.000139774
000300 0a 88 da bd 4f ff e4 bd 23 96 66 3d 09 17 98 bc
       -0.10670479 -0.11181509 0.056295525 -0.018565672
000310 8b d2 1f 3e 4b a0 2e 3e 88 aa 1c 3e 1f f2 06 3b
       0.1560766 0.17053334 0.15299428 0.0020591093
000320 81 5d b4 3d 4e 60 27 be 71 c6 08 3e a7 1c 19 3e
       0.08806897 -0.16345331 0.1335695 0.14952336
000330 d4 1b 4b bd 4e 4b 97 3d ac 50 2d bd 6d 3a 25 be
       -0.049587086 0.0738741 -0.042313263 -0.16135569
000340 8d a6 aa bd 21 45 5e 3d 55 b4 a7 3d 06 9f ca 3d
       -0.08332548 0.054265145 0.081886925 0.098936126
000350 e4 22 15 be ec 32 4e 3d 7a 45 bd 3c aa db 9a bd
       -0.14564091 0.05034153 0.023104418 -0.07561429
000360 97 6c e4 3d 8e 75 87 3d 29 76 21 3e 5e b9 bf bd
       0.11153524 0.06614219 0.15767731 -0.09361528
000370 9d c3 c0 3b 76 bb 61 3d 95 30 c0 bd 29 6b e2 3c
       0.005882694 0.055110417 -0.09384266 0.027638989
000380 5b 28 ce 3d 8f 36 18 bd 9d 35 7c bd 3b c9 15 3d
       0.10066291 -0.037161406 -0.061574567 0.03656886
000390 6d da 93 bd b3 e6 0a 3e d5 1c 24 3e 39 e8 02 3e
       -0.07219396 0.13564567 0.16026624 0.12783898
0003a0 d8 3b 19 be 3d 5c 29 3d 65 18 03 be ea 0a a1 3d
       -0.14964235 0.04134773 -0.12802275 0.0786341
0003b0 d3 1c 18 3e 47 65 c7 bd 68 da ed 3d 10 37 c0 bd
       0.14854746 -0.09736114 0.11613923 -0.09385502
0003c0 25 f0 4c 3e 2e e4 97 bd 36 38 d6 bd ea 45 1e 3e
       0.20013483 -0.07416569 -0.1045994 0.15456358
0003d0 66 2e 42 3e 36 44 97 bd 92 3a c0 3d 5b bc fc 3d
       0.18963012 -0.07386057 0.093861714 0.123406135
0003e0 04 4f 0d bd c1 4e e3 3d 46 f8 36 be ef 1d 94 bd
       -0.034499183 0.110990055 -0.17868146 -0.07232272
0003f0 ff 42 18 3e 61 67 35 3c 46 ad 24 be 62 ac 5d 3d
       0.14869307 0.011072011 -0.16081724 0.054119475

EiLM.1.gamma_generator.weight f4 [1, 32]
000000 1d b4 b9 ba 3a 77 bc bd b2 58 f6 3d 9a 50 a6 bc
       -0.0014168058 -0.09202428 0.12028636 -0.020302106
000010 c6 ba a3 bd b1 a0 0c 3e 2b ef 15 be fc a7 02 bd
       -0.079946086 0.13733174 -0.14642017 -0.031898484
000020 d5 a9 a7 3d 4e 69 1a be ba 04 d4 3d 59 40 7b 3d
       0.0818669 -0.15079233 0.10352464 0.061340664
000030 31 0a f2 3d c7 17 1a 3e 67 07 0e be 80 6d 66 3d
       0.1181835 0.15048133 -0.13870011 0.05625677
000040 2b 4e 31 3d 27 da 1a be 64 06 59 be 4a bb 77 3d
       0.043287437 -0.15122281 -0.21193844 0.060481347
000050 7d 60 57 be 4f 9b 33 bd 78 b9 3a 3e 11 b3 6c 3d
       -0.21032901 -0.043849286 0.18234813 0.05778796
000060 55 66 9b 3d c3 69 b1 bd 57 ed 17 3e 30 40 2a 3d
       0.07587878 -0.086627506 0.14836632 0.04156512
000070 8a 6a 67 bc 93 ea 6c 3e 36 1a ce bd d1 1f 28 3e
       -0.014124522 0.23136358 -0.10063593 0.16418387

EiLM.1.beta_generator.weight f4 [32, 32]
000000 a7 c4 36 be ae ab 0e be 74 45 09 3e dd e3 35 3e
       -0.17848454 -0.13932678 0.134054 0.17762704
000010 3e f8 10 be ac a6 41 be f2 90 9c bd 70 2d 94 bd
       -0.14157197 -0.18911237 -0.076448336 -0.07235229
000020 19 2e 13 3c 90 05 0a bc b3 5a a9 3d 0f 3c 46 be
       0.0089831585 -0.008424178 0.08269253 -0.19358848
000030 6d 53 81 bd c4 8f 20 3d 8d 8e 11 be b1 25 05 3c
       -0.0631474 0.039199606 -0.14214535 0.008126662
000040 fe 4c 1d be 16 81 0e 3e 35 e1 2e bc c9 e2 26 3e
       -0.15361401 0.1391643 -0.010673811 0.16297449
000050 36 bc 40 3e 95 20 94 bd a7 d9 63 bc ce 99 08 be
       0.18821797 -0.07232777 -0.013906873 -0.13339922
000060 64 21 ae 3d 16 0d 0a 3e 54 f7 a2 bc 8b e1 ed bd
       0.085024625 0.13481554 -0.019893326 -0.116152845
000070 20 b6 12 be ec 50 08 bd 1a d1 82 bd c1 73 3a be
       -0.14327288 -0.033280298 -0.06387539 -0.18208219
000080 ba cc 00 be ca 9d e8 bd 0b 89 c8 3d 74 a5 10 3e
       -0.12578097 -0.11358221 0.09791764 0.14125615
000090 11 8e 97 3c b3 d8 84 3c f9 0f 1c 3e 35 1a 90 3d
       0.01850036 0.016216611 0.15240468 0.070362486
0000a0 b8 d6 cc 3d c8 5c e5 bd a9 2e bc bd 0a e9 41 3d
       0.10001892 -0.11199337 -0.09188587 0.047341384
0000b0 aa 61 c0 bd e6 1d 1e be 26 46 08 be 07 74 b5 3d
       -0.09393628 -0.15441093 -0.1330801 0.08860021
0000c0 ba 92 70 bc 62 46 b8 bc 70 80 f6 3d 06 41 ca bd
       -0.01468342 -0.022494499 0.12036216 -0.098756835
0000d0 5b e6 44 3d 16 ba 3c 3e 3f 8e 5f 3d 0e 1a d1 bd
       0.048071247 0.18430361 0.054579016 -0.10210048
0000e0 b7 b9 d1 3d 4d 59 dd bd 74 66 ce bd 2f a0 a1 3d
       0.102405004 -0.108080484 -0.10078135 0.07891881
0000f0 44 3d 8e bd 40 1d cf 3d b9 01 9a 3d dc 1b 85 bd
       -0.06945279 0.10113001 0.0751986 -0.064994544
000100 82 99 a0 3d 3f 95 cc 3d e4 0b e0 bd ad 1b df 3c
       0.07841779 0.09989404 -0.10939768 0.027234877
000110 7a 38 df 3c 44 9b 97 bd ff b6 3e bd 65 cf d4 3d
       0.02724861 -0.074026614 -0.046561237 0.1039112
000120 4b 46 ba bd 16 e2 a4 3d 22 28 b8 bc 81 c2 6d 3d
       -0.090954386 0.08050935 -0.022480074 0.05804682
000130 c0 54 be bd 3c 33 81 3b f3 2e 32 3e bd 6d b9 3d
       -0.092935085 0.003942875 0.17400722 0.09054134
000140 eb 0e 50 bc 7a 6d e2 bd 64 4a e5 3d 89 84 13 be
       -0.012698869 -0.11056037 0.111958295 -0.14406027
000150 81 19 42 3d 92 eb ac 3c a0 97 e4 3d f5 7c 86 bd
       0.047387604 0.021108422 0.11161733 -0.065668024
000160 0c 87 09 3e 85 30 2c 3e 0c f8 04 be ae 36 bb 3d
       0.13430423 0.16815384 -0.12985247 0.09141289
000170 f7 40 1c be 3a 91 28 bd 8b af 07 3e f5 d0 a8 3c
       -0.15259157 -0.041154124 0.13250558 0.020607451
000180 05 eb 3e bd ea 07 51 bb 2f 3f e0 bd a3 c4 0f 3e
       -0.04661085 -0.0031895586 -0.10949551 0.14039855
000190 bc 62 bb 3d 24 43 1a 3e 44 4b 11 be 69 31 25 3e
       0.091496915 0.15064675 -0.14188868 0.1613213
0001a0 71 ad a2 3d 24 bc b7 3c a2 69 1a 3e 8c 98 34 3e
       0.079432376 0.02242858 0.15079358 0.17636317
0001b0 85 44 1d be c0 b0 de bd 2d 16 ac bd f1 6e 81 3c
       -0.1535817 -0.10873556 -0.08402667 0.015799971
0001c0 40 5d d3 bd ee bf ce 3d b8 8e a7 bc cc 8c b9 3d
       -0.103205204 0.100952014 -0.020453796 0.09060058
0001d0 6a 4c 1a 3d bf 4d b8 3d af e3 7b bd 82 e7 1c be
       0.03767053 0.08999204 -0.061496433 -0.15322688
0001e0 2b ba 0b 3c 2b 4b ad bd 2f 17 a6 bd 49 c9 56 3d
       0.008528273 -0.08461603 -0.08109891 0.052438054
0001f0 df 04 07 be 59 bb 17 3e 39 c4 c2 3d 81 02 30 3e
       -0.13185452 0.14817561 0.09510083 0.17188455
000200 3c e0 da bd e6 d7 8b bd 67 0a a9 3d 46 e1 d7 3d
       -0.106873006 -0.06828289 0.08253937 0.105410144
000210 f0 e1 01 be 0f a5 36 3d 47 3a 36 3e c9 8a 95 3d
       -0.12683845 0.044591006 0.17795669 0.07301862
000220 a1 86 4a bd 94 7b bf 3d 8f 63 03 be 67 0f b0 3c
       -0.0494448 0.093497425 -0.12830947 0.02149172
000230 2f 19 2a 3e 03 ee 91 3d 3d b3 14 3e 96 a8 45 bd
       0.1661117 0.07125475 0.14521499 -0.04825648
000240 ff 20 9d 3d 2e b9 11 3e c3 e5 2c 3e ee 76 e0 bd
       0.07672309 0.14230797 0.16884522 -0.10960184
000250 3d 69 21 bc ed f4 d3 bc 7e 87 a1 3d 25 6f 7c 3d
       -0.009851751 -0.025873626 0.07887171 0.061629433
000260 f4 d5 d8 3d 97 73 bc 3d d9 ab fe bd d6 41 36 3e
       0.10587683 0.092017345 -0.12435121 0.17798552
000270 3b 6b 10 3e 41 6a 64 3c 9a 86 37 be 01 4f e4 3c
       0.14103405 0.0139413485 -0.1792244 0.027869703
000280 c4 0f 06 be e0 b4 c6 3c 37 1a de bd c1 9f 37 3d
       -0.13091952 0.02425617 -0.10844844 0.044830088
000290 b2 a4 19 be ec c8 73 bc a5 f8 cf 3d 23 33 88 3d
       -0.15004233 -0.0148794465 0.10154847 0.066503786
0002a0 95 1c 00 3e ce 7d dd 3d 2c c5 0f be 86 95 e0 bd
       0.12510903 0.10815011 -0.14040059 -0.10966019
0002b0 3a a6 2f be 2f c8 ae 3d 5a 9c ef bb 01 3e 40 be
       -0.17153254 0.08534276 -0.0073123397 -0.18773653
0002c0 d8 21 54 bd 12 1c c0 bd 5f 7b 23 3d 90 55 99 3d
       -0.05179009 -0.09380354 0.039912578 0.07487023
0002d0 80 b9 51 3c 2e c7 8a bd 54 d1 43 bd 1e 3a fd 3d
       0.012800574 -0.06776272 -0.047807053 0.123646006
0002e0 47 01 d4 3d 12 e9 6e 3d 7d da 22 be 4f c3 60 3c
       0.10351806 0.058327742 -0.15903659 0.01371844
0002f0 fb 36 c8 3c 29 4e fb bc 21 81 20 be 9a c0 34 be
       0.02444028 -0.030676918 -0.15674259 -0.17651597
000300 31 71 9f bd a3 64 b6 3d 0a 5b 88 3d 33 ce ca bc
       -0.077852614 0.08905914 0.06657989 -0.024756527
000310 8f 48 9a bd c1 72 8e 3d 1b 11 aa 3d 67 0a fb bd
       -0.07533371 0.06955481 0.08304044 -0.122578435
000320 3a 96 94 bd 04 ce 9d 3d ef 96 26 be f3 0b 21 be
       -0.07255216 0.0770531 -0.16268514 -0.15727215
000330 05 a7 83 bb 39 bd 82 3d 44 89 0f be a8 cc 92 bd
       -0.004017713 0.063837476 -0.14017206 -0.07167941
000340 8c 38 58 bc 6c c1 2f be 6c f7 c8 bd ff 94 e8 bd
       -0.013197076 -0.17163628 -0.09812817 -0.11356544
000350 b5 22 fb 3d 97 49 f6 bd c5 a4 f5 39 81 1d 93 3d
       0.12262479 -0.12025755 0.00046852804 0.07183362
000360 a0 f9 21 3e ee 35 0e 3d c6 e7 25 bd b9 42 df bc
       0.1581788 0.0347194 -0.04050424 -0.027253496
000370 8a 2f b5 bd 19 95 04 be da b2 94 bd 09 b2 29 bd
       -0.08846958 -0.12947501 -0.07260676 -0.041429553
000380 c5 93 0a be 56 7f 03 bc 7d 7c 1c 3d f2 5b b3 3d
       -0.13532932 -0.008025965 0.03820466 0.087577716
000390 6e f2 26 3e ca 57 fa 3d 19 88 04 3e 96 9c 3d 3e
       0.16303417 0.12223776 0.12942542 0.18516764
0003a0 f1 7a e2 3d b5 80 db 3d fb ca 15 be 50 b7 2d 3e
       0.110586055 0.10717908 -0.14628212 0.1696446
0003b0 92 82 bf bc 5a f4 cc 3d 54 39 fd bd a6 f7 20 be
       -0.02337769 0.10007544 -0.1236445 -0.1571947
0003c0 cb 2e 95 bd dc 46 2b be 2a 8c 88 3d 2e 77 f6 bd
       -0.07284316 -0.1672625 0.06667359 -0.120344505
0003d0 3b 1f 97 bc c1 30 20 3e ea 8f 01 3d 16 2d b3 3c
       -0.018447509 0.15643598 0.031631388 0.021872085
0003e0 b7 37 24 3c 40 ff b3 bd 6f 3a 41 3d 9e a0 02 be
       0.010023049 -0.087889194 0.047174867 -0.12756583
0003f0 84 90 af bd da 49 07 3e 67 83 3d 3e 3d b7 05 3e
       -0.08572486 0.13211766 0.18507157 0.13058181

EiLM.2.gamma_generator.weight f4 [1, 32]
000000 5f 74 24 3e c8 59 da 3d 88 de 0b be 1d 9a bb bd
       0.16060017 0.10661656 -0.13659108 -0.09160254
000010 32 44 2f 3e ea bf 4f 3e d8 f0 d4 bc 9e a0 f6 3c
       0.17115858 0.20288053 -0.02599375 0.030105885
000020 26 25 72 bd 37 1b 27 be 16 73 8d bd 06 ad 48 3e
       -0.05911746 -0.16318975 -0.069067165 0.19597253
000030 bf 64 ce 3d 92 03 55 3e 74 92 f5 3d fd c1 28 3e
       0.100778095 0.20802143 0.11990824 0.1648025
000040 dc 0c 95 bd b8 bf e7 3d 7c 23 89 bc 30 59 b9 bd
       -0.07277843 0.11315864 -0.016740553 -0.09050214
000050 89 23 61 be 4b 2d 08 be 47 42 37 bc 7b 0a 25 be
       -0.21986212 -0.13298528 -0.011185235 -0.16117279
000060 65 47 27 3e 47 0a 8c 3d 8e 02 a9 3a e3 37 a4 bd
       0.16335829 0.06837898 0.0012894438 -0.08018472
000070 0c 86 83 3d 7e a3 b3 3d 27 af 64 3e 96 cf 07 3c
       0.06422052 0.08771418 0.2233244 0.008289238

EiLM.2.beta_generator.weight f4 [32, 32]
000000 43 17 b7 bd c2 f8 d5 bd 0a 97 72 bd 5a 3a 88 3d
       -0.08939984 -0.104478374 -0.059226073 0.06651755
000010 e3 72 21 3c 77 35 38 3e f5 70 03 3e 2d 32 b2 bd
       0.009854051 0.17989145 0.12836058 -0.087009765
000020 ee e9 30 3d 72 45 eb bd c0 e9 2b 3e cb 53 85 3c
       0.043191843 -0.11487855 0.16788387 0.016275307
000030 ce 08 aa bb 23 9a 1b 3e b3 45 31 3c 78 ce b6 bd
       -0.005189038 0.15195517 0.01081984 -0.089260995
000040 fd a0 ee bd 2d 1d b3 3d 57 4f 9e 3d 13 86 28 bb
       -0.116518 0.08745799 0.077299766 -0.002571468
000050 10 ce 36 be 64 db a7 bb cc 86 31 be 52 bb 1b be
       -0.17852044 -0.005122589 -0.17336577 -0.15208176
000060 25 a6 1c 3d 77 9b ae bd 45 40 3b bd 30 48 9c bd
       0.038244385 -0.08525746 -0.04571559 -0.07630956
000070 8d d2 02 bd 82 e6 0a be a8 0d 10 3e 2f 94 35 3d
       -0.031939078 -0.13564494 0.1406771 0.044330772
000080 7f 48 32 bc 01 0f a3 3d 67 13 a3 3d 87 4a 03 be
       -0.010881542 0.07961846 0.07962685 -0.12821399
000090 dd 92 31 be 3f 1b a1 bd 3b c1 af 3c 06 af 73 3d
       -0.1734118 -0.07866525 0.021454444 0.059493087
0000a0 3b e9 fc bc 73 1d 27 3e 25 c6 85 3d 36 32 2d be
       -0.030872932 0.16319828 0.06531934 -0.16913685
0000b0 36 2b 41 bd f8 1c 77 bd 98 6c 20 3c ba 2b dc bd
       -0.04716035 -0.06033036 0.009791516 -0.10750528
0000c0 2c 3e a5 3d d5 d7 34 3e 72 a2 29 3e 79 39 f1 3b
       0.08068499 0.17660458 0.16565874 0.0073615876
0000d0 93 97 23 3e bb 21 1d 3e 3e 9d a1 bd aa 09 19 be
       0.1597579 0.15344898 -0.0789132 -0.14945093
0000e0 36 ef 8e bc 35 ff 1a be f9 c8 c6 bd 94 e5 28 3e
       -0.017448049 -0.15136416 -0.09706301 0.16493827
0000f0 24 41 db bd 59 62 0b 3e 27 a3 ee bd cf a0 35 be
       -0.10705784 0.13611735 -0.116522126 -0.17737125
000100 2f 3b 2c bd 6a 45 e6 3d 2d bf 0c 3e 6c 6d bb 3d
       -0.04204863 0.112437084 0.13744803 0.0915173
000110 1a 58 11 be 52 87 1e 3e 31 2a 5b 3d 00 72 da 3d
       -0.14193764 0.15481308 0.053507034 0.10666275
000120 97 2a bd 3d 8a 29 94 bd 56 f6 3f 3d dd 1c f3 3d
       0.09236639 -0.072344854 0.046865784 0.118707396
000130 a9 b8 e9 bb 0d 4e 02 3e 68 18 2c 3e 73 30 0b be
       -0.007132609 0.12725087 0.16806185 -0.135927
000140 ac 4e 14 be 50 af 88 3d c8 2d cd 3d b2 c1 0c bd
       -0.14483136 0.06674063 0.10018498 -0.03436441
000150 99 c6 5f bc 75 14 ef bd 9d c6 86 3d 69 c7 90 bd
       -0.013658189 -0.11673824 0.06580851 -0.070692845
000160 fc 5b 28 be ba 10 26 3e 6f 42 05 bd be b6 12 be
       -0.16441339 0.16217318 -0.03253406 -0.14327523
000170 7c 81 85 3d 0f 5f a7 3c 9e a0 05 3e 37 b6 82 3c
       0.06518838 0.02043107 0.13049552 0.015956027
000180 3b a2 e1 3c f3 31 f1 bc e7 8e 04 3e 99 b2 6c 3d
       0.027543178 -0.029442763 0.12945138 0.05778751
000190 c5 f0 0d 3e 18 89 ec 3c f7 e5 30 3e e9 81 f4 3d
       0.13861378 0.028873965 0.17275225 0.11938841
0001a0 7f 84 c4 bd 60 f8 c6 bd 21 50 20 3d 3b 0c ea 3d
       -0.09595584 -0.097153425 0.039138917 0.11428114
0001b0 37 50 03 be 5b 39 01 3e e9 69 3b bc 98 b3 05 3d
       -0.12823568 0.12619536 -0.011438825 0.032641977
0001c0 ca af 94 bd 0a df b5 bd 15 ab ef 3d 62 5b 9b 3c
       -0.072600916 -0.08880432 0.11702553 0.018964473
0001d0 f7 4c a7 3d 3c 21 9d bd e1 2c 0c 3e 02 86 25 3e
       0.08168977 -0.076723546 0.13688995 0.16164401
0001e0 70 1d a5 3d 3b 78 19 3e 9a 72 6e bd 17 f4 8d 3c
       0.080622554 0.1498727 -0.05821476 0.017328305
0001f0 a7 a0 18 be 8c 5f 48 3d 0e 6a 49 bd 78 86 b0 3d
       -0.14905034 0.048919246 -0.049173407 0.08619398
000200 62 ea cc 3d bc aa c9 3d 57 9f 80 bd a2 f8 01 be
       0.100056425 0.09847018 -0.06280392 -0.12692502
000210 dd de 5d 3d ab 41 b9 bd c8 fe 38 3e fb 9b 0a 3d
       0.054167617 -0.09045728 0.18065941 0.03384016
000220 74 59 9d 3d 11 d1 a7 3d 8b 5b 32 be 23 5c d7 3d
       0.076830775 0.08194173 -0.17417733 0.105156206
000230 79 8a 05 3e 55 b6 21 bd c5 5c 64 3d 5c 15 c0 3d
       0.13041104 -0.039480526 0.055752534 0.09379074
000240 dc 8d cb bd b7 89 c1 3d 3b 67 02 be 37 18 90 bb
       -0.09939167 0.09450095 -0.12734692 -0.004397418
000250 67 89 1d 3e 23 31 0c bd 77 12 12 3e 62 77 a8 bd
       0.15384446 -0.034226548 0.14264856 -0.082258955
000260 c4 f2 12 3e 8f b4 25 be 84 c5 04 be 03 7b 28 be
       0.1435042 -0.16182159 -0.12965971 -0.16453175
000270 e9 54 a3 3d d4 e2 a3 3d fc d9 9c bd 39 c3 15 be
       0.0797518 0.080022484 -0.07658765 -0.14625253
000280 92 fc cb bd a2 a0 bb 3d 8a ac 98 bd 85 36 09 be
       -0.09960283 0.09161498 -0.07454784 -0.13399704
000290 68 72 f5 bd fa 95 9e bc ac 9f 18 3c af 02 2e 3e
       -0.11984712 -0.019358624 0.0093154125 0.16993211
0002a0 f2 c5 03 3e 7f 78 fe ba f0 47 ad 3d 69 58 5d bd
       0.12868479 -0.0019414573 0.084609866 -0.054039393
0002b0 41 cb 38 3d b3 f3 17 3e 58 37 85 bc 4b 42 f9 bc
       0.045115713 0.14839058 -0.016261742 -0.030427119
0002c0 cd d2 23 be 3d 08 92 bd 4f 71 1c be 69 85 30 3e
       -0.15998383 -0.071304776 -0.15277599 0.17238392
0002d0 97 fc b0 3d 03 aa 3a be e7 90 0a bd ee 79 55 bb
       0.08641928 -0.18228917 -0.033829596 -0.0032573896
0002e0 f0 b7 09 3e df 2d 1a 3e b1 0d 93 bd 7a d2 b6 bd
       0.13449073 0.15056561 -0.07180346 -0.08926864
0002f0 d5 e6 2b be f1 63 b2 3d 7d ba 0a be 51 7c 2d 3e
       -0.16787274 0.087104686 -0.13547702 0.16941954
000300 0f de 34 be 2f 43 98 3d 87 17 ec 3d 4b 63 df 3d
       -0.17662834 0.07434689 0.11527925 0.109076105
000310 83 e3 30 3e 5f 11 2d bd 53 f9 87 3d b0 91 14 3d
       0.17274289 -0.042252894 0.06639352 0.03627175
000320 36 92 f2 bd 94 46 6a bc dd 0f 09 be 13 af 49 3c
       -0.11844294 -0.014299054 -0.13384958 0.012309807
000330 58 99 fc bc 28 04 9f 3d 10 d7 e3 3d c6 76 98 bd
       -0.030834839 0.077644646 0.11125004 -0.07444529
000340 cc 36 8e 3d a7 3f c1 3d f8 65 36 3d 0c f2 ae bd
       0.069440454 0.09435969 0.04453084 -0.085422605
000350 0e 89 1c 3e 1c 5c 28 bc d3 f2 07 3d 4e c3 85 3d
       0.15286657 -0.010275867 0.03319056 0.06531392
000360 ac 6c 14 be 46 08 0a bd 95 20 0d be 1a 90 ba 3d
       -0.1449458 -0.033699296 -0.1378196 0.091095164
000370 96 4a d7 bd d4 79 b1 3d 7a dc ec bd df d0 3f 3d
       -0.10512273 0.08665815 -0.1156549 0.046830054
000380 38 e9 99 3d a7 15 b5 3b 7a fa b4 bd 6f bc 43 be
       0.07515186 0.005526263 -0.08836837 -0.1911485
000390 75 dd e1 3c d2 a6 0e 3e 4a 4b 13 be 99 da b6 3d
       0.02757142 0.13930824 -0.14384189 0.08928413
0003a0 01 b1 e2 3d 72 be 18 bd da 02 eb bd 5e d7 76 bc
       0.11068917 -0.037290998 -0.11475153 -0.015065996
0003b0 13 30 b2 bc 9f 1c 23 bd 53 2e 32 be 0d 6f 9d bc
       -0.02175144 -0.039822217 -0.17400484 -0.019217992
0003c0 f5 ef cb bc 25 14 d4 3d 14 95 4d bc a7 5f 2e ba
       -0.024894694 0.10355405 -0.01254775 -0.00066518266
0003d0 2e 78 94 3d 2d 7c 98 3d b9 3f 8e bd 2a ea 82 3d
       0.07249485 0.0744556 -0.06945748 0.063923195
0003e0 0f ea df 3d 75 e1 bf bd bf 09 3a 3d 82 e4 8e ba
       0.10933315 -0.093691744 0.04541945 -0.0010901841
0003f0 95 ad cc 3d 68 0e 32 3d 16 7a d5 bd f7 bf fc bc
       0.09994046 0.04347077 -0.10423677 -0.030853255

EiLM.3.gamma_generator.weight f4 [1, 32]
000000 7d f4 97 bd e4 97 9c bd 47 75 3d bd da 00 23 be
       -0.07419679 -0.07646158 -0.046254423 -0.15918294
000010 47 2f 40 be e3 e6 2d 3d 32 a3 02 be 30 00 3a be
       -0.18768035 0.04245652 -0.12757567 -0.18164134
000020 12 14 26 be f7 56 c2 bc 4e da 78 bc b6 6c 16 be
       -0.16218594 -0.023723109 -0.015188767 -0.14689907
000030 65 52 fd 3d ac ce e6 3b 05 87 8d 3b 19 70 1e be
       0.12369231 0.00704368 0.004319074 -0.1547245
000040 66 d7 ac bd 2c 28 0c be bd bc ef 3d 69 7f d1 bd
       -0.084395215 -0.136872 0.11705921 -0.1022938
000050 33 fe 14 be 98 d1 12 be bf 71 56 3d 56 73 f4 bd
       -0.14550094 -0.14337766 0.05235457 -0.11936061
000060 c3 b2 c4 bd 11 84 d3 3c b1 a7 88 3d 7f 87 28 3e
       -0.096044086 0.02581981 0.066726096 0.16457938
000070 1e f4 dd bd 8b 02 be bd 98 9c 07 be 6c bc ce bd
       -0.10837577 -0.09277829 -0.1324333 -0.10094532

EiLM.3.beta_generator.weight f4 [32, 32]
000000 a3 c5 22 3e df f5 27 3c 62 58 06 be b8 ce a9 3d
       0.15895705 0.010251491 -0.13119653 0.082913816
000010 0b 58 0e be 13 c9 26 3d 57 fd a5 3d 5d 45 0b 3d
       -0.13900773 0.040719103 0.08104961 0.034001697
000020 c5 69 60 bd 3f 0d c8 bd 1f 19 de 3c bb 54 fd 3d
       -0.05478837 -0.097681515 0.027111588 0.12369677
000030 eb 13 df bd 7f 1b 04 3e 7e 36 00 3e fb 7f 86 bd
       -0.10892471 0.12901114 0.12520787 -0.06567379
000040 19 ac ac 3c e5 b6 1f be 05 c5 ef 3d 93 06 d7 bd
       0.021078156 -0.15597112 0.117075 -0.10499301
000050 10 ad 18 be 0d 1c a9 3d 8c f8 56 3c ae 07 2b be
       -0.14909768 0.082573034 0.013120782 -0.16702148
000060 5e c9 ae bc 01 6e 19 be cd ce 04 be 5c a3 af 3d
       -0.021336254 -0.1498337 -0.12969513 0.0857608
000070 06 9d 00 3e 5c c1 9b bc da 41 d8 3d ea c0 90 bc
       0.125599 -0.0190131 0.10559435 -0.017670114
000080 48 2c a1 bd 1f 28 01 3e 72 43 e5 3d 0e 44 49 3b
       -0.07869774 0.12612961 0.11194505 0.003071073
000090 03 49 e5 bd 56 ba 80 3d 35 48 33 3e aa e4 91 3d
       -0.111955665 0.06285541 0.17508014 0.07123692
0000a0 c5 13 96 3d 4c 82 e4 3d 6e 95 b3 3d 62 4f 13 bc
       0.073279895 0.11157665 0.08768736 -0.008991094
0000b0 22 09 14 3e 4f 7d 86 3d 6e 24 91 3c a6 ad dc bc
       0.14456609 0.065668695 0.017717566 -0.02693827
0000c0 e6 b6 07 be 5f 4c 2f 3e 0c 09 fe 3d 07 b5 c8 3c
       -0.13253364 0.17118977 0.12404069 0.024500383
0000d0 54 b7 68 3d e8 c0 07 3e 9e c7 32 3d a3 37 1b bd
       0.05681546 0.13257182 0.0436474 -0.037894856
0000e0 4b 96 83 bd b6 06 d9 3d ab 48 28 3e b9 98 45 bd
       -0.064251505 0.10596983 0.1643397 -0.04824135
0000f0 6f ab 4b 3d fa 5e 67 3d e4 08 f2 3d 89 15 0d 3d
       0.04972404 0.05648706 0.11818102 0.034444366
000100 a0 aa 03 3e 96 46 be 3d 5b c2 15 be 78 0e a0 3b
       0.12858057 0.09290807 -0.14624922 0.0048845373
000110 6a 0e 49 3c ab eb c4 3d 77 1d 63 bd 03 21 24 3e
       0.012271503 0.096152626 -0.05544802 0.16028218
000120 50 54 18 be be 28 f4 bd ab 9a 36 3e 33 34 07 bb
       -0.14875913 -0.119218335 0.17832439 -0.0020630478
000130 b0 6d 96 bd a1 76 dd 3d 9a df 72 bd 2d 2d 26 be
       -0.0734514 0.10813642 -0.059295274 -0.1622817
000140 77 ea c3 bd 26 e0 71 3d 5d 1c f2 bd 69 fd e7 3d
       -0.09566205 0.059051655 -0.11821816 0.11327631
000150 94 98 90 3d 09 a8 33 be 11 9e d6 3d 09 1d 27 3e
       0.07060352 -0.17544569 0.104793675 0.1631967
000160 b5 80 2e be 27 55 ad bc b5 2f 1f 3e 56 40 16 be
       -0.17041285 -0.021158768 0.15545543 -0.1467298
000170 11 07 06 3e 6f ad 0a 3e a6 7a 07 bd 1b fe 49 bd
       0.13088633 0.13542722 -0.03307595 -0.0493146
000180 cc 08 11 be 41 a9 3b bc e1 03 d5 bc 56 64 b3 3c
       -0.14163512 -0.0114539275 -0.026002826 0.02189843
000190 26 3b 05 3e 93 2a dc bd f1 b0 75 3d ab 0b b6 3d
       0.13010845 -0.10750308 0.059983198 0.08888944
0001a0 2d 03 8c 3b 31 b2 3a 3e 9b 40 8d bd 75 95 ed 3c
       0.0042728395 0.18232037 -0.06897088 0.02900193
0001b0 56 b3 c4 bc 88 e1 11 3e 2a 9a 0c 3e 23 53 f9 3d
       -0.024011295 0.1424619 0.13730684 0.1217406
0001c0 54 04 b0 3d 20 33 33 3e 7b 7c 5e 3d 95 16 88 bd
       0.085945755 0.17499971 0.054317933 -0.06644932
0001d0 62 82 80 bd a3 f9 39 3e 08 bb 54 bc 62 b0 c1 bc
       -0.062748685 0.18161635 -0.012984045 -0.023643676
0001e0 c8 18 de bc 49 89 a7 3d 6a 3c 33 be dc d6 8f 3d
       -0.027111426 0.08180482 -0.17503515 0.07023403
0001f0 be bd f5 3d aa dd 8c 3c 3d 75 03 bd 67 79 e8 3d
       0.11999081 0.017195541 -0.03209423 0.11351281
000200 e6 73 a1 3d 32 8d 2b 3d b6 84 1b 3e 3b cd e7 bd
       0.07883434 0.0418827 0.15187344 -0.113184415
000210 4a 05 53 bb d5 47 02 3e 5c e2 eb 3d f3 8f 20 3d
       -0.0032199197 0.12722714 0.11517784 0.03919978
000220 ba f4 7a 3c 8b 73 93 bd 26 a0 b6 bd a4 b6 ba bd
       0.015317136 -0.071997724 -0.08917265 -0.09116867
000230 a5 a7 4c 3c 2a e9 a8 bd 01 9b 01 3e 05 5a 04 3e
       0.012491141 -0.082475975 0.12656786 0.12924965
000240 dc e2 58 ba 03 88 0b be 5b b2 f8 3d 15 25 57 bc
       -0.0008273551 -0.13626103 0.121433936 -0.0131314
000250 69 02 30 be af 23 f8 bd f1 fb 90 bd 6f e8 cb bd
       -0.1718842 -0.12116181 -0.07079304 -0.099564426
000260 5e 4a 09 3d 4b 04 e6 bd 99 26 18 3d 22 e3 17 be
       0.033518188 -0.112312876 0.037146185 -0.14832738
000270 ff 28 0d 3e 44 d8 14 3e 33 8a 5a 3d 7b 9e c1 3d
       0.1378517 0.14535624 0.053354453 0.09454056
000280 0e 27 36 3e 0c 67 1d 3e 1f c7 30 3e fc 12 13 3c
       0.17788336 0.1537134 0.17263459 0.008976694
000290 00 f9 76 bc 12 3b 2c 3e 32 a9 1a be 9c 6c 45 3b
       -0.015074015 0.16819409 -0.15103605 0.003012455
0002a0 46 75 52 bd 76 46 29 bd 74 22 8c bd 3c cd 1e be
       -0.051381372 -0.041326962 -0.06842509 -0.15507978
0002b0 17 26 29 bd bb 9f 0f be fb 17 fe bd 70 e9 01 be
       -0.04129609 -0.14025776 -0.12406918 -0.12686706
0002c0 f7 45 0c be 29 cb 24 be ec d0 90 bd 98 f4 03 bd
       -0.13698564 -0.16093124 -0.07071099 -0.032215685
0002d0 8f 98 75 3d 8d cc 2d be 82 f5 b4 bd 44 99 2d bc
       0.059959944 -0.16972561 -0.088358894 -0.010595623
0002e0 06 21 30 3d ae 83 df bd 1e c1 09 3e 3e bb 35 bd
       0.043000244 -0.10913788 0.13452575 -0.04436802
0002f0 9b af 14 be a5 24 36 3e d3 6f 54 3d ba 5c 8f 3d
       -0.14520113 0.17787416 0.051864456 0.07000108
000300 99 34 c2 bd d7 8f 9c bd 0d 74 5a bd ec c3 1e bd
       -0.094826885 -0.07644623 -0.05333333 -0.038761064
000310 11 88 ed bd 06 d2 bc bb 3f 95 70 3d 7d 31 25 3d
       -0.11598218 -0.0057623414 0.058736082 0.0403304
000320 ec 98 db 3c cd 59 b1 bd d1 95 23 bd 5e 7b 06 3e
       0.026806317 -0.08659706 -0.039937798 0.13132998
000330 a9 f5 0b 3d 46 94 f5 bc 4e 25 47 3d af 75 a3 3d
       0.034169827 -0.029977929 0.04861956 0.07981431
000340 b1 62 28 bd 3f f5 22 be 07 85 22 be 08 f3 74 3d
       -0.041109744 -0.15913866 -0.15871058 0.059802085
000350 9e c3 17 be 79 3b 15 3e ee 8d f0 3d ee f0 93 bd
       -0.14820716 0.14573468 0.11745821 -0.07223688
000360 a2 5c 26 bd 81 f0 e1 3d f6 08 06 bc 84 60 8b 3c
       -0.040615685 0.110322006 -0.008180847 0.017013796
000370 dc 1d ff 3d 00 b2 eb bd a6 3d 77 3c cf 78 20 be
       0.12456867 -0.1150856 0.015090382 -0.15671085
000380 ff e3 8a bd 89 7c 0a be 63 67 14 be 7d 93 1a be
       -0.06781768 -0.13524069 -0.14492564 -0.15095325
000390 44 4d 94 bb 21 62 09 3e b8 38 37 bd 76 4f a9 bd
       -0.0045258123 0.1341634 -0.044731826 -0.08267109
0003a0 71 86 9a bc 6a 42 9c 3d e2 24 4f bd 8f e5 ca bd
       -0.018862935 0.07629855 -0.050572284 -0.09907066
0003b0 af 6f 8d bc f1 12 14 be 38 b2 0e be 54 8e de 3d
       -0.017265169 -0.1446035 -0.13935173 0.10866991
0003c0 9d 28 2a 3e 6c 8a e3 bd ba 93 0d be 44 f1 3b 3d
       0.16617055 -0.11110386 -0.13825884 0.045884386
0003d0 db c3 28 be f8 e9 2a 3e 0c 76 be bd f8 77 15 bd
       -0.16480963 0.16690814 -0.092998594 -0.036491364
0003e0 76 f8 2e be ef 45 e2 3d ae fd 13 be 9a 37 39 3e
       -0.17086968 0.11048495 -0.1445224 0.18087617
0003f0 16 29 b7 bb 92 2f ec bd e0 47 e7 3d 8a 49 1e be
       -0.0055896146 -0.11532511 0.11293006 -0.1545774

Gate.weight f4 [4, 32]
000000 51 27 59 3d 4c 98 0b 3e d8 bf 45 be 4e 11 d5 3d
       0.05301601 0.13632315 -0.19311464 0.10403691
000010 3e b1 b6 3d f7 a9 28 be 64 ba 3e 3e 4a 59 43 3d
       0.08920525 -0.16471086 0.1862579 0.047692575
000020 6a c0 2d be 12 e6 29 3e 9b 86 92 bc f4 02 fb 3c
       -0.16967931 0.16591671 -0.01788645 0.030641057
000030 72 f9 28 be 01 79 79 3d 73 b8 15 be 24 ed ed bd
       -0.16501406 0.060906414 -0.14621143 -0.116174966
000040 0c e0 04 be bb 11 c9 bd b4 7e 23 be bc 30 1c be
       -0.12976092 -0.09817835 -0.15966302 -0.15252966
000050 93 a7 83 3c 48 d8 be 3d 23 5b 5e bd 58 5a 04 be
       0.016071117 0.09318596 -0.054286133 -0.12925088
000060 52 9a 05 be 38 3d b4 bc c5 3c 07 3e 7f b6 83 bd
       -0.1304715 -0.022001848 0.13206775 -0.06431293
000070 58 6f af bd ff 3e a4 bd b9 0c 50 be b7 bc 36 3e
       -0.08566159 -0.08019828 -0.20317353 0.17845426
000080 8b d5 f8 bd e5 8d 00 be 51 8c 25 be 8d 84 a9 3d
       -0.12150105 -0.12554128 -0.16166808 0.08277235
000090 9a 9a f5 bd 96 20 94 3d 02 23 16 be 17 ed 06 bd
       -0.119923785 0.07232778 -0.14661792 -0.03294095
0000a0 88 9a 24 3e 7f ec 28 bd 1f 65 cf bd 3c 7d a8 bd
       0.16074574 -0.041241165 -0.10126709 -0.082270116
0000b0 34 36 81 bd 02 1e eb 3b b0 d8 d5 bb d7 98 02 3e
       -0.063091666 0.007175208 -0.0065260753 0.12753616
0000c0 c9 ed 02 3e 71 22 43 bd 53 67 2f 3e 25 5d fa bd
       0.1278602 -0.047640268 0.17129259 -0.12224797
0000d0 6b c2 19 bc 41 41 a2 3c 6a 93 d7 3d a9 11 0a 3e
       -0.009384732 0.019806506 0.10526164 0.134833
0000e0 df a5 f8 3d b7 29 0f be b2 e8 4e 3e 2b 86 05 3e
       0.121410124 -0.13980757 0.20205954 0.13039462
0000f0 49 e2 3b bc 05 75 d7 3d 85 a7 7e bc 25 0a 2e bd
       -0.011467525 0.105203666 -0.015542869 -0.042490143
000100 5f af 08 be 92 8b 1c be 00 d4 cb 3d aa 88 3e 3e
       -0.13348149 -0.15287617 0.09952545 0.1860682
000110 7a 32 aa bd 37 8c 4a 3e d1 88 c4 3d fb 7c 8f bd
       -0.08310409 0.1978005 0.09596408 -0.0700626
000120 11 80 df 3c 80 ec 0b 3e 2e 86 67 bc 5a 11 34 3c
       0.027282747 0.13664436 -0.014131112 0.010990465
000130 89 e8 70 bd 71 9d b4 3d a1 48 aa 3c 98 56 a5 3c
       -0.058815513 0.08819092 0.020786585 0.020182893
000140 a5 5c b5 b9 7f b3 20 3e 4e 1b e8 bd c9 0f 0e be
       -0.00034592036 0.15693472 -0.11333333 -0.13873209
000150 ff d0 2b bb fd e8 9a bd 0b 5b 27 be 21 a6 c4 3d
       -0.00262171 -0.0756397 -0.16343324 0.09601999
000160 07 5c 3e 3d b1 6a 2b 3e f5 fa 98 bd d3 78 49 3e
       0.046474483 0.16739918 -0.07469741 0.19674997
000170 41 e9 7d bd b9 8c 00 be 90 5d 85 3c 77 36 68 bd
       -0.061990026 -0.12553681 0.016279966 -0.056692567
000180 ae 64 f9 bd 18 8d 53 bd b6 a8 c4 3d 84 0b 70 3d
       -0.12177406 -0.05164823 0.096024916 0.058604732
000190 b5 08 48 3e e4 7a dc 3d ee 5e 35 3d 61 3a 4c bd
       0.19534571 0.10765627 0.044279985 -0.049860362
0001a0 38 ad 1b be 64 e5 0e be 2a 56 84 3c ab c7 4a be
       -0.15202796 -0.13954693 0.016154367 -0.1980273
0001b0 5b 8d 46 3c 53 32 fd bc 59 44 01 be 15 8d 1e 3e
       0.012118663 -0.030907786 -0.12623729 0.15483506
0001c0 dd 67 3d be 44 58 99 3d 56 15 0e be a9 59 ef 3d
       -0.18496652 0.074875385 -0.13875327 0.11687023
0001d0 c2 1c 0e bc 84 a9 38 3d 39 3d 1a 3c 63 21 e0 bd
       -0.008673849 0.045083538 0.009414011 -0.10943868
0001e0 71 f1 8e bd 01 f5 26 bd d2 fa 90 3d fd 7d 57 bc
       -0.06979645 -0.040760998 0.0707909 -0.013152597
0001f0 37 dd d8 bd ec 9a 14 be a4 87 2d 3e ac ee 41 3e
       -0.105890684 -0.14512223 0.16946274 0.18938702

experts.0.gate_proj.weight f4 [32, 32]
000000 28 b3 8d bd 0a 50 24 3e d0 98 11 3e 6a a3 1d bd
       -0.06918937 0.16046157 0.1421845 -0.038485922
000010 5a ae f3 3d 3d 98 40 3e 8e 3b 08 be 1b 57 c8 bd
       0.11898489 0.18808074 -0.13303968 -0.09782239
000020 3e 02 ee 3d fc 27 81 bd 93 4d 93 3c e4 21 ca bd
       0.116215214 -0.063064545 0.017981326 -0.098697454
000030 e7 d6 1a bd da 10 b9 bb 56 db 4e bd 54 34 77 3d
       -0.037802603 -0.005647761 -0.050502144 0.06035264
000040 1c f1 bf 3d 6a 2e dd 3d f9 fa dc bd ff 93 40 be
       0.0937216 0.107998684 -0.10790057 -0.18806456
000050 dd f8 6e 3c ce fc 48 be 9c b8 ce bd 43 80 fa bb
       0.014585701 -0.19627687 -0.10093805 -0.0076446845
000060 e1 ca b5 bd 3e 64 d4 bd af 30 fe 3d 1f a8 c9 3d
       -0.08876587 -0.10370682 0.124116294 0.0984652
000070 5a ed af 3d dc 89 b9 bd 71 54 11 be 6d b4 15 3d
       0.08590193 -0.09059498 -0.14192368 0.03654902
000080 95 6f 2c 3e 1a ca aa bd 49 39 96 bd 8a bc bc 3d
       0.1683944 -0.08339329 -0.07335145 0.092156485
000090 6f 0a 4a be bd 4a 0d be f7 07 7b bb 95 07 47 be
       -0.19730543 -0.13798042 -0.0038304308 -0.19436486
0000a0 5f 86 8c bd ec 74 3d bd 06 14 9f 3d dc e4 bb 3d
       -0.06861567 -0.046254084 0.07767491 0.09174511
0000b0 93 e2 f8 bd 4e a4 3d be f7 fb 3b bc 33 f6 c0 bd
       -0.121525906 -0.18519709 -0.011473647 -0.09421959
0000c0 ae 4c 22 3e aa af 4c bd 9a 2e a3 3c e5 ea 87 bd
       0.15849563 -0.049972214 0.019919682 -0.066365995
0000d0 ad 8f 9a bd ef e2 ca bd 0e c8 88 bd ac 0c 36 be
       -0.07546935 -0.099065654 -0.066787824 -0.17778271
0000e0 1b 0e 84 ba 31 17 a0 bd 02 ff 7c bd d4 0e 6a bd
       -0.0010075005 -0.078169234 -0.061766632 -0.057143047
0000f0 79 ec de bd 2a 24 75 bd d5 68 b5 3d 71 94 a3 3d
       -0.10884947 -0.05984894 0.08857886 0.07987297
000100 2e 7a 1a 3e fb 09 93 bd 90 68 a0 3d d8 a5 66 3d
       0.1508567 -0.07179638 0.07832444 0.056310505
000110 29 f3 84 bd 7b b5 56 3d 57 6d 54 bd 92 8d d8 3c
       -0.064916916 0.052419167 -0.051862087 0.026434693
000120 a5 2f 27 bd 28 fc 1e bd a2 b6 2c bd 97 fa f8 bd
       -0.04081692 -0.038814694 -0.04216636 -0.12157171
000130 fb 12 60 3d 13 36 b5 bb 2e d8 2b 3e 2a 21 32 3e
       0.0547056 -0.005530128 0.16781685 0.17395464
000140 78 c1 62 bd 96 77 31 bd 6f af e0 3d 7d 98 9a 3c
       -0.055360287 -0.043326937 0.10970961 0.01887154
000150 16 b5 6d bd 1d 93 2f be 9d 84 cc bd a9 d4 fb 3c
       -0.058034025 -0.17145963 -0.099862315 0.030741053
000160 db 10 11 3e 39 be 18 3e d8 93 7b bc be fc 1e be
       0.14166586 0.14916314 -0.015355073 -0.15526101
000170 7b a4 8f bd b5 f8 28 3e 20 0d 22 3e 23 69 2f 3e
       -0.07013794 0.16501124 0.1582532 0.1712995
000180 bd d2 99 3d 41 a3 23 be 10 33 ae 3c a0 b0 55 bb
       0.07510898 -0.15980245 0.021264583 -0.0032606497
000190 b9 d0 6a 3c da 0d 3f be 30 a1 a2 bc 18 ae 33 be
       0.01433199 -0.18657628 -0.01985225 -0.1754688
0001a0 ed 62 91 3b 0c 91 00 be 7d e3 35 3e e9 dd 2d be
       0.0044368417 -0.12555331 0.17762561 -0.16979183
0001b0 d3 bf d0 3c bf 6b d1 3d 4b af 84 3d a0 60 30 be
       0.025482094 0.10225629 0.06478747 -0.1722436
0001c0 36 ed 9c 3d e7 76 05 3e e4 9c 8f bb ad 4b a1 3d
       0.07662432 0.13033639 -0.0043827165 0.07875762
0001d0 7a 43 b2 3d 95 1a d7 3d 6b fa 13 3e 23 15 fa 3d
       0.087042764 0.10503117 0.14450996 0.12211063
0001e0 a3 a7 4a be bd 50 61 bd b6 7c 0a 3d 52 c6 8e bd
       -0.19790511 -0.05500864 0.03381034 -0.0697142
0001f0 b7 d5 0a be 27 57 b5 bd 64 19 c6 3d 19 61 37 3d
       -0.13558088 -0.088545136 0.096728116 0.044770334
000200 af bf 12 3e 0d 0f 92 bd 7d fa 00 be 58 9c 67 bd
       0.14330934 -0.07131777 -0.12595554 -0.056545585
000210 d2 c3 d1 3a 42 04 eb bd c7 a8 0a be da c7 aa bd
       0.0016003794 -0.114754215 -0.13540946 -0.083389
000220 99 fa 44 3e 09 ca 4c be 7f 22 e7 bd 8f 9e 18 bd
       0.1923622 -0.19998945 -0.112858765 -0.03726059
000230 72 49 90 bd 21 e6 85 3d 3c 53 17 bd 1b 2d 22 be
       -0.070452586 0.06538034 -0.036944613 -0.15837519
000240 67 22 b4 3d 5f e0 89 3b 64 26 54 bd e5 ee 76 bd
       0.08795624 0.0042076553 -0.051794425 -0.06028642
000250 34 61 00 be 6d 90 04 3e 5b cc 4e 3e 44 c0 0c 3e
       -0.1253708 0.12945719 0.20195143 0.13745219
000260 6c 8c db 3d 81 63 16 3d ad 93 03 3e 46 a7 0a 3e
       0.10720143 0.036715988 0.12849303 0.13540372
000270 96 a7 09 be 6a 28 b1 3d 32 25 b2 3d a4 19 80 3d
       -0.13442835 0.086502865 0.08698501 0.062548906
000280 be d5 e0 3c 1d 97 48 3c 5d 2e 2b bd d7 41 b5 bd
       0.02744567 0.012243059 -0.041792262 -0.088504486
000290 9f bb 36 3d 39 57 dc bd b6 fc 39 bc 30 ef fa 3d
       0.044612523 -0.10758824 -0.011351755 0.12252653
0002a0 29 3d 13 3e 8b 24 cd bd e4 71 dc 3d 4c 8d a2 bd
       0.143788 -0.10016736 0.107639104 -0.079371065
0002b0 bf 78 03 3e a8 59 ef 3d d4 30 25 be 58 32 03 3e
       0.1283903 0.116870224 -0.16131908 0.12812173
0002c0 ee df 1a 3e 5d bc 07 be 71 41 1f bd 87 f7 f4 bc
       0.15124485 -0.13255449 -0.03888077 -0.029903186
0002d0 b9 35 ac 3d 92 63 59 3d b2 cb e3 bd da 57 58 bd
       0.08408684 0.053073473 -0.11122836 -0.052818157
0002e0 fd b9 07 3e a8 90 3c 3e d1 17 e8 3d 64 24 17 be
       0.13254543 0.18414557 0.113326676 -0.14759976
0002f0 12 66 1a be 58 67 86 3d f5 0b 3f bd 5e 5b fd 3d
       -0.15077999 0.0656268 -0.046642262 0.123709425
000300 31 ec f5 3d 89 b0 30 3e f2 18 5b bd c8 31 95 3c
       0.120079406 0.17254843 -0.053490587 0.018212214
000310 c1 b0 fa 3d af 4c 33 3c 26 a0 85 bd d7 58 cb bc
       0.122407444 0.010943576 -0.065246865 -0.024822636
000320 9a b3 0c bd 59 b0 17 3c 09 68 82 bc 48 b1 ed bc
       -0.03435097 0.009258353 -0.015918748 -0.029015198
000330 48 e2 f3 bc 9e 33 25 be 71 1d fc bc c0 18 9d 3c
       -0.029770985 -0.16132972 -0.030775758 0.01917684
000340 47 94 da 3d ea af a9 3d 6e eb 6a 3c 85 34 98 3d
       0.10672813 0.08285506 0.014338357 0.07431892
000350 59 e7 1d 3e 63 fe 2d 3e d8 0b 1b be ad 48 26 3b
       0.15420283 0.16991572 -0.15141237 0.0025372908
000360 93 20 1e 3e 19 ea 85 3d 6c 6c a7 3d d8 94 d4 bd
       0.15442114 0.06538791 0.08174977 -0.10379952
000370 d3 58 ae bc ca f0 cc 3d cf 06 62 3d c6 d7 25 be
       -0.021282589 0.10006864 0.055182274 -0.16195592
000380 70 ee 23 be 2e 47 92 3d e3 31 14 be d0 d5 24 be
       -0.16008925 0.07142483 -0.14472155 -0.16097188
000390 33 fb cb bd 73 42 78 bd b3 42 c2 bc 97 2d fe bd
       -0.09960022 -0.060610246 -0.023713445 -0.12411039
0003a0 30 80 17 3d 4b 38 46 bd cc 8e 0f 3e 13 4a 0c bd
       0.036987484 -0.04839353 0.14019316 -0.03425033
0003b0 f2 db b4 3d 05 36 02 3e dc 82 38 be ad 5c 00 be
       0.08831014 0.1271592 -0.18018669 -0.12535353
0003c0 f0 e8 52 3d af e7 fc 3d 05 d8 3c 3d 43 02 35 be
       0.051491678 0.12348878 0.04610445 -0.17676644
0003d0 a7 88 d1 bc 9e 35 c9 bc 05 a4 9d 3d 87 89 73 3d
       -0.025577856 -0.0245617 0.076973 0.05945733
0003e0 0d 55 9a 3d 20 5c 4a 3e 67 62 d1 bd 14 87 b3 3d
       0.075357534 0.19761705 -0.10223847 0.087659985
0003f0 ac de 49 be a2 2a 31 3e 75 0d d7 3d ac 08 08 3d
       -0.19713849 0.1730142 0.105006136 0.033211395
