output/SocialGood-MoME/ts_encoder_epoch1.pt (torch, 362284 bytes, 34 tensors)

proj.weight f4 [32, 4]
000000 4c b6 c5 be c7 55 d9 3e 26 1a 52 3e 07 91 0b be
       -0.38615644 0.42448255 0.20517787 -0.13629542
000010 7b a6 8c 3e 37 be 79 be f0 27 6f be b1 19 e7 3d
       0.27470765 -0.24388967 -0.23355079 0.11284197
000020 4f 31 9c bb 90 c2 bb be d0 56 aa 3d 5f 2c 1d be
       -0.00476662 -0.36671877 0.083173394 -0.15348957
000030 5f 58 9f 3e 3c 8a fa be f4 02 c5 3d 50 16 c4 3e
       0.3112211 -0.4893359 0.09619704 0.38298273
000040 8d 87 81 be f2 b6 50 3d 02 24 9c be 9e f0 1e 3e
       -0.2529873 0.05095572 -0.30496222 0.15521476
000050 20 47 ae be 41 63 23 be c3 38 a1 be 92 dc e4 3e
       -0.3403864 -0.15955831 -0.31488618 0.44699532
000060 6a 3d f5 3e 71 68 bc bd 70 b5 c5 be 98 aa 15 be
       0.47898418 -0.09199608 -0.38614988 -0.14615858
000070 a3 52 29 be ca b1 59 3d 54 20 3d be 28 e9 fd 3e
       -0.1653543 0.05314807 -0.18469363 0.49591947
000080 82 d5 99 be c3 cd 11 3e 21 76 03 3e 9d 01 bb bb
       -0.30045706 0.14238648 0.12838031 -0.0057069794
000090 f7 e9 1e 3e 2e 8c d2 3d 13 cd af 3e 93 3d 89 bd
       0.15518938 0.102806434 0.34336147 -0.067011975
0000a0 ce 76 2f 3e b4 0a 39 3e f4 cf e9 3d 53 c8 50 bd
       0.17135164 0.18070489 0.11416617 -0.050972294
0000b0 9b 12 09 3e 0a 47 b1 3e 1f ca cf 3e df d1 ad 3e
       0.13386004 0.3462451 0.40583894 0.3394918
0000c0 13 4d 28 be ed 68 df be 49 e8 10 be d7 bc 42 3e
       -0.16435651 -0.4363474 -0.1415111 0.19017349
0000d0 e3 14 8c be 44 41 8f be 18 0f 8d be 50 d7 9a be
       -0.27359685 -0.2797948 -0.27550578 -0.30242395
0000e0 d4 9c f8 3e aa 18 81 3d d0 bd 0a be 8d ce 29 3e
       0.4855715 0.063035324 -0.1354897 0.16582699
0000f0 ba c8 a0 bd 7b d1 d9 3d 2c 3b b6 3e 11 0f b3 be
       -0.078507856 0.10635658 0.3559202 -0.34972432
000100 a6 6b 0f 3e 97 6b d4 3e 3e 19 ee bd e5 a7 59 3e
       0.14005908 0.41488335 -0.11625908 0.21255453
000110 a2 28 cc be 1e 4e 00 bf a4 82 f8 be a7 82 c8 3d
       -0.3987475 -0.501192 -0.4853717 0.09790545
000120 2b af 73 be c8 f7 41 3d 6b e6 9c 3e ca 6c dc 3d
       -0.2379729 0.047355443 0.30644545 0.10762937
000130 f8 89 82 3e 0c 9e 02 be 33 80 cc bd 9e 90 76 be
       0.25495887 -0.12755603 -0.099853896 -0.24078605
000140 1c df f2 be b9 01 78 3c 83 0a 8e be 6b 5d a9 be
       -0.47435844 0.015137129 -0.27742395 -0.33079085
000150 87 7a 25 3e 51 5b eb 3e 79 46 7b 3e 53 b2 42 bd
       0.16160022 0.45968106 0.24538602 -0.047533344
000160 96 48 d7 3e 72 95 cc be ce 72 aa bc 79 29 bd 3d
       0.42047566 -0.39957768 -0.020806696 0.09236426
000170 49 1e d5 be 0c 91 13 be a8 3a b4 3e 17 f0 39 be
       -0.41624668 -0.144108 0.35201 -0.18157993
000180 da 1a ca be 3c 8e f0 bd c9 60 16 3d b3 82 5c 3e
       -0.3947361 -0.11745879 0.036713395 0.21534233
000190 24 cc ab be 5b 95 ca be 77 3c a0 3b 41 e4 be be
       -0.33554184 -0.39567074 0.0048900205 -0.3728352
0001a0 b2 73 4a be 6a 31 e6 3e 11 21 14 be d8 19 6e 3e
       -0.19770697 0.44959575 -0.14465739 0.23252046
0001b0 95 59 92 be 54 15 77 be 1f 5c 5d 3e 81 d8 c0 3e
       -0.2858397 -0.2412923 0.21617173 0.3766518
0001c0 d3 df 01 3f c1 12 90 be 74 e9 ee 3e c6 41 d2 3e
       0.50732154 -0.28139308 0.46662486 0.41065806
0001d0 88 2f a7 bd 6a d5 b8 3e 03 5d d5 be 4e e3 76 be
       -0.08163363 0.36100322 -0.41672525 -0.24110147
0001e0 65 9f 4e be 97 1a a4 be 78 f3 8e be fa cc 53 be
       -0.20177992 -0.32051536 -0.27920127 -0.20683661
0001f0 6d a9 00 3f 9f e5 6d bc 00 ce 9a be e5 2c a1 be
       0.50258523 -0.014520078 -0.3023529 -0.31479564

proj.bias f4 [32]
000000 c3 17 f8 3e 45 64 a0 be 66 e6 cc 3e 29 ab fd 3e
       0.4845563 -0.313265 0.4001953 0.49544647
000010 08 c1 e5 be 55 12 25 3e 3d 17 c1 3e 33 48 e0 be
       -0.44873834 0.16120274 0.37713042 -0.43805084
000020 ed 12 6f be 34 0c e7 bd eb fb 43 3e 92 70 b3 be
       -0.23347063 -0.112816244 0.19139068 -0.35046822
000030 dc aa 26 3e 47 93 eb 3d 2e 24 cb 3e 35 24 d5 be
       0.16276115 0.115027 0.3967604 -0.41629186
000040 fe c7 f3 3e f6 b6 86 be 1d db 86 bd 84 d0 49 3e
       0.4761352 -0.26311463 -0.06584761 0.19708449
000050 5d ec f7 be 80 84 ef 3d 96 f8 fe be d9 5e e2 bd
       -0.48422518 0.11695194 -0.4979903 -0.11053247
000060 d7 90 7e be a3 1e 83 be 2f f9 2c be 09 44 3b 3e
       -0.2485994 -0.2560931 -0.16891931 0.18287672
000070 38 a7 70 be d5 36 8e 3e d7 5b ec 3d 65 dc f4 be
       -0.23501289 0.2777621 0.115409546 -0.47824398

EiLM.0.gamma_generator.weight f4 [1, 32]
000000 95 9f 37 be be 8b c9 3c f7 0f 01 3e f1 5e 6f bd
       -0.1793197 0.024602767 0.12603746 -0.058440153
000010 10 dc d4 bd f6 98 fd 3d 45 f2 75 bd 05 0b 80 bc
       -0.10393536 0.123826906 -0.0600455 -0.015630255
000020 19 48 95 3d 86 4c 99 3d 77 fe 1a 3e 1c 98 0e 3d
       0.07289142 0.07485299 0.15136133 0.03481303
000030 fb c8 18 3e 91 0a 3a 3d 04 f1 c1 3d 05 33 09 be
       0.14920418 0.045420233 0.09469798 -0.13398369
000040 55 bd 28 3e 5f 90 ab 3d fc 7a 27 3e e2 58 15 3e
       0.16478474 0.08377146 0.16355509 0.14584687
000050 7e c4 70 3c 86 4e ac ba 57 0e 83 bd 19 12 21 3d
       0.014695285 -0.001314596 -0.063992195 0.0393239
000060 61 53 bf 3d c6 a5 24 3e 82 99 f4 3c 3b 4b 34 3e
       0.09342075 0.16078863 0.029858354 0.17606823
000070 29 f4 13 bc c0 1b 17 3e 96 c5 3d be c8 f4 9c bd
       -0.00903038 0.1475668 -0.18532404 -0.07663876

EiLM.0.beta_generator.weight f4 [32, 32]
000000 99 13 07 be ca 03 bd 3d 5a e9 25 3e 8d d8 54 3c
       -0.1319107 0.09229238 0.16202298 0.012991083
000010 bd a0 94 3d 93 25 b9 bd 39 86 f2 bd ef 9b 2b 3d
       0.07257221 -0.0904037 -0.11842007 0.041896757
000020 95 78 63 bc 40 61 7a 3d 68 b7 17 3d 99 03 fe bc
       -0.013883729 0.0611279 0.037040144 -0.031007575
000030 34 df c0 3d 30 c6 bd 3d a0 38 ba bd d9 cd 5c bd
       0.094175726 0.09266317 -0.090928316 -0.05390725
000040 a8 6f 27 3c bf cd dd 3d 7a 1d 10 3d 60 4b 0c bd
       0.010219492 0.108302586 0.03518436 -0.03425157
000050 5d ee be bd cc 47 07 3e ba 22 8a bd 7f cd 45 3d
       -0.09322808 0.13210982 -0.06744905 0.04829168
000060 28 91 f6 bd 7f ad 05 3d d7 55 01 be 9c 68 bb 3b
       -0.12039405 0.032636162 -0.12630402 0.0057192575
000070 10 f5 b1 3c 7a a8 14 3e 29 f2 4f 3a c0 cd c9 b7
       0.0217233 0.14517394 0.0007932508 -2.4056877e-05
000080 2b d3 c7 3d 37 e7 09 3e 3d 27 88 bd 66 1b 8c bc
       0.09757074 0.13467108 -0.06648109 -0.017102908
000090 23 05 24 bb 49 6f 5d 3c f9 f2 a2 3d d4 a3 99 bc
       -0.0025027476 0.013515302 0.079564996 -0.018754877
0000a0 30 aa 59 3d a7 61 0c 3b 19 cb 11 3e e3 11 19 3e
       0.05314082 0.002142051 0.14237632 0.1494823
0000b0 17 7c c7 bd 85 9a b8 bd 7d 2f 49 3d bb ef 2c be
       -0.09740465 -0.09013847 0.049117554 -0.16888325
0000c0 cd e8 1e bc df b3 05 3d 4e 0b 9c bd 12 4f 16 3e
       -0.009699059 0.03264224 -0.07619344 0.146786
0000d0 a9 a0 6d 3d f9 d4 16 3e fc 67 c1 3d f8 17 e4 bd
       0.058014546 0.1472968 0.094436616 -0.11137384
0000e0 e9 99 26 be ec 0e 20 be b8 5d e9 3d fb 01 15 be
       -0.1626965 -0.15630692 0.113948286 -0.14551537
0000f0 2b 67 9c bd 6e 44 ce bd 93 88 b1 bd 9a d5 58 3d
       -0.07636865 -0.10071646 -0.086686276 0.05293808
000100 b5 6d 8c 3d aa bc 2a be 88 d8 da 3d 98 7e 82 3c
       0.068568625 -0.16673532 0.10685831 0.015929505
000110 17 9f 0c 3d ab a4 e9 3c 59 ee 3f 3d 2b ca 2a 3d
       0.034331407 0.028520903 0.046858165 0.04169671
000120 16 f7 b3 bd e9 c6 2b 3e ac c9 1a 3e 63 97 c4 bb
       -0.08787362 0.16775097 0.15115994 -0.005999492
000130 62 a2 1e 3e 01 37 1e be 12 8a 1f 3d 6b e8 1a be
       0.15491632 -0.1545067 0.038950033 -0.15127723
000140 4e cc 2e 3e e8 5c 05 be da fb 1c 3e 48 ff de bc
       0.17070124 -0.13023722 0.15330449 -0.027221337
000150 55 10 06 bd fb 06 f0 3d 34 77 d0 3d f0 4b ee bb
       -0.03273042 0.117200814 0.10178986 -0.007272236
000160 f2 f9 f4 bd c9 b2 ff 3d de 49 05 be 16 2d 03 3e
       -0.11961736 0.124852724 -0.1301646 0.12810168
000170 cd d9 ad 3d 6a 60 29 3e 76 de 49 bc 6b b1 0c 3d
       0.08488808 0.16540685 -0.012321105 0.034348886
000180 24 e2 53 3d d4 13 ad bd 3b 7a 23 be 79 45 a2 bd
       0.051729336 -0.084510475 -0.15964596 -0.07923407
000190 0a 10 93 bd b0 14 46 bd f5 22 88 bd f6 7b 15 be
       -0.071807936 -0.048359573 -0.066472925 -0.14598069
0001a0 64 fe 2d be 53 a3 0e 3d c1 8c 12 3e 66 f6 cf bd
       -0.16991574 0.034823727 0.14311506 -0.10154419
0001b0 9a 10 af bd f1 b8 1a be 6b 06 33 be b2 f7 31 be
       -0.08548088 -0.15109612 -0.17482917 -0.17379645
0001c0 63 72 42 bd 20 54 38 bd 4f 74 c7 bd e8 ac 20 bc
       -0.04747237 -0.045002103 -0.09738981 -0.009806849
0001d0 37 9f d7 bd af 1d 24 be b2 a0 33 be b9 5b ae bd
       -0.10528415 -0.16026948 -0.17541769 -0.085135885
0001e0 09 23 92 3d ec 98 6d 3d 9d 40 d2 3d 4b 0a e2 bd
       0.07135589 0.058007166 0.1026623 -0.110371195
0001f0 6d 5c e4 3d 91 7f 82 bc 67 6a d7 3d fc 96 9e bc
       0.11150441 -0.015929969 0.105183415 -0.019359104
000200 42 5b 11 3e 6e 8b 84 3d 08 37 2c bc 27 c5 0e be
       0.14194968 0.064719066 -0.010511167 -0.13942395
000210 34 99 2a 3c 40 ab 18 3e f4 73 c0 3c 67 33 9a bd
       0.010412503 0.14909077 0.02349279 -0.075293355
000220 14 d3 26 3e d0 bb 90 bd 01 a8 5f 3d 3b 7d 6b bc
       0.16291457 -0.070670724 0.05460358 -0.014373119
000230 c2 4e 67 bd 95 1e e0 3d 85 2a 16 be 63 12 99 3a
       -0.056471594 0.10943333 -0.14664657 0.0011678453
000240 3f 08 17 be 4f 28 56 bd 41 36 e2 bc 2f b8 1b 3c
       -0.1474924 -0.052284535 -0.02761376 0.009504362
000250 16 ea 0b 3e a3 9a 23 be bb 8d 59 bd 67 3a fa bd
       0.13663515 -0.15976958 -0.05311368 -0.122181706
000260 7e aa 03 be d4 7e db bd f4 5e 9a bd a5 b8 9c 3d
       -0.12858006 -0.1071755 -0.07537642 0.07652406
000270 54 a8 5a 3d 51 78 5c bd 03 cb e3 bd 1d 91 82 3d
       0.053383186 -0.05382568 -0.11122706 0.063753344
000280 34 a8 1f 3e 68 fd 21 3e 17 1f 0c be be a1 f7 3b
       0.15591508 0.15819323 -0.13683735 0.007557123
000290 1e 5a b4 3c 33 a5 84 3c a0 c8 d3 3d 09 42 87 bc
       0.022015627 0.016192054 0.103410006 -0.01651098
0002a0 c1 23 25 3e 95 41 7b 3d 37 5e 06 3e 5d 17 20 be
       0.1612692 0.06134184 0.13121878 -0.15633912
0002b0 10 ba 26 be 9d 65 ac bc 2f da 80 bd a9 40 28 be
       -0.16281915 -0.021044547 -0.06291615 -0.16430916
0002c0 39 64 b8 3d b7 bc ef 3d f0 63 50 3d 6f 4e 27 3e
       0.09003491 0.117059164 0.050876558 0.16338514
0002d0 8b a6 46 3d 53 fa 15 bd a2 75 86 bc 5c 7a dd 3d
       0.04849867 -0.03661568 -0.016413514 0.10814354
0002e0 c4 05 2b bd dd 70 25 be 41 58 b1 3d 14 c5 6c bd
       -0.041753545 -0.16156335 0.08659411 -0.057805136
0002f0 58 ad 3a 3e 9f d2 a8 bc 59 72 ef 3d e3 5a bb 3a
       0.18230188 -0.020608244 0.11691732 0.0014294054
000300 e4 0f e4 bd 93 04 eb bd 74 1b 7b 3d f0 a8 2c bc
       -0.111358434 -0.11475482 0.06130548 -0.010538325
000310 70 0e 1a 3e 30 9a 27 3e 8e 0c 1f 3e ba fa 4f bb
       0.1504457 0.16367412 0.15532133 -0.0031735138
000320 c8 05 b3 3d 10 47 22 be 09 2a 03 3e e8 dc 13 3e
       0.08741337 -0.1584742 0.12809004 0.14439738
000330 35 35 2f bd 7d 4d 8b 3d d9 ac 22 bd cb 76 21 be
       -0.04277535 0.06801889 -0.03971562 -0.15767972
000340 08 92 9a bd 01 7b 70 3d 30 84 b6 3d bf de cd 3d
       -0.075473845 0.058711056 0.089119315 0.10052251
000350 2e 13 11 be e2 df 68 3d 73 22 40 3c c1 4e 8c bd
       -0.14167473 0.056854136 0.011726963 -0.068509586
000360 84 d1 dc 3d f7 58 8a 3d 8c 66 1c 3e 1f 84 b1 bd
       0.107821494 0.0675525 0.15273494 -0.08667778
000370 39 ee 3d 3c be aa 3d 3d 2a 57 cf bd 1f 9b ce 3c
       0.011592441 0.04630541 -0.10124047 0.025220452
000380 33 e5 ea 3d e3 10 30 bd 2b 5c a1 bd d8 a5 de 3c
       0.114694975 -0.042984854 -0.07878908 0.02717869
000390 51 b4 80 bd 72 1f 19 3e d8 ef 18 3e b0 58 10 3e
       -0.062843926 0.14953402 0.14935243 0.14096332
0003a0 db 23 14 be 90 a0 c7 3c 99 d3 04 be 17 30 be 3d
       -0.14466803 0.024368554 -0.12971343 0.09286516
0003b0 1d 1b 19 3e d1 c7 aa bd bf f1 d2 3d ac 13 a6 bd
       0.14951749 -0.08338893 0.10300016 -0.08109221
0003c0 29 ff 3d 3e 70 0a a7 bd e5 37 f1 bd fd 3b 13 3e
       0.18554367 -0.08156288 -0.11778239 0.14378352
0003d0 0c 0b 36 3e f5 00 aa bd 8b 1e d3 3d 73 02 e8 3d
       0.17777652 -0.08300964 0.1030856 0.11328592
0003e0 b9 1e ce bc 91 0c c6 3d ac 96 29 be b7 e7 a7 bd
       -0.025161134 0.096703656 -0.16561383 -0.08198493
0003f0 b6 0f 09 3e 21 5a d3 3c 5c 88 19 be f2 db 87 3d
       0.133849 0.025799813 -0.14993423 0.06633748

EiLM.1.gamma_generator.weight f4 [1, 32]
000000 42 23 10 bd bd 21 a9 bd 83 97 1f 3e 9e 35 28 3c
       -0.035189874 -0.08258388 0.15585141 0.01026669
000010 97 00 e1 bd a9 47 d1 3d 20 4a f4 bd 8c c3 8d bd
       -0.10986441 0.10218746 -0.11928201 -0.06922063
000020 ac f4 92 3d a5 89 e1 bd b7 a1 cb 3d 8e 1e e5 3c
       0.07175574 -0.11012582 0.09942954 0.027968671
000030 d5 49 00 3e a2 9d e8 3d 3a a9 e2 bd a5 c9 0d 3d
       0.12528165 0.11358191 -0.11067434 0.03461613
000040 8e a6 a1 3d 0a db 03 be 59 86 37 be e4 3e ab 3d
       0.07893096 -0.12876526 -0.17922343 0.08361605
000050 2d 73 38 be 51 91 45 bc 0d 63 20 3e 2d 7c ad 3d
       -0.18012686 -0.012058572 0.15662785 0.0847095
000060 7c 22 4f 3d 2d 0d 6b bd 75 3e ee 3d cf 18 98 3d
       0.050569996 -0.057385612 0.116330065 0.07426607
000070 cf 65 b8 3c 96 1b 44 3e df 42 02 be 4b 9a 0c 3e
       0.022509484 0.19151148 -0.12720822 0.13730733

EiLM.1.beta_generator.weight f4 [32, 32]
000000 ca 51 33 be 19 87 10 be 9d f6 05 3e c4 c1 33 3e
       -0.17511669 -0.14114036 0.13082357 0.17554384
000010 bf 4a 0e be a2 e6 3d be 1a 16 a2 bd 99 af 8d bd
       -0.13895701 -0.1854501 -0.07914372 -0.06918258
000020 11 f7 33 3c 22 70 46 bc 91 89 ae 3d df 52 43 be
       0.010984198 -0.0121116955 0.085223325 -0.19074582
000030 17 d7 7f bd 57 4c 2f 3d 85 41 16 be eb 24 0e 3c
       -0.062460985 0.042797413 -0.14673431 0.008675794
000040 d6 89 20 be b7 48 0c 3e 48 2e 76 bc 31 c8 23 3e
       -0.1567758 0.13699614 -0.015025683 0.15994336
000050 8c 58 3e 3e 1e 27 97 bd 2a d9 74 bc 10 62 0b be
       0.18588465 -0.07380508 -0.014944354 -0.13611627
000060 96 83 b3 3d 63 a6 06 3e 99 32 8b bc c8 6f f2 bd
       0.087653324 0.13149409 -0.0169919 -0.11837727
000070 b1 80 16 be e3 ae fb bc 1e 83 78 bd 3c ba 36 be
       -0.1469753 -0.03072304 -0.060671918 -0.1784448
000080 d5 ec ef bd d2 1a eb bd ad 3d af 3d c4 fe 07 3e
       -0.11715094 -0.11479725 0.085566856 0.13280779
000090 e5 5d bb 3c a7 4e cc 3c b6 cb 16 3e 42 c9 a6 3d
       0.02287192 0.024939848 0.14726147 0.08143856
0000a0 eb 32 c8 3d 50 43 00 be 06 b8 c2 bd fb 6d 64 3d
       0.09775337 -0.12525678 -0.09507756 0.055768948
0000b0 1f 3a ba bd 5e c1 12 be b5 8b 0f be 6a b5 cc 3d
       -0.09093117 -0.14331576 -0.14018138 0.099955395
0000c0 ce 29 c3 bc 36 34 c6 bc bc 79 e9 3d 9e 52 d0 bd
       -0.023823645 -0.024194818 0.11400172 -0.10172008
0000d0 06 61 2e 3d 50 15 35 3e 67 b9 83 3d 18 07 d9 bd
       0.042572998 0.17683911 0.06431847 -0.10597056
0000e0 39 21 d8 3d a3 95 f4 bd 3b 56 bc bd 67 7c 96 3d
       0.10553212 -0.119426034 -0.09196135 0.073479466
0000f0 24 9e a3 bd 20 6d e6 3d 83 4f 9d 3d ce d7 6d bd
       -0.07989147 0.11251283 0.07681181 -0.058067136
000100 a6 eb 9f 3d a3 19 c3 3d 30 75 e3 bd f5 29 0c 3d
       0.07808618 0.09526374 -0.11106336 0.0342197
000110 cb 5d ca 3c c0 79 9d bd 62 44 45 bd 22 88 cf 3d
       0.024702927 -0.076892376 -0.048160918 0.10133387
000120 47 fc b4 bd 37 ff a6 3d 1b ba df bc 7a 22 6c 3d
       -0.088371806 0.08154147 -0.027310422 0.057650067
000130 d4 86 b3 bd 02 0b 09 3b fd 01 30 3e da 8b ca 3d
       -0.08765951 0.0020911102 0.17188258 0.09889956
000140 7d ad 19 bc dd 50 e0 bd 57 e6 ed 3d c5 8e 16 be
       -0.009379742 -0.109529234 0.116161995 -0.147029
000150 7b 7d 40 3d bf 48 d2 3c 7b 67 d1 3d e3 0c 7d bd
       0.046994668 0.025669454 0.102248155 -0.061779868
000160 aa 56 09 3e 46 28 2a 3e 58 bc 06 be f4 13 c3 3d
       0.13411966 0.16616926 -0.13157785 0.0952529
000170 d3 ff 19 be c6 2e 42 bd f2 c6 04 3e cf cf b5 3c
       -0.15038995 -0.047407888 0.12966517 0.022193817
000180 e0 e3 5e bd 8e 5f 27 ba 0a 30 cf bd 4f 1d 14 3e
       -0.054416537 -0.0006384783 -0.101165846 0.14464305
000190 57 7d b1 3d 8b 33 12 3e de 58 0b be c8 b6 1d 3e
       0.08666485 0.14277475 -0.13608119 0.15401757
0001a0 e4 13 9c 3d 30 6f 02 3d 82 c2 19 3e 3d f2 2c 3e
       0.07620981 0.031844318 0.15015605 0.16889282
0001b0 b5 b2 1c be 26 f5 ef bd 13 c9 9a bd 0e e1 15 3c
       -0.15302546 -0.1171668 -0.07557883 0.0091478955
0001c0 a0 b8 c3 bd 49 1b d7 3d 45 c8 52 bc dc f9 c5 3d
       -0.09556699 0.10503251 -0.012865131 0.096667975
0001d0 3d a8 33 3d 66 50 c2 3d 9b a0 82 bd 0b 7b 17 be
       0.043861616 0.09487991 -0.06378289 -0.14793031
0001e0 60 5b 5c 3b c7 be 9d bd d4 bd b3 bd c0 a9 6c 3d
       0.00336238 -0.077024035 -0.08776441 0.057779074
0001f0 7a aa fc bd b8 c8 0f 3e b5 2c b6 3d 30 5f 29 3e
       -0.12337203 0.14041412 0.08895246 0.16540217
000200 5d ec cb bd bc 6c 8f bd 8c fd 99 3d a0 3a d2 3d
       -0.09957192 -0.07003161 0.07519063 0.10265088
000210 ca 9a f7 bd 14 04 55 3d 46 7d 30 3e 24 00 a2 3d
       -0.120900705 0.052005842 0.17235288 0.07910183
000220 e7 56 39 bd fe 4d ae 3d 74 43 00 be c3 a9 e7 3c
       -0.045248892 0.085109696 -0.12525731 0.02827919
000230 ce 6a 27 3e 97 17 a2 3d b4 81 0b 3e e4 c7 37 bd
       0.16349337 0.07914656 0.13623697 -0.044868365
000240 c6 d3 8f 3d dc 49 0d 3e 3c f6 24 3e 07 39 ee bd
       0.070228145 0.13797706 0.16109556 -0.11631971
000250 f5 d7 83 bc 14 2e 04 bd 1f 74 a3 3d dd fe 65 3d
       -0.016094187 -0.032270506 0.07981133 0.05615126
000260 7c ca e3 3d 3a f9 b2 3d 8e 5e f3 bd 46 02 31 3e
       0.11122605 0.087389424 -0.11883269 0.17286023
000270 8c 93 09 3e 49 a1 9d 3c 1e 2e 30 be 6f c7 08 3d
       0.13435191 0.019241946 -0.17205092 0.03339332
000280 36 a5 00 be ce 21 a5 3c 2b 95 ec bd d8 6e 31 3d
       -0.12563023 0.02015772 -0.11551889 0.0433186
000290 b8 12 19 be 2d 5d 38 bc 03 85 c7 3d 24 f4 92 3d
       -0.14948547 -0.011252684 0.09742167 0.071754724
0002a0 99 44 00 3e 7d c1 cd 3d 0d f7 14 be 6e 85 d6 bd
       0.12526168 0.100466706 -0.14547367 -0.104746684
0002b0 31 4e 2a be ba cc b9 3d 02 1c 4f bc 5a 8c 34 be
       -0.1663139 0.090722516 -0.012640955 -0.17631665
0002c0 cc 23 63 bd 1d 05 c1 bd b6 e7 1a 3d 4d 88 92 3d
       -0.05545406 -0.094248034 0.037818633 0.071549036
0002d0 b5 0d 14 3c 5e 64 8c bd 89 3a 44 bd 7b d1 fc 3d
       0.009036471 -0.06855081 -0.047907386 0.12344643
0002e0 dc 04 d8 3d 57 7e 4a 3d af f9 1d be 9b f6 4e 3c
       0.10547802 0.049436893 -0.15427278 0.0126320375
0002f0 2f 2c 9e 3c bd ff d8 bc 67 fb 20 be a7 7c 2f be
       0.019308178 -0.026489133 -0.15720902 -0.17137395
000300 f6 e3 8f bd b9 92 ad 3d 9f 20 64 3d 65 f9 e3 bc
       -0.07025902 0.08475251 0.055695172 -0.027828882
000310 d2 f5 96 bd d0 c3 99 3d e4 2c 9f 3d d1 1a eb bd
       -0.07371105 0.075080514 0.07772234 -0.11479724
000320 63 49 95 bd 44 c5 87 3d 18 2a 2c be 15 2e 1a be
       -0.07289388 0.06629422 -0.16812932 -0.15056641
000330 b0 cf 02 3b 6f 53 94 3d 1a 3a 17 be 62 0d 68 bd
       0.0019960217 0.07242476 -0.14768258 -0.056653388
000340 49 60 99 bc d7 d0 30 be 09 cb cf bd c8 4e f2 bd
       -0.01872267 -0.17267166 -0.10146148 -0.118314326
000350 01 1f f1 3d a2 b6 fa bd 3f 02 e3 3a 4c 43 91 3d
       0.11773492 -0.12241866 0.0017319395 0.07092914
000360 0e d1 24 3e a2 23 bb 3c 5b 95 0a bd cd e8 f0 bc
       0.16095373 0.02284414 -0.033833843 -0.029407883
000370 72 1a c5 bd 4a dc fc bd 25 4c 95 bd 8a bb 0b bd
       -0.09624185 -0.12346704 -0.07289914 -0.034114398
000380 cf 5f 1a be a0 2e e9 bb a1 59 67 3d da cd cd 3d
       -0.1507561 -0.007116154 0.05648196 0.10049029
000390 cd 08 1c 3e 6a be da 3d 37 da 0d 3e c6 7e 2d 3e
       0.15237732 0.1068085 0.13852774 0.16942891
0003a0 f8 79 df 3d cb b5 00 3e d6 12 18 be 61 1d 1f 3e
       0.109119356 0.12569349 -0.14850935 0.15538551
0003b0 0f 66 a2 bc 7f b4 a8 3d a9 aa e3 bd a6 68 2b be
       -0.019824056 0.08237552 -0.11116535 -0.16739139
0003c0 37 60 67 bd 61 33 23 be 57 5c a6 3d e4 99 e3 bd
       -0.056488242 -0.15937568 0.08123081 -0.11113337
0003d0 8e 19 f6 bb 97 d6 2c 3e d7 17 8f 3c 1f 7f 05 3d
       -0.0075103706 0.16878735 0.017467422 0.032591935
0003e0 27 98 c1 3a 71 f6 95 bd 1e 83 09 3d e0 10 ec bd
       0.0014770076 -0.073223956 0.03357231 -0.11526656
0003f0 98 f7 8c bd 3f 7a e9 3d 4e d1 32 3e dd 5e f3 3d
       -0.06883162 0.1140027 0.17462656 0.11883328

EiLM.2.gamma_generator.weight f4 [1, 32]
000000 cd 4b 03 3e 1b f3 e9 3d bb 85 d4 bd 9c b5 8b bd
       0.12821884 0.11423322 -0.103770696 -0.068217486
000010 fe 60 12 3e 8b 54 2f 3e 7d 23 6f 3a 44 41 9a ba
       0.14294812 0.17122094 0.00091224146 -0.0011768718
000020 29 a1 9c bd 0e 9b 02 be a4 da 96 bd a4 cd 28 3e
       -0.07647926 -0.12754461 -0.07365921 0.16484696
000030 48 88 e8 3d 94 12 34 3e 17 b2 17 3e f0 83 17 3e
       0.113541186 0.17585212 0.1481403 0.14796424
000040 4e c2 2b bd 6d 1d 0c 3e 6b b0 79 3c 4d d1 82 bd
       -0.04193335 0.136831 0.015239815 -0.06387577
000050 78 f6 41 be 02 c7 d7 bd 8e 89 ff bc 50 65 0a be
       -0.18941677 -0.105360046 -0.03119352 -0.1351521
000060 bf a6 0b 3e 8b 60 bd 3d c1 95 db bc d9 d3 4e bd
       0.13637827 0.0924693 -0.026804807 -0.050495002
000070 a3 98 c3 3d f8 c7 64 3d 10 3a 48 3e 0d 92 8b bc
       0.095505975 0.055854768 0.19553399 -0.017037416

EiLM.2.beta_generator.weight f4 [32, 32]
000000 9f 6d bb bd 90 e8 d9 bd 4b 50 6e bd 91 87 8b 3d
       -0.09151768 -0.10640061 -0.058182042 0.068129666
000010 c6 af aa 3b 25 3e 34 3e 59 de 04 3e af 7a b4 bd
       0.005208942 0.17601831 0.12975444 -0.088124625
000020 a5 a6 24 3d fc 0d e9 bd dd 18 24 3e e4 3f 73 3c
       0.040197987 -0.113796204 0.1602511 0.014846776
000030 0b 68 14 3a b0 20 18 3e f8 3a 70 3c 04 1f aa bd
       0.00056612556 0.1485622 0.014662497 -0.08306697
000040 a3 aa e8 bd 7b 62 ba 3d b4 bb a8 3d 78 a6 05 3a
       -0.11360671 0.09100815 0.082389265 0.0005098353
000050 63 f8 34 be d8 1d 43 ba 4a 71 31 be cf 37 17 be
       -0.17672877 -0.0007443107 -0.17328373 -0.14767383
000060 02 81 11 3d 8f cd b2 bd 80 02 3f bd 84 d5 95 bd
       0.035523422 -0.087306134 -0.046633244 -0.073161155
000070 d3 18 f4 bc da be 0c be ce 64 09 3e cb 23 31 3d
       -0.029796993 -0.13744679 0.1341736 0.043247025
000080 50 0a 85 ba c1 d1 97 3d c3 c2 8f 3d 73 52 04 be
       -0.0010150168 0.07413054 0.0701957 -0.12922077
000090 d5 6c 2c be 1d 4b 90 bd c3 4f 5b 3c e4 81 88 3d
       -0.16838391 -0.07045577 0.013385716 0.066654
0000a0 69 78 d1 bc 15 4a 1c 3e 94 a1 83 3d 99 fd 23 be
       -0.025570111 0.15262635 0.06427303 -0.16014709
0000b0 ea 73 3b bd ee 86 50 bd 92 ef ba ba e0 e7 c3 bd
       -0.04576484 -0.05090993 -0.0014262071 -0.09565711
0000c0 b7 8f 95 3d 6d 13 2f 3e e7 2a 21 3e b1 93 0c bb
       0.07302802 0.17097254 0.15739022 -0.0021450336
0000d0 38 ce 1a 3e ac 92 1a 3e 0f 18 a8 bd ef aa 1e be
       0.15117729 0.15095013 -0.08207714 -0.15494893
0000e0 eb 67 2e bc 1e 50 24 be d3 dc b6 bd a6 6e 23 3e
       -0.010644893 -0.16046187 -0.089288376 0.15960178
0000f0 57 bb ec bd 18 e0 11 3e e8 71 df bd 7a 09 2d be
       -0.1155917 0.14245641 -0.10910398 -0.16898146
000100 02 49 3e bd 69 58 e7 3d 24 fa 10 3e d9 4c c8 3d
       -0.046456344 0.1129616 0.14157921 0.097802825
000110 ba 73 16 be ac 71 18 3e 7e 8e 67 3d 85 2e d0 3d
       -0.14692584 0.14887112 0.056532376 0.10165123
000120 96 cd b9 3d 70 c6 88 bd 25 0f 3a 3d cd 86 e8 3d
       0.090724155 -0.06678474 0.0454246 0.11353836
000130 d6 21 80 bb 91 55 fc 3d f6 eb 2e 3e 33 7a 09 be
       -0.0039102836 0.12321008 0.170822 -0.13425522
000140 d2 e3 0d be 22 e7 8e 3d 8c 6a da 3d 5f c1 02 bd
       -0.13856438 0.06977679 0.106648535 -0.031922694
000150 58 b4 17 bc 7d 45 e2 bd 4c cb 6c 3d 7f 14 84 bd
       -0.009259306 -0.1104841 0.057811067 -0.06449222
000160 5b 11 2c be 5b f8 27 3e 3a 13 19 bd 98 1b 0d be
       -0.16803496 0.16403334 -0.03737185 -0.13780057
000170 40 41 91 3d 48 5d 3a 3c c8 5a fe 3d 7d 3b 5a 3c
       0.070925236 0.011374779 0.12419659 0.013319847
000180 17 4a d6 3c f7 0b e5 bc ae 02 08 3e 99 89 66 3d
       0.026158376 -0.027959807 0.13282272 0.056283567
000190 70 3c 0f 3e c4 73 f1 3c 40 06 32 3e 68 16 f2 3d
       0.13987899 0.029474147 0.17385197 0.1182068
0001a0 26 8f c3 bd bc c8 c3 bd d5 08 31 3d cd 61 e7 3d
       -0.09548788 -0.095597714 0.043221314 0.11297951
0001b0 d3 2d 05 be 7b f9 ff 3d 6c 23 31 bc 3a 50 c6 3c
       -0.13005762 0.124987565 -0.010811668 0.024208177
0001c0 42 8d 94 bd 9c ae b5 bd 9e 50 ec 3d 13 cf a8 3c
       -0.07253505 -0.08871195 0.11538814 0.020606553
0001d0 ff c4 a8 3d 1e db a2 bd 28 34 0d 3e e1 d2 23 3e
       0.08240699 -0.079519495 0.13789427 0.15998413
0001e0 ac d5 a4 3d b9 2c 1d 3e 8d 88 71 bd 0c ed 8d 3c
       0.08048567 0.15349092 -0.058968116 0.017324947
0001f0 c6 9a 17 be a8 01 4c 3d f6 31 40 bd 74 c2 ab 3d
       -0.14805135 0.049806267 -0.046922646 0.08386698
000200 97 01 d8 3d 77 55 c4 3d e7 e4 8a bd 46 46 02 be
       0.10547178 0.095866136 -0.06781941 -0.1272212
000210 fc 46 67 3d 22 df b1 bd 7e 53 35 3e 87 89 17 3d
       0.05646418 -0.08685137 0.17707631 0.03699639
000220 56 b8 a2 3d d9 2b 9e 3d 02 41 30 be 21 19 df 3d
       0.079453155 0.07723207 -0.17212299 0.10893465
000230 5a 9b 05 3e 10 0f 0b bd ea c3 48 3d 73 bf cb 3d
       0.13047543 -0.03394991 0.049014963 0.099486254
000240 b9 ec d1 bd 72 8b bb 3d 40 a5 06 be 19 97 1f bc
       -0.102502294 0.091574565 -0.13148975 -0.009740614
000250 9a af 19 3e 48 c5 0e bd 22 da 0d 3e 33 c0 ad bd
       0.15008393 -0.03485611 0.13852742 -0.08483925
000260 71 96 16 3e 88 f3 2a be 8b 44 01 be db e2 2a be
       0.14705826 -0.16694462 -0.12623803 -0.16688101
000270 73 59 9b 3d ff 8f a6 3d 92 aa 95 bd 23 a8 10 be
       0.075854205 0.08132934 -0.07307924 -0.14126639
000280 01 1d d1 bd 5c a7 b5 3d eb ed 93 bd 73 51 03 be
       -0.1021061 0.08869812 -0.072231136 -0.12824039
000290 01 a2 00 be 5b ba cb bc 25 52 2c 3c 35 a2 2a 3e
       -0.125618 -0.024869135 0.010517632 0.1666344
0002a0 06 f4 01 3e 30 08 5a 3a be 41 a0 3d 92 62 6b bd
       0.12690744 0.000831726 0.07825039 -0.05746705
0002b0 6c ba 54 3d 2c 1f 14 3e 4d ff 64 bc 79 47 b1 bc
       0.0519356 0.14465016 -0.013976884 -0.021640526
0002c0 74 23 1e be e4 2e 8b bd 1f d8 15 be 8c b3 32 3e
       -0.15443212 -0.06796053 -0.14633225 0.17451304
0002d0 d0 e8 b5 3d 4b df 32 be f2 8b 2b bd 90 ea 50 3b
       0.08882296 -0.17467992 -0.04188151 0.0031878091
0002e0 31 d6 06 3e 20 e5 17 3e 5b b2 98 bd 5f 58 ac bd
       0.13167645 0.14833498 -0.074558936 -0.08415293
0002f0 9f 1c 27 be b3 01 a5 3d de 7d 12 be a3 9e 2c 3e
       -0.16319512 0.08056965 -0.14305827 0.1685739
000300 bb 2d 32 be 25 0a 8f 3d 6b 2f e6 3d b0 3d e9 3d
       -0.17400257 0.06984357 0.11239513 0.11388719
000310 19 21 2f 3e e5 0e 2f bd 1f e2 81 3d 7f 1e 16 3d
       0.1710247 -0.042738814 0.06341957 0.036650177
000320 64 31 ef bd 6d 93 8a bc 49 17 0e be 31 eb 64 3c
       -0.116793424 -0.016916001 -0.1387607 0.01397209
000330 1e 89 d0 bc 7e dc a1 3d 55 2d db 3d 00 1e 81 bd
       -0.025456008 0.07903384 0.10702006 -0.0630455
000340 85 6d 90 3d 3e 09 c1 3d 8d bf 3b 3d 00 a8 b6 bd
       0.07052139 0.09425591 0.045836974 -0.08918762
000350 a0 31 1a 3e c8 c0 c7 bb c6 dc ca 3c 76 2c 8b 3d
       0.15057993 -0.0060959794 0.024763476 0.067955896
000360 26 5c 13 be 82 e9 1e bd 9d f4 0b be 23 42 be 3d
       -0.1439062 -0.03879691 -0.13667531 0.09289958
000370 17 c5 d7 bd 23 6a ab 3d 59 59 f1 bd a4 fe 4c 3d
       -0.10535639 0.08369853 -0.1178462 0.05004753
000380 53 55 77 3d 19 d0 45 3c eb b4 94 bd b2 7b 3e be
       0.060384106 0.01207354 -0.0726107 -0.18601874
000390 38 c7 86 3c 14 ad 00 3e 4e 30 07 be 50 80 9f 3d
       0.016452417 0.12566024 -0.1320202 0.077881455
0003a0 78 ed d0 3d ec 28 b2 bc 91 19 ee bd 27 f0 f0 bc
       0.102015436 -0.021748029 -0.1162597 -0.029411389
0003b0 ce 4e 9f bc de 43 5c bd 42 c7 22 be b0 34 00 bd
       -0.019446757 -0.05377566 -0.15896323 -0.031300247
0003c0 19 47 39 bc 2f 16 e8 3d 7a 2c f9 39 5b 07 65 3c
       -0.011308455 0.11332356 0.0004752612 0.013978804
0003d0 92 02 af 3d da 77 ab 3d 7e 13 93 bd 94 ba 99 3d
       0.08545412 0.08372469 -0.07181452 0.0750629
0003e0 e0 21 ca 3d cc e0 a8 bd c9 1b 0a 3d 99 08 13 3c
       0.098697424 -0.082460016 0.033717904 0.008974218
0003f0 37 91 e9 3d 85 3a 01 3d 9b e1 f2 bd f0 1c 31 bd
       0.11404651 0.03154995 -0.11859437 -0.043240488

EiLM.3.gamma_generator.weight f4 [1, 32]
000000 8a f8 90 bd 4a 06 9e bd cd a9 45 bd 57 f4 20 be
       -0.07078655 -0.07716043 -0.048257638 -0.15718208
000010 4e 8c 3c be d2 f1 3b 3d 24 6d 06 be fb 0a 39 be
       -0.18412897 0.045884915 -0.13127571 -0.18070595
000020 7c 88 1f be 65 8c d9 bc 00 d0 5f bc 76 1b 13 be
       -0.15579408 -0.026556203 -0.013660431 -0.14365944
000030 9e a4 f2 3d 76 00 1f 3c 44 8c 98 b9 c8 fc 1c be
       0.118478045 0.0097047 -0.00029096205 -0.15330803
000040 ee 0d b2 bd a7 23 10 be 41 5a e4 3d 6a 1f dc bd
       -0.08694063 -0.140761 0.11150027 -0.10748179
000050 81 c5 19 be 8b ee 13 be 95 27 4a 3d 7f cf fa bd
       -0.15016748 -0.14446466 0.049354155 -0.12246608
000060 da a4 ba bd f9 8d d2 3c 80 b8 8b 3d 31 e4 24 3e
       -0.09113474 0.025702463 0.068223 0.16102673
000070 cc 04 e2 bd c1 0b bc bd 8d 9d 01 be 6f 24 ca bd
       -0.11036071 -0.091819294 -0.12657757 -0.098702304

EiLM.3.beta_generator.weight f4 [32, 32]
000000 46 9f 1e 3e b7 7f 44 3c ac 2c 03 be dd 8a a6 3d
       0.15490445 0.01199334 -0.1281001 0.08131955
000010 70 02 14 be 45 92 15 3d 99 da ad 3d c9 fc 05 3d
       -0.14454055 0.036516447 0.0848896 0.032711778
000020 c0 c6 7a bd 4e 92 c3 bd 11 37 a2 3c 2c 1b f7 3d
       -0.0612247 -0.0954939 0.019801648 0.120657295
000030 2a ad d6 bd d6 3a 00 3e ba b1 07 3e 13 25 80 bd
       -0.10482247 0.12522444 0.13251391 -0.06257071
000040 f7 35 c1 3c 91 d5 1a be 41 42 fc 3d 4f 5f c8 bd
       0.023585303 -0.15120532 0.123173244 -0.09783804
000050 e4 75 14 be c7 0c b0 3d b1 56 9d 3c 13 72 26 be
       -0.14498097 0.08596187 0.019206377 -0.16254453
000060 c8 83 d6 bc b5 80 1a be d2 1d 06 be ea 3c b6 3d
       -0.026185885 -0.1508816 -0.13097313 0.08898337
000070 5d 8a 03 3e a9 62 98 bc c0 32 c8 3d 83 c5 ae bc
       0.1284575 -0.018601732 0.09775305 -0.021334415
000080 6e 6b a1 bd 8c 10 fd 3d d0 77 e8 3d b3 82 15 3c
       -0.07881819 0.12356672 0.113509774 0.009125399
000090 dd 3e e7 bd 8b 96 79 3d e0 4d 32 3e df 50 8b 3d
       -0.11291287 0.060934585 0.1741252 0.06802534
0000a0 a3 27 9c 3d 56 9d e8 3d 9b c3 b0 3d 55 74 24 bc
       0.076247476 0.113581344 0.08631059 -0.010037501
0000b0 4b a3 15 3e 45 3a 83 3d 1c a9 83 3c 88 32 c8 bc
       0.14613073 0.064075984 0.016071849 -0.024438158
0000c0 70 60 04 be 12 c5 2e 3e 3d 00 00 3e b1 3e ae 3c
       -0.12927413 0.17067364 0.12500091 0.021270128
0000d0 c6 65 66 3d 84 1e 0b 3e 98 68 0d 3d ac 7b 13 bd
       0.056249402 0.1358586 0.034523576 -0.036006615
0000e0 a4 3f 82 bd fe 1c db 3d 95 52 26 3e f7 50 3c bd
       -0.06359795 0.10698889 0.1624244 -0.04597565
0000f0 4b 4d 56 3d ad 4b 52 3d ca ae f1 3d f7 d3 0d 3d
       0.052319806 0.0513417 0.118009165 0.034625974
000100 33 50 01 3e 10 a4 b9 3d ee 8e 11 be 70 d8 62 3c
       0.1262825 0.090644956 -0.1421468 0.013845548
000110 d7 a9 06 3c 4b 23 ba 3d 16 ec 5f bd 36 e4 1e 3e
       0.008219204 0.09088763 -0.05466851 0.15516743
000120 5d 8d 16 be de 4d eb bd 56 c3 35 3e 68 13 ba bb
       -0.14702363 -0.11489461 0.17750296 -0.005678583
000130 6f cc 91 bd 25 3c d7 3d b7 09 72 bd 03 3f 23 be
       -0.07119071 0.105095185 -0.059091296 -0.15942006
000140 97 14 b7 bd ee d4 73 3d 33 85 e9 bd 91 46 e4 3d
       -0.08939474 0.059529237 -0.11402359 0.11146272
000150 9f a3 94 3d 6e e2 2b be 29 b9 bb 3d a0 c4 2b 3e
       0.07257771 -0.16785595 0.09166176 0.16774225
000160 c7 80 2f be 1e 76 a1 bc 08 34 1b 3e 40 7b 11 be
       -0.17138968 -0.019709643 0.15156567 -0.14207172
000170 a8 d7 0a 3e 77 af 00 3e 6b 14 15 bd 60 36 4c bd
       0.13558829 0.12566935 -0.036396425 -0.049856544
000180 c5 95 0b be bd fe 4f bc 83 fd fb bc d2 47 9b 3c
       -0.13631351 -0.012695012 -0.030760532 0.018955145
000190 3b e9 0a 3e 1d 75 cf bd ce 81 64 3d 1d c9 be 3d
       0.13565533 -0.101297595 0.055787854 0.09315703
0001a0 c2 5e 11 3c d9 20 35 3e 5a 21 82 bd 9f 50 0b 3d
       0.00887269 0.17688312 -0.063540176 0.034012433
0001b0 02 eb e1 bc 9f 6d 17 3e da 56 05 3e d5 ad f5 3d
       -0.02757788 0.14787911 0.13021412 0.119960465
0001c0 2a d0 a4 3d 5b 53 2f 3e f8 11 40 3d ed e7 91 bd
       0.08047517 0.17121641 0.046892136 -0.071243145
0001d0 aa 00 8b bd c5 03 34 3e 11 f2 44 bc 4b 5a ee bc
       -0.06787236 0.17579563 -0.012020604 -0.02909579
0001e0 70 cd b5 bc aa 7f a3 3d 66 48 2f be db 09 86 3d
       -0.022192687 0.07983334 -0.17117462 0.065448485
0001f0 28 13 eb 3d 20 0b b4 3c 8d b0 c9 bc 4d 64 f0 3d
       0.11478263 0.021977961 -0.024620319 0.11737881
000200 28 93 a1 3d af 33 27 3d 57 52 1c 3e 99 71 e3 bd
       0.07889396 0.040820774 0.15265785 -0.111056514
000210 ea a3 7c bb 32 e0 00 3e 3e 5c ec 3d 20 0b 1b 3d
       -0.0038549849 0.12585524 0.11541031 0.037852407
000220 53 3f 74 3c 77 5c 91 bd 4b 63 b6 bd 20 4b bd bd
       0.014907676 -0.070977144 -0.089056574 -0.092428446
000230 dc 40 61 3c 83 f3 a8 bd 4b 6d 01 3e 24 7d 05 3e
       0.013748374 -0.08249571 0.12639348 0.13036019
000240 25 7b 9d 3a e9 36 0b be 88 77 fb 3d c3 76 6a bc
       0.0012014849 -0.13595165 0.12278658 -0.014310542
000250 17 8d 2f be b2 14 f6 bd 6c cf 99 bd 62 ab c9 bd
       -0.17143665 -0.12015666 -0.07510266 -0.09847142
000260 e9 cf 07 3d ea a9 e4 bd 4c 29 14 3d 5e 49 16 be
       0.033157263 -0.11165221 0.036172196 -0.14676425
000270 39 09 0e 3e 99 80 12 3e fc 7f 55 3d d2 b3 c1 3d
       0.13870706 0.14306869 0.05212401 0.09458126
000280 fe 2f 33 3e 84 ab 1a 3e e9 0b 34 3e b3 f3 7c 3c
       0.17498776 0.1510449 0.17582668 0.015438962
000290 1e d8 ab bc 19 4f 26 3e 16 4b 19 be 06 33 8d ba
       -0.020977076 0.16241111 -0.1497005 -0.0010772652
0002a0 c3 9e 57 bd ca 20 1b bd e6 b3 99 bd 73 53 22 be
       -0.05264164 -0.037873067 -0.07505016 -0.15852146
0002b0 df 54 10 bd 84 c6 13 be 93 e4 f8 bd 7c fe f3 bd
       -0.03523719 -0.14431196 -0.12152972 -0.119137734
0002c0 a7 29 06 be ef fa 21 be f5 fa 83 bd 90 26 ff bc
       -0.13101827 -0.1581838 -0.06444351 -0.031146318
0002d0 57 45 80 3d 29 7b 25 be f5 6d c7 bd 2d 36 96 bb
       0.062632255 -0.16160263 -0.097377695 -0.004584095
0002e0 7e 70 25 3d 7f f3 e2 bd 2b c0 06 3e 63 cd 1f bd
       0.040390484 -0.110815994 0.13159244 -0.03901423
0002f0 bb f0 0f be fa fc 2e 3e 86 f2 37 3d cd 9d 8d 3d
       -0.14056675 0.1708869 0.044909023 0.06914864
000300 79 a9 c7 bd cf 40 a3 bd 0e 1e 4a bd 42 ed f5 bc
       -0.09749121 -0.07971346 -0.04934507 -0.03002036
000310 df 9e f7 bd 11 fa 3d bc 05 00 73 3d 36 80 0f 3d
       -0.12090849 -0.011595265 0.05932619 0.03503438
000320 64 81 e3 3c dd c7 a8 bd 37 d3 37 bd ca cd 02 3e
       0.02777166 -0.08241246 -0.044879165 0.12773815
000330 2b c9 20 3d f7 40 0d bd ba a0 4a 3d d7 fe af 3d
       0.03925435 -0.034485783 0.049469687 0.08593529
000340 77 05 0c bd 78 e9 20 be 4a dc 1c be 02 85 71 3d
       -0.0341849 -0.15714061 -0.15318409 0.058964737
000350 aa f0 15 be 5a 57 1d 3e 87 7d d6 3d 64 da 87 bd
       -0.14642587 0.15365353 0.10473161 -0.066334516
000360 e9 6d 2d bd d8 de e2 3d f8 c9 43 bc 68 5e b9 3c
       -0.042341147 0.1107766 -0.011950009 0.022628024
000370 e6 8f 05 3e 51 94 fe bd 9a 8c 1e 3c b6 88 21 be
       0.13043174 -0.12430633 0.009677077 -0.15774807
000380 3c 44 77 bd 68 8b 0a be f5 3e 1d be 84 45 23 be
       -0.060367808 -0.13529742 -0.15356047 -0.15944487
000390 9c 66 b8 b9 a3 3a 11 3e d4 8d 46 bd 89 30 96 bd
       -0.00035171665 0.14182524 -0.0484751 -0.07333476
0003a0 da 36 ab bc b3 0f 87 3d 74 b3 54 bd 28 39 bc bd
       -0.020900179 0.06594791 -0.051928952 -0.09190589
0003b0 15 df 91 bc 68 fc 0a be ca 1f 13 be a4 79 eb 3d
       -0.01780657 -0.13572848 -0.14367595 0.114978105
0003c0 28 8d 21 3e 7d 3e e8 bd 29 12 14 be 2c 52 32 3d
       0.15776503 -0.11340044 -0.14460053 0.043535396
0003d0 b3 de 2d be ea 08 24 3e 67 25 a9 bd 73 b4 28 bd
       -0.16979484 0.16019025 -0.08259087 -0.041187715
0003e0 94 d1 2b be 46 1c d2 3d 68 4e 0c be 03 96 32 3e
       -0.16779166 0.10259299 -0.13701785 0.17440037
0003f0 f3 15 71 bc 05 81 d4 bd c3 08 ed 3d 41 f4 18 be
       -0.014714706 -0.10376171 0.11573937 -0.14936925

Gate.weight f4 [4, 32]
000000 68 d0 0b 3d 22 9d 19 3e ad 82 32 be a5 95 f3 3d
       0.0341343 0.15001348 -0.17432661 0.11893777
000010 47 45 cb 3d 2e 7a 17 be 64 a8 30 3e 8a 8b 7b 3d
       0.09925323 -0.14792702 0.17251736 0.06141237
000020 7c 6b 24 be b9 b7 1e 3e 60 9b 0a bd e5 ec b6 3c
       -0.16056627 0.15499772 -0.033839583 0.022329757
000030 1c 3d 14 be 31 cd 92 3d 20 40 22 be 03 0b ee bd
       -0.14476436 0.071680434 -0.15844774 -0.11623194
000040 1d b4 15 be 53 77 a9 bd 90 3c 15 be 7c 85 28 be
       -0.14619489 -0.082747124 -0.14573884 -0.1645717
000050 40 3e c6 3c 1f 20 9b 3d d3 14 10 bd ed 42 e9 bd
       0.024199605 0.07574486 -0.03517611 -0.11389718
000060 10 71 e9 bd e4 0b 00 bc 17 51 e9 3d 31 2e 2b bd
       -0.11398518 -0.007815335 0.1139242 -0.0417921
000070 b5 c9 9d bd b8 db d9 bd c6 cd 42 be a3 40 27 3e
       -0.07704488 -0.10637611 -0.19023809 0.1633325
000080 09 f9 fa bd 18 cc fe bd 1d 6a 1a be 95 bb c1 3d
       -0.12254531 -0.124412715 -0.15079542 0.094596066
000090 a6 73 03 be ed 7e 9c 3d 7b cb 0d be 1e b9 20 bd
       -0.12837085 0.07641397 -0.13847153 -0.03923904
0000a0 2d d7 14 3e f7 dd 34 bd 04 e7 c9 bd 93 bf af bd
       0.14535208 -0.044156995 -0.09858516 -0.08581462
0000b0 64 1a 69 bd 83 14 fe 3b 14 df 70 3b e4 da e2 3d
       -0.056909934 0.00775391 0.0036754059 0.11076906
0000c0 30 94 07 3e 02 61 45 bd f6 07 2c 3e eb 14 ed bd
       0.13240123 -0.048188217 0.16799912 -0.115762554
0000d0 8e cb 89 bc 42 c6 92 3c b4 18 d9 3d 6e db 04 3e
       -0.016820695 0.017916802 0.10600415 0.12974331
0000e0 8a a5 ef 3d 9d 78 12 be c9 f4 42 3e 35 cb 08 3e
       0.11701496 -0.14303823 0.1903869 0.13358767
0000f0 c6 d5 02 bc 9d e8 d4 3d fd 0f 62 bc 58 21 37 bd
       -0.007985538 0.1039593 -0.013797757 -0.044709533
000100 fd 2a 05 be 07 1d 17 be b9 f3 a7 3d 2e 83 24 3e
       -0.1300468 -0.14757167 0.08200783 0.16065666
000110 16 e0 98 bd 33 0a 3a 3e 7c 4b e7 3d 7b f2 9b bd
       -0.07464616 0.18167953 0.112936944 -0.07614609
000120 3c 1d a6 3c 20 0a 0e 3e d1 71 fc ba bc e2 4f 3c
       0.020277612 0.1387105 -0.0019259994 0.012688335
000130 ce 1b 9f bd de 3b ad 3d 95 bc f8 3c 31 34 e2 3c
       -0.07768975 0.084586844 0.03036336 0.027612777
000140 07 bd 62 3c 2d 97 17 3e 5e cb 05 be 4b f3 00 be
       0.013839013 0.14803763 -0.1306586 -0.12592809
000150 7b d8 35 3b 55 3d 80 bd 58 57 2c be d9 3f 9e 3d
       0.002774744 -0.06261698 -0.16830194 0.07727022
000160 ba 5a d8 3c 57 06 22 3e 55 c4 5f bd a8 82 30 3e
       0.02641045 0.15822731 -0.054630596 0.17237341
000170 84 92 95 bd 17 40 cd bd 05 e4 33 3c f6 bc 19 bd
       -0.07303336 -0.1002199 0.010979657 -0.037533723
000180 d9 ad c8 bd 0f 89 a2 bd 39 a6 cc 3d 73 8e 82 3d
       -0.09798784 -0.07936298 0.09992642 0.06374826
000190 fa 2b 3a 3e c6 cd d1 3d b1 46 0a 3d 30 05 66 bd
       0.18180838 0.10244326 0.033758823 -0.05615729
0001a0 6d 57 14 be 55 27 fd bd 8c 12 d0 3c 30 4e 3f be
       -0.14486475 -0.123610176 0.025399469 -0.1868217
0001b0 c7 30 de 3b f6 c0 27 bd c5 4e 02 be c8 30 26 3e
       0.006780717 -0.040955506 -0.1272536 0.16229546
0001c0 3a da 36 be 93 3a 7d 3d d1 9c f1 bd f0 1d de 3d
       -0.17856684 0.06182344 -0.117974885 0.10845554
0001d0 4e 3b a6 bc 7f dc 69 3d 74 ab 15 bc 60 34 c6 bd
       -0.02029195 0.057095047 -0.009135116 -0.096779585
0001e0 4d 7a 8c bd f3 5c 3e bd 9b 82 91 3d 94 e6 5f 3b
       -0.068592645 -0.046475362 0.07104989 0.0034164535
0001f0 13 eb c4 bd 01 d6 1e be 0d 95 21 3e 99 00 26 3e
       -0.09615149 -0.15511324 0.15779515 0.16211165

experts.0.gate_proj.weight f4 [32, 32]
000000 e6 98 4a bd 10 cb 11 3e 12 2c 16 3e 89 b5 25 bd
       -0.04946222 0.14237618 0.14665249 -0.04045633
000010 cb cc ca 3d 63 43 27 3e 36 a8 eb bd 34 1d f6 bd
       0.099023424 0.163343 -0.11506693 -0.12017289
000020 43 b6 cb 3d 9d 80 2a bd b9 de 1b 3d 15 1d bb bd
       0.09946873 -0.04162656 0.0380542 -0.09136406
000030 f6 b9 77 bd ce cd 9e bc 9e 87 0b bd d5 e7 8e 3d
       -0.06048008 -0.019385245 -0.03406488 0.06977812
000040 79 3a e1 3d 0e ab b3 3d 7f e9 fe bd 42 a7 2b be
       0.10997481 0.087728605 -0.124468796 -0.16763023
000050 67 2a 8b ba 5d 4a 34 be 63 d2 ef bd 79 d8 bc bc
       -0.0010617495 -0.17606492 -0.1171005 -0.023052441
000060 30 7b e0 bd 81 b0 f3 bd 13 51 e5 3d 3a cf 97 3d
       -0.10960996 -0.118989 0.11197104 0.07412572
000070 52 df b5 3d a9 f9 90 bd 5e cb 21 be 1e cd 75 3d
       0.088804856 -0.07078869 -0.15800235 0.060010068
000080 b1 54 16 3e e5 f2 80 bd fc 3b 69 bd 44 91 c1 3d
       0.14680745 -0.062963285 -0.05694197 0.09451535
000090 8c db 3a be 04 7f fb bd 34 9d 99 bc 34 9e 36 be
       -0.18247813 -0.12280086 -0.018751718 -0.17833787
0000a0 69 25 64 bd df 87 74 bd dd 5e 78 3d a8 a7 9f 3d
       -0.05569974 -0.05969989 0.060637344 0.0779565
0000b0 b9 28 d4 bd c4 84 2e be 47 64 da bc 32 a4 a9 bd
       -0.1035933 -0.17042834 -0.026659144 -0.08283271
0000c0 7c df 0f 3e 7c 12 08 bd ca 73 06 3d 28 2b a3 bd
       0.14050096 -0.033220753 0.03282527 -0.07967216
0000d0 46 f6 7a bd b6 15 ef bd 4d 76 33 bd e1 05 26 be
       -0.06127002 -0.11674063 -0.043813992 -0.1621318
0000e0 2b d6 7c 3c 79 3c 7c bd f6 b1 a5 bd c4 c7 22 bd
       0.015431921 -0.06158111 -0.08090584 -0.039741293
0000f0 bf da d9 bd ad a1 a6 bd e7 d4 d5 3d f7 c3 96 3d
       -0.10637426 -0.08136306 0.104409985 0.07361596
000100 fc 5b 20 3e d6 cb 9a bd 2b ff 83 3d 01 82 6d 3d
       0.15660089 -0.0755841 0.06445154 0.05798531
000110 e4 07 89 bd 2f 16 52 3d c5 53 48 bd 02 1f dd 3c
       -0.06690958 0.051290687 -0.048908014 0.026992325
000120 8c 64 33 bd a9 de 13 bd e6 2a 19 bd 90 55 e7 bd
       -0.04379706 -0.036101017 -0.037394427 -0.112956166
000130 99 7e 4b 3d 17 35 5e bc 0d b8 31 3e e2 28 26 3e
       0.04968128 -0.013562462 0.17355366 0.16226533
000140 a3 48 42 bd 62 05 45 bd 84 b9 dc 3d 2f 48 96 3c
       -0.047432553 -0.048100837 0.10777572 0.018344967
000150 8b 9b 82 bd 58 c5 29 be e3 7f db bd e6 52 bc 3c
       -0.06377324 -0.16579187 -0.10717752 0.022988748
000160 99 8f 0d 3e d6 2c 10 3e b1 69 36 ba 83 ba 21 be
       0.1382431 0.14079604 -0.0006958498 -0.15793805
000170 c7 85 89 bd ca bc 2e 3e 7f 54 1a 3e bc 96 2e 3e
       -0.06714969 0.17064205 0.15071295 0.17049688
000180 3e 8b a1 3d 6f 3b 2b be 7d 74 96 3c 6f c2 48 bc
       0.078878865 -0.16721891 0.018366093 -0.012253388
000190 20 81 ac 3c c3 33 3c be 33 9a 04 bd 1e 56 2e be
       0.021057665 -0.1837912 -0.03237362 -0.17025039
0001a0 84 4c 87 3c 70 b0 fe bd 82 c3 2e 3e 7a da 2b be
       0.016515978 -0.124359965 0.17066768 -0.16782561
0001b0 3f ff e6 3c ac 57 dc 3d 41 81 5e 3d 39 e9 24 be
       0.028197883 0.107589096 0.054322485 -0.16104592
0001c0 e8 f8 8b 3d 79 e2 0a 3e c6 e3 24 3c 58 fd 88 3d
       0.068345845 0.13562955 0.010064071 0.066889465
0001d0 88 98 c3 3d 24 49 ce 3d 79 aa 10 3e 2e 41 09 3e
       0.095505774 0.10072544 0.1412753 0.1340377
0001e0 f5 b7 40 be 60 ae 3e bd 84 80 19 3d 9a 85 78 bd
       -0.18820174 -0.046553016 0.037476078 -0.060674287
0001f0 2a 48 10 be 8d 53 c6 bd ea 41 ce 3d e2 40 00 3d
       -0.14090028 -0.09683905 0.10071166 0.031311877
000200 0d 71 22 3e 9e dd ae bd 61 07 0b be 0e 05 6e bd
       0.15863438 -0.08538364 -0.13577034 -0.05811029
000210 fb ff 20 bc 51 33 01 be cf 9d 00 be c8 d8 bf bd
       -0.0098266555 -0.12617232 -0.12560199 -0.093675196
000220 80 b0 3b 3e ae be 40 be 07 65 cc bd 43 d9 ca bc
       0.18329048 -0.18822739 -0.09980207 -0.024761802
000230 6e 93 ac bd a3 27 57 3d e7 20 d0 bc ef a6 29 be
       -0.084265575 0.052528035 -0.025406314 -0.16567586
000240 b4 50 d0 3d 5f c4 16 bc 36 d8 70 bd de d2 56 bd
       0.10171643 -0.009202092 -0.058799945 -0.052447192
000250 c3 cb 0c be 54 d1 12 3e 02 cd 3f 3e 09 e7 00 3e
       -0.13749604 0.14337665 0.18730548 0.12588133
000260 a4 0a c3 3d dd ac be 3c b2 ad 0f 3e ee 54 fd 3d
       0.09523514 0.023275787 0.14031103 0.12369715
000270 f0 62 0b be f6 c4 cc 3d 7d c1 95 3d d5 4f 84 3d
       -0.1361196 0.09998505 0.073122956 0.06460539
000280 83 75 0f 3d 43 3c c0 3b 54 53 54 bd c5 b8 b2 bd
       0.035024177 0.0058665588 -0.05183728 -0.08726648
000290 f0 e7 11 3d df 07 ef bd 68 4a fb bb 7d 83 f0 3d
       0.035621583 -0.11671423 -0.007668782 0.117438294
0002a0 2b 2d 0f 3e 89 f4 b0 bd 31 31 f3 3d 4d e5 83 bd
       0.13982074 -0.086403914 0.11874617 -0.0644022
0002b0 fb 2b ee 3d 27 e9 ce 3d 19 82 1b be 08 92 00 3e
       0.11629482 0.10103064 -0.15186347 0.12555707
0002c0 8e 4f 26 3e 64 20 14 be 47 06 1d bd a4 ce ea bc
       0.16241285 -0.14465481 -0.038336065 -0.028662987
0002d0 b5 52 93 3d 9c b7 85 3d 28 1a ef bd 5f 01 7d bd
       0.071935095 0.06529161 -0.11674911 -0.061768886
0002e0 9e 85 fe 3d f1 02 2f 3e 1c cd f5 3d 3f f9 1c be
       0.12427829 0.17090966 0.12002012 -0.15329455
0002f0 3c bf 12 be 2e 07 91 3d 2d 14 7e bd d7 33 fb 3d
       -0.14330763 0.070814475 -0.06203096 0.12265747
000300 f6 4e 01 3e 63 8f 29 3e 66 20 84 bd 1d 40 81 3c
       0.12627777 0.16558604 -0.06451492 0.015777642
000310 b4 f8 f2 3d d9 f1 84 3b 4b ed 8c bd fc e2 df bc
       0.118638426 0.004057151 -0.068811975 -0.027329914
000320 e0 c6 01 bd 70 5c 9c 3c ec d5 3a bc ba e2 97 bc
       -0.031683803 0.019087046 -0.011403542 -0.018540729
000330 ae b4 18 bd a5 14 2c be d6 80 f5 bc b5 94 cb 3c
       -0.037281685 -0.1680475 -0.02996866 0.024851182
000340 1a 1b e0 3d 4e 99 9d 3d 35 2f bd 3c df 0c 90 3d
       0.10942669 0.07695256 0.0230938 0.07033705
000350 43 c5 1a 3e ba 7e 34 3e 36 6e 1f be 61 39 5f 3b
       0.15114312 0.17626467 -0.15569386 0.00340613
000360 67 23 1c 3e ac 67 7d 3d f9 d1 b6 3d df 35 d6 bd
       0.1524788 0.061866447 0.08926768 -0.10459494
000370 a4 e4 8b bc 36 74 c8 3d c3 d5 42 3d b7 f8 2a be
       -0.017076798 0.097877905 0.04756714 -0.1669644
000380 c5 ef 2b be 8a 36 aa 3d ac a1 0f be 78 38 13 be
       -0.16790684 0.08311184 -0.14026517 -0.1437701
000390 81 78 e0 bd 14 4a 46 bd 66 0a 48 bc 91 3f f7 bd
       -0.10960484 -0.04841049 -0.01220951 -0.12072671
0003a0 1a d0 be 3c 20 26 5e bd 94 82 1b 3e bb 59 e4 bc
       0.02329259 -0.054235578 0.1518653 -0.027874818
0003b0 68 4c c5 3d a3 c2 d8 3d 50 38 28 be f8 61 11 be
       0.09633714 0.10583999 -0.16427732 -0.14197528
0003c0 be ca 8b 3d 94 90 e8 3d 28 35 16 3d 28 33 2f be
       0.068257794 0.11355701 0.036671788 -0.17109358
0003d0 bd d1 32 bd d6 c1 90 bc c9 4e ab 3d c8 1b 30 3d
       -0.043657053 -0.017670553 0.083646365 0.042995244
0003e0 e0 93 86 3d be 85 36 3e 47 d7 d1 bd 2d cd c6 3d
       0.06571174 0.17824456 -0.10246139 0.09707103
0003f0 52 cd 33 be ef 6e 31 3e 7b 5b b4 3d 5a ff cf 3c
       -0.17558792 0.17327474 0.08806511 0.025390316
