output/SocialGood-MoME/ts_encoder_epoch3.pt (torch, 362284 bytes, 34 tensors)

proj.weight f4 [32, 4]
000000 97 58 be be 1a 7a e2 3e cc 95 5a 3e db ec 0f be
       -0.37176964 0.4423378 0.21346205 -0.14055197
000010 c7 1f 92 3e 02 4b 6b be fc 07 76 be 0a c8 d6 3d
       0.2853987 -0.22977832 -0.24026483 0.10487373
000020 7c 27 46 bc 80 13 c4 be 5c f4 ac 3d aa d3 14 be
       -0.012094375 -0.38296127 0.08445045 -0.14533868
000030 67 f2 9a 3e 6a 59 01 bf 52 f4 da 3d cc 51 cb 3e
       0.30263063 -0.5052706 0.10691132 0.39710844
000040 2c e0 77 be d7 74 72 3d c6 a5 a5 be 0d d2 15 3e
       -0.24206609 0.05919346 -0.32353038 0.1463091
000050 16 8d b5 be 87 13 38 be 6e 5c 9f be 71 53 ec 3e
       -0.35459203 -0.17976199 -0.31125206 0.4615741
000060 cd 2a f9 3e 20 e7 b4 bd ad e4 c5 be 13 c2 16 be
       0.48665467 -0.08833146 -0.38651028 -0.14722471
000070 fc f1 26 be 79 fc 73 3d 27 59 39 be 63 11 00 3f
       -0.16303247 0.05956695 -0.18100415 0.5002653
000080 78 59 a1 be a7 68 05 3e 30 11 09 3e ee 63 0c bb
       -0.31513572 0.13028203 0.13385463 -0.0021421867
000090 fb df 23 3e 1c 4e e6 3d dc f5 b2 3e 9d 41 95 bd
       0.1600341 0.11245367 0.349532 -0.07287905
0000a0 ae 15 3c 3e 6c 48 47 3e c3 17 e3 3d 79 0c 5f bd
       0.18367645 0.1946122 0.110885166 -0.054455254
0000b0 e2 26 13 3e 2a 6e b8 3e af a7 d5 3e c2 44 ae 3e
       0.14370301 0.36021549 0.41729495 0.34036833
0000c0 54 08 37 be d1 27 ea be c8 eb 13 be dd a7 50 3e
       -0.1787427 -0.45733503 -0.14445412 0.20376535
0000d0 1a 4b 8c be 13 cb 93 be bd 8b 89 be f3 29 99 be
       -0.27401048 -0.2886587 -0.26864424 -0.29914817
0000e0 96 b9 f6 3e 7a ca 6a 3d e6 87 01 be 09 e4 2d 3e
       0.48188466 0.057322003 -0.12649497 0.1698152
0000f0 f8 c9 ad bd 9c 68 cb 3d 2c da b1 3e 4b 4f b4 be
       -0.08485788 0.09932062 0.34736764 -0.35216746
000100 ec ab 0d 3e ac 73 d8 3e f0 cd de bd bc 1b 57 3e
       0.13835114 0.4227575 -0.10879123 0.21006674
000110 58 fc d2 be 49 5d 05 bf 50 bd f8 be 3e 14 de 3d
       -0.41208148 -0.52095467 -0.48581934 0.10843705
000120 cf 0d 76 be d0 bc 4f 3d c9 d6 9d 3e a1 68 da 3d
       -0.24028705 0.050717175 0.3082793 0.10664488
000130 47 6e 86 3e bf 64 fd bd 82 0f f4 bd 58 26 7f be
       0.2625601 -0.123727314 -0.119170204 -0.2491697
000140 3c e7 f7 be a6 9c eb 37 2f a2 99 be cb 7f b1 be
       -0.48418605 2.8087128e-05 -0.3000655 -0.3466781
000150 90 03 34 3e 2e ef f4 3e 31 72 71 3e 0d 56 7c bd
       0.17579484 0.4783873 0.23578717 -0.061605502
000160 e7 d4 d8 3e 91 24 c8 be 88 5c c8 bc 67 5d b3 3d
       0.42349932 -0.39090398 -0.024458185 0.087580495
000170 62 40 dd be fc 7d 22 be d3 be b8 3e f7 8e 34 be
       -0.43213183 -0.15868372 0.36083087 -0.17632662
000180 d4 bc d2 be db cb 06 be f7 9f 24 3d 42 e1 61 3e
       -0.4115969 -0.13163702 0.040191617 0.22058585
000190 16 83 b0 be d4 0b d3 be f9 88 02 3c 46 41 bb be
       -0.3447501 -0.41219962 0.007967227 -0.36573237
0001a0 6f 12 44 be 70 90 ed 3e 78 80 18 be ad 3e 66 3e
       -0.19147657 0.4639926 -0.14892757 0.22484846
0001b0 47 12 9b be 04 62 86 be 66 74 6a 3e e1 80 c9 3e
       -0.30287382 -0.26246655 0.22895965 0.3935614
0001c0 c9 ac 02 3f 89 5d 8d be 28 cc fa 3e ec d1 d9 3e
       0.510449 -0.27610424 0.48983884 0.4254297
0001d0 90 82 a3 bd da 43 bf 3e 09 82 d4 be d6 98 7b be
       -0.07983887 0.37356454 -0.4150546 -0.24570021
0001e0 be 5c 59 be 24 20 ad be ce d8 92 be 85 fb 49 be
       -0.21226785 -0.33813584 -0.28681034 -0.19724853
0001f0 0d 93 04 3f f5 4f 21 3b be 2f a3 be cb b9 a7 be
       0.5178688 0.0024614308 -0.31872362 -0.32758936

proj.bias f4 [32]
000000 93 3b 01 3f 92 0e a2 be d9 ca d0 3e 70 42 03 3f
       0.5048153 -0.3165174 0.4077976 0.5127325
000010 98 58 ec be f9 a2 21 3e 06 8b c4 3e 18 e8 df be
       -0.46161342 0.15784825 0.38387316 -0.4373176
000020 31 2b 7b be 69 7d e1 bd 33 de 43 3e aa 73 ac be
       -0.24528195 -0.11010248 0.19127731 -0.33681995
000030 ec 2f 20 3e 20 0b 02 3e 51 d0 ce 3e 88 5b dc be
       0.1564328 0.12699556 0.40393308 -0.43038583
000040 4d d0 f4 3e c8 c8 8d be 62 4c 8f bd 94 a1 42 3e
       0.4781517 -0.27692246 -0.06996991 0.1900695
000050 59 98 01 bf ab fd d8 3d 63 02 02 bf 6b 45 f5 bd
       -0.5062309 0.10595258 -0.5078489 -0.11976131
000060 54 be 86 be 2f 5e 81 be 6d 7f 3a be 5d c6 3f 3e
       -0.26317084 -0.2526717 -0.18212672 0.18728013
000070 58 5c 5a be ca 0b 8d 3e cb 48 dd 3d ec 47 f9 be
       -0.21324289 0.27548057 0.108049 -0.48687685

EiLM.0.gamma_generator.weight f4 [1, 32]
000000 f5 b8 4b be 64 aa f9 3c b2 02 16 3e 02 86 2b bd
       -0.19894774 0.030476756 0.14649466 -0.041875847
000010 fc f9 fb bd c3 ee d3 3d 05 b3 33 bd 63 3a 12 bd
       -0.1230354 0.103482746 -0.0438719 -0.035700213
000020 50 23 77 3d d3 00 c6 3d d0 73 11 3e 74 9a 86 3c
       0.06033641 0.09668126 0.14204335 0.01643107
000030 a9 ca 1d 3e 0e 51 cc 3c 45 74 e7 3d de 34 0f be
       0.1540934 0.024940994 0.113014735 -0.13985011
000040 09 6e 3d 3e 6e 61 ca 3d c0 cc 3c 3e 80 72 24 3e
       0.18499006 0.098818645 0.18437481 0.16059303
000050 e7 ed 04 3d 9b bb 86 3c d1 3c 9a bd e5 4d 65 3d
       0.032453444 0.01644688 -0.07531131 0.05598249
000060 73 59 9d 3d 89 0c 35 3e 5e 66 47 3c ea 78 47 3e
       0.07683077 0.17680563 0.012170402 0.19479719
000070 3c 28 2c 3c c4 f6 02 3e 77 a2 50 be 83 ae be bd
       0.0105076395 0.12789446 -0.20374475 -0.09310629

EiLM.0.beta_generator.weight f4 [32, 32]
000000 51 95 04 be 45 be b8 3d b7 75 23 3e c9 4a 5e 3c
       -0.12947585 0.09020666 0.15962873 0.013567635
000010 7d 34 95 3d c3 c7 b7 bd b0 38 f5 bd 64 be 2e 3d
       0.07285402 -0.089736484 -0.11973703 0.04266204
000020 29 42 50 bc 0e 0a 77 3d d4 af 14 3d 11 52 f2 bc
       -0.012711086 0.060312323 0.036300495 -0.029580148
000030 ea aa c2 3d 4e 86 c0 3d 3d a8 bd bd 76 c0 4b bd
       0.095052555 0.094006166 -0.092606045 -0.049744092
000040 4a 51 1b 3c 04 58 da 3d 0d 90 0b 3d b8 fd 14 bd
       0.00947983 0.10661319 0.034072924 -0.036374778
000050 d6 bc c1 bd 1c d1 08 3e f1 2e 8d bd 22 11 44 3d
       -0.09459846 0.13361019 -0.06893719 0.0478679
000060 e1 ee f3 bd 36 55 f8 3c f7 4d 00 be 3c 7d 9d 3b
       -0.11910797 0.03031407 -0.12529741 0.004806189
000070 de ed a8 3c fa 1b 14 3e 61 cf da 3a 35 5b 08 3b
       0.020621236 0.14463797 0.0016693884 0.0020806317
000080 19 63 d7 3d 78 9e 08 3e f7 e5 99 bd 99 31 bf bc
       0.10516948 0.13341701 -0.075145654 -0.02333908
000090 53 33 60 3b cf 61 b3 3c d3 10 98 3d c8 a3 46 bc
       0.003421028 0.021897225 0.07425084 -0.012124009
0000a0 22 c5 68 3d 16 40 ce bb 6c 89 14 3e 22 c7 20 3e
       0.056828626 -0.0062942607 0.14505547 0.15700963
0000b0 7a a8 cc bd b3 19 a8 bd a0 05 2b 3d af d0 2a be
       -0.09993072 -0.08208027 0.04175341 -0.16681169
0000c0 38 8e 97 bc ae 15 e0 3c 1e 18 ae bd 5d ee 10 3e
       -0.018500432 0.027354088 -0.08500694 0.14153428
0000d0 df 56 55 3d fa 30 11 3e cf d3 ce 3d 60 8e f2 bd
       0.0520848 0.1417884 0.10098993 -0.11843562
0000e0 c9 23 21 be 9a 56 27 be a8 ef f7 3d 4a 44 1b be
       -0.15736307 -0.1634163 0.12106258 -0.15162769
0000f0 c8 1e ac bd 57 f3 bd bd d1 c7 a0 bd b7 4b 72 3d
       -0.084043086 -0.09274929 -0.07850612 0.05915424
000100 38 9a 84 3d 53 87 27 be eb 1c e5 3d dd 06 86 3c
       0.064747274 -0.16360216 0.11187156 0.016360695
000110 1c c1 05 3d 7d 8b d2 3c af f5 4d 3d 54 1b 21 3d
       0.032654867 0.025701279 0.05028313 0.039332703
000120 d6 6d b9 bd 72 14 30 3e b4 8e 1e 3e c9 9f 22 bc
       -0.09054153 0.171953 0.15484124 -0.009925791
000130 d4 e0 1c 3e b8 de 20 be 4f b8 2d 3d 5b 6b 22 be
       0.1532014 -0.1570996 0.0424121 -0.15861265
000140 91 da 31 3e 16 02 03 be 6e 71 1f 3e 51 d9 bb bc
       0.17368533 -0.12793764 0.15570614 -0.022930773
000150 ed dc f2 bc 5d 3c f1 3d 5e 3e d2 3d 4a 86 aa bb
       -0.029646361 0.117790915 0.10265802 -0.005203997
000160 42 a3 f9 bd 41 12 05 3e 17 93 08 be d2 64 04 3e
       -0.12189342 0.12995245 -0.1333736 0.12929085
000170 95 0a b5 3d e1 a2 27 3e 8c f1 73 bc f5 76 f9 3c
       0.08839909 0.16370727 -0.014889132 0.030452231
000180 c4 20 3f 3d 50 43 ab bd 84 15 1d be 79 d1 9b bd
       0.046662107 -0.08362448 -0.15340239 -0.07608313
000190 f2 53 9b bd 83 65 58 bd 26 2f 82 bd 5d 11 1a be
       -0.07584371 -0.052831184 -0.06356649 -0.15045686
0001a0 5e 85 2f be dd 67 23 3d 0d 77 10 3e c5 62 d8 bd
       -0.1714072 0.039893974 0.14107914 -0.10565714
0001b0 5b 74 ab bd e9 3c 20 be 83 e3 2e be 0f b8 33 be
       -0.083718024 -0.15648235 -0.17078976 -0.17550682
0001c0 51 a5 30 bd 1b 66 2b bd a4 be bd bd b0 73 be bb
       -0.043126408 -0.041845422 -0.092648774 -0.005812131
0001d0 54 e8 d0 bd 3e 51 20 be 9a 05 37 be 9e 87 a7 bd
       -0.10200563 -0.15655991 -0.1787323 -0.08180164
0001e0 bc ee 8b 3d 46 3b 7c 3d 8a 87 ca 3d c8 30 da bd
       0.06832644 0.061579965 0.09889133 -0.106538355
0001f0 87 f9 ed 3d 3b 65 a4 bc 95 39 d0 3d af 5c c0 bc
       0.11619859 -0.020067802 0.10167233 -0.023481695
000200 de 77 0f 3e b0 fd 86 3d 65 7e 17 bc 33 f9 0d be
       0.1401057 0.06591356 -0.009246443 -0.13864593
000210 00 89 0c 3c cf 99 16 3e 8f 90 ce 3c 30 d4 9d bd
       0.008577585 0.14707111 0.025215415 -0.07706487
000220 44 9b 25 3e fc b0 8b bd a0 5f 5f 3d fc 82 83 bc
       0.1617251 -0.068208665 0.054534554 -0.01605367
000230 4f 41 6c bd 02 a6 dc 3d 76 78 13 be dc d9 67 3a
       -0.05767947 0.10773851 -0.14401421 0.0008844414
000240 0c b9 15 be fa 38 52 bd 86 3d cd bc 09 b4 40 3c
       -0.14621371 -0.05132387 -0.02505375 0.011761674
000250 96 8d 0d 3e 60 62 21 be 77 a2 53 bd ff 64 f7 bd
       0.13823542 -0.15760183 -0.05166861 -0.1207981
000260 68 f2 04 be 5e 9a d8 bd 87 05 9e bd 31 47 9e 3d
       -0.12983096 -0.10576318 -0.07715898 0.077284224
000270 96 b8 61 3d 73 0b 62 bd 77 fe e6 bd a9 9c 7e 3d
       0.055107675 -0.0551867 -0.11279004 0.06216112
000280 66 fa 1e 3e 27 35 23 3e c0 89 0b be d1 05 db 3b
       0.15525207 0.15938245 -0.13626766 0.006684043
000290 b3 57 b4 3c a4 33 82 3c b4 fc d5 3d 08 8e 8b bc
       0.022014474 0.015893765 0.1044859 -0.0170355
0002a0 61 5f 24 3e 9f bb 80 3d b5 2b 08 3e c4 0c 21 be
       0.16052009 0.06285786 0.13297923 -0.15727526
0002b0 8d 1d 28 be 38 7d af bc e6 f3 7b bd 1a 00 2b be
       -0.16417523 -0.021422014 -0.061511897 -0.16699257
0002c0 f0 57 b8 3d 52 75 ef 3d 14 77 4f 3d 74 de 28 3e
       0.09001148 0.11692299 0.05065067 0.16491109
0002d0 3f 81 49 3d 51 dc 14 bd 1b da 60 bc 15 a2 dd 3d
       0.049195524 -0.036342923 -0.013723875 0.1082193
0002e0 b7 2f 2c bd 38 c7 23 be c5 bd af 3d 4f 78 6f bd
       -0.042037692 -0.15993965 0.085811175 -0.058464345
0002f0 fc 85 3b 3e ce fd a3 bc f8 b3 ef 3d 21 e9 ae 39
       0.1831283 -0.020018484 0.11704248 0.0003336156
000300 2a ee dd bd d2 10 ea bd 68 b8 6c 3d 2f 3a 6f bc
       -0.10836442 -0.114289895 0.05779305 -0.014601274
000310 a1 6a 1d 3e 28 d4 2b 3e d4 1f 1d 3e b2 2f 27 b9
       0.15372707 0.1678015 0.15344173 -0.00015944129
000320 09 f4 b5 3d b8 8d 25 be 30 ac 05 3e 42 48 17 3e
       0.08884437 -0.16167343 0.13053966 0.14773658
000330 80 bf 38 bd 8b 17 92 3d 0d 11 2c bd e6 d7 23 be
       -0.045104504 0.07133397 -0.04200845 -0.16000327
000340 f4 28 a4 bd b4 a9 65 3d a9 22 ad 3d 5a 24 cb 3d
       -0.08015624 0.056070045 0.084538765 0.09919043
000350 d5 ae 13 be ed e2 59 3d 89 ff 91 3c 78 0e 94 bd
       -0.14422162 0.05319493 0.017822044 -0.07229322
000360 24 ac e1 3d a5 d5 86 3d 06 93 1f 3e 6b c3 b8 bd
       0.11019161 0.06583718 0.15583429 -0.09021648
000370 22 91 04 3c 77 30 51 3d 01 c5 c5 bd 6e e1 dd 3c
       0.008091243 0.05107161 -0.09656716 0.027085032
000380 3e fe d6 3d 60 b1 1e bd 2f a8 89 bd f9 a2 0a 3d
       0.104977116 -0.038743377 -0.067215316 0.03384683
000390 de 07 8e bd 1f 2b 0f 3e 6d 73 20 3e 64 d2 07 3e
       -0.06935094 0.13981293 0.15669031 0.13263851
0003a0 b2 28 19 be 68 a3 11 3d b4 49 05 be 09 61 aa 3d
       -0.1495693 0.035556227 -0.13016397 0.08319289
0003b0 2e 4d 18 3e b1 8c bd bd 78 1e e7 3d 41 20 b5 bd
       0.14873192 -0.092553504 0.11285108 -0.088440426
0003c0 1d 61 48 3e 1e 16 9b bd 13 a3 dc bd 6c d7 1a 3e
       0.19568296 -0.07572578 -0.107732914 0.1512124
0003d0 1d df 3d 3e 1e dc 9d bd 69 2e c9 3d 22 0c f8 3d
       0.18542142 -0.07708 0.09823305 0.12111689
0003e0 7f 73 01 bd 6f 9f db 3d ee df 32 be b0 3e 9b bd
       -0.031604286 0.10723769 -0.17468235 -0.07580316
0003f0 81 24 13 3e 57 01 8a 3c c2 ab 22 be 4a 46 6c 3d
       0.14369394 0.016846342 -0.15885833 0.05768422

EiLM.1.gamma_generator.weight f4 [1, 32]
000000 90 d0 53 bc 29 e9 b9 bd ba 85 07 3e 3e d9 07 bc
       -0.012928143 -0.09077675 0.13234606 -0.008291541
000010 e4 9d b4 bd a7 bf ff 3d 51 2a 0c be 8c b4 3b bd
       -0.08819178 0.12487727 -0.13688017 -0.04582648
000020 67 38 ac 3d 08 2e 0b be 3a d3 da 3d 97 df 49 3d
       0.084091954 -0.13591778 0.106848195 0.049285498
000030 8e 4c f7 3d da fd 0b 3e a1 4b 05 be d8 a0 33 3d
       0.120751485 0.13671055 -0.13017131 0.043854564
000040 ae 8b 65 3d 95 5a 14 be 8f 37 4f be f2 7b 88 3d
       0.056041412 -0.1448768 -0.20236038 0.06664266
000050 ed 15 4c be b4 f5 06 bd 76 55 2d 3e 7b bc 87 3d
       -0.19930239 -0.032949165 0.16927132 0.06627747
000060 48 35 8b 3d 38 78 9b bd d2 ca 0b 3e f2 64 5b 3d
       0.06797272 -0.07591289 0.13651589 0.053563066
000070 70 28 94 ba fe 2d 5c 3e 73 d1 db bd 3c a9 1f 3e
       -0.0011303555 0.2150192 -0.10733309 0.15591902

EiLM.1.beta_generator.weight f4 [32, 32]
000000 f4 cc 36 be 4c c1 0f be 6a 47 09 3e 66 5e 36 3e
       -0.17851621 -0.1403858 0.13406149 0.17809448
000010 50 18 11 be 5f 27 42 be 8a 9b 9c bd d6 19 94 bd
       -0.1416943 -0.18960331 -0.07646854 -0.0723149
000020 af b3 11 3c 05 50 06 bc 7d 20 aa 3d 32 aa 46 be
       0.008892938 -0.008197789 0.08306978 -0.19400862
000030 ae 0c 7d bd de 97 1e 3d 83 7c 11 be d6 a2 02 3c
       -0.06177967 0.03871905 -0.14207654 0.007973393
000040 45 a9 1c be 98 e5 0e 3e ec 58 30 bc a0 c9 26 3e
       -0.15298946 0.1395477 -0.010763388 0.16287851
000050 6d 00 41 3e 11 c7 91 bd 8b e0 76 bc a2 c8 07 be
       0.18847819 -0.07118047 -0.015068184 -0.13260129
000060 dd 15 ae 3d 3c fe 09 3e b9 72 a4 bc 14 1c ed bd
       0.08500264 0.13475889 -0.020074235 -0.11577621
000070 9c 2c 12 be 1a da 0b bd 9d ec 84 bd cf 01 3a be
       -0.1427483 -0.034143545 -0.06490443 -0.18164752
000080 41 f7 f9 bd d4 4a e8 bd 95 9c bd 3d 8e fc 0b 3e
       -0.12205363 -0.11342397 0.09258381 0.1367056
000090 d5 55 a3 3c c7 0c a6 3c 59 aa 19 3e 73 9e 9b 3d
       0.019938389 0.020269765 0.15006389 0.07598581
0000a0 ae d9 c7 3d b0 50 f2 bd 3e d9 c1 bd cd b2 52 3d
       0.09758316 -0.11831796 -0.09465264 0.05144005
0000b0 f5 b4 bc bd d5 c0 18 be 35 1b 0b be 07 28 c2 3d
       -0.09214202 -0.1491731 -0.13584597 0.09480291
0000c0 d5 5b 9d bc 88 54 ba bc da 8a f1 3d 11 d6 ca bd
       -0.019208828 -0.022745386 0.11794062 -0.09904111
0000d0 aa 8d 39 3d 5f e9 38 3e f7 fb 78 3d ff b9 d3 bd
       0.045301117 0.18057774 0.060787167 -0.1033821
0000e0 3a e9 d3 3d 57 48 e8 bd 8b 98 c5 bd 78 c9 9b 3d
       0.10347219 -0.11341923 -0.09648236 0.076067865
0000f0 03 e2 98 bd 3e e6 db 3d d1 29 9a 3d 78 7a 7f bd
       -0.07464983 0.107372746 0.07527507 -0.062372655
000100 a5 e1 9f 3d 62 82 c7 3d fe 86 e0 bd 05 95 00 3d
       0.0780671 0.097416654 -0.10963248 0.031392116
000110 46 f9 d5 3c e0 9d 9a bd de db 41 bd 50 f5 d1 3d
       0.02611984 -0.075496435 -0.047328822 0.10251868
000120 13 94 b6 bd cd f4 a5 3d b0 d1 cd bc c2 1f 6c 3d
       -0.08914962 0.08103333 -0.0251244 0.057647474
000130 8c 9f b8 bd 79 28 33 3b 54 24 31 3e db 95 be 3d
       -0.09014806 0.0027337356 0.17299014 0.093059264
000140 d7 d4 2f bc 90 fb e0 bd 47 18 e9 3d d6 f0 14 be
       -0.010731897 -0.10985482 0.11381584 -0.14544997
000150 e9 4b 41 3d 2c 06 bb 3c f0 dd da 3d 89 da 81 bd
       0.047191534 0.022830091 0.106868625 -0.063405104
000160 ff 79 09 3e 5f df 2b 3e 65 38 06 be d2 8a bf 3d
       0.13425444 0.16784428 -0.1310745 0.0935265
000170 81 52 1b be 72 22 34 bd a6 72 06 3e fc ec ab 3c
       -0.15168191 -0.043978162 0.13129672 0.020987026
000180 53 98 46 bd 2d 7a 18 bb ac 80 db bd c9 3b 10 3e
       -0.04848511 -0.0023266182 -0.107179016 0.14085306
000190 21 e2 b9 3d ad 95 18 3e 8c bd 0f be 38 12 23 3e
       0.09076334 0.14900847 -0.1403715 0.15924919
0001a0 2a be a1 3d 2c 1b ce 3c a1 81 1b 3e a7 bb 32 3e
       0.07897599 0.025159441 0.15186168 0.17454396
0001b0 6f ed 1d be 99 61 e2 bd 8f 44 a8 bd 1b 86 56 3c
       -0.15422605 -0.110537715 -0.082162015 0.013093497
0001c0 91 53 d0 bd b8 a8 cf 3d 4f a1 9b bc f8 dd bb 3d
       -0.10172189 0.101396024 -0.018997816 0.091731966
0001d0 8a f7 21 3d 69 ec b9 3d 32 06 7f bd ee b1 1c be
       0.039542712 0.09078295 -0.062261768 -0.1530225
0001e0 3e e3 ef 3b fd b3 a9 bd 7a f8 a8 bd 08 fe 5b 3d
       0.0073207906 -0.08286283 -0.08250518 0.05370906
0001f0 12 4a 05 be 84 97 15 3e e7 d9 c1 3d f7 bf 2e 3e
       -0.13016537 0.1460858 0.0946539 0.17065416
000200 a4 53 d8 bd 81 d3 8c bd 5d f7 a6 3d b3 48 d9 3d
       -0.10562828 -0.06876279 0.081526496 0.106095694
000210 f6 83 00 be f5 09 3b 3d c2 e6 34 3e ea 15 97 3d
       -0.12550339 0.045663793 0.17666152 0.07377227
000220 cb 46 45 bd 1a 49 bc 3d 65 c3 02 be 59 40 ba 3c
       -0.048163217 0.091936305 -0.1276985 0.022735761
000230 c5 04 29 3e d2 1a 94 3d 7e b6 12 3e da 78 42 bd
       0.16505726 0.07231678 0.14327428 -0.047478534
000240 83 ec 9b 3d 87 2e 11 3e 79 2f 2c 3e d1 0a e4 bd
       0.076134704 0.14177905 0.16814984 -0.111348756
000250 5e 10 3f bc f8 0b e4 bc 22 2f a0 3d d8 8d 79 3d
       -0.011661617 -0.027837738 0.0782149 0.06092629
000260 5f 4c db 3d ad 9c bd 3d b1 9a fd bd 31 73 35 3e
       0.10707926 0.09258399 -0.12383021 0.17719723
000270 a8 9a 0f 3e f2 96 70 3c 21 17 36 be 58 b7 e7 3c
       0.1402384 0.014684426 -0.1778226 0.028285667
000280 b9 4b 03 be df e5 b5 3c 65 26 e6 bd 44 53 34 3d
       -0.12821855 0.022204338 -0.11237792 0.04402472
000290 c3 90 19 be 3a 5d 55 bc 51 6d cb 3d a7 b1 8e 3d
       -0.14996628 -0.013022715 0.0993296 0.06967478
0002a0 34 41 ff 3d 91 ab d4 3d b2 0a 14 be ef dd da bd
       0.124636084 0.10384286 -0.14457205 -0.10686862
0002b0 21 49 2c be ff 49 b4 3d a3 0b 1d bc c4 e6 39 be
       -0.16824771 0.08803176 -0.009585294 -0.18154436
0002c0 25 90 5c bd e0 88 bf bd 6a 1a 20 3d 19 ac 96 3d
       -0.053848404 -0.09352279 0.03908769 0.07357044
0002d0 78 4b 2e 3c 1a 5b 8c bd 32 8d 3d bd c0 79 fe 3d
       0.01063811 -0.06853314 -0.046277232 0.12425566
0002e0 0a aa d5 3d 86 bc 5b 3d b5 40 20 be 40 d7 55 3c
       0.10432823 0.053646587 -0.15649684 0.013051808
0002f0 e5 54 af 3c 19 a1 e3 bc 24 58 21 be 56 57 32 be
       0.021402786 -0.027786778 -0.15756279 -0.17416129
000300 e1 5a 99 bd dc d8 b2 3d 33 79 7d 3d 7d 24 da bc
       -0.07488037 0.08732769 0.061883163 -0.026628727
000310 d6 06 9a bd b8 30 93 3d d3 58 a5 3d e0 e7 f2 bd
       -0.07520835 0.07187027 0.080735825 -0.11860633
000320 81 55 97 bd 2c 46 93 3d 79 1f 2b be 98 d7 1d be
       -0.073893555 0.071911186 -0.16711225 -0.15414274
000330 10 ca 4f b9 b9 0b 8a 3d cd 07 12 be 0c 48 84 bd
       -0.00019816332 0.06740517 -0.14260788 -0.06459054
000340 e0 bc 81 bc 0f 45 2f be bd 73 ca bd 65 99 ea bd
       -0.015837133 -0.17116188 -0.098853566 -0.11455039
000350 48 8d f6 3d 49 4a f9 bd 26 12 53 3b b2 0a 94 3d
       0.12038666 -0.12172372 0.0032206862 0.072286025
000360 08 b1 22 3e 14 5f ef 3c 79 16 19 bd c3 df e5 bc
       0.15887845 0.029220141 -0.037374947 -0.0280608
000370 f9 1a bd bd 0e b1 00 be 47 e5 96 bd 3a db 1e bd
       -0.0923366 -0.12567541 -0.0736795 -0.03878329
000380 da 30 0f be c5 9d 17 bc fc f0 31 3d 24 61 c0 3d
       -0.13983479 -0.009253924 0.04344271 0.09393528
000390 39 f3 23 3e 06 f1 ef 3d b7 00 07 3e a7 be 37 3e
       0.16010751 0.117158934 0.13183866 0.17943822
0003a0 b4 cd e6 3d 64 16 e8 3d 6d 66 15 be e5 ee 28 3e
       0.112697035 0.11332396 -0.14589854 0.16497381
0003b0 df 47 b1 bc 37 5c c1 3d bb 7e f8 bd 4d 95 25 be
       -0.021640716 0.09441417 -0.12133547 -0.16170235
0003c0 a3 0e 89 bd 06 88 29 be 58 dc 8f 3d a0 4f f4 bd
       -0.06692245 -0.16555795 0.07024449 -0.1192925
0003d0 12 53 74 bc db 46 25 3e 70 28 bf 3c 03 96 d1 3c
       -0.014912384 0.1614031 0.023334712 0.025584226
0003e0 5d a2 04 3c d0 db aa bd 5e 3b 2d 3d a7 fa fb bd
       0.008095351 -0.08342707 0.042292945 -0.123036675
0003f0 f2 bd a3 bd ce 3d fe 3d 01 00 3b 3e f7 d9 02 3e
       -0.079952136 0.12414132 0.1826172 0.1277846

EiLM.2.gamma_generator.weight f4 [1, 32]
000000 dd ce 19 3e a8 14 da 3d 2e a6 01 be cc 22 a9 bd
       0.15020318 0.10648471 -0.12661049 -0.0825859
000010 4a 59 26 3e 68 87 44 3e b0 e8 89 bc ed 2c 9e 3c
       0.16244999 0.19192278 -0.016834587 0.019308532
000020 d7 ea 7c bd 59 c2 1a be 83 64 8b bd 9a b6 3d 3e
       -0.0617474 -0.151132 -0.068062805 0.18526688
000030 1c 5f dc 3d 82 e8 49 3e ae 2c 03 3e 35 b2 1f 3e
       0.10760328 0.19717601 0.12810013 0.15595324
000040 ba 1f 7e bd 15 f4 f5 3d 5d 2e ee bb eb 4b aa bd
       -0.062041976 0.120094456 -0.0072687105 -0.083152615
000050 10 94 55 be 9c b6 fa bd 05 db b1 bc cd b5 1b be
       -0.20857263 -0.12241861 -0.021710882 -0.1520607
000060 c6 e4 1d 3e 0e 4f 99 3d e0 f5 06 bc 9a cd 8d bd
       0.15419301 0.074857816 -0.008237332 -0.06923981
000070 50 9a 99 3d c4 fb 97 3d 72 b7 5b 3e 95 8c d8 3a
       0.07500136 0.07421067 0.21456698 0.0016521389

EiLM.2.beta_generator.weight f4 [32, 32]
000000 f6 ce b2 bd f7 f8 d9 bd e4 d9 7f bd ed bb 85 3d
       -0.08730881 -0.106431894 -0.062463656 0.065299846
000010 eb f1 1b 3c 5c 80 39 3e 3a b6 01 3e 0c fe ac bd
       0.009518127 0.18115371 0.1266717 -0.08446893
000020 c1 3e 2f 3d 6b b8 f1 bd 8d c0 27 3e d8 af 99 3c
       0.042784456 -0.11802753 0.16382046 0.018760607
000030 7e e6 0a bb 52 76 1d 3e 93 78 1c 3c 7b 11 ac bd
       -0.0021194513 0.15377167 0.0095502315 -0.08401772
000040 9f c5 f2 bd 84 48 b3 3d cb e4 9c 3d 2a 89 62 bb
       -0.118540995 0.08754066 0.07660826 -0.003456662
000050 09 5e 38 be 5f ec 91 bb 63 cb 2f be 05 87 1b be
       -0.18004622 -0.0044532265 -0.1716743 -0.15188225
000060 af 71 1f 3d d2 02 b8 bd a5 e6 30 bd 31 d3 9d bd
       0.038926776 -0.08984913 -0.04318871 -0.07706297
000070 d9 70 0c bd 61 bf 08 be 78 33 0f 3e 4c 7e 3f 3d
       -0.034287307 -0.13354255 0.13984478 0.046751305
000080 55 27 f8 bb 99 09 9e 3d 5a 61 9d 3d 5d ce 01 be
       -0.007573048 0.07716674 0.07684584 -0.12676378
000090 8e 37 30 be fb 97 9c bd 4b da 95 3c ae ef 7c 3d
       -0.17208692 -0.076461755 0.018292567 0.061752014
0000a0 82 3e ed bc 49 52 23 3e 59 6e 82 3d 53 12 2a be
       -0.02896047 0.15949358 0.063687034 -0.16608553
0000b0 3c 09 3d bd 91 9a 6a bd c5 a2 c3 3b 02 91 d2 bd
       -0.046151385 -0.057276312 0.0059703314 -0.10281564
0000c0 f1 5c a1 3d f4 31 33 3e 73 d8 27 3e 78 c1 71 3b
       0.07879055 0.17499524 0.16391163 0.0036888998
0000d0 e2 d9 1f 3e b9 40 1c 3e 19 2b a5 bd aa fd 19 be
       0.1561046 0.15259065 -0.08064861 -0.15038171
0000e0 63 8c 73 bc 1f 5e 1d be cd 6b c2 bd 25 30 27 3e
       -0.014865014 -0.15367936 -0.094932176 0.1632696
0000f0 4b ae e1 bd 26 e5 0d 3e 87 8f ea bd 44 0d 33 be
       -0.11019572 0.13856944 -0.11453157 -0.17485529
000100 72 65 37 bd 97 28 e7 3d 64 f5 0e 3e 74 42 c1 3d
       -0.04477448 0.11287039 0.13960797 0.09436503
000110 90 c1 13 be 40 a8 1b 3e ae 72 62 3d b7 21 d5 3d
       -0.14429307 0.15200901 0.05528515 0.10406821
000120 f1 6a bb 3d 81 88 8e bd 34 d4 3b 3d 42 6c ed 3d
       0.09151257 -0.0695963 0.04585667 0.11592914
000130 f5 25 96 bb 4d 4e ff 3d 00 b6 2d 3e ec 5f 0c be
       -0.0045821615 0.124661066 0.16963959 -0.13708466
000140 33 0a 11 be 69 c8 8c 3d 8c 90 d3 3d 27 5e 05 bd
       -0.14164047 0.06874163 0.103303045 -0.032560494
000150 dc 34 33 bc fe 4c ea bd fe 9a 7f 3d af 0e 8a bd
       -0.010937896 -0.11440466 0.06240367 -0.06741082
000160 b1 bb 2a be 69 51 27 3e 79 8a 0f bd 53 3f 0f be
       -0.16673161 0.1633965 -0.035044167 -0.13989
000170 05 68 8b 3d fa 08 84 3c 96 69 02 3e 14 b4 67 3c
       0.068069495 0.016117562 0.1273559 0.014142055
000180 d0 7b d0 3c f5 45 ea bc 12 8d 07 3e 10 5e 71 3d
       0.025449663 -0.028597811 0.13237408 0.058927596
000190 ad 73 0d 3e eb 2c df 3c 6a 95 32 3e 74 32 ef 3d
       0.13813658 0.027243098 0.1743981 0.11679545
0001a0 71 76 c4 bd e4 1a c1 bd d0 3f 29 3d 94 47 e5 3d
       -0.095929034 -0.09428957 0.041320622 0.11195293
0001b0 6f 3f 04 be 26 bd fd 3d 73 f5 20 bc be 20 ea 3c
       -0.12914823 0.12389593 -0.009824145 0.028580066
0001c0 64 45 90 bd 83 1c b4 bd 11 48 f2 3d e6 8d a6 3c
       -0.07044485 -0.08794501 0.11830152 0.020331334
0001d0 b2 92 aa 3d a2 33 9d bd 0d 60 0a 3e b0 11 26 3e
       0.08328761 -0.07675864 0.13513203 0.16217685
0001e0 27 d0 a2 3d 8c fe 1c 3e 0f 47 77 bd fc a7 9a 3c
       0.07949858 0.15331477 -0.0603705 0.01887893
0001f0 56 fd 15 be 80 5a 3f 3d c0 a9 4a bd b2 bd ab 3d
       -0.14647421 0.046717167 -0.049478292 0.08385791
000200 7e b1 cd 3d 8f f7 c7 3d 04 67 80 bd 69 62 01 be
       0.100436196 0.09764015 -0.06269649 -0.12635197
000210 9b d8 5d 3d 06 6a b9 bd 20 72 38 3e dd 7a 0a 3d
       0.05416165 -0.090534255 0.18012285 0.033808578
000220 db 71 9e 3d 7a ef a6 3d 74 25 32 be 49 12 d8 3d
       0.0773656 0.08151145 -0.173971 0.105503626
000230 76 e4 05 3e e6 0b 20 bd 5e e1 60 3d 0e e1 c1 3d
       0.13075432 -0.039073847 0.054902427 0.09466754
000240 03 4f cb bd 66 67 c1 3d aa fe 01 be ad bc af bb
       -0.0992718 0.0944355 -0.12694803 -0.005363068
000250 95 e6 1c 3e b4 58 0d bd 7f 53 10 3e 5e f1 a8 bd
       0.15322335 -0.034508422 0.14094351 -0.08249162
000260 d8 7e 13 3e a9 e6 25 be 50 8e 04 be 58 36 28 be
       0.14403856 -0.16201271 -0.12944913 -0.1642698
000270 97 4d a2 3d 61 56 a3 3d 67 ce 9b bd 68 47 15 be
       0.07924955 0.0797546 -0.076077275 -0.1457802
000280 e1 9c ca bd 91 10 b7 3d 06 1b 9b bd ff 3e 07 be
       -0.098932035 0.08938707 -0.07573514 -0.13207625
000290 c6 90 f8 bd 40 a4 a3 bc 1a 2d 08 3c 4b 6c 2e 3e
       -0.12136988 -0.019975781 0.008311534 0.17033498
0002a0 36 be 03 3e cc 75 44 bb 72 44 a6 3d 4f db 5b bd
       0.12865528 -0.002997744 0.08118524 -0.053675946
0002b0 38 53 49 3d c4 5d 18 3e 4c 10 90 bc b0 f3 d2 bc
       0.04915163 0.14879519 -0.017585896 -0.025750965
0002c0 f3 29 23 be 9b 9f 90 bd 57 51 1b be 1e ec 2f 3e
       -0.15933971 -0.07061692 -0.15167747 0.17179915
0002d0 55 62 b0 3d 68 55 38 be 59 05 16 bd e5 09 99 ba
       0.08612505 -0.1800133 -0.036626194 -0.0011675922
0002e0 05 8f 09 3e 8c d5 16 3e 1a fd 91 bd be 13 b4 bd
       0.13433464 0.14729899 -0.071283534 -0.08792828
0002f0 65 42 2c be dd 0a b0 3d 8f f8 0c be 3d f5 2e 3e
       -0.16822203 0.08595822 -0.13766693 0.17085738
000300 3b 21 33 be b3 f4 92 3d 31 05 e8 3d 21 f7 e4 3d
       -0.17493145 0.07175579 0.11329115 0.111799486
000310 91 7d 30 3e e9 0b 2c bd 68 b6 83 3d c5 d6 17 3d
       0.172354 -0.042003546 0.064312756 0.037070055
000320 ca 29 f0 bd 67 ea 85 bc 58 2c 0c be c9 19 61 3c
       -0.11726721 -0.016347123 -0.13688791 0.013739058
000330 75 5c e2 bc 56 72 a1 3d 2a 49 de 3d c7 53 8e bd
       -0.027631978 0.07883136 0.10853799 -0.06949573
000340 cb 5e 8e 3d 61 1d c1 3d e1 07 38 3d ea ce b3 bd
       0.06951674 0.09429432 0.04492939 -0.087797
000350 09 aa 1a 3e 71 aa 16 bc 73 5c f3 3c 06 ac 88 3d
       0.15103926 -0.00919591 0.02970717 0.06673436
000360 85 77 13 be 52 27 14 bd eb 3f 0c be 11 e5 bb 3d
       -0.14401062 -0.03617031 -0.13696258 0.0917455
000370 d7 e1 d9 bd 24 91 b0 3d e0 4d ee bd 26 5d 47 3d
       -0.10638779 0.086214334 -0.11635947 0.048672818
000380 c0 8c 91 3d 26 74 fe 3b 40 e1 ac bd c1 f7 43 be
       0.07106924 0.007765311 -0.084414005 -0.1913748
000390 12 d9 c5 3c 03 45 0b 3e 30 75 0f be 68 1f b1 3d
       0.024151359 0.13600545 -0.14009547 0.086485684
0003a0 7b 41 dd 3d 8a 13 07 bd c3 24 eb bd 25 4c 9c bc
       0.10803505 -0.03297762 -0.11481621 -0.019079277
0003b0 0e 26 a2 bc 55 5a 32 bd 75 1f 2e be de ed be bc
       -0.019793537 -0.04354318 -0.17004187 -0.023306783
0003c0 21 40 b2 bc 7e 47 d9 3d c1 33 26 bc d1 47 8f 3b
       -0.021759095 0.10609339 -0.010144175 0.004372575
0003d0 4a 21 9e 3d 1a 83 9f 3d 83 1a 8f bd 82 e8 88 3d
       0.07721193 0.077886775 -0.069874786 0.06684972
0003e0 1e ba d8 3d 31 9b bd bd f1 a2 2f 3d 18 ff fe 3a
       0.10582374 -0.09258116 0.042880002 0.0019454686
0003f0 a5 d4 d4 3d 82 24 22 3d 36 c0 dd bd 95 b4 0a bd
       0.10392121 0.039585598 -0.10827677 -0.033863623

EiLM.3.gamma_generator.weight f4 [1, 32]
000000 0f 5b 94 bd cb 82 9f bd 14 0d 43 bd 78 6a 21 be
       -0.072439305 -0.07788619 -0.047619894 -0.15763271
000010 f2 16 3e be 67 f9 33 3d 55 e3 04 be b1 90 39 be
       -0.1856344 0.04393902 -0.12977345 -0.18121602
000020 96 5e 22 be 19 d4 ce bc ff cf 77 bc 15 c7 14 be
       -0.15856394 -0.02524762 -0.015125274 -0.14529069
000030 ea b7 f9 3d d7 58 01 3c a6 90 0c 3b 0b af 1d be
       0.12193282 0.007894716 0.0021448522 -0.15398805
000040 1c 8f ae bd e3 b1 0d be 73 5e eb 3d 4c 84 d7 bd
       -0.0852339 -0.1383739 0.11492624 -0.105232805
000050 db 03 18 be 48 f0 13 be 78 70 51 3d 58 d3 f6 bd
       -0.1484522 -0.14447129 0.05113265 -0.12052029
000060 92 2e bf bd 8f b8 da 3c 96 cf 89 3d f2 f5 26 3e
       -0.093350545 0.026699333 0.06729047 0.16304758
000070 b8 3d df bd e6 22 bc bd 87 2d 05 be f8 f6 cc bd
       -0.10900444 -0.09186344 -0.13005649 -0.10008043

EiLM.3.beta_generator.weight f4 [32, 32]
000000 3b e7 23 3e 5b e8 36 3c cd d2 08 be 8f e0 a2 3d
       0.16006176 0.011163796 -0.13361664 0.079529874
000010 f5 3a 0f be 18 7b 2d 3d 56 39 a5 3d a8 d9 16 3d
       -0.13987334 0.04235372 0.080675766 0.036828667
000020 57 cb 6a bd 47 2d ce bd 9e c9 bd 3c ab a0 00 3e
       -0.057322826 -0.1006723 0.023167428 0.1256129
000030 7c 95 db bd 0c 68 06 3e 70 56 00 3e b8 fb 7b bd
       -0.10721871 0.13125628 0.12532973 -0.061519355
000040 b7 41 97 3c 82 4c 1f be 11 6c ee 3d ce 32 d4 bd
       0.018463952 -0.15556529 0.11641706 -0.10361253
000050 bc d1 18 be 82 bd a8 3d e8 db 94 3c 96 14 2b be
       -0.14923757 0.08239271 0.018171266 -0.16707072
000060 a3 da b2 bc 2b 4a 1e be 35 26 02 be a1 9e ad 3d
       -0.02183277 -0.1545798 -0.12709887 0.08477522
000070 6c 29 fc 3d 81 6c 7e bc fb 90 d5 3d 16 cc 87 bc
       0.12312588 -0.015528799 0.104280435 -0.016576808
000080 dd 63 a2 bd dc ef ff 3d 82 05 e7 3d 0f 85 df 3b
       -0.07929204 0.124969214 0.112803474 0.0068212817
000090 19 d7 e5 bd 13 dd 7b 3d 19 0e 33 3e d2 89 8d 3d
       -0.11222667 0.06149013 0.17485847 0.06911053
0000a0 b9 d3 99 3d 70 74 e7 3d 98 66 b1 3d 13 52 21 bc
       0.07511086 0.113015056 0.08662146 -0.009846228
0000b0 bb 53 14 3e b9 6b 83 3d a2 98 90 3c a0 60 de bc
       0.14485066 0.06417031 0.017650906 -0.027145684
0000c0 6c 9f 05 be b0 85 2f 3e 03 4a 00 3e cb 43 ba 3c
       -0.13049096 0.17140841 0.12528233 0.022737404
0000d0 eb b0 68 3d fb b3 08 3e 03 eb 21 3d b5 3d 16 bd
       0.056809347 0.13349907 0.039530765 -0.036679942
0000e0 f8 37 83 bd 53 63 dc 3d c8 90 26 3e 82 20 3f bd
       -0.064071596 0.10761132 0.16266167 -0.04666186
0000f0 93 bc 50 3d e1 ae 5c 3d ce a5 f1 3d 88 9c 0b 3d
       0.05096109 0.053877715 0.11799203 0.034084827
000100 37 e3 01 3e 8a 39 ba 3d 5a 0a 13 be d1 07 26 3c
       0.12684332 0.09093006 -0.14359418 0.0101336995
000110 d8 75 23 3c 6e 5f be 3d 55 5b 61 bd 29 d4 20 3e
       0.009976827 0.092955455 -0.05501874 0.15705933
000120 d0 e4 16 be c0 9d ee bd ae 64 36 3e d6 6d 8e bb
       -0.14735723 -0.11651182 0.17811844 -0.0043465896
000130 42 ce 91 bd 02 a2 d8 3d a5 7b 72 bd a9 29 26 be
       -0.07119419 0.105777755 -0.059199948 -0.1622683
000140 2a 56 bc bd 8b 70 74 3d bb 76 ec bd b5 5e e6 3d
       -0.09196122 0.05967764 -0.115460835 0.11248533
000150 14 2a 93 3d 20 87 2f be 72 47 c7 3d eb c2 29 3e
       0.0718576 -0.1714139 0.09730424 0.16578262
000160 58 1f 2f be 70 a0 a3 bc 32 e4 1c 3e 7d d9 12 be
       -0.171018 -0.019973963 0.15321425 -0.14340778
000170 dc dc 08 3e 33 4f 05 3e b0 d0 0e bd ed 83 4b bd
       0.13365501 0.13018493 -0.03486699 -0.04968636
000180 79 a9 10 be aa 63 47 bc 6b 41 d5 bc 79 69 b8 3c
       -0.14127149 -0.012169758 -0.02603217 0.02251123
000190 96 56 06 3e ec 8e db bd a5 9d 73 3d e9 70 b5 3d
       0.13118967 -0.107206196 0.059476513 0.088594265
0001a0 24 44 bf 3b b0 bb 3a 3e 35 56 89 bd f9 eb ee 3c
       0.0058369804 0.1823566 -0.06705896 0.029165255
0001b0 d8 6c cb bc 47 84 11 3e 59 9f 0b 3e d1 b1 f6 3d
       -0.024832174 0.14210616 0.13635005 0.120456345
0001c0 65 56 b0 3d 5b e5 32 3e f8 41 5b 3d 1f 7e 89 bd
       0.086102284 0.17470305 0.05352971 -0.06713509
0001d0 48 cd 82 bd e0 ef 38 3e 7c ba 66 bc c8 05 c5 bc
       -0.063868105 0.18060255 -0.014082547 -0.024050608
0001e0 4f ac d6 bc 53 22 ab 3d a0 a6 33 be 3b ee 8e 3d
       -0.02620521 0.08356156 -0.17544031 0.069790326
0001f0 7e 08 f7 3d fb 8d 8a 3c 44 0c fc bc 3d cb e7 3d
       0.12062167 0.016913405 -0.030767567 0.113180615
000200 a8 2a a0 3d 93 ee 2a 3d fc c5 1c 3e 97 05 e6 bd
       0.07820636 0.04173143 0.153099 -0.11231535
000210 66 b5 71 bb 23 5b 01 3e ff b8 ec 3d 3e c3 1b 3d
       -0.0036881804 0.12632422 0.11558723 0.038027994
000220 df 8f 74 3c e2 85 91 bd 10 7c b6 bd cd 75 bc bd
       0.01492688 -0.07105614 -0.08910382 -0.09202156
000230 a2 46 4d 3c 83 cc a9 bd ff 34 02 3e 92 0f 04 3e
       0.012529047 -0.08290961 0.12715529 0.12896565
000240 9d 57 5a 39 e0 06 0b be 3f be fb 3d 7e 21 5b bc
       0.00020822739 -0.13576841 0.12292146 -0.013374684
000250 be 55 2f be 87 a1 f8 bd c6 5c 94 bd e3 ac cb bd
       -0.17122552 -0.12140184 -0.07244258 -0.09945085
000260 2b 1f 07 3d 99 8b e4 bd ef 5f 15 3d 5b 9a 16 be
       0.03298871 -0.11159439 0.036468443 -0.1470732
000270 89 64 0d 3e 29 dc 13 3e 74 1f 59 3d 4e da c0 3d
       0.13807882 0.14439453 0.05300851 0.09416638
000280 59 cf 35 3e a2 90 1b 3e 1f db 30 3e c5 23 3e 3c
       0.17754878 0.15191892 0.17271088 0.011605208
000290 31 b3 8c bc c6 cf 2a 3e 1c 10 1b be 97 e2 15 3b
       -0.017175289 0.16680822 -0.15142864 0.0022870654
0002a0 9d 4d 52 bd 74 c0 28 bd 4d 42 93 bd 4b 2d 1f be
       -0.05134355 -0.041199163 -0.0719038 -0.15544622
0002b0 db eb 1a bd 93 1c 10 be 3d b9 fe bd 5f 04 fd bd
       -0.037822586 -0.140734 -0.12437675 -0.12354349
0002c0 03 d0 0a be e5 13 24 be 03 9b 8d bd e7 c4 05 bd
       -0.13555913 -0.16023214 -0.06914332 -0.032658484
0002d0 27 55 77 3d d8 9d 2a be 65 97 bc bd c3 5a 08 bc
       0.060383942 -0.16661775 -0.09208564 -0.0083224205
0002e0 0e 9b 2e 3d 11 26 e4 bd 21 83 09 3e a4 ed 2d bd
       0.04262834 -0.11140073 0.13428928 -0.04246296
0002f0 9e 3f 14 be 32 10 34 3e e5 2c 4b 3d 0b 08 91 3d
       -0.14477393 0.17584303 0.04960336 0.07081612
000300 1f 97 c3 bd 8f c7 a0 bd 2e 0a 57 bd 46 06 0c bd
       -0.095503084 -0.07850563 -0.052499942 -0.03418567
000310 24 bf f0 bd a2 ce fe bb ac b6 6e 3d 75 2b 1d 3d
       -0.11755207 -0.0077760974 0.05827968 0.038371522
000320 30 08 e7 3c fb ff ae bd 0f 2e 2e bd 6e 7e 05 3e
       0.028202146 -0.08544918 -0.042524394 0.1303651
000330 b9 02 17 3d ec ce 00 bd 6e 9b 44 3d 87 70 a7 3d
       0.03686783 -0.031447336 0.04799979 0.0817576
000340 9b 91 1d bd bd 4b 22 be 7b 83 20 be 37 d9 6e 3d
       -0.03846894 -0.15849204 -0.15675156 0.05831262
000350 44 86 17 be a7 1a 18 3e 5d 5e e4 3d 84 a3 8e bd
       -0.14797312 0.14853917 0.11150811 -0.06964782
000360 bc 02 27 bd cf d0 e1 3d 4a 13 1d bc ab a3 9f 3c
       -0.040774092 0.11026155 -0.009587118 0.019487223
000370 78 10 01 3e c3 46 f3 bd 0a 6d 5a 3c bc 42 20 be
       0.12603939 -0.11878731 0.013331661 -0.15650457
000380 be 7a 82 bd 90 74 0a be c4 03 19 be f3 6a 20 be
       -0.063710675 -0.13521028 -0.14942843 -0.15665798
000390 d8 a3 39 bb c4 d7 0d 3e b0 71 40 bd 3c 65 9e bd
       -0.0028326418 0.1385184 -0.04698342 -0.07734153
0003a0 c7 3c aa bc bc b2 90 3d ed 7d 55 bd bf 10 c2 bd
       -0.020780934 0.07065341 -0.052122045 -0.0947585
0003b0 22 91 8b bc ed 3b 0f be 36 e1 10 be b7 24 e8 3d
       -0.017036978 -0.13987704 -0.14148411 0.11335128
0003c0 08 e2 24 3e 02 01 e6 bd af 0e 11 be 84 60 3a 3d
       0.16101849 -0.11230661 -0.14165758 0.0455022
0003d0 59 fa 2b be fc 9b 27 3e c2 71 b0 bd bb b1 20 bd
       -0.16794719 0.16368097 -0.086154476 -0.039231997
0003e0 1d 56 2d be 00 1e d8 3d 04 3e 0f be ab 2e 35 3e
       -0.16927381 0.10552597 -0.13988501 0.17693584
0003f0 fd 66 2b bc ce e6 dd bd 45 77 ea 3d 2d 81 1b be
       -0.010461566 -0.10835038 0.1144853 -0.15185995

Gate.weight f4 [4, 32]
000000 14 4c 41 3d 53 a0 0f 3e ef 40 3f be 82 cb e3 3d
       0.047191694 0.14026003 -0.18677114 0.111228004
000010 dc 19 b9 3d 96 70 24 be 95 fe 3a 3e bf cc 51 3d
       0.090381354 -0.16058573 0.18261178 0.05122065
000020 84 22 2c be 4e 76 28 3e d3 35 b2 bc 46 90 f5 3c
       -0.16810042 0.1645138 -0.021754181 0.029976021
000030 78 25 23 be 4b ff 7f 3d 26 38 18 be 26 7f ee bd
       -0.15932262 0.062499326 -0.14865169 -0.116453454
000040 92 4a 09 be e4 fc c1 bd da e9 1e be 86 a0 1f be
       -0.13407353 -0.09472063 -0.15518895 -0.15588579
000050 9b 17 87 3c 2d b4 b5 3d f7 3a 42 bd 14 43 00 be
       0.016490748 0.088722564 -0.047419515 -0.12525588
000060 cd 51 01 be e5 f7 99 bc d7 40 00 3e 47 71 69 bd
       -0.12628861 -0.018794963 0.12524734 -0.056992795
000070 77 1c a2 bd ed 2d b8 bd 96 8d 4d be 33 d4 31 3e
       -0.079155855 -0.08993135 -0.20073542 0.17366104
000080 02 80 f6 bd d6 a9 01 be 12 e1 21 be 45 a2 b1 3d
       -0.12036134 -0.12662444 -0.15808514 0.086735286
000090 3f f3 fd bd c0 d2 95 3d 26 d3 13 be 03 eb 13 bd
       -0.12399911 0.07315588 -0.14436015 -0.036112797
0000a0 09 14 20 3e 9a fb 28 bd ea 4b cb bd 8e 84 a9 bd
       0.15632643 -0.04125557 -0.09926589 -0.08277236
0000b0 0c db 7c bd cb 7e dc 3b 47 47 32 bb 6a ba fa 3d
       -0.061732337 0.006728982 -0.002720313 0.12242587
0000c0 8c 86 05 3e e6 af 48 bd 52 0a 2f 3e f3 f0 f6 bd
       0.13039607 -0.048995875 0.1709378 -0.12057676
0000d0 7a 6b 4f bc 72 fe a5 3c 0e 6d d5 3d c5 bc 08 3e
       -0.012659902 0.02026293 0.10421191 0.1335326
0000e0 d1 e2 f4 3d e4 09 11 be 4a 72 4b 3e e1 e2 06 3e
       0.11957324 -0.14163929 0.19867817 0.13172485
0000f0 81 84 25 bc 8b ad d6 3d 29 37 81 bc 48 11 34 bd
       -0.010102392 0.104823194 -0.015773373 -0.043961793
000100 82 a1 08 be 1e 71 18 be 20 dd bf 3d c9 3f 33 3e
       -0.1334286 -0.14886901 0.09368348 0.17504801
000110 73 af 9c bd 52 b0 45 3e 87 6a d4 3d 75 0b 94 bd
       -0.07650652 0.19305542 0.10371881 -0.07228748
000120 99 13 c4 3c 8c 45 0a 3e 2a d6 38 bc 47 70 1a 3c
       0.023935126 0.13503093 -0.011281529 0.009426183
000130 c0 58 84 bd 24 0b b6 3d 66 be bc 3c ba 9d b4 3c
       -0.0646224 0.08888844 0.023040008 0.022047866
000140 20 83 6d 3b 27 7f 1f 3e e4 54 f9 bd cf 34 07 be
       0.0036241487 0.15575849 -0.12174395 -0.13203739
000150 7c 78 08 3b 83 82 94 bd 22 01 29 be c7 65 b6 3d
       0.0020823767 -0.07251456 -0.16504338 0.08906131
000160 27 d6 21 3d 69 9d 29 3e 99 88 8a bd d8 60 3f 3e
       0.039510872 0.16563953 -0.06764335 0.18689287
000170 32 8b 8c bd a7 99 e9 bd 8d 2c 86 3c 89 5a 46 bd
       -0.06862487 -0.1140626 0.016378665 -0.048426185
000180 5b c8 ea bd 17 23 7b bd 42 5b c8 3d a0 01 7e 3d
       -0.11463996 -0.06131276 0.09783031 0.06201327
000190 bf ca 43 3e a2 7d dd 3d 75 34 1d 3d b0 16 4d bd
       0.1912031 0.10814978 0.038380105 -0.050070465
0001a0 5a 93 17 be 9d 16 09 be 7c d8 8f 3c 20 06 46 be
       -0.14802304 -0.13387533 0.017559282 -0.19338274
0001b0 75 59 4d 3c 2a 3a 0d bd ee 3d 03 be 2c 5a 21 3e
       0.012533535 -0.034479298 -0.12816593 0.15757054
0001c0 27 ff 3c be 9f 75 92 3d 45 14 04 be 31 5c e4 3d
       -0.18456708 0.07151341 -0.12898357 0.111503966
0001d0 19 cb 52 bc ac 19 43 3d 98 0f 90 3b 7f cf d1 bd
       -0.012865805 0.047631904 0.00439639 -0.10244655
0001e0 85 92 88 bd 09 13 2a bd 27 fb 8f 3d b3 23 3b bb
       -0.066685714 -0.04152206 0.070303254 -0.0028555214
0001f0 f4 3d cd bd 28 39 1c be b5 7d 29 3e 1f 06 35 3e
       -0.10021582 -0.15256178 0.1655186 0.17678116

experts.0.gate_proj.weight f4 [32, 32]
000000 93 1b 83 bd 70 d1 1f 3e 87 81 10 3e c2 2e 25 bd
       -0.06401744 0.15607238 0.14111911 -0.040327795
000010 53 60 e8 3d 5a c9 38 3e 15 fc 02 be 44 19 d5 bd
       0.113464974 0.1804556 -0.12791474 -0.1040521
000020 98 7b e4 3d ff 66 66 bd da 90 c4 3c 09 85 c3 bd
       0.11156386 -0.05625057 0.023994852 -0.09546859
000030 01 51 38 bd a3 f7 28 bc a3 41 3b bd 2b 73 81 3d
       -0.044999126 -0.010312947 -0.045716893 0.06320795
000040 82 b6 c9 3d af 9c d0 3d 73 ef e6 bd bd 9f 3a be
       0.09849264 0.10186135 -0.1127614 -0.18224998
000050 c6 34 26 3c 04 97 42 be f8 88 d6 bd a5 8d 4c bc
       0.010144418 -0.1900292 -0.104753435 -0.012484943
000060 37 6f c2 bd e6 25 de bd 15 43 fa 3d 21 fb b9 3d
       -0.09493869 -0.10847072 0.12219826 0.09081102
000070 87 4a b2 3d f7 da ad bd 0b d7 16 be d9 63 36 3d
       0.08705621 -0.0848903 -0.1473047 0.044528816
000080 0d ab 27 3e 60 66 a1 bd c9 3f 8e bd 21 7b c4 3d
       0.16373844 -0.078808546 -0.0694576 0.095937975
000090 0f ca 48 be 9a b0 0b be 91 d7 ad bb a0 1b 45 be
       -0.19608329 -0.13641587 -0.0053052385 -0.1924882
0000a0 87 55 8b bd 68 7c 41 bd 5f 69 9a 3d 25 11 b9 3d
       -0.068034224 -0.047237784 0.07539629 0.09036473
0000b0 2b 14 f3 bd ae 20 3c be 42 ad 54 bc 42 8c be bd
       -0.11869081 -0.18371841 -0.012980761 -0.09304096
0000c0 6c 64 1f 3e 9d db 43 bd 43 eb ac 3c 64 b7 89 bd
       0.15565652 -0.04781686 0.021108275 -0.06724432
0000d0 9f 78 98 bd 2a 51 d0 bd 8c f1 79 bd 19 23 34 be
       -0.07444882 -0.10171731 -0.061021373 -0.17591514
0000e0 cb 04 7b 3a b9 96 9b bd 55 91 89 bd f5 9e 5e bd
       0.00095756043 -0.075971074 -0.06717173 -0.054350812
0000f0 d6 3b d6 bd 8c bf 84 bd 54 4a b9 3d 85 bb a4 3d
       -0.104606315 -0.06481847 0.0904738 0.08043579
000100 5c 07 1c 3e f1 67 95 bd 45 b9 96 3d 64 9c 6a 3d
       0.15237182 -0.07295216 0.07359556 0.057278052
000110 46 92 85 bd a9 f2 56 3d a2 96 53 bd 27 b4 de 3c
       -0.0652204 0.052477513 -0.051657327 0.027185513
000120 c5 a2 28 bd a0 60 1b bd d0 f2 27 bd d9 c3 f1 bd
       -0.041170854 -0.037933946 -0.04100305 -0.11804933
000130 94 1b 5b 3d 74 c1 08 bc c2 4e 2d 3e ee d9 2e 3e
       0.053493097 -0.008346904 0.16924575 0.17075321
000140 6f b8 59 bd 41 9e 36 bd 26 8e e1 3d 1b 1e 93 3c
       -0.053154405 -0.044584516 0.11013441 0.017958691
000150 de c6 74 bd cf 00 2e be ba 80 d0 bd 2f 27 ec 3c
       -0.059759967 -0.16992496 -0.10180803 0.028827278
000160 f2 80 10 3e e8 2e 16 3e eb db 2a bc 27 0a 1f be
       0.14111689 0.14666331 -0.010428409 -0.15531217
000170 85 36 8b bd c0 c7 29 3e 92 7c 1f 3e d8 39 2e 3e
       -0.06797508 0.16580105 0.15574864 0.17014253
000180 10 4f 9c 3d d5 aa 25 be 82 25 ab 3c c7 b9 97 bb
       0.076322675 -0.16178448 0.020891909 -0.0046303007
000190 ed 94 61 3c 7f 65 41 be 87 a0 ae bc 9b c5 34 be
       0.013768417 -0.18886374 -0.02131678 -0.17653506
0001a0 c7 7e bd 3b 2f 70 fa bd 47 0f 36 3e 90 cf 2b be
       0.0057829353 -0.122284286 0.17779265 -0.16778398
0001b0 3c 15 c5 3c 97 92 d0 3d 1a 73 82 3d 04 94 2d be
       0.024057977 0.1018421 0.0636961 -0.16950995
0001c0 e5 ec 9a 3d d3 af 04 3e ae bd 19 bb 4c ab 9f 3d
       0.07564715 0.12957697 -0.0023459005 0.07796344
0001d0 55 36 b3 3d ee af d8 3d 80 a2 13 3e 24 6e fd 3d
       0.087505974 0.10580431 0.14417458 0.12374523
0001e0 da 4e 4a be e3 09 5e bd 8b 41 07 3d 16 e8 8e bd
       -0.19756642 -0.054208647 0.03302149 -0.06977861
0001f0 e8 33 0a be ab 9a b8 bd 0a 4c c4 3d c6 42 35 3d
       -0.13496363 -0.090138756 0.09584816 0.044253133
000200 93 0b 17 3e 84 3e 9a bd f5 08 03 be 4c f7 69 bd
       0.14750509 -0.07531455 -0.12796386 -0.057120606
000210 25 3f 66 ba 2f 41 ef bd d9 d7 08 be 7e fb ae bd
       -0.0008783213 -0.11682355 -0.1336359 -0.08544062
000220 cc 5d 43 3e ea 3b 4a be 9a d6 e0 bd 1f 64 0c bd
       0.1907875 -0.19749418 -0.10978432 -0.03427517
000230 ae ad 96 bd 1e 53 7f 3d 06 fc 0c bd 7d 14 24 be
       -0.073573455 0.062335126 -0.034420036 -0.1602344
000240 44 38 bb 3d a7 6b 8e 3a 2a 2f 57 bd fc 76 72 bd
       0.09141591 0.0010865823 -0.052535214 -0.059195504
000250 3c 40 03 be cb fc 07 3e c5 76 4a 3e 68 3c 0a 3e
       -0.12817472 0.13280027 0.1977187 0.13499606
000260 d5 6e d6 3d c4 f5 08 3d 6f f3 06 3e 79 8b 08 3e
       0.10470358 0.033437505 0.131788 0.13334455
000270 ff de 0a be fe cb b7 3d a0 49 ab 3d ac 46 7a 3d
       -0.13561629 0.08974455 0.08363652 0.061102554
000280 d2 c8 fa 3c d9 8b 23 3c f0 1f 3e bd 82 b5 b3 bd
       0.030613337 0.009982073 -0.046417177 -0.08774854
000290 c0 36 23 3d 64 00 e8 bd 19 bc 06 bc 8a 36 f4 3d
       0.039847136 -0.113281995 -0.008223557 0.11924465
0002a0 ed ee 0f 3e 52 b5 bd bd cd ae e8 3d 7a c9 93 bd
       0.14055987 -0.092631 0.113614656 -0.07216163
0002b0 66 e5 f8 3d 67 45 de 3d c1 e6 1f be 0b 92 02 3e
       0.12153129 0.10853081 -0.1561537 0.12751023
0002c0 90 b6 20 3e d7 5e 0e be 39 76 26 bd 2f da e1 bc
       0.15694642 -0.13903366 -0.04064009 -0.027569858
0002d0 58 9e 9f 3d be 44 74 3d ae 76 e7 bd 3d c7 6d bd
       0.077938735 0.05963587 -0.11301933 -0.058051337
0002e0 4c b3 02 3e c7 81 35 3e 92 3b ec 3d b8 da 1b be
       0.12763709 0.17725287 0.115348 -0.15220153
0002f0 0c d2 15 be bc 90 8c 3d 67 4d 60 bd ab 16 01 3e
       -0.14630908 0.068635434 -0.054761317 0.12606303
000300 b4 5c fb 3d 28 14 2e 3e 86 f9 68 bd 11 34 9e 3c
       0.12273541 0.16999876 -0.05687859 0.019311937
000310 4e da f1 3d b0 93 af 3b d2 f5 81 bd 8b 32 ea bc
       0.118092164 0.005358182 -0.06345715 -0.028588554
000320 5d 59 15 bd d6 63 7f 3c 49 9b 3d bc c0 e0 be bc
       -0.036462177 0.015587768 -0.011572667 -0.023300529
000330 91 c2 0e bd d2 45 2a be 3e ca e2 bc bf 42 a5 3c
       -0.03485352 -0.16628197 -0.027684327 0.020173429
000340 35 fd e0 3d 82 e1 9f 3d 28 8e 72 3c 70 2d 9c 3d
       0.109857954 0.07806684 0.0148044005 0.07625854
000350 0a ff 19 3e be c3 32 3e a0 4e 1c be f4 3a cd 38
       0.15038696 0.17457482 -0.15264368 9.7861426e-05
000360 8d 1e 1a 3e ae aa 7c 3d 04 93 a8 3d 5b f2 da bd
       0.15050717 0.06168621 0.08231166 -0.10690757
000370 f4 b3 8b bc 24 57 cd 3d 5d b5 4c 3d 27 29 25 be
       -0.017053582 0.100263864 0.04997765 -0.1612898
000380 b5 65 26 be 53 1d 9a 3d af c5 11 be 43 e4 1e be
       -0.16249736 0.075251244 -0.14235567 -0.15516762
000390 1a cb d3 bd 38 6e 67 bd ca 81 a0 bc dd e9 fc bd
       -0.10341473 -0.056501597 -0.019593138 -0.123492934
0003a0 52 06 04 3d 8a 3f 50 bd f3 e2 13 3e 9e 39 07 bd
       0.03223259 -0.050841846 0.14442043 -0.033013932
0003b0 c9 4b bb 3d 92 d2 f5 3d 7a f6 32 be 29 fa 05 be
       0.09145314 0.12003054 -0.17476836 -0.1308371
0003c0 62 fb 69 3d 87 b2 f5 3d 87 94 2e 3d 65 95 32 be
       0.057124503 0.11996942 0.042622115 -0.17439802
0003d0 a9 fe 01 bd e7 53 b7 bc 0e 58 a1 3d 13 3e 5d 3d
       -0.031737003 -0.022378875 0.07878123 0.054014277
0003e0 e5 ef 92 3d 91 ca 43 3e 2b 7b d3 bd 1b 01 ba 3d
       0.071746625 0.19120242 -0.10326227 0.09082242
0003f0 09 89 42 be a6 b4 31 3e 11 19 cc 3d 07 81 fb 3c
       -0.18997587 0.17354068 0.099657185 0.030701173
