output/SocialGood-MoME/ts_encoder_epoch6.pt (torch, 362284 bytes, 34 tensors)

proj.weight f4 [32, 4]
00000000: 6d92 bdbe d22a e53e e7cd 5e3e fc0a 10be
00000010: b3bb 943e 668a 60be fdbe 81be 2059 c03d
00000020: e7b4 69bc d74e c9be cb69 c03d 6fbd 0abe
00000030: 67b7 983e 6c38 04bf fe91 fb3d bb43 d33e
00000040: df0b 71be 5db7 8d3d dd94 afbe 2885 063e
00000050: d0bc b7be 0da8 42be b167 98be b9ec f33e
00000060: 913f fc3e dfc5 a6bd 07cf c7be 63f7 1abe
00000070: 2a6a 2bbe 628b 703d b896 35be 6eda 013f
00000080: 2e2e a3be 61b5 ff3d 3233 123e 31a0 5e3b
00000090: 5263 233e 8215 f33d 3521 b43e 0b24 9fbd
000000a0: e51e 3e3e b06f 4f3e 3fff d43d c97e 7abd
000000b0: 2df0 123e e93d ba3e be53 d93e 4c56 b03e
000000c0: 39b3 39be d1f3 eebe 3382 09be 8cfd 5e3e
000000d0: 60c9 8bbe a76b 96be 5a92 86be f0f6 97be
000000e0: 924e f83e 6067 5f3d b1f3 f5bd 6c21 333e
000000f0: 79eb adbd 6cea cc3d cdf1 ad3e a920 b8be
00000100: a369 0a3e 8e82 d93e 0685 d7bd b8ce 583e
00000110: f164 d4be d559 07bf c84f f5be 46eb f03d
00000120: 1276 77be 739a 4c3d 092f a13e 48ef e33d
00000130: 13bf 893e 02e5 edbd 2fc3 0fbe b29b 87be
00000140: db47 f6be 2382 103b 5801 a2be 5b52 babe
00000150: 5c5f 393e 5787 fa3e a2c1 623e d119 9dbd
00000160: 02cc d93e 9f4b c5be 2d95 05bd 7fac a33d
00000170: 2d9b e0be 1cbc 2bbe e50a c03e 6799 2abe
00000180: c1c1 d5be ed75 0fbe 16c7 4b3d ac18 6c3e
00000190: e448 b2be bb70 d7be 1cc6 833c 9f45 b7be
000001a0: fb59 41be d452 f23e 243a 23be 3f53 5b3e
000001b0: fde0 9dbe f624 8cbe f568 7c3e 450f d23e
000001c0: 4185 013f 4a83 92be 379a 023f 626e e23e
000001d0: 7089 9bbd c67e c53e fadd d8be 9b6b 82be
000001e0: f5f2 5bbe 7dab b1be f368 92be d516 43be
000001f0: e955 063f 1b72 743c a50c adbe 9d43 b0be
-0.37025777 0.44759232 0.21758233 -0.1406669 0.29049453 -0.21927795 -0.25341025 0.09391999
-0.014264322 -0.39317963 0.093951784 -0.13548826 0.29827425 -0.5164859 0.12283705 0.41262612
-0.23539685 0.069197394 -0.3429326 0.13136733 -0.3588624 -0.19009419 -0.2976661 0.47641543
0.49267247 -0.0814321 -0.39025137 -0.15133433 -0.16739717 0.058726676 -0.17733276 0.5072392
-0.3187117 0.12485767 0.14277342 0.0033969993 0.15955856 0.11869337 0.35181585 -0.077705465
0.18566473 0.20257449 0.10400247 -0.061156068 0.14349432 0.3637536 0.42446703 0.3444084
-0.18134774 -0.46670392 -0.13428573 0.21776408 -0.27302074 -0.29379007 -0.26283532 -0.29680586
0.48497444 0.054541945 -0.12009371 0.17493218 -0.084921785 0.1000565 0.33973542 -0.35962418
0.1351686 0.42482418 -0.10523419 0.21172607 -0.41483262 -0.5287145 -0.4791243 0.11763625
-0.24166134 0.04995198 0.31481197 0.11129624 0.2690359 -0.116159454 -0.140393 -0.26485974
-0.48101696 0.0022050224 -0.3164165 -0.36390957 0.18102783 0.4893138 0.22144178 -0.0767094
0.42538458 -0.38534257 -0.03261297 0.079918854 -0.4386839 -0.16770977 0.37508312 -0.16660081
-0.41749385 -0.14009829 0.04975041 0.23056287 -0.34821236 -0.42078194 0.016085677 -0.35795304
-0.18881981 0.47328818 -0.15940148 0.21418475 -0.30835715 -0.2737195 0.24649413 0.41027275
0.50593954 -0.2861579 0.51016563 0.4422484 -0.075945735 0.38573283 -0.42356855 -0.2547272
-0.214794 -0.34701148 -0.28595695 -0.19051678 0.5247484 0.014919783 -0.3379871 -0.34426585

proj.bias f4 [32]
00000000: 04a2 033f 5de2 a3be 0c54 d73e 89bd 063f
00000010: 1a9f f1be 17c8 283e ab31 c63e da72 dfbe
00000020: 1790 80be bb49 e5bd 0c10 453e 011e a9be
00000030: 0c0b 253e 0391 063e d28b d13e 88ac e0be
00000040: 3830 f53e 0a63 8fbe 4824 8ebd e9a4 3a3e
00000050: 8d72 05bf bd63 c63d d437 04bf 02df febd
00000060: a91b 8abe 8f69 7ebe cff0 44be 5818 4a3e
00000070: 0b15 47be 07eb 883e e6de db3d d108 ffbe
0.5141909 -0.3200864 0.4205631 0.5263296 -0.47191697 0.16482578 0.3870977 -0.43642312
-0.25109932 -0.111957036 0.19244403 -0.33030704 0.16117495 0.13141255 0.40926987 -0.4388163
0.4788835 -0.28005248 -0.06940514 0.1822697 -0.52127916 0.09686992 -0.51647687 -0.12444879
-0.26974228 -0.24844955 -0.19232486 0.19735849 -0.19441621 0.26741812 0.10735874 -0.49811414

EiLM.0.gamma_generator.weight f4 [1, 32]
00000000: 7e97 50be f2c8 ec3c 520a 1a3e fe79 0ebd
00000010: 20b5 02be 9ff0 c73d cf60 26bd a6e3 2abd
00000020: 5f60 813d c558 d23d 7294 0f3e 1926 433c
00000030: 20a6 203e 460b 953c 1763 ed3d 21f7 11be
00000040: 45c7 423e 7db8 d03d 4099 413e 2fea 263e
00000050: ba7c 153d 8577 bf3c a3bb a7bd 8c03 783d
00000060: be2d 973d 9d18 383e 509d f43b 043e 4d3e
00000070: c92a 823c fdf7 f63d 3ae3 53be df78 c3bd
-0.2037029 0.028904412 0.15043 -0.03478431 -0.12764406 0.09762692 -0.040619668 -0.04172101
0.063172095 0.10270838 0.14021471 0.011910939 0.15688372 0.018193852 0.115911655 -0.14254428
0.19021328 0.10191438 0.18906116 0.16300271 0.0364959 0.023372421 -0.08190086 0.060550258
0.073817715 0.17978139 0.007465042 0.20043188 0.015889542 0.12059019 -0.20692149 -0.09544539

EiLM.0.beta_generator.weight f4 [32, 32]
00000000: 82e6 04be 98df b83d d7e5 223e b039 4e3c
00000010: 297a 923d 0e64 b8bd ede3 f4bd 2e2e 2e3d
00000020: 5f9f 5fbc 4172 763d 08cb 0b3d 4622 eebc
00000030: 5783 c23d 4285 c03d 3de5 bbbd d150 44bd
00000040: 4765 0d3c 7c26 da3d d60c 113d e69a 14bd
00000050: cedb c0bd 1a37 0a3e 2623 8bbd f88f 423d
00000060: b6bc f4bd 7370 e83c 430a ffbd bc0f b23b
00000070: a109 a33c 3119 143e d698 af3a ccfa 3e3b
00000080: 795f df3d 0357 0b3e d217 a1bd 4f29 e9bc
00000090: 5baa e03b 7a62 dd3c 12b4 933d 18ed f6bb
000000a0: 04c6 643d 8d4c 35bc c074 163e 7abe 243e
000000b0: c675 d6bd 4cb6 9cbd 1233 233d 2427 29be
000000c0: fd92 c1bc 001d c33c c580 b8bd f315 0f3e
000000d0: bda0 473d 4d20 0d3e 10b9 dc3d fdc3 fbbd
000000e0: a22f 1ebe 8b3e 29be cc81 ff3d e8f5 20be
000000f0: e734 b5bd 33e4 afbd 1be6 98bd 67ca 793d
00000100: bfdf 763d 241b 21be 892f ee3d 6bb9 533c
00000110: a520 013d 9341 bf3c 5b3c 643d 51de 143d
00000120: a372 c1bd 7318 353e b349 243e 69f8 69bc
00000130: aced 173e c672 24be 9aa7 413d 6176 2abe
00000140: 7147 343e 8aa9 00be ad56 213e 1114 8bbc
00000150: c2ef c7bc 91c3 ef3d 9f4d d93d 88ac 9dbb
00000160: 7b44 01be 8024 0a3e 133a 0cbe 2df2 053e
00000170: 3f59 bd3d ae0f 253e 4e9e 87bc 9692 cf3c
00000180: ab75 323d c0c7 b2bd 65d8 19be 303a 8bbd
00000190: 8eb3 a0bd 66b9 6abd e175 80bd cd2c 1fbe
000001a0: 1ad7 2bbe 0080 353d 290b 103e 54d4 dfbd
000001b0: f6db a1bd 22f7 24be b2f1 2ebe 72ae 35be
000001c0: 4b02 1abd 5b4c 23bd 6435 b6bd 2731 c2bb
000001d0: 3f36 cdbd 4390 1bbe 8396 40be 7bde 9dbd
000001e0: 8a9b 893d 9f09 853d f1f9 c13d 3c22 d0bd
000001f0: f32f f83d 6e78 dfbc 6a98 ca3d cd53 cdbc
00000200: 82c6 0e3e f616 8f3d 51a9 11bc 8866 14be
00000210: 2013 f93b a994 173e 3bde df3c aac6 9abd
00000220: 584f 213e bf24 8cbd 4041 623d bec7 83bc
00000230: 7a98 75bd 7419 de3d d24e 10be 8216 02ba
00000240: 7fdd 17be 8dd1 53bd 3cbc d5bc 82ce 773c
00000250: 7cbd 0f3e 350e 21be 5f69 38bd ef0d fbbd
00000260: 6475 06be 801a dcbd e66e 9bbd 97b1 9a3d
00000270: 172d 5f3d b2aa 57bd 992e e8bd d679 7b3d
00000280: 7984 1e3e f678 273e 8021 0bbe 827f ab3a
00000290: 740b b83c 102e 8d3c f988 d93d a6e0 85bc
000002a0: bf7d 213e 9a79 813d 4319 0b3e 9e4d 21be
000002b0: 1a56 2dbe 528a a7bc fbd1 73bd 2d3c 2dbe
000002c0: fb17 b43d 4b7f ed3d d5aa 493d db43 2b3e
000002d0: 2662 4e3d cbdf 19bd f34b 02bc 940b d83d
000002e0: c5ec 2ebd 017d 23be 1aeb b03d 8b26 78bd
000002f0: 6408 3b3e 312d 8fbc 942b f23d e3b2 0eba
00000300: 027c dabd b5d2 e0bd d247 663d 5b1b a5bc
00000310: 6162 203e ee8a 2f3e 5144 1d3e 86e9 2c3b
00000320: 480f b23d fe93 27be d1b0 093e 6521 193e
00000330: d85f 52bd 34f2 983d 55fd 2abd 42de 25be
00000340: 4c2d acbd 1d8c 5b3d 1c61 a53d fa50 cc3d
00000350: 27c6 14be 545f 4a3d 6607 cd3c 9779 9cbd
00000360: 54e6 e33d dbb9 873d 4792 213e dce6 c1bd
00000370: 2818 b73b 0eec 653d 4d38 bfbd b170 dd3c
00000380: 5a93 ce3d 82f4 1bbd caea 7cbd 42d9 1d3d
00000390: e7ea 93bd 649b 0a3e f56c 233e 0687 023e
000003a0: 449e 17be a2db 283d 8e49 04be eb62 a13d
000003b0: 1d78 183e 0bbb c7bd 7e62 ec3d 863e bebd
000003c0: 3654 4d3e 8095 98bd 8474 d6bd 1c1c 1d3e
000003d0: aca8 413e 7864 95bd 9d44 bc3d e8c3 fd3d
000003e0: 568c 0abd 9d9e e23d fe22 37be 3884 93bd
000003f0: 3452 183e e137 283c 6e7c 24be 2350 603d
-0.12978557 0.09027022 0.1590799 0.012586996 0.071522065 -0.09003459 -0.11957536 0.04252451
-0.013648837 0.060167555 0.034129173 -0.029069077 0.09497707 0.09400417 -0.09174583 -0.047928635
0.008630103 0.106518716 0.035412632 -0.036280535 -0.094169244 0.13497582 -0.067938134 0.04750058
-0.11950056 0.028373932 -0.12453129 0.0054340046 0.019902052 0.14462735 0.0013396989 0.0029141186
0.10906882 0.13607411 -0.078658715 -0.02846208 0.0068562455 0.027024496 0.0721208 -0.007535588
0.055852905 -0.011065614 0.14692974 0.16088286 -0.10471682 -0.07651958 0.039843626 -0.16518837
-0.02362966 0.02381754 -0.09008936 0.13973217 0.048737276 0.13781853 0.10777485 -0.12293241
-0.15447858 -0.16527764 0.12475929 -0.15718806 -0.08847981 -0.085884474 -0.07465764 0.06098404
0.060271975 -0.1573301 0.1163016 0.012922625 0.031525273 0.023346698 0.055721622 0.03634483
-0.09445693 0.17685108 0.16043739 -0.014280417 0.14836758 -0.16059408 0.047278978 -0.1664672
0.17605378 -0.12564674 0.1575572 -0.016977342 -0.024406318 0.11707223 0.10610508 -0.004811827
-0.1262378 0.13490486 -0.13694029 0.13080664 0.09245538 0.16119263 -0.016554978 0.025338452
0.04356925 -0.087295055 -0.15023954 -0.06798208 -0.07846747 -0.057305716 -0.062724836 -0.15544434
-0.16781273 0.044311523 0.14066757 -0.1092917 -0.07903282 -0.16109899 -0.17084387 -0.17742327
-0.037599843 -0.03986774 -0.08896902 -0.0059262696 -0.10020112 -0.1519175 -0.18807416 -0.077084504
0.0671912 0.06495976 0.09471501 -0.1016278 0.121185206 -0.027279105 0.09892352 -0.025064373
0.13942912 0.06986801 -0.008890466 -0.14492238 0.007601157 0.14802803 0.027327647 -0.075574234
0.15752923 -0.06842946 0.05523801 -0.016086455 -0.059959866 0.108446985 -0.14092568 -0.00049624604
-0.14830588 -0.051713515 -0.026090734 0.015124919 0.14037126 -0.15728076 -0.045022365 -0.12258517
-0.13130718 -0.10747242 -0.075895116 0.07553404 0.05448636 -0.052653022 -0.11337013 0.06139549
0.15480222 0.16354737 -0.13586998 0.0013084265 0.022466399 0.017233878 0.106218286 -0.016342472
0.15770625 0.06322022 0.13583855 -0.15752265 -0.16927376 -0.020451698 -0.059526425 -0.16917486
0.087936364 0.11596545 0.049235184 0.16725104 0.05038657 -0.03756694 -0.007952678 0.10549083
-0.04270627 -0.15965654 0.08638592 -0.060583632 0.1826492 -0.017477604 0.11824718 -0.00054435263
-0.10668184 -0.10977689 0.056220837 -0.020154646 0.15662529 0.17142841 0.15358092 0.0026384308
0.08694321 -0.16365048 0.13446356 0.14954145 -0.051360935 0.074680716 -0.041745503 -0.16198066
-0.08407077 0.05360042 0.08075163 0.099763826 -0.14528714 0.04940732 0.025027942 -0.07640379
0.11127916 0.06627246 0.15778457 -0.09467861 0.0055875964 0.056133322 -0.093369104 0.027031275
0.10086699 -0.038074978 -0.06174735 0.03853727 -0.072225384 0.1353584 0.15959533 0.1274682
-0.14806467 0.041225083 -0.12918684 0.07880195 0.1488957 -0.097524725 0.115422234 -0.09289269
0.20051655 -0.0745039 -0.10471442 0.15342754 0.18912 -0.072945535 0.091927744 0.12390882
-0.03382524 0.11065409 -0.17884442 -0.07202953 0.14875108 0.010267229 -0.16063091 0.054763924

EiLM.1.gamma_generator.weight f4 [1, 32]
00000000: 32ee f53a de5f bbbd c69e f03d cd35 cbbc
00000010: 8ca5 9dbd 8c49 103e d1cd 17be 32b0 e3bc
00000020: c000 a23d 8a45 1ebe 5184 d33d b54d 833d
00000030: 8a61 f13d 895b 1e3e 7e89 0fbe 5abb 703d
00000040: d52d 233d 6beb 1bbe e8e5 5cbe a3b1 743d
00000050: d6d5 59be 8f15 44bd 4c6f 3f3e 7a6d 633d
00000060: 44ad 9d3d 54e0 b6bd 4005 1b3e 7418 1b3d
00000070: 022a 90bc b25d 713e ca33 cabd 708b 293e
0.0018763004 -0.091491446 0.11749034 -0.024805928 -0.07697591 0.14090556 -0.14824606 -0.027793977
0.07910299 -0.15456215 0.10327972 0.06411306 0.11786182 0.15464605 -0.14017293 0.058772422
0.03983863 -0.15226524 -0.21572077 0.05973972 -0.21272978 -0.047872122 0.186948 0.055524327
0.076990634 -0.08929506 0.15138721 0.037865117 -0.017598156 0.23570898 -0.09873159 0.16557097

EiLM.1.beta_generator.weight f4 [32, 32]
00000000: 64d8 35be b618 0fbe 8b82 083e bb0e 363e
00000010: 8b01 11be 9901 41be b3e7 9dbd 467c 92bd
00000020: 263a 0e3c 514b 1dbc e3e4 a53d f69a 45be
00000030: aada 7dbd 91a4 253d 5313 12be 690c 233c
00000040: acdf 1dbe f422 0e3e 37c5 3dbc 5459 263e
00000050: 2835 403e eb04 94bd 4168 63bc d55c 08be
00000060: 2499 ae3d b350 083e 12d8 9cbc 268a eebd
00000070: cdc0 13be b330 05bd 953f 83bd b0a7 39be
00000080: 2b6e 01be 1746 e9bd 0f1d cb3d e49a 123e
00000090: 4a96 933c 860d 793c 2f3a 1c3e d585 8d3d
000000a0: 94b0 cf3d 36f8 e2bd 9598 bbbd 7a44 3f3d
000000b0: 889f c1bd b027 1fbe 574a 08be e65e b43d
000000c0: 038d 5ebc a03a bdbc d4ae f73d 48d8 cbbd
000000d0: 30d8 463d 6559 3e3e 991f 553d 0ffa d0bd
000000e0: b4fe d13d f41c dcbd 2aaf cfbd 08f1 a23d
000000f0: cb3e 8cbd 5a82 cb3d d00a 9a3d 78dd 84bd
00000100: cf5d a03d 4857 d03d 8410 e0bd 9f18 d13c
00000110: a825 ec3c 95e7 95bd 7e65 3cbd 00ad d53d
00000120: 10f6 babd 37ce a43d d229 aabc 4dba 6d3d
00000130: c62d c4bd 2215 833b c9d0 323e f336 b53d
00000140: 2cce 59bc 4843 e2bd 897a e33d 3d22 13be
00000150: 46ff 413d df79 9a3c 9d59 e93d 3434 89bd
00000160: 3d7f 093e 8960 2e3e ce2c 05be f914 b93d
00000170: 7069 1cbe 9dfe 23bd 09cd 083e 694e 9f3c
00000180: 65a0 3bbd c643 5bbb 24d3 e1bd 351a 0f3e
00000190: de4a bc3d 3f17 1b3e 0ed6 11be 74f7 253e
000001a0: 4103 a33d 58ea b03c eb8a 1a3e 514f 353e
000001b0: 7e6e 1dbe f9fe dcbd ae44 adbd bf22 863c
000001c0: 92f2 d4bd 64c9 cd3d 5ea2 afbc 07c1 b83d
000001d0: 5401 173d 7b5c b73d b62c 78bd 2639 1dbe
000001e0: c6f8 163c 072b aebd e734 a5bd 1cf2 523d
000001f0: 5ca7 07be 2fda 183e c03a c43d 2f60 303e
00000200: ac5d dcbd 0689 8bbd 6363 aa3d a023 d83d
00000210: 6f8f 02be afec 333d e2b9 363e 5f48 943d
00000220: c3a5 4abd 3345 c13d 4e38 03be d367 ab3c
00000230: 9f3e 2a3e ff85 903d 3d35 153e 9cce 46bd
00000240: 81fe 9d3d efb4 113e ec76 2d3e f54a dfbd
00000250: 9b34 15bc a3a3 c9bc de3b a03d 1bd6 7c3d
00000260: f3d9 d73d cb25 bc3d f5f8 febd 37c8 363e
00000270: d037 113e 0d2e 553c 7906 38be c8f3 e33c
00000280: d36e 06be 3d14 ce3c d928 ddbd dc5a 393d
00000290: 2372 19be 99c4 73bc 6eba d03d 0465 873d
000002a0: ad53 003e 4f44 de3d 0ab2 0fbe bd4a e1bd
000002b0: 06e0 30be d36e ae3d a55e e0bb 1fe2 40be
000002c0: 9f44 53bd b807 c1bd 4e1f 223d 693d 993d
000002d0: e51a 583c 69a2 8abd 9c03 45bd 84ab fc3d
000002e0: f5f4 d33d 7c6b 713d f54a 23be 55b0 5e3c
000002f0: 31df c93c 8aad fdbc 2346 20be 6327 35be
00000300: af75 9fbd 559c b63d a543 893d 3add c1bc
00000310: c9fc 98bd 2a4e 8e3d 33d2 a93d 9310 fcbd
00000320: a83c 92bd 955a 9e3d 4a30 26be 3926 21be
00000330: 7fc6 aebb db4c 823d 9abd 0fbe 24b3 93bd
00000340: 62f4 52bc 3a55 30be a5ce c9bd 2b6e eabd
00000350: aac7 fa3d 0087 f6bd a052 36ba 4d1e 923d
00000360: 556b 223e d4db 113d 1573 27bd b1cd e0bc
00000370: 90ba b4bd 2d2b 05be 7f25 93bd 6cdc 29bd
00000380: b68f 0abe c83b c7bb 2848 1a3d 33f2 ae3d
00000390: be0b 273e 2e55 fc3d d630 053e 839c 3e3e
000003a0: f5bc de3d 7063 da3d e60d 16be 0def 2d3e
000003b0: 7b2f c6bc 0584 ce3d 8e5b fbbd 394c 21be
000003c0: 3648 97bd 7c50 2bbe 4474 863d f0e5 f3bd
000003d0: a7cf 93bc c239 1f3e 4ca3 0c3d bf92 b03c
000003e0: d730 1d3c f7f7 b4bd 73e2 423d 1f91 03be
000003f0: c3f0 b0bd 20f3 083e f46c 3d3e d229 053e
-0.17758328 -0.1397427 0.13331048 0.17779057 -0.14160745 -0.18848266 -0.07710209 -0.071526095
0.008680856 -0.009600476 0.08100297 -0.19297394 -0.061976112 0.040440146 -0.14265184 0.009951689
-0.15417355 0.13880521 -0.011582664 0.16245013 0.18770278 -0.072275005 -0.013879837 -0.13316663
0.08525303 0.13312034 -0.019146 -0.116474435 -0.14429016 -0.032517146 -0.06408612 -0.18130374
-0.12639682 -0.11390322 0.09917652 0.14316899 0.018016 0.015200978 0.1525657 0.06910292
0.101411015 -0.11082499 -0.09159962 0.046696164 -0.09454256 -0.15542483 -0.13309608 0.08807163
-0.0135834245 -0.023099244 0.12093893 -0.09953362 0.048546016 0.18588789 0.052032087 -0.10203945
0.10253659 -0.1074771 -0.10140832 0.07956129 -0.06847914 0.09936972 0.075215936 -0.06487554
0.078303926 0.101728976 -0.1094065 0.025524436 0.02882655 -0.073195614 -0.045995228 0.10433388
-0.09128964 0.08047145 -0.020771895 0.058039 -0.09579043 0.004000322 0.17462458 0.08848371
-0.013293784 -0.11047989 0.11107356 -0.1436853 0.04736259 0.01885694 0.113940455 -0.0669941
0.13427444 0.17029013 -0.13005373 0.09037203 -0.15274596 -0.04003774 0.13359465 0.019446569
-0.04580726 -0.0033457144 -0.110266 0.13974841 0.09193967 0.15145586 -0.14241812 0.16207677
0.07959605 0.021596119 0.15092055 0.17706038 -0.1537418 -0.1079082 -0.08460365 0.01637399
-0.10397829 0.10048178 -0.021439727 0.09021192 0.0368665 0.08953186 -0.060589515 -0.15353832
0.009214586 -0.085043006 -0.08066731 0.051500425 -0.13247436 0.1492698 0.09581518 0.17224191
-0.10760054 -0.068132445 0.08319738 0.1055367 -0.12750028 0.04392689 0.17844346 0.07240366
-0.04947449 0.09437027 -0.12814447 0.02092353 0.1662545 0.07056808 0.1457109 -0.04853688
0.077145584 0.14229177 0.16939896 -0.10902969 -0.00910678 -0.02461416 0.07823919 0.061727624
0.105396174 0.09186896 -0.124498285 0.17849813 0.14181447 0.013011468 -0.17971219 0.027826205
-0.13128214 0.025156135 -0.10798807 0.045252666 -0.14984946 -0.0148784155 0.10191809 0.06611064
0.1253192 0.108528726 -0.1403276 -0.11000583 -0.17272958 0.08517232 -0.00684722 -0.18836258
-0.051579114 -0.094253 0.039580636 0.07482416 0.013190006 -0.067692585 -0.048099145 0.123374015
0.10349456 0.058940396 -0.15946563 0.0135918455 0.024642559 -0.030966539 -0.15651755 -0.17690806
-0.07786118 0.08916537 0.06702355 -0.02366506 -0.0747009 0.06948502 0.082920454 -0.12307849
-0.071404755 0.07732121 -0.16229358 -0.15737237 -0.005333721 0.06362315 -0.14037171 -0.07211903
-0.012875648 -0.17220011 -0.098538674 -0.11446794 0.12245114 -0.12037468 -0.0006955061 0.07134686
0.15861256 0.035610035 -0.040881235 -0.027441831 -0.088246465 -0.13004752 -0.07184886 -0.041469976
-0.13531384 -0.0060801245 0.03766647 0.085422896 0.16313073 0.12320934 0.1300691 0.18614392
0.108758844 0.106634974 -0.1465374 0.16985722 -0.024192562 0.100837745 -0.12273322 -0.15751733
-0.0738682 -0.16729921 0.06565145 -0.119090915 -0.018043352 0.15549377 0.03433542 0.021554349
0.009594164 -0.08836358 0.04757924 -0.12848328 -0.08639672 0.13373995 0.18498594 0.13004234

EiLM.2.gamma_generator.weight f4 [1, 32]
00000000: 930e 283e dbc7 da3d 20f9 0ebe 0cac c1bd
00000010: dba0 323e fc7d 533e 05fe eabc c69d 093d
00000020: 270b 6fbd 579e 2abe a55f 8cbd 7dbb 4b3e
00000030: 6af1 ca3d e835 593e bc54 f03d ddb9 2b3e
00000040: 9904 9cbd 3211 e03d bea9 aebc 8245 bebd
00000050: 1165 64be 18e7 0abe bee0 03bc 6dee 27be
00000060: d854 2a3e d9f3 863d c854 843b 5004 adbd
00000070: 3eae 7a3d 1cce ba3d 3623 683e 4908 2e3c
0.1641181 0.10682651 -0.13962221 -0.094566435 0.17444174 0.20653528 -0.02868558 0.03359773
-0.058360245 -0.16661964 -0.0685418 0.1989574 0.09909327 0.2121197 0.11734912 0.1677012
-0.076180644 0.1094078 -0.021321174 -0.09290601 -0.22304179 -0.13564718 -0.008049188 -0.16399546
0.16633928 0.06589479 0.004038427 -0.08448088 0.061201327 0.091213435 0.22669682 0.0106220925

EiLM.2.beta_generator.weight f4 [32, 32]
00000000: db3a b7bd 99ba d4bd 1538 72bd f355 8a3d
00000010: b22d 233c 2164 383e 365b 033e 1bee b2bd
00000020: 1ef9 333d 0faa eabd 883b 2c3e cfbe 833c
00000030: 0fe1 c7bb c1d8 1b3e cd9b 2d3c c31a b7bd
00000040: 3738 eebd b25c b03d 8aa5 9c3d bce3 50bb
00000050: ebc5 36be 4ce8 85bb cb94 32be e1b6 1bbe
00000060: 3158 1f3d af08 aebd bf45 3dbd ff43 9dbd
00000070: 60bd 01bd 5769 0bbe d87c 103e 0159 363d
00000080: 5346 40bc a90a a43d e62b a43d ddfc 02be
00000090: a3cf 31be f78d a2bd 30cf b53c 0836 713d
000000a0: a627 ffbc 28e2 273e c5b4 853d fdf0 2dbe
000000b0: 0e41 42bd 90a4 7abd 0890 2b3c 05a0 ddbd
000000c0: 5da2 a63d 2fb1 353e 3078 2a3e c12e 053c
000000d0: 4e7e 243e 83dd 1c3e 63bd a1bd 0268 18be
000000e0: 23b0 95bc 3f72 1abe e352 c8bd 7fc5 293e
000000f0: e333 dabd a396 0a3e 22f0 efbd e147 36be
00000100: 9573 27bd b346 e53d b4c7 0b3e 7cfb b93d
00000110: 545c 0fbe 53a4 1f3e ae10 583d 12b6 dc3d
00000120: fb7d bd3d e61e 97bd 62b2 403d ace4 f43d
00000130: 0118 08bc ee50 033e 7f66 2b3e d1ed 0abe
00000140: 1d1a 15be 252c 8a3d be6f cb3d dae9 10bd
00000150: 6416 74bc ee64 f5bd df82 893d f9e3 92bd
00000160: cbc7 27be c2c3 263e 99f4 02bd 4482 13be
00000170: f4e8 823d ed9b b53c ccac 063e d78b 833c
00000180: 8113 e43c fd55 f3bc 7349 043e dd5e 673d
00000190: e26f 0d3e 3cfd ee3c 81c9 303e 1084 f53d
000001a0: fe35 c6bd 50f8 c7bd 8e41 1e3d dcee ea3d
000001b0: c187 02be 44ae 013e faa4 37bc d26f 083d
000001c0: 3e22 96bd 33bd b5bd a55a ef3d 5275 9f3c
000001d0: 7703 a73d 430a 9dbd e97c 0d3e 4a4e 253e
000001e0: f2f7 a43d ce5a 183e 3385 6bbd 9803 8c3c
000001f0: 5712 19be c115 4c3d 8a61 49bd c800 b13d
00000200: 4996 ce3d dd9a c63d 6c36 82bd e92f 01be
00000210: 1cb1 613d d1c8 b8bd 0acc 373e d4c6 0b3d
00000220: ce38 a03d 9366 a63d 626e 32be 6501 d93d
00000230: 630f 063e b205 20bd 11ce 5e3d 3c74 c23d
00000240: 6b08 ccbd 3042 c13d c4d5 02be b55b bebb
00000250: 0146 1c3e d17c 0ebd 8a45 113e 7606 a9bd
00000260: 6ad0 133e 50fe 25be 4641 04be d8be 28be
00000270: 76c0 a23d b7e6 a33d 9a11 9bbd 5aca 14be
00000280: e8f9 cbbd ff1a be3d 305c 98bd 7016 09be
00000290: 0fb5 f3bd 4151 9bbc 01b2 1d3c 1f1a 2e3e
000002a0: 60d3 033e 6cad ffba 2997 ae3d f7fd 5dbd
000002b0: 0a53 313d 524c 183e f4f7 83bc 7710 00bd
000002c0: d3cf 23be 2fe0 92bd 2146 1dbe eb47 303e
000002d0: 0a59 b13d 87ad 3bbe d358 09bd 7e66 6ebb
000002e0: d8c8 093e 7c1e 1b3e 1e0b 94bd c1f8 b7bd
000002f0: 5523 2cbe 79d0 b23d 7c2f 0abe c608 2d3e
00000300: 142b 35be 8015 9a3d 248f ec3d cf11 df3d
00000310: a377 313e d5b8 2cbd 76f8 883d 382f 143d
00000320: 8ded f2bd cc96 67bc acc5 08be 28bd 443c
00000330: e4dd 03bd 9ebf 9e3d 4ce5 e43d 2508 9abd
00000340: 8470 8e3d 57b4 c13d 2e8d 353d e068 aebd
00000350: cbf0 1c3e e06c 3abc 0c78 0a3d 3b56 853d
00000360: f6bd 14be ccf1 06bd cd9f 0dbe eb66 ba3d
00000370: 9a63 d7bd 9fb9 b13d 9c72 ecbd 1d64 3d3d
00000380: ec6e 9a3d a874 c43b fb56 b5bd efd5 43be
00000390: 29e0 e03c e40c 0f3e 904f 13be ebac b73d
000003a0: 3a8d e13d 29bc 19bd b3b2 eabd ae7b 76bc
000003b0: 1bef b1bc f40e 20bd 8d5d 32be eb87 9bbc
000003c0: 157f cdbc 2daf d23d ef1c 57bc 62c7 2cba
000003d0: 1f9d 943d 480c 993d 72ed 8dbd 464f 833d
000003e0: 292e e03d 23cd c0bd ae32 3a3d a031 cdba
000003f0: 15f3 cb3d ee5f 333d 06ca d5bd ac07 fbbc
-0.08946773 -0.10387153 -0.059135515 0.06754675 0.009959625 0.18006946 0.12827763 -0.08736821
0.04393875 -0.11458217 0.16819584 0.016082196 -0.006099827 0.15219404 0.010596228 -0.08940651
-0.11631816 0.0861143 0.076487616 -0.0031874022 -0.17848937 -0.00408653 -0.17439573 -0.15206482
0.038902465 -0.0849775 -0.046209093 -0.07678985 -0.031674743 -0.13614403 0.14110124 0.044518474
-0.011735517 0.08009846 0.080161855 -0.12791772 -0.17364363 -0.07937234 0.022193521 0.05888942
-0.031146836 0.16394866 0.0652862 -0.16986461 -0.047425322 -0.061192095 0.010471351 -0.10821537
0.08136437 0.17743371 0.1664741 0.008128823 0.16063806 0.15318875 -0.07897451 -0.14883426
-0.018272465 -0.15082644 -0.097814344 0.16579245 -0.10654428 0.13534026 -0.117157236 -0.17800857
-0.040881712 0.111951254 0.136504 0.0908117 -0.14000064 0.15590028 0.052750282 0.10776915
0.092525445 -0.0737894 0.04704512 0.11957678 -0.008306504 0.12823841 0.16738318 -0.13567282
-0.14560743 0.06746701 0.099334225 -0.03537927 -0.0148979165 -0.119821414 0.06714415 -0.071723886
-0.16384809 0.16285613 -0.031971548 -0.14405161 0.063920885 0.022169078 0.13151854 0.016057892
0.027841331 -0.029704088 0.12918644 0.056486953 0.13812211 0.029173486 0.17264368 0.119880795
-0.09678267 -0.09764159 0.038636737 0.1147134 -0.12747099 0.12664133 -0.011208767 0.033309765
-0.0733075 -0.088739775 0.11687211 0.019465122 0.08154958 -0.07667973 0.1381718 0.16143146
0.08055104 0.14878389 -0.057500076 0.017091557 -0.14948402 0.049825434 -0.049165286 0.08642727
0.10087258 0.096975066 -0.063580364 -0.12615933 0.055100545 -0.09022678 0.17948928 0.034125164
0.07823335 0.08125033 -0.1742492 0.10595969 0.13091807 -0.03906793 0.05439574 0.09494826
-0.09962543 0.094364524 -0.12776858 -0.005809272 0.1526108 -0.034787003 0.14186683 -0.082531855
0.14434972 -0.16210294 -0.12915525 -0.16479051 0.07946865 0.0800299 -0.075717166 -0.14530316
-0.09959775 0.09282493 -0.07439458 -0.13387465 -0.118997686 -0.018959643 0.009624959 0.17002152
0.12873602 -0.001950664 0.08524925 -0.054197278 0.043292083 0.14872864 -0.016109444 -0.031265702
-0.15997247 -0.07171666 -0.15358783 0.17214935 0.08659561 -0.18327914 -0.033531975 -0.0036377008
0.13455522 0.15148348 -0.07228683 -0.08982993 -0.16810353 0.08731169 -0.13494676 0.16897878
-0.17692214 0.07523632 0.115507394 0.108920686 0.17330794 -0.042168457 0.06688015 0.036177844
-0.118617155 -0.014135074 -0.13356656 0.012007989 -0.032194033 0.07751392 0.111765474 -0.07521085
0.069550544 0.09458225 0.044324093 -0.08516097 0.1532623 -0.011378497 0.033805892 0.06510588
-0.1452559 -0.03294544 -0.1383049 0.09101661 -0.10517044 0.086779825 -0.115452975 0.046238054
0.07540688 0.005995352 -0.08854481 -0.19124578 0.027450638 0.13969761 -0.1438582 0.08968528
0.11013265 -0.03753296 -0.114598654 -0.015044136 -0.02172046 -0.03907676 -0.174185 -0.01898571
-0.025085011 0.102873184 -0.013129457 -0.00065909897 0.07256531 0.074730456 -0.06930055 0.064116046
0.10946304 -0.09414127 0.04545849 -0.0015655048 0.099584736 0.043792658 -0.104389235 -0.030643307

EiLM.3.gamma_generator.weight f4 [1, 32]
00000000: 7661 9cbd 4e40 9abd d855 36bd f3f8 22be
00000010: 4e2a 43be fcce 263d af67 00be 6150 3bbe
00000020: 055a 29be d52d b4bc 073d 84bc 7c45 18be
00000030: ef3d 003e be71 b63b 31bb d43b 9f62 1fbe
00000040: 012d aabd c974 0abe 6816 f43d 972c cbbd
00000050: f944 12be 2fb3 10be 40d5 553d 1e6b f0bd
00000060: 31df c9bd 7cfe ce3c cc39 863d 869b 2a3e
00000070: b954 dbbd f1b6 c0bd 3035 0abe af9b d1bd
-0.07635777 -0.075317964 -0.04451546 -0.15915279 -0.19059107 0.04072474 -0.12539552 -0.18292381
-0.16538246 -0.02199451 -0.016142381 -0.14870256 0.12523626 0.0055677583 0.0064920415 -0.15564965
-0.08309365 -0.13521113 0.11918336 -0.09920614 -0.14284123 -0.14130853 0.052205324 -0.11739181
-0.098570235 0.025267832 0.06553993 0.1666089 -0.10709519 -0.09409893 -0.13496852 -0.102347724

EiLM.3.beta_generator.weight f4 [32, 32]
00000000: 2a38 223e fd78 2e3c 49da 05be ec68 ac3d
00000010: e015 0ebe 5c6e 253d 0d79 a63d 92e7 073d
00000020: d40f 5dbd cc8e c6bd 5b12 e33c c626 fc3d
00000030: 7880 e1bd ea6a 033e d152 003e 871e 89bd
00000040: 9d28 b33c d2d8 1fbe 1748 f03d 02f9 d7bd
00000050: 7374 18be 1738 a93d d020 443c 57d8 2abe
00000060: 9952 acbc 0cc4 17be 01da 05be 063a b03d
00000070: 6b3a 013e 6874 a2bc a1a3 d83d 9dbf 94bc
00000080: c788 a1bd a35e 013e 80cf e43d e221 173b
00000090: 9857 e5bd 74d6 803d e58a 333e fa52 923d
000000a0: 0a00 953d 4444 e43d 292c b33d b898 13bc
000000b0: ccfd 133e c124 863d bd0c 943c bc82 ddbc
000000c0: 91f8 07be 8113 303e 1351 fe3d 5bfc ce3c
000000d0: 1727 693d 6116 073e 8ca5 373d 0c7c 1abd
000000e0: eb4c 84bd 280c d93d 9832 283e dd3b 45bd
000000f0: a2f2 4a3d 616a 693d 73e6 f13d 0c74 0b3d
00000100: 1bc6 043e 59a7 be3d 0bba 16be 6b69 5c3b
00000110: 7b36 613c d235 c73d ea94 64bd e880 253e
00000120: dd0f 19be 86dc f6bd bf51 363e c724 a3ba
00000130: cf6b 97bd 62ff df3d b0ea 73bd a360 25be
00000140: 6f37 c6bd 800a 733d 014c f4bd 999b e73d
00000150: 9d55 8f3d ec26 36be 85d6 da3d 8f3a 263e
00000160: 4397 2ebe bbde b2bc c204 203e 9441 17be
00000170: 22a3 043e 2f4c 0c3e 45f9 04bd 1201 49bd
00000180: 23a1 11be 0479 38bc ad2b d1bc 31e9 b13c
00000190: 7808 043e c342 ddbd 853c 773d 9e5e b53d
000001a0: 557b 6b3b e342 3b3e a257 8ebd e8e5 ea3c
000001b0: 1259 bcbc 209c 113e e81e 0d3e 3c03 fa3d
000001c0: d157 b03d 5411 333e 3319 613d 778c 86bd
000001d0: 78cb 7dbd 19a4 3b3e 68eb 57bc 1f00 bfbc
000001e0: 6b4f e3bc 7688 a53d 3701 33be 89e1 903d
000001f0: 33bd f63d f5ec 873c d5f2 06bd 90bf e83d
00000200: 045f a23d ad51 283d 4e1d 1b3e 980c e8bd
00000210: db2c 1abb 7d7b 023e 2fd9 ea3d 6432 213d
00000220: 4928 863c 631a 94bd ccc0 b5bd 149b b9bd
00000230: 370c 473c b738 a9bd 310a 013e 4a60 043e
00000240: 43a9 93ba c048 0bbe 603c f83d d620 60bc
00000250: c2e2 30be 3b8b fabd fd7c 90bd 0016 cdbd
00000260: 387e 0b3d ae18 e5bd b8e6 183d 813e 18be
00000270: 39fc 0c3e 9c2f 153e e517 5f3d ecd2 c13d
00000280: a97e 363e bae4 1d3e 0960 303e 336c 0f3c
00000290: 236f 63bc 9ad3 2c3e 00b0 1abe 548c 5b3b
000002a0: 813e 52bd df41 2bbd 7976 8bbd 9fa7 1ebe
000002b0: a38e 2ebd fa3e 0fbe 751f febd cc5a 02be
000002c0: 2a89 0cbe 3f81 24be 380e 92bd 7149 05bd
000002d0: 7959 743d aaaf 2fbe cb2a b3bd 6260 34bc
000002e0: d7bb 303d dab7 ddbd 7c7b 093e e482 37bd
000002f0: c337 15be 76e1 363e 7f11 573d c0a1 8e3d
00000300: f813 c2bd 72d9 9abd d993 5bbd e6c7 22bd
00000310: ba3d ecbd 2430 adbb 57f5 713d 720c 273d
00000320: f27c d63c 2616 b2bd 3975 23bd bf87 063e
00000330: 5a9f 073d e370 f3bc 2418 493d 82c9 a23d
00000340: 2f3a 2abd a187 22be 52f9 22be 14f1 763d
00000350: 5ca2 17be e1b4 133e 2c01 f43d a196 94bd
00000360: 3d9a 27bd 677f e23d c242 07bc e359 883c
00000370: 6408 fe3d 1ace e9bd b37b 7b3c edf5 20be
00000380: edb1 8cbd a904 0bbe 6a90 13be f8cf 18be
00000390: 8a93 b3bb 3253 083e f52d 36bd 6e0e acbd
000003a0: e0ce 93bc 5375 9e3d cfa0 4ebd faa7 ccbd
000003b0: df51 88bc 190c 15be a07d 0ebe e797 dd3d
000003c0: 5852 2b3e 7dec e3bd 1a81 0cbe 5f60 3b3d
000003d0: f518 28be 44c5 2c3e 8885 c2bd 1c04 12bd
000003e0: da00 2fbe e762 e33d b1f9 14be 3561 3a3e
000003f0: be10 92bb cd83 efbd 1206 e63d 726f 1ebe
0.15841737 0.010648963 -0.1307155 0.0841845 -0.13875532 0.04038845 0.08128557 0.033179827
-0.053970173 -0.09695205 0.027718714 0.12312083 -0.110108316 0.12833753 0.12531592 -0.06695276
0.021869952 -0.15610054 0.117325 -0.10545541 -0.14888172 0.082626514 0.011970714 -0.1668409
-0.02103548 -0.1482088 -0.13071443 0.08604817 0.12619941 -0.019830897 0.10578085 -0.018157775
-0.07887416 0.12633757 0.1117239 0.0023060967 -0.11198348 0.06290904 0.17533453 0.07144733
0.07275398 0.11145833 0.08748657 -0.009008579 0.14452285 0.06549979 0.01807248 -0.027039878
-0.13278414 0.1719494 0.124178074 0.025266817 0.056922045 0.1319213 0.044835612 -0.037715957
-0.064599834 0.10598022 0.1642555 -0.048152793 0.0495478 0.056986216 0.11811533 0.034046218
0.12966196 0.09309263 -0.14719407 0.003363217 0.013745899 0.09727062 -0.055806078 0.16162455
-0.14947458 -0.1205378 0.17804621 -0.0012446874 -0.0739361 0.10937382 -0.059549987 -0.16150145
-0.09678542 0.059336185 -0.11928559 0.11308975 0.06998751 -0.17788285 0.106854476 0.16233276
-0.1704989 -0.021834722 0.15626815 -0.1477111 0.12952855 0.13700937 -0.032464284 -0.049073286
-0.14221625 -0.011259321 -0.025533522 0.02171764 0.12893856 -0.108037494 0.06036045 0.088559374
0.0035931666 0.18287234 -0.069503084 0.028674081 -0.02299169 0.14219713 0.13781321 0.12207648
0.086105 0.17487079 0.054955672 -0.0656976 -0.06196162 0.18324317 -0.013178684 -0.023315487
-0.02774783 0.080826685 -0.17480932 0.070742674 0.12047806 0.016592482 -0.032946426 0.11364663
0.07928279 0.041093517 0.15147898 -0.11330527 -0.002352527 0.1274242 0.11467206 0.039354697
0.016376631 -0.07231595 -0.08874664 -0.09062782 0.012148908 -0.082627706 0.12601544 0.12927356
-0.0011265654 -0.1360197 0.121208906 -0.013679704 -0.17274001 -0.12233587 -0.070550896 -0.10013962
0.03405592 -0.11186348 0.037329406 -0.14867593 0.1376809 0.14568943 0.054466147 0.09464058
0.17821755 0.15419284 0.17224135 0.008753824 -0.0138814775 0.16877595 -0.15106201 0.003350039
-0.05132914 -0.041810866 -0.06809706 -0.1549363 -0.042616498 -0.13988867 -0.12408344 -0.12729949
-0.13724199 -0.16064928 -0.07131618 -0.032540742 0.05965564 -0.17156854 -0.087483965 -0.011009308
0.043147888 -0.108260825 0.13426012 -0.04480256 -0.14572053 0.17859444 0.05250692 0.06964445
-0.09476465 -0.07561006 -0.053607795 -0.03974142 -0.11535211 -0.00528528 0.059071865 0.040783353
0.026182625 -0.08695631 -0.039906714 0.1313772 0.033110954 -0.029716915 0.049095288 0.07948591
-0.041559394 -0.15872051 -0.1591542 0.060288504 -0.14808029 0.14424469 0.11914286 -0.07255293
-0.040918577 0.11059456 -0.008255662 0.016644424 0.12403944 -0.11416264 0.015349316 -0.15718813
-0.06869874 -0.13575996 -0.14410558 -0.14923084 -0.0054802345 0.13312986 -0.04447742 -0.0840119
-0.018042982 0.077372216 -0.050446328 -0.099929765 -0.016640602 -0.14555396 -0.1391511 0.10819989
0.1673063 -0.11129091 -0.13721123 0.045746204 -0.1641577 0.16872126 -0.09498125 -0.03564845
-0.17090169 0.111028485 -0.14548375 0.18201144 -0.004457562 -0.11695061 0.112316266 -0.154722

Gate.weight f4 [4, 32]
00000000: d2cc 5d3d d53e 0b3e b921 48be fb94 d03d
00000010: 253e b73d 4f6d 29be 3be6 3f3e cb7c 413d
00000020: ce3a 2ebe 49af 293e f2cd 8bbc 2118 fa3c
00000030: ab68 2abe fc7c 783d 2417 15be e1b2 eebd
00000040: ddb3 03be b258 cabd ec3f 25be 573c 1bbe
00000050: c045 853c 3de3 c03d b4e7 64bd 41c3 05be
00000060: 8fa6 06be 3c2a bbbc 46cb 093e 6c3f 88bd
00000070: 82fa b3bd d8f0 9dbd 377c 50be ed8d 383e
00000080: 5f22 f9bd 8d4b 00be 4b33 27be 2df4 a63d
00000090: f675 f3bd 0801 933d 89c2 16be d191 02bd
000000a0: 14d8 253e fe09 27bd b77c cfbd 031f a7bd
000000b0: 0c20 83bd 521e dd3b 18ef ebbb ba19 043e
000000c0: e6be 023e 1fb8 43bd 1088 2f3e 958e fbbd
000000d0: 873d 0fbc 1a4e a63c 5f07 d83d 5ffd 093e
000000e0: ab0b f93d 6842 0fbe 56a7 503e 9bf0 043e
000000f0: 6d66 3fbc c7f8 d73d 799c 83bc 0df0 2bbd
00000100: a224 09be 059a 1dbe e8da cf3d af3f 423e
00000110: d5bf afbd abad 4b3e 4c74 c03d 5857 8fbd
00000120: 1af7 e13c 1da3 0c3e 0a47 72bc 800c 3c3c
00000130: 6ae6 69bd ba05 b43d cf85 a83c 812c a03c
00000140: 569f ccba 3bde 203e 4e45 e3bd f9af 0fbe
00000150: 0c16 90bb 15ca 9cbd 4d52 26be d7af c83d
00000160: 9b67 453d b2e3 2b3e 4286 9ebd b65f 4c3e
00000170: c767 74bd b45a 04be 92a2 843c 7383 71bd
00000180: 3765 fbbd 05d8 4cbd 0622 c43d 020f 693d
00000190: 546a 493e d22e dc3d 045b 3a3d 8455 4dbd
000001a0: a037 1cbe 0ea2 10be 2435 7e3c 3061 4cbe
000001b0: 88d9 443c 4c99 f0bc 6d7a 01be 8b61 1e3e
000001c0: 62e2 3dbe abcc 9b3d 3460 10be d423 f23d
000001d0: d307 dabb 7a62 353d 0b55 1f3c 6354 e2bd
000001e0: 4b23 90bd e616 23bd 1470 913d 5b32 82bc
000001f0: 3503 debd 981a 12be ab0b 2f3e a8c9 443e
0.05415041 0.13598187 -0.19544114 0.10184666 0.089474 -0.16545604 0.1874017 0.047238152
-0.1701462 0.16570772 -0.017065976 0.030529084 -0.1664149 0.06066607 -0.14559609 -0.11655212
-0.12861581 -0.098801985 -0.16137666 -0.15159737 0.016268611 0.09418342 -0.05588503 -0.13062765
-0.13149475 -0.022847287 0.13456449 -0.06652722 -0.08788015 -0.07711953 -0.20359884 0.1802289
-0.12164759 -0.1252882 -0.1632816 0.081520416 -0.11887734 0.07177931 -0.14722647 -0.031877343
0.16195709 -0.040781014 -0.10131209 -0.08160212 -0.06402597 0.006747999 -0.007200133 0.12900439
0.12768134 -0.047783013 0.17141747 -0.12283055 -0.008742697 0.020300914 0.10548281 0.1347556
0.121604286 -0.13990176 0.20376334 0.12982409 -0.011682135 0.105454974 -0.016065823 -0.041976977
-0.1339288 -0.15390785 0.10149175 0.18969606 -0.08581511 0.19890468 0.09397182 -0.069990814
0.027583648 0.13734098 -0.014787445 0.01147759 -0.057104506 0.08790155 0.020571617 0.019552471
-0.0015611451 0.15709774 -0.11097203 -0.14031972 -0.0043971594 -0.076557316 -0.16242333 0.09799164
0.04819451 0.16786078 -0.077404514 0.19958386 -0.059669282 -0.12925225 0.0161908 -0.05896325
-0.122751646 -0.0500107 0.09576802 0.05689908 0.19669467 0.10751118 0.045496956 -0.050130382
-0.15255594 -0.14124319 0.015515599 -0.19958949 0.012014754 -0.029369973 -0.12644358 0.15466897
-0.1854339 0.07607397 -0.14099199 0.1182324 -0.0066537648 0.044283368 0.009724866 -0.11051252
-0.070379816 -0.03981676 0.07101455 -0.015893152 -0.108404554 -0.14267957 0.17094295 0.19217551

experts.0.gate_proj.weight f4 [32, 32]
00000000: 87e9 8ebd dc84 243e 4f42 123e 0d0f 1ebd
00000010: ecc8 f53d ed12 423e 217a 09be f338 c6bd
00000020: e669 f03d f7d0 83bd 1132 893c 4bea cbbd
00000030: 4504 15bd c599 91bb dec0 53bd 8495 773d
00000040: 90bd bd3d f5b7 df3d b068 dabd 54ce 41be
00000050: 2537 803c 8446 4abe f849 cebd 1b4c cdbb
00000060: 2a1e b3bd 53ed d1bd 6172 fe3d 19e7 cc3d
00000070: 0271 ae3d b6a6 bbbd c30d 10be d38d 0d3d
00000080: 40da 2d3e 8966 adbd a520 99bd e032 ba3d
00000090: 3b19 4abe 2a56 0dbe 9a5f 62bb dd39 47be
000000a0: 2ea9 8cbd b910 3ebd 8b26 a03d 694d bc3d
000000b0: ac3b fabd 99ee 3dbe 63ed 35bc 40a4 c2bd
000000c0: f131 233e 3e80 4ebd 24f1 9f3c 23e5 87bd
000000d0: 78d8 9abd 0c90 c9bd 00bc 8cbd 71a8 36be
000000e0: 1f6f baba 9260 a1bd 851d 74bd 05cc 6cbd
000000f0: e276 e2bd 6125 6ebd 7099 b43d 149e a23d
00000100: 6bef 193e ceec 91bd 7b60 a63d 0e36 693d
00000110: 615b 85bd e612 563d 132c 52bd 6a67 d23c
00000120: 4540 29bd b224 21bd f9d0 2dbd 2c3f fdbd
00000130: 5120 623d 2c88 87bb 2aa6 2b3e 6574 323e
00000140: 4e7d 65bd c1c5 2fbd 3ab7 de3d a1e5 a23c
00000150: f1b6 6bbd 442b 30be 7f48 cbbd d5d2 fe3c
00000160: 8deb 103e b9ab 193e 045f 95bc dc48 1fbe
00000170: ea31 92bd f326 293e 9e4f 233e 4252 303e
00000180: 46ff 983d 81c1 22be 6f4e b23c 0489 17bb
00000190: c868 693c 7216 3ebe b426 9bbc 7072 33be
000001a0: e0e1 683b cee4 01be f419 363e 1ea5 2ebe
000001b0: be43 d53c d14d d13d ca4a 863d 83ed 31be
000001c0: c078 9e3d 6b8b 053e daa8 b3bb a081 a23d
000001d0: ae28 b13d fed7 d63d 6bfc 133e e611 f83d
000001e0: ba15 4bbe 82fb 63bd b250 0b3d 1ad1 8ebd
000001f0: 0fda 0abe c880 b3bd de6f c63d b20b 383d
00000200: 2ccb 113e 5b51 90bd ee02 00be 2f91 68bd
00000210: 8005 f83a d140 ebbd 00d6 0abe fbf8 aabd
00000220: 502a 453e 620a 4dbe cc56 e8bd 632f 1dbd
00000230: c941 8fbd d6f1 873d 1fd2 19bd 210d 21be
00000240: 5328 b23d de9b 9d3b ebc5 54bd aaaf 75bd
00000250: c136 ffbd b8d7 033e 19df 4f3e a873 0d3e
00000260: 0c2f dc3d 3771 1a3d 8c0d 023e b09e 0a3e
00000270: daaf 09be 47ed af3d b61b b43d ec5c 823d
00000280: d3b4 d53c e071 593c 1a16 25bd 05af b5bd
00000290: bf75 3d3d de68 d8bd 6710 4cbc 1250 fd3d
000002a0: c26a 143e 8b6f d2bd 0f4a d83d 40a6 a7bd
000002b0: acdd 053e d22c f53d e7fd 26be da46 033e
000002c0: ddd4 183e 6077 05be 7b9c 1cbd 29fc fbbc
000002d0: 1284 b03d 6308 503d a719 e2bd 9c18 51bd
000002e0: 4e6d 093e 3cfa 3e3e d5b0 e63d a38c 15be
000002f0: 0501 1cbe b62e 843d de87 33bd d173 fb3d
00000300: af58 f33d 3df5 313e deee 55bd 29ff 8f3c
00000310: 214e fe3d 90a0 533c bae1 86bd c522 c0bc
00000320: 555e 09bd 3e92 de3b d9ab 90bc f0b2 00bd
00000330: e02b e4bc 6a15 23be 5552 03bd 32a2 9b3c
00000340: fec4 d73d 33a0 ad3d 06fc 623c be3b 973d
00000350: f395 1f3e aa12 2c3e f34a 1abe d5c8 643b
00000360: 6a9f 1f3e 4825 893d be8c a63d 63e7 d2bd
00000370: 57c7 bcbc 7fd2 cc3d 69d2 6a3d 358e 25be
00000380: 9621 23be ef1d 913d a5e9 12be a06c 25be
00000390: 09c0 ccbd 1751 7dbd 2812 bebc d3eb 00be
000003a0: 13aa 163d ea59 48bd f8a8 0f3e 0066 15bd
000003b0: 031f b43d 29f3 043e 11be 38be ebf3 ffbd
000003c0: 8940 513d 4d79 fd3d 9bb9 393d 15be 33be
000003d0: 3075 cbbc ef01 ccbc 9286 9b3d e993 743d
000003e0: 6405 993d 4f5c 4b3e 5979 d4bd f578 af3d
000003f0: ee4d 4cbe ced3 323e 4d1c dc3d 48f6 0e3d
-0.069781356 0.16066307 0.14283107 -0.038588572 0.120012134 0.18952532 -0.13425495 -0.09678831
0.117389485 -0.06436341 0.016747506 -0.09956797 -0.036381025 -0.0044433796 -0.051697604 0.060445324
0.09264672 0.10923759 -0.10664499 -0.18926364 0.015651295 -0.19753462 -0.10072702 -0.006265176
-0.08745988 -0.10250344 0.1242416 0.10005016 0.08517648 -0.09162657 -0.1406775 0.034559082
0.16977787 -0.08466823 -0.074769296 0.09091735 -0.19736187 -0.138024 -0.0034541846 -0.19455667
-0.06868206 -0.046402667 0.078198515 0.09194452 -0.12218413 -0.18548049 -0.011103961 -0.095039845
0.1593702 -0.05041527 0.019524164 -0.06635501 -0.075608194 -0.09841928 -0.06871796 -0.17837693
-0.001422379 -0.078797475 -0.059598465 -0.057811756 -0.11057831 -0.058141116 0.088183284 0.07940307
0.15032737 -0.07125245 0.08123871 0.056936316 -0.0651157 0.052264117 -0.051311564 0.025684077
-0.041321058 -0.039341636 -0.04243562 -0.12365565 0.0552066 -0.004136106 0.16762605 0.17427213
-0.056027703 -0.042913202 0.108747914 0.019884886 -0.057547513 -0.17204005 -0.09925937 0.031106392
0.14152355 0.15006913 -0.018233784 -0.15555137 -0.071384266 0.16518764 0.1594834 0.17218879
0.074705645 -0.15894128 0.021765916 -0.002312244 0.014246173 -0.1856325 -0.018939354 -0.17524123
0.0035535023 -0.12684938 0.17783338 -0.17055175 0.026033279 0.102199204 0.06557234 -0.1737576
0.07737875 0.13041465 -0.005482775 0.0793488 0.08650337 0.10490416 0.14451759 0.12112789
-0.19832507 -0.05565978 0.034012504 -0.06973477 -0.13559745 -0.087647974 0.09689306 0.04493303
0.1423766 -0.07046767 -0.12501118 -0.056779083 0.0018922538 -0.11486972 -0.13558197 -0.083482705
0.19254422 -0.20023492 -0.1134468 -0.03837527 -0.069949694 0.066379234 -0.037553903 -0.15727665
0.086990975 0.0048098406 -0.05194656 -0.05998198 -0.12461615 0.12875259 0.20299949 0.1381365
0.10751161 0.037705626 0.1270048 0.13537097 -0.13445988 0.08590179 0.08794348 0.0636538
0.0260872 0.013271779 -0.04030428 -0.08871273 0.04625487 -0.10566877 -0.0124550825 0.12368788
0.1449385 -0.102751814 0.105610006 -0.081860065 0.13072842 0.119714394 -0.16307794 0.12819996
0.14924951 -0.13033819 -0.03823517 -0.030759888 0.086189404 0.05078925 -0.11040049 -0.05104886
0.13420603 0.18650144 0.11264197 -0.1460443 -0.15234764 0.06454222 -0.043830745 0.122779496
0.118821494 0.17378707 -0.052229755 0.017577725 0.12417246 0.012916699 -0.06586023 -0.02345408
-0.033537228 0.006792336 -0.017660068 -0.031420648 -0.027852952 -0.15926138 -0.03206094 0.01899824
0.1053562 0.08477821 0.013854032 0.07384442 0.15584545 0.16803995 -0.15067653 0.0034909744
0.15588155 0.06696564 0.08132313 -0.1029804 -0.023044271 0.100010864 0.05732957 -0.16167529
-0.15930781 0.070857875 -0.14346941 -0.16154718 -0.09997565 -0.06184491 -0.023202017 -0.1258996
0.03678329 -0.048913874 0.140293 -0.036474228 0.087949775 0.12983383 -0.18041255 -0.124976955
0.051086936 0.12376652 0.045343023 -0.1755298 -0.024836153 -0.024903266 0.075940266 0.05971137
0.07471731 0.19859432 -0.10374708 0.085679926 -0.19951603 0.1746361 0.107475854 0.03490284

experts.0.up_proj.weight f4 [32, 32]
00000000: c956 96ba 6e71 0cbd c555 933d d1b8 82bc
00000010: 3ac4 1ebe 3d89 9d3d 8719 0d3e afb0 4fbe
00000020: 2502 8a3c 29ce 08be 5d37 4b3d ca25 a6bd
00000030: cef9 7abd 5c63 fcbd 406d bdbc 74fe 073e
00000040: e529 ed3d fa18 11be 7817 fbbc 5402 823d
00000050: 5c42 e73d b1ce 6abd e550 34be c7a9 003d
00000060: 7abd 25be ebf4 85bd 77b2 d3bd 92a3 47be
00000070: c6cf 083e 5f89 98bd 7513 c63d e649 163e
00000080: 9ec4 f73d 6172 9f3d 0612 f73d cd22 82bc
00000090: bf80 34be f09b f93d b4d6 fdbd 249f 4cbd
000000a0: 89ab 47be 3daf 7bbd 3c9f 0a3e 09e8 1f3e
000000b0: 41d1 9bbd aeec 54bb bea2 c53d 7464 fabc
000000c0: 53c1 1b3e d3bd 4fbe 7e30 ed3d 67ef c73d
000000d0: 3bf0 3dbe b233 973d 5dfd c83d 6333 a0bc
000000e0: 2c0c e1bc 1bc3 e23c 3e40 04be ce8b 3cbd
000000f0: c3c1 c3bc cf91 abbc e6b2 b3bd 738e 1fbe
00000100: e95c 303d d0fe 2b3e 41dd 7a3d 21fa 143d
00000110: 72a8 3f3e 9a8d 233e 65b6 3bbe f2dc d0bd
00000120: b749 013e 95e2 0bbe 8fbb e03d edd0 acbc
00000130: e4dd 943d 4b0b 013d 828e 013e 32c4 593d
00000140: 166b fcbc acaf 20be 16e3 b0bd 0fef 08bd
00000150: 721a 803d e06b a7bd d1e9 14be e1bf 803d
00000160: ca13 10bb 87f5 483d 9dfc da3d 5ad4 a63d
00000170: dd7b 0a3e 6560 89bd 43bf 0f3e 2ff8 04be
00000180: 027c 30be 4843 f53d 2087 953d c4b1 efbd
00000190: 161a 1f3e a831 473d 0e5e c93d 1839 bc3c
000001a0: c4b1 8bbd 87dd ea3d 1d57 0e3c 4ec1 95bd
000001b0: 8831 d4bd c1ea fdbd be0e ca3d ce78 b6bd
000001c0: 19c9 a73d 4d85 1a3e ac02 2e3e 9eab 26bc
000001d0: 7d28 9fbd e896 013e b111 373c 84a8 bfbd
000001e0: df8d 7bbd 495c 6dbd 8f7d 06be 82d6 1c3e
000001f0: 0870 cb3d 3feb eb3c f36a 4b3d 6fcd 03bc
00000200: 5e62 dd3d 667c 2a3e 9893 86bd 9dce e83d
00000210: 4480 eebd 155f dcbd 7f4c 833d 7f21 bc3c
00000220: 4375 9e3d d47c b63d cc1f 1abd 2304 86bd
00000230: fd52 433e b9cd 353e f827 bd3d f05f e63d
00000240: 8cb8 203d ace1 e23d 844a 173e 6b80 3e3d
00000250: 0a60 83bd 3793 d23d 2773 19be 962c 453b
00000260: 6f7b 92bd 528f 65bd 9b99 30be 9957 063d
00000270: bc5c 2cbb 8081 073e d812 f93d 4d23 12bd
00000280: 37eb 5d3c 7e0a 893d 7e31 0a3e 7106 34be
00000290: c03a c8bd ad3e 07be b425 f1bd dcfc 66bd
000002a0: 29b6 25bd 35fc 34be d6b8 5dbd c3b7 d6b8
000002b0: 70d0 b03d 31bb c7bd 4a28 81bd 8bb7 8ebd
000002c0: bd5b e33d 2fbf b93d c910 2b3e c054 17be
000002d0: db58 673b 91d4 ee3d b7bf f5bc 9d81 8dbd
000002e0: 1a98 eb3d 20d5 d63c 1e26 0f3e 2a6b 243e
000002f0: dc59 acbb f85b 973d 71ce 1e3d 23ac 0b3e
00000300: 1a9a ea3c fc95 09be 5f5b 03bd 90f6 ecbc
00000310: 2f82 a53c 4328 a93c af24 9c3d 80ce b7bd
00000320: 0686 0f3e cf22 f73d ed96 d2ba c6c4 8abc
00000330: adee 13bd f71c 143e 9948 b5bd 69f4 163e
00000340: 485b 58bb 0eeb 7b3d f2e8 1d3e d8d8 2e3e
00000350: cf75 ca3d 02f9 2ebe cb49 b73d d835 9d3d
00000360: 3d81 fbbd c1fd 7c3c 7c44 483d a16a b93d
00000370: 3637 2bbe 63f4 1e3e 872a 1cbe 2344 4cbd
00000380: 6cfe c73d 2c50 04bb ae6f cf3d 2a40 d5bd
00000390: b1a5 bbbc b01d 18be f78d 803c 3114 ca3d
000003a0: 56c1 2b3d abe5 8b3d dbd4 203c a29d 1d3e
000003b0: c703 0cbd 9bef 11be e367 ea3c aeee dc3c
000003c0: 1234 c6bd e1fc 873d 8881 b3bd de70 1e3e
000003d0: 56f6 853d aadb 42bd 282e 063e a3e7 e23d
000003e0: abd3 0fbe c2dd 053e 4ca6 c93c 3da5 d4bb
000003f0: d256 bdbd 16f8 adbc 2ccd e1bd 25d0 f4bd
-0.0011469956 -0.034287862 0.071940936 -0.015957268 -0.15504542 0.07692192 0.13779269 -0.20282243
0.016846726 -0.13359894 0.049613345 -0.081126764 -0.06127339 -0.12323639 -0.023123384 0.1328066
0.115802564 -0.14169684 -0.03065084 0.063481 0.11291954 -0.057326023 -0.17608984 0.031411912
-0.16185561 -0.06540855 -0.10336774 -0.19495991 0.1336051 -0.074480765 0.0967168 0.14676628
0.120980486 0.07785488 0.120639846 -0.015885735 -0.17627238 0.12187946 -0.12394467 -0.049956456
-0.19499029 -0.061446417 0.13537306 0.15615858 -0.076082714 -0.0032489705 0.09650181 -0.030565478
0.15210466 -0.20287256 0.11581515 0.09762459 -0.18548672 0.07382907 0.0981395 -0.019555753
-0.027471624 0.027680924 -0.12915131 -0.046031766 -0.023896104 -0.02094355 -0.087743565 -0.15581684
0.043057356 0.16796422 0.06124616 0.036371354 0.187166 0.15971985 -0.18331297 -0.10198392
0.12625776 -0.13660653 0.10973274 -0.021095717 0.07268885 0.03150491 0.12652019 0.053165622
-0.030812781 -0.15692014 -0.08637063 -0.03343111 0.06255044 -0.081748724 -0.14542319 0.06286598
-0.0021984451 0.049062278 0.106927134 0.081459716 0.13523813 -0.06707839 0.14037804 -0.129853
-0.17234805 0.119757235 0.07301164 -0.11703828 0.15537295 0.04863134 0.09832393 0.022976443
-0.068210155 0.11468034 0.008687762 -0.073122606 -0.1036101 -0.123982914 0.09866093 -0.089097604
0.08192653 0.15089913 0.16993207 -0.010172753 -0.077713944 0.12655222 0.011173652 -0.09358314
-0.061414596 -0.057949338 -0.13133834 0.15316203 0.09933478 0.028798698 0.04966254 -0.008044585
0.10809778 0.16649017 -0.0657112 0.11367533 -0.116455585 -0.10760323 0.06411075 0.022965191
0.0773721 0.08910528 -0.03762798 -0.06543758 0.19074626 0.17754258 0.09236139 0.112487674
0.039238498 0.110782 0.14774519 0.046509188 -0.06414802 0.10281985 -0.14985333 0.003008639
-0.07152449 -0.056044884 -0.17246096 0.032798383 -0.0026300391 0.13232994 0.12161797 -0.035678197
0.013544849 0.06691454 0.13495442 -0.17580582 -0.09776831 -0.13207503 -0.117747694 -0.05639349
-0.040456925 -0.17674334 -0.05413135 -0.000102385435 0.08633506 -0.09752501 -0.06306513 -0.06968602
0.11101482 0.090696685 0.16705622 -0.14778423 0.0035300765 0.116616376 -0.029998643 -0.069094874
0.115036204 0.026224673 0.13979384 0.16056505 -0.0052597355 0.073905885 0.038771097 0.13639884
0.028637934 -0.13436121 -0.03206956 -0.028926164 0.020203678 0.020649081 0.07624184 -0.089749336
0.1401597 0.12067186 -0.0016066708 -0.016939532 -0.03611629 0.14464174 -0.088517375 0.14741673
-0.0033013392 0.061503462 0.15420893 0.17074907 0.098857515 -0.17087176 0.08949622 0.076762855
-0.122805096 0.015441359 0.048893437 0.09053541 -0.1672028 0.15522914 -0.15250598 -0.049869668
0.09765324 -0.0020189388 0.10128723 -0.10412629 -0.022906156 -0.14855075 0.015692694 0.098671325
0.041932426 0.06830915 0.009816374 0.15392163 -0.03418329 -0.14251558 0.02861399 0.02696928
-0.096779004 0.0664003 -0.087649405 0.15472743 0.065411255 -0.04757277 0.13103545 0.110793374
-0.14045589 0.13072875 0.02461543 -0.0064894245 -0.09245075 -0.02123646 -0.110254616 -0.11953763
